Checkpoint/dict_12.pth (torch, 108787 bytes, 64 tensors)

encoder.cls_token f4 [1, 1, 16]
-0.6334096 0.08463924 0.09920998 0.32977015 -0.24841098 1.378716 0.879154 1.518172
1.5277731 1.2638762 1.1620451 0.62762755 -0.7825 -0.21413413 0.032899782 0.75687337
00000000: 2227 22bf 5657 ad3d 9a2e cb3d a2d7 a83e
00000010: 735f 7ebe c479 b03f 3d10 613f 7653 c23f
00000020: 128e c33f b2c6 a13f e5bd 943f 33ac 203f
00000030: ec51 48bf fa45 5bbe ecc1 063d 74c2 413f

encoder.patch_embed.weight f4 [16, 5]
-0.48416853 0.07942072 0.18547864 -0.03328553 0.3944164 -0.24029435 -0.19942008 0.06595155
0.5003756 0.16318306 0.24396129 -0.36482707 -0.008399407 0.5498967 0.04409804 0.43352273
-0.6720675 -0.38513362 -0.46508348 -0.24539168 0.040024426 0.07909555 0.5072376 -0.14808382
0.6656713 -0.35454932 0.5736327 -0.26147696 0.38521627 0.65296507 -0.2483619 0.3836179
-0.17312513 -0.22319224 -0.6047542 -0.43761548 0.13589883 -0.31452748 0.18786187 -0.58523816
0.10523768 0.5450581 -0.15685782 -0.33475578 -0.17731617 0.28275794 0.004750451 0.31695995
0.4512948 0.304865 -0.4342175 0.41720515 -0.10050154 -0.4144007 -0.10024907 -0.48859718
-0.0064132055 0.06241504 0.43410712 0.3417959 -0.32419115 -0.73671615 0.23352824 -0.2012727
-0.37955484 0.29420218 0.45038453 -0.13730508 -0.36598426 0.5352314 0.04036181 0.6099397
0.4524993 0.4079012 -0.47701445 0.30473796 0.38536882 -0.16263522 0.107753746 -0.25750354
00000000: f0e4 f7be 55a7 a23d 1dee 3d3e 6856 08bd
00000010: f2f0 c93e b90f 76be c734 4cbe 9b11 873d
00000020: 9e18 003f 7619 273e fdd0 793e 9dca babe
00000030: ab9d 09bc 08c6 0c3f 25a0 343d b1f6 dd3e
00000040: 9e0c 2cbf 3c30 c5be 6c1f eebe f547 7bbe
00000050: a7f0 233d d9fc a13d 53da 013f 49a3 17be
00000060: 6f69 2a3f 7d87 b5be 98d9 123f 4fe0 85be
00000070: 113b c53e b828 273f 9552 7ebe 9169 c43e
00000080: b747 31be 828c 64be 2cd1 1abf 230f e0be
00000090: 1029 0b3e bf09 a1be dd5e 403e 2bd2 15bf
000000a0: da86 d73d ed88 0b3f 569f 20be 1c65 abbe
000000b0: 5f92 35be a6c5 903e aca9 9b3b 9348 a23e
000000c0: 1d10 e73e 4417 9c3e c251 debe ea9b d53e
000000d0: c0d3 cdbd 542c d4be 624f cdbd 6929 fabe
000000e0: de25 d2bb eaa6 7f3d 4a43 de3e dfff ae3e
000000f0: 62fc a5be 6e99 3cbf 0722 6f3e 6e1a 4ebe
00000100: 0355 c2be aba1 963e cd98 e63e b499 0cbe
00000110: 4a62 bbbe ed04 093f 6d52 253d 0225 1c3f
00000120: fdad e73e 6dd8 d03e 3d3b f4be 9d06 9c3e
00000130: 104f c53e d989 26be ffad dc3d 81d7 83be

encoder.patch_embed.bias f4 [16]
0.048313163 0.0018522916 -0.01030763 -0.10936008 0.12171336 0.033277284 -0.0022439607 -0.12154493
0.0066855387 0.104531504 0.14225501 -0.08493225 -0.088096246 -0.02415103 0.10788526 -0.10840859
00000000: 06e4 453d 98c8 f23a 55e1 28bc 2df8 dfbd
00000010: db44 f93d c34d 083d 6a0f 13bb 8cec f8bd
00000020: 5d12 db3b 9d14 d63d 4cab 113e f6f0 adbd
00000030: ce6b b4bd 62d8 c5bc f2f2 dc3d 5305 debd

encoder.blocks.0.norm1.weight f4 [16]
1.0035386 1.1889277 1.09621 1.1229439 1.0659043 1.1200942 1.079397 0.98613214
1.0304046 1.0731071 0.93655545 0.8906253 1.066464 1.016423 0.98925495 0.94933456
00000000: f473 803f c82e 983f 9c50 8c3f a0bc 8f3f
00000010: 8d6f 883f 3f5f 8f3f ae29 8a3f 2873 7c3f
00000020: 4ce4 833f 935b 893f 19c2 6f3f 0500 643f
00000030: e481 883f 261a 823f d03f 7d3f 9707 733f

encoder.blocks.0.norm1.bias f4 [16]
-0.029235628 -0.045634095 0.008791548 -0.008746707 0.024151143 0.114172034 -0.054232102 -0.060584985
-0.0042926096 -0.022323243 0.061538592 0.037496753 -0.13690689 0.056886453 -0.06008577 -0.03832888
00000000: 8e7f efbc d1ea 3abd 6d0a 103c 594e 0fbc
00000010: 9ed8 c53c 07d3 e93d 7b22 5ebd f627 78bd
00000020: 05a9 8cbb 3cdf b6bc e40f 7c3d 3296 193d
00000030: 5231 0cbe c501 693d 7f1c 76bd befe 1cbd

encoder.blocks.0.attn.qkv.weight f4 [48, 16]
0.41044974 0.24785769 0.12739512 0.1948214 0.3202039 -0.28304023 -0.039309744 0.18608877
-0.1327995 -0.038411014 0.35769987 0.17176723 0.39601657 -0.4722378 0.22654547 -0.021727363
-0.1995044 -0.17787755 -0.001318674 0.16573894 -0.18329628 -0.13625479 0.065348916 0.079924755
0.47479662 -0.56687486 0.096538976 0.11882034 -0.2669616 -0.04521537 -0.2209057 -0.21334541
-0.15734625 0.27745482 -0.020525206 -0.03854936 -0.4734268 0.48128712 -0.38239312 0.31973428
-0.31239823 -0.33960566 0.105200574 -0.022526355 -0.25676054 0.38502872 -0.25498843 -0.00553655
0.13309133 -0.0021749623 -0.23836423 -0.04713311 -0.33955693 0.25207442 0.20455468 -0.1142985
-0.19429658 0.23934011 0.027193792 -0.16996336 0.051297512 0.0853983 0.14605488 0.32718405
0.2765115 0.35360444 -0.00022360236 0.19828372 -0.20704187 0.23692483 0.22585718 -0.05071672
0.06868376 0.21053226 0.104122974 0.2670988 -0.07765827 -0.29274437 0.27626243 -0.23993708
-0.28716058 -0.113203995 -0.07068121 -0.09266753 -0.06392742 0.033493653 0.03686634 0.03360801
0.46715713 -0.20221625 -0.078280225 -0.26178253 -0.096914805 0.039295867 -0.33556348 0.08769827
0.13362128 0.50258964 -0.24630736 -0.48398826 0.18171163 -0.016658472 0.21733458 0.17861214
-0.22193699 0.15811509 0.4278229 -0.37039226 0.09661461 -0.42541757 0.26792604 -0.22326572
-0.29872155 0.1395623 -0.09201912 0.25569624 0.12649713 -0.16037425 0.253433 0.07165126
0.27838004 0.105459675 -0.31420884 0.29197767 -0.35211217 -0.08219788 -0.061708834 -0.086554274
0.09176309 -0.07978481 -0.00604655 -0.18623564 0.14228268 -0.0070598656 0.38719887 0.056470964
0.42673472 0.22845195 -0.05121807 -0.20882358 0.15215166 -0.3979328 0.30157632 -0.21331976
0.06486484 0.123966314 0.12834232 -0.10477851 0.13970046 0.2962391 -0.13403088 -0.28478482
0.10043352 0.049172133 -0.038133048 0.09851338 -0.27516627 -0.10418337 0.1170803 -0.15997267
0.14128515 -0.30686936 -0.047702402 0.059637073 -0.12801476 0.035263203 0.22697444 -0.017891085
0.31443328 0.10773862 0.09019482 0.10901793 0.16443335 -0.0029592018 -0.2563186 -0.35064572
-0.13226242 0.2491923 -0.23736337 0.020545876 0.08762419 -0.29980975 -0.10949089 0.24792768
-0.1311375 -0.14003238 0.21732266 -0.054211 0.16925476 0.1760986 -0.24386616 -0.33200988
-0.21491554 -0.5010175 0.21706244 0.09175259 -0.30730578 0.24835236 0.17226143 0.25205314
0.21450993 0.13774596 -0.24141078 0.21177272 -0.35961762 0.11996613 -0.12801425 0.27508524
-0.44654244 -0.3531149 -0.13090926 0.21120407 -0.1132932 0.05561205 -0.34057522 -0.13699476
0.13452683 0.22709098 -0.15183598 0.2836504 -0.17379768 -0.18433374 0.047108985 0.21417452
-0.29278338 0.011473691 0.17514057 0.3671411 -0.23072724 0.40122584 -0.32375708 0.016797403
-0.32280418 -0.3529448 0.18518472 0.13580798 0.12575218 0.19716167 -0.11842152 0.12915209
0.396728 0.2940396 -0.27498165 -0.31033388 0.02451759 -0.30411038 0.23568177 -0.12604582
-0.015037442 -0.12991714 -0.05864126 -0.08988296 0.39386287 -0.40009236 0.42421955 -0.43278748
00000000: 7826 d23e 68ce 7d3e de73 023e 437f 473e
00000010: c4f1 a33e a6ea 90be 4103 21bd 0e8e 3e3e
00000020: 98fc 07be de54 1dbd 7024 b73e c0e3 2f3e
00000030: afc2 ca3e 27c9 f1be 89fb 673e 95fd b1bc
00000040: e24a 4cbe 8825 36be 5bd7 acba 78b7 293e
00000050: 05b2 3bbe 6086 0bbe a7d5 853d 97af a33d
00000060: 8b18 f33e b61e 11bf 3ab6 c53d 1458 f33d
00000070: 31af 88be c033 39bd 1b35 62be 3877 5abe
00000080: 601f 21be 8f0e 8e3e 7a24 a8bc efe5 1dbd
00000090: ff64 f2be 446b f63e 08c9 c3be 36b4 a33e
000000a0: a9f2 9fbe cbe0 adbe 6673 d73d 3189 b8bc
000000b0: 1e76 83be 7c22 c53e d88d 82be f36b b5bb
000000c0: 1849 083e d089 0ebb c115 74be a60e 41bd
000000d0: 68da adbe e60f 813e c876 513e 5515 eabd
000000e0: aff5 46be 9315 753e 84c5 de3c e00a 2ebe
000000f0: 571d 523d 4ee5 ae3d 698f 153e ab84 a73e
00000100: ea92 8d3e a40b b53e cd76 6ab9 e30a 4b3e
00000110: c902 54be 6c9c 723e 1b47 673e 56bc 4fbd
00000120: 12aa 8c3d c595 573e 6d3e d53d 2dc1 883e
00000130: 4d0b 9fbd 97e2 95be 4572 8d3e 11b2 75be
00000140: b606 93be 7fd7 e7bd 4fc1 90bd 79c8 bdbd
00000150: 61ec 82bd a430 093d 2901 173d 8da8 093d
00000160: 382f ef3e c711 4fbe 6251 a0bd 5c08 86be
00000170: 457b c6bd b4f4 203d face abbe 279b b33d
00000180: 04d4 083e b7a9 003f ff37 7cbe 4fcd f7be
00000190: 9d12 3a3e 5977 88bc f58c 5e3e 1ae6 363e
000001a0: 7343 63be ece8 213e 9a0b db3e 0ea4 bdbe
000001b0: e1dd c53d 55d0 d9be 9a2d 893e c59f 64be
000001c0: 08f2 98be 6be9 0e3e 8574 bcbd 9eea 823e
000001d0: 7788 013e 2639 24be f8c1 813e e5bd 923d
000001e0: d487 8e3e 3efb d73d fbdf a0be 197e 953e
000001f0: 0c48 b4be 5d57 a8bd 67c2 7cbd 5e43 b1bd
00000200: 49ee bb3d 3866 a3bd 2322 c6bb 8eb4 3ebe
00000210: 8db2 113e 7256 e7bb ee3e c63e 194e 673d
00000220: f97c da3e 4fef 693e 0aca 51bd d9d5 55be
00000230: a5cd 1b3e d9bd cbbe 3668 9a3e 7f70 5abe
00000240: dbd7 843d 0de2 fd3d 2b6c 033e 1e96 d6bd
00000250: a30d 0f3e a7ac 973e 643f 09be 51cf 91be
00000260: 17b0 cd3d b868 493d 6631 1cbd 62c1 c93d
00000270: 98e2 8cbe 175e d5bd ccc7 ef3d e0cf 23be
00000280: 0ead 103e fb1d 9dbe 9863 43bd 0146 743d
00000290: 4d16 03be 2670 103d fd6b 683e 5390 92bc
000002a0: 66fd a03e 11a6 dc3d 10b8 b83d cb44 df3d
000002b0: 3761 283e 2bef 41bb 313c 83be d687 b3be
000002c0: cd6f 07be 442c 7f3e 620f 73be d34f a83c
000002d0: 5074 b33d aa80 99be c23c e0bd c1e0 7d3e
000002e0: e948 06be a664 0fbe d589 5e3e 5b0c 5ebd
000002f0: 1f51 2d3e 3153 343e 0db8 79be 33fd a9be
00000300: d212 5cbe af42 00bf 9e45 5e3e c8e8 bb3d
00000310: 2f57 9dbe 1550 7e3e 4d65 303e 1c0d 813e
00000320: 7ea8 5b3e 470d 0d3e 6334 77be f3da 583e
00000330: cd1f b8be cdb0 f53d 2b16 03be f9d7 8c3e
00000340: 36a1 e4be 7acb b4be 140d 06be e145 583e
00000350: 4406 e8bd 76c9 633d e05f aebe 5b48 0cbe
00000360: 67c1 093e 8a8a 683e e47a 1bbe a03a 913e
00000370: 05f8 31be fcc1 3cbe 5af5 403d 9150 5b3e
00000380: b4e7 95be 26fc 3b3c 0d58 333e ebf9 bb3e
00000390: c343 6cbe 796d cd3e 7dc3 a5be b59a 893c
000003a0: 9746 a5be 2eb5 b4be 10a1 3d3e 3f11 0b3e
000003b0: 2ec5 003e c0e4 493e fb86 f2bd 7240 043e
000003c0: ef1f cb3e 5c8c 963e 65ca 8cbe 15e4 9ebe
000003d0: 1dd9 c83c 5bb4 9bbe 9056 713e 2812 01be
000003e0: 9a5f 76bc 0009 05be d131 70bd 8f14 b8bd
000003f0: 65a8 c93e e8d8 ccbe 4e33 d93e 5296 ddbe

encoder.blocks.0.attn.proj.weight f4 [16, 16]
0.06308911 -0.25051612 0.2418352 0.18119118 0.34319064 0.17838097 -0.38274872 0.24282923
0.47125947 -0.0059367735 0.4718668 -0.08881235 0.113460876 0.13789795 0.3168493 -0.1648614
0.01357856 -0.206717 -0.25089175 0.17425025 0.079699054 0.17873868 -0.10158399 0.12448809
-0.48593068 -0.4590212 0.13205941 0.20962158 -0.40556476 -0.14759013 0.10079674 -0.17540973
0.083683744 0.26167652 0.21194492 -0.44400498 -0.15953897 -0.36656085 0.17155899 0.048655838
0.29996604 0.09692517 -0.17445944 0.24593937 0.51258224 -0.39480907 0.12613206 0.15193996
0.23998404 0.114331804 0.3000145 -0.1770989 -0.06499776 -0.030739542 0.2623815 -0.5266393
-0.04675934 0.073252566 -0.041559424 -0.3279595 0.17660671 0.059439037 0.31353483 -0.28249565
-0.16298887 0.090235494 -0.023592291 0.32692608 -0.44358388 -0.31554484 0.33566698 0.12066258
-0.48665428 0.35032746 -0.41033253 -0.20418952 -0.018398384 0.45119414 0.36042657 -0.10973604
-0.13741073 0.18269885 -0.41065267 -0.47005758 -0.24165922 -0.20272224 -0.24505538 -0.27150553
0.43816215 -0.093672745 0.30843085 -0.4096149 0.30856636 0.39093825 -0.34449902 0.021402307
-0.07726449 0.2604008 -0.12824133 0.3710716 0.31865343 -0.158601 0.40767744 0.1974499
-0.22843401 -0.053504504 0.29419097 -0.15707685 0.20407526 -0.30741167 -0.35009617 -0.057836156
0.36109966 -0.048870407 0.34919706 0.2096247 -0.26129463 0.19708024 0.3536447 0.047566198
-0.23430826 0.07476445 -0.16576828 -0.32035226 -0.17932205 -0.35078532 -0.3901591 0.14695662
0.03135956 0.34474793 -0.05101081 0.09068759 0.4375387 -0.27455765 0.16321844 0.17236342
-0.22042713 0.14190392 -0.05487131 0.033900637 -0.11626271 0.3824441 -0.10570707 0.16971922
-0.4842289 0.15426068 0.38315505 -0.15682149 0.13033047 0.045321096 0.059226226 0.4118537
-0.1572147 0.15418556 -0.28053096 0.15838334 -0.5189237 0.4490943 -0.30580977 -0.23548976
0.43705717 -0.14621253 -0.06260089 0.34896812 -0.11326593 -0.037952077 0.45028275 -0.08587519
-0.126221 -0.06387463 0.05155212 -0.37314478 -0.4717023 0.04628169 0.4603139 0.104248814
0.14672995 0.3263541 0.30464396 -0.3298154 -0.16250429 -0.34611925 -0.074295655 -0.43424648
0.045986563 0.023341695 -0.20471059 0.20361306 0.30840325 -0.09764485 0.34160578 0.13246904
0.3368039 0.31914842 -0.3828953 -0.09326726 -0.18457404 0.1765931 0.33679947 0.25984251
-0.04019884 -0.45262194 0.35157785 0.40924254 -0.07676707 0.03254556 0.26984766 -0.27672687
0.16795632 -0.28933114 -0.17260456 -0.3694043 0.082805716 0.0477539 0.284012 0.38891557
-0.15365002 0.23899674 0.15325305 -0.0304795 0.05695203 -0.2418984 0.12303253 0.17377825
-0.49240133 0.4178209 0.26562124 -0.15093538 0.036934458 0.33612773 -0.26813865 0.44545567
0.0051579145 0.08854409 -0.2788615 -0.37486708 0.112494245 -0.41871288 0.41017982 0.064748265
-0.31666678 0.30151486 -0.4170923 0.40399447 -0.20488816 -0.32517052 0.15507343 -0.13962722
0.28803694 -0.4014696 0.12627928 -0.2805591 0.011720011 -0.22014576 -0.42386174 -0.07658358
00000000: dd34 813d a643 80be a6a3 773e 2e8a 393e
00000010: afb6 af3e 80a9 363e a4f7 c3be 3aa8 783e
00000020: ec48 f13e 4489 c2bb 8698 f13e 40e3 b5bd
00000030: 2d5e e83d 1f35 0d3e 123a a23e 6dd1 28be
00000040: 9c78 5e3c 9fad 53be e274 80be a86e 323e
00000050: 4239 a33d 4607 373e 440b d0bd 9df3 fe3d
00000060: e8cb f8be d404 ebbe 953a 073e 0aa7 563e
00000070: 2fa6 cfbe de21 17be 856e ce3d 9c9e 33be
00000080: 6262 ab3d 77fa 853e 1708 593e 9f54 e3be
00000090: 2f5e 23be ddad bbbe 29ad 2f3e 584b 473d
000000a0: 2695 993e b480 c63d 7fa5 32be 88d7 7b3e
000000b0: 9738 033f 6a24 cabe c328 013e 2696 1b3e
000000c0: 60be 753e cb26 ea3d 809b 993e 6a59 35be
000000d0: 8c1d 85bd 7ed1 fbbc de56 863e d5d1 06bf
000000e0: b986 3fbd 7105 963d 373a 2abd 4fea a7be
000000f0: 64d8 343e 5976 733d a387 a03e 45a3 90be
00000100: 8ee6 26be 63cd b83d 9f44 c1bc db62 a73e
00000110: 6d1d e3be 188f a1be 8bdc ab3e f11d f73d
00000120: c02a f9be 1f5e b33e 1b17 d2be 0f17 51be
00000130: 35b8 96bc eb02 e73e d589 b83e 4abd e0bd
00000140: 66b5 0cbe 6815 3b3e 1141 d2be 63ab f0be
00000150: 8475 77be 6b96 4fbe ccef 7abe c602 8bbe
00000160: ca56 e03e 7fd7 bfbd a6ea 9d3e 0bb9 d1be
00000170: 69fc 9d3e 0f29 c83e 2d62 b0be e453 af3c
00000180: d83c 9ebd 4153 853e b251 03be 19fd bd3e
00000190: 8b26 a33e 4d68 22be 19bb d03e 4e30 4a3e
000001a0: 9bea 69be 8a27 5bbd 33a0 963e c1d8 20be
000001b0: 1bf9 503e 1065 9dbe ce3f b3be 9be5 6cbd
000001c0: 0ee2 b83e 562c 48bd f5c9 b23e dba7 563e
000001d0: 69c8 85be 67cf 493e eb10 b53e c6d4 423d
000001e0: 81ee 6fbe 1b1e 993d 29bf 29be 3605 a4be
000001f0: 33a0 37be 229a b3be efc2 c7be cc7b 163e
00000200: e272 003d cd82 b03e b6f0 50bd 6aba b93d
00000210: 1305 e03e d292 8cbe bc22 273e 0980 303e
00000220: a6b7 61be 434f 113e bdc0 60bd 65db 0a3d
00000230: 251b eebd b7cf c33e f37c d8bd e0ca 2d3e
00000240: daec f7be 83f6 1d3e e62c c43e d095 20be
00000250: 5a75 053e 9da2 393d 3397 723d 7dde d23e
00000260: e4fc 20be d2e2 1d3e c1a1 8fbe 3e2f 223e
00000270: 2fd8 04bf b0ef e53e 1993 9cbe 3a24 71be
00000280: f5c5 df3e bdb8 15be e534 80bd f3ab b23e
00000290: f8f7 e7bd a373 1bbd 768b e63e 55df afbd
000002a0: 1440 01be b4d0 82bd 5128 533d d50c bfbe
000002b0: f782 f1be df91 3d3d 43ae eb3e 6780 d53d
000002c0: 6040 163e e217 a73e 4bfa 9b3e 90dd a8be
000002d0: 8667 26be 8b36 b1be 5228 98bd 8e55 debe
000002e0: 685c 3c3d 1537 bf3c a79f 51be f17f 503e
000002f0: 08e7 9d3e 06fa c7bd f4e6 ae3e f7a5 073e
00000300: 9071 ac3e 6c67 a33e da0a c4be e802 bfbd
00000310: fa00 3dbe d2d4 343e fb70 ac3e 140a 853e
00000320: 8aa7 24bd 10be e7be 0302 b43e 3d88 d13e
00000330: 0e38 9dbd 7e4e 053d 7929 8a3e 25af 8dbe
00000340: befc 2b3e 3623 94be 40bf 30be 8f22 bdbe
00000350: 0b96 a93d 9899 433d 056a 913e f11f c73e
00000360: 6e56 1dbe 90bb 743e 5eee 1c3e 25b0 f9bc
00000370: 8846 693d 37b4 77be 7bf8 fb3d edf2 313e
00000380: 071c fcbe 9fec d53e 82ff 873e ce8e 1abe
00000390: 9648 173d ef18 ac3e 7849 89be c412 e43e
000003a0: b903 a93b 9b56 b53d efc6 8ebe 94ee bfbe
000003b0: 6263 e63d 8961 d6be 1703 d23e bd9a 843d
000003c0: 2622 a2be 2860 9a3e 1f8d d5be 5dd8 ce3e
000003d0: 34ce 51be c07c a6be 92cb 1e3e 70fa 0ebe
000003e0: 9479 933e 6c8d cdbe 5b4f 013e 71a5 8fbe
000003f0: 4a05 403c e46d 61be 6804 d9be dad7 9cbd

encoder.blocks.0.attn.proj.bias f4 [16]
-0.025021704 -0.076619506 0.0032602474 -0.039172973 0.054213125 0.073787704 -0.0020363447 0.03448245
0.01162116 0.026878783 0.011786058 0.08231303 -0.090028256 -0.029644148 0.019746792 -0.025344018
00000000: 51fa ccbc b0ea 9cbd e0a9 553b d773 20bd
00000010: 950e 5e3d 021e 973d 3274 05bb 783d 0d3d
00000020: ae66 3e3c e530 dc3c 4f1a 413c bc93 a83d
00000030: bc60 b8bd 49d8 f2bc 06c4 a13c 429e cfbc

encoder.blocks.0.norm2.weight f4 [16]
0.9108245 0.98146623 0.9511644 0.9796267 0.90602976 1.0231897 0.90506107 0.9196096
1.0053864 0.8284512 0.9571202 0.9762836 0.96647805 0.89070135 0.940572 0.9482396
00000000: cb2b 693f 5f41 7b3f 837f 733f d1c8 7a3f
00000010: 91f1 673f e1f7 823f 15b2 673f 896b 6b3f
00000020: 80b0 803f 6115 543f d405 753f b9ed 793f
00000030: 1b6b 773f 0105 643f 54c9 703f d5bf 723f

encoder.blocks.0.norm2.bias f4 [16]
0.00921277 -0.017693944 0.061668012 0.007885457 -0.00740963 0.0293325 0.10695405 -0.04148789
-0.011558015 -0.028792877 0.06709046 -0.010024737 0.024764815 -0.009982622 -0.01967223 -0.076845035
00000000: 28f1 163c e4f2 90bc 9997 7c3d 0132 013c
00000010: 7bcc f2bb b64a f03c ba0a db3d 35ef 29bd
00000020: d45d 3dbc 0adf ebbc b966 893d cb3e 24bc
00000030: 95df ca3c 278e 23bc a827 a1bc ee60 9dbd

encoder.blocks.0.mlp.fc1.weight f4 [64, 16]
0.35596085 0.2766122 -0.2106768 0.07909125 0.03872955 0.22750509 -0.08423529 -0.062036894
0.21457437 -0.23966075 0.099461205 -0.25706765 0.09327825 0.11277754 -0.03151146 -0.15571253
0.2636055 -0.18782693 -0.16840698 -0.10091407 -0.18801814 -0.28099558 0.07841033 0.10876084
-0.030628912 -0.23179612 0.09566782 0.09949073 -0.2167517 0.0932169 -0.063247524 -0.007467367
0.24966869 0.21813115 0.065602496 0.12373438 0.27374822 -0.19666196 0.12568139 -0.08747412
0.24523614 -0.18059519 0.2602994 -0.043338604 -0.16421038 -0.04218314 0.04527018 -0.2922857
-0.08527079 0.17127308 0.11257785 -0.29770026 0.11111243 0.27184105 -0.29091468 0.25636196
0.18913674 -0.07587405 0.058035124 -0.07302702 -0.05435574 0.07399696 0.19999026 0.096884854
-0.0055523566 0.18382016 0.23853487 0.09011368 0.03131744 -0.12643732 0.010377317 -0.25753585
0.1285569 -0.03570359 0.26318502 -0.24335095 0.055721115 -0.022902764 -0.09211166 -0.20445181
-0.007532531 0.3123863 -0.23580651 -0.28101796 -0.037951734 -0.021122867 0.05953959 -0.19683103
-0.17078628 0.005395475 0.05943382 0.09219485 0.06786447 -0.15851164 -0.18726522 -0.014292937
0.084359415 -0.21841809 -0.13717777 -0.2259145 -0.26935562 -0.2414533 0.23579228 0.15175046
0.15754505 -0.2147799 -0.17852537 0.2530991 -0.11374635 -0.17337482 0.2221805 0.1423659
-0.035993587 0.009396697 0.021858953 0.13046049 0.21268056 0.046561558 0.07995516 0.10705892
0.072767004 0.3056185 -0.19053982 -0.08987224 -0.02689396 0.07221283 -0.15598507 0.20840137
-0.13201413 0.050665557 -0.38925043 -0.05096095 -0.08753887 -0.22455987 -0.22427954 0.10124172
0.32783893 -0.21576978 -0.1306037 -0.03291826 0.15536782 -0.05682676 -0.1793839 0.19240725
0.20098746 0.08312455 -0.28047565 0.088122085 0.25231788 -0.24752231 -0.29816276 -0.1713047
0.18208939 0.06154748 -0.20936216 0.1558315 -0.270836 0.10641517 0.07364362 0.13999394
-0.1993574 0.036777522 -0.27468082 0.22041509 -0.080906235 0.26284513 0.058566846 -0.10544589
0.18663415 0.15511736 0.06518105 -0.042991042 0.037477855 -0.2892993 -0.10853498 -0.046502057
0.019904196 0.07215853 -0.22747028 0.013776567 -0.20322716 -0.08880847 -0.2561737 0.19606562
-0.2474347 -0.08010723 0.17163661 0.22462805 -0.024209207 0.0028371536 0.18419737 0.0015253979
-0.011882309 0.027608765 0.16978255 -0.24466613 -0.08758808 0.058496315 -0.26961347 0.0345567
-0.25185874 0.03249963 -0.08447549 -0.08012792 0.15471703 0.06865758 -0.1983319 0.025994923
-0.046984978 0.14145537 -0.26789245 -0.036096774 0.14930712 -0.12972811 0.03774703 -0.104156695
0.28900734 -0.20353386 0.14721945 -0.22896464 0.1567857 0.0048646904 0.07176823 0.012786009
-0.11756967 0.1756587 -0.21796511 0.09985014 0.22485757 -0.059555043 -0.015936572 -0.029262863
0.02870133 0.20757231 -0.18196109 -0.2282441 -0.13815221 -0.23468809 0.0077002384 -0.11474923
0.14962053 0.11511782 0.093500115 -0.010202489 -0.17479506 -0.05786321 -0.30059025 0.13575482
-0.07559855 -0.12979393 0.12241462 -0.16715927 0.13784973 -0.22503428 0.12986335 0.14404069
00000000: 8040 b63e 1da0 8d3e a9bb 57be 98fa a13d
00000010: e0a2 1e3d 18f7 683e 8d83 acbd 661a 7ebd
00000020: 62b9 5b3e a169 75be 51b2 cb3d 5f9e 83be
00000030: ab08 bf3d e9f7 e63d 2912 01bd 1b73 1fbe
00000040: 4df7 863e b455 40be e172 2cbe 09ac cebd
00000050: d487 40be a7de 8fbe 9895 a03d 01be de3d
00000060: 7ce9 fabc f65b 6dbe 7ded c33d ccc1 cb3d
00000070: 28f4 5dbe 81e8 be3d eb87 81bd d1b0 f4bb
00000080: 26a9 7f3e c65d 5f3e 9a5a 863d 7368 fd3d
00000090: ba28 8c3e c161 49be 9fb2 003e a225 b3bd
000000a0: 2f1f 7b3e f2ed 38be f745 853e d283 31bd
000000b0: c426 28be 3ac8 2cbd 396d 393d 79a6 95be
000000c0: 74a2 aebd 3662 2f3e 378f e63d 2b6c 98be
000000d0: ea8e e33d c02e 8b3e c5f2 94be e041 833e
000000e0: 10ad 413e db63 9bbd 3db6 6d3d 318f 95bd
000000f0: 20a4 5ebd b88b 973d 3fca 4c3e 916b c63d
00000100: 8bf0 b5bb 5a3b 3c3e 7c42 743e 858d b83d
00000110: b746 003d c978 01be 9f05 2a3c bddb 83be
00000120: 6ca4 033e ed3d 12bd 30c0 863e fe30 79be
00000130: d33b 643d 949e bbbc 0aa5 bcbd d15b 51be
00000140: 73d3 f6bb 19f1 9f3e 4377 71be 96e1 8fbe
00000150: 4773 1bbd dd09 adbc c9df 733d 138e 49be
00000160: 99e2 2ebe 86cc b03b e170 733d a7d0 bc3d
00000170: 87fc 8a3d e050 22be 74c2 3fbe ec2c 6abc
00000180: a1c4 ac3d fea8 5fbe 5478 0cbe 2156 67be
00000190: fbe8 89be 893f 77be 8873 713e 7964 1b3e
000001a0: 7d53 213e 43ef 5bbe 5bcf 36be 3596 813e
000001b0: d9f3 e8bd 2b89 31be 4983 633e 5ec8 113e
000001c0: 036e 13bd 9bf4 193c 8c11 b33c 6f97 053e
000001d0: efc8 593e 55b7 3e3d 88bf a33d b541 db3d
000001e0: de06 953d 077a 9c3e df1c 43be f00e b8bd
000001f0: b950 dcbc 52e4 933d 8dba 1fbe 2b67 553e
00000200: b62e 07be b086 4f3d d54b c7be 6ebc 50bd
00000210: 9447 b3bd 06f3 65be 89a9 65be d257 cf3d
00000220: 81da a73e c1f2 5cbe fabc 05be 4cd5 06bd
00000230: be18 1f3e 2dc3 68bd 6ab0 37be 6806 453e
00000240: a8cf 4d3e 343d aa3d 819a 8fbe 5a79 b43d
00000250: cf2f 813e 7d76 7dbe caa8 98be 806a 2fbe
00000260: a475 3a3e 3619 7c3d 0963 56be 4b92 1f3e
00000270: 04ab 8abe 32f0 d93d 77d2 963d 925a 0f3e
00000280: 5924 4cbe 07a4 163d f7a2 8cbe 7eb4 613e
00000290: 2bb2 a5bd a393 863e cae3 6f3d 04f4 d7bd
000002a0: 061d 3f3e 16d7 1e3e a47d 853d 6017 30bd
000002b0: 6182 193d 0a1f 94be 9647 debd f178 3ebd
000002c0: 200e a33c dac7 933d f8ed 68be 1cb7 613c
000002d0: c81a 50be 37e1 b5bd 3329 83be 6dc5 483e
000002e0: 865f 7dbe 420f a4bd 82c1 2f3e e504 663e
000002f0: 6352 c6bc 8aef 393b 3c9e 3c3e dcef c73a
00000300: 04ae 42bc c72b e23c 7adb 2d3e c289 7abe
00000310: 6161 b3bd d599 6f3d c70a 8abe 548b 0d3d
00000320: a1f3 80be 551e 053d 7c01 adbd 1b1a a4bd
00000330: 246e 1e3e 589c 8c3d 8517 4bbe 4ef3 d43c
00000340: 5273 40bd add9 103e 3329 89be 36da 13bd
00000350: f7e3 183e 72d7 04be a19c 1a3d 1b50 d5bd
00000360: c5f8 933e 2e6b 50be b2c0 163e b575 6abe
00000370: 6e8c 203e fb67 9f3b 39fb 923d 697c 513c
00000380: 5ec8 f0bd e0df 333e 3f32 5fbe 3b7e cc3d
00000390: 1041 663e fdef 73bd 6a8d 82bc acb8 efbc
000003a0: 0d1f eb3c d68d 543e 0254 3abe d2b8 69be
000003b0: c677 0dbe 1352 70be 4852 fc3b a501 ebbd
000003c0: 2036 193e e4c2 eb3d fd7c bf3d 5728 27bc
000003d0: 7afd 32be f901 6dbd f7e6 99be 5003 0b3e
000003e0: 6ad3 9abd b3e8 04be 84b4 fa3d cd2b 2bbe
000003f0: 7b28 0d3e 636f 66be e6fa 043e 677f 133e

encoder.blocks.0.mlp.fc1.bias f4 [64]
-0.082066685 -0.03744374 -0.010261341 0.034147024 -0.016364492 -0.065973505 -0.0243392 0.008474654
-0.03370293 -0.0023140514 -0.00586756 0.018870499 0.0131820375 0.04180025 -0.010653254 -0.003336841
-0.09601519 -0.023410492 -0.004129867 -0.02502254 0.0077549946 -0.005786048 -0.07819988 -0.067635134
-0.033055097 0.03861687 -0.07966848 -0.057971075 0.0019585814 -0.036691222 0.04593272 -0.035805006
-0.029280875 -0.07099893 0.0933538 0.011474977 -0.047138065 0.016916094 -0.033594258 0.026419755
-0.041019015 -0.043967478 -0.031450033 -0.025624793 0.027715746 -0.12460214 -0.04541685 0.0036334388
0.009053018 0.03852504 -0.006683057 -0.020818844 -0.07560639 -0.1112863 -0.036846362 -0.009088765
0.026612928 0.027645772 -0.028798407 -0.017593747 -0.025271578 -0.022092342 -0.061591405 -0.008374801
00000000: 9412 a8bd 9b5e 19bd 2f1f 28bc c0dd 0b3d
00000010: d40e 86bc 1e1d 87bd 0163 c7bc 46d9 0a3c
00000020: 150c 0abd 57a7 17bb a944 c0bb 4e96 9a3c
00000030: 79f9 573c bd36 2b3d fc8a 2ebc e7ae 5abb
00000040: 9da3 c4bd 5cc7 bfbc d653 87bb 12fc ccbc
00000050: 9c1d fe3b e398 bdbb 4227 a0bd 4a84 8abd
00000060: c864 07bd b92c 1e3d 3a29 a3bd 1473 6dbd
00000070: 8b5b 003b 8949 16bd f323 3c3d 45a8 12bd
00000080: 72de efbc e367 91bd 4730 bf3d 8b01 3c3c
00000090: d813 41bd 9f93 8a3c 229a 09bd 3e6e d83c
000000a0: 8e03 28bd 3e17 34bd c0d1 00bd 16eb d1bc
000000b0: 220c e33c 682f ffbd 0507 3abd fd1e 6e3b
000000c0: 1c53 143c 6fcc 1d3d 8cfd dabb 488c aabc
000000d0: 86d7 9abd 12ea e3bd 36ec 16bd 0be9 14bc
000000e0: 5b03 da3c 6379 e23c a3ea ebbc c320 90bc
000000f0: 5706 cfbc 00fb b4bc 4547 7cbd 7636 09bc

encoder.blocks.0.mlp.fc2.weight f4 [16, 64]
-0.13360804 0.23781721 0.22640006 -0.02405645 0.11691587 0.14639485 0.3020724 -0.31465098
-0.033267666 -0.041705545 0.13055569 0.13830873 -0.103645794 0.2744816 -0.06856717 0.16336048
0.2010729 0.08307328 0.23338424 0.07404374 0.027134495 0.017136574 0.11406455 -0.15885885
-0.13597785 -0.07513924 0.23137489 0.070140325 -0.0015686363 -0.12282474 -0.009267311 -0.006357101
0.10056595 0.22669728 -0.27147138 0.16849642 0.15934142 0.19690424 -0.15643413 0.012136556
0.22641589 -0.1557312 0.1926061 -0.18526144 0.18597603 0.047197297 0.02261416 -0.031450614
-0.10041098 0.23322172 -0.16091011 -0.105563514 0.20703274 0.16425996 0.068527736 0.3322094
0.18638867 -0.007744499 0.10057782 0.18424068 -0.042932346 -0.05229347 0.0699388 -0.031469896
-0.057017043 -0.06587411 0.28412443 0.14601834 -0.060500387 0.11822463 -0.11416305 0.084828295
0.05910469 -0.17857468 -0.11062229 0.06255882 -0.046553973 0.2566394 0.2820783 0.088148855
0.06626531 -0.16687316 0.31681654 -0.094509915 -0.14062554 -0.13381895 -0.06603263 -0.13025206
-0.08665149 -0.05415893 -0.21466658 -0.02210502 -0.12324894 -0.1314197 -0.19972141 0.0064508542
-0.09854019 0.1343041 -0.011573976 -0.085017964 -0.09307834 0.05427564 -0.22134952 -0.18737133
-0.086521395 -0.1298972 0.11006277 -0.08101198 0.014850085 -0.042358078 0.09987228 0.17548758
-0.18261957 -0.080718 0.016975373 0.12999356 0.07356895 0.014299233 0.05366013 0.044221815
-0.004872676 0.29856908 -0.18268953 -0.19757411 -0.08926285 0.25813904 0.0008727435 -0.06505254
-0.13385838 0.092948504 0.20343353 -0.118800394 0.16997515 0.16770539 0.07715886 -0.1262619
-0.09228109 0.008645449 -0.12818544 -0.18589035 0.19097117 0.18214321 0.053083487 -0.0341919
-0.13514216 -0.15263939 -0.06267838 0.3052888 0.20224078 -0.00038190337 0.16362476 0.07958436
-0.32623932 0.3561287 0.24913989 -0.074936956 0.19425516 -0.25320604 -0.058169838 -0.010773993
-0.26075986 0.23052877 -0.30826598 -0.25117722 -0.0023963328 0.023406666 -0.13667443 0.12971266
0.14776963 -0.1258708 -0.17299896 -0.032190047 -0.101225264 0.17903404 0.18308006 0.08541201
-0.27990833 -0.20643952 -0.13962764 -0.21396169 0.2028696 -0.24638315 0.2985372 0.033938058
-0.1775484 -0.2972813 -0.19982708 -0.23538536 -0.08281926 0.2901703 0.10990873 0.07553703
0.20105177 -0.08193425 -0.123102546 -0.14252909 0.17106593 0.25547466 0.06299835 -0.07911404
-0.12311843 0.13770609 -0.10500137 0.0084601035 -0.017780364 0.22688039 -0.040391933 -0.1381613
0.07339516 0.2894567 -0.090441264 -0.097937435 -0.08911907 0.11409026 0.075436406 0.23056209
-0.14258985 -0.016595853 0.12262862 0.14785418 0.0149869835 0.11853636 -0.331401 -0.17696239
0.21130319 0.0052445256 -0.13843848 -0.22851433 -0.2320569 0.050140083 -0.24543987 0.0492043
-0.1860161 0.25759932 0.24506697 -0.06701209 -0.23763037 0.26552728 -0.05216321 0.23853345
0.12933399 -0.1322451 -0.112859696 -0.008973843 -0.021744655 -0.103486456 -0.12630503 0.014979197
-0.14205477 -0.048089806 -0.060341764 -0.08805841 -0.019692458 0.31453973 -0.21311986 0.11478787
00000000: 8cd0 08be 5b86 733e 6bd5 673e 0812 c5bc
00000010: 9671 ef3d 88e8 153e 3ca9 9a3e ef19 a1be
00000020: ad43 08bd 6fd3 2abd 64b0 053e cea0 0d3e
00000030: 3f44 d4bd da88 8c3e f26c 8cbd f847 273e
00000040: 0ee6 4d3e 5322 aa3d 47fc 6e3e 3fa4 973d
00000050: 2949 de3c 0062 8c3c ad9a e93d e5ab 22be
00000060: c73d 0bbe 9ae2 99bd 8aed 6c3e bba5 8f3d
00000070: b39a cdba 8a8b fbbd ebd5 17bc 3a4f d0bb
00000080: 85f5 cd3d 5523 683e 4cfe 8abe 538a 2c3e
00000090: 662a 233e 44a1 493e 4530 20be 68d8 463c
000000a0: 91d9 673e 0078 1fbe 893a 453e 2db5 3dbe
000000b0: 8070 3e3e f451 413d 5541 b93c 5cd2 00bd
000000c0: 46a4 cdbd add1 6e3e 9fc5 24be af31 d8bd
000000d0: 6400 543e c333 283e 4558 8c3d 5a17 aa3e
000000e0: acdc 3e3e 91c5 fdbb befb cd3d 97a9 3c3e
000000f0: d4d9 2fbd ad31 56bd 133c 8f3d 94e6 00bd
00000100: b48a 69bd 01e9 86bd c278 913e d585 153e
00000110: 41cf 77bd c11f f23d 51ce e9bd 75ba ad3d
00000120: c217 723d 48dc 36be f08d e2bd d71e 803d
00000130: 61af 3ebd 3d66 833e 916c 903e 6387 b43d
00000140: 1bb6 873d cce0 2abe c735 a23e 6a8e c1bd
00000150: 2400 10be d607 09be 1e3c 87bd cc60 05be
00000160: 5676 b1bd c1d5 5dbd 8ed1 5bbe 9615 b5bc
00000170: f169 fcbd e392 06be c583 4cbe b061 d33b
00000180: 70cf c9bd 0487 093e c6a0 3dbc e61d aebd
00000190: db9f bebd 2250 5e3d 73a9 62be 45de 3fbe
000001a0: 2132 b1bd c603 05be 9768 e13d 9ce9 a5bd
000001b0: c54d 733c aa7f 2dbd d789 cc3d 04b3 333e
000001c0: a000 3bbe 7b4f a5bd f00f 8b3c 081d 053e
000001d0: 51ab 963d 5547 6a3c b9ca 5b3d ef21 353d
000001e0: f8aa 9fbb 0cde 983e f712 3bbe de50 4abe
000001f0: 71cf b6bd cd2a 843e d3c8 643a 443a 85bd
00000200: 2c12 09be c95b be3d e150 503e 9f4d f3bd
00000210: f70d 2e3e f6ba 2b3e 7705 9e3d cd4a 01be
00000220: defd bcbd a4a5 0d3c 0b43 03be 0a5a 3ebe
00000230: f28d 433e c083 3a3e 126e 593d ce0c 0cbd
00000240: b562 0abe 804d 1cbe 865d 80bd d04e 9c3e
00000250: 3518 4f3e 343a c8b9 408d 273e 20fd a23d
00000260: d708 a7be 8056 b63e 871e 7f3e 8c78 99bd
00000270: d3ea 463e 39a4 81be 7f43 6ebd 6785 30bc
00000280: 5182 85be bc0f 6c3e 0ad5 9dbe 4d9a 80be
00000290: cb0b 1dbb 56bf bf3c 62f4 0bbe 65d3 043e
000002a0: ec50 173e 46e4 00be a426 31be b6d9 03bd
000002b0: 314f cfbd b354 373e 5779 3b3e 7eec ae3d
000002c0: 2550 8fbe e264 53be 8cfa 0ebe c618 5bbe
000002d0: 0cbd 4f3e dd4b 7cbe ded9 983e a202 0b3d
000002e0: 3fcf 35be 4135 98be 789f 4cbe dc08 71be
000002f0: 259d a9bd 3491 943e d417 e13d 29b3 9a3d
00000300: 84e0 4d3e 25cd a7bd 301d fcbd 25f3 11be
00000310: e82b 2f3e 93cd 823e 4705 813d 8b06 a2bd
00000320: 8425 fcbd d302 0d3e f50a d7bd 3f9c 0a3c
00000330: 20a8 91bc 5553 683e 0372 25bd 287a 0dbe
00000340: 3450 963d ab33 943e 4539 b9bd 6c93 c8bd
00000350: 0f84 b6bd 27a8 e93d 677e 9a3d 7818 6c3e
00000360: 1303 12be 07f4 87bc b724 fb3d 1667 173e
00000370: f78b 753c 31c3 f23d 64ad a9be a135 35be
00000380: dd5f 583e 45da ab3b d1c2 0dbe a9ff 69be
00000390: 53a0 6dbe b05f 4d3d 9754 7bbe 738a 493d
000003a0: 017b 3ebe 0fe4 833e d6f2 7a3e a23d 89bd
000003b0: 6055 73be 31f3 873e 17a9 55bd 1d42 743e
000003c0: 2170 043e 426b 07be fc22 e7bd 0707 13bc
000003d0: d921 b2bc b5f0 d3bd 1b56 01be 4e6b 753c
000003e0: ce76 11be d1f9 44bd ed28 77bd f857 b4bd
000003f0: 1452 a1bc 5a0b a13e 183c 5abe e715 eb3d

encoder.blocks.0.mlp.fc2.bias f4 [16]
0.004788795 -0.057632174 -0.047029212 -0.053475875 0.035759125 0.036157273 0.008137397 0.046137147
0.041975614 0.01633768 0.024004616 0.030571807 -0.035475824 -0.0036071134 0.019286862 -0.021889849
00000000: 53eb 9c3b b70f 6cbd b4a1 40bd 8509 5bbd
00000010: 2978 123d a619 143d b752 053c 4efa 3c3d
00000020: 9fee 2b3d 99d6 853c 54a5 c43c ba71 fa3c
00000030: 194f 11bd 5265 6cbb 7bff 9d3c 5752 b3bc

encoder.blocks.1.norm1.weight f4 [16]
1.0298767 1.0840847 1.0601064 1.0179867 1.1009549 1.2060232 1.0118425 0.9411937
1.0206226 1.1245929 0.9740439 1.0032674 1.0248526 0.96674854 1.0108097 0.9240035
00000000: 00d3 833f 4ac3 8a3f 91b1 873f 634d 823f
00000010: 17ec 8c3f f85e 9a3f 0e84 813f 12f2 703f
00000020: c3a3 823f a9f2 8f3f f15a 793f 116b 803f
00000030: 5f2e 833f d57c 773f 3662 813f 7e8b 6c3f

encoder.blocks.1.norm1.bias f4 [16]
-0.03885904 -0.08220507 -0.03876298 -0.07275993 0.045257222 0.13664602 -0.003223172 0.03089342
0.020017322 0.04383249 -0.0031835928 0.041026462 -0.06324479 -0.00740036 0.030958068 -0.01735344
00000000: a82a 1fbd 225b a8bd eec5 1ebd 2803 95bd
00000010: a35f 393d efec 0b3e da3b 53bb 3314 fd3c
00000020: 5efb a33c b289 333d d3a3 50bb 5d0b 283d
00000030: 7c86 81bd b87e f2bb c69b fd3c cd28 8ebc

encoder.blocks.1.attn.qkv.weight f4 [48, 16]
-0.1775995 0.08502073 0.090646505 0.24270827 0.045338236 -0.19025412 0.06383068 0.2700019
0.3405085 0.29058692 0.11633146 -0.042586368 -0.15645298 0.09422648 -0.31078506 0.080874175
0.14538305 0.20457275 -0.017992303 -0.19281386 -0.08447466 0.27422893 0.05046344 -0.34257865
-0.096826136 -0.24834286 -0.08785073 0.023882844 0.15871544 -0.22261271 0.24227329 0.091834605
-0.18455766 0.042959955 0.30465576 -0.13845217 0.21000567 0.038964447 -0.05261517 -0.08297558
-0.2787064 -0.064628765 0.1841333 0.07107727 -0.16855948 0.25072533 -0.21966437 0.22927141
-0.19453995 -0.09646509 -0.1946086 -0.10141 -0.25396433 -0.123308755 -0.1366683 0.18495363
-0.14431523 0.15933183 -0.1473361 -0.011003325 0.035210516 0.11081229 -0.03521267 -0.21707153
0.19685213 -0.373741 -0.033673022 0.16087197 -0.1485363 0.2548818 0.23031764 0.09899319
-0.15627022 -0.20600276 0.20053977 -0.12980697 0.0048754695 -0.054789517 -0.13310385 0.049816698
-0.15021835 0.1597268 -0.19901079 -0.25799617 0.1445175 -0.35429597 0.34855613 0.27682522
-0.12704976 -0.31038824 0.25320384 0.26441538 -0.12949331 0.18574391 0.26598734 0.25218362
0.24743003 0.22971609 0.12504075 0.045429077 -0.37419364 -0.050437726 0.025781345 -0.108506314
0.25252792 -0.08882114 -0.19465886 -0.34542474 -0.057262965 0.18339062 -0.22411752 0.3559154
0.032290716 -0.09958451 -0.2623532 -0.22117168 -0.03849108 0.35114476 -0.4783348 -0.03496444
-0.021779628 0.25281316 -0.33486497 -0.10705152 -0.14046316 0.47667012 0.2723299 0.116902106
0.090002805 0.0076209106 0.26418588 0.2522836 -0.0022284142 -0.3373095 0.19033203 0.022281755
0.21288684 0.0867536 0.31797248 0.1699175 0.26208195 0.10626439 -0.12991259 0.11350392
-0.0975694 -0.123942696 0.12303197 -0.2567356 0.11471373 0.03893496 0.2366165 0.23202324
-0.066535346 -0.063082874 -0.20984934 -0.04359846 -0.095979586 0.19948949 -0.17591418 -0.24917787
-0.027279966 -0.09336915 -0.12931474 0.26234636 -0.41008028 0.0907034 0.34743276 -0.091437005
0.06738559 0.06272135 0.013450729 -0.03871349 0.32351348 -0.18622886 -0.03250704 0.11177845
0.20914195 -0.18631436 0.06327409 -0.017988713 0.22753823 0.28400838 0.006519809 -0.23710509
0.21089894 -0.20118752 -0.04677209 0.08219227 -0.36026716 -0.07437942 0.34910157 0.28582802
-0.2372048 -0.54918694 -0.1599296 -0.26335627 0.25510085 0.44697955 -0.14327766 -0.10917163
-0.16273905 0.17932524 -0.4244722 0.35681334 -0.04911706 -0.36210638 0.42503953 0.051456016
0.07455296 0.0029118261 -0.074030966 -0.030490093 -0.05904943 -0.08888354 -0.33201408 0.050202128
-0.23946525 -0.2561803 0.24212983 0.22611742 -0.19564244 -0.1880762 -0.1339293 -0.23813659
-0.16517074 -0.062908135 -0.20364927 -0.35625663 0.29398355 0.34539336 -0.040293846 0.11474756
-0.037635755 0.2241923 -0.31591153 0.1274008 -0.3164761 -0.12986977 -0.21776837 0.12392176
0.17310038 -0.5102832 -0.028667293 -0.2154001 0.383268 0.42374963 -0.12297177 0.05204324
-0.27200812 0.40054226 -0.25768337 -0.033801295 -0.56817967 0.01638811 -0.04445283 0.05656182
00000000: a5dc 35be 591f ae3d e0a4 b93d 8488 783e
00000010: 96b4 393d fad1 42be a9b9 823d b03d 8a3e
00000020: 2157 ae3e cfc7 943e 303f ee3d 0b6f 2ebd
00000030: 3635 20be d0f9 c03d 381f 9fbe 5ca1 a53d
00000040: 4bdf 143e 857b 513e 9864 93bc ff70 45be
00000050: 0d01 adbd bc67 8c3e c1b2 4e3d 7866 afbe
00000060: c84c c6bd 974d 7ebe 15eb b3bd f4a5 c33c
00000070: 4d86 223e 96f4 63be 7d16 783e c813 bc3d
00000080: affc 3cbe c7f6 2f3d d7fb 9b3e 68c6 0dbe
00000090: ba0b 573e 2f99 1f3d 0183 57bd 1aef a9bd
000000a0: 9bb2 8ebe 165c 84bd 718d 3c3e f690 913d
000000b0: db9a 2cbe 125f 803e b2ef 60be 20c6 6a3e
000000c0: 7b35 47be 7d8f c5bd 7a47 47be 0cb0 cfbd
000000d0: 9d07 82be 4d89 fcbd c6f2 0bbe 7c64 3d3e
000000e0: 5fc7 13be e227 233e 46df 16be 4a47 34bc
000000f0: e738 103d 8ef1 e23d 293b 10bd 0048 5ebe
00000100: 9b93 493e fb5a bfbe b9ec 09bd 9fbb 243e
00000110: e619 18be de7f 823e 63d8 6b3e f1bc ca3d
00000120: 4d05 20be 63f2 52be 4c5a 4d3e 1eec 04be
00000130: 67c2 9f3b f96a 60bd 604c 08be 980c 4c3d
00000140: d7d2 19be 6c8f 233e 7cc9 4bbe 1318 84be
00000150: 65fc 133e 4866 b5be f375 b23e 09bc 8d3e
00000160: 5519 02be 35eb 9ebe efa3 813e 7461 873e
00000170: e599 04be a733 3e3e 7e2f 883e 361e 813e
00000180: 4c5e 7d3e b23a 6b3e af0a 003e d713 3a3d
00000190: 4f96 bfbe ca97 4ebd 6633 d33c 8f38 debd
000001a0: 574b 813e dce7 b5bd a754 47be 83db b0be
000001b0: 928c 6abd c0ca 3b3e 107f 65be 8b3a b63e
000001c0: 4543 043d f7f2 cbbd 2953 86be d47a 62be
000001d0: d3a8 1dbd 3fc9 b33e 4de8 f4be df36 0fbd
000001e0: 316b b2bc ba70 813e 6c73 abbe d43d dbbd
000001f0: 93d5 0fbe 1b0e f43e d36e 8b3e 5f6a ef3d
00000200: 6453 b83d d5b8 f93b 5f43 873e 512b 813e
00000210: 960a 12bb d5b3 acbe 66e6 423e 3a88 b63c
00000220: 02ff 593e dfab b13d 4acd a23e dafe 2d3e
00000230: 9b2f 863e 25a1 d93d ce07 05be be74 e83d
00000240: 77d2 c7bd abd5 fdbd 2ff8 fb3d d972 83be
00000250: 08ef ea3d 447a 1f3d 994b 723e 8097 6d3e
00000260: af43 88bd 9831 81bd bfe2 56be 4c94 32bd
00000270: f290 c4bd f946 4c3e d922 34be 7c28 7fbe
00000280: 3c7a dfbc 5338 bfbd 156b 04be 4352 863e
00000290: 0bf6 d1be b4c2 b93d b5e2 b13e 5343 bbbd
000002a0: 7501 8a3d 0d74 803d 7260 5c3c 0992 1ebd
000002b0: 8fa3 a53e c7b2 3ebe 1a26 05bd 1aec e43d
000002c0: 4f29 563e 31c9 3ebe d995 813d 115d 93bc
000002d0: c8ff 683e 8c69 913e 1fa4 d53b adcb 72be
000002e0: e4f5 573e 1a04 4ebe 1794 3fbd 6c54 a83d
000002f0: f074 b8be 3d54 98bd 71bd b23e 0d58 923e
00000300: d1e5 72be 8497 0cbf 96c4 23be a2d6 86be
00000310: 949c 823e 81da e43e 61b7 12be 6095 dfbd
00000320: 11a5 26be 09a1 373e 6c54 d9be 3db0 b63e
00000330: f82e 49bd 0266 b9be c89e d93e 8bc3 523d
00000340: 39af 983d 56d4 3e3b 8c9d 97bd 5cc6 f9bc
00000350: d1dd 71bd 9308 b6bd c0fd a9be bfa0 4d3d
00000360: 6136 75be 102a 83be e2f0 773e 538b 673e
00000370: 7e56 48be 0c97 40be c324 09be 14da 73be
00000380: 8522 29be fbd5 80bd 6f89 50be 4567 b6be
00000390: 0385 963e 66d7 b03e 290b 25bd c500 eb3d
000003a0: f327 1abd ab92 653e 28bf a1be 5b75 023e
000003b0: 2809 a2be 95fc 04be acfe 5ebe b1ca fd3d
000003c0: 3a41 313e eba1 02bf acd7 eabc d891 5cbe
000003d0: b43b c43e b6f5 d83e a0d8 fbbd 4b2b 553d
000003e0: a644 8bbe e013 cd3e 13ef 83be 3a73 0abd
000003f0: 3974 11bf 5c40 863c 2c14 36bd 5ead 673d

encoder.blocks.1.attn.proj.weight f4 [16, 16]
0.16451415 -0.15359081 -0.42452887 0.36439252 -0.15827881 0.31471992 -0.22442634 -0.29475263
-0.22885215 -0.38599467 0.22638226 0.058122896 0.18218985 0.39709395 -0.03730138 -0.27825984
0.33831957 -0.10147125 0.3476485 0.023035161 -0.4710917 0.42392465 -0.3026208 0.41903085
-0.38333368 0.27579325 0.080441095 -0.39006326 0.24097297 0.03787221 -0.21427836 0.24068916
-0.30095777 0.03559553 0.3439739 0.19741364 0.03292661 -0.018237775 -0.24247426 0.0033484243
-0.333959 -0.29569042 -0.12745486 -0.2205252 0.36629322 0.47011277 -0.2758245 0.45623398
0.39941862 -0.14110339 0.08512856 0.1727815 0.084560476 -0.21945678 -0.20774709 0.052341767
0.03497964 0.13894217 -0.05981976 0.0072047925 -0.38541293 0.0592183 -0.27808473 -0.38079977
-0.17953138 -0.16003892 -0.27915886 0.3173752 -0.13570155 0.3004774 -0.35168245 0.43638292
0.41647717 0.2225142 0.3575828 0.2937875 0.1334675 -0.049053676 -0.12146464 0.008669608
-0.16076134 -0.40183294 0.30666733 -0.30189475 -0.27617964 0.3669996 -0.11140107 -0.29063556
-0.18845095 -0.005049073 -0.028576657 0.41567594 0.32452476 0.16621992 0.13525878 -0.37374207
-0.024848038 0.04825972 -0.13902366 0.30051973 -0.37023437 -0.18861327 -0.4193327 0.2483593
-0.25193134 -0.3320201 0.23980619 -0.21122088 0.09641297 -0.07324669 -0.33211687 -0.32622835
-0.36029768 0.40079662 0.28812227 -0.27700418 -0.16864967 -0.21319328 0.402815 -0.46871647
-0.27119577 -0.3345939 0.31380948 -0.1282943 0.27463737 -0.3519234 -0.22800322 0.06666168
-0.43034652 0.11071589 0.34321737 -0.16979715 0.22384875 0.08686465 -0.19434479 0.4134598
-0.20256975 0.075868145 0.3536681 0.18640015 -0.15897869 -0.22309966 -0.30819243 0.08843211
0.30381456 -0.03129706 -0.32728574 -0.3007691 -0.091495484 -0.43017 -0.27333117 -0.021541785
-0.416813 0.26410285 -0.39503467 0.012436749 -0.003863875 0.12849866 -0.3238556 0.22276954
-0.083202 0.2919632 -0.06904481 -0.058280524 -0.024496684 -0.13225214 0.4173136 -0.047363583
0.22754477 -0.001980422 0.16656618 -0.3795041 0.5088287 -0.26884818 0.37413192 -0.2514593
0.27875614 0.31713098 -0.0973597 -0.43617663 -0.1388887 -0.24253006 0.21981062 0.09314661
0.34525272 -0.349868 -0.38175902 0.25466904 0.26890078 -0.46238402 0.037513133 0.2545695
0.27844462 0.40338045 0.04882899 0.45673326 0.28333887 -0.34762383 -0.32885388 0.2574888
-0.22998723 0.06722853 0.3102979 0.2781754 0.21131958 0.26697442 -0.02023532 -0.23883717
-0.18216747 0.24867383 -0.33189988 -0.12956414 0.37656522 0.01777678 -0.30547133 0.26224646
-0.18731274 0.2766927 -0.19380239 0.25114468 0.42394555 -0.32251307 -0.33024502 -0.40695965
-0.024081573 -0.30033672 0.3423989 -0.2659785 0.258867 0.022161286 0.416692 -0.19417216
-0.067699715 0.3512842 0.33953092 0.21350086 0.23869194 -0.2866211 0.10302224 -0.07442079
0.16501047 0.050114546 -0.04450967 -0.30574477 0.3366441 0.27736852 0.4120017 -0.46940386
0.43561995 0.0631561 0.20933864 0.3869634 -0.19893254 -0.32929504 -0.0056754374 -0.26717347
00000000: 6676 283e e946 1dbe d95b d9be a891 ba3e
00000010: d713 22be f822 a13e 05d0 65be d1e9 96be
00000020: 3858 6abe 18a1 c5be c0d0 673e 4612 6e3d
00000030: fa8f 3a3e e64f cb3e 55c9 18bd 1378 8ebe
00000040: 3938 ad3e 29d0 cfbd fcfe b13e 3cb4 bc3c
00000050: ee32 f1be a70c d93e 1df1 9abe 368b d63e
00000060: 5044 c4be c634 8d3e 4dbe a43d 5fb6 c7be
00000070: 9ec1 763e e41f 1b3d c96b 5bbe 3877 763e
00000080: 2317 9abe 9ecc 113d 591d b03e cd26 4a3e
00000090: 0ede 063d 6367 95bc 2c4b 78be 3d71 5b3b
000000a0: adfc aabe bc64 97be 8783 02be 5cd1 61be
000000b0: c98a bb3e 9fb2 f03e de38 8dbe 8097 e93e
000000c0: 9980 cc3e 687d 10be e257 ae3d a2ed 303e
000000d0: 0b2e ad3d 47b9 60be a7bb 54be 5264 563d
000000e0: d046 0f3d db46 0e3e 9105 75bd 2e16 ec3b
000000f0: d854 c5be e38e 723d 1f61 8ebe 30f8 c2be
00000100: 13d7 37be 3ee1 23be e9ed 8ebe 017f a23e
00000110: 59f5 0abe 2cd8 993e b90f b4be 956d df3e
00000120: 7f3c d53e c3da 633e 1815 b73e 516b 963e
00000130: b4ab 083e 82ec 48bd 74c2 f8bd f90a 0e3c
00000140: 9f9e 24be 0cbd cdbe 8003 9d3e f391 9abe
00000150: 6b67 8dbe 5fe7 bb3e 3f26 e4bd 2fce 94be
00000160: 49f9 40be b272 a5bb 9819 eabc 7ad3 d43e
00000170: 1c28 a63e 8e35 2a3e 4781 0a3e 1f5b bfbe
00000180: 1d8e cbbc fcab 453d 385c 0ebe b9dd 993e
00000190: 5c8f bdbe d623 41be c7b2 d6be e651 7e3e
000001a0: 25fd 80be 8afe a9be c18f 753e 494a 58be
000001b0: 2a74 c53d 5c02 96bd 390b aabe 6707 a7be
000001c0: f078 b8be 3735 cd3e c384 933e 7ed3 8dbe
000001d0: 80b2 2cbe 574f 5abe c53d ce3e 9bfb efbe
000001e0: 2cda 8abe e44f abbe a3ab a03e 955f 03be
000001f0: 459d 8c3e 4e2f b4be ad79 69be eb85 883d
00000200: 6156 dcbe 03bf e23d 30ba af3e 4edf 2dbe
00000210: 9b38 653e 18e6 b13d 5202 47be 01b1 d33e
00000220: 726e 4fbe c260 9b3d fc13 b53e aedf 3e3e
00000230: 4fcb 22be 3d74 64be 66cb 9dbe e51b b53d
00000240: 958d 9b3e 5931 00bd ff91 a7be 68fe 99be
00000250: fc61 bbbd 3e3f dcbe 10f2 8bbe 6678 b0bc
00000260: 8368 d5be 7d38 873e fc41 cabe 82c3 4b3c
00000270: 1139 7dbb 2795 033e 67d0 a5be b31d 643e
00000280: cf65 aabd 337c 953e 5e67 8dbd 8fb7 6ebd
00000290: 45ad c8bc 1b6d 07be 21aa d53e 5100 42bd
000002a0: 7f01 693e f8c9 01bb 5390 2a3e 5d4e c2be
000002b0: 9942 023f 78a6 89be 388e bf3e 46bf 80be
000002c0: 20b9 8e3e fe5e a23e 8664 c7bd 8b52 dfbe
000002d0: d738 0ebe cd59 78be 0916 613e a6c3 be3d
000002e0: f7c4 b03e e621 b3be eb75 c3be fb63 823e
000002f0: 5dad 893e 99bd ecbe 5fa7 193d ef56 823e
00000300: 4b90 8e3e e287 ce3e e800 483d f1d8 e93e
00000310: cb11 913e c0fb b1be 895f a8be 92d5 833e
00000320: c681 6bbe 1daf 893d 5edf 9e3e 026d 8e3e
00000330: 2964 583e dfb0 883e 8bc4 a5bc bb91 74be
00000340: 1c8a 3abe 5aa4 7e3e c8ee a9be 76ac 04be
00000350: 28cd c03e 9ca0 913c bd66 9cbe 2b45 863e
00000360: e9ce 3fbe aaaa 8d3e 2274 46be 0996 803e
00000370: 640f d93e 6f20 a5be e015 a9be 045d d0be
00000380: b846 c5bc bcc5 99be e94e af3e 552e 88be
00000390: 378a 843e 968b b53c a758 d53e 11d5 46be
000003a0: 26a6 8abd 86db b33e ffd6 ad3e f89f 5a3e
000003b0: a96b 743e 00c0 92be 53fd d23d ed69 98bd
000003c0: 81f8 283e e944 4d3d c64f 36bd 948a 9cbe
000003d0: 9e5c ac3e 3f03 8e3e e3f1 d23e b455 f0be
000003e0: 9409 df3e fc57 813d de5c 563e 1120 c63e
000003f0: f9b4 4bbe 5c99 a8be 05f9 b9bb f6ca 88be

encoder.blocks.1.attn.proj.bias f4 [16]
-0.025056943 -0.042099986 -0.034441132 -0.031351425 0.022513317 -0.01274992 0.0012417643 0.032242652
0.047887556 0.018637676 0.054099362 0.051582277 -0.05143673 0.005703794 0.04014879 -0.01691723
00000000: 3844 cdbc 0971 2cbd 2512 0dbd 5a6a 00bd
00000010: d96d b83c 0ae5 50bc b2c2 a23a df10 043d
00000020: be25 443d 0aae 983c 4b97 5d3d f047 533d
00000030: 52af 52bd e4e6 ba3b 0f73 243d 0196 8abc

encoder.blocks.1.norm2.weight f4 [16]
0.97697955 0.9280455 0.9470282 0.9321594 0.94435686 0.9413557 0.9574476 0.9428908
0.8942642 0.931041 0.9572654 0.9092563 0.952146 0.85967475 0.9579358 0.95450324
00000000: 551b 7a3f 6494 6d3f 7170 723f 00a2 6e3f
00000010: 5fc1 713f b0fc 703f 491b 753f 4b61 713f
00000020: 80ee 643f b458 6e3f 580f 753f 05c5 683f
00000030: d7bf 733f a513 5c3f 483b 753f 535a 743f

encoder.blocks.1.norm2.bias f4 [16]
0.01726583 0.00442153 0.018022735 0.0042898543 -0.016192261 -0.042998224 0.005138642 -0.007912566
0.01844873 -0.0028675075 0.014143655 -0.016917614 0.048878394 -0.028413132 -0.006838502 -0.026035955
00000000: 1271 8d3c 7be2 903b 6aa4 933c e891 8c3b
00000010: a2a5 84bc e81e 30bd 0e62 a83b b5a3 01bc
00000020: cb21 973c cbec 3bbb caba 673c cf96 8abc
00000030: b634 483d a8c2 e8bc 8315 e0bb 5b49 d5bc
