Checkpoint/dict_13.pth (torch, 108787 bytes, 64 tensors)

encoder.cls_token f4 [1, 1, 16]
0	0x3f005349	0.50127083
1	0x3fd93493	1.6969169
2	0x3fd36b0f	1.6517047
3	0xbf597d12	-0.8495647
4	0x3edfebb2	0.4373451
5	0xbeffaf3d	-0.49938384
6	0x3e993e1e	0.29930204
7	0xbf818e70	-1.0121593
8	0x3e51b5bc	0.20479482
9	0xbe6e5e6d	-0.23278208
10	0x3eabd751	0.3356271
11	0x3fc5098d	1.539354
12	0xbf630986	-0.88686407
13	0x3edcacc4	0.4310056
14	0xbf58be4d	-0.84665376
15	0xbf21dc14	-0.6322644

encoder.patch_embed.weight f4 [16, 5]
0	0xbed629bb	-0.41828713
1	0xbe9b1e01	-0.3029633
2	0x3f02e99d	0.51137716
3	0xbefc164f	-0.4923577
4	0x3eba29d5	0.3636004
5	0x3e55c693	0.20876531
6	0x3d145bb2	0.03622026
7	0x3ebb9a5c	0.36641204
8	0x3dc810dc	0.09768841
9	0x3e6bb2d7	0.2301744
10	0x3e991879	0.29901484
11	0xbdf48b2c	-0.119406074
12	0x3d4f5ccd	0.05062561
13	0x3e6fd922	0.23422673
14	0x3dcfdfef	0.10150134
15	0x3f176cad	0.591502
16	0xbecc2049	-0.39868382
17	0xbeee4065	-0.46533504
18	0xbe1c1149	-0.15240969
19	0xbe1eb26c	-0.1549775
20	0x3ea4bf7a	0.32177335
21	0xbf04507b	-0.51685303
22	0xbf1b47f4	-0.60656667
23	0x3f135a52	0.5755969
24	0x3f0105dc	0.50399566
25	0xbb41f508	-0.0029595513
26	0x3e970faa	0.29504138
27	0x3eef9405	0.46792617
28	0x3ed2f1a2	0.41199976
29	0xbf0b86f5	-0.54502803
30	0xbdfaaacf	-0.122396104
31	0x3b57c5f9	0.0032924397
32	0x3ebf0476	0.3730809
33	0xbe9524da	-0.29129678
34	0xbedcda17	-0.4313514
35	0x3ee8f7f6	0.4550168
36	0x3e2ce8c9	0.16885675
37	0xbc2c6d41	-0.010524095
38	0xbec42249	-0.38307407
39	0xbe99bf49	-0.30028751
40	0x3e6c1f69	0.23058857
41	0x3ea48a03	0.32136545
42	0xbe1a198e	-0.15048811
43	0xbf065acb	-0.5248229
44	0xbcbed9d4	-0.023297228
45	0xbefd218c	-0.49439657
46	0x3e03545c	0.1282515
47	0xbe9e2824	-0.3089
48	0x3e71b112	0.23602703
49	0xbce92219	-0.028458642
50	0x3d511994	0.051049784
51	0xbcb102c6	-0.021607768
52	0x3df261ab	0.11835035
53	0x3dd53f6f	0.104124896
54	0xbe81333c	-0.252344
55	0xbefd7ad3	-0.4950777
56	0xbe3f115a	-0.18658963
57	0x3e852b72	0.2600971
58	0xbf1d4532	-0.6143371
59	0x3e9579ff	0.29194638
60	0x3ebd5a72	0.36983067
61	0x3efc28f1	0.49249986
62	0x3ec201c2	0.37891966
63	0xbf24757e	-0.6424178
64	0x3eada35d	0.339137
65	0xbea8dfdd	-0.32983294
66	0xbeaed6bb	-0.341482
67	0xbf03bfcf	-0.5146455
68	0x3f1325c5	0.57479507
69	0xbe97673a	-0.29570943
70	0x3e3b7ca9	0.18309273
71	0x3bb7da17	0.005610715
72	0x3ebf4079	0.37353876
73	0xbebb0b3f	-0.36532018
74	0xbd26dd57	-0.04073843
75	0x3e0eaa4b	0.13932149
76	0x3ec8e5de	0.39237875
77	0xbf130307	-0.57426494
78	0x3ed2c894	0.41168654
79	0x3d8a7c1f	0.067619555

encoder.patch_embed.bias f4 [16]
0	0x3db795f6	0.0896415
1	0x3c657eb4	0.014007259
2	0x3b4701db	0.0030366096
3	0xbc8499c2	-0.016186599
4	0x3d0c8898	0.034309953
5	0xbce69f05	-0.028151998
6	0xbcac740e	-0.021051433
7	0xbd269378	-0.04066798
8	0x3da7f1c6	0.082004115
9	0xbabc04ad	-0.0014344655
10	0xbd8e63b8	-0.069526136
11	0xbdba80d3	-0.091066025
12	0x3da8b59c	0.08237764
13	0xbe06b1f8	-0.13153827
14	0x3cb5468a	0.022128362
15	0x39168a30	0.00014356594

encoder.blocks.0.norm1.weight f4 [16]
0	0x3f832b81	1.0247651
1	0x3f7fe822	0.9996358
2	0x3f811e8f	1.0087451
3	0x3f7eb432	0.99493706
4	0x3f90b322	1.1304667
5	0x3f8e32cf	1.1109256
6	0x3f8440f5	1.0332323
7	0x3f6e9154	0.93190503
8	0x3f79b323	0.97538966
9	0x3f814db9	1.0101844
10	0x3f792042	0.97314847
11	0x3f8f37b1	1.1188871
12	0x3f7e83d2	0.9941989
13	0x3f868ab4	1.0511079
14	0x3f7ccd28	0.98750544
15	0x3f8916e1	1.0710107

encoder.blocks.0.norm1.bias f4 [16]
0	0xbc9b1d93	-0.018935
1	0x3c397e08	0.011321552
2	0x3d997a02	0.07493974
3	0xbc0a4c4a	-0.00844104
4	0xbd6e79a0	-0.05822146
5	0x3d4bc3f4	0.049747422
6	0xbb950ad9	-0.0045484123
7	0x3d1d34d4	0.03838046
8	0x3d109344	0.035296693
9	0x3b866cd7	0.00410233
10	0xbdc83e12	-0.09777464
11	0xbd18b64a	-0.03728322
12	0x3dcbdc03	0.09954073
13	0xbd4c540e	-0.04988485
14	0x3cfd3704	0.030910023
15	0x3d66e4ba	0.056370474

encoder.blocks.0.attn.qkv.weight f4 [48, 16]
0	0x3d26a4b1	0.040684406
1	0x3d718802	0.058967598
2	0x3d8d3d77	0.06896489
3	0xbcb2a9a9	-0.021809416
4	0xbea92f10	-0.33043718
5	0xbccb03bf	-0.02478206
6	0x3e6dffb7	0.23242079
7	0xbdbfd7a7	-0.09367304
8	0x3db99c9b	0.09063073
9	0xbdb45ce8	-0.08806783
10	0x3e661ef8	0.22472751
11	0x3ea6cccc	0.32578123
12	0xbd8365f5	-0.06415931
13	0xbe2120d4	-0.15735179
14	0xbde96a76	-0.11397259
15	0xbe3aec26	-0.18254146
16	0xbeda542c	-0.42642343
17	0xbe26844e	-0.16261408
18	0xbe58ffb8	-0.21191299
19	0x3eedb589	0.46427563
20	0x3e874764	0.26421654
21	0xbe6c603e	-0.23083588
22	0x3ea18a48	0.31550813
23	0xbe60a71f	-0.21938752
24	0x3e3a5c17	0.18199192
25	0x3e68222b	0.22669284
26	0xbe5bdf36	-0.21471867
27	0xbe374e2a	-0.17900911
28	0xbdab24e3	-0.08356645
29	0x3e9d7b1c	0.30757987
30	0x3d89cc5f	0.06728434
31	0x3dade98e	0.08491813
32	0x3e800083	0.2500039
33	0x3e519e5a	0.20470563
34	0xbe45dcc2	-0.19322494
35	0x3cfc8a30	0.030827612
36	0xbdee5f18	-0.116392314
37	0x3d746227	0.059663918
38	0xbe203211	-0.15644099
39	0x3d26fe44	0.04076983
40	0xbe823ad6	-0.25435513
41	0x3e888faa	0.26672107
42	0xbe8c330b	-0.27382693
43	0xbe9e835e	-0.309596
44	0xbdeebd9f	-0.11657261
45	0x3e2e9926	0.17050609
46	0x3dbfb943	0.09361508
47	0xbde93751	-0.11387504
48	0xbd751634	-0.059835628
49	0x3db39f60	0.08770633
50	0x3ceb0040	0.028686643
51	0xbd91457a	-0.0709333
52	0x3d7a475d	0.061103214
53	0xbe12904e	-0.1431286
54	0xbe98a216	-0.29811162
55	0x3e3e1fa5	0.18566759
56	0x3e247008	0.16058362
57	0xbebac000	-0.3647461
58	0xbdd61964	-0.104540616
59	0x3eaa9bba	0.33321935
60	0xbe722a62	-0.2364898
61	0xbd63f754	-0.055655792
62	0xbe6d62f4	-0.23182279
63	0x3c859380	0.016305685
64	0xbe5c47d8	-0.21511781
65	0x3ebbf08f	0.3670697
66	0xbf03dceb	-0.5150897
67	0xbe4bced7	-0.19903122
68	0x3d96217a	0.07330604
69	0xbea5e5c9	-0.32401875
70	0xbe6bc089	-0.23022665
71	0xbe134bf2	-0.1438444
72	0x3dbcb035	0.09213296
73	0xbdfbd4e8	-0.12296468
74	0xbe3ce3ae	-0.18446228
75	0x3b4ec031	0.003154766
76	0x3ee65dff	0.44993588
77	0xbd6ea158	-0.05825934
78	0xbe410725	-0.18850382
79	0x3c992d1b	0.018698266
80	0x3edecb74	0.43514597
81	0xbe7e914e	-0.24860117
82	0x3c9b2534	0.018938638
83	0x3dcdb840	0.100449085
84	0x3e8e549c	0.27798927
85	0x3e8d6c94	0.276219
86	0xbe99ec50	-0.30063105
87	0x3e3e07f9	0.18557729
88	0xbefe87f8	-0.4971311
89	0xbe11f405	-0.14253242
90	0x3ef8fb0f	0.48629043
91	0x3e945812	0.28973442
92	0x3cd59786	0.026073229
93	0xbdd03a79	-0.10167403
94	0x3e57fe9b	0.21093218
95	0xbe1d8f45	-0.15386684
96	0x3eaff414	0.34365904
97	0xbcd87113	-0.026421105
98	0x3c94bb9f	0.018155871
99	0xbcbf0aa3	-0.023320502
100	0x3e695b47	0.22788726
101	0xbd841809	-0.06449897
102	0x3e0cea37	0.13761221
103	0x3e85a389	0.2610133
104	0x3d3ed3c6	0.04658868
105	0xbcb7bc92	-0.022428785
106	0xbe33c412	-0.17555264
107	0xbe0567c3	-0.13027863
108	0x3e7647b1	0.24050786
109	0x3e2a86fc	0.16653055
110	0xbdd1a0cf	-0.1023575
111	0x3d5ea34b	0.054354947
112	0xbe663122	-0.2247968
113	0xbc76c6e9	-0.015062072
114	0xbeb3bafe	-0.351036
115	0x3ded5504	0.11588481
116	0xbf05ffb8	-0.5234332
117	0x3e84e336	0.25954598
118	0xbe6b83c7	-0.22999488
119	0x3ed574eb	0.41690764
120	0xbee803c2	-0.45315367
121	0x3f14e543	0.58162326
122	0xbda69e09	-0.081356116
123	0x3eed5466	0.46353453
124	0x3cf8ef2a	0.03038748
125	0xbd521065	-0.051285166
126	0x3dcf22a8	0.10114032
127	0x3d8c21b0	0.06842363
128	0xbed6ae92	-0.41930062
129	0xbe3543a5	-0.17701586
130	0x3e9c44b5	0.3052117
131	0x3e890088	0.26758218
132	0xbe5953e0	-0.21223402
133	0xbda03a15	-0.07823578
134	0xbd400732	-0.046881862
135	0x3cdd204f	0.026992945
136	0x3e47cb81	0.19511224
137	0x3cd136d6	0.025538843
138	0x3e24e5a6	0.16103229
139	0x3e8c7c72	0.27438694
140	0xbe105ad0	-0.14097142
141	0x3ada8a96	0.0016673382
142	0xbea64cdd	-0.32480517
143	0x3ea34c4b	0.31894144
144	0x3dcaf7c2	0.09910537
145	0x3dd1eebf	0.10250615
146	0x3ddf3e8d	0.109006025
147	0x3dfa167f	0.12211322
148	0x3e3f9764	0.18710095
149	0xbe1e8e2e	-0.15483925
150	0xbe050ef3	-0.12993984
151	0xbdfe8d9c	-0.124293536
152	0xbb229863	-0.0024810068
153	0xbd520977	-0.051278558
154	0xbdf61035	-0.1201481
155	0xbd6a842f	-0.057254966
156	0xbe86156a	-0.26188213
157	0xbaf41e2f	-0.0018624718
158	0xbe679f2f	-0.22619317
159	0xbe85ea14	-0.2615515
160	0x3eb0ffa9	0.34570053
161	0x3e7eb294	0.2487281
162	0xbd5bcd64	-0.053662673
163	0xbe9366ce	-0.2878937
164	0x3d972ecd	0.073819734
165	0xbe3fe42f	-0.18739389
166	0x3e8a5b0e	0.27022594
167	0x3d9776eb	0.07395729
168	0x3d51b91a	0.051201917
169	0x3ebd9061	0.37024215
170	0x3e600d40	0.21880054
171	0x3beba165	0.0071908706
172	0xbd5c198e	-0.05373531
173	0x3dd631df	0.10458731
174	0x3eac281d	0.33624354
175	0x3e0f2a03	0.1398087
176	0x3ce27a3f	0.027646182
177	0xbe906cc7	-0.2820799
178	0x3e89f655	0.2694575
179	0x3e164173	0.14673404
180	0x3d4a1598	0.049337
181	0x3db7e370	0.08978927
182	0xbdec1fa3	-0.11529472
183	0xbe1d0823	-0.15335135
184	0xbdd98a74	-0.10622111
185	0x3e64ba16	0.22336611
186	0xbe3ed562	-0.18636087
187	0xbd76f776	-0.06029459
188	0xbea2eb7b	-0.31820282
189	0x3e41fef1	0.18944909
190	0x3e49e09b	0.19714586
191	0xbde0390e	-0.10948382
192	0xbdf52778	-0.11970419
193	0x3c8b8c56	0.01703469
194	0xbeb1e77c	-0.3474692
195	0xbe500c8f	-0.2031729
196	0x3efd2a40	0.49446297
197	0xbee0b611	-0.43888906
198	0x3deac1fb	0.1146278
199	0xbee6f585	-0.45109192
200	0x3d96278e	0.07331763
201	0x3d35ca69	0.044382486
202	0x3de910ec	0.11380181
203	0xbe086e45	-0.13323314
204	0xbd398acc	-0.045298383
205	0xbe7c8439	-0.24659814
206	0x3d62bb54	0.05535443
207	0xbec952e6	-0.3932106
208	0xbeb6579b	-0.35613713
209	0x3df5f9c1	0.120105274
210	0x3ed48c75	0.4151341
211	0x3e943015	0.28942934
212	0x3d923d89	0.07140643
213	0x3d82f37c	0.06394097
214	0xbe95253d	-0.29129973
215	0x3eab85c5	0.33500496
216	0xbde3831d	-0.11108992
217	0xbebf6836	-0.37384194
218	0xbe16d930	-0.14731288
219	0x3e754c80	0.23954964
220	0xbcd87dde	-0.026427206
221	0x3c1e3c72	0.009657966
222	0x3e16c7eb	0.147247
223	0x3edb7710	0.42864275
224	0x3dddc0c9	0.108277865
225	0xbcc4c290	-0.024018556
226	0xbe9c1b90	-0.3048978
227	0x3dbf65df	0.09345602
228	0xbddde80d	-0.10835276
229	0xbc6cda7d	-0.014456389
230	0xbd17e9a9	-0.03708807
231	0xbdda7387	-0.10666566
232	0xbd4c46bc	-0.049872145
233	0xbcb34bb5	-0.021886686
234	0xbd8d1485	-0.068886794
235	0xbe76999a	-0.24082032
236	0x3dace8cf	0.08442842
237	0xbe350fbf	-0.17681788
238	0x3c88b22e	0.016686525
239	0x3e111912	0.1416972
240	0x3ea75efd	0.32689658
241	0x3e66c038	0.22534263
242	0xbcecf143	-0.028923636
243	0xbe933b6a	-0.28756267
244	0x3ebbaf64	0.3665725
245	0xbeb95615	-0.36198488
246	0x3e7b87c1	0.24563505
247	0x3e0ea444	0.1392985
248	0xbd69fb41	-0.05712438
249	0xbe3d5d70	-0.18492675
250	0x3e8a2232	0.26979214
251	0xbdf62574	-0.12018862
252	0x3e4c66f3	0.19961147
253	0xbe3d133f	-0.18464373
254	0x3cae1927	0.021252228
255	0x3dd553e2	0.1041639

encoder.blocks.0.attn.proj.weight f4 [16, 16]
0	0x3f03d24d	0.5149277
1	0xbe1f5f64	-0.15563732
2	0x3e92e2ef	0.28688762
3	0x3e02872b	0.12746875
4	0x3d992ea0	0.07479596
5	0x3de11d8d	0.109919645
6	0xbe5eb297	-0.21747814
7	0x3ee98d7e	0.45615762
8	0x3cfeded6	0.031112116
9	0xbcd8a95c	-0.026447944
10	0xbde1ab13	-0.11018958
11	0xbdb0a8f2	-0.08625974
12	0xbe4577c2	-0.19283965
13	0xbe6ec8e6	-0.23318824
14	0x3e6127db	0.2198786
15	0xbd9f517f	-0.07779216
16	0xbd8c7c2b	-0.06859621
17	0x3e8bc0e9	0.27295616
18	0xbeba75a2	-0.36417872
19	0x3e3d4e34	0.18486863
20	0xbe976f14	-0.29576933
21	0xbe2f5d3f	-0.17125414
22	0xbd842196	-0.064517185
23	0xbcec3a0b	-0.02883627
24	0x3eb0fdd6	0.3456866
25	0xbec4e481	-0.38455585
26	0xbecff7da	-0.40618783
27	0xbe9d62b1	-0.30739358
28	0xbe7aa9a5	-0.24478777
29	0x3dbf6986	0.09346299
30	0x3e8a879b	0.27056584
31	0xbd803b0a	-0.06261261
32	0x3eb05fa9	0.34447983
33	0x3d3f716a	0.04673902
34	0xbd8e757a	-0.069560006
35	0x3dc0db6d	0.09416852
36	0x3da7fda7	0.08202677
37	0x3daef798	0.085433185
38	0xbe9a61b8	-0.30152678
39	0xbe530f28	-0.2061125
40	0x3e9f6ea4	0.311391
41	0xbe9da254	-0.3078791
42	0x3cedfab7	0.029050214
43	0x3c56d90a	0.01311327
44	0x3ec1e491	0.37869695
45	0x3e43a3d8	0.1910547
46	0x3e7902ec	0.24317521
47	0xbe6f8f77	-0.23394571
48	0xbe1ec91c	-0.15506405
49	0x3e940c8d	0.28915825
50	0xbe29a935	-0.16568454
51	0x3e7fcadd	0.2497973
52	0x3eafe3e8	0.34353566
53	0xbee19d90	-0.44065523
54	0xbe8d1873	-0.27557716
55	0x3e1a3b28	0.15061629
56	0xbd3c6263	-0.045992266
57	0x3ec4711d	0.3836755
58	0xbe906942	-0.28205305
59	0xbeda3264	-0.4261657
60	0xbbac9ff1	-0.00526809
61	0x3ea1f0de	0.3162908
62	0x3dd1c3ec	0.10242447
63	0xbd5da4a9	-0.05411211
64	0xbecd41d5	-0.40089288
65	0x3e709db1	0.23497654
66	0x3eb9f29a	0.36317903
67	0xbe463d43	-0.19359307
68	0xbc9a98a9	-0.018871622
69	0xbe020d2a	-0.12700334
70	0x3e889450	0.26675653
71	0xbea45902	-0.32099158
72	0x3dc3c4f4	0.0955905
73	0xbd900a81	-0.070332535
74	0x3daa9b9d	0.08330462
75	0x3d71b4c6	0.05901029
76	0x3e925a64	0.28584588
77	0x3eb23a4f	0.3481011
78	0xbea4165c	-0.3204831
79	0xbdeb4364	-0.11487463
80	0x3e8d9d9d	0.27659312
81	0xbe8dd05c	-0.27698028
82	0xbe4ea5f7	-0.20180498
83	0xbe8f46f4	-0.2798382
84	0xbe8c1cab	-0.27365622
85	0xbecf11b8	-0.40443206
86	0x3e35fd1d	0.17772336
87	0xbe35b1ad	-0.17743559
88	0xbdd021ac	-0.101626724
89	0x3e695984	0.22788054
90	0x3e49e850	0.19717526
91	0x3daf5a16	0.085621044
92	0xbd7fc67e	-0.062445156
93	0xbea76dfc	-0.327011
94	0x3ea84b4c	0.32869947
95	0xbe867e78	-0.26268363
96	0xbea31eeb	-0.31859526
97	0x3e9538f3	0.2914501
98	0xbdce26f0	-0.100660205
99	0x3ec65c06	0.38742083
100	0xbe7fa278	-0.2496432
101	0x3ed29591	0.41129735
102	0x3d33ed50	0.04392749
103	0x3d19740e	0.037464194
104	0xbe4631ff	-0.1935501
105	0x3e9b0900	0.30280304
106	0x3eb2190c	0.34784734
107	0x3eb2c0a0	0.34912586
108	0x3ea61d36	0.3244416
109	0x3e3ae4d4	0.18251354
110	0x3e6ec7e4	0.2331844
111	0x3ca6f0ee	0.020378556
112	0xbe38988a	-0.18026939
113	0xbd7fdc65	-0.062466044
114	0xbdaacbb8	-0.083396375
115	0xbec33e1f	-0.38133332
116	0x3e9903d8	0.29885745
117	0x3daeadbe	0.085292324
118	0xbefec610	-0.49760485
119	0x3ea8fe9b	0.3300675
120	0xbd0edca5	-0.03487839
121	0xbd53e40e	-0.05173116
122	0x3e566cbf	0.20939921
123	0x3e7a8c23	0.2446752
124	0x3e5139c2	0.20432189
125	0x3e28da69	0.16489567
126	0x3ef42ff9	0.4769285
127	0xbeb79652	-0.35856873
128	0x3d5223b6	0.051303588
129	0x3ee24b86	0.44198245
130	0xbc30abeb	-0.010783176
131	0xbda7d730	-0.08195341
132	0x3e04ec77	0.12980829
133	0x3ee3ff4a	0.44530708
134	0x3e8e73fd	0.27822867
135	0xbe693f12	-0.22777966
136	0x3e9952f2	0.29946095
137	0x3e16631d	0.14686246
138	0x3e751dc3	0.23937134
139	0x3e6a50bb	0.22882359
140	0xbef2f01a	-0.47448808
141	0x3cb1a371	0.02168438
142	0xbe90330d	-0.2816395
143	0xbe80e60a	-0.25175506
144	0xbe98e927	-0.2986538
145	0x3d8ab2b4	0.06772366
146	0x3e46a02f	0.19397043
147	0x3e94ac83	0.29037866
148	0xbce5c88c	-0.02804973
149	0xbde3d51d	-0.111246325
150	0xbde4c64b	-0.11170634
151	0xbe199d91	-0.15001513
152	0x3e8716f8	0.2638471
153	0xbe39fcda	-0.18162861
154	0xbeafc8b4	-0.34332812
155	0xbc26827f	-0.010162949
156	0x3e4de565	0.20107038
157	0x3edae1e9	0.4275048
158	0xbd50ccb0	-0.050976455
159	0x3eb93924	0.36176407
160	0xbeab561b	-0.3346413
161	0xbe5518a2	-0.20810178
162	0x3efa70db	0.48914227
163	0xbe28d0e7	-0.1648594
164	0x3c3126c7	0.010812468
165	0x3bf7f834	0.00756743
166	0x3db8ff3f	0.09033059
167	0x3e4bebb9	0.1991414
168	0xbdb4e200	-0.088321686
169	0xbd303f92	-0.043029375
170	0x3e3d6b4e	0.18497965
171	0x3da44853	0.08021607
172	0xbebb3b21	-0.3656855
173	0x3e9c8028	0.30566525
174	0x3e6de3fb	0.23231499
175	0xbdf6ebf3	-0.120567225
176	0x3eeda724	0.4641658
177	0x3ea82271	0.32838777
178	0x3d10fde7	0.03539839
179	0xbdd55feb	-0.104186855
180	0x3db1fffb	0.086914025
181	0xbca75ef0	-0.020431012
182	0x3ee505e7	0.44731066
183	0x3c479910	0.012182489
184	0x3c6a59ae	0.014303608
185	0xbd9871d9	-0.0744359
186	0xbdb1853f	-0.08667993
187	0xbd7b16e0	-0.061301112
188	0xbe117ea0	-0.1420846
189	0xbed20adb	-0.41023907
190	0x3e9ce1f2	0.30641133
191	0xbdc02c0a	-0.093834
192	0x3ebbd1f2	0.36683613
193	0xbb2b91ba	-0.002617939
194	0xbe1e49f0	-0.15457892
195	0x3eb1301b	0.34607014
196	0xbe989e77	-0.298084
197	0x3e91ac90	0.28451967
198	0xbe5c2139	-0.21497048
199	0xbdec9c6e	-0.11553274
200	0x3eb39627	0.35075495
201	0x3e80ddd4	0.2516924
202	0xbdbf5b9d	-0.09343646
203	0x3e2fd5e8	0.17171443
204	0x3e8f2e41	0.27964976
205	0x3ebd9c52	0.37033325
206	0xbe030076	-0.12793145
207	0xbda1785b	-0.07884284
208	0xbe6e05af	-0.23244356
209	0x3e484ed2	0.19561318
210	0x3dc3f26a	0.09567721
211	0xbea24764	-0.31695092
212	0x3c8d7aa0	0.017270386
213	0x3d3ca7b9	0.04605839
214	0xbea2a646	-0.31767482
215	0x3d8379f8	0.06419748
216	0x3e02aa2d	0.1276023
217	0xbec21b98	-0.37911677
218	0x3dfabf78	0.12243551
219	0xbf15d9a4	-0.5853522
220	0x3e81682d	0.25274792
221	0xbe9e4329	-0.30910614
222	0xbe94685f	-0.2898588
223	0x3c642a2d	0.013926071
224	0xbe636bca	-0.22209087
225	0xbe95d115	-0.2926108
226	0x3d03972b	0.032126587
227	0xbe319b21	-0.17344333
228	0xbe7262ec	-0.23670548
229	0x3da704f7	0.08155244
230	0x3dbd8ff0	0.092559695
231	0x3e0206db	0.12697928
232	0x3e0b5f1f	0.13610505
233	0x3e762885	0.24038894
234	0xbed15179	-0.4088247
235	0xbeb71068	-0.35754704
236	0xbe828874	-0.2549473
237	0x3e12eb0e	0.14347479
238	0xbe1eece7	-0.15520059
239	0x3dfcbea0	0.12341046
240	0x3c54c0db	0.012985433
241	0xbe975994	-0.2956053
242	0x3b95482e	0.0045557236
243	0xbd8b53f3	-0.068031214
244	0xbdc63de5	-0.09679774
245	0xbf072168	-0.5278535
246	0xbe9ac62f	-0.30229327
247	0x3da03a9f	0.07823681
248	0xbe64a3f3	-0.22328167
249	0x3e81941c	0.2530831
250	0x3eb98537	0.36234447
251	0xbd8e3d5e	-0.069452986
252	0x3dc3eb70	0.095663905
253	0xbe6a29f6	-0.2286757
254	0x3e4de35b	0.2010626
255	0xbe05c09d	-0.13061757

encoder.blocks.0.attn.proj.bias f4 [16]
0	0xbd1f4df1	-0.03889269
1	0x3cee28c3	0.029072171
2	0x3cf9da83	0.030499702
3	0xbc4a92d7	-0.012364111
4	0xbcc4d503	-0.024027353
5	0x3d30e11c	0.04318343
6	0x3ccc8b9b	0.024968913
7	0x3cbd3e26	0.023100924
8	0x3c90db8e	0.017682817
9	0xbd2bbb74	-0.041926816
10	0xbd8a81f7	-0.0676307
11	0xbd8ca643	-0.068676494
12	0x3d30a87a	0.04312942
13	0xbcd92637	-0.02650748
14	0xbbc8487d	-0.006112157
15	0x3d8feafb	0.07027241

encoder.blocks.0.norm2.weight f4 [16]
0	0x3f81d667	1.0143555
1	0x3f6f2101	0.93409735
2	0x3f651719	0.8948837
3	0x3f765fbe	0.9623984
4	0x3f52b708	0.82310534
5	0x3f856423	1.0421184
6	0x3f6a6a85	0.91568786
7	0x3f65cb53	0.89763373
8	0x3f82ed87	1.0228738
9	0x3f6c244d	0.9224289
10	0x3f76ffd8	0.96484137
11	0x3f85fe53	1.0468239
12	0x3f83e15e	1.0303152
13	0x3f7b64ae	0.982005
14	0x3f708881	0.9395829
15	0x3f766fb8	0.9626422

encoder.blocks.0.norm2.bias f4 [16]
0	0xbaf03bb2	-0.0018328337
1	0xbbf0f194	-0.007353017
2	0xbcb2d140	-0.021828294
3	0x3befbcf3	0.0073162257
4	0x3c8304cb	0.015993496
5	0x3d13e9da	0.03611169
6	0x3be22a97	0.0069020498
7	0xbc988426	-0.0186177
8	0xbb9c446c	-0.0047688987
9	0x3cc857ab	0.024455866
10	0x3ce6bace	0.028165247
11	0x3c9ce77b	0.019153347
12	0x3c873991	0.016506942
13	0xbb2a586b	-0.0025992643
14	0x3ba32b25	0.0049795085
15	0x3b3fe849	0.002928274

encoder.blocks.0.mlp.fc1.weight f4 [64, 16]
0	0x3e9801a7	0.2968876
1	0xbe445ae2	-0.19175294
2	0xbcb5b20e	-0.02217963
3	0x3e79e3a9	0.24403252
4	0xbcfb59cf	-0.030682473
5	0xbd92ebb3	-0.07173862
6	0x3dd5d030	0.10440099
7	0x3dc08bcf	0.094016664
8	0x3e3b7a7b	0.18308441
9	0x3e54d26a	0.20783392
10	0x3c39e9e1	0.011347265
11	0xbe70e27c	-0.23523897
12	0x3e59cdb7	0.2126988
13	0xbc8d631c	-0.017259173
14	0x3dc837b5	0.0977625
15	0xbe6dd758	-0.23226678
16	0x3aaa4225	0.0012989683
17	0x3e2aec01	0.16691591
18	0x3e33471a	0.17507592
19	0xbe1abfc6	-0.15112218
20	0xbe64fc66	-0.22361907
21	0xbddb78b8	-0.10716385
22	0xbdfedd48	-0.1244455
23	0xbe2e7900	-0.17038345
24	0x3c1c8027	0.009552038
25	0x3dd52303	0.104070686
26	0x3e7b34a8	0.24531806
27	0x3dc50695	0.09620396
28	0xbe329dff	-0.17443083
29	0xbe27dc68	-0.16392672
30	0xbdbf3f07	-0.093381934
31	0xbaaf1913	-0.0013358913
32	0xbd291bc7	-0.041286256
33	0xbe2324f6	-0.15932068
34	0x3e1f0121	0.15527774
35	0x3d8011ad	0.062533714
36	0xbdd5f4a1	-0.1044705
37	0x3d184b35	0.037181098
38	0xbd9852eb	-0.0743769
39	0xbdf2930f	-0.118444555
40	0xbe8c8c90	-0.2745099
41	0x3e5026b4	0.20327264
42	0xbd34f5a7	-0.044179585
43	0xbe0daee0	-0.13836241
44	0x3d94ef5a	0.07272215
45	0x3e596347	0.21229278
46	0xbc9d1f5b	-0.01917999
47	0x3e5022cd	0.20325775
48	0x3e50ff78	0.20409954
49	0xbde56ca0	-0.11202359
50	0x3c07fdad	0.008300227
51	0xbe0e7a5e	-0.13913867
52	0xbd734a01	-0.059396747
53	0x3e8c76b3	0.2743431
54	0x3de460ff	0.11151313
55	0x3e105fe0	0.14099073
56	0xbe1dcffa	-0.15411368
57	0xbe0dc84b	-0.13845937
58	0xbda62313	-0.081121586
59	0xbd3d1451	-0.046161953
60	0xbe295508	-0.16536343
61	0x3c52e703	0.01287246
62	0x3e549de6	0.20763358
63	0x3e8792d5	0.2647921
64	0xbe304bff	-0.1721649
65	0xbe5c9c17	-0.21543919
66	0xbe3d8932	-0.18509367
67	0x3e596ffa	0.21234122
68	0xbb96d214	-0.00460268
69	0xbdddbe1e	-0.108272776
70	0xbe61e0f1	-0.22058465
71	0x3e680cdd	0.22661157
72	0x3dc9d412	0.09854902
73	0xbe0fecae	-0.1405513
74	0xbe917ee0	-0.2841711
75	0xbe048992	-0.12943104
76	0xbe923ab2	-0.28560406
77	0x3e3220cb	0.17395322
78	0xbdee1b14	-0.116262585
79	0x3e1d1813	0.15341215
80	0x3e7fd92d	0.2498519
81	0xbe67d967	-0.22641526
82	0xbd81c254	-0.06335893
83	0x3e4ac5ef	0.19802068
84	0x3e9c8c44	0.30575764
85	0xbdba559a	-0.090983585
86	0x3e97f32e	0.2967772
87	0x3e002a5a	0.12516156
88	0x3e882a14	0.26594603
89	0x3e5b5ac1	0.21421339
90	0x3e9dfb52	0.30855805
91	0x3db7fb92	0.0898353
92	0x3d78999a	0.06069336
93	0x3e607de0	0.21923018
94	0xbbd4bd7b	-0.0064923144
95	0x3d9ecb42	0.07753612
96	0xbe97bad2	-0.2963472
97	0x3e82db86	0.25558108
98	0x3c7e28b1	0.015512631
99	0xbe72a51e	-0.236958
100	0xbda0a95f	-0.07844805
101	0xbcbd3f4b	-0.02310147
102	0x3e2a6573	0.16640262
103	0xbdf9d95a	-0.1219966
104	0xbe69a0d1	-0.22815253
105	0xbe391376	-0.1807383
106	0x3e5702d2	0.2099717
107	0xbe8a2bc8	-0.26986527
108	0xbe3a1a19	-0.18174018
109	0xbdbd5b4f	-0.09245931
110	0x3b105ccf	0.0022027974
111	0xbe185e8f	-0.14879821
112	0xbe42222f	-0.18958353
113	0x3e3bf3c5	0.1835471
114	0xbd959608	-0.07304007
115	0x3e4634c5	0.19356067
116	0x3dbe6b0a	0.0929776
117	0xbe460422	-0.19337514
118	0x3d942aa4	0.072346956
119	0xbccb4ff8	-0.024818406
120	0xbc75715c	-0.01498064
121	0xbdc53704	-0.09629634
122	0x3d662a84	0.05619289
123	0xbdad869d	-0.08472941
124	0xbe235c94	-0.15953285
125	0x3c715d4d	0.014731717
126	0x3e2a04f5	0.16603453
127	0x3c100cbe	0.0087921005
128	0xbdbdcea6	-0.09267931
129	0x3e7aea6b	0.24503486
130	0xbba619f6	-0.0050690128
131	0x3e3270e7	0.17425881
132	0xbe4d918e	-0.20075056
133	0x3e44fd1a	0.19237176
134	0x3e2ddb1a	0.16978112
135	0x3c6eb316	0.014569065
136	0x3e4be7b0	0.199126
137	0x3e30a163	0.17249064
138	0xbde13f82	-0.10998441
139	0xbe8b1ac7	-0.27168867
140	0x3d4e607d	0.050384987
141	0xbd5fc9b5	-0.054635722
142	0xbc3cce65	-0.011523818
143	0x3d8d7d79	0.06908698
144	0x3e9b20d3	0.3029848
145	0xbe5f04ec	-0.21779221
146	0x3d83a105	0.064271964
147	0xbdab6d5b	-0.08370467
148	0xbbbd43ad	-0.00577589
149	0xbd09fb4e	-0.03368693
150	0xbcfd1d08	-0.030897632
151	0x3e179878	0.14804256
152	0xbbc0094f	-0.0058604847
153	0x3e80e8ea	0.251777
154	0x3c9c1461	0.019052686
155	0x3dc3a59a	0.0955307
156	0xbe73b882	-0.23800853
157	0x3df833d5	0.12119261
158	0xbe28fd76	-0.16502938
159	0x3e592915	0.21207078
160	0xbd60ca83	-0.05488063
161	0x3def9372	0.11698045
162	0x3e175f8c	0.14782542
163	0x3e64a5aa	0.22328821
164	0x3c548bd6	0.012972793
165	0xbe163177	-0.14667307
166	0xbe494f00	-0.19659042
167	0xbe030458	-0.12794626
168	0x3e2d27d8	0.1690973
169	0xbc8debcf	-0.017324356
170	0x3c322e38	0.010875277
171	0xbe3f1142	-0.18658927
172	0xbc900d1f	-0.017584382
173	0x3dd00b80	0.101584435
174	0x3e7b018a	0.24512306
175	0xbb58bdf0	-0.0033072196
176	0xbe2b935c	-0.16755432
177	0x3e9e78e2	0.309516
178	0xbd56335c	-0.052295074
179	0x3e2cba79	0.16868009
180	0x3dc220fa	0.09478946
181	0x3d147954	0.03624852
182	0xbc4734cd	-0.012158585
183	0x3e06aa09	0.13150801
184	0xbdfe8341	-0.124273784
185	0x3e16e39a	0.1473526
186	0xbe40122a	-0.18756929
187	0x3e82cf88	0.2554896
188	0x3c8f671e	0.017505225
189	0xbe5bf2a4	-0.21479279
190	0x3e2938e5	0.1652561
191	0x3bb535d0	0.0055300966
192	0xbe04b7d0	-0.12960744
193	0xbd53ce35	-0.051710326
194	0xbe5c265b	-0.21499006
195	0x3c8d91e4	0.01728148
196	0x3be51a28	0.0069916435
197	0x3e96e5ac	0.294721
198	0xbeb66758	-0.3562572
199	0x3d5d93e6	0.054096125
200	0x3db55254	0.088535935
201	0xbe0c0df2	-0.13677195
202	0xbd8f4080	-0.06994724
203	0x3e2b0f0a	0.16704956
204	0x3e848794	0.25884688
205	0xbe6a3945	-0.22873409
206	0xbe9c20d1	-0.30493787
207	0x3ea57e26	0.32322806
208	0x3e43f386	0.19135866
209	0x3daab43d	0.08335159
210	0xbb0dcce9	-0.0021637029
211	0xbad6ba6e	-0.0016382465
212	0xbe0dbcb6	-0.13841519
213	0xbd2ba277	-0.041902985
214	0xbe6ed13b	-0.23322003
215	0x3e03601c	0.12829632
216	0x3e562efb	0.20916359
217	0x3e604548	0.21901429
218	0x3e65316b	0.22382133
219	0x3e533c18	0.20628393
220	0xbcb88ff0	-0.022529572
221	0xbe1c49d9	-0.15262546
222	0xbe5a3969	-0.21310963
223	0x3e0a5ee1	0.13512756
224	0x3ceceb81	0.02892089
225	0x3e492a02	0.19644931
226	0x3e82b14d	0.25525895
227	0x3e2353eb	0.15949981
228	0x3c8ac1f3	0.016938185
229	0x3e457773	0.19283848
230	0xbd70e7d7	-0.05881485
231	0xbc4e8d14	-0.012606878
232	0x3e7f4487	0.24928485
233	0x3e3bb158	0.1832937
234	0xbdb2cd68	-0.087305844
235	0x3c41fff7	0.011840812
236	0x3c761ace	0.015021039
237	0xbc444208	-0.011978634
238	0x3d32ed4c	0.043683335
239	0x3e376523	0.17909674
240	0xbd9ed9ac	-0.07756361
241	0xbe7bbc45	-0.24583538
242	0xbe230454	-0.1591962
243	0xbd11a5f8	-0.03555867
244	0xbd962870	-0.073319316
245	0x3e42b094	0.19012672
246	0xbe3229f0	-0.1739881
247	0xbe68fb79	-0.22752179
248	0x3e18ecf4	0.1493414
249	0xbe787d03	-0.24266438
250	0x3dc30187	0.09521776
251	0xbece2d3f	-0.40268895
252	0x3e34f5f5	0.1767195
253	0x3ddc42cf	0.1075493
254	0xbe3b17f2	-0.18270853
255	0x3da99d2d	0.08281932

encoder.blocks.0.mlp.fc1.bias f4 [64]
0	0xbd0ba315	-0.034091074
1	0xbcc4cd9c	-0.024023823
2	0x3c044d46	0.008075064
3	0x3d978fbd	0.07400463
4	0xbd36f420	-0.04466641
5	0xbd3b3c2e	-0.04571169
6	0x3bbbc43b	0.0057301796
7	0xbc8429ce	-0.016133215
8	0x3c80b849	0.015712874
9	0xbc6353e8	-0.013874985
10	0xbc11b116	-0.008892318
11	0x3c004a08	0.00783015
12	0x3d854fa1	0.06509329
13	0xb996735c	-0.0002869618
14	0xba30a66d	-0.00067386666
15	0xbc55ba71	-0.013044939
16	0xbc9c3ce1	-0.019071998
17	0x3c9c7fa2	0.019103829
18	0x3cb05901	0.021526815
19	0xbcf5d680	-0.030009508
20	0x3c77f1fe	0.015133379
21	0x3d150108	0.036377937
22	0xbc8a17f2	-0.016857121
23	0xba20ed1d	-0.0006138848
24	0x3c9e6853	0.019336855
25	0xbd22cdbb	-0.03974698
26	0x3d3ec5b1	0.046575252
27	0x3c40539a	0.011738682
28	0xbd66752f	-0.0562641
29	0x3bc8f6a5	0.006132918
30	0xbc102af3	-0.008799302
31	0xbd80b388	-0.06284243
32	0x3d2d3775	0.042289216
33	0x3cda3bb8	0.026639804
34	0x3d0cecc2	0.034405477
35	0xbd772e51	-0.060346905
36	0xbce89b59	-0.028394388
37	0x3b85214c	0.004062807
38	0xbcb26be1	-0.021779956
39	0x3b7ebe91	0.003887091
40	0x3d251887	0.040306594
41	0xbd13dddd	-0.036100257
42	0xbd8f43ca	-0.069953516
43	0x3b879f12	0.0041388357
44	0xbdca618d	-0.098818876
45	0xbc42f746	-0.011899775
46	0x3ce1aacc	0.027547263
47	0xbd505e32	-0.05087108
48	0xbc6d5de1	-0.0144877145
49	0x3cc78d56	0.024359386
50	0xba19ffc4	-0.0005874599
51	0xbd1b9cff	-0.03799152
52	0xbd2b8543	-0.041875135
53	0xb8d0d1fa	-9.957324e-05
54	0x3cea82ed	0.028626883
55	0x3c3da026	0.011573827
56	0xbcf80e36	-0.030280214
57	0x3a0c5a04	0.00053539895
58	0x3c1a1c3f	0.009406148
59	0xbcbbba71	-0.02291605
60	0xbca63174	-0.020287253
61	0xbb42598a	-0.002965542
62	0x3d4942cf	0.04913598
63	0xbcc0783b	-0.02349483

encoder.blocks.0.mlp.fc2.weight f4 [16, 64]
0	0x3e274e53	0.16338472
1	0x3e48f6e1	0.19625427
2	0x3e056174	0.13025457
3	0xbdd5e50d	-0.104440786
4	0x3e408a09	0.18802656
5	0x3d8b8e60	0.06814265
6	0x3ddc764d	0.107647516
7	0xbe3040f8	-0.17212284
8	0xbe79b938	-0.24387062
9	0xbe54dad4	-0.20786601
10	0xbc568cc6	-0.013095086
11	0x3c9bb103	0.019005304
12	0xbe514c2a	-0.2043921
13	0x3ded0ee7	0.11575108
14	0xbd6c7428	-0.057727963
15	0xbece79bc	-0.4032725
16	0x3e8035c1	0.2504101
17	0xbe0d17ef	-0.13778661
18	0xbc4be971	-0.0124457935
19	0xbd43cf07	-0.04780486
20	0x3df19712	0.117963925
21	0x3df66122	0.12030245
22	0xbdfbfe07	-0.12304311
23	0xbe24df94	-0.16100913
24	0xbd5e49c3	-0.054269563
25	0x3c0612ae	0.0081831645
26	0xbea17936	-0.3153779
27	0xbe4ef417	-0.202103
28	0x3e198028	0.14990294
29	0x3d16c6e4	0.03681077
30	0xbda2a339	-0.079412885
31	0x3e25b60f	0.16182731
32	0xbe8e3427	-0.27774164
33	0xbdfeed8b	-0.124476515
34	0xbe5b33f6	-0.2140654
35	0xbd919fbf	-0.07110547
36	0x3e55b5b3	0.20870094
37	0xbe0597a3	-0.13046126
38	0x3e2c6730	0.16836238
39	0x3e3d195a	0.18466702
40	0xbdb464f0	-0.08808315
41	0xbe33a9cf	-0.17545246
42	0x3d44d31a	0.048052885
43	0x3e2ca7f1	0.1686094
44	0x3e3776b3	0.17916374
45	0x3d935091	0.07193101
46	0xbe26c761	-0.16286995
47	0xbe4aeac8	-0.19816124
48	0xbe3efc22	-0.18650869
49	0x3e7ba441	0.24574377
50	0xbe102448	-0.1407634
51	0x3e7719f8	0.24131
52	0xbd4bf7a6	-0.049796723
53	0x3cdd6d12	0.027029548
54	0x3c0c35fd	0.008557794
55	0xbe2e2451	-0.17006041
56	0xbdcc6072	-0.09979333
57	0x3db88496	0.09009664
58	0x3dfe958f	0.1243087
59	0xbd6cc6aa	-0.05780665
60	0x3bae1c56	0.0053134365
61	0x3eec4290	0.46144533
62	0x3c80fc57	0.015745325
63	0xbe2afc84	-0.1669789
64	0x3d221d49	0.03957871
65	0xbe3fe722	-0.18740514
66	0x3dde6dfe	0.10860823
67	0x3def9e88	0.11700159
68	0x3dcbaa77	0.09944623
69	0xbdf68bea	-0.12038405
70	0x3e0d84da	0.1382021
71	0xbe7ad8be	-0.24496743
72	0x3e201297	0.15632091
73	0xbe89e929	-0.269357
74	0xbe79f999	-0.2441162
75	0x3d3fbf1b	0.04681311
76	0x3e0cc9a8	0.13748801
77	0x3d53b43c	0.051685557
78	0x3e0a7639	0.13521661
79	0x3e45341b	0.19258158
80	0xbcbea9a3	-0.023274248
81	0x3df14370	0.11780441
82	0x3d276eef	0.04087728
83	0x3e0a15f8	0.13484943
84	0xbe2f2bdc	-0.17106575
85	0xbd46d3df	-0.0485419
86	0xbe7fbbff	-0.24974059
87	0xbddc1886	-0.10746865
88	0x3e056c47	0.13029586
89	0x3e5132cf	0.20429538
90	0xbe1212dc	-0.14265007
91	0xbdebf7e2	-0.11521889
92	0x3e916c6f	0.2840304
93	0x3e5af3f9	0.2138213
94	0xbd836ecc	-0.06417617
95	0xbd9d51c3	-0.076816104
96	0x3e461ec5	0.19347675
97	0xbd101439	-0.035175536
98	0x3d5f56d6	0.054526173
99	0x3e5ff421	0.21870472
100	0xbe052c92	-0.13005283
101	0xbe68b176	-0.22723946
102	0x3e4c12df	0.19929074
103	0xbe859382	-0.26089102
104	0x3e5f2769	0.21792378
105	0xbe3da2ab	-0.18519084
106	0x3e241c5e	0.16026446
107	0xbe85ff27	-0.26171228
108	0xbe49bd4a	-0.19701114
109	0xbe82f8d2	-0.2558046
110	0x3e4f0b91	0.20219256
111	0x3dca0410	0.09864056
112	0xbe329063	-0.17437892
113	0x3e8bff14	0.27343047
114	0x3d2ef25f	0.04271161
115	0xbe77efb5	-0.24212535
116	0xbe9c539d	-0.30532542
117	0xbd24c37d	-0.040225495
118	0xbc394445	-0.011307781
119	0x3d988755	0.074476875
120	0x3e9d7f15	0.30761018
121	0x3e367de3	0.1782146
122	0xbe3bb128	-0.18329298
123	0x3e00bd4d	0.12572213
124	0x3e7db759	0.24776973
125	0x3d2d972c	0.042380497
126	0x3dd989ed	0.106220104
127	0xbe28f825	-0.1650091
128	0x3ddf13bd	0.10892437
129	0xbe7ced2a	-0.24699846
130	0x3e92e042	0.2868672
131	0x3e8e7c99	0.27829435
132	0x3d8b36be	0.067975506
133	0xbe9a2f37	-0.30114147
134	0x3e1b4808	0.15164196
135	0x3e64dbcb	0.2234947
136	0x3e1b512b	0.15167682
137	0x3e016a23	0.12638144
138	0xbd5e047b	-0.05420349
139	0xbdb597b6	-0.08866827
140	0xbda2b71d	-0.07945082
141	0x3e255a31	0.16147687
142	0xbe05c2c4	-0.13062578
143	0xbe281b94	-0.1641677
144	0xbe00203a	-0.12512293
145	0x3ddcf2f9	0.10788531
146	0x3dd2a3f9	0.102851816
147	0xb9f28e74	-0.00046263973
148	0x3dfcb1bf	0.1233859
149	0xbe692d59	-0.22771205
150	0x3e202b87	0.15641604
151	0xbe68919f	-0.227118
152	0xbe0708ae	-0.13186905
153	0xbe896fed	-0.26843205
154	0x3e19b7ba	0.15011492
155	0x3c006db8	0.007838659
156	0xbe4a6552	-0.19765213
157	0xbe2cdd4f	-0.16881298
158	0x3e509b2d	0.20371695
159	0xbe9c5e90	-0.30540895
160	0xbdeacfa1	-0.11465383
161	0x3e8bdc05	0.273163
162	0xbdab1ff0	-0.08355701
163	0xbe3edd3f	-0.18639086
164	0x3e93d3b6	0.2887246
165	0xbe1ed3b2	-0.15510443
166	0xbe3a8dda	-0.18218175
167	0xbe1d77a4	-0.1537767
168	0x3e1e1030	0.15435863
169	0xbe223a42	-0.15842536
170	0x3e9d6a90	0.30745363
171	0xbd70e01b	-0.058807474
172	0xbe56772c	-0.20943898
173	0xbe1c8ff4	-0.15289289
174	0x3e8edfc9	0.2790511
175	0xbcdc4506	-0.026888382
176	0x3dd6495f	0.10463213
177	0x3e3febec	0.18742341
178	0xbdbd4ea4	-0.09243515
179	0xbe8014f6	-0.25015992
180	0xbe3c088d	-0.18362637
181	0xbe179c55	-0.1480573
182	0x3e8f7e1a	0.28025895
183	0x3e42b9aa	0.19016138
184	0x3e131369	0.14362873
185	0x3e1cd65d	0.15316148
186	0xbdf5c641	-0.120007046
187	0xbe3c639f	-0.18397377
188	0x3e1682c1	0.14698316
189	0x3e3d6119	0.18494071
190	0x3e8263f1	0.25466874
191	0xbe6606ad	-0.22463484
192	0xbd5604be	-0.052250616
193	0xbe60d831	-0.2195747
194	0x3bbbe8e8	0.0057345517
195	0x3de19880	0.11015415
196	0x3d06f2af	0.032946285
197	0x3e3909a1	0.1807008
198	0x3a1bb71d	0.0005940067
199	0x3ce8b6e0	0.028407514
200	0x3d3dd11b	0.046341997
201	0xbcf174cb	-0.029474637
202	0xbe192e41	-0.1495905
203	0x3e75caf6	0.24003205
204	0xbde26abf	-0.110555165
205	0xbd9a9073	-0.07547083
206	0xbe430efb	-0.19048683
207	0x3c7dac73	0.01548301
208	0xbe1875fb	-0.14888756
209	0xbdc059e7	-0.093921475
210	0xbe3a9025	-0.1821905
211	0xbddff4a2	-0.10935332
212	0xbd57a261	-0.05264509
213	0x3d77473d	0.060370672
214	0xbd8d5004	-0.069000274
215	0xbd62eb4a	-0.05540017
216	0xbe741576	-0.23836312
217	0xbdc5464c	-0.09632549
218	0x3c6f1195	0.014591594
219	0x3d393f33	0.045226287
220	0xbc211d50	-0.009833649
221	0x3e11f7c8	0.14254677
222	0xbe56c7ca	-0.20974651
223	0x3e130c92	0.14360264
224	0x3e4a1e8b	0.19738214
225	0xbdeed5ad	-0.11661849
226	0xbe6c0c29	-0.23051514
227	0xbdbfa84b	-0.09358271
228	0x3e525f99	0.2054428
229	0x3e203215	0.15644105
230	0x3e8b19b7	0.27168056
231	0x3e7de4b2	0.24794272
232	0x3c3958ab	0.011312644
233	0xbd9ecf3e	-0.07754372
234	0xbe1f6445	-0.15565594
235	0x3d067b9a	0.03283272
236	0xbe82512d	-0.25452557
237	0xbe7d17d8	-0.24716127
238	0xbe15eb80	-0.14640617
239	0x3de286ca	0.11060865
240	0x3e470088	0.19433796
241	0x3e23bad4	0.15989238
242	0x3e80b269	0.25136116
243	0x3daf8992	0.08571161
244	0x3e0daf9e	0.13836524
245	0xbe48f07d	-0.19622989
246	0x3cf3f540	0.02978003
247	0xbd49ad72	-0.049237676
248	0x3d936696	0.07197301
249	0xbe7c4798	-0.24636686
250	0xbc8756d9	-0.016520904
251	0x3e9bb27b	0.30409607
252	0x3e555d0e	0.20836279
253	0x3e049986	0.1294919
254	0xbd93d6e6	-0.07218723
255	0xbda3346e	-0.079689845

encoder.blocks.0.mlp.fc2.bias f4 [16]
0	0xbd208bd4	-0.03919585
1	0x3cd530d1	0.026024254
2	0x3d2052e1	0.03914154
3	0xba191bb4	-0.0005840615
4	0xbc8cdfa8	-0.017196491
5	0x3beb8297	0.0071871984
6	0x3aea2ddf	0.0017866454
7	0x3cc7e526	0.024401259
8	0x3c8c546a	0.017130096
9	0xbc8059b9	-0.015667783
10	0xbd6911c5	-0.056901712
11	0xbdb37699	-0.08762855
12	0x3d7541fd	0.059877384
13	0xbb90b37a	-0.0044159265
14	0x3b57caa0	0.003292717
15	0x3d09fe1c	0.033689603

encoder.blocks.1.norm1.weight f4 [16]
0	0x3f8328ad	1.0246788
1	0x3f8451c5	1.0337454
2	0x3f7987fd	0.97473127
3	0x3f7f95a9	0.9983774
4	0x3f81ef45	1.0151144
5	0x3f82b12f	1.0210322
6	0x3f7accf6	0.97968996
7	0x3f828685	1.0197302
8	0x3f7b4621	0.98153883
9	0x3f7bc289	0.9834371
10	0x3f78d901	0.9720612
11	0x3f861083	1.0473789
12	0x3f73d785	0.9525073
13	0x3f9033c8	1.1265802
14	0x3f53dc2d	0.82757837
15	0x3f81f425	1.0152632

encoder.blocks.1.norm1.bias f4 [16]
0	0xbcd35e24	-0.025801726
1	0x3cfce9bc	0.030873172
2	0x3cb89ec3	0.022536641
3	0xbb9b30f3	-0.00473606
4	0xbddd213d	-0.10797355
5	0x3bf39615	0.0074336627
6	0xbbff229c	-0.007786108
7	0x3cbbca6b	0.022923669
8	0x3d5eb5ba	0.054372527
9	0x3ca44dcc	0.020056628
10	0xbd500298	-0.050783724
11	0xbd55a3cc	-0.052158162
12	0x3d6a4135	0.057191093
13	0x3bf4b258	0.0074675493
14	0x3cb11732	0.021617506
15	0x3ce6c313	0.02816919

encoder.blocks.1.attn.qkv.weight f4 [48, 16]
0	0xbea3dafe	-0.32003015
1	0x3e4505b0	0.19240451
2	0x3dd4f6c3	0.103986286
3	0xbe22b9f4	-0.15891248
4	0xbe77e4f1	-0.24208428
5	0xbe54c6be	-0.20778939
6	0xbe6d27f3	-0.2315977
7	0xbd1b11b4	-0.03785868
8	0xbe1f05d1	-0.15529563
9	0xbe106e1d	-0.14104505
10	0xbe2c96fc	-0.16854471
11	0x3cd1d936	0.02561627
12	0xbe908dfe	-0.2823333
13	0x3e5fd7f0	0.21859717
14	0xbd31545e	-0.04329335
15	0x3ebc70df	0.36804864
16	0xbe176338	-0.14783943
17	0xbc91021e	-0.017701205
18	0xbe2ea978	-0.17056835
19	0x3e41d6e2	0.18929628
20	0x3b4fab34	0.0031687738
21	0xbcf585ca	-0.029971022
22	0x3e41d111	0.18927409
23	0x3d0bd3d9	0.03413758
24	0x3e7fa4d7	0.24965225
25	0x3e155a94	0.14585334
26	0xbd088139	-0.03332636
27	0xbddb0421	-0.10694147
28	0x3e444ab5	0.19169123
29	0x3d055562	0.03255213
30	0x3dd20d28	0.102564156
31	0x3d4ad33c	0.049517855
32	0xbe69c276	-0.22828087
33	0xbd2a26bf	-0.041540857
34	0xbe311aba	-0.17295352
35	0x3eac213a	0.336191
36	0x3d5802a9	0.052736912
37	0xbcbfde27	-0.02342136
38	0x3e48644f	0.19569515
39	0x3e386ed4	0.18011028
40	0x3d38763c	0.045034632
41	0xbe2e48af	-0.17019914
42	0xbe0016f5	-0.12508757
43	0xbe800532	-0.25003964
44	0x3e2afbce	0.16697618
45	0x3de0376f	0.10948073
46	0xbe28c2e7	-0.164806
47	0x3e4d932e	0.20075676
48	0xbe07791e	-0.13229796
49	0xbdd8efc7	-0.10592609
50	0xbe037500	-0.128376
51	0x3eb7d8c2	0.3590756
52	0xbe46be3b	-0.19408505
53	0xbc7468a3	-0.014917525
54	0xbd664468	-0.05621758
55	0xbd724fda	-0.059158184
56	0x3eb98982	0.36237723
57	0x3d8e11bb	0.069369756
58	0xbc332212	-0.010933416
59	0xbd6b9184	-0.05751182
60	0x3df1ae9d	0.11800883
61	0x3db25db0	0.08709276
62	0x3e539bb6	0.20664868
63	0x3d9be754	0.07612482
64	0x3e175af7	0.14780794
65	0x3e12334f	0.14277385
66	0x3defcc22	0.11708857
67	0xbe559c1f	-0.20860337
68	0xbcbfbfbe	-0.02340686
69	0x3e27a565	0.16371687
70	0x3e837275	0.2567326
71	0xbe10fcde	-0.14158961
72	0x3e0e4764	0.13894421
73	0xbe9269d0	-0.28596354
74	0x3e26f608	0.16304791
75	0xbc57b25b	-0.013165082
76	0x3cb5f156	0.022209805
77	0x3c6cc312	0.014450805
78	0xbe6abad0	-0.22922826
79	0xbe7383cc	-0.23780745
80	0xbe072f82	-0.13201717
81	0x3e236c42	0.15959266
82	0xbe1f5486	-0.15559587
83	0x3e8797cc	0.26483
84	0xbe1a0735	-0.15041812
85	0xbdeea587	-0.116526656
86	0xbe9210b9	-0.28528383
87	0x3e020b68	0.12699664
88	0xbd9cc709	-0.076551504
89	0x3e2d42e2	0.16920045
90	0x3e9ace2a	0.30235416
91	0xbe2117c8	-0.15731728
92	0xbd4ca288	-0.04995969
93	0xbe3f168b	-0.18660943
94	0xbd95f15f	-0.073214285
95	0x3e8e9857	0.278506
96	0x3e7cfb0a	0.24705139
97	0xbe9c9760	-0.3058424
98	0xbd0e4fb4	-0.03474398
99	0xbe408b7a	-0.18803206
100	0xbe1c2af6	-0.15250763
101	0xbe072493	-0.13197546
102	0x3e51af35	0.20476992
103	0xbe25d906	-0.16196069
104	0x3e022574	0.127096
105	0xbe333571	-0.17500855
106	0xbe0ee52d	-0.13954611
107	0x3e3dbcfd	0.18529125
108	0x3d846bb8	0.06465858
109	0x3e0f49f0	0.13993049
110	0xbd9710c4	-0.07376245
111	0xbe6560a5	-0.22400148
112	0x3e7bb83c	0.24581999
113	0xbe3b9e70	-0.18322158
114	0xbe5fe19f	-0.21863411
115	0x3dd1ff01	0.10253716
116	0xbe7df64b	-0.24800985
117	0xbceccc91	-0.028906139
118	0x3e70213f	0.23450182
119	0xbd9a3a69	-0.07530672
120	0x3debe2a2	0.11517836
121	0xbe8ddd21	-0.2770777
122	0xbe95031b	-0.29103932
123	0x3d1b4e66	0.037916563
124	0xbe50d602	-0.20394138
125	0xbc74a116	-0.014930984
126	0xbd9dff5d	-0.07714722
127	0x3d2a5483	0.041584503
128	0x3e4663a7	0.19373952
129	0xbd915084	-0.07095435
130	0x3ead2412	0.33816582
131	0xbe942240	-0.2893238
132	0x3e4da00f	0.20080589
133	0x3c482c14	0.01221754
134	0x3dd94d99	0.10610504
135	0x3e3b87d7	0.18313538
136	0xbd92b164	-0.07162741
137	0xbea2524e	-0.31703418
138	0x3dc57fbd	0.09643505
139	0xbdfff0b0	-0.12497079
140	0xbdc1d038	-0.09463543
141	0xbe92ded4	-0.2868563
142	0xbe931a8f	-0.287312
143	0xbd95b872	-0.07310571
144	0xbd16e3c9	-0.036838327
145	0x3e7176e7	0.23580514
146	0x3ca74677	0.020419342
147	0x3e43f7b9	0.19137467
148	0x3e012eda	0.12615529
149	0xbbdbddab	-0.0067097745
150	0xbe5c692c	-0.21524495
151	0xbe424e5f	-0.18975209
152	0x3e60d120	0.21954775
153	0x3e47eace	0.19523165
154	0x3dcc6897	0.099808864
155	0xbebb71eb	-0.3661035
156	0x3d2bf9e4	0.04198636
157	0x3d09c2ad	0.033632923
158	0x3da5356c	0.0806683
159	0x3e8fdfd5	0.28100458
160	0x3e014df0	0.12627387
161	0xbe6b5e60	-0.2298522
162	0x3e2a712e	0.16644737
163	0x3dad4474	0.08460322
164	0xbe87cb59	-0.2652233
165	0x3d860109	0.06543166
166	0x3e4c311b	0.19940607
167	0xbd57841f	-0.052616235
168	0x3e47f2b0	0.19526172
169	0x3e8c66a8	0.2742207
170	0x3e7818b2	0.2422817
171	0xbd96bd9e	-0.07360385
172	0xbe110b72	-0.14164522
173	0x3e8f57e7	0.27996752
174	0xbd938303	-0.07202723
175	0xbc889545	-0.01667274
176	0x3e3fc157	0.18726097
177	0xbe8abc6f	-0.27096888
178	0xbec0307e	-0.37536997
179	0x3ddfbf05	0.10925106
180	0x3e28a7aa	0.16470209
181	0x3e63ff86	0.22265443
182	0x3dca0263	0.098637365
183	0xbe37b2d9	-0.17939319
184	0xbe0cf91a	-0.137669
185	0xbe1f506b	-0.15558021
186	0xbe76ef3c	-0.24114698
187	0x3e83cec4	0.25743687
188	0x3d27845a	0.040897705
189	0xbd9d8320	-0.07691026
190	0x3dc3272c	0.09528956
191	0x3e45a70a	0.19302002
192	0x3d390d0e	0.045178466
193	0xbeb233f3	-0.3480526
194	0xbe85877e	-0.26079935
195	0x3e4809ba	0.1953496
196	0xbe176987	-0.14786349
197	0xbc5e6c88	-0.013575681
198	0xbd8e3cc4	-0.06945184
199	0x3e44850c	0.19191378
200	0xbdf65c8b	-0.1202937
201	0xbe4082ec	-0.18799943
202	0xbde8d6c5	-0.11369089
203	0xbe655637	-0.2239617
204	0xbe9e2ded	-0.30894414
205	0xbd9b2eda	-0.075772956
206	0x3d8d0102	0.06884958
207	0xbe439ced	-0.19102831
208	0xbe2f097a	-0.17093459
209	0xbe85eb32	-0.26156002
210	0xbe5b546d	-0.21418925
211	0xbd926ad5	-0.07149283
212	0xbe24c713	-0.16091566
213	0x3dff7be7	0.12474804
214	0x3e0c107b	0.13678162
215	0xbea43669	-0.32072762
216	0x3e889515	0.2667624
217	0xbdfb479c	-0.12269518
218	0x3e7ab67b	0.24483673
219	0xbe9077c9	-0.2821639
220	0x3e5c0cef	0.21489309
221	0xbd2a4053	-0.04156525
222	0xbe7e7741	-0.2485018
223	0xbdff544e	-0.12467252
224	0xbe1bfba5	-0.15232714
225	0xbe350ed6	-0.1768144
226	0xbe9ac2e1	-0.30226806
227	0xbe99c17e	-0.30030435
228	0x3e8dd0b4	0.2769829
229	0x3daf5a8e	0.08562194
230	0xbcf6f7d4	-0.03014747
231	0xbeaa20a8	-0.3322804
232	0xbecd0d7f	-0.4004936
233	0xbe47ee1d	-0.19524427
234	0x3e73ac99	0.2379631
235	0x3d597d20	0.053097844
236	0xbe3a1331	-0.18171383
237	0xbed9ab26	-0.42513388
238	0x3e367f2d	0.17821951
239	0x3e3df6b7	0.18551145
240	0x3e693091	0.22772433
241	0xbe59f887	-0.21286212
242	0xbe1643c5	-0.1467429
243	0xbeb24c35	-0.34823766
244	0x3d1f9c07	0.03896716
245	0x3e09e2d0	0.13465428
246	0xbd965e8f	-0.07342254
247	0x3d0f0491	0.034916464
248	0xbe2a528c	-0.16633052
249	0xbeaa9cfd	-0.33322898
250	0x3e8cdcca	0.275122
251	0x3e20b851	0.15695311
252	0xbaf456b8	-0.0018641567
253	0xbeaacab0	-0.33357763
254	0x3c8c9e99	0.017165469
255	0x3cdba771	0.02681324

encoder.blocks.1.attn.proj.weight f4 [16, 16]
0	0x3f049df0	0.51803493
1	0xbd8c9bd7	-0.068656616
2	0x3eaa5277	0.3326604
3	0x3d605259	0.054766033
4	0xbebe6c77	-0.37192127
5	0x3d85bcaf	0.06530129
6	0xbe47cc7f	-0.19511603
7	0xbc302f43	-0.010753456
8	0xbe48baf4	-0.19602567
9	0xbe9a385d	-0.30121127
10	0x3eab01e6	0.33399886
11	0xbe9d8b24	-0.30770218
12	0x3e0ef823	0.13961844
13	0x3bb8447d	0.005623399
14	0xbdb2b951	-0.087267525
15	0xbe3a30fd	-0.1818275
16	0xbe8d5d5d	-0.27610293
17	0xbe34410e	-0.17602941
18	0x3ead2756	0.33819073
19	0x3e948974	0.29011118
20	0xbe944eed	-0.28966466
21	0x3e706199	0.2347473
22	0xbadcfdf5	-0.0016860353
23	0xbcebdcdf	-0.028791843
24	0xbd4e8b0e	-0.05042558
25	0x3d9a6d90	0.07540429
26	0xbe99ae3a	-0.30015737
27	0xbe8ab252	-0.27089173
28	0x3ddb9494	0.107216984
29	0x3d889cd4	0.066705376
30	0x3e2963f7	0.1654204
31	0xbe679270	-0.22614455
32	0xbe60eb59	-0.21964778
33	0xbe9f5f6e	-0.31127495
34	0xbe67ecd4	-0.22648937
35	0x3de6fe59	0.11278982
36	0x3e7bf12a	0.24603716
37	0xbd7cf2dd	-0.06175505
38	0xbeac2ec3	-0.33629426
39	0xbe8d610a	-0.27613097
40	0x3eb61a6c	0.35567033
41	0x3e414324	0.18873268
42	0x3e6903b4	0.22755319
43	0xbe86b010	-0.263062
44	0xbc3103ef	-0.0108041605
45	0xbe884356	-0.26613873
46	0x3c398166	0.011322355
47	0xbe1e45c4	-0.15456301
48	0xbeb3579f	-0.35027787
49	0x3eaa840f	0.33303878
50	0x3e50217c	0.20325273
51	0x3e88f08f	0.26746032
52	0xbee73483	-0.4515725
53	0xbe597fe7	-0.21240197
54	0xbd33e571	-0.043919984
55	0xbebe7ffd	-0.37207022
56	0x3e79152f	0.24324487
57	0x3e896d4e	0.26841205
58	0x3e9fd129	0.31214264
59	0x3ecd1722	0.4005671
60	0x3e69a150	0.22815442
61	0xbeddef5a	-0.43346673
62	0x3edf6b71	0.4363666
63	0x3ed1f009	0.41003445
64	0xbee85715	-0.45378938
65	0x3dc83491	0.09775651
66	0x3aae4ebc	0.0013298611
67	0x3da248b7	0.079240255
68	0x3e382c69	0.17985691
69	0xbee730c0	-0.4515438
70	0xbe033923	-0.12814765
71	0xbedce117	-0.4314048
72	0x3e2447e0	0.16043043
73	0x3ea2dae6	0.3180763
74	0x3e98ece9	0.29868248
75	0xbeb59a66	-0.3546936
76	0x3ed10e5c	0.40831268
77	0x3ed64148	0.4184668
78	0xbc851ee0	-0.016250074
79	0x3da81a97	0.082081966
80	0xbd39766e	-0.04527896
81	0xbea14de8	-0.3150475
82	0x3d9c67b5	0.07636968
83	0x3e1789b1	0.14798619
84	0xbddc34fa	-0.10752292
85	0xbd866db6	-0.065638945
86	0xbdd919c3	-0.10600617
87	0x3ebcf71a	0.36907274
88	0x3e0aa97b	0.13541214
89	0xbddedfaf	-0.10882508
90	0x3ea3dbb9	0.32003573
91	0xbecc1acb	-0.3986419
92	0x3e8eaf04	0.278679
93	0xbd0b5f7e	-0.034026615
94	0x3ea28b04	0.31746686
95	0xbe842a65	-0.25813594
96	0x3e3a3dec	0.18187684
97	0xbeabb67d	-0.33537665
98	0x3ee0a32b	0.43874487
99	0x3c867371	0.016412469
100	0xbdcce36c	-0.10004315
101	0xbea3812a	-0.31934482
102	0xbee89ade	-0.45430654
103	0x3eaccea8	0.33751416
104	0x3e170701	0.14748766
105	0x3ecc34ba	0.39883977
106	0xbdb17617	-0.08665102
107	0x3e4599d5	0.19296964
108	0xbea732bf	-0.32655904
109	0xbd40df30	-0.04708785
110	0x3e8cadf6	0.27476472
111	0x3eaa22f0	0.3322978
112	0x3d6ca486	0.05777409
113	0xbebee685	-0.37285247
114	0xbdf8ffdb	-0.121581756
115	0xbdc7b5ad	-0.09751449
116	0x3e0dd9b0	0.13852572
117	0x3df0414c	0.117312044
118	0x3e9823d5	0.29714838
119	0x3ebad530	0.36490774
120	0x3e567750	0.20943952
121	0x3e60e4e2	0.21962312
122	0xbe8b5d2d	-0.27219525
123	0x3d4feb7c	0.050761685
124	0xbe2ddcb9	-0.1697873
125	0x3e89a018	0.26879954
126	0x3e46d4b2	0.19417074
127	0xbdb63d2c	-0.08898386
128	0xbe5ad197	-0.21369015
129	0xbe2c981e	-0.16854903
130	0xbe992c05	-0.29916397
131	0xbe997ded	-0.29978886
132	0x3e7e690b	0.24844758
133	0x3eda6dd3	0.42661914
134	0xbea13677	-0.31486866
135	0xbdb420a0	-0.08795285
136	0xbed8cde0	-0.4234457
137	0xbebf0b78	-0.37313437
138	0xbe955233	-0.29164276
139	0x3ea12c91	0.31479314
140	0x3e84f8e7	0.25971147
141	0xbdb8e262	-0.09027554
142	0xbe08cefb	-0.13360207
143	0xbb672f1e	-0.0035275887
144	0xbe466272	-0.19373491
145	0x3e985bb0	0.29757452
146	0x3ee53dd4	0.44773734
147	0xbe30ffb6	-0.17285046
148	0xbd148eb1	-0.036268894
149	0xbea786d6	-0.3272006
150	0xbe903fbc	-0.28173625
151	0x3ea49971	0.32148317
152	0xbea6a8ca	-0.3255065
153	0xbe8f7f7c	-0.2802695
154	0xbe89a511	-0.26883748
155	0x3d8f2504	0.06989482
156	0x3ecb1539	0.3966463
157	0x3e826caf	0.25473544
158	0xbeac15d8	-0.33610415
159	0xbe260e78	-0.16216457
160	0xbe741197	-0.23834835
161	0x3e255463	0.16145472
162	0xbe0cc2fc	-0.13746256
163	0xbeba9aa6	-0.36446112
164	0xbd736030	-0.059417903
165	0xbd9c656d	-0.07636533
166	0x3d164928	0.03669086
167	0xbd619095	-0.055069525
168	0x3dabe53f	0.083933346
169	0x3e2ec74b	0.17068212
170	0xbd82914c	-0.063753694
171	0x3d19b417	0.037525263
172	0xbdd28398	-0.10279006
173	0xbeb1240a	-0.34597808
174	0x3e8b39dc	0.2719258
175	0x3e0640b4	0.1311062
176	0x3eaee03c	0.34155452
177	0xbe13ed37	-0.14445959
178	0xbebb6764	-0.36602318
179	0x3e152431	0.14564587
180	0xbe252043	-0.16125588
181	0xbdd95735	-0.106123365
182	0x3e094f0d	0.13409062
183	0x3e89d6ea	0.2692178
184	0xbebf32f0	-0.3734355
185	0x3e47af4b	0.19500463
186	0x3edee324	0.4353267
187	0xbd876ffe	-0.06613158
188	0x3e9afdfc	0.302719
189	0x3ec60b62	0.3868056
190	0xbe1ece2a	-0.15508333
191	0x3eea44b5	0.45755544
192	0xbef7f858	-0.4843166
193	0x3ebb8e2a	0.366319
194	0xbdcf32a0	-0.10117078
195	0x3dfc4f2d	0.12319789
196	0x3e817d22	0.2529078
197	0xbe8222b3	-0.25417098
198	0xbe005e44	-0.1253596
199	0xbd923f4c	-0.07140979
200	0x3e73c74d	0.23806496
201	0xbdc3713d	-0.09543083
202	0x3cdd22bd	0.026994104
203	0x3eb5b783	0.3549157
204	0x3e4b6a86	0.19864854
205	0xbc233f96	-0.009963891
206	0xbe4554c4	-0.19270617
207	0x3e467898	0.1938194
208	0xbec3130a	-0.38100463
209	0xbc6bc768	-0.014390804
210	0xbe67dc99	-0.22642745
211	0x3e030fa7	0.1279894
212	0x3e9cd879	0.30633906
213	0xbec7659e	-0.38944715
214	0xbe461033	-0.19342117
215	0x3e9c5ff6	0.30541962
216	0xbe47ab6b	-0.19498985
217	0xbe01f550	-0.12691236
218	0x3e18cf1c	0.14922756
219	0x3df44bb8	0.11928505
220	0x3e95df0c	0.29271734
221	0x3ebeb562	0.3724776
222	0xbe8c19c1	-0.273634
223	0x3e8118b5	0.25214162
224	0xbe810878	-0.25201774
225	0x3d81baab	0.06334432
226	0x3e7ca61c	0.2467274
227	0xbe294ce8	-0.16533244
228	0xbd95a1aa	-0.073062256
229	0xbed5a6e5	-0.41728893
230	0x3ec05600	0.37565613
231	0x3e9b60ae	0.30347198
232	0xbed84e33	-0.4224716
233	0xbea05fc4	-0.31323063
234	0x3bd7c85c	0.006585164
235	0xbed2680f	-0.41095015
236	0xbe71dcf7	-0.23619448
237	0xbd806405	-0.06269077
238	0xbecef7d0	-0.4042344
239	0x3ed7a3a4	0.42117035
240	0xbdfc5e1a	-0.12322636
241	0x3e05423b	0.13013546
242	0xbeb47e5d	-0.35252658
243	0x3ea34f3e	0.31896394
244	0x3e9b9333	0.30385742
245	0x3ec3dae0	0.38252926
246	0x3eb76107	0.35816213
247	0x3e7588fd	0.23978038
248	0x3e6c2e88	0.23064625
249	0xbec8184c	-0.39081037
250	0xbe8b4123	-0.27198133
251	0xbe64cb38	-0.22343147
252	0xbdc3b146	-0.095552966
253	0xbeb032c0	-0.3441372
254	0xbdd22b31	-0.10262144
255	0x3e15bee2	0.14623597

encoder.blocks.1.attn.proj.bias f4 [16]
0	0xbd328a7f	-0.04358911
1	0x3ca43374	0.020044066
2	0x3cb0303c	0.021507375
3	0x3a8d0541	0.0010759012
4	0xbdcdced1	-0.10049213
5	0x3c9cbed0	0.019133955
6	0x3a1d83fe	0.0006008743
7	0x3c538441	0.01290995
8	0x3d267920	0.040642858
9	0xbc30cfc7	-0.0107917255
10	0xbcf257d7	-0.0295829
11	0xbd37b646	-0.044851564
12	0x3d12afab	0.03581206
13	0xbb6c4a89	-0.0036055169
14	0x3c0651da	0.008198226
15	0x3cb5b1a5	0.022179434

encoder.blocks.1.norm2.weight f4 [16]
0	0x3f71e90f	0.94496244
1	0x3f82388a	1.0173504
2	0x3f77ed3d	0.9684637
3	0x3f72bccc	0.9481933
4	0x3f78153a	0.9690739
5	0x3f845093	1.0337089
6	0x3f62046a	0.88287985
7	0x3f7fc87b	0.99915284
8	0x3f72eff3	0.94897383
9	0x3f7c42a2	0.98539174
10	0x3f68ef80	0.9099045
11	0x3f7ae830	0.9801054
12	0x3f68177b	0.9066083
13	0x3f809601	1.0045778
14	0x3f7395c9	0.9515043
15	0x3f78a4cd	0.97126466

encoder.blocks.1.norm2.bias f4 [16]
0	0x3c31a3d6	0.010842284
1	0x3d9e9993	0.07744136
2	0x3cb28338	0.021791086
3	0xbd1eef74	-0.03880258
4	0x3c99907e	0.018745657
5	0x3d241658	0.04006037
6	0x3cdf6737	0.027270896
7	0xbbc67a80	-0.0060570836
8	0xbbd01757	-0.0063504386
9	0xbb4b68b2	-0.0031037745
10	0x3be4bd2e	0.00698056
11	0x3c8fd167	0.017555906
12	0x3bb19998	0.005419921
13	0x3ce2f37b	0.027703991
14	0xbc42b4e2	-0.011883946
15	0x3b21d9bf	0.0024696437
