Checkpoint/dict_11.pth (torch, 108787 bytes, 64 tensors)

encoder.cls_token f4 [1, 1, 16]
00000000: 046f cc3f 7ca7 053f 9d84 75bf 2c25 193f
00000010: abba 79bd 5a6f bdbf e30b 1d3c 3e9d 483d
00000020: 9f17 833f 2408 e33e 1c8f fcbd b761 1bc0
00000030: ab2c b2bd be94 ae3f efc6 d6be b728 51bf
1.5971379 0.52208686 -0.95905477 0.59822345 -0.060969036 -1.4799607 0.009585354 0.048978083
1.0241584 0.44342148 -0.123319834 -2.427839 -0.08699926 1.3639143 -0.4194865 -0.8170275

encoder.patch_embed.weight f4 [16, 5]
00000000: 970e 1c3f e096 86be b1c9 bcbe c0b9 f83e
00000010: b52b e8be b264 dbbe 202a 00bf abd9 e63e
00000020: 8d3a 793e 33b5 47bd 7a7e f73e 6eb2 25be
00000030: 2f79 e43d 0b83 46bf 0bbc 00bf 4e48 09be
00000040: 587e 1f3e 7fa3 7abe 48d2 04bb 1ba1 0a3e
00000050: b1ba a33e 9814 7c3e 5172 a33e 2477 9f3d
00000060: 154f b4be 0ac4 ad3d d7c2 2b3e 3e6e dabe
00000070: 3224 2a3e 256d 52bd 7eaa 85be 3779 a33e
00000080: a5ea c33c 505c e6be 094d f63c e7bd c5be
00000090: be03 8ebe 81f9 ba3d 9649 b7be 3cb2 243c
000000a0: c931 c1be f91a 51be 2244 fd3d 41c5 b83e
000000b0: 236b e7be 84c9 6dbe 048a 47be 7835 663c
000000c0: dd69 91be 9b34 033e 6e5e 953b e78a 0c3c
000000d0: e89b 45bc 1a1e 813e 03e1 89be 9ab7 00bf
000000e0: f235 edbd 6fd0 9ebc 4d58 c5bd 809b 0b3f
000000f0: 0d21 04bf 01e0 783d 22b6 df3e 9c39 04bf
00000100: fa54 0c3f b746 023e 227d df3e 1921 cd3d
00000110: 87c3 f2bd 3fcf 7dbe 8ed4 e73c 54f4 a3bd
00000120: 3387 bbbe 660b 00bf 5e81 78be ebec 37be
00000130: e19c cdbe c876 92be 9837 6abe a74b 4f3e
0.6095976 -0.26286983 -0.36872628 0.48579216 -0.45345846 -0.42850262 -0.5006428 0.45087942
0.24338742 -0.04875679 0.4833868 -0.16181347 0.111559264 -0.77543706 -0.5028693 -0.13406488
0.1557554 -0.24476431 -0.002026694 0.1353802 0.31978372 0.24617231 0.31923154 0.07786396
-0.35216585 0.08484657 0.16773544 -0.42662233 0.1661537 -0.05137362 -0.26106638 0.31928417
0.023915598 -0.44992304 0.03006603 -0.38621446 -0.2773723 0.0912962 -0.3579833 0.01005226
-0.37733296 -0.20420446 0.12366511 0.36087993 -0.45198926 -0.23221403 -0.19486243 0.014050834
-0.2840108 0.12813036 0.004558376 0.008578039 -0.012061097 0.25218278 -0.26929483 -0.50280154
-0.11582555 -0.019386498 -0.09635983 0.5453415 -0.5161293 0.0607605 0.43693644 -0.51650405
0.54817164 0.12722288 0.43650156 0.100160785 -0.118537 -0.2478609 0.028299596 -0.08005586
-0.36626586 -0.5001739 -0.242681 -0.17961471 -0.40158752 -0.28606248 -0.2287277 0.20243703

encoder.patch_embed.bias f4 [16]
00000000: b77c ba3d 4cce 0abc 645b cbbd 5b9b 06bd
00000010: 6be7 abbd 9bcf c53c 6998 3dbd a681 f6bc
00000020: 25db 09bd 8d6a 013e a0bd abbc e02c b53c
00000030: 3a90 d8bc 266d c63c 2193 853c 5ceb 23bd
0.09105819 -0.008472037 -0.09929541 -0.032863002 -0.08393749 0.024146846 -0.046287928 -0.030091118
-0.033656258 0.12638302 -0.020964444 0.022116125 -0.02643596 0.024221968 0.016305508 -0.040019378

encoder.blocks.0.norm1.weight f4 [16]
00000000: 83d0 7d3f 28cc 873f 0dec 953f b33e 713f
00000010: f4b1 763f 46da 863f bc48 883f 798c 7b3f
00000020: f9bd 833f 2bd9 863f 427c 8b3f ee8d 823f
00000030: 5e2e 893f a697 813f 1a4e 7a3f e368 713f
0.9914629 1.0609179 1.1712662 0.94236296 0.96365285 1.0535362 1.0647197 0.9826122
1.029235 1.0535024 1.0897295 1.0199564 1.0717275 1.0124404 0.97775424 0.9430067

encoder.blocks.0.norm1.bias f4 [16]
00000000: 7a68 cd3c 9cab 66bc 60e3 cdbb 2b3c 0bbd
00000010: f6d6 97bd 060c 8f3c 848b 2bbd 2d83 9ebc
00000020: 4560 b7bc 7fcc 103d ffcf cabc d4db c93c
00000030: a2ed 24bd accd 043d cb37 b83c 8704 19bd
0.025074232 -0.014079001 -0.0062832087 -0.033992928 -0.074140474 0.017461788 -0.0418811 -0.019349659
-0.022384772 0.035351273 -0.024757383 0.024640955 -0.040265687 0.032422706 0.022487542 -0.037357833

encoder.blocks.0.attn.qkv.weight f4 [48, 16]
00000000: f9f2 1b3d 8c45 303c d6f2 003e d1e9 c33c
00000010: 413f 42be d38e 123e c098 76be 747c ad3e
00000020: e024 e43c ab45 8dbe 0955 9f3e af89 833e
00000030: 1e51 30be 7396 a93e b501 6ebd 16b9 01be
00000040: f914 93be 69b5 0d3d 5b35 ed3e dc6b 0c3e
00000050: 2161 a0be 0ba6 203e ca48 b13d c366 3f3e
00000060: 4c8a 0e3e 9073 2cbe dfa9 5ebe f1de 8dbb
00000070: bb90 383e c6f5 a2be 1ad0 72bc 508f 003e
00000080: 584a 813d 9677 77be 790c 5dbe da38 7abe
00000090: f197 443e 7c8f 053c af8c 4e3e 564d 1e3e
000000a0: 611a 6f3e 149b 4d3e 3246 2b3e 83a4 8abd
000000b0: 497f 17be 0b46 803e 7652 d6bd fa3e b5bd
000000c0: b0ca 8d39 46ca 823d 1699 d13d 95e4 263d
000000d0: e0fc 3a3d 47f0 36be ed41 5abe 30c6 233d
000000e0: 1de9 99be 2b69 b63e 3951 2bbe c601 d73d
000000f0: 7dbc ac3d fa0e ab3d 68da a5bd 0675 113e
00000100: 954c 203e 7e9c a53e 334f 49be ebb4 95be
00000110: 4af9 babd 2f3f 693d 3a90 9a3d 6830 93be
00000120: 8f49 1dbd 53b4 3ebe 2414 c33d de46 86be
00000130: b145 083e 3fbe 4f3e 6dae 8dbe 0913 b9be
00000140: 9fe8 693e 124a 88bd 8c50 c33c da8a 983b
00000150: 0daa 5a3d 3de4 b5be d2db d43e bea0 a1be
00000160: 8de9 b53d 4332 21be a8d3 ac3d 83c2 94be
00000170: 9916 82bd aba0 94bb a119 243e 7c64 72be
00000180: 1fe9 1abd 9b2d 793e 36b1 f33d 20dd 4d3e
00000190: 53de 23be 340f efbd 37f5 a0bd cb2c 3cbe
000001a0: c36c ec3c b1a2 96be bd25 a93e 1b87 06be
000001b0: cdd5 1fbe 4ca0 1e3d c897 96be 529a 193d
000001c0: 981f 2e3e 2193 d43d 9591 3e3e 13b0 a03d
000001d0: 19b7 6ebc 825c 0c3d c8bd 0fbe 966f 2f3e
000001e0: abbe 61be ffec 5e3e 2017 74be 436c 78be
000001f0: 4abb b4bd 6e35 a0be 691c 51bb 00f3 743e
00000200: 4d42 0ebe a87a 2e3b 7428 97be f5e7 3e3d
00000210: 73e5 143e 5332 943d 81fb 773e acc0 bebc
00000220: deb8 53be e7fc 4a3e 450c 903e 3ba9 7d3d
00000230: 31b0 803e c65b 463e b816 88be f11d 9f3e
00000240: 0ee8 bf3d 55c6 ccbd 3abf df3d 2563 6cbe
00000250: 474c ce3d 051f 8a3d d7e7 9f3e a75e e53d
00000260: cca3 883e fed1 333e 9831 0c3e 309a 4a3e
00000270: 02c3 143e 6ba4 85be 2638 6c3e 8b6f de3b
00000280: ed99 2b3e 7a61 a43e 05f7 8fbe 0a44 073e
00000290: ae8a b7bc 1026 c1bd 1613 33be 4fdb 7d3e
000002a0: 36bc 773e a7de 1ebe 3ef1 3c3e 8da6 a1be
000002b0: e33d a93d 6c50 64be da8f 573d 4538 8a3e
000002c0: 5dfb efbd c566 963e 1263 b6be c10d a53e
000002d0: ad50 893e 866c 443e c525 22be a9b2 283e
000002e0: 54bc 2abe a21b c4ba 2140 123a b267 96be
000002f0: 9845 8cbe 8a80 8bbd e835 6e3d 4396 74be
00000300: 32ec 10be f006 983c a75e 69be 78b7 343e
00000310: 1251 063e ca56 babe 0a7f 5c3d ac3e c3bd
00000320: eed9 863c d395 b33e b20d 46be 8f64 073e
00000330: 2754 dc3e de83 babd 6754 e33c 35d4 493d
00000340: 24b5 383e dce9 c93e 0ac7 c5be f3b6 febe
00000350: 3084 903e fb0f a6be b37d a03c 385f f2be
00000360: 7079 743e 4caa 0fbe ce1e 0c3e f65f 97be
00000370: d409 1e3d a314 a8be f596 603e dacc ccbe
00000380: 0d9f 23be 43a1 b73e b671 e8be 21dc 51be
00000390: af93 193e 9111 383e a131 823e 7e9a d1be
000003a0: 69ce 23bc 5918 b83e 50d5 20bd d680 273e
000003b0: 0f42 69be e3ab acbe a81b 6bbe 90e6 37be
000003c0: a211 993e f60b 61be 577b 073e 1854 203e
000003d0: 3a83 e1bd e83a 653e 283b af3e 5608 8bbd
000003e0: 70c4 a33e 19c4 9dbe 5baf 57bc cc96 9e3d
000003f0: 3828 3ebb be3d 4d3c d25d c0bd 9f33 443e
0.038073514 0.010758769 0.12592635 0.023915203 -0.18969442 0.14312296 -0.24081707 0.33884013
0.027849615 -0.27592215 0.31119564 0.25690982 -0.17218444 0.33122596 -0.058107097 -0.12668261
-0.28726938 0.034596834 0.4632977 0.1371302 -0.31324103 0.1568834 0.086564615 0.18691544
0.13919944 -0.16840959 -0.21744488 -0.004329555 0.1802396 -0.31828135 -0.014820123 0.1255467
0.06313008 -0.24166712 -0.21586789 -0.2443575 0.19198586 0.008151885 0.20170854 0.15459189
0.23349907 0.20078689 0.16725996 -0.06769659 -0.14794649 0.2505344 -0.10464947 -0.088499025
0.0002704463 0.06386237 0.10234277 0.040745337 0.045651317 -0.17865096 -0.21314211 0.03998393
-0.30060664 0.35627112 -0.16730203 0.10498385 0.08434389 0.08352466 -0.08098298 0.14204797
0.15654214 0.32345957 -0.19659118 -0.29239592 -0.09129579 0.056945022 0.0754704 -0.2874787
-0.03840023 -0.18623476 0.09525326 -0.26225942 0.13307835 0.20287417 -0.2767214 -0.36147335
0.22842644 -0.06654753 0.023842119 0.0046552243 0.05338483 -0.35525694 0.4157396 -0.3156795
0.08882437 -0.1574183 0.08438808 -0.2905465 -0.063519664 -0.0045357547 0.16025402 -0.23671144
-0.037819978 0.24333803 0.11899035 0.20103884 -0.16002779 -0.11672822 -0.07859271 -0.18376462
0.028860455 -0.29421 0.33036605 -0.13137476 -0.15608902 0.03872709 -0.29412675 0.037500687
0.1700424 0.10379625 0.18610223 0.078460835 -0.014570021 0.03426791 -0.1403724 0.1713241
-0.2204539 0.21770094 -0.23836946 -0.24260049 -0.08824785 -0.31290764 -0.0031907803 0.23920822
-0.13892479 0.0026623402 -0.2952305 0.04660793 0.14540653 0.07236161 0.24217035 -0.023285232
-0.2067599 0.19823037 0.2813436 0.06192897 0.25134423 0.19370946 -0.26579833 0.3107753
0.09370433 -0.09998766 0.109251454 -0.23084696 0.100731425 0.06744198 0.31231567 0.11199694
0.26687467 0.17560574 0.13690794 0.1978538 0.14527515 -0.26102003 0.23068294 0.0067881993
0.16757937 0.3210562 -0.28118148 0.13209549 -0.022404995 -0.09431088 -0.1748775 0.24790691
0.2419289 -0.15514623 0.18451402 -0.3157238 0.08263757 -0.22296304 0.052627422 0.26996055
-0.117178656 0.29375282 -0.3562246 0.32237056 0.26819363 0.19182023 -0.1583472 0.16474403
-0.16673404 -0.0014961849 0.0005579014 -0.29375988 -0.27396846 -0.06811626 0.058156878 -0.23885445
-0.14152601 0.018557996 -0.22790013 0.17648113 0.13116863 -0.3639434 0.05383209 -0.09533438
0.016461339 0.35075244 -0.19341162 0.13221954 0.43032953 -0.09107183 0.027750207 0.049274642
0.1803785 0.39436233 -0.38628417 -0.49748954 0.2822585 -0.32434067 0.019591188 -0.4733827
0.2387445 -0.14029807 0.13683626 -0.295654 0.03858359 -0.32828245 0.21932586 -0.4000004
-0.15978642 0.3586522 -0.45399255 -0.20494129 0.14997743 0.17975451 0.2542849 -0.4093818
-0.0099979425 0.35956076 -0.03926593 0.16357741 -0.22779106 -0.3372489 -0.22959769 -0.17959046
0.29896265 -0.21977219 0.13230644 0.15657079 -0.110113576 0.22385752 0.3422482 -0.06788699
0.31985807 -0.30813673 -0.013164367 0.07743606 -0.0029015671 0.0125269275 -0.09392895 0.19160317

encoder.blocks.0.attn.proj.weight f4 [16, 16]
00000000: 5977 2abd 5130 0b3e 4c03 9b3e 026b adbd
00000010: 02e6 363d aa0d 3abe 3167 e03e 910c 80bd
00000020: b7ec 003d ae4a 33be ba98 2d3e 1548 f33d
00000030: a840 f0be 6b6b dd3e c745 bcbd d544 31be
00000040: c4ac 693e c406 88be cb4a 40be 34cc e73d
00000050: 171d 32ba d2e9 233c 1779 bd3e 6c4a 97bd
00000060: 6fb3 2ebd ac52 843e f628 29be a7ab cdbe
00000070: 95b8 ff3c 45e7 46be 0ac0 653e ce4b 25be
00000080: f115 a9be f81d 8cbb 53dd 4c3e ad9a 7d3d
00000090: 136e b7bd e281 11be eff1 9bbe 8a18 a53d
000000a0: 9aa5 c53e 73dd d13e 8c33 be3e 6bc2 d8bd
000000b0: 2975 ca3e a35b ef3e cb74 73be da7b 763e
000000c0: 45e7 bcbe 55eb 1f3d 597a 073e 24a8 9a3e
000000d0: 7b3e 8ebe 73e6 6fbe 2875 963c 2dc8 4d3d
000000e0: 8d91 df3e 44f1 cf3e bbe6 92bd 4559 63be
000000f0: 7e89 aa3e 7536 0cbe 1a4e cf3e 2c14 b33e
00000100: f88a c13c 184d bb3d 066e 28bd 739b 4ebe
00000110: 8cc7 b93d b388 c13e 532a 86bd b998 483e
00000120: efbe 7dbe 79f1 c63e fdc5 ba3e 5d52 eabe
00000130: 870c 00bf 6843 c8be 8f9b c7bd 7c3f bcbe
00000140: 5666 823e 6edb 35bd d7be bebe 8ce8 613e
00000150: ec8c 8dbc 95d6 3c3e cb72 1a3e 0e7a ac3e
00000160: dd89 c13d 01e6 d4be 2edd 333d 1426 b23d
00000170: 2984 d33d 78e0 5bbd d09e 193e bf5c 223e
00000180: a6ab 74be f6ca bbbe 39ae 8a3e aeba 923d
00000190: ddda 8b3e 0c89 7dbe 0e47 01bf 94cb 85be
000001a0: ee99 efbe 03e4 e93e 6711 9abd 18e5 8fbe
000001b0: 74f4 953e 888a 0a3e debb c43d b966 42bd
000001c0: cba7 61be c12d 6dbe 5040 ec3d 74ee 19be
000001d0: 2578 e73e 129a 40be 2f81 ad3e cf9d f13c
000001e0: 8acb 31bd 5dca 4fbd 8e2e bcbd 2af8 e7be
000001f0: 3656 2cbc 6781 ffbd 001c 16bd 2acb b63e
00000200: 0136 82be d4ac 0e3e be1b b53e 8b23 16be
00000210: a2b7 3fbe 552c dabe 5ced 8cbe ffa2 703e
00000220: 494a e0be 2fb8 1239 c93d 6b3e 1d85 c5be
00000230: fc85 113c 3e2d b83d a41d 9a3e ad31 9e3d
00000240: f647 b93e 6961 dfbe a78f 9ebe 201c 8d3e
00000250: 27f4 9c3e 2c76 debd 0686 f7bd 2298 edbd
00000260: ada6 f43e 9bb1 ecbe d796 febd c99f a73e
00000270: 0564 08bc 862a 8dbe 4c9c 84be 20dc 8abe
00000280: 0018 c8bd 4448 223d 9011 1b3e 7592 39be
00000290: f126 f33d 776b 8ebd 3741 b4be 4f38 65be
000002a0: 0a06 31be 04c0 9f3e b2e8 0f3d 5355 49bc
000002b0: be98 ab3e 00c5 603d 10df ccbe a438 19be
000002c0: 4d85 a5be 1eef ed3d d551 9ebe 09c1 e03e
000002d0: 980c c3be 3f0f bbbe 9884 ae3e 9e81 22be
000002e0: 4b0c 953e f889 9c3e af35 98be 3458 3b3e
000002f0: 1463 07bd abf1 19be ab4f afbe c659 a13d
00000300: 989e adbe 6079 d2bd babf b2be ad46 3fbe
00000310: 9d1e edbe 19e4 6c3e 7d25 23be 09cc 353e
00000320: ebbb 87be 0030 833d 8b73 edbb 34ac cb3e
00000330: b3e3 813e 43de c1be 9245 8fbd 9509 eabd
00000340: 3c11 c7be 9996 b53e 8fc8 58be bfef 78be
00000350: 83ba 9cbe abbd 92be 09b4 f7be 0d31 b43e
00000360: 7e5d 713e b84d 31be b8fa d93e 43fa 6fbe
00000370: d39b 80be 6300 353e 6fcd c83e 7116 74be
00000380: 0083 6bbe 7f75 7c3e 4641 b0be d1e9 313b
00000390: 0088 c53e 2e14 b7be 4662 573b dc0c 8abe
000003a0: 3306 05be 524e 03be ceb2 88be 676f b0be
000003b0: 5614 8c3d 40ef 7cbe b261 a43e a21d 433e
000003c0: 7794 903d e743 9a3e deaa 943e d908 493e
000003d0: af57 ddbe e187 90be 6713 53bd 91ff 4f3e
000003e0: 6272 66be 55e0 c7bc fd7f 483d 7fac 6fbe
000003f0: 4fb2 c73e 4ab9 0ebe c374 743e 3533 f9bb
-0.041617725 0.1359265 0.30275953 -0.08467676 0.044652946 -0.18169275 0.4382873 -0.06252397
0.03147575 -0.17508957 0.16952792 0.11878983 -0.4692433 0.43246016 -0.091929965 -0.17311414
0.22819811 -0.26567662 -0.18778531 0.113182455 -0.0006794496 0.010004478 0.37006447 -0.07387242
-0.04265159 0.25844324 -0.16519532 -0.40170023 0.031215945 -0.1942416 0.22436538 -0.16142198
-0.33024552 -0.0042760335 0.20006303 0.06191509 -0.08956542 -0.14209703 -0.30458018 0.08061321
0.38602906 0.40989265 0.37148702 -0.10583957 0.3954251 0.467496 -0.23775022 0.24070683
-0.36895195 0.03904279 0.13230266 0.30206406 -0.27782044 -0.23427753 0.018366411 0.05023973
0.43665734 0.4061376 -0.071729146 -0.22202022 0.33308023 -0.13692649 0.40489274 0.34976327
0.023625836 0.09145564 -0.04112055 -0.20176487 0.09071264 0.37799606 -0.065510415 0.19589509
-0.24779867 0.38856104 0.36479178 -0.45765963 -0.50019115 -0.39113927 -0.09746467 -0.36767185
0.254687 -0.044398718 -0.37254974 0.22061366 -0.01727911 0.18441232 0.15082853 0.3368687
0.094501235 -0.4158173 0.043912105 0.08698669 0.10327942 -0.053680867 0.15001988 0.15855692
-0.23893604 -0.36678284 0.27086046 0.071645126 0.27315417 -0.2475931 -0.50499046 -0.2613188
-0.46797127 0.45681772 -0.075228505 -0.28104472 0.29288065 0.13529408 0.09606145 -0.047461245
-0.22036664 -0.23161985 0.11535704 -0.15032369 0.4520885 -0.18808773 0.33887622 0.029494194
-0.043407 -0.050730098 -0.09188567 -0.45306522 -0.010518601 -0.124758534 -0.036647797 0.35701877
-0.25431827 0.13933116 0.35372728 -0.14661996 -0.18722394 -0.42611948 -0.2752484 0.23499678
-0.43806675 0.00013992259 0.22972788 -0.3857812 0.008882042 0.08993004 0.3010074 0.07724319
0.36187714 -0.43629006 -0.30968973 0.2756052 0.30655023 -0.10862383 -0.1208611 -0.11601283
0.47783414 -0.46229252 -0.12431114 0.32739094 -0.008324628 -0.27571505 -0.25900495 -0.27121067
-0.09770203 0.0396197 0.15143418 -0.18122275 0.11872662 -0.06954091 -0.35206005 -0.22384761
-0.1728746 0.31201184 0.035134025 -0.012288409 0.3351497 0.054875374 -0.40013933 -0.14963013
-0.32328263 0.116178736 -0.30921808 0.43897274 -0.38095546 -0.3653507 0.34085536 -0.15869758
0.2911094 0.30574012 -0.29728457 0.18295366 -0.033053473 -0.15033595 -0.3424047 0.07878451
-0.3391006 -0.10277057 -0.349119 -0.18679304 -0.4631242 0.23133887 -0.1593227 0.17753614
-0.26510558 0.0640564 -0.00724644 0.39779818 0.25369033 -0.37864885 -0.06995691 -0.11427609
-0.38880336 0.3546646 -0.21170257 -0.24310206 -0.30611047 -0.2866033 -0.48379543 0.35193673
0.2357082 -0.17314804 0.42574096 -0.23435311 -0.25118884 0.17675929 0.39219233 -0.23836686
-0.22999191 0.24654196 -0.344248 0.0027147422 0.38580322 -0.35757583 0.0032864972 -0.26962936
-0.12990646 -0.12822846 -0.26698917 -0.34459993 0.06839816 -0.24700642 0.32105786 0.19054273
0.070595674 0.3012993 0.2903661 0.19632281 -0.4323096 -0.28228667 -0.051532175 0.20312335
-0.22504571 -0.024398962 0.048950184 -0.23405646 0.39003226 -0.1393787 0.23872666 -0.0076049813

encoder.blocks.0.attn.proj.bias f4 [16]
00000000: dfd5 ed3c 81ea 51bc 0b47 23bd 3e44 adbc
00000010: c995 febc 6d8d 393c 046c 21bd 2fe0 bebc
00000020: bf86 9d3b 673b 2e3d 3d4f c3bc 833d df3c
00000030: 26e5 663a 4698 0b3d 491d 813c decc 10bd
0.029032646 -0.012812258 -0.039862674 -0.021150704 -0.031077283 0.011325222 -0.039409652 -0.023300258
0.0048073228 0.04253712 -0.023841495 0.02725101 0.00088079495 0.034080766 0.015761035 -0.035351627

encoder.blocks.0.norm2.weight f4 [16]
00000000: 88e9 853f 1f2b 803f 41bf 843f 8816 803f
00000010: 6d07 743f 6bb8 843f 7504 733f 78b1 6c3f
00000020: f175 7d3f 8c32 843f a0d4 813f c7db 7b3f
00000030: 9eca 8b3f cc2a 743f 1aee 763f 905c 7b3f
1.0461893 1.001316 1.0370866 1.0006876 0.9532383 1.036878 0.94928676 0.92458296
0.9900809 1.0327926 1.0143013 0.9838223 1.0921209 0.953778 0.96457064 0.98188114

encoder.blocks.0.norm2.bias f4 [16]
00000000: a46d 05bb 46e8 663b 9fff 533b aa89 6bbd
00000010: f40d 25bc a3dd 173d 507e 033d 7a52 07bd
00000020: 418d 0abd 9744 3c3c 415b 82bc 411b df3c
00000030: a2df 46bd 29d3 3cbd 6934 003c 26e6 fd3c
-0.002035954 0.003523366 0.0032348407 -0.057504334 -0.010074127 0.037076604 0.032102883 -0.03303764
-0.033826116 0.0114909625 -0.015912654 0.027234675 -0.048553117 -0.046099816 0.007824996 0.030993532

encoder.blocks.0.mlp.fc1.weight f4 [64, 16]
00000000: f6f0 f73d 6070 903d 52a3 393e c186 67be
00000010: 9969 8bbe 9e5c 6ebe 5f43 d0bd 08c7 263d
00000020: 1688 093e 8e17 f5bd 5089 0ebe 21db ef3d
00000030: f42b 013e a255 4ebd 6810 4e3e 32b7 30be
00000040: 0e79 643e b804 6bbe c25b 1d3e d71e e9bc
00000050: 65e7 733d b82f 52be e3ac 283e db4c a13d
00000060: e211 103e 6c41 9a3e a5fa 4abe 357d f73d
00000070: 806c 9bbd bc16 9bbe 6cb9 713b 44bb 4bbe
00000080: ca04 013d d887 6ebe 0ca0 533e 7f22 a2bd
00000090: fae6 923e adc9 8abe b552 203d 06ea 8c3d
000000a0: ef1d f6bd 2bee 4cbd 414c ee3d e3b4 1b3e
000000b0: 3286 473e 1588 60bc e27c a53e 8a28 3dbd
000000c0: 5309 603e 1a11 ab3d f324 97bd b638 203e
000000d0: 8e66 533e f559 513c a390 643e 6642 2cbe
000000e0: 19ba e53c 49cf acbe bc4a 923e 82e0 f23d
000000f0: e609 7abd 130c cbbd 43c7 0cbe 3658 7d3d
00000100: 32fe 303e bfd1 363e fce3 733e fb81 5ebe
00000110: 9337 f1bd 9336 6d3d d7e7 933d b999 dabc
00000120: bca9 45bd 30ed 7fbc 01af f0bd f6de 2f3e
00000130: e7d4 02be 599b 363e c05c cd3d eb24 8c3e
00000140: 5a40 30be f753 3d3e 0c75 3e3c 2478 883d
00000150: adeb 2d3e 5291 35bd 436c 673e 84f6 6e3e
00000160: 0cc7 59bd 916e 3ebe 503e 2dbe 23b5 43be
00000170: 54d6 2fbe b3c4 2fbe 9de0 3fbe 634b 7ebd
00000180: c7ec 77be 560b 54be d5d3 a83d 682c 12be
00000190: 811f 67be 35e2 dfbd ce67 523e 016f f63c
000001a0: 9c64 563e 614a 58be 1761 053e 2fe6 153e
000001b0: 800d 62be fb05 6cbe 75f7 99be 3a92 d13d
000001c0: 6104 453e 55c7 603e 21f4 2ebd 45b1 333e
000001d0: 4b8c 303e 138a 9f3d 0313 0fbe cdb6 613e
000001e0: 2e36 18bd 69dc 34bd 8044 e2bd a4c1 fd3b
000001f0: 92e3 67bc 661d 8e3e 980b 1f3c 59d6 833e
00000200: a7e6 17be 7ccf 5a3e 1ff3 f6bd 6edb 343e
00000210: b46a 7b3e 7222 1cbe 7530 4a3e 6a51 cdbd
00000220: 954e 01bd 51d5 b738 586f 173e 7c6b 98be
00000230: fde9 483e d834 77bd a403 54be 6aff 79be
00000240: 89ad 0bbe 8183 cdbc b02c 21be f50b 1dbe
00000250: b36b d7bd 2e70 413e 5240 10be 8393 ffbd
00000260: 772f 1ebe a84a 503d 87d9 5fbe 5773 78be
00000270: 2630 0c3e 64ba 12be 92bd 6fbe 2658 f3bd
00000280: 61d1 adbe 73d6 0dbd 5bf3 78be 0c7b e93d
00000290: 5cf5 cdbd da4c 823d a88e 76be dd8e 0dbe
000002a0: b6f8 e83d 292b c13d de02 5fbe dcd8 80bd
000002b0: 90c8 943e 10fd 683c 8351 f73d 4287 3bbd
000002c0: 8aa7 b3bd 59e3 38be 0fdb 8dbe 2b9a 813e
000002d0: 1c87 d13d 48fb 6b3e 115a 82bd 0423 5bbe
000002e0: 54cb 3dbe 90fb 863c 36ec 8dbe 0e69 4cbe
000002f0: a3bb a7be 0286 813e 542f 63be 62ec 9f3e
00000300: 8ec7 89bd 7f4e 403e 99fb 88bc f869 eb3c
00000310: 19b3 00be b779 74bd 678e bfbb 8c1e 4ebe
00000320: ff66 983d 41a4 643e 065c ad3d 294a c23d
00000330: 927a 993e 7f6b a73d 944b 5f3d e0e1 c13c
00000340: 145c 2b3e 75f4 a5be b353 36bc 21e8 5cbe
00000350: c701 59be 43a9 6e3d 8e43 473e 4c84 d8bd
00000360: 2f16 19be 3c87 323e d14f 54bd 6711 6e3e
00000370: dc75 44bd e065 943e 0113 233e cf19 fdbd
00000380: 026c 083d d170 303e feae 303d 9fc2 3d3e
00000390: 6f41 5cbd bb91 0ebe 26f0 93bc 60b4 5a3e
000003a0: 5211 d93d 88df 433d e85c 943c c3f4 27be
000003b0: 0d64 833e 6173 543e eddc 41be fd69 eb3d
000003c0: f815 3cbc 6df6 583d f331 f83d 99af b13e
000003d0: ab3c 483e 5600 923e 3c02 91be 1193 eb3c
000003e0: d413 5bbe 249a 803d 51e2 4a3e 0174 c9bd
000003f0: a965 cb3d 636b b03d e453 aebd 0438 9d3e
0.121065065 0.07052684 0.18128708 -0.22609998 -0.27229002 -0.23277518 -0.101691 0.040717155
0.13430819 -0.11967383 -0.13919568 0.117117174 0.12614423 -0.050374635 0.20123446 -0.17257383
0.22311804 -0.22951019 0.15367034 -0.028457088 0.059546847 -0.20526016 0.16472201 0.07875987
0.14069322 0.30128038 -0.19822176 0.12084428 -0.07589054 -0.30290782 0.0036884202 -0.19895655
0.031498708 -0.23294008 0.20666522 -0.07916736 0.28691846 -0.2710699 0.039141376 0.06880574
-0.12017428 -0.050031822 0.11635638 0.15205722 0.19484785 -0.0137043195 0.3232184 -0.04618124
0.21878557 0.08352871 -0.073800944 0.15646634 0.2064459 0.012777795 0.223208 -0.16822204
0.02804284 -0.33751896 0.28572643 0.11859228 -0.061044596 -0.09914412 -0.13747887 0.061851703
0.17284468 0.1785345 0.23817438 -0.21729271 -0.11778178 0.057913374 0.07221954 -0.026684629
-0.048257574 -0.015620515 -0.11752129 0.17174897 -0.12776528 0.17832698 0.10027456 0.27371916
-0.17212048 0.18489061 0.011624586 0.0666354 0.16984434 -0.04432804 0.22599892 0.23336226
-0.05316834 -0.18596865 -0.16918302 -0.19112067 -0.17171603 -0.17164879 -0.18738027 -0.062083613
-0.24211417 -0.2070745 0.08243529 -0.14274752 -0.22570612 -0.109318174 0.20547411 0.030082228
0.20936817 -0.21122123 0.13025318 0.1463859 -0.22075462 -0.23049156 -0.30071607 0.10232969
0.19239952 0.21951039 -0.04271329 0.17548092 0.17241018 0.077900074 -0.13972096 0.22042389
-0.037161045 -0.044155512 -0.110482216 0.007744031 -0.014153378 0.27756804 0.009707354 0.25749472
-0.1483408 0.21368212 -0.120580904 0.17661831 0.24552423 -0.15247515 0.19745047 -0.10025294
-0.031569082 8.765853e-05 0.14788568 -0.29769504 0.1962051 -0.06035313 -0.20704514 -0.24413839
-0.13640417 -0.02508712 -0.15739703 -0.15336592 -0.10518589 0.1889045 -0.14087036 -0.124793075
-0.15447794 0.050852448 -0.21860324 -0.24262749 0.13690242 -0.14328915 -0.23412159 -0.11882047
-0.33948806 -0.034628343 -0.24311583 0.114004225 -0.10056564 0.063623145 -0.24077857 -0.1382403
0.11375563 0.0943206 -0.21778437 -0.06291363 0.29059267 0.014220491 0.12076094 -0.04578329
-0.0877219 -0.18055476 -0.2770619 0.25312933 0.10230848 0.23045075 -0.06364835 -0.21400076
-0.18534595 0.016477376 -0.27719277 -0.1996195 -0.32760343 0.25297552 -0.22186023 0.31235033
-0.06727515 0.18779944 -0.016721534 0.028737053 -0.1256832 -0.05968639 -0.005845833 -0.2012884
0.0744152 0.22328283 0.08464818 0.09486801 0.29976326 0.081748 0.054515436 0.023667276
0.16734344 -0.32413068 -0.011128354 -0.21572925 -0.21192084 0.05826689 0.19459364 -0.105721086
-0.14949869 0.174344 -0.05183393 0.23248826 -0.047963962 0.28983974 0.15925218 -0.12358438
0.03330613 0.17230536 0.043135636 0.18531273 -0.05377334 -0.1392278 -0.018058848 0.2135787
0.10599007 0.047820598 0.018110707 -0.16401963 0.2566227 0.20747139 -0.18931933 0.11494825
-0.011479847 0.052969385 0.12118902 0.34704283 0.19554393 0.2851588 -0.28322017 0.02875665
-0.21394283 0.062794 0.19812895 -0.09836579 0.099314995 0.086142324 -0.085120946 0.307068

encoder.blocks.0.mlp.fc1.bias f4 [64]
00000000: fe7a 123b f558 00bd 0ffc fbbc 7188 e5bc
00000010: 741c 563c a3c8 97bb 0b07 863c d287 833c
00000020: 743e 32bd d79f 20bd e8f8 313d 5743 033d
00000030: 4bdd 483d 3b4c d73c 212b 9dbc dd4f 3d3d
00000040: eead 273d d5da 69bd 8312 063d e204 d53b
00000050: 9679 1f3d 11fa c4bc fc7f a63c 0793 73bc
00000060: b059 80bc 6954 d4bc 3882 92bc 50ef 5e3d
00000070: ddac 7bbd f4d8 f2bc e39a 26bb d8be b6bc
00000080: 2989 62bc fc92 203b c661 e3bc 0d80 7dbd
00000090: 9daf 5ebd 0a76 4ebd 6dce 0ebc 6c36 27bd
000000a0: 206f 883c aca0 31bd 0cd8 7fbc e263 48bd
000000b0: 17d8 b4bc 2e1f 203d 089f 603d 3090 a7bc
000000c0: 5858 bebc e3f3 d8bc fff3 f8bc 637c 1dbd
000000d0: 8786 d63a 2f3a 32bd e2d7 4fbd aa45 b73c
000000e0: 9361 54bd 20bd dbbb c255 5abd a400 8e3c
000000f0: 0a90 f7bc e01e 0bbd 1861 d03c ee2e 693d
0.002235114 -0.031334836 -0.03075984 -0.028019162 0.013068307 -0.004632072 0.01636078 0.016055975
-0.04351659 -0.039214935 0.043450266 0.032046642 0.049039166 0.026281467 -0.019185605 0.04621874
0.040937357 -0.05709346 0.032732498 0.006500826 0.038934313 -0.024045022 0.0203247 -0.014866597
-0.015667766 -0.025919156 -0.017884359 0.054427445 -0.061444152 -0.029644467 -0.002542191 -0.022307798
-0.013826647 0.0024501672 -0.027756583 -0.061889697 -0.054366697 -0.05040554 -0.008716208 -0.040823385
0.016654551 -0.04336612 -0.015615474 -0.04892338 -0.022075696 0.039092235 0.054839164 -0.020454496
-0.023235485 -0.026483482 -0.030389784 -0.038448703 0.0016366997 -0.04351252 -0.05074299 0.022372086
-0.051850867 -0.006705895 -0.05330444 0.01733429 -0.03022005 -0.03396499 0.025436923 0.05692952

encoder.blocks.0.mlp.fc2.weight f4 [16, 64]
00000000: 49f8 24be c2d7 64be 314f 963d 5e98 22be
00000010: 05a2 52be 6e09 3dbc 3be8 1bbd 9d91 8c3e
00000020: cc87 33be 489a 3dbe 1117 49be 53d5 463d
00000030: 6347 4ebe 56f6 6c3e 62f2 20be 90b8 bc3c
00000040: 44c2 6f3e 4421 91be 8eaf a9bd 9a0a f8bd
00000050: 5867 12be e85e 4a3e 254f 86bd 6cbe 20bd
00000060: 63f4 8bbe aca8 143e dce1 543e 0c3e 1cbe
00000070: c3f7 1dbd dcf0 01be 990d 883e 8454 703e
00000080: ad90 f73c d491 f5bc 68d9 a8bb 12d9 56be
00000090: 2d4c 21be 66d3 b63d 13e2 053e 0068 153e
000000a0: 3138 e5bd 810f ca3d 362d 953d 788d 85be
000000b0: 5daa fb3d f1a4 c43d f278 6f3e b0f4 333d
000000c0: 6547 6d3e dd4e 573e 7c92 3ebe 81a0 2fbe
000000d0: f09a 8c3e 44d4 0abe 5b3b 00be c52b fabc
000000e0: e4c5 f7ba c6cc 323d 98fd 7a3c 6608 8a3e
000000f0: 8200 843e cb12 fcbd c50b a33c 2dd1 60be
00000100: 83e1 113e 0750 debd afc0 123d 3e2a 963d
00000110: 1e4e 80be 3406 733d 1df0 13be 1c2e 113d
00000120: eef3 26bd bdce 38be 36b3 4cbe 205d aa3a
00000130: c602 7ebd 0eb7 4bbd 9351 d83d 7124 86be
00000140: 8d80 4dbd 1099 1ebd d322 79be 1534 f73d
00000150: 1684 05be 4fe5 06bc 527e 823d feff 7f3e
00000160: fcfc 973d e98a 6ebd 093e 353e b304 77be
00000170: 915a 09be a689 a8bd b5fc 5fbe dce3 7b3d
00000180: 3bc6 2e3d c0d2 dc3d 76bc 983d cfd5 a43e
00000190: f7c5 edbd adee 1cbe 657c 873e c156 303e
000001a0: 990e 153e 0e6a 85bc 8c14 62bd 8a67 19bc
000001b0: 2734 cf3c 1eb2 86be ce9b bcbb 7639 723e
000001c0: b88c b83c 5138 aebd 75c3 ddbd 0dfc 89bd
000001d0: 51b3 92bd 86a7 19be 5be7 af3c fc0f 94bd
000001e0: 63c2 93be 5cf4 623e e219 8f3e 6c60 513e
000001f0: 37e7 163e ca9a dbbc 151c f93b b20c 563e
00000200: da0a 9d3e d4f2 9f3d 9a53 273e 30fb 98be
00000210: 762b 633e a2dd 133e c33c 853e 0d2b 4bbe
00000220: a3aa 7c3e 861a 27be 5dbb c53d 9f17 0dbe
00000230: 6726 65bd 0ebc 3cbe 951f c6bd c837 1abd
00000240: 4b8d f7bd 93f3 3f3e 3f04 51be 6e5a 4ebe
00000250: bcde 98be c3ef d7bd cddf 39be ce97 de3d
00000260: 5710 8d3d 2ac5 383d cbab f9bd 7406 6e3e
00000270: 3989 c63d f8a8 4d3e 63d4 fe3d 48ec b83d
00000280: fcb4 c33d 066d c53c 18df 2cbe 8381 6a3e
00000290: 8f92 c9bd ae3b db3d c366 e03b 4746 82be
000002a0: 154c 00be 0834 063e 4dcd e5bd 2fa6 543e
000002b0: ba33 4e3c d76f 823e 9fa8 0d3e 48cd 173d
000002c0: 002c 80be 2752 14ba aac4 833e ee19 9e3d
000002d0: c8d6 593e 82b7 debd ded4 1f3e 3f85 88be
000002e0: fb02 073d fa47 3dbe 1c4c e0bd f987 85bd
000002f0: 1c61 1cbc 6734 053c 70ce 433e cabe 8c3e
00000300: b9f1 923e 7eee 2b3e 6cc9 76be b331 fb3d
00000310: 1537 853d b651 b3bd 64f1 283d 0914 8cbe
00000320: 35fa 77bd ad05 863d 9395 c4bd 4db2 afbd
00000330: c228 303e e963 013c f46d 49be ce0c 6dbe
00000340: e5f7 70be 7a6f d63d 02ca c93c 7a85 eabd
00000350: b785 953e 9e5f 19be c01d 37be 4be6 aa3d
00000360: 2eb3 9fbe e812 80be a5ee 6e3e 976d 20bd
00000370: 5dcc 14bd 477b 28bc e5ed 673e eeea 0b3d
00000380: 4434 6fbd 613c 66bc 7a28 b7be c7ea 61be
00000390: 697f 3e3d dbbe 88be a9e9 56be e92a b3bc
000003a0: c127 31bd b0e3 a73d 7125 6eb9 14b3 4dbe
000003b0: 22e4 1fbe da34 e83c bf60 0ebe 4b6c 1e3e
000003c0: 04b1 8d3e c303 183e 3c8c 0b3e 21bf 2e3e
000003d0: daad 323e ab68 48be da8e 90bd bcd6 73be
000003e0: 22df 023e 202a 8a3d 5f84 84bd 4980 7ebd
000003f0: 5251 413e 4a6f 133e 4ab4 18bd 7755 95be
-0.16110338 -0.2234793 0.07339323 -0.15878436 -0.20569618 -0.011537893 -0.03806327 0.27454844
-0.17532271 -0.18515885 -0.19637705 0.048543286 -0.2014442 0.23140845 -0.15717462 0.023037225
0.2341395 -0.28345692 -0.082854375 -0.12111397 -0.14297235 0.19762766 -0.06558064 -0.0392441
-0.2733489 0.14517468 0.20789284 -0.15258044 -0.038566362 -0.12689537 0.26572874 0.2346974
0.030220354 -0.029976763 -0.00515287 -0.20981243 -0.15751715 0.0892704 0.13074522 0.14590454
-0.11192358 0.098662384 0.07284014 -0.26084495 0.122883536 0.096017726 0.2338598 0.043934524
0.23171766 0.21026178 -0.18610567 -0.17151071 0.27461958 -0.13557535 -0.12522642 -0.030538449
-0.001890358 0.04365232 0.0153192505 0.26959532 0.25781637 -0.12308272 0.019903073 -0.21954794
0.14246182 -0.10855108 0.03582829 0.07332276 -0.250596 0.059332088 -0.14447065 0.035444364
-0.040759973 -0.18047614 -0.19990239 0.0012997724 -0.062014364 -0.04973512 0.10562434 -0.26199678
-0.050171424 -0.03872019 -0.2432969 0.12070481 -0.13038668 -0.008233382 0.0637175 0.24999997
0.074213 -0.058237944 0.17699446 -0.24122886 -0.13413455 -0.08229379 -0.21873744 0.0614966
0.042669516 0.10782385 0.07457821 0.32194373 -0.116100244 -0.15325423 0.26462093 0.17220594
0.1455635 -0.016285922 -0.055195376 -0.009363065 0.025293423 -0.26307768 -0.005755878 0.23654732
0.022528037 -0.08506835 -0.10828296 -0.06737528 -0.07163108 -0.15005311 0.021472624 -0.07229611
-0.28859243 0.22163528 0.27949435 0.20446938 0.14736639 -0.026807208 0.0076022246 0.2090328
0.30672342 0.07809988 0.16340485 -0.2987914 0.22184548 0.14440015 0.2602292 -0.19840641
0.24674468 -0.16318712 0.09654877 -0.13778542 -0.055944826 -0.18431112 -0.096739925 -0.037650853
-0.12087496 0.1874526 -0.20411776 -0.20151684 -0.29857433 -0.10543778 -0.1815178 0.10868798
0.06887882 0.045109905 -0.1219097 0.23244649 0.09694142 0.20083988 0.12442853 0.09029442
0.095560044 0.024099838 -0.16881979 0.22900967 -0.09842407 0.10704742 0.0068481877 -0.25444242
-0.12529023 0.13105786 -0.11220799 0.20766519 0.012585575 0.25475952 0.13833855 0.037061006
-0.2503357 -0.00056579936 0.2573598 0.077197894 0.21273339 -0.10874845 0.15608546 -0.2666416
0.032961827 -0.18484488 -0.10952017 -0.06520075 -0.009544637 0.0081301695 0.19121718 0.2748931
0.28700045 0.16790196 -0.24100274 0.12265339 0.06504647 -0.087558195 0.041245833 -0.27359036
-0.06054135 0.06544051 -0.095988415 -0.0857893 0.17203048 0.007897356 -0.1967085 -0.23149416
-0.23532064 0.10470481 0.024632458 -0.1145124 0.2920358 -0.14977881 -0.17882442 0.08344706
-0.3119139 -0.25014424 0.23333223 -0.039167013 -0.03632771 -0.010283298 0.22649343 0.034159593
-0.058399454 -0.014052481 -0.3577307 -0.22062217 0.046508227 -0.2670811 -0.20987572 -0.021871047
-0.043250803 0.08197725 -0.00022711397 -0.20087844 -0.1561437 0.028345514 -0.13904093 0.15470998
0.27674115 0.14845185 0.13627714 0.17065097 0.17449132 -0.19571178 -0.07058497 -0.23812383
0.12780431 0.06746316 -0.0647056 -0.06213406 0.18878677 0.14397922 -0.037281312 -0.29166767

encoder.blocks.0.mlp.fc2.bias f4 [16]
00000000: fa3e c73c 1385 8fbc c88d 02bd e417 443b
00000010: 53cd 45bc a75e d7bb b67b d1bc 8dba b1bc
00000020: 27be 0d3d 8344 df3c 216f c7bc 8843 8c3c
00000030: 3ad6 ec3c 16f2 193d a976 fb3b 993b 1dbd
0.024322022 -0.01751951 -0.031873494 0.0029921466 -0.012072879 -0.0065725627 -0.025571685 -0.0216954
0.03460517 0.027254349 -0.024344983 0.017122045 0.028910745 0.037584387 0.0076740575 -0.038386915

encoder.blocks.1.norm1.weight f4 [16]
00000000: 7530 843f 43a8 7a3f 9cdc 843f b356 5e3f
00000010: 525f 843f 5c76 7f3f 9ce8 8b3f 8ec4 813f
00000020: f15e 793f 1100 7c3f 5d46 803f 8da4 803f
00000030: e340 803f 35f3 843f 373f 6f3f cff6 5b3f
1.0327288 0.97912997 1.0379825 0.8685104 1.034159 0.9978998 1.0930362 1.0138109
0.97410494 0.984376 1.0021473 1.0050217 1.0019802 1.0386721 0.93455833 0.85923475

encoder.blocks.1.norm1.bias f4 [16]
00000000: 2548 c33c b736 89bc 0630 12bd 9ba9 2dbd
00000010: 8d26 11bd 4be9 24bc bd36 61bd e683 86bc
00000020: 1b12 1c3d 05e0 293c 5b98 ddbc 1de8 493c
00000030: ea52 9a3c 9b46 383d 544f f73a 5477 3dbd
0.023838112 -0.016749723 -0.03569033 -0.042398077 -0.035437156 -0.010065387 -0.054983843 -0.016420316
0.038103204 0.010368352 -0.027050188 0.0123234065 0.018838365 0.04498921 0.0018868246 -0.04625638

encoder.blocks.1.attn.qkv.weight f4 [48, 16]
00000000: 640d f6b9 18c6 3e3e 2268 333e 7525 d33d
00000010: 5f52 c9bd 3bba 09bd 025a 823e 1350 81bd
00000020: f4b8 83be 8fe3 ddbc 35e3 8fbd b651 cfbd
00000030: 3caa a2bd 22d6 4fbe 33a7 223d 7b15 743e
00000040: cae2 82be dab8 5abe fc03 9dbe c9ae 843e
00000050: 8528 abbe 5434 1d3e acb6 263e a307 313e
00000060: 5d47 50be 5b46 2abd f81c 2dbe e623 353e
00000070: 5fa7 143e a501 023e 458b 6b3e 36ad 253e
00000080: 769d 8f3e a608 67be afac 523d 8dbc 2ebe
00000090: 9eec b73d 3d2e 983d 3b05 ab3c 02b5 92be
000000a0: 814e 873e df0b f3bc 053d 7cbe 54d6 73bd
000000b0: bbab d2bd ec31 3b3c 96fb fb3c 2894 3fbe
000000c0: 05cd 743e c6e6 8cbe f16a 3bbe dc60 2b3e
000000d0: 381b 82bd 7599 463e 5748 4a3d 69a6 e73d
000000e0: 9954 b3bd b1c9 273e 1f72 33be 7d21 c63d
000000f0: ff51 b13d 394f 883e 570b 7c3e 539e babe
00000100: c0b4 7dbc fb9e b63d 259b 72bc 1aac a0bd
00000110: 9be3 3cbe 060e 863d dd0e 7b3e 0310 1a3c
00000120: d2ec 0abe c4bd 8b3e 6fa5 97bc 5d6e 3abe
00000130: fcb2 9cbd 2e45 133e 3609 a7bd 76ff 2b3e
00000140: 4be4 9ebe dd2d 8d3e c5fc 35be 6bb2 143e
00000150: 4f61 93bd 0ba2 453e 684b 843e ae4d 31bd
00000160: db32 bc3d f576 40bd 4a24 8c3e 14bc 233e
00000170: 706f b43e f949 30be 500a 833d 8ecc 91be
00000180: bf12 abbe 3495 d8bc 3902 23bd 2eee e23e
00000190: 70b3 32be 4c72 0e3d d31a c63e 2c1c c1bc
000001a0: 37ae c63e 2693 30be 4ac4 f73d 81c9 54bc
000001b0: b57b 81be ae70 b9be 9ca7 833c 707f f33d
000001c0: 1b25 04be fd76 3c3e 995a 533e 0572 45be
000001d0: 4441 77be 996b 87be 4de3 663d b1dc 4e3e
000001e0: b516 873c 2ac8 51be 3fba 1a3e 410f 91be
000001f0: af1e 8a3e e933 1dbe b40a 423d 15dd 573b
00000200: 83cb f93e d30a 933e 6860 eebe d114 583e
00000210: 8e5c ab3e 54f4 a33e 060a aa3d f8d9 b43d
00000220: a328 16be c8fb 163e 4637 8c3e 44d4 033e
00000230: 3c1c c0bd cd2f 4cbe e09e adbd 24ba fcbe
00000240: 6896 c13e 13d6 7fbd aed4 acbe bad0 cf3d
00000250: f505 6ebe abd5 9d3e 7e0a 423d cf39 61be
00000260: e86e 3abe d159 823e ee3e 04be 2b20 3b3e
00000270: af8f f4bb dbcb 3d3e 490a 29be a9d9 403d
00000280: 6c3c c93d f435 5e3e ce40 033a 3546 aebe
00000290: c556 873c a471 f23d d939 713d 97bd c53d
000002a0: d4b2 3ebe c50f b13e 6bea bdbe e6cd 14be
000002b0: 894a 693e 2753 56be 873c a23e 6661 fdbd
000002c0: 9f81 22bd 0bfc 0f3e 46e9 1f3e 93b4 8b3d
000002d0: 6e20 7f3e 4f2a 3f3d 7077 e1bd b418 b93c
000002e0: 05b2 fb3d 2afc 09be 2685 623e cc45 ba3d
000002f0: 21f7 0f3c 604e a53d edeb 173e 2a07 f6bd
00000300: f53f cc3d 73b4 cbbe ac6b 0cbe d0b9 95be
00000310: 1aa1 453e 7120 a53e 866e c7bc d622 8f3d
00000320: 3f1a 79be e219 36bc 8331 e63c 13bc 3b3e
00000330: a0ac a2bd eacf cabb 4813 b73e f537 b23d
00000340: eb51 633e 2603 57bd 3e9b 55be 4fc9 de3c
00000350: c385 35be d1d1 273e 0c10 2abe 3826 babd
00000360: 652d b9bd 6264 f53d b65e 983d cb86 603e
00000370: aced d43d 6383 db3d a7ec 723e 4d7d 003e
00000380: 6845 823b 76be 91bc d651 c33b af07 2e3e
00000390: fb5f d23d 70f5 cebd 990c b6bc cadd 19be
000003a0: bc42 3f3e 1df0 30be ed47 1e3e e6cd 643e
000003b0: 9e88 23be d060 0a3e ee58 75be 45b4 84be
000003c0: 6717 a439 83f3 27be a4d8 3cbe aa73 81be
000003d0: c86d 42be a404 c93d afeb 12be 50de e23d
000003e0: 71bb a5bd 52a3 1abe 9dc1 833c c21c 273e
000003f0: b43d 7bbe 176e 3c3e 685b ce3d 403c 56be
-0.00046930753 0.18630254 0.17520192 0.10309879 -0.09830164 -0.03362487 0.25459296 -0.06314101
-0.25727046 -0.027086047 -0.07025758 -0.10123007 -0.07942626 -0.20296529 0.039710235 0.23836319
-0.2556365 -0.21359578 -0.30667102 0.259146 -0.3342935 0.15351993 0.16280621 0.1728807
-0.20339723 -0.041571002 -0.16905582 0.17689475 0.14516972 0.1269594 0.23002346 0.16179356
0.2804982 -0.22561893 0.051434215 -0.17064114 0.08980678 0.07430694 0.020876518 -0.28653723
0.2642708 -0.029668747 -0.24632652 -0.05953057 -0.10286661 0.0114254765 0.030759614 -0.18708861
0.23906334 -0.27519816 -0.18302514 0.16736168 -0.06352848 0.19394477 0.049385395 0.11311037
-0.0875637 0.16385533 -0.17524002 0.09674356 0.08658218 0.26622942 0.24613701 -0.36448917
-0.015484989 0.08917042 -0.014807497 -0.07845326 -0.184462 0.065456435 0.24517389 0.009403232
-0.13566902 0.27293217 -0.018511502 -0.18206163 -0.07651326 0.14381859 -0.08156054 0.1679667
-0.3103355 0.27574053 -0.17772205 0.14521186 -0.071962945 0.19300096 0.2583878 -0.04328697
0.091893874 -0.046988446 0.27371436 0.15989715 0.3524127 -0.17215718 0.06398451 -0.28476375
-0.3341274 -0.026438333 -0.03979704 0.44322342 -0.17451262 0.03477697 0.3869234 -0.023573004
0.3880479 -0.17243633 0.12097986 -0.012987495 -0.25289693 -0.3621878 0.016071133 0.11889541
-0.1290478 0.18404765 0.20640029 -0.19281776 -0.2414599 -0.26449278 0.056369115 0.20201375
0.01649032 -0.20486513 0.1511011 -0.2833195 0.26976535 -0.15351833 0.04737349 0.0032938172
0.4878808 0.28719196 -0.46557927 0.21101691 0.3346905 0.32022345 0.08302693 0.08830637
-0.14663939 0.14744484 0.2738592 0.12873942 -0.09380385 -0.1994011 -0.084775686 -0.49360764
0.37810063 -0.062460016 -0.33756012 0.10147233 -0.2324446 0.30827078 0.047373287 -0.21994708
-0.1820637 0.2545915 -0.12914631 0.1827399 -0.0074634175 0.18534796 -0.1650783 0.047082577
0.09825978 0.21700269 0.000500691 -0.3403794 0.016520867 0.118380815 0.05889306 0.09655302
-0.18622905 0.34582344 -0.3709291 -0.14531669 0.22782339 -0.20930158 0.31686804 -0.12372093
-0.039674398 0.1406099 0.1561633 0.06821551 0.24914715 0.046671208 -0.11009109 0.022594787
0.12289814 -0.13475099 0.22121105 0.09095344 0.0087869475 0.080715895 0.14836092 -0.12013085
0.09973136 -0.3978611 -0.13712949 -0.29243326 0.19299737 0.32251313 -0.024344694 0.06989066
-0.24326418 -0.011114569 0.02809978 0.18333463 -0.07943082 -0.006189336 0.35756898 0.08702079
0.22199218 -0.052493237 -0.20860001 0.0271956 -0.17726807 0.16388632 -0.16607684 -0.09089321
-0.090418614 0.11982037 0.0743994 0.2192642 0.10396895 0.107184194 0.23723088 0.12547798
0.003975559 -0.017791014 0.0059606833 0.16995119 0.10272213 -0.10105407 -0.022222804 -0.15026012
0.18677801 -0.17279096 0.15457125 0.22344169 -0.15970084 0.13513494 -0.23959705 -0.25918785
0.00031297954 -0.16401486 -0.18442017 -0.25283557 -0.1898719 0.09815338 -0.14347719 0.11077559
-0.08092392 -0.15101364 0.016083533 0.16319564 -0.24535257 0.18401371 0.10076028 -0.20921421

encoder.blocks.1.attn.proj.weight f4 [16, 16]
00000000: 8b86 453d 864e 99be f4ed 90be 3577 78be
00000010: ed87 a2be 59da 033e da3c 9cbe f9d2 363e
00000020: 7f9e bebe b896 be3e ae07 a33e 1778 b93d
00000030: ec7a 4fbe 0a38 65be a948 8ebe 4bcd 713e
00000040: 7e32 ca3e cd9c 283d 6bd1 883e f8a7 aa3c
00000050: 3ac6 ecbd 2a0c 773d 173d 98be 648e cbbe
00000060: 1a08 2dbd 4e05 84bd 18b8 30be 922e 2a3d
00000070: 92b8 f6bd d9aa 0e3e fa5a 8e3e ebeb c3be
00000080: 7a5c acbc 2966 36be c7ea e3be 6282 4cbe
00000090: 927e ddbe e051 87be fbdf c33e 5a5f df3e
000000a0: 9e01 77be 5886 5a3e c210 b8b9 ccbb 93be
000000b0: eeb5 08be 52ff d8bd 8958 b7bd 2302 a8be
000000c0: 6a4d cf3e 2eb6 74be 2a6a a2be 70f0 d63e
000000d0: f6eb 90be f757 e03d 7624 9f3e 5e8a 1c3e
000000e0: aa95 c0bc 766a 9c3e 8710 b9be d967 5b3e
000000f0: 276a 743d 9f98 25be 7315 413e 8698 393e
00000100: 2743 bcbe da0d debd 4201 f33e e05e cbbe
00000110: 7a57 58bd 44b2 19be 7190 743d 9ade a0be
00000120: f851 a1bd e390 303e 95a2 afbe d5ad 9b3d
00000130: 8954 653e 1b9a 4fbe fdda 26bd ed3e 81be
00000140: 7011 1e3e 2277 5b3e 25c3 3f3d 97b7 a03d
00000150: 2c0c bd3e 0434 283e 5d10 c63e 802e ee3c
00000160: df39 3a3e 25fa d9be 6913 113e a15d 57be
00000170: 4ebb 793c bf8f b8be 2ddd e33e 8e27 d3bd
00000180: 5fd7 1cbe 50c7 a3be 5f51 423e d4a7 95be
00000190: 4b87 d7be 2669 35be 4224 443d b000 153e
000001a0: 5189 f93e 3bd6 02bc 50f4 a0bd 99e6 a13e
000001b0: 69a5 a43e f743 18be ec80 8e3e 29a0 2fbd
000001c0: 1eb9 79be dbd4 283e 6629 81be a200 a2bd
000001d0: f4b1 cdbe aeea b1bd 28ab 9fbd dda2 debe
000001e0: 291e 06bd 20ac 133e 54f0 983e 2188 afbd
000001f0: 8821 863e c516 8c3e 35a3 a33e f0e4 44bd
00000200: 7d52 74be 41b4 973b b846 bfbe 8502 e0be
00000210: a0b0 723e 5304 693e 7175 873e 9b6f 1bbe
00000220: 7a9d 45be b735 bebe 56a7 833d 1a22 263d
00000230: d5d2 c23e 7e42 d1bd ac06 cbbe bdd2 173d
00000240: c8db a5be 2c4f 0b3e 1209 83be af9a d8be
00000250: 24f5 c03e 5025 d03e c281 2a3e 1678 3b3e
00000260: 7aec 61be 23e2 733e 9521 873e 0325 2dbe
00000270: 8c6e 993d e266 70bd 78d7 2a3e cc0d bc3e
00000280: 2d10 07be 2925 b73e 44d7 483b cb00 903e
00000290: 3557 863e a8fb c4bc a55c 81be 21c0 af3e
000002a0: a757 80be 7bf1 32be 3168 bb3e 27c2 5f3e
000002b0: d239 8dbe 997d 9bbe 3b69 443d 26aa 96bc
000002c0: b56d ce3a 10d1 0a3e 4d7b afbe f8d0 b6be
000002d0: e9a0 ba3e 5184 cfbd 27f9 c13e f36b a1be
000002e0: f211 5e3d e58b 71be 8206 d53e b041 833e
000002f0: 68d0 bfbe 7571 c13e 7f4b d73d eac2 8e3d
00000300: 964c ad3e d44d c0be ddcd ba3e f6d6 f43d
00000310: 1b80 f13e d3fe 20be fe8a 8abe 4399 f6be
00000320: b5fa 3abe e6a8 f13e df90 99be 3f34 8e3e
00000330: 7600 b6be 2686 ae3c 646e b53d 1e3e 403e
00000340: 3cbe 843d 15e5 dfbd b8c6 d73e dc1e a63e
00000350: b84d a9be b671 9a3e 45d5 823e 75fd e3be
00000360: 62ac 5ebe 7abc b33e 140b dabe 35d9 8f3e
00000370: d72e 983e 71bb 703c a444 603e 76e7 a4be
00000380: a9eb 30be 6457 93be f148 9cbe ccbc 84bd
00000390: 13fe 9cbd f81d c4be 88b7 a0be f4f6 4cbd
000003a0: a774 06be 66b0 0fbe 7bfa 133d 3128 cd3d
000003b0: 446e 4d3e 47ed 133c 9c1c fbbc 2ea0 b53e
000003c0: df03 ca3d 7cd4 973b ebe8 423e b895 273e
000003d0: d106 913e e8d2 963e c6a7 ab3e 0454 c03e
000003e0: 0951 1a3d 5737 d33d b185 89be 1b45 f5be
000003f0: 7bb1 363e a029 db3e 1a32 b33e cf50 1bbd
0.048224013 -0.2994272 -0.28306544 -0.24264224 -0.31744328 0.12876262 -0.30515176 0.17853917
-0.37230298 0.37224364 0.31841797 0.090561084 -0.20261735 -0.22384658 -0.2778981 0.2361347
0.39491647 0.041165162 0.26722273 0.020832047 -0.11561246 0.060314335 -0.29734108 -0.39757073
-0.042244054 -0.06446324 -0.17257726 0.04154832 -0.12046923 0.1393236 0.27803785 -0.3826593
-0.02104019 -0.17812409 -0.44515058 -0.19971612 -0.43260628 -0.26429653 0.3825682 0.43627435
-0.2412171 0.2134031 -0.000351077 -0.28854215 -0.1335065 -0.105955735 -0.089524336 -0.3281413
0.4048875 -0.23897621 -0.31721622 0.41980314 -0.28305024 0.10954278 0.31082505 0.15287158
-0.023508865 0.30549973 -0.36145422 0.21426333 0.059671547 -0.16171502 0.18855838 0.1812459
-0.36769983 -0.10842486 0.47461897 -0.3972082 -0.0528178 -0.15009409 0.059708063 -0.31419832
-0.078769624 0.1724277 -0.34303728 0.07601515 0.22395529 -0.2027363 -0.040736187 -0.2524332
0.1543634 0.21432164 0.046816964 0.07847517 0.3692335 0.16426092 0.3868436 0.029074907
0.18186139 -0.42573658 0.1416756 -0.2103181 0.015242411 -0.3604717 0.4450468 -0.10310279
-0.15316533 -0.31988 0.18976353 -0.29229605 -0.42095408 -0.17715892 0.04788614 0.14551044
0.48737577 -0.007985647 -0.07859099 0.31621245 0.32157448 -0.14869677 0.27832735 -0.04287735
-0.24387023 0.16487448 -0.25226897 -0.07910277 -0.4017483 -0.0868734 -0.07796317 -0.4348363
-0.032743607 0.14421129 0.29870856 -0.085708864 0.26197457 0.27361122 0.31960455 -0.048069894
-0.23859592 0.0046296422 -0.37358642 -0.43751922 0.2370019 0.22755556 0.26456788 -0.15179293
-0.19298354 -0.37150356 0.06428401 0.040559866 0.38051477 -0.102177605 -0.39653528 0.03706621
-0.32394242 0.1360442 -0.25592858 -0.42305514 0.37687027 0.40653467 0.16651061 0.18307528
-0.22062865 0.23816733 0.2639281 -0.1690865 0.07491788 -0.058691867 0.16683757 0.36729276
-0.13189764 0.35770538 0.0030645886 0.28125605 0.2623841 -0.02404578 -0.25265995 0.3432627
-0.25066873 -0.1747493 0.3660293 0.21851407 -0.27583176 -0.3036926 0.047951918 -0.01839168
0.0015749248 0.13556314 -0.3427376 -0.35706306 0.3645089 -0.10132659 0.378854 -0.3152767
0.054216333 -0.23588522 0.41606528 0.25636053 -0.3746369 0.37781873 0.105124466 0.06970771
0.33847493 -0.37559378 0.36485186 0.11955063 0.4716805 -0.15722208 -0.27059168 -0.48163804
-0.182597 0.47199172 -0.2999334 0.27774236 -0.35547227 0.021304201 0.08858946 0.18773696
0.06481597 -0.10932366 0.42143798 0.3244542 -0.33067107 0.3016488 0.25553337 -0.4452931
-0.21745446 0.35104734 -0.42586577 0.28095403 0.29723236 0.014693127 0.21901184 -0.3220784
-0.17277397 -0.2877761 -0.305244 -0.06481323 -0.07665648 -0.38304114 -0.31390023 -0.0500402
-0.13130437 -0.14032134 0.03612755 0.100174315 0.20061594 0.009028739 -0.03065329 0.3547377
0.098640196 0.0046334844 0.19034164 0.16365707 0.28325513 0.29457784 0.33526438 0.375641
0.037674937 0.103132896 -0.2685981 -0.47904286 0.17841141 0.42805195 0.34999162 -0.037918862

encoder.blocks.1.attn.proj.bias f4 [16]
00000000: 71d4 fd3c f877 0dbc 3938 0cbd fd0e ac3c
00000010: 8f13 a3bd 48c2 cb3c f070 1abd 157f 73bc
00000020: 5b01 743d 64e0 273d 66f2 6bbd 16c7 7e3c
00000030: 520f 573d 7882 493d 5412 e93b c9dd 3fbd
0.030985089 -0.00863456 -0.034233306 0.02100324 -0.07962715 0.024872914 -0.03770536 -0.014861842
0.059571605 0.04098548 -0.057604216 0.0155503955 0.052504845 0.04919669 0.0071127806 -0.04684237

encoder.blocks.1.norm2.weight f4 [16]
00000000: ec8a 7f3f feab 693f bea6 793f d15f 793f
00000010: 5a9a 713f e822 7a3f ca70 773f 33c2 793f
00000020: 9021 793f 1352 713f e904 8d3f aa22 773f
00000030: 6bfc 763f 1ccd 7f3f efc5 6a3f c904 6e3f
0.9982135 0.91278064 0.97520053 0.9741183 0.94376147 0.9770951 0.9665648 0.9756195
0.9731684 0.9426586 1.1017123 0.9653727 0.9647891 0.9992235 0.9170827 0.9297605

encoder.blocks.1.norm2.bias f4 [16]
00000000: dda3 d33c 81b2 1b3d 1930 f93b 9f6e 31bc
00000010: 8c81 4939 6284 fb3c 8ffb e1bc b2cd e4bc
00000020: 1937 783c 0dc9 243c df9b 133b adf6 abbc
00000030: a05b c03c e2eb 7d3c d8e3 483d 6060 01bd
0.025834972 0.03801203 0.0076046106 -0.010829597 0.00019217114 0.030702773 -0.027585773 -0.027930114
0.015149855 0.0100577 0.0022523326 -0.020991648 0.02348119 0.015498133 0.049045414 -0.03158605
