Checkpoint/dict_8.pth (torch, 108719 bytes, 64 tensors)

encoder.cls_token f4 [1, 1, 16]
00000000: 72df 4cbf d180 293f 22f2 e83e 023d 843d
00000010: e87f 633d 8e52 14bf df01 21bf b6db 273f
00000020: 8bed 8b3e 9ab2 d4be d45e 2440 54a6 ec3e
00000030: a155 143b 0e0a 8b3e 7e43 4bbf dd45 76bf
-0.8002845 0.66212183 0.45497233 0.06456949 0.055541903 -0.5793847 -0.6289348 0.6556963
0.27329668 -0.41542512 2.5682878 0.46220648 0.0022634047 0.2715611 -0.7939986 -0.9620035

encoder.patch_embed.weight f4 [16, 5]
00000000: abf5 6cbe c4a9 28be bf30 a0be a449 dc3e
00000010: 3882 9e3e f4c4 9b3a ca8a 893d bed9 01bf
00000020: 0ffa cabd 8b17 b7bd 7e4d 573e 2f03 fabe
00000030: 5fd4 953d bc99 b5be 1203 363e cfc7 453e
00000040: 4759 f7be 3155 b23e 4201 6dbe d4a1 cebd
00000050: 0ec7 01bf dcd0 e6bd 491d e93e 877f f93b
00000060: 28f7 d8be 2529 423e bc1f cf3e f1a7 da3d
00000070: 4354 b83e cc59 413e aad7 183e 666e c5bd
00000080: fe51 8b3e 7849 cabb 08fb ebbe 2040 b13e
00000090: 775d f63e d9a6 343d d385 013f ef20 c0bd
000000a0: 7020 b6be f275 9cbe 9a25 fabe 00d5 0d3e
000000b0: 9516 6c3e 3e8b ab3e 653e d0be 6201 a1be
000000c0: f777 013f 72ce aebe 7c6d fabd c827 0e3e
000000d0: f868 f2be 13f0 49be fe15 27bc e0d4 763c
000000e0: a962 e93e f60c 9dbe 668c a5be 909b 8cbd
000000f0: eba6 f13e 2762 e6be 88bc a13e d2b9 08bf
00000100: b332 b43e 10c1 5a3e a541 cdbe d954 a1bd
00000110: 530f bcbe 3aff a23e 9fe2 95be d651 ffbe
00000120: 0499 bdbe 5199 c13e 2df0 bebe 1b29 09bf
00000130: 38e9 af3e 4786 5ebe 0a93 fabe 8a66 a23d
-0.2314059 -0.1647101 -0.3128719 0.43024933 0.30958724 0.0011884258 0.06715925 -0.50722873
-0.09910976 -0.08940037 0.21025655 -0.48830554 0.07315897 -0.35468853 0.17774609 0.19314502
-0.483103 0.3483062 -0.23145011 -0.1008946 -0.5069436 -0.112703055 0.45530155 0.0076140794
-0.42376065 0.18961008 0.404539 0.106765635 0.36001787 0.18881911 0.1492602 -0.096401975
0.27210993 -0.006173309 -0.4608996 0.34619236 0.48118183 0.04410443 0.50594825 -0.093812816
-0.35571623 -0.30558735 -0.48856813 0.13850784 0.2305549 0.3350467 -0.40672603 -0.31446368
0.50573677 -0.3414188 -0.12227914 0.13882363 -0.4734571 -0.19720487 -0.010198114 0.015065402
0.45583084 -0.3067395 -0.32333678 -0.06865609 0.4719766 -0.4499676 0.3158915 -0.5340854
0.3519493 0.2136271 -0.40089145 -0.078775115 -0.3673044 0.31835347 -0.2927446 -0.49867123
-0.37030804 0.37812284 -0.37292615 -0.53578347 0.3435762 -0.2173091 -0.48940307 0.07929714

encoder.patch_embed.bias f4 [16]
00000000: a230 d93c 7581 a23c cff8 93bc b79f c43b
00000010: 9e4c ad3b 25d4 373c ac54 643c 61d6 31bd
00000020: 1c68 df3c cbf9 ee3d 6c74 2bbc b6b0 1fbc
00000030: 2ca1 a2bb 744f cabb 2bbe 48bc d170 8cbd
0.026512448 0.01983712 -0.018062977 0.006000485 0.0052886745 0.011220013 0.013936203 -0.04341734
0.027271323 0.11668738 -0.010464769 -0.009746721 -0.004963061 -0.0061740223 -0.012252371 -0.068574555

encoder.blocks.0.norm1.weight f4 [16]
00000000: 70e3 733f 5152 883f 88d8 8a3f cc38 823f
00000010: ceed 7b3f 9dec 823f e278 7f3f 99e5 803f
00000020: 03a3 873f 44ab 7b3f 2010 833f 1fcd 803f
00000030: 072e 863f 0a69 813f 6b65 863f 73e9 753f
0.9526892 1.0650121 1.084733 1.0173583 0.98409736 1.0228459 0.9979383 1.0070068
1.0596622 0.98308206 1.0239296 1.0062598 1.0482796 1.011018 1.04997 0.9605934

encoder.blocks.0.norm1.bias f4 [16]
00000000: d92f 833c f7d0 44bc ab06 b3bb dd74 993c
00000010: 7eb8 a73b e2f3 ef3c 0eaa 7dba fd46 1fbd
00000020: 4039 7f3c 4436 883c 4a92 57bc 0a11 803c
00000030: ba05 7ebc 530a a53b 3610 aebc f609 f4bc
0.016014026 -0.012012712 -0.0054634414 0.018732483 0.0051184287 0.029291097 -0.0009676524 -0.03888606
0.015577614 0.016627438 -0.013157437 0.015633125 -0.015504295 0.005036631 -0.021247964 -0.029789906

encoder.blocks.0.attn.qkv.weight f4 [48, 16]
00000000: 8f7f 9cbe 7cbe 2cbd 34e4 773e 2509 44be
00000010: 7ee1 e23c 540c 8d3d be38 93be 5302 6f3e
00000020: 7f8e 1ebe c9ef 72bd 644c 713e 6e3e 8ebe
00000030: 8eea 81be 6e21 f2bd 86d2 5d3e 9f22 893e
00000040: ed85 893d 42e8 333e 003f 713e b7bd 4abd
00000050: bfec 4cbe 4da7 17be f8ef bf3d e6b5 4dbe
00000060: bb5e 8dbe 5417 91be a401 893d 5f15 203e
00000070: da54 a3bd 99e3 acbc 5edb a3be a51c eb3d
00000080: 81ff 86be da73 453c cceb 1a3e 88fa 373c
00000090: 5573 663e e2f1 80bd 2e9c 453e b0e3 733e
000000a0: 5ddf c63b c20c 3ebd d2b0 4e3e 5771 e0bd
000000b0: 1b95 1ebe 8136 7f3e 76a8 133e 1563 9bbd
000000c0: 6976 91be 6428 77be 622c 213e ce05 de3d
000000d0: 7291 4e3e 2dc1 8abd fc23 a53d 0e76 f13d
000000e0: 0fbf 593e 7ee0 33be c491 31be df03 a63e
000000f0: 5cb1 203e ca59 8f3e 2371 a9be 7e96 c0bd
00000100: 5776 11be 0d31 943c d6f8 44be c3ef 893e
00000110: c0bc 65be fb5a db3e 0d62 f43d 58b8 7d3e
00000120: 0ebb ccbc 6725 61be 42cd 323e 6e56 d73e
00000130: 6850 41bc 2159 26be 0352 37be 4caf bbbd
00000140: 2cab 8d3e 634a 763e 67ab 4c3e 8713 cabd
00000150: e869 b83d 77f0 e1bd 4bdf 8dbd a9e6 563e
00000160: 0963 1d3e d53c 9cbe 5cb1 6abe 506d 9b3c
00000170: eb06 60be 0b69 853e 597e 9fbe ba80 4a3e
00000180: 43d0 143e 7e57 663e f1b8 73be d344 82bd
00000190: 6338 1ebe 703f 40be fcb4 2fbe fd41 09be
000001a0: f164 8cbe 58fa 38bd 4aa4 ca3e 6b81 77be
000001b0: e7bd 163c 3057 b0be 7276 943e 1029 5f3c
000001c0: dc8b 513c 6aaf 43be 1a35 71be 44de bbbd
000001d0: 0762 463e 5227 6d3e a275 18be 683a 44be
000001e0: 921c 89be d169 173e b48a 9bbe 1004 043e
000001f0: b51c b13e e316 8bbd 94e7 3ebe 1d31 853d
00000200: 44eb 17be d794 653d dbcd c9bd 3000 443e
00000210: ab92 6dbe 7516 8abe ed6a 7abe 1a5e 73be
00000220: 8db7 033e c8b6 d53d 6c35 debd e20d c5bd
00000230: fe5e 37be 074f 15bd 4561 853e 3dea 9abe
00000240: db52 2a3e ba8b 0b3d 417d 3fbe f9bc e33b
00000250: e258 893e 76b4 10be 94f6 093d 732b 68be
00000260: d31a 7fbe a0f9 ca3d a73d 8f3d cb82 263c
00000270: 9a10 533e 1716 173e e5c5 a6be f58f 0fbd
00000280: 6dd3 3ebe 1bd2 f5bd d281 833e fc98 253e
00000290: d546 7b3e 27fb 853e de23 78be b658 7e3a
000002a0: 33ed 41be 6b60 66bd c796 60be 8669 babd
000002b0: bc7b 213e b30d bb3d d660 063e a92d 89bc
000002c0: e7da 1e3e 1ff4 503e 1d0b 62be 2854 4c3e
000002d0: b65c 7fbe 844e 24be ca9a ef3d e3ed 503c
000002e0: b370 dbbd a9df 7d3e 0154 373e d664 553e
000002f0: 6f01 f4bd 4fb1 193e 7a88 90be 1ce1 b2bd
00000300: 3ca0 43be cdf5 82be 15fa 533e 1098 c73d
00000310: 7527 813e eb2a 9dbd b776 803c 2c82 663e
00000320: 6b9d 0a3e d26a 0c3e 0641 02bd 9ae4 703e
00000330: 8525 a33d 847f 5e3d 858b 643e bbc8 d8bd
00000340: 8abc e03d 472d 3dbd 529b fbbd 62af 043e
00000350: e611 6a3e 62c0 82be 3466 59be 1136 26be
00000360: cb23 933e 7d0b c0bd 18c8 7fbe c035 61be
00000370: f56c 893e e600 a8bd 1b6e 22be 8a90 cf3c
00000380: b508 0e3e 2541 853b 7f67 933e 593f a73e
00000390: 76c8 9fbe 9ae2 633e 5768 02be 0032 7cbe
000003a0: 0b17 b83d 0327 9abc 041f 8a3e 5fb1 113e
000003b0: 26a8 fdbd f735 973e 5ee9 7a3d 6d83 693e
000003c0: 51f8 513e 6044 63be 5be4 4bbe d216 3b3e
000003d0: ff5d 20be 3aa3 b03d b163 e23c f50e 9f3e
000003e0: 048b 7cbe cc7b 193e f727 dc3d e168 0c3d
000003f0: 04dd 5a3e d27a 81be a01b 8abe b141 b33d
-0.3056607 -0.042173848 0.24208146 -0.19144113 0.027695414 0.06887117 -0.28754228 0.2334073
-0.15484045 -0.05931071 0.23564297 -0.27782005 -0.25374264 -0.118227825 0.2166234 0.26784226
0.067149974 0.17569068 0.23559189 -0.049497332 -0.20012186 -0.14809914 0.09371942 -0.2008892
-0.27611336 -0.2833811 0.06689766 0.15633152 -0.079751685 -0.02110462 -0.320033 0.11480073
-0.2636681 0.012051547 0.15129012 0.011229165 0.22504933 -0.062961355 0.19297859 0.23817325
0.0060691074 -0.046398886 0.20184639 -0.10959118 -0.15486567 0.24923135 0.14419731 -0.07587258
-0.28410652 -0.24136502 0.15739587 0.10840951 0.2017267 -0.067751266 0.08063504 0.11790095
0.2126429 -0.17566106 -0.17340761 0.32424828 0.15692657 0.2799819 -0.3309413 -0.09403704
-0.142053 0.018089795 -0.19235548 0.26940736 -0.22435284 0.4284285 0.11932764 0.24777353
-0.024991538 -0.21986924 0.17461112 0.42058128 -0.0117989555 -0.16244937 -0.17902379 -0.091642946
0.27669656 0.24051814 0.1998726 -0.09867006 0.09004575 -0.11032193 -0.069273554 0.20986427
0.1536981 -0.3051516 -0.2291922 0.018973023 -0.21877639 0.26056704 -0.31151083 0.19775668
0.1453257 0.22494313 -0.23801018 -0.063607834 -0.15451197 -0.187742 -0.17158884 -0.13404079
-0.27420762 -0.04516062 0.39578468 -0.24170463 0.00920055 -0.3444152 0.28996617 0.01362063
0.012789693 -0.19109884 -0.23555413 -0.09173253 0.19373332 0.23159531 -0.14888623 -0.19162905
-0.2677961 0.1478646 -0.3037926 0.12892175 0.34592214 -0.06791475 -0.18643028 0.06503508
-0.1483584 0.056050148 -0.09853717 0.19140697 -0.2320048 -0.26970258 -0.24454851 -0.23766366
0.12862988 0.104352534 -0.10850033 -0.096217886 -0.1790733 -0.03645232 0.26050773 -0.30256835
0.1663317 0.0340688 -0.18700124 0.0069500175 0.26825625 -0.1413134 0.03368242 -0.22672825
-0.24912576 0.099108934 0.06994181 0.010163019 0.20611802 0.1475452 -0.32572857 -0.035049397
-0.1863534 -0.12002965 0.25684983 0.1617164 0.24538739 0.26168177 -0.24232432 0.000970255
-0.1893814 -0.056244295 -0.21932517 -0.09102158 0.15769857 0.09133472 0.13122877 -0.016745405
0.15513192 0.20405625 -0.22074552 0.19953978 -0.2493771 -0.16045576 0.116994455 0.012752029
-0.10714855 0.24792351 0.17903139 0.20839247 -0.11914336 0.15009044 -0.28229123 -0.087343425
-0.19104093 -0.25578156 0.20700867 0.097458005 0.25225416 -0.076742016 0.015681608 0.22510594
0.13536613 0.13712624 -0.031800292 0.23524705 0.07966141 0.054320827 0.22318847 -0.10585161
0.10973461 -0.046185758 -0.122854844 0.12957528 0.2285839 -0.255374 -0.21230394 -0.16231562
0.28738245 -0.09377191 -0.24978673 -0.2199316 0.2684094 -0.08203296 -0.15862314 0.025337476
0.13870509 0.0040666037 0.287899 0.32665518 -0.31207627 0.2225441 -0.12735115 -0.24628448
0.0898877 -0.01881743 0.26976788 0.14227818 -0.123855874 0.2953336 0.061257713 0.22804041
0.20504881 -0.22194052 -0.1991133 0.18270424 -0.15660857 0.08624883 0.027635427 0.310661
-0.24662405 0.14988631 0.1074981 0.034279708 0.21373373 -0.25289017 -0.269742 0.08752764

encoder.blocks.0.attn.proj.weight f4 [16, 16]
00000000: 1fa0 26be bb2b e43e 62ae a0be 1fdc 91be
00000010: fb71 6f3e 8c66 da3e 2b8d cc3e 4e33 aabe
00000020: 3a55 1ebe 132d bf3d e35c cabe f5a0 9a3e
00000030: 04d9 bb3e f7cc d3be 249e a4be db10 ac3e
00000040: 1cce bbbd afda 1ebe 7b41 013e 7063 dabe
00000050: 5083 c7bc d9a3 03be 3e57 733e 4a97 86be
00000060: 1a08 c5be 1e3b 66be 6d49 0a3c 0aaf a63d
00000070: d2c4 a8bd 5a4f 9a3e 2bef 353e 7c29 bbbe
00000080: 34b4 11bd 161c 663e 6da5 42be 1711 acbe
00000090: 9af6 6cbe c027 a1be 8a8f f83c a14c 89be
000000a0: 534d 11bd bd4f dc3e a00a d03e 0c34 59be
000000b0: c683 cabd 886e 86be 04bc 78bd d555 29be
000000c0: a7ce 503d d9e6 563e 356c a63b dc7b bc3e
000000d0: c975 cc3e ea5a 053d 6e0c 143e 29ed a2bd
000000e0: 9869 a33e 695b bbbc 4315 9e3e 783a 37be
000000f0: b439 b1be c089 d03e 774d 44be e9b9 5ebd
00000100: 9a49 8dbe ba79 983e 65d8 acbe 7546 223d
00000110: c4ce 843e edc3 bf3d 28ea 8bbe 2ca9 153e
00000120: 33c2 40bc 7474 bfbe 2096 14be 4847 c03d
00000130: c87b 4e3c cf4b bd3e 94a0 a5bd d42b 3dbe
00000140: b2f0 633e 2474 863e 19a7 b73e 39cd 05be
00000150: 0e0d d63e 3cd9 43be 4d11 6dbe 81af 763e
00000160: 432a 1a3e 0eb9 9d3e 2268 b0bc 9cc7 713e
00000170: 792a 913e bb41 553e be8a 4abe 3dae c93e
00000180: a817 413e 468a b63e 03d6 8b3e 0c0e ac3e
00000190: a9f6 9e3c 634c 4c3e 90d5 153e dba5 b13e
000001a0: 44fa b7be 0346 b63e 706f 86be 3893 c1be
000001b0: ba60 ac3d 9aed 623d 3498 bd3e c37c 90bd
000001c0: 5eab 813e 71b8 613e 1047 bb3e cd61 97be
000001d0: 05ff 87be e6ff dbbe f474 3bbe 5fd2 843d
000001e0: 98b7 f83e 9ea6 acbc e427 0dbe 318b e8be
000001f0: f9f9 b9be 162b 18be 0b61 dfbe c846 98be
00000200: 9a40 983e 42d2 e1bc 4fbc 73be a872 dbbe
00000210: 5a92 3c3e 752b 98be 9561 793e d8f6 113e
00000220: acbc abbd 72e3 0cbe e952 883e f8d5 91be
00000230: 48ee d23e 118e fbbb 0af0 943c cb00 ed3c
00000240: 949e 4dbe 9214 c1be dc90 bb3e f739 953e
00000250: eb18 00be f035 81be 3307 7ebe e75c 7b3e
00000260: aca9 6abd 2675 9dbd 098e 003d f3b7 c03e
00000270: 7803 0abd 018f 7ebc f9ac 173e a0b9 cc3d
00000280: 9905 8e3e 3c66 8fbe 313e c83e 6415 8bbe
00000290: 52dc cb3e 177e 76be 052b 613e 3b83 61be
000002a0: 84e9 ad3e 9513 89bc e078 983e 1eb2 3dbe
000002b0: eb1c 853e 20e6 97be eb8a 57be d808 3ebe
000002c0: 5341 253e 7fad a63e 798a 8ebe 7fe1 4f3d
000002d0: 2889 993e d1dc 46be ae69 c63e afe2 8b3e
000002e0: 8525 dc3c 3ca4 4f3e be2f f1bc d745 b63c
000002f0: f7cc cfbe dde9 97be 2c31 dfbd 25a2 61be
00000300: 7dcf 433e f84e 94be dbab e6bd b0ac bfbe
00000310: 0879 ab3e 2bf2 9ebe f60d 46bb a957 b73e
00000320: 94cf 2c3e fbad c53e 5c2c 9a3d b2cc 7f3e
00000330: f382 f43d 8aca a6be c77a 5abc 44f1 a3be
00000340: 6a4d 0a3d 2c5a 6ebe 9c8f 86bd 035b b53d
00000350: 17b2 c63e b28c 14bd e962 c93e 513d c73e
00000360: d7c2 1cbb 429e 57be d09c 0a3e fbde afbe
00000370: 8a58 553e 04f3 61ba 9d8c bb3e 1955 16be
00000380: 73bc 023d 6bf7 0d3e 3b64 d0be 79ae 0b3e
00000390: b60d 8fbe 373b b93e e6ab 213e 8ed3 673e
000003a0: 2660 d73d 8066 073e a751 f7bd e1c0 d73e
000003b0: 0901 a5be 40d6 abbd 776b 44be 5e73 bf3d
000003c0: a515 00be a23a 653e d57e bebe 433e 84be
000003d0: c86a e03e bea2 a1bd 6417 343e c8f8 6cbd
000003e0: 9898 0d3e b8c7 4dbe ecfc d8bd 3795 d33e
000003f0: 9723 883e 8016 003e 19fc ba3e 0af6 2c3e
-0.16272019 0.44564614 -0.31383044 -0.28488252 0.23383324 0.42656362 0.39951453 -0.33242267
-0.15462199 0.09334769 -0.39523992 0.30200925 0.36689007 -0.41367313 -0.32151902 0.3360661
-0.091701716 -0.15513109 0.12622635 -0.4265399 -0.024354607 -0.12855472 0.23763749 -0.262873
-0.38482744 -0.22483489 0.008440358 0.08138855 -0.082406655 0.30138665 0.17767017 -0.36555088
-0.035572246 0.22471651 -0.19008417 -0.3360679 -0.23140946 -0.3147564 0.030341882 -0.26816276
-0.035474133 0.43029585 0.40633106 -0.2121126 -0.09888415 -0.26256204 -0.06072618 -0.16536649
0.05097833 0.20986499 0.0050788173 0.36813247 0.39933613 0.032557406 0.14457867 -0.07955391
0.319165 -0.022870736 0.30875596 -0.17893398 -0.34614336 0.40730095 -0.19170175 -0.054376516
-0.27595216 0.2978037 -0.33758846 0.039617974 0.25939 0.09363542 -0.27327085 0.14615315
-0.011765051 -0.37393534 -0.14510393 0.09388596 0.012602754 0.369719 -0.080872685 -0.1847375
0.22259787 0.26260483 0.35869673 -0.13066567 0.41806835 -0.19125837 -0.23151131 0.24090387
0.15055184 0.30805248 -0.02153403 0.23611301 0.28352717 0.20825855 -0.19779488 0.39390746
0.1885668 0.3565237 0.27311715 0.33604467 0.019404726 0.19951014 0.14632249 0.3469685
-0.35933125 0.3560029 -0.26256895 -0.37807631 0.08416887 0.055402376 0.37030184 -0.070550464
0.25326055 0.22043015 0.36577654 -0.29566804 -0.26561752 -0.42968673 -0.18306333 0.064854376
0.4857757 -0.021075543 -0.13784748 -0.45418695 -0.36323527 -0.14860186 -0.43628725 -0.29741502
0.29736787 -0.027566079 -0.23802303 -0.42860913 0.18415204 -0.29720655 0.24353631 0.1425432
-0.08385596 -0.13758639 0.26625755 -0.28483558 0.4119742 -0.0076768477 0.018180866 0.028931042
-0.20080024 -0.37711006 0.36633956 0.29145786 -0.12509505 -0.25236464 -0.24807434 0.24547158
-0.057290718 -0.0768836 0.031385455 0.37640342 -0.033694714 -0.0155370245 0.14812078 0.09996343
0.27738646 -0.28007686 0.39109948 -0.27164757 0.3981653 -0.24071537 0.21989067 -0.22022717
0.3396722 -0.01673297 0.2977972 -0.18524978 0.25998625 -0.2966776 -0.21049087 -0.18558061
0.161382 0.32554242 -0.2784002 0.05075216 0.29987454 -0.19420172 0.38752502 0.27321383
0.02687336 0.20277494 -0.02944171 0.0222501 -0.40586063 -0.2967061 -0.10898051 -0.2203451
0.19122119 -0.28966498 -0.112632476 -0.37436438 0.33490777 -0.31044134 -0.0030220724 0.35809067
0.1687606 0.386093 0.07527992 0.24980429 0.11939039 -0.325764 -0.013334936 -0.3202001
0.033765234 -0.23276585 -0.0657036 0.0885525 0.38807747 -0.03626699 0.39333275 0.38913968
-0.0023919845 -0.21056464 0.13536382 -0.34349808 0.20834556 -0.0008619281 0.36630717 -0.146809
0.031918 0.13863914 -0.4070147 0.13640775 -0.27940148 0.3617799 0.1578823 0.22639295
0.10516386 0.13222694 -0.12076121 0.42139342 -0.32227352 -0.08390474 -0.1918162 0.093481764
-0.12508257 0.22385648 -0.3720614 -0.25828752 0.43831468 -0.07892369 0.17587048 -0.057854444
0.13827741 -0.20095718 -0.10595116 0.4132478 0.26589653 0.12508583 0.3652046 0.16890731

encoder.blocks.0.attn.proj.bias f4 [16]
00000000: 8ced c33c 1d77 e43b fde3 27bd 7561 9b3c
00000010: f5d7 0c3c 3fd2 483d 646d cb3b d5d3 2fbd
00000020: 18e9 b2bc c759 063c df55 92bc 773d 863b
00000030: 8657 50bc c8cc 333c 016f edbc 549d 0a3b
0.023916982 0.006972207 -0.04098891 0.01896737 0.00859641 0.04902863 0.0062081087 -0.04292663
-0.021839663 0.0082001155 -0.017863212 0.0040966826 -0.01271618 0.010974117 -0.028983595 0.0021150904

encoder.blocks.0.norm2.weight f4 [16]
00000000: 9ff0 793f dcca 7a3f a9b8 7a3f d25d 6f3f
00000010: 353d 733f 22ea 613f a479 743f 76dd 7f3f
00000020: 2a36 7d3f 28ca 783f 16f6 683f 9e4f 803f
00000030: 74e4 7c3f 03ae 703f f32b 823f f93b 753f
0.97632784 0.9796579 0.9793802 0.93502533 0.9501527 0.88247883 0.9549811 0.999473
0.9891077 0.97183466 0.910005 1.0024297 0.9878609 0.9401552 1.0169662 0.95794636

encoder.blocks.0.norm2.bias f4 [16]
00000000: 6c35 6abb c4c2 d93c 5767 abbc 29d4 adbb
00000010: 6248 b03c bb82 90bd 42ea ee3c 6279 cabc
00000020: c1e5 7b3d bb22 213d 385d f13b 7015 b83a
00000030: d08e 573d 4fb4 38bd 1c9e 9ebb 8944 ddbc
-0.0035737408 0.02658213 -0.0209233 -0.0053048325 0.02151889 -0.07056185 0.029164437 -0.024716083
0.061498407 0.039339762 0.007365849 0.0014044475 0.05262643 -0.04509383 -0.0048406255 -0.02701022

encoder.blocks.0.mlp.fc1.weight f4 [64, 16]
00000000: 0ceb 99bd 2da0 0c3d d6dd d1bd b0d3 c9bd
00000010: d199 743e 3aeb 993c c442 11be b1cc 4f3e
00000020: 83f5 503e e74f 46be 4657 5cbd 51fd 143d
00000030: d0d7 a1be 1209 813e 1eed 5cbe 6630 9c3d
00000040: d473 fbbd 5875 ed3d c8fa 74be b707 313e
00000050: fc94 953d 2244 cb3d d972 dd3d ce0c 4c3e
00000060: 2a10 2abe b7e4 3e3e dcc3 2a3e 5579 acbd
00000070: 233b 33bd 6a86 713e b592 5bbe 1431 1f3d
00000080: d1e4 813e ab09 273e cf20 5cbe 91b8 69bd
00000090: 6d21 a1bc a874 fcbd c77d ecbd 97ea cfbd
000000a0: 3f7e 85be d399 383d 1ce1 dd3c b718 27be
000000b0: ae70 423b cae4 2abe a558 1d3e 969d 0fbe
000000c0: 6ca0 bbbc 1bc8 fabd 2c84 4d3e 0503 403e
000000d0: fbb3 24be b933 e5bd 2116 93bd 903b 853e
000000e0: d4a9 403e db67 793d 3aa5 1cbe d6fc 7cbe
000000f0: a83c 79bd f962 a73d 8a17 fdbd ed77 3a3e
00000100: 35fd 523e bae4 d1bd ee40 6a3e 4965 6ebe
00000110: 15bf 29be 2d7b 2d3e bfe3 2d3e 7200 563e
00000120: dd40 103e 3bbb 84be b2a6 21be 8014 2d3e
00000130: 8efa 8dbd b3d0 9e3d b1dc 4e3e 2960 09be
00000140: 9d08 fc3c d2d4 0e3e c993 79bd fb2e 97be
00000150: bc52 853e f584 28be 7ff3 42be 89fa 513d
00000160: 52cf a13e 54bd 583e 3b8e 813e 1638 52be
00000170: 37f6 69be c665 0e3d b4eb 82bd 7e82 063e
00000180: e9d3 9cbc d7c0 1ebe dce8 c13e 689a fdbc
00000190: 16cf 89bd 2650 293e 96ec ae3e 2220 5a3e
000001a0: b45b 173c 49c7 78bd 7b22 0dbe 9004 443e
000001b0: da62 89be b9fa 7e3e 25d1 273d a268 863c
000001c0: 3960 ec3d 9e52 463e edd4 703d fa37 133e
000001d0: 7be5 aa3d ad55 9cbc e59e 6cbe 7da0 5bbe
000001e0: f683 05be 7a8c a83d 4867 2e3d 4552 0e3e
000001f0: 48a1 103e 1a3c 0e3e 6101 21be 1647 ab3c
00000200: d00c 60be 4630 283d 90e5 81bb dec3 64bd
00000210: 7288 843e d2f1 d2bd f58e 5bbd 8863 fb3d
00000220: 78f4 643e 787d 7c3c 01e7 8a3e b4ae 8abe
00000230: 142d 553e 4b52 91bd d45b 55be a7cb 89be
00000240: ce8d 1abe 5225 3f3e c3c0 3cbd 0d27 02bd
00000250: 6152 143e a7f6 07be 834c 213e ea06 7b3e
00000260: 9f87 84be 9388 103e 28b4 73be dc6f f9bd
00000270: 8672 93bd c97d 793e 3d25 67be 0cda bdbd
00000280: 8231 ef3c b9df 9cbd 5c5d 52be 817b d93d
00000290: 17f9 0e3e 7ca5 96be 32cc 1e3e d38d 29be
000002a0: 44d1 3c3e f740 8c3a b55c 02bd 6be3 abbd
000002b0: 4c73 c33d ce4c 88be 47e0 df3d 9d2c 32bd
000002c0: 9835 80be f4dc 563c a970 fe3d 7ee1 42bd
000002d0: c712 453e 3447 1b3e b7a8 75be d435 fbbd
000002e0: b818 7abe 6cb6 253e 68cd 56be 722f d8bd
000002f0: 52de 5abd 76e6 503d c2e8 463e 0b10 f8bd
00000300: 6ee9 853e 1741 c5bc c7aa 123e 0053 39bd
00000310: 89db 563e 95d5 88be 6f76 d83d 6c12 0dbb
00000320: ee88 f13d 765f 5e3e e66a 4f3e a0d5 833d
00000330: 0cbd ec3d cfc9 69be 89a4 303e 44ee 283e
00000340: 8db8 223e edf4 70bd 3abb c7bc 5e70 1dbe
00000350: 023a b93d b09b 123e 8da6 45be 05e5 213d
00000360: d837 863e a1cf c8bc c163 493d 05a5 2f3e
00000370: 90c3 1e3e 584d 33be d1da 48bc 7775 62be
00000380: db59 82be 452e 843e 0251 393e df9e 953d
00000390: b003 3e3d 9fdc 203e e676 a1bc b1ac 773e
000003a0: 9a83 4f3c c3f6 66bd 133d 7b3e 3fa6 abbd
000003b0: 41a2 f73d 382d 7c3e ecfd 9dbc 13da 3c3e
000003c0: 75a2 803d 7780 663e 872e 20bd 8803 0bbe
000003d0: 30f3 503e 3146 ef3d 2566 9cbd ac35 f3bd
000003e0: c7e0 053c 30ae 253e 98bc 443e f65d 0bbe
000003f0: b755 913e cc4f 0a3e e536 783d b944 ba3d
-0.07515535 0.034332443 -0.1024739 -0.09854829 0.23886801 0.018788923 -0.14185625 0.20292927
0.20406155 -0.19366418 -0.053794168 0.036374394 -0.31609964 0.25202233 -0.21574828 0.07626419
-0.12277952 0.11594647 -0.2392379 0.17288099 0.07303807 0.09925105 0.10812921 0.1992676
-0.16607729 0.18641935 0.16676277 -0.0842158 -0.04375757 0.23586431 -0.21442683 0.038865164
0.25369886 0.16312282 -0.2149689 -0.057060782 -0.019669259 -0.12326938 -0.115474276 -0.10152166
-0.2607288 0.045068573 0.02708488 -0.16318022 0.0029669213 -0.16688839 0.15365846 -0.14024958
-0.022903644 -0.12245198 0.20069951 0.18751152 -0.16084282 -0.11191506 -0.07181955 0.26022005
0.18814784 0.06089006 -0.15297404 -0.24705824 -0.060848862 0.081731744 -0.12358005 0.1820981
0.20604403 -0.10248704 0.22876331 -0.23280825 -0.16576798 0.16941519 0.1698141 0.20898607
0.14087243 -0.25924096 -0.15786245 0.16902351 -0.06932555 0.0775465 0.20201375 -0.13415588
0.030765826 0.13948372 -0.060931955 -0.2952803 0.26039684 -0.16456969 -0.19038199 0.05126432
0.31603485 0.21165973 0.25303826 -0.20529208 -0.2284783 0.034765027 -0.06392613 0.13135716
-0.019144015 -0.1550325 0.3787297 -0.030957416 -0.06728952 0.1653448 0.34164876 0.2130132
0.009238172 -0.060736928 -0.13782685 0.19142365 -0.2683323 0.2490033 0.04097094 0.016407315
0.115417905 0.19367453 0.05879681 0.14376822 0.08344551 -0.019083822 -0.23107488 -0.2144794
-0.1303862 0.08229919 0.042578965 0.13898571 0.14124024 0.13890114 -0.15723182 0.02090792
-0.21879888 0.041061662 -0.0039641336 -0.055850856 0.2588535 -0.1030003 -0.05360313 0.122748435
0.22358882 0.015410773 0.27129367 -0.27086413 0.20817977 -0.07095774 -0.20835811 -0.26913187
-0.15093157 0.1866658 -0.04608227 -0.031775523 0.1448455 -0.13277684 0.15751843 0.24514356
-0.2588472 0.14114599 -0.23799193 -0.121795386 -0.07199578 0.2436439 -0.22572799 -0.09270105
0.029198412 -0.07659859 -0.20543426 0.106192596 0.13962208 -0.2942313 0.15507582 -0.16558008
0.18439204 0.0010700513 -0.031826694 -0.08392986 0.095434755 -0.26621097 0.109314494 -0.043499578
-0.2504089 0.013114203 0.12423832 -0.047578327 0.19245444 0.1516388 -0.23990141 -0.12266126
-0.24423492 0.1618287 -0.20976794 -0.105559245 -0.053434677 0.051001035 0.19424728 -0.12112435
0.26154655 -0.024078889 0.14322959 -0.04524517 0.20982184 -0.2672545 0.105694644 -0.0021525873
0.117936954 0.21716103 0.20255622 0.0643723 0.11559495 -0.2283089 0.17250265 0.16497141
0.15890713 -0.05882733 -0.024381269 -0.15374896 0.09044267 0.14317203 -0.19301815 0.03952505
0.2621448 -0.024513068 0.0491674 0.17152794 0.15504289 -0.17509973 -0.012259201 -0.22115122
-0.2545918 0.2581655 0.18097308 0.07305693 0.046390235 0.1570916 -0.019710016 0.2418697
0.012665654 -0.056387674 0.24535017 -0.08381318 0.12091494 0.24626625 -0.019286118 0.18442564
0.06280986 0.22509943 -0.039106872 -0.13575566 0.20405269 0.1168331 -0.0763667 -0.118754715
0.008171267 0.16179729 0.19212568 -0.13610062 0.28385708 0.13507003 0.060599227 0.09095139

encoder.blocks.0.mlp.fc1.bias f4 [64]
00000000: 24df af3c 2011 c93c 881d 80bd c85f 1abc
00000010: 5ec2 06bd 36ed acbc 65b5 523c 09e0 983c
00000020: 749e 45bd ae39 423c 1bf8 c2bc 377c b5bc
00000030: 65ff 12bd 6ba3 7ebd 4a7c 1bbc 66a7 afbd
00000040: 720d 063d a9a0 d7ba 75e5 cdbc 3594 e13c
00000050: 1acc 1c3d 60cd 3c3c 56ff 0cbd b066 69bc
00000060: 1fc2 26bc 3047 31bd 458d 9cbd dfcf c8bc
00000070: dc5a efbc b6c6 98bb 05a5 d3bc da30 34bd
00000080: e270 03bd 486e 1cbd e994 b3bc aa5a d4bc
00000090: 5c41 a93c 1e31 8bbb c3db 3d3b aef8 8b3d
000000a0: 1b2e e43c 1f41 6bbc a9b4 7f3c b64e 7a3c
000000b0: 5b12 72bc 7265 fabc e31f adbb b75d ae3b
000000c0: 7c51 87bc 673e 7b3d dc23 09bd e95a 2bbd
000000d0: 4adf 803c 495c 0ebd 31b9 d43b a270 b4bc
000000e0: 3a7f da3c ff22 963c 22be 4abc b965 043d
000000f0: 84e2 2fba ce82 11bd bddb fc3a 0b44 363b
0.021468706 0.024544299 -0.06255633 -0.00942225 -0.032900207 -0.021109205 0.012860631 0.018661516
-0.048246816 0.011854572 -0.023799947 -0.022153957 -0.035888094 -0.062167566 -0.009490082 -0.085768506
0.032727666 -0.0016451079 -0.025133828 0.027536491 0.038280584 0.011523575 -0.034423195 -0.014245674
-0.010178118 -0.04328078 -0.076441325 -0.024513183 -0.02921813 -0.00466236 -0.025835523 -0.0439919
-0.032090075 -0.03819111 -0.021921592 -0.025922138 0.020661049 -0.0042477986 0.00289701 0.06834541
0.027854016 -0.014358788 0.015607038 0.015277555 -0.014774884 -0.030565951 -0.005283342 0.0053212303
-0.016518347 0.06133881 -0.033481464 -0.041834746 0.015731473 -0.03475598 0.006491803 -0.022026364
0.026671994 0.018327234 -0.012374433 0.032323573 -0.00067094737 -0.035525136 0.0019291561 0.0027811553

encoder.blocks.0.mlp.fc2.weight f4 [16, 64]
00000000: cb79 9c3e ad8f bfbd 6353 53be 92c9 b6bd
00000010: 54b0 683d c479 6fbe 302a b73c f36a 013c
00000020: 1b18 c2bb 6be1 9a3e 9801 5ebd 98ce 73be
00000030: ce29 cabc d967 3abe 83cc 25be d087 153d
00000040: 0557 80bb c4bf 4f3e 41b3 3cbe c6b0 cabc
00000050: aab7 8f3d 835d 133e b526 5f3e 5899 87bc
00000060: d92f 0c3e a3f1 3cbe 9e6e 28be c8ea bfbd
00000070: 7b99 c3bd d68b 2ebe 22a5 bf3c 6ad9 51be
00000080: 868a d9bc 1914 01be f0ff 94be f086 c0bd
00000090: dc61 f93d a93b 3cbe 4baf a83d 1823 b7bd
000000a0: 5dc6 003e 4b7c 573e 732f 263d 2d35 cb3d
000000b0: 485a 423e 49a3 383d 052c 7fbd bf88 a1ba
000000c0: d34c 9c3c 80e3 1b3e f99f ea3d abb1 74bd
000000d0: 11f2 e0bd ff14 623e d8a0 843d 29f1 183e
000000e0: de6a 7f3e 1c6b e83d 0937 3c3d 941b 973e
000000f0: c131 c23d 4420 c6bd f7d5 bbbd 35c6 5cbd
00000100: 449f 083e f0e2 2dbe 612a e23d 79e0 4b3b
00000110: af42 613d d969 833d 3eea 81be a79c 9c3e
00000120: 716b 75bc b2e1 30be 5628 d73d 46e1 2f3e
00000130: a666 823c 4c07 1b3e 559d 4b3e df89 543d
00000140: b24b 5dba 8484 3dbe b0d9 41be 1d5c 4d3d
00000150: b955 473e 3bb8 6a3e f61a 4f3e 219d 5d3e
00000160: 7472 96be 23e9 3e3e b836 803e b42d 82be
00000170: b727 87be 1280 723e 7f7e 103e a192 29be
00000180: be09 96be b894 503d b9fb bf3d bbba 0a3e
00000190: 4d34 42bd e649 743e 8f8c 133e 6580 54be
000001a0: 86d7 6d3d bf2a 6cbe 5047 3ebe 1f38 84be
000001b0: 9389 94bd a8fb ccbd 59a2 fcbd a8a2 c0bc
000001c0: e0e8 34bd e59b 193e 2352 7ebe 08f3 6d3d
000001d0: 62e9 0f3d e503 de3d f8d6 523e d781 ba3d
000001e0: fd31 c03c 4097 043c 587f 6f3e 7e26 90be
000001f0: 931e b33e 7f75 b3bd 7f13 2e3e 05d2 403e
00000200: 6900 34be fd46 f6bd 8563 72be 77f8 013e
00000210: 8938 ae3d 2a8f 32bd f09c 8ebe 72f9 903e
00000220: 125d 53bd dcac 4a3e 0c7c bdbd 107c 183d
00000230: b9c1 543e 32a7 613e 5659 2f3e 03d2 593e
00000240: e452 033e adeb c7bc ae1d 163e 5fcb 3bbe
00000250: 977e c63c 0325 823e 7a17 493e b981 303e
00000260: fc8b c3bd 4c52 363e 6f16 7ebd 073d 22be
00000270: d89a 473e 1239 c0bd 9bc0 debd 7fdd 15be
00000280: e1ac 92be d190 18be 7ff4 873d 56f7 13be
00000290: 5344 49bc a31d 93be 7bc8 f5bd 12fb eebd
000002a0: 6908 36be e446 92be 028b 593d e7a8 e2bc
000002b0: 7d42 783d e315 933c a1e9 96be 21bf d4bc
000002c0: deac e13c 504d 113e d1a7 063d 26d4 4e3d
000002d0: 7765 52bd 4939 02bd 6d79 683b 71f4 b5bd
000002e0: cf10 403e 748a 9e3c a573 2fbe ba02 9cbd
000002f0: c2ed aabd 9801 c2bd 93e1 e2bd 13a8 f3bd
00000300: 90d5 26be 714b b5bd 7901 90be b77e ecbc
00000310: 4083 203e 0da7 9abe 622c 733e 3fcb afbe
00000320: e10e 45be 6082 983e 36fe 3dbe 0869 033e
00000330: 201c 633e 38c6 043d d5c9 7cbd 2938 bdbd
00000340: 4217 5d3e 8d8c 57be 4a04 a53d 4b29 453c
00000350: 0892 98be 508e 29be 47f4 46be 5891 f23d
00000360: 5174 733d 3e1c 9cbd 3394 2fbe 7dbb 3e3d
00000370: 79e8 a1be 95ba 1fbd f35e 8a3d da5f 66be
00000380: 2562 bc3d 9f93 d53d c9ab 77bc 25d6 2f3b
00000390: 583d 7d3e 8829 68be 60b7 8e3e a12a 0e3e
000003a0: f68e 263e 6f75 9cbc 2c25 b83d b68e 5b3d
000003b0: e793 933d 150b edbb a483 88be c556 6e3e
000003c0: 0c41 a4bd 2cbd 7fbe 4f73 c5bc 4564 28be
000003d0: 2887 873e 8289 75be adcb 933e 21c2 9a3a
000003e0: a343 8d3e aac4 093e 8d51 f0bc 6197 a23c
000003f0: edb1 103e 9516 56be 23f6 6fbe 3eed 8a3e
0.3056167 -0.09353576 -0.20637278 -0.08925165 0.056808785 -0.23386294 0.022358984 0.007899034
-0.0059232838 0.30250105 -0.05420074 -0.23809278 -0.024678137 -0.18203677 -0.16191296 0.036506474
-0.0039166235 0.20287997 -0.18427755 -0.024742495 0.07017453 0.1439114 0.2179211 -0.016552612
0.13690127 -0.18451552 -0.16448447 -0.09370953 -0.095507585 -0.1704553 0.023394171 -0.20493093
-0.026555311 -0.12605323 -0.29101515 -0.09400737 0.12176868 -0.18382134 0.082365595 -0.089422405
0.1257567 0.21043508 0.040572595 0.09922252 0.18979752 0.045077596 -0.06229784 -0.0012324079
0.019079601 0.15223503 0.114562936 -0.05973975 -0.109836705 0.22078322 0.06475991 0.14935745
0.2494311 0.113485545 0.045950923 0.29513228 0.09482146 -0.09674123 -0.0917167 -0.053899962
0.13342005 -0.16981101 0.110432394 0.0031109138 0.054995235 0.06416673 -0.25374025 0.30588266
-0.014979229 -0.17273596 0.1050574 0.17175779 0.015918087 0.15139502 0.19884236 0.051889297
-0.00084417604 -0.18507582 -0.18930697 0.050136674 0.19466294 0.22921841 0.20225129 0.21641971
-0.29384196 0.18643622 0.25041747 -0.25425494 -0.26397488 0.23681667 0.14110754 -0.1655984
-0.29304308 0.05092308 0.09374184 0.13547795 -0.04741316 0.23856315 0.14409088 -0.20752104
0.058066867 -0.23063181 -0.18581891 -0.25824067 -0.07252803 -0.10008937 -0.12335653 -0.02351506
-0.0441674 0.15000875 -0.2483602 0.0580931 0.03513468 0.108405866 0.20589817 0.09106796
0.023461336 0.008092701 0.23388422 -0.28154367 0.34984264 -0.08762645 0.16999625 0.18830116
-0.17578281 -0.12025259 -0.23670776 0.12692438 0.08506877 -0.043593563 -0.2785411 0.28315312
-0.05160243 0.19792503 -0.09252176 0.03722769 0.20777024 0.22036436 0.17123923 0.2127152
0.12824589 -0.024404371 0.1465976 -0.18339299 0.024230285 0.25418863 0.19637862 0.17236985
-0.09548184 0.17804831 -0.062033113 -0.15843593 0.19492662 -0.09385885 -0.1087658 -0.14635275
-0.2864752 -0.14898993 0.06638431 -0.1444982 -0.012284356 -0.2873355 -0.12001129 -0.116689816
-0.17776646 -0.2856971 0.053111084 -0.02766843 0.060610283 0.017954772 -0.2947512 -0.025970044
0.02754825 0.14189649 0.032874886 0.05049529 -0.051366296 -0.031792913 0.0035472766 -0.08884514
0.18756412 0.019353129 -0.17133959 -0.076177076 -0.0834613 -0.0947296 -0.11078181 -0.11897292
-0.16292405 -0.0885228 -0.28126124 -0.028869016 0.15675068 -0.30205575 0.237474 -0.34334752
-0.19243957 0.29786968 -0.18554005 0.12833035 0.22178698 0.0324156 -0.06171592 -0.09239227
0.21590903 -0.2104971 0.08057459 0.012033771 -0.29798913 -0.16558194 -0.19429122 0.11844128
0.0594371 -0.07622574 -0.17146377 0.04656552 -0.31622675 -0.038996298 0.067563914 -0.22497502
0.09198407 0.10428547 -0.01511664 0.002683052 0.24730432 -0.22672093 0.2787428 0.13883449
0.16265473 -0.019098965 0.08991465 0.053602897 0.072059445 -0.007233987 -0.26662934 0.23275287
-0.08020219 -0.24974507 -0.024102835 -0.164445 0.26470304 -0.23978236 0.2886633 0.0011807123
0.27590665 0.13453928 -0.029335761 0.019847574 0.14130373 -0.20907052 -0.23433737 0.27134126

encoder.blocks.0.mlp.fc2.bias f4 [16]
00000000: 4ef9 223d 1afc 31bc d50e 25bd 92b4 123d
00000010: ebb3 813b bfd6 323d 5ff4 c2bb 6ac7 c0bc
00000020: 9341 46bc 3d74 0ebc 561b 92bc 949a 0abc
00000030: 4522 90bc 6218 4a3c d8b7 87bc b506 9f3b
0.039788537 -0.010863328 -0.040297348 0.035816737 0.0039582155 0.04366183 -0.0059495415 -0.023532588
-0.012100595 -0.008694706 -0.0178353 -0.008459706 -0.017594466 0.012334915 -0.016567156 0.0048530945

encoder.blocks.1.norm1.weight f4 [16]
00000000: 4393 753f 066f 893f 437c 743f 3b63 863f
00000010: 9013 763f c62c 863f 3736 763f b3c6 823f
00000020: 0541 833f 6e74 7b3f 343c 863f ab4d 823f
00000030: 813e 803f c420 843f ea21 843f e4a2 843f
0.9592783 1.0737007 0.9550211 1.0499033 0.961236 1.0482414 0.96176475 1.0216888
1.0254217 0.9822453 1.0487123 1.0179952 1.0019075 1.0322499 1.032285 1.036221

encoder.blocks.1.norm1.bias f4 [16]
00000000: 0224 233d 2c26 f1bc 9e69 48bd ecc5 563d
00000010: 7dd3 0d3c cf80 6b3d 694f 253c 2007 99bb
00000020: a1e4 97bc 4507 74bc 235c d2bc 6f8d 853c
00000030: c17b 8abc a7fb 9a3c 6a68 c3bc 0bd3 a43c
0.03982926 -0.029437147 -0.04892885 0.052434847 0.00865638 0.05749589 0.010089734 -0.004670039
-0.018541636 -0.014894311 -0.0256787 0.016302792 -0.016904714 0.018918825 -0.0238535 0.020120164

encoder.blocks.1.attn.qkv.weight f4 [48, 16]
00000000: 001c df3c c919 823c 69ee 143e b4c0 dcbc
00000010: 3bb1 903d 366a d53e 6efd 523e 9957 1dbe
00000020: 05d0 eabd aa3f 883d 920f 29bd 09aa 02bd
00000030: 4957 6dbe af77 be3e a543 bbbd 63f2 e33e
00000040: 8555 13be d2a1 98bd a2fd 943e b649 43bd
00000050: dd0f a4be bab9 7bbe 7575 073e eee0 a43e
00000060: 9f63 c03e a734 c2bb 13c0 3e3d 903b 24be
00000070: c78d 643e 98dd cfbd 78f0 783d d586 8fbe
00000080: a066 9e3e 9dc9 8f3e 9ab2 163e 420d 673e
00000090: 14a2 683e ce40 a8be 1398 13be 30ae e639
000000a0: 7383 bb3b 2c05 f8bd 863c 943e 96a8 acbe
000000b0: 49c3 edbd f40a 75be 8929 703e ebd0 c93d
000000c0: facb 86be 10f9 293c 59a0 b6be b4ff e33d
000000d0: 0c9a 56bd bc26 40be 9550 a43e d956 79be
000000e0: f0ef 7ebe c71d 71be c806 1dbe 019e c3bd
000000f0: 10e4 a8be a901 9d3e ddac 9dbe 34be 7a3e
00000100: d8d3 74be 1b63 acbe 1e08 3c3e 555c 0e3e
00000110: c6b8 8a3e 1e93 053e 6807 b83e 7434 8ebe
00000120: e45b 743e d53b 00be ed05 ccbe 5b78 b83e
00000130: de26 8f3d 60d5 123d 0be9 90be 8749 acbc
00000140: 6e25 483e 53a2 003e 32a9 94bd 4a23 fcbe
00000150: e7d5 cbbe 414b d63d 1fa8 4a3d 8911 c33d
00000160: ab17 b83c 92f5 9abe ff6e cb3e 3c3b f43c
00000170: 0210 063e 0001 54be 6508 7b3d 4c03 a7be
00000180: 71f9 91bd e8b1 f53d f784 fabc 7fe3 96be
00000190: bb27 433e 4ecb 3a3e 9596 1bbe e254 99be
000001a0: 150d 1abd 8599 133e 4113 94be 94e7 83bc
000001b0: af47 80be 81f1 c9bd 9d20 c03c 040c 03bd
000001c0: 056d ba3d 3047 813e ff13 0d3e 881b 0cbe
000001d0: 33d9 533e 896f 843e f031 6dbe 74d3 3ebe
000001e0: e11e 64be f6e9 52bd 4217 bb3c b31d 793e
000001f0: f89b 7f3e 4434 673e 2f62 433e 3b0c 4f3e
00000200: 8412 90ba cd34 063d b4f7 893d 772b 163e
00000210: 8272 22be 8541 a23e 3377 133e a877 c53d
00000220: 409e c0be b093 233e ccb8 85be 7ebc 6e3e
00000230: c113 f0b9 e4d4 3e3e 360f bc3d bb91 9f3c
00000240: a0bb 333d f3ac 78be 61c8 16be d304 e9bb
00000250: cfc0 f63c 9db5 2abd abe6 9d3e e152 8a3d
00000260: 29c3 d0bd da45 0abd 7a1b bf3c e163 dd3d
00000270: fe05 193e 8727 1e3e 4b1b cebc 086b 97be
00000280: 2349 5cbd 8a54 833d 88f3 853d 859d 823c
00000290: 1432 533d b280 f93d d765 4cbe 1110 6ebd
000002a0: b091 8d3e 04a6 66be 5dc8 28be 99b6 a0bd
000002b0: bcb6 24be 3c32 6d3e 63c2 b03d 98fe 453e
000002c0: 06c2 85be f8dc 263c 3ec9 413e aaea 17be
000002d0: 487f 713e 5b99 d43d 48a1 79bd e49e f3bd
000002e0: b17f 273e af1c 973d 0d0d 2f3d add4 2f3e
000002f0: b342 963e d006 833e 7ddd 98be 5bea aa3e
00000300: 5f51 833e 9804 7f3d 7ccc 543e e18f c03c
00000310: 71e2 c53b b237 bfbe 8882 8d3d fe74 26bc
00000320: c2cd 233e a603 063e 65b4 bf3e ebc6 17be
00000330: df25 a03e 7d83 e33d 2efe 0abe db22 86bd
00000340: b33e bbbb da14 793e 8c99 1dbd 8bbf fbbe
00000350: 8544 49be 790c b4be 13cd ce3d afdd 683e
00000360: 4472 c33d 94ed 903d 825f 483e 31b7 1f3e
00000370: 6407 963e 462b 97be 1912 32be 4c9a a7be
00000380: 7b82 883e bfbc f73c 30fc b03e 3413 853d
00000390: c769 28be db5e 36be 45d8 aebd dab6 7d3e
000003a0: 75fc 9ebd 1b5d bb3e 3bcf 833d f815 10be
000003b0: 0df0 23be f286 92be 0520 863e e1ce 42be
000003c0: 6969 853d 0020 c9be 43f8 a33e bf9c 523e
000003d0: 42f4 653d 4a2a 763e 744d 0c3e a91a 623e
000003e0: b016 ad3e 66a7 183e f892 f8bd a522 93be
000003f0: 2a0d 193e 9fe8 91be 4735 93be b2b7 41be
0.027235031 0.015881436 0.14544071 -0.026947357 0.07065054 0.41682595 0.20604488 -0.15365447
-0.11465458 0.06652768 -0.041274615 -0.03190044 -0.23177828 0.37200686 -0.091437615 0.44520864
-0.14388092 -0.0745274 0.29099756 -0.047677718 -0.32043353 -0.24582568 0.132284 0.32202858
0.37576005 -0.005926687 0.046569895 -0.16038346 0.22319709 -0.101496875 0.060776204 -0.28032556
0.30937672 0.28083506 0.14716569 0.22563651 0.22718078 -0.32861942 -0.1441348 0.00043998798
0.005722457 -0.121103615 0.28952426 -0.3372237 -0.11609513 -0.2392996 0.23453344 0.09854301
-0.26327497 0.0103743225 -0.3566921 0.11132756 -0.052393004 -0.18764776 0.3209273 -0.24349536
-0.24896216 -0.23546515 -0.15334618 -0.09551621 -0.32986498 0.3066533 -0.30795947 0.24486619
-0.23908937 -0.3366936 0.18362471 0.1390241 0.27094096 0.13044402 0.3594315 -0.27774394
0.23863178 -0.12522824 -0.3984827 0.36029324 0.06989835 0.03584802 -0.28302798 -0.021031154
0.19545528 0.12561922 -0.07258834 -0.49245673 -0.39811632 0.10463572 0.04947674 0.09524829
0.022472223 -0.3026548 0.3973312 0.029813401 0.13092044 -0.20703506 0.061287303 -0.32619703
-0.07127655 0.119968235 -0.03058098 -0.2947044 0.19058125 0.18241617 -0.15194161 -0.29947573
-0.037610132 0.14414032 -0.2892094 -0.016101636 -0.2505469 -0.09860516 0.023453051 -0.03199388
0.09102825 0.25249624 0.13777159 -0.13682377 0.20688324 0.25866345 -0.23163581 -0.1863535
-0.22277404 -0.051492654 0.022838239 0.24327736 0.24961841 0.22578532 0.19080423 0.2021951
-0.0010991846 0.0327652 0.06736699 0.14665018 -0.15863994 0.31690612 0.1440094 0.09641963
-0.37620735 0.15974307 -0.2611755 0.23314092 -0.00045791085 0.18635899 0.09182589 0.01947867
0.043880105 -0.24284725 -0.14724876 -0.007111171 0.030121235 -0.041677106 0.30840048 0.06754089
-0.10193474 -0.033758022 0.023328532 0.10810066 0.14943692 0.15444766 -0.025159499 -0.29573846
-0.053780686 0.06412609 0.065405905 0.015944252 0.05156143 0.1218275 -0.19960724 -0.05812079
0.27650213 -0.22524267 -0.16482683 -0.07847328 -0.16085333 0.23163694 0.08630826 0.19335401
-0.2612459 0.010184519 0.18924424 -0.14835611 0.2358371 0.10380813 -0.060944825 -0.1189554
0.16357304 0.07378518 0.042737056 0.17170973 0.29347762 0.25591135 -0.29856482 0.33381924
0.2564802 0.06226024 0.2078113 0.023506107 0.006038957 -0.3734718 0.069096625 -0.010159729
0.15996459 0.1308733 0.37442318 -0.14821975 0.31278893 0.11109064 -0.13573524 -0.06549617
-0.0057142614 0.2432436 -0.03847651 -0.49169573 -0.19655044 -0.35165766 0.100977086 0.22740816
0.09543279 0.070765644 0.19567683 0.15597226 0.29302514 -0.29525203 -0.17389716 -0.32734907
0.2666205 0.030241368 0.34567404 0.06497803 -0.16446601 -0.17809622 -0.08537344 0.24776784
-0.07762996 0.3659447 0.064360105 -0.1407088 -0.16009541 -0.2861858 0.26196304 -0.1902423
0.06514246 -0.39282227 0.32025346 0.20567606 0.056141146 0.2403957 0.13701421 0.22080483
0.33806372 0.14907607 -0.12137407 -0.2873737 0.14946428 -0.28497788 -0.28751585 -0.1891773

encoder.blocks.1.attn.proj.weight f4 [16, 16]
00000000: 33f7 ddbe d775 34be 22fd 0abe 2e90 9ebe
00000010: 16e9 ce3c 9d38 ad3e 8766 f0bd 3c19 933b
00000020: 20b5 2ebe 452b edbe acb3 863e 63cd 623e
00000030: 02cc 873e 0a63 babe 1fe8 b4be f209 93be
00000040: aae8 223e e06a 7bbe 266f a83e 167e 653e
00000050: edf2 a83d 9b42 e3bc ef75 80be c26f 823e
00000060: 22dd 4e3e e530 9bbe 0536 d0be 1432 a43e
00000070: fd20 573d bf57 a9bd 73c2 9cbd 6bcc 92bc
00000080: baaa 83be 2a92 113e abdc 8fbe 15d1 8e3e
00000090: 3db8 dcbc 9035 bd3b cdca 0f3e 62b7 1b3c
000000a0: 8929 ca3e 8e8f 98bd e5e0 2f3d 6a92 b63e
000000b0: b00a 45be 237f 8ebe 58c8 31bd 04d8 84be
000000c0: c187 94bc f388 c3be 319b dabe cec6 473e
000000d0: b6a5 273e ae3b aebe 3c34 9fbe 9083 cbbe
000000e0: 313a adbc 4160 b9be e9c5 d63e 6784 a9be
000000f0: a0f4 bc3e 59ed afbe 509a bcbd f866 db3d
00000100: 0ea2 d33c 1532 b4bc 4a5d cf3e 0fc7 3c3e
00000110: 94e7 88be 15ed 31bc 1886 ccbe 657b c53d
00000120: af7a a13d b866 7ebe 27e3 c63e 13c8 7c3e
00000130: 79c0 d0bd 17fa 4f3e bfb4 b73e 8424 7ebe
00000140: c723 e7bd 9dc0 ecbe 8254 a9bd 4a65 d33e
00000150: 833f 1cbe 79c2 233e f208 d43e 7fe0 ad3e
00000160: 3fc1 3e3e b747 58be a234 b1be 9d75 38bd
00000170: c54e 8b3e ecb0 dd3e c37a 2f3e 85c4 c63c
00000180: 4c91 0d3e 6b39 bd3e 4020 d93d f55c a73d
00000190: 8755 89be bb8f ea3d 7ab0 eabd 351a c8bc
000001a0: adf5 943e edcb 3cbd 3812 a3bc f2c8 0e3e
000001b0: eadd dbbe 2c78 adbe c6e5 613d 549d 02be
000001c0: 1844 ddbc c6d0 8cbe c5fc 99be cd7d e3be
000001d0: 6284 47be a1d7 a6be e777 10be 2d8f f9bc
000001e0: e8cf 29be 671a 683d acf9 eebe 654f cbbe
000001f0: f4aa a5bd f3f5 efbe fcbd 67bd 74ca 9b3e
00000200: b592 bc3d 6a7a 92be cb25 f63e b9b4 f3bd
00000210: 6d8f 85be a968 373e 5875 4c3e 38a2 823e
00000220: fc6e ecbd 8c11 20be 3c83 b33e 2c4f c2be
00000230: 9b35 7e3e 433b 333e 9012 d3be abde 5a3e
00000240: eb7e a83e 0e85 c83e 88c7 ed3e e202 1bbe
00000250: edbc af3e f671 92be ae48 523c 1d10 d43e
00000260: cf82 ffbd 48dc dbbc 0d9d 33be 5781 d83e
00000270: b484 d1bd d22b 963d ea49 86be b441 e6be
00000280: a658 82be e965 55be 3991 d33e 125c 603e
00000290: 5c75 d53e 0302 4e3c 5256 ffbd 56f5 c13e
000002a0: 0758 8fbe 9062 153d 1593 603e 40f9 cebe
000002b0: bfa0 b23e 6eeb 523d 4323 3fbe c28b 05bf
000002c0: b53c dabd 8642 2cbd 81e6 c93e 17e3 f9bc
000002d0: aedf bdbe 2c38 64be 995d 13be 88a1 46be
000002e0: b257 10bd 73ad 94be a7f3 bcbe 4160 743e
000002f0: 23b4 8bbd 561f bd3e 6f26 3c3e dafc 7d3d
00000300: 38c0 a33d e9ed 7d3e fcde 77be 28f2 4ebc
00000310: fa68 92be 9544 b6be da23 78be 0dd2 e03d
00000320: 51fb ecbb a881 df3e 4d7e cdbe 17fc b4be
00000330: 68e8 393d af13 cf3e dd7c 64be 611c 8cbd
00000340: d872 c53d a9e8 37be 20bf 04be f71f 933e
00000350: e5d3 543d 21ee f63d 0964 0a3e 237c f03d
00000360: a850 e7be 6c62 5e3e ecee 80be 699d 8d3e
00000370: a71a 94be ca16 973e 0d24 ae3c f899 353d
00000380: eb8d c33d fd04 2fbd ebe6 aabe 9b5c 833e
00000390: 6cde debd ee04 8bbe c0e5 c53d f732 833e
000003a0: d911 8d3e 708e 56be ee10 e13d 162d c73e
000003b0: bd89 e1bd 1198 753e dfbe ddbe 359e a3bd
000003c0: 43d7 953c a14a 9e3e 5493 c03d bd5c 0f3c
000003d0: becb 3bbe b987 603d b223 88be b987 0dbe
000003e0: fc15 35be 301b 59be 22df 62be 01e3 99be
000003f0: 7078 4ebe e3d6 c43e 323c a93d 1129 b3be
-0.4335266 -0.17623077 -0.13573125 -0.30969375 0.025257628 0.33832255 -0.117383055 0.004489092
-0.17061281 -0.46322075 0.26308954 0.22148661 0.26522833 -0.36403686 -0.35333344 -0.28718525
0.15909067 -0.24552488 0.328973 0.22411379 0.082494594 -0.02774172 -0.25089976 0.2547589
0.20201543 -0.3031074 -0.40666214 0.32069457 0.052521694 -0.08268689 -0.07654276 -0.01791974
-0.25716192 0.14215913 -0.28098044 0.27893892 -0.02694332 0.0057742074 0.14042206 0.009504171
0.39484814 -0.07449256 0.042939086 0.3565858 -0.19242358 -0.27831373 -0.043403953 -0.25946057
-0.018131139 -0.3819042 -0.42696527 0.19509432 0.16371807 -0.34029907 -0.3109454 -0.39748812
-0.021145912 -0.36206248 0.41947868 -0.33108827 0.36905384 -0.3436077 -0.0920912 0.10712999
0.02583411 -0.021996537 0.4050086 0.1843531 -0.2673918 -0.010859747 -0.39946055 0.09642676
0.07884728 -0.24843872 0.38845178 0.24685697 -0.10192961 0.20310245 0.35880086 -0.24818617
-0.11286121 -0.46240702 -0.08268072 0.41288215 -0.15258603 0.15992154 0.41413075 0.3396034
0.18628405 -0.21121107 -0.34610468 -0.04503404 0.27208534 0.43299043 0.17136674 0.02426363
0.13824958 0.3695787 0.10601854 0.08172027 -0.26823065 0.11453196 -0.114594415 -0.024426559
0.29093686 -0.046092916 -0.019906148 0.13943842 -0.42942744 -0.33880746 0.05515077 -0.12755328
-0.027010009 -0.27503031 -0.3007566 -0.44431916 -0.19484094 -0.32586387 -0.14108239 -0.03046378
-0.16583216 0.056665804 -0.4667486 -0.3970901 -0.08089247 -0.46867332 -0.056577668 0.30427897
0.0920767 -0.2860902 0.4807571 -0.118997045 -0.26085988 0.17911018 0.19966638 0.25514388
-0.11544606 -0.15631694 0.3506106 -0.37951028 0.24825136 0.17503075 -0.412251 0.21374004
0.3290933 0.39164013 0.46441293 -0.15137818 0.34323826 -0.2860257 0.012834711 0.41418543
-0.12476122 -0.026838437 -0.17540379 0.42286178 -0.10230389 0.07332577 -0.26228267 -0.44972003
-0.25458258 -0.20839657 0.41321734 0.21910122 0.416911 0.012573722 -0.12467636 0.3788249
-0.27996847 0.03647095 0.21931107 -0.40424538 0.34888265 0.051494054 -0.18665795 -0.5216638
-0.1065611 -0.04205563 0.39433673 -0.030503793 -0.37084717 -0.22287053 -0.14391173 -0.19397557
-0.035239883 -0.2903858 -0.36904642 0.23864843 -0.06821468 0.3693797 0.18374036 0.062008716
0.07995647 0.24797787 -0.24206156 -0.012630977 -0.28595716 -0.355992 -0.24232426 0.10977564
-0.0072321077 0.43653607 -0.40135422 -0.3534858 0.045387655 0.40444705 -0.22313257 -0.0684135
0.09641045 -0.17959847 -0.12963533 0.28735325 0.05195989 0.12057138 0.13514723 0.11742427
-0.45178723 0.21717232 -0.25182283 0.27659157 -0.28926584 0.29509574 0.021257425 0.04433629
0.09548553 -0.042729367 -0.333793 0.2565659 -0.10882267 -0.271522 0.09662962 0.2562482
0.2755268 -0.20952773 0.10989557 0.38901585 -0.110125996 0.2398379 -0.43309686 -0.0798916
0.018291121 0.30916312 0.094031006 0.008750138 -0.1833944 0.054816935 -0.26589733 -0.13821305
-0.17684168 -0.21201777 -0.22155431 -0.30056003 -0.20163131 0.38445196 0.082634345 -0.3499227

encoder.blocks.1.attn.proj.bias f4 [16]
00000000: bf45 463d 5fcf a33c b4d0 05bd 6465 333d
00000010: eef6 803c f070 5a3c b215 0439 e3db 8a3c
00000020: 6792 2fbd e446 56bd 4524 99bc 404d 983c
00000030: 620e b2bc a242 bc3c 018b 7cbc 60d2 c03c
0.04840636 0.019996343 -0.032669738 0.043797866 0.015742745 0.01333259 0.00012596583 0.016950553
-0.04286423 -0.0523137 -0.018694052 0.018591523 -0.021735374 0.022980992 -0.0154140005 0.023537815

encoder.blocks.1.norm2.weight f4 [16]
00000000: 57d1 6f3f 0a0b 7d3f 3c51 6d3f 1098 7c3f
00000010: d7d8 823f 1841 7c3f 5f82 763f 478d 783f
00000020: 8575 793f 2f65 843f 9d31 773f e204 803f
00000030: 6da2 6b3f b287 643f 2e09 7c3f beda 6f3f
0.936788 0.9884497 0.9270208 0.9866953 1.0222424 0.98536825 0.9629268 0.9709057
0.97444946 1.0343379 0.9656008 1.000149 0.9204472 0.89269555 0.9845151 0.9369315

encoder.blocks.1.norm2.bias f4 [16]
00000000: 9e43 843c 8ed8 16bb 307c e63c 6b76 aa3b
00000010: 02bf 0b3c db15 c4bb 1d0e a93b 511a a5bc
00000020: 007f 313d 388f 1cbd ad6a c5b8 8d94 c6bb
00000030: db75 163c 9a40 113d be56 bb3b b72c c7b9
0.016145524 -0.002301726 0.02813539 0.005202105 0.0085294265 -0.0059840507 0.005159153 -0.02015415
0.043334007 -0.03822252 -9.413562e-05 -0.006060189 0.009183372 0.035462 0.0057171276 -0.00037989553
