Checkpoint/dict_17.pth (torch, 108787 bytes, 64 tensors)

encoder.cls_token f4 [1, 1, 16]
000000 dd ee 2f bf b4 f5 d4 bf c4 92 a1 be c5 7f 01 3f
       -0.6872385 -1.6637483 -0.31557286 0.50585586
000010 91 b2 77 be 69 65 67 3f 3b b1 97 3f 3d 3c 24 bf
       -0.24189211 0.90389115 1.1850961 -0.64154416
000020 36 87 89 be 43 cc 12 c0 47 90 09 bf e0 13 9f 3e
       -0.2686097 -2.2937171 -0.53735775 0.3106985
000030 36 4e 43 be b8 0d 80 3e 3f 06 d3 bf 65 82 a4 3e
       -0.19072804 0.25010467 -1.6486281 0.32130733

encoder.patch_embed.weight f4 [16, 5]
000000 e6 04 3a bd 40 d1 cb 3e 51 ab 22 3e 2d 12 77 be
       -0.045414828 0.39808083 0.15885665 -0.24128027
000010 4b 2d a5 be 41 47 0d 3f fa 9d c7 3d 9a 6f 10 3f
       -0.32261118 0.5518685 0.097469285 0.5642029
000020 83 0f 70 3d 32 b8 c4 be aa f9 8b 3d 83 39 52 3e
       0.058608543 -0.3842178 0.06834729 0.20529751
000030 94 fc f6 be d0 cf 92 be 40 27 05 3e 83 f8 46 3e
       -0.48239577 -0.28674173 0.13003254 0.19430737
000040 c2 85 80 be de 8e b0 3e 94 68 aa be c9 f4 6b 3e
       -0.2510205 0.34484 -0.33282912 0.23042597
000050 15 8d e8 3c a2 88 5e bd 06 55 f0 3e 14 22 0a bf
       0.028387586 -0.054329522 0.46939868 -0.5395825
000060 38 f6 a4 3e 34 48 ce bd e7 a3 b3 3e 7d ed bc be
       0.322191 -0.100723654 0.35085985 -0.3689994
000070 ee 0e c8 be 9a aa 22 be 50 69 ca 3e 2e 56 6e be
       -0.3907389 -0.15885392 0.39533472 -0.23275062
000080 5a 44 f6 bd b3 27 b2 3e cb 4e 3e be 3c 9c aa be
       -0.12024756 0.34795913 -0.18584745 -0.33322322
000090 1e 9c 72 3e af 68 ee 3e 99 8a 03 be 5f fc 83 3e
       0.23692366 0.46564242 -0.1284584 0.2577848
0000a0 74 49 c8 3e fa 13 5b be 10 90 41 be 4a 9c 80 3d
       0.3911854 -0.21394339 -0.18902612 0.0627981
0000b0 df 21 2e be f4 e7 7c 3b 60 f3 49 be 85 06 62 3d
       -0.17005108 0.0038590403 -0.19721746 0.055182
0000c0 37 ab a8 be 5d 2b af 3d 85 0b 07 bf ce 39 f5 3e
       -0.32943127 0.08553193 -0.5275195 0.47895664
0000d0 b2 2d d8 3e e3 4b df 3d b4 a1 98 3d 89 f5 6e 3e
       0.42222363 0.10903146 0.074527174 0.23335852
0000e0 73 89 e3 bd eb f3 a8 be 8a 1e 1b 3f 3f ab 03 bf
       -0.11110201 -0.32998595 0.60593474 -0.51433176
0000f0 2e a1 89 be ff 6a 01 bf e1 58 d2 3d 61 b0 c2 3e
       -0.26880783 -0.5055389 0.102708586 0.3802519
000100 a5 aa 05 bf f5 ae 05 be 3c 15 6f 3e ff 78 92 3e
       -0.5221351 -0.13055022 0.23347944 0.28607938
000110 a6 1d c4 be d3 d4 2c 3e f8 61 c5 be a9 c5 e7 3e
       -0.3830387 0.16878061 -0.38551307 0.4526799
000120 9b 68 d9 be dc 8f 3d 3e c1 02 17 be ea c0 e5 be
       -0.4246262 0.18511909 -0.14747144 -0.44873744
000130 62 4d 2d bf 7f 48 32 be 91 68 58 be 8d c5 25 3c
       -0.676962 -0.17410468 -0.21133639 0.010117901

encoder.patch_embed.bias f4 [16]
000000 a0 0d 16 3c 9f aa 4a 3b 36 de 83 bd eb fd 9e bc
       0.009158522 0.0030924452 -0.06438868 -0.019408187
000010 1c 07 af 3c ea 62 c4 bd d5 d3 37 bc 29 d5 31 bd
       0.021365695 -0.09589179 -0.011219938 -0.043416176
000020 27 8c aa 3c ff e7 7e 3d e9 b5 bb 3b 9b 93 3e bc
       0.020818783 0.062232967 0.0057284725 -0.011631872
000030 ef 18 7d 3c 84 64 0c be e3 a2 e3 3c b0 6f 82 3c
       0.015447839 -0.13710219 0.027787631 0.015922397

encoder.blocks.0.norm1.weight f4 [16]
000000 ec 22 80 3f b0 ac 7e 3f 00 07 81 3f 20 ee 7d 3f
       1.0010657 0.9948225 1.0080261 0.99191475
000010 ef 98 8f 3f b4 f2 7a 3f e3 10 80 3f 22 56 7f 3f
       1.1218547 0.98026586 1.0005153 0.99740803
000020 76 7e 82 3f 1d 39 88 3f f8 02 83 3f 4d cd 9b 3f
       1.0194843 1.064243 1.0235281 1.2172028
000030 6e 45 84 3f 16 3d 7c 3f 9f 96 83 3f 16 15 64 3f
       1.0333688 0.9853071 1.0280341 0.89094675

encoder.blocks.0.norm1.bias f4 [16]
000000 f5 55 cd 3c be 96 51 3c 2e d2 92 bc 35 71 a1 bc
       0.025065402 0.012792287 -0.017922487 -0.019707302
000010 18 d7 89 3c 6a 07 27 3d fd f0 48 bd 9c 65 f3 3b
       0.016826198 0.040778555 -0.04905795 0.0074278843
000020 07 6f 33 3c f0 59 0c 3d 7d d4 d1 3c 90 1f 80 3b
       0.010951764 0.03426546 0.025614018 0.0039100125
000030 39 dd ba bc 26 53 22 3d 57 b8 1a 3d ea 9f 5f bd
       -0.022810565 0.039630078 0.037773456 -0.054595865

encoder.blocks.0.attn.qkv.weight f4 [48, 16]
000000 1e 16 c4 3e 3f 67 a6 3e f4 12 cb be 50 27 52 be
       0.38298124 0.32500646 -0.39662898 -0.20522809
000010 ea a4 87 3e 5e b0 d3 be f4 4f 26 3e 35 ba 45 bd
       0.26493007 -0.41345495 0.16241437 -0.048273284
000020 41 0f 7f bc d0 5b 18 be 56 22 b4 3e db 38 88 bd
       -0.015567602 -0.14878774 0.35182446 -0.06651469
000030 e1 77 5e 3e 4b 87 47 3e bc 39 74 3e 95 4e 08 bd
       0.21725418 0.19485204 0.23850149 -0.033278067
000040 1d 5b 6b bd d6 43 10 be cf 12 92 3e ac 5c 1b be
       -0.05745994 -0.14088377 0.28529975 -0.1517207
000050 94 d6 20 3e d0 89 5e be 36 ba cb 3c af c6 13 3e
       0.15706855 -0.21732259 0.024869066 0.1443126
000060 0d b5 cd 3e 63 e6 51 3e d8 ba 93 be 31 3f 94 bb
       0.40177193 0.20498042 -0.28853488 -0.0045241346
000070 57 51 24 3e 0c c6 de bd 78 09 0f 3e 81 ac 70 be
       0.16046654 -0.10877618 0.13968456 -0.23503305
000080 dd 47 cb bd cb 25 63 be 44 a0 db 3d fc be 98 3d
       -0.09925816 -0.22182386 0.107239276 0.074583024
000090 5f be 4f be eb ff 3f be 4f 5f 01 3e 4e f8 df 3c
       -0.20287465 -0.18749969 0.12634014 0.02734008
0000a0 d1 02 de 3d fb 51 23 be 29 52 e2 3e c8 2a 78 3d
       0.10840381 -0.15949242 0.44203308 0.060587674
0000b0 15 82 48 3d b0 64 ae be 29 f6 9d 3e b1 ae a7 be
       0.04895218 -0.34061193 0.30851868 -0.32750466
0000c0 da 49 ee 3d 7c 95 5e 3e a9 36 81 3e db ec de bb
       0.1163518 0.21736711 0.25237015 -0.0068031377
0000d0 11 1e 2e 3e 6d de b8 be 28 be 09 3e 95 5f 84 3d
       0.17003657 -0.36107197 0.13451445 0.06463543
0000e0 43 55 0d be 1c c5 86 3d e7 9b ad 3e ad e8 b8 bd
       -0.13802056 0.065805644 0.33908007 -0.090287544
0000f0 2b 3d 15 be 5b a4 2c 3e e1 91 a8 3e b8 78 b8 be
       -0.14574115 0.16859572 0.32923797 -0.360296
000100 97 29 a1 be 37 88 b4 be 64 d9 9e bd f2 ba 3e 3e
       -0.31477043 -0.35260174 -0.07756308 0.18626001
000110 2a 1c 9a bd 52 91 94 3e 98 a5 31 3d d9 18 d7 be
       -0.07524903 0.2901712 0.043370813 -0.42011145
000120 54 f5 d1 3d bb dd 92 be 1c d0 15 be ec b4 97 bd
       0.10251871 -0.28684792 -0.14630169 -0.07407555
000130 4a 0a 40 3e f9 78 be be f5 64 94 3e a8 38 77 be
       0.18753925 -0.3720167 0.28983274 -0.24142706
000140 80 b2 60 bd fa 34 2f 3e 95 48 60 3e 2a 0d 75 bb
       -0.05485773 0.17110053 0.21902688 -0.003739188
000150 e2 59 bf 3d 95 e8 b2 bd 3b 55 84 3c 4d c7 1f be
       0.09343316 -0.08735768 0.016153922 -0.15603371
000160 aa cf ac 3e 96 72 2e be 94 c9 64 3e bc fd f9 3d
       0.33752185 -0.17035899 0.22342521 0.12206599
000170 2a 33 c7 bd f5 cd 00 be 95 3c 54 be f9 e1 9b bd
       -0.09726556 -0.12578566 -0.20726235 -0.0761146
000180 85 b7 b4 bc 29 e8 30 be 8b 2c 94 3e 1f a5 d8 3d
       -0.022060165 -0.17276062 0.28940234 0.10578369
000190 04 54 dc bd 07 b1 2f 3e 88 17 84 3e 81 a3 2a bc
       -0.10758212 0.17157374 0.25799203 -0.010414959
0001a0 3b 70 f0 3d cc aa 63 bc 69 34 db 3d 92 92 94 3e
       0.11740156 -0.013895702 0.10703356 0.29018074
0001b0 ef af 2b 3c 42 d0 81 be 5c 93 41 be 8a 12 51 3e
       0.010478958 -0.253542 -0.1890387 0.20417228
0001c0 88 9d fd bd 11 74 79 3d 22 b2 53 be 45 91 79 3e
       -0.12383562 0.060901705 -0.20673421 0.24371822
0001d0 b0 44 86 3d 4c 78 63 be 5e de 95 3d 8c b8 87 3e
       0.0655607 -0.22213858 0.07317804 0.26507986
0001e0 5d 6e 94 be e9 a6 ae 3c 69 d9 95 3e 38 58 33 be
       -0.2899045 0.021319823 0.29267433 -0.17514122
0001f0 aa d8 6d 3e 2a c8 38 bb a0 89 f2 ba c1 03 43 be
       0.23227182 -0.002819548 -0.001850415 -0.19044401
000200 d8 da 85 3e 88 12 b4 bb 08 f1 30 3e 49 fe 08 bd
       0.26143527 -0.005495373 0.17279446 -0.03344563
000210 5b bb 0e be f2 c7 a1 be ec e1 8d 3d 67 e6 81 be
       -0.13938658 -0.3159786 0.06927857 -0.25371096
000220 c2 87 37 3e 2f 18 5d 3d 86 50 50 bb c2 35 25 bd
       0.17922881 0.05397814 -0.0031786277 -0.04033447
000230 9b ed b0 bd 85 70 de 3d 76 3c 4f 3d 0c aa c3 3d
       -0.0863907 0.10861305 0.05059477 0.09553918
000240 3a a5 39 3e f8 4f 9f 3e 88 00 50 be cb 59 67 be
       0.18129435 0.311157 -0.20312703 -0.22592847
000250 0e 09 b6 3e 15 60 7c be ea 6d c9 3e 63 ed df be
       0.35553783 -0.24646027 0.3934167 -0.437358
000260 06 27 28 be 8c ff 57 3e 74 dd 17 be 5e 7a d1 be
       -0.16421136 0.21093577 -0.14830571 -0.4091367
000270 60 80 a6 bd 7d 36 96 be cd 11 0d be 4c e5 b4 be
       -0.08129954 -0.29338446 -0.13776322 -0.3533119
000280 92 d6 96 3e 40 7f c5 3a 2f 4e 22 bd 5f b7 14 3d
       0.2946058 0.0015067831 -0.039625343 0.03630769
000290 cc 1a 8a bd a8 31 bd bd f7 e4 22 3e f6 04 ea bd
       -0.06743392 -0.09237987 0.15907656 -0.114267275
0002a0 4f 55 c0 b9 7f ae e3 3d 4c c9 a2 3e 3f 41 b8 be
       -0.00036684654 0.11117267 0.31794202 -0.3598728
0002b0 0d 1b 6f 3e b4 1d c8 3d 2e ba 0c be 9c 98 89 be
       0.23350163 0.097712904 -0.13742897 -0.26874244
0002c0 21 14 d3 3d a5 05 81 bd ec 1b 88 3d 08 c9 1a bd
       0.10306574 -0.06299905 0.06645951 -0.037789375
0002d0 45 a3 c5 bc 42 43 e7 3d 3f 43 7d 3e 8a 01 91 be
       -0.024125705 0.11292125 0.24732684 -0.28321487
0002e0 15 85 b7 3c ae 4a 55 3e 5f 54 9c bd 37 d8 38 3c
       0.022402326 0.2082927 -0.0763328 0.011282018
0002f0 cc a5 ff 3d 65 83 b1 be 71 a2 42 be be 0f 37 bb
       0.12482795 -0.3467056 -0.19007279 -0.0027932967
000300 84 58 82 3e fc 20 98 bd 6e 21 85 bd c9 66 3d 3d
       0.25458157 -0.07428166 -0.06500517 0.0462406
000310 50 3c 85 3d cc 69 79 3e 90 c9 3d be 1e bd 8b 3e
       0.06505644 0.24356765 -0.18533921 0.27292722
000320 01 5b c4 bd b2 fa 4a 3e 52 23 ec 3d 23 da 3e be
       -0.0958767 0.19822195 0.11530174 -0.186379
000330 7d aa 92 be b6 05 ae bd 34 57 85 3e 01 19 90 be
       -0.28645697 -0.08497183 0.26043093 -0.28144076
000340 92 11 c1 bd 62 db 17 be e2 b8 da be b2 cc 09 be
       -0.094271794 -0.14829782 -0.4271918 -0.13456991
000350 19 7c 1e be 19 a9 7a be 54 7a 5e bd 19 a3 52 bd
       -0.15477027 -0.24478568 -0.05431588 -0.051425073
000360 3e b0 a2 bc b7 f7 f1 3c 01 77 ba 3e ad e7 f1 bd
       -0.01985943 0.029537065 0.36418918 -0.11811767
000370 ba 26 6d 3e f7 90 9d 3e 1f 2f 5c 3e f8 0f e0 bd
       0.23159304 0.30774662 0.2150235 -0.10940546
000380 fd ea 6a be c4 4f d5 3d 35 2a c1 3e 0e 3e 2b bd
       -0.22941203 0.10415605 0.37727514 -0.041807227
000390 5e 82 25 3e b4 bc a2 bd 72 83 94 3d 38 df 3b be
       0.16163012 -0.079461485 0.07251634 -0.1834687
0003a0 dc f4 00 3f c3 9d ab bc 88 b1 a7 be 1f 98 8a be
       0.50373626 -0.02094925 -0.32752633 -0.27069184
0003b0 3f 4a cf 3e 81 ce 81 be fb 2d b0 3d 05 3c da 3d
       0.40486333 -0.25352862 0.0860252 0.10655979
0003c0 0e 42 7c be 66 b0 31 be f1 24 e8 3d 34 5a 75 3e
       -0.24634573 -0.17352447 0.11335171 0.23960191
0003d0 74 8b d5 be f3 e3 e7 3e 68 17 e0 be 83 88 99 3e
       -0.41707957 0.452911 -0.43767858 0.29986963
0003e0 cf 81 83 be d1 cc a3 3e a3 f7 9c be 88 ce d2 3e
       -0.25684974 0.319922 -0.30657682 0.41173196
0003f0 9a dc 2e 3d fe c1 af 3e 54 85 82 bc db 22 c3 3e
       0.04269085 0.34327692 -0.015932716 0.3811253

encoder.blocks.0.attn.proj.weight f4 [16, 16]
000000 ec ab a4 bc 45 00 e7 3e ca 0b 92 3d c1 76 28 3e
       -0.02010151 0.45117393 0.07131155 0.16451551
000010 dd 14 95 3e 5c c7 47 be df 6a d4 3e 84 78 8b 3e
       0.2911748 -0.19509643 0.41487786 0.27240384
000020 d8 ee 26 bd b3 bb b7 3e 25 e3 7b be f8 4a 09 3e
       -0.040755123 0.3588539 -0.24598368 0.13407505
000030 a6 11 4b bd 65 06 a4 be ce 3c ac 3e b8 b6 d7 be
       -0.049577378 -0.3203613 0.3364014 -0.4213159
000040 05 63 28 be 1c ef d6 bd 34 72 46 3e ff 68 3e 3d
       -0.16444023 -0.10494825 0.19379503 0.04648685
000050 fb 4d 23 3c 6d b5 8c 3d 8b af a5 be e3 18 3e bd
       0.009967322 0.06870542 -0.3236049 -0.046410453
000060 96 77 c7 3e 24 91 a9 3e 4e 7a 62 3e 56 4a 2e 3d
       0.38958424 0.33118546 0.22116968 0.04255136
000070 89 88 1a 3e 52 4c e6 3c e2 98 18 be da e4 2c be
       0.15091147 0.028112564 -0.1490207 -0.16884175
000080 02 71 51 3e 81 ce a8 3d d3 c4 35 be 7f 2a 97 3e
       0.20453265 0.082425125 -0.17750864 0.2952461
000090 7a 6d b8 3e 2a 0a 42 3e 58 1c ae bd 39 2e b4 be
       0.36021024 0.1894919 -0.085015 -0.35191515
0000a0 f8 4b 62 bd 47 0d c9 3e 69 bc 66 3e 29 d1 5a 3d
       -0.05524823 0.39267942 0.2253281 0.053422127
0000b0 19 63 62 be 32 dc c3 3e 46 9b bb bd 09 42 44 be
       -0.22108115 0.38253933 -0.091604754 -0.19165815
0000c0 d7 8d b8 3e 3c 81 24 be ce 4b cc 3d 8c 3e 7c 3e
       0.36045715 -0.16064924 0.09975396 0.24633235
0000d0 12 68 af 3d 4d da 1b 3e cb f9 45 be 4b db 3e be
       0.08564772 0.15219994 -0.1933357 -0.18638341
0000e0 74 63 91 3c e4 16 7b 3a 2f 77 6c 3e e3 7d 6c 3e
       0.017747618 0.0009578301 0.2309234 0.23094897
0000f0 2a 56 a8 be 2a aa 54 be 17 d2 0d bf a3 8c 3c bd
       -0.32878238 -0.20768037 -0.55398697 -0.04603256
000100 cc 93 b9 be 5a 2f f8 bd fa 64 77 3d a6 cb de b9
       -0.36245573 -0.121184066 0.060399033 -0.0004249487
000110 97 e6 1a be c8 cf 24 be 3e 94 5e 3e f1 6f 0d be
       -0.15127026 -0.16094887 0.21736237 -0.13812234
000120 86 25 83 be f4 fa f3 bd 58 0f 85 3e 70 41 09 bc
       -0.25614566 -0.119131 0.2598827 -0.008377418
000130 33 13 c8 3e 69 7e 5e 3e 4a de 1c be 17 48 78 be
       0.39077148 0.21727909 -0.15319172 -0.2424625
000140 77 47 8c 3e 3d 38 96 be c1 d9 0c be fa 6c 8d bd
       0.27398273 -0.2933978 -0.13754942 -0.06905551
000150 3e 05 90 be 0c 6c 4f 3e d4 c6 30 3e ca 05 b8 be
       -0.28129 0.2025606 0.17263347 -0.35941917
000160 41 c0 42 be ed a2 8e 3d ec b4 0f be 3c e4 36 be
       -0.19018652 0.069646694 -0.1403386 -0.17860502
000170 f3 5d 95 be cb ab 00 3e 97 5c 61 bd ce f2 85 3e
       -0.2917324 0.12565534 -0.05501994 0.26161808
000180 2f 96 af bd d3 95 dc 3d 87 fc c7 3d 0e 63 ca be
       -0.08573567 0.10770764 0.09764963 -0.39528698
000190 c0 69 80 be 51 b4 73 3d c6 bf dc 3e a8 4b 1a be
       -0.2508068 0.059498135 0.43115062 -0.15067923
0001a0 5f 25 8a 3e 7f a0 36 3e 3a 0f ce be f1 0f 0e be
       0.26981637 0.17834662 -0.40245992 -0.13873269
0001b0 c1 02 59 3e e1 e4 a8 be 42 03 c3 3d 7b 84 b4 3e
       0.21192457 -0.3298712 0.09522106 0.35257325
0001c0 b8 78 2b 3e fc be 65 3e 42 03 b2 bd 8a 38 14 be
       0.1674527 0.22436136 -0.08692028 -0.14474693
0001d0 a3 fb a8 3e 3b 46 88 3e 0b 8a 89 be 7b 8f 6d be
       0.33004484 0.26616082 -0.2686313 -0.23199265
0001e0 76 35 c5 bb fe 18 ee be 0f 2e 89 3d 19 66 21 be
       -0.006018336 -0.46503443 0.06698238 -0.15761603
0001f0 bc 09 91 be 13 ab 63 be 77 64 bd 3e 89 55 da bd
       -0.2832774 -0.22233228 0.3699071 -0.10660846
000200 62 05 ba 3d c9 fe 5e be e0 c7 6a be 8b 97 bd 3e
       0.09083058 -0.2177688 -0.22927809 0.3702968
000210 95 c2 24 3e ec 3f b8 be 84 ac 60 3e 78 4d 48 be
       0.16089852 -0.3598627 0.2194081 -0.19560802
000220 8e 1c 80 3e 22 d8 48 be 25 59 bb 3d c1 cf 2d bd
       0.25021785 -0.19613698 0.09147862 -0.042434458
000230 6a e0 0f 3d 76 41 85 3e d3 7f 44 3e a9 51 6c 3e
       0.035126127 0.26026505 0.19189386 0.23078026
000240 77 26 e4 be 9d b1 61 3e 05 37 45 be 91 e9 ca 3e
       -0.44560596 0.2204041 -0.1925927 0.39631322
000250 b1 d7 c0 be 2d 81 b7 3e 82 b3 45 3e 5e 4a 45 be
       -0.3766456 0.3584074 0.19306758 -0.1926665
000260 80 2f 81 be 22 2b a5 3e b1 ee 74 bd 6e b9 84 be
       -0.25231552 0.3225947 -0.059797946 -0.25922722
000270 60 e8 82 bd 6f 9c 1e 3d cc 21 ca be f5 41 8d 3e
       -0.06391978 0.038723405 -0.3947891 0.27589384
000280 6c 56 cb be 4d 6b f0 be 33 53 c5 bd 75 03 4c 3e
       -0.39714372 -0.46956864 -0.096350096 0.19923194
000290 c8 d2 5c 3e 1b 31 8c be fc f9 f4 3c 6a 1d 99 3e
       0.21564782 -0.27381214 0.029904358 0.29905254
0002a0 db e1 6d 3e 06 40 00 3e a1 d3 a4 bd bc 4e cb 3e
       0.23230688 0.12524423 -0.080481775 0.39708507
0002b0 bc e4 c1 3d 97 d9 86 be c5 61 34 be 4e af 8a be
       0.09467456 -0.26337883 -0.17615421 -0.27086872
0002c0 ff 17 d0 3e 0f 3e 11 3e ed d6 4a 3d d9 c4 03 be
       0.40643308 0.1418383 0.049521375 -0.1286806
0002d0 4f 2d 9f bd c7 5b 3c 3e b6 8a ca 3d 9f 8c d5 bd
       -0.07772314 0.18394385 0.09889738 -0.10427212
0002e0 41 b9 3c bc 94 08 42 be 67 05 f9 bc f1 ef cf 3c
       -0.011518777 -0.18948585 -0.030398084 0.025382968
0002f0 1f b9 41 3e 2d 59 29 3c d7 21 ac bd e7 17 ac bd
       0.18918274 0.010336203 -0.08404892 -0.084029965
000300 57 e0 db bd ef e4 07 be 40 da a9 be d5 12 9e be
       -0.10736149 -0.13270925 -0.33174324 -0.30873743
000310 a7 c7 47 3e 82 1c b1 be fb f0 8f bd ec 61 5f 3c
       0.19509755 -0.34592062 -0.07028385 0.013634186
000320 ba 1d 68 3e 0b 99 86 3d 73 f3 06 be f4 48 34 3e
       0.2266759 0.065721594 -0.13178806 0.17605954
000330 2a 0b be bd d5 8e cf be dd 95 72 3e 40 41 cd 3e
       -0.09279473 -0.4053866 0.23689981 0.40088844
000340 c3 82 db bc 11 8b 9d bd 10 64 0a 3e 5d fd 19 be
       -0.02679575 -0.076925404 0.13514733 -0.15038057
000350 a0 0c d4 be 95 67 b6 be d5 ba 96 be fd 32 8d be
       -0.41415882 -0.35625902 -0.29439417 -0.27577963
000360 90 c9 bf 3d 9f da 53 3e 7b f4 3c be 05 b6 a0 bd
       0.09364617 0.20688866 -0.18452637 -0.078472175
000370 58 d7 64 be 25 58 15 be 7a 9e 76 bd a0 d4 a4 be
       -0.22347772 -0.14584406 -0.06020973 -0.3219347
000380 79 8f d5 bc aa e9 bc 3c 73 52 99 3a 81 59 24 3e
       -0.02606939 0.023060638 0.0011697545 0.16049768
000390 58 39 c9 bd 96 b8 9c 3e c5 18 86 3e 83 13 5c 3e
       -0.098253906 0.30609578 0.26190773 0.21491818
0003a0 ce 69 2f be 35 9d cc 3e 2d 80 b9 bc b7 b8 96 3e
       -0.17130205 0.3996369 -0.022644127 0.294378
0003b0 64 7f f2 3b 9d 4e db 3e b9 ee c9 3d df c1 fe bd
       0.00740044 0.42833415 0.09859986 -0.12439322
0003c0 d9 48 36 bd 95 78 02 3e a7 5c b6 be 03 76 19 3e
       -0.044503067 0.12741311 -0.35617563 0.14986424
0003d0 21 50 d1 bd 15 ba 01 3e 3d 6e ed 3e cf a4 47 be
       -0.102203615 0.12668641 0.46373168 -0.19496463
0003e0 84 cd c5 be 49 01 61 be a7 ab 9a be f3 cf 93 3e
       -0.38633358 -0.21973146 -0.30209085 0.2886959
0003f0 12 f3 ac 3e e8 9c 4b bc 05 ff be be d7 fd d3 3d
       0.33779198 -0.012427546 -0.3730394 0.103511505

encoder.blocks.0.attn.proj.bias f4 [16]
000000 82 4b af bc 91 c8 a7 3c 11 2b ce bc d2 63 d0 bc
       -0.02139831 0.02048138 -0.02516702 -0.025438223
000010 04 76 64 3d 9d 02 9e 3c 71 f1 41 bd 1c ab a3 bc
       0.05577661 0.019288355 -0.047349397 -0.019979052
000020 85 b0 a3 3c 8a 20 e2 3c 20 a3 d4 3c 4e 30 e0 bc
       0.019981632 0.027603406 0.02595669 -0.027366783
000030 16 af 13 bd ed 88 4b 3d 8d 17 0d 3d bb b7 74 bd
       -0.036055647 0.04969113 0.034446288 -0.05974553

encoder.blocks.0.norm2.weight f4 [16]
000000 14 10 85 3f 4b bc 7e 3f 49 47 77 3f 84 13 7e 3f
       1.0395532 0.9950606 0.9659315 0.9924853
000010 1d da 8a 3f 5b b3 72 3f ee ca 7d 3f 0c d4 79 3f
       1.0847813 0.94804925 0.9913777 0.9758918
000020 99 27 6c 3f bb ef 78 3f c8 9a 85 3f 37 98 91 3f
       0.9224792 0.972408 1.043786 1.1374577
000030 ba f1 6d 3f f3 9e 81 3f ee 6d 82 3f 9e 37 52 3f
       0.9294697 1.0126632 1.0189798 0.82116115

encoder.blocks.0.norm2.bias f4 [16]
000000 85 52 b9 bc df 91 07 bd 0a 14 42 3c ae 55 9a bc
       -0.022622356 -0.033098098 0.011845598 -0.018839683
000010 bd 4d fa bc 85 08 4c 3d 45 b6 8a bc 73 c7 e8 bc
       -0.030554647 0.049812812 -0.016932616 -0.028415417
000020 5a 1d c8 3c 1d 4c fa 3c 9f b1 a3 3d 7f 7d 99 bd
       0.024428058 0.030553872 0.07992863 -0.074946396
000030 81 38 90 bb 49 3a 1b 3c 82 e3 1b bd 88 ba 04 3d
       -0.004401267 0.0094743455 -0.038058765 0.032404453

encoder.blocks.0.mlp.fc1.weight f4 [64, 16]
000000 a6 6f a1 3e c2 32 7a be 05 36 e5 3d 5b de 93 3d
       0.31530493 -0.24433425 0.11191944 0.07220145
000010 dd e6 23 3e 22 ae f0 bc 9e de 05 3d 96 de 81 bd
       0.16006036 -0.029379908 0.032683007 -0.06341283
000020 bf 4f a6 3d 40 c0 c5 3c 3b e8 ed bd 90 85 bf bd
       0.08120679 0.024139524 -0.1161656 -0.09351647
000030 06 67 2c 3e 7d 2a 42 be c9 3e 6b 3e 87 a0 74 be
       0.16836175 -0.1896152 0.2297317 -0.23889361
000040 3c bd 81 3e 21 94 8a 3e 39 1b 40 3e 0a d6 68 3e
       0.25339687 0.27066138 0.18760385 0.227379
000050 7e a4 9b 3e 76 13 c1 3d 94 9c 9b 3d c8 bd 31 3e
       0.30398935 0.0942754 0.07598224 0.17357552
000060 fc 55 a0 3d 48 3b 0b bd 5c bc 69 be 96 92 43 be
       0.078289 -0.033992082 -0.2282576 -0.19098887
000070 90 f7 ee 3d f3 db 4b 3d 82 01 78 be 91 ec 7c be
       0.116683125 0.049770307 -0.24219325 -0.24699618
000080 59 1c 25 bd 6a 70 ae be bf 0f 72 bb 4d 77 cf bc
       -0.040310238 -0.3407014 -0.0036935655 -0.025325442
000090 80 c1 3b 3e b5 4e be 3c 61 70 c1 3d 67 8c 4e 3e
       0.18335533 0.02323089 0.09445263 0.20170747
0000a0 6c dc 77 3d 80 05 9f bc 2a 06 5c be f2 4c 3d 3e
       0.060512945 -0.019411802 -0.21486726 0.18486384
0000b0 ae 18 88 bc 14 29 6b 3c 85 36 3c 3d 71 54 83 3e
       -0.01661333 0.0143530555 0.04595043 0.2565036
0000c0 0e 30 4f bd c0 bd de 3c 41 73 3d 3e ef 37 81 3e
       -0.050582938 0.02719009 0.18500997 0.25237986
0000d0 46 cf 4a be 1a 42 1e be d6 ac 6c 3e 25 76 6e 3e
       -0.19805631 -0.15454903 0.23112807 0.23287256
0000e0 35 88 0a 3e 85 6a a2 be 76 cc 5a 3d 8c 38 9f 3e
       0.13528521 -0.31721893 0.053417645 0.3109783
0000f0 61 96 1f bd 54 ca d6 3d 0e c1 6b 3e 63 b4 b0 bd
       -0.038961772 0.1048781 0.23022863 -0.08628156
000100 91 58 01 3e 6d 17 ee bd e4 84 81 3d 02 cb 21 3e
       0.12631442 -0.11625562 0.06324175 0.15800098
000110 8c 1b 54 3e 8e b5 99 bc 86 3d 86 3d 26 fe 6f 3e
       0.20713633 -0.01876333 0.065547034 0.23436794
000120 0c 5c 21 be d4 ce 5a be e3 78 8f be 33 d6 6b be
       -0.1575777 -0.21367961 -0.28021917 -0.2303093
000130 c1 4b a6 3e 37 0e 82 be 31 38 87 be 9d c9 45 bd
       0.3247967 -0.2540147 -0.26410058 -0.048287977
000140 18 3f 71 bc a6 06 a4 be a9 ca c7 3d 97 da 55 3d
       -0.014724515 -0.32036322 0.09755451 0.052210417
000150 97 a0 40 3e f6 47 64 be 21 d5 48 bd b1 a5 0d 3e
       0.1881126 -0.22293076 -0.04903138 0.13832738
000160 75 56 f4 3d 21 21 40 3e c7 f3 8e be 51 df ef be
       0.11930553 0.18762638 -0.27920362 -0.46850064
000170 3a c0 34 bd f3 6b 0c be 9e 04 2e 3d f3 99 33 be
       -0.044128634 -0.13713054 0.042484872 -0.17539196
000180 50 45 8f 3e bd 46 84 3e 52 ae 08 bd f0 ad fb 3d
       0.2798257 0.2583522 -0.03336937 0.12289035
000190 8a 4d b6 bd 46 e5 37 3d af 28 c5 3d db aa f9 ba
       -0.08901508 0.044896387 0.096269004 -0.0019048111
0001a0 1a 09 66 bb 0c 33 21 3e e9 da 58 be 18 5c 2a be
       -0.003510064 0.15742129 -0.21177258 -0.16636693
0001b0 ee 98 aa 3e 9a e1 fc bd 9e d9 74 3e 32 74 93 be
       0.333198 -0.123477176 0.2391114 -0.28799587
0001c0 4d d2 8b 3e d2 43 e3 3d 41 d1 e6 3d 62 38 7c 3d
       0.27308884 0.1109692 0.11270381 0.06157721
0001d0 44 96 0c 3c cd 57 d5 3d 27 91 a7 3d e0 31 70 be
       0.008580748 0.10417137 0.081819825 -0.23456526
0001e0 72 78 77 3d a2 ba 5f be 77 0f a4 bc 23 59 88 3e
       0.0604176 -0.21848539 -0.020026905 0.26630506
0001f0 9b 76 88 3e 07 f9 ac 3d 9b af 44 3d b1 61 48 3e
       0.2665299 0.08445936 0.048019033 0.19568516
000200 2d e1 24 be b4 64 7b bd f7 c0 10 bc 9b 4e 30 be
       -0.16101523 -0.061375335 -0.008835069 -0.17217486
000210 62 29 e3 3c 50 4f 73 3e e0 bf a2 bd 50 5f 13 3a
       0.027729694 0.23760724 -0.079467535 0.00056218076
000220 8c 7d 8e 3d a3 ff 3e 3e fc 43 34 be c0 b4 08 3e
       0.0695754 0.18652205 -0.17604059 0.133502
000230 14 ca f0 3d f0 68 69 3e b0 90 b6 be 38 c5 95 3e
       0.11757293 0.22793937 -0.35657263 0.29252028
000240 cd 2e 1c 3e d1 8b 80 be d6 27 16 be 0d 26 07 bd
       0.15252228 -0.2510667 -0.14663634 -0.032995272
000250 fe 3c 65 3e d7 d1 9f 3c c5 4e 80 ba 19 b9 3f be
       0.22386548 0.01950924 -0.00097891 -0.18722953
000260 3f ee 4e 3e 87 eb 49 be fe 29 8c be de 70 62 be
       0.20208071 -0.19718753 -0.27375787 -0.22113368
000270 d2 14 03 be ca 12 8e be e3 c5 0c 3e bf 9e 3b 3e
       -0.12800911 -0.2774871 0.13747363 0.18322276
000280 f2 33 a0 3e 34 15 b3 bd 72 29 3d be da 59 72 be
       0.3128963 -0.087442786 -0.18472841 -0.23667088
000290 70 30 8d be d3 0f 94 be c9 cd f6 3b fb 27 93 3e
       -0.27576017 -0.28918323 0.0075318557 0.2874144
0002a0 05 7f b3 3e 59 02 19 3d a9 37 f0 3d d4 5c dd 3d
       0.35057846 0.037355755 0.11729366 0.10808721
0002b0 8e a0 b5 3e 75 c3 72 3e e5 f6 67 3e 59 a8 42 be
       0.35474056 0.23707373 0.22652777 -0.19009532
0002c0 e6 4e 50 be d3 3a 32 3e 04 82 b8 3e c4 78 4a be
       -0.20342597 0.17405252 0.36036694 -0.19772631
0002d0 5b c4 01 be b7 1a 71 bd f3 93 af 3d 68 a9 a6 bd
       -0.1267256 -0.058863368 0.08573141 -0.081377804
0002e0 4c ab 47 3e 7c 9d 5c 3e e5 ec bd be b7 fd 52 3e
       0.19498938 0.2154445 -0.370948 0.20604597
0002f0 ce 75 f5 3d bc 36 2e be 94 c8 8b 3d f3 ec 1d be
       0.1198536 -0.17013067 0.068253666 -0.1542242
000300 c9 eb 62 be de bd 8c 3e a7 7a a7 bb 9d 47 a8 bd
       -0.22160257 0.27488607 -0.005111057 -0.08216784
000310 6f 5e 20 be 0b ef ef 3b f0 29 76 be 9d 43 97 3e
       -0.15661024 0.0073221973 -0.24039435 0.29543772
000320 5f 00 9b bc 87 26 98 3e 25 5f 81 be ee fb 40 be
       -0.018921075 0.29716894 -0.25267902 -0.18846104
000330 1a 50 98 bd 3e bd 92 3c c8 75 73 be 03 98 19 3d
       -0.07437153 0.017912503 -0.23775399 0.037498485
000340 eb 9c 4b 3e 74 9b 17 bd 0e 18 7c 3e 11 4d dd 3b
       0.19884078 -0.037013486 0.24618551 0.006753572
000350 01 e9 d8 be c0 bf 10 bd ef 8e e9 bd 38 1b 2f 3e
       -0.42365268 -0.035339117 -0.114042155 0.17100227
000360 3d e6 70 3e 7a be a6 be e0 a9 50 be f9 68 93 3e
       0.23525329 -0.32567197 -0.20377302 0.28791025
000370 03 72 d3 3d 8a a0 40 be fd 59 43 bd 49 f6 de 3c
       0.103244804 -0.18811241 -0.04769324 0.027217047
000380 b9 15 c8 3d bc fd 55 be 88 5d 30 be 11 00 97 be
       0.09769768 -0.20897573 -0.1722318 -0.29492238
000390 b8 51 99 3c be 69 39 3e ea f0 55 3e 07 05 91 3e
       0.018715724 0.18106744 0.20892683 0.28324148
0003a0 4e 2e 92 3e 3b 87 ac bd 89 1c 67 3e 00 ba 27 3e
       0.28550953 -0.08424231 0.22569479 0.16379547
0003b0 99 ad 01 3e 2e f7 81 be fc 87 30 be 4a 61 18 be
       0.12663879 -0.25383896 -0.17239374 -0.14880863
0003c0 a8 aa 93 3e 9e 62 77 be c7 04 26 3e c2 42 6b 3e
       0.28841138 -0.24158713 0.1621276 0.22974685
0003d0 60 76 12 be f9 22 6d bd 06 87 38 be 16 a7 91 bc
       -0.14302969 -0.05789468 -0.18020257 -0.017779868
0003e0 4c bf 17 be f9 50 04 3e aa 1d 16 bc 52 d5 d8 bd
       -0.14819068 0.12921514 -0.009162346 -0.105875626
0003f0 ad 9a 8f 3e 79 5b ee 3d 1a e3 8e bd af cf b5 bd
       0.28047696 0.11638541 -0.0697691 -0.08877503

encoder.blocks.0.mlp.fc1.bias f4 [64]
000000 df 75 bb bd ab 93 14 bd 28 83 b3 bb a8 6e fe bc
       -0.091533415 -0.03627364 -0.0054782815 -0.031058624
000010 55 74 44 bd 03 33 3a bd 5e 00 24 bd 3c 1b 0c bd
       -0.047962505 -0.045458805 -0.040039413 -0.03420566
000020 16 51 a7 3c cb d0 87 bd 68 98 af bd 6e 23 8c bb
       0.020424407 -0.06631621 -0.08573991 -0.0042766845
000030 61 d9 b2 3c 8a f6 dd 3b b4 2b ae bc 14 0c 19 bd
       0.02183217 0.0067737745 -0.021261074 -0.037365034
000040 38 a5 8a 3c 8b 36 e5 bc 3e b3 7a bd 71 c6 06 bd
       0.016924486 -0.02798011 -0.061206095 -0.032904092
000050 50 2d 13 3b 68 eb 9f 3c c2 9a 61 bd 89 a8 1d bd
       0.0022457428 0.01952143 -0.05507923 -0.038490806
000060 80 55 3a 3c 5a b9 da 3c bd 5e 6f bd 68 1d 9c bb
       0.011372924 0.02669971 -0.05843996 -0.0047642477
000070 3a 09 dd bc 49 b5 0e 3c b2 97 8e bd a3 e8 a5 bc
       -0.026981939 0.008710214 -0.06962527 -0.020252531
000080 b5 8d 86 bc ac 66 8d bd 5c bf ba 3c 74 87 67 3d
       -0.016424993 -0.06904349 0.022796325 0.056525663
000090 6a 3e 81 bc 6e 14 d4 bc fb 52 83 3c f7 87 47 3c
       -0.015776832 -0.025888648 0.01603078 0.012178413
0000a0 da 82 0b bd ca dd a5 bd 93 dc d9 bd a1 97 fe 3c
       -0.034060337 -0.080989435 -0.10637774 0.031078162
0000b0 d0 c1 28 bd f7 e1 62 bd 5b 3b 83 bd 4f 75 1f bd
       -0.04120046 -0.055391278 -0.064078055 -0.038930234
0000c0 18 b0 33 bd e2 6f 3b bd c6 30 df 3c 4e 06 0e 3d
       -0.043869108 -0.045760997 0.027244937 0.03467398
0000d0 be a7 36 3e f5 09 8f bb d4 6d 1b bd 9b 05 64 bd
       0.17837426 -0.0043652006 -0.037946537 -0.05566941
0000e0 30 23 12 3e 40 84 e4 bc 54 fd 5d bc f6 84 c0 3c
       0.14271235 -0.027895093 -0.013549168 0.0235009
0000f0 7c 91 2a bd 15 a0 0f 3d 90 cc 36 bd ab e4 10 bd
       -0.04164265 0.035064775 -0.04462868 -0.035374325

encoder.blocks.0.mlp.fc2.weight f4 [16, 64]
000000 a6 d8 f7 3d 68 f2 ab 3d d0 dd d2 3d 8b 7a 95 3c
       0.12101869 0.08395845 0.102962136 0.01824691
000010 55 42 9e 3d 76 bb 20 3e 81 37 c0 3d 62 aa 1b bd
       0.077274956 0.1569651 0.093855865 -0.038004287
000020 fc d9 07 be 9c b0 25 3e c5 0f 6f 3d ad ba 16 3e
       -0.13266748 0.16180652 0.05836465 0.14719649
000030 ad a8 85 3e bb 64 85 3e db f4 1b 3d 48 fd 9e be
       0.26105252 0.26053414 0.03807531 -0.31052613
000040 c1 ce 4e be 2f 42 12 3e e6 40 54 be 63 f0 d7 3c
       -0.20196058 0.1428306 -0.20727882 0.026359743
000050 03 31 02 be 34 e2 64 3d 0b c7 42 3e 28 cb ed bd
       -0.12714009 0.055879787 0.19021241 -0.116110146
000060 58 46 f0 bd e7 f6 0e 3d 5f 56 9c 3d a5 a2 4b bd
       -0.11732167 0.034903433 0.076336615 -0.049715657
000070 57 bf f6 bc b6 50 d7 bd 42 55 0d 3d f8 4b 82 3e
       -0.030120535 -0.10513441 0.034505136 0.25448585
000080 07 0a 61 be 1f 5a 60 3d 18 e6 62 be 58 d4 bb bc
       -0.21976481 0.054773446 -0.22158086 -0.022928402
000090 f2 99 e6 3d fa 7b f8 3d 99 91 14 bd 71 ce 71 3e
       0.112598315 0.12133022 -0.036271665 0.23613907
0000a0 0f 10 50 3d 53 a4 2c 3e e8 55 22 be f1 a0 a1 3c
       0.050796565 0.1685956 -0.15853083 0.019730063
0000b0 8c a5 79 be e8 38 99 3e 73 5e 31 be 57 46 31 3d
       -0.24379557 0.2992623 -0.17321186 0.043279972
0000c0 87 af dd 3d 10 d8 13 be 47 38 a4 bd 7d 76 38 3e
       0.10824495 -0.1443789 -0.080185466 0.1801395
0000d0 85 c3 53 3e af 9a 5e be 59 04 61 be 91 66 30 be
       0.20680054 -0.21738695 -0.21974315 -0.17226626
0000e0 4f 29 10 be ad bd 50 3c 34 f2 9e be 37 76 70 bd
       -0.14078258 0.012740535 -0.3104416 -0.05870649
0000f0 43 00 49 3e 97 5d ea bd 15 91 bb 3d 46 1b 99 bd
       0.19629006 -0.11443632 0.091585316 -0.07475905
000100 89 0a 59 3d 68 c2 dc 3d 92 88 0f be 51 bd 1a 3e
       0.052988563 0.107792675 -0.14016941 0.15111281
000110 e0 83 d4 bd d9 fc 58 3d dd 0a 2d 3e d1 0a 57 be
       -0.10376716 0.05297551 0.16898675 -0.2100022
000120 17 65 42 be d4 fb 54 3e 1c 29 53 3e 68 de 2a be
       -0.18983875 0.2079919 0.2062115 -0.16686404
000130 0c a9 56 bc 20 11 8c 3b 54 01 0e be ad 8f b5 3d
       -0.013101827 0.0042745024 -0.13867694 0.088652946
000140 ad ff 75 bd 41 dd 9e bd c2 06 08 3e da 8f 40 be
       -0.060058285 -0.077570446 0.13283828 -0.18804875
000150 ef f3 56 bd aa 3b 86 3d d9 65 0b 3e 60 13 3c bd
       -0.052478727 0.06554349 0.1361307 -0.045916915
000160 df 29 37 3e f6 c5 6b 3e 83 9a 8c bd 31 3e 1e be
       0.17887066 0.23024735 -0.06865408 -0.15453412
000170 52 cc 59 3e 91 d8 46 3e 4b b4 4d bd 23 c5 0d 3d
       0.21269348 0.19418551 -0.05022077 0.034611832
000180 c2 99 bf bd f3 65 3c 3c 61 fa e1 bd 0e a8 4f 3e
       -0.09355499 0.011498916 -0.11034084 0.20278952
000190 30 57 8f ba 97 f0 9e 3e a3 1a 52 3e 3c 21 27 3e
       -0.0010936018 0.3104293 0.20517974 0.16321272
0001a0 71 e5 14 be 9d b1 95 3d f5 ec 77 3e 07 a9 7e 3e
       -0.1454065 0.07309268 0.24211486 0.24869166
0001b0 c3 db 18 bc fe 23 7f bd 5c 21 9d be ef eb a8 bc
       -0.009329739 -0.062290184 -0.30689514 -0.020620314
0001c0 0c f4 a5 3d 2f ab 64 3e 32 ef 0b be 62 3e 96 3e
       0.08103189 0.22330926 -0.13665465 0.2934447
0001d0 d2 eb 12 be 80 8f f7 3d 57 93 a4 3d 08 16 61 3d
       -0.14347771 0.12087917 0.08035915 0.05495265
0001e0 e1 55 a9 3d 7c 23 67 3e cc fa 89 3d 3b 89 a7 bd
       0.08268333 0.2257213 0.06737289 -0.081804715
0001f0 a8 03 30 be fc 9e 4f 3e cb 97 65 3e a2 13 4f 3e
       -0.17188895 0.20275491 0.22421186 0.20222333
000200 0c 2a 74 bc 1b 6f 7c 3e 30 be c1 3d ac 02 53 be
       -0.014902603 0.24651758 0.094601035 -0.20606488
000210 79 ac e1 3d 12 7e 19 3e 3f 78 8e bc ec d9 9d bd
       0.11019225 0.14989498 -0.017391322 -0.07707581
000220 0c 1a b5 bd b2 a3 e3 bd 93 d2 c4 bd af ee fc 3d
       -0.08842859 -0.11115207 -0.09610476 0.12350213
000230 40 89 9a be 65 d7 b5 bd 79 51 d8 bd 7f dc 8e 3e
       -0.30182838 -0.08878974 -0.10562415 0.279026
000240 f3 9f 09 be c8 fc aa 3e 2f 13 47 3e 9c fd 04 3d
       -0.13439922 0.33395982 0.19440912 0.032468423
000250 dd a6 71 3d a6 9d 02 be b6 ef d2 3d 17 0f 1e 3e
       0.058997024 -0.1275545 0.102996275 0.15435444
000260 28 78 5b bd 8b f5 91 be cc 8e 58 be 5d ca 82 be
       -0.053581387 -0.28507647 -0.21148223 -0.25545016
000270 b2 49 e9 3d ce 37 2b be f7 d9 39 3d 22 81 70 3e
       0.113910094 -0.16720507 0.045373883 0.2348676
000280 e1 d7 83 be f8 83 e9 bd b1 a1 11 be 84 35 c1 bc
       -0.2575064 -0.11402124 -0.14221837 -0.023585089
000290 5a fa e2 3d 3e 9f 46 bd 85 7c 3c 3e bd 97 80 be
       0.11082907 -0.04849171 0.18406875 -0.25115767
0002a0 32 ec 76 3e ad c5 1d be a5 10 21 3e 35 50 be bd
       0.24113539 -0.15407439 0.15729006 -0.09292642
0002b0 77 bf 8a 3e fa b0 3c bd 0a 4d 26 3e ca ed 82 be
       0.270992 -0.046067216 0.16240326 -0.25572044
0002c0 d2 c9 41 3e b2 d4 21 bc 52 f5 7d be fc e8 30 3d
       0.18924645 -0.009877371 -0.24800614 0.04319094
0002d0 53 0a 82 3e f2 1d aa bc 3b 77 b9 bd b1 c1 55 be
       0.25398502 -0.020766232 -0.090559445 -0.20874669
0002e0 ad 23 00 3e a0 9b c4 3d 80 85 13 3e 0c e4 13 be
       0.12513609 0.095999956 0.14406395 -0.14442462
0002f0 94 51 12 be 4d 3c 87 be 2e 36 8a 3e 54 a2 97 3d
       -0.14288932 -0.26413193 0.2699446 0.074040085
000300 61 dc 79 bd 6b 6a 1a 3e d0 78 31 bd b4 ec 18 3d
       -0.061001185 0.15079658 -0.043328106 0.037335113
000310 c6 5e 77 bc fd fd 5a be 68 49 0f 3e 7b 53 7e 3e
       -0.015098279 -0.21385951 0.13992846 0.24836533
000320 ef 81 19 3e 3e 76 7e 3d b5 19 f6 bd d2 e4 8f ba
       0.14990972 0.062124483 -0.12016622 -0.0010978228
000330 d4 22 27 3d 36 95 8d 3e a5 60 31 be 1d 3d 63 bd
       0.0408047 0.276529 -0.17322023 -0.055478204
000340 2e 85 56 3e 18 d9 87 3e e8 a3 c9 3d 2f 5d 64 3e
       0.20949242 0.26532817 0.09845716 0.22301172
000350 7d c0 83 be 6c 3c 5f 3e 0e cc d7 bc c8 18 57 be
       -0.25732794 0.21800393 -0.026342418 -0.21005547
000360 53 08 9f 3d 22 05 f2 3c 88 d0 92 bd b7 62 3e be
       0.077652596 0.029543463 -0.071686804 -0.18592344
000370 42 a1 63 bc 8e 0b 56 be 2c c5 02 bd c9 63 92 3e
       -0.013893427 -0.20902845 -0.03192632 0.28591755
000380 ae 6c 60 3d a8 f9 f8 bd b3 21 09 bd 40 80 01 be
       0.054791145 -0.12156993 -0.033479404 -0.1264658
000390 58 20 65 3e 86 a7 09 be 6d 81 87 be 1c 94 b2 3c
       0.2237562 -0.13442811 -0.26465932 0.02179914
0003a0 2a 28 12 be 8a 79 07 3e 44 d3 fe bd 20 83 00 be
       -0.14273134 0.13229957 -0.124426395 -0.1255002
0003b0 66 81 59 bd 75 32 1d 3e 8f a3 3e 3d a5 38 ea 3d
       -0.05310192 0.15351279 0.0465427 0.11436585
0003c0 de 28 50 3e 2d 30 0c bd a8 c4 cf 3d 2b b9 80 bc
       0.2032809 -0.03422563 0.10144931 -0.015713295
0003d0 92 4a 95 3d 7b 8a 04 bd e8 b3 70 be d7 ec 42 be
       0.07289614 -0.032358628 -0.23506129 -0.1903566
0003e0 bd f6 ca 3d 5f fa a0 3d 6d e0 57 3e 72 9f 3e bd
       0.09910343 0.078602545 0.21081705 -0.046538778
0003f0 9e 15 2e be 00 8e b5 bd 29 df 5e 3e ae 73 0a 3e
       -0.17000434 -0.08864975 0.21764816 0.13520691

encoder.blocks.0.mlp.fc2.bias f4 [16]
000000 28 30 80 bb c7 39 55 3c 85 3e 1f bd dd 6e 00 bd
       -0.0039119907 0.0130142635 -0.038877983 -0.031355727
000010 35 b1 ed 3c 91 0f f2 bb 0c 7a 3d bd c1 08 db 3c
       0.029015163 -0.0073871096 -0.04625897 0.026737573
000020 15 98 a7 bc ee 21 e8 3c 16 35 be bc c4 c8 96 b9
       -0.02045826 0.028336491 -0.023218673 -0.00028759812
000030 83 70 4d 3b 59 7f b0 3c c1 d4 09 3d 7c 83 67 bd
       0.003134758 0.0215451 0.033650164 -0.056521878

encoder.blocks.1.norm1.weight f4 [16]
000000 af a9 85 3f 7d a9 81 3f cf bb 8f 3f 45 df 75 3f
       1.0442408 1.0129849 1.122919 0.9604381
000010 44 8a 84 3f 77 95 6a 3f e3 ac 8c 3f 9c 8b 8e 3f
       1.0354695 0.91634315 1.0990261 1.1136355
000020 7a 41 76 3f 16 c8 86 3f 85 27 75 3f 28 7b 94 3f
       0.9619366 1.0529811 0.95763427 1.1600084
000030 cd d6 68 3f 72 7a 84 3f 16 b6 7c 3f e5 80 74 3f
       0.9095276 1.0349867 0.9871534 0.9550918

encoder.blocks.1.norm1.bias f4 [16]
000000 b1 b1 e3 bd 6f 2a b7 3c 2a ec b4 bd 96 04 08 bd
       -0.11117876 0.022359101 -0.08834107 -0.0332075
000010 8e a8 e7 3c 06 6a db bc c1 a4 6c bd 86 bc 77 3d
       0.028278615 -0.026783954 -0.05777431 0.060482524
000020 51 0a 8f 3c 15 5c 00 3d 61 8b c6 bc be 84 5e 3d
       0.017460974 0.031337816 -0.024236383 0.05432581
000030 6b 98 ff 3c bf 11 0d 3d d3 01 03 3d b8 b6 47 3b
       0.031200608 0.034440752 0.03198416 0.00304739

encoder.blocks.1.attn.qkv.weight f4 [48, 16]
000000 2f f5 c6 3e 69 8e 8d be 7a 36 9e 3e 1d 91 74 3e
       0.38858935 -0.27647713 0.30900937 0.23883481
000010 95 54 18 bc 4e ec 89 3e 5f 70 03 3d 44 2f bb be
       -0.00929751 0.269381 0.032089587 -0.36559498
000020 f3 67 67 be b6 c8 9c bd 06 4b 61 3d 5f a7 a7 3d
       -0.22598247 -0.0765547 0.05500319 0.081862204
000030 8d 30 fd bc 4d 90 62 3d 07 79 28 3e 0d 64 9b 3e
       -0.03090694 0.055313397 0.16452418 0.3034977
000040 40 fb 88 3e 8b 44 90 3e e9 77 64 be 8c 2f 6d be
       0.2675419 0.28177294 -0.22311367 -0.23162669
000050 a0 fa 87 3e 4d 7d ea bd 34 68 4e be 4e 1b 83 3e
       0.265584 -0.114496805 -0.20156938 0.2560677
000060 e7 6f 16 3e 94 84 a3 3e 9d 7f 6a be 0e 3d 86 be
       0.14691125 0.31937087 -0.22900243 -0.26218456
000070 a1 c7 68 3a 37 ac 13 3e 0e 72 3d 3e 3c 4b c8 3e
       0.00088798447 0.14421163 0.1850054 0.391199
000080 36 bf 9e 3e fb be 92 bd d6 14 72 bd 11 2e b7 3e
       0.31005257 -0.07165333 -0.059101902 0.35777333
000090 f0 72 d3 bc d2 84 2a be 88 80 1a be b0 72 70 be
       -0.025811642 -0.1665223 -0.15088093 -0.2348125
0000a0 a3 86 8e 3d ed e6 e5 bd c3 e4 93 3d b5 e0 c6 bd
       0.06959274 -0.11225686 0.07221367 -0.09710828
0000b0 51 d9 1f 3e 4e 97 80 3e 27 26 55 3e 54 c9 65 3e
       0.15610243 0.25115436 0.20815335 0.22440082
0000c0 e7 89 ac be 96 80 2b 3e b9 39 60 be 22 cb ba bd
       -0.3369896 0.1674827 -0.2189702 -0.09120776
0000d0 4b 13 9f 3e 4e ec 06 3e 5a 1f 21 be 8e 74 18 3e
       0.31069407 0.1317608 -0.15734616 0.14888212
0000e0 c7 e4 49 3d 79 05 11 be 37 95 56 be 82 6f ac bc
       0.049290445 -0.14162244 -0.20955358 -0.021049265
0000f0 7f e2 6f be 5c ad 92 bd b0 a8 86 3b d4 4b c2 3c
       -0.23426245 -0.07161972 0.0041094646 0.023717798
000100 c5 9d 7d be 18 c7 7b bd 2a 6c 0a 3d 62 e2 70 be
       -0.24767216 -0.061469167 0.03379456 -0.23523858
000110 da 3d 2f be 1e 33 7a be 91 3e bf 3d e8 82 20 bd
       -0.17113438 -0.24433562 0.093381055 -0.039187342
000120 1e 72 04 bc 10 be 40 3e 43 4d 88 3e ba 2e 94 be
       -0.008083848 0.18822503 0.26621446 -0.289419
000130 4f e5 b2 3d 5f c5 97 be 35 12 bb 3b 07 2c 91 be
       0.087351434 -0.2964277 0.0057089576 -0.28353903
000140 64 3d 06 be df 1d 99 3d ad cd ec bd d3 e7 7c bd
       -0.13109356 0.074764006 -0.11562667 -0.061744522
000150 7f 92 89 be 33 f8 5d 3e b2 ea 7b bc 49 8f 37 3c
       -0.2686958 0.21676712 -0.01537578 0.011203595
000160 92 df a5 3d ca f6 10 3d 66 fe 13 be 0c e9 81 be
       0.08099283 0.035391606 -0.14452514 -0.25373113
000170 19 8c e6 3d ca 6e 79 bd 83 cd 95 be 4a 4a 8b bd
       0.1125719 -0.060896672 -0.29258355 -0.06801279
000180 df 30 24 be 6c 60 bb bc 85 44 f1 be 6a 7a 14 3e
       -0.16034268 -0.022873126 -0.4712259 0.14499822
000190 4a 5a ba 3e 05 77 28 be ef 19 9b be b1 52 e3 3d
       0.3639701 -0.16451652 -0.30293223 0.110997565
0001a0 23 96 1b be 2f 7c 1b 3d 22 00 02 3e 61 aa d1 3e
       -0.15193991 0.037960228 0.12695363 0.409503
0001b0 b5 98 1a be a2 b7 f2 3e 3c 8a 48 be 65 98 a0 3c
       -0.15097316 0.47405726 -0.19583982 0.019603917
0001c0 2b 9d 54 3e 88 bb 9f 3d 22 08 9d 3d b2 1e 44 3e
       0.2076308 0.077994406 0.07667567 0.19152334
0001d0 61 d4 4b 3c 90 bb 43 be 9a 38 9c 3e 31 94 89 be
       0.012440772 -0.19114518 0.30511934 -0.26870874
0001e0 94 d3 54 3e 76 48 dc 3d 2f bc 3e be 3d 23 9f bd
       0.20783836 0.10756008 -0.18626474 -0.07770393
0001f0 1a 70 60 3e e3 de 62 3d 83 c5 33 3e e6 40 ac be
       0.21917763 0.055388343 0.17555813 -0.33643264
000200 bc bc 3a 3e 22 2c 84 be 9a ba f4 bc af 46 ec bd
       0.18236059 -0.2581492 -0.029874135 -0.11536919
000210 c4 d7 ab be 22 d4 9d 3e 7e ec 98 3d a8 a5 9b bd
       -0.33563054 0.30825907 0.07466982 -0.07599956
000220 8d 9a e7 3d 5d 73 02 bd 05 3a 59 3e c3 6c 92 3d
       0.11308775 -0.0318483 0.21213539 0.07149651
000230 29 0a 15 be 03 1f 11 3e ae 8a 3b 3e ca 33 97 bc
       -0.14554657 0.14171986 0.18314621 -0.018457312
000240 cc 4e 34 be 82 5d 5c be 91 a9 8c 3d 59 4d b8 bd
       -0.17608184 -0.21520045 0.0686828 -0.08999128
000250 05 9f 47 3e 9f af 51 be 27 23 9e 3e fc 25 3c bd
       0.19494255 -0.2047715 0.30886194 -0.045934662
000260 6f 0b 25 be 66 ff 50 3e c3 1b ce bd b6 f2 58 be
       -0.16117643 0.20409927 -0.10063889 -0.21186337
000270 d9 0a 8a 3d 8c 98 f2 bd f6 9d 85 be 15 22 ec 3c
       0.0674035 -0.11845502 -0.26097077 0.028824845
000280 e3 4a cf 3e 48 72 6a 3e 72 1e 91 bd c0 ad b5 bb
       0.40486822 0.22895157 -0.07085885 -0.0055443943
000290 7d e8 93 be cd 3a 6f 3d d5 f1 68 3e 54 21 ac be
       -0.28888312 0.058405686 0.22748502 -0.33619177
0002a0 a7 10 64 3e 52 ac b8 bd fe ca 46 be e4 cc 63 be
       0.22271977 -0.090172425 -0.19413373 -0.22246128
0002b0 90 6c 20 be f3 24 23 be 04 08 bf be 2a ec 26 be
       -0.15666413 -0.15932064 -0.37310803 -0.16301027
0002c0 df 0d a9 bd ba 86 f3 bc bc a4 45 be aa 8d e1 bb
       -0.08254599 -0.029727329 -0.19301122 -0.0068833428
0002d0 75 60 41 3e ff 11 13 3c a3 d2 00 be 0c d6 09 3d
       0.18884452 0.008976459 -0.12580352 0.033651397
0002e0 b5 5f 97 be ce d6 73 be 9e 6d 36 be 27 6f b1 3e
       -0.29565206 -0.2381241 -0.17815253 0.34655115
0002f0 f4 a8 1d 3e f0 25 6f 3e 55 0f 73 3d 11 a9 68 3e
       0.15396482 0.23354316 0.059340794 0.22720744
000300 78 88 a9 3d f1 df cf 3d 9a 29 19 3c 77 e1 42 3e
       0.082779825 0.10150135 0.0093482975 0.1903132
000310 26 45 8a 3e 4a 2f ab be 1e 11 3f bd 96 6f a4 3d
       0.2700588 -0.33434516 -0.046647184 0.08029096
000320 79 c8 e8 3d dd 6e 34 bd 0f ee 47 be a0 08 c8 bc
       0.11366362 -0.04405104 -0.19524406 -0.024418175
000330 9e 70 c7 3d f3 a7 6b be f3 3a fe bd bf ea e6 be
       0.09738277 -0.23013286 -0.124135874 -0.45100972
000340 01 82 39 be 67 f1 b2 3d 6e 62 8d 3e 1d 04 17 3e
       -0.18115999 0.0873745 0.27614158 0.14747663
000350 29 e2 33 3e 44 46 83 3e f9 b5 4b be f6 ab de 3d
       0.17566742 0.25639546 -0.19893636 0.10872643
000360 8b 01 1a 3e 26 98 be 3d 2c 43 de bc 49 54 5c bd
       0.15039651 0.09306364 -0.02713164 -0.053791318
000370 4f 60 66 3e 62 33 77 be e0 1b a5 be 9d f2 7d be
       0.22497676 -0.24140695 -0.3224783 -0.24799581
000380 6f cd d4 3d d3 b3 8c bd b4 2d 0a 3e 6b 75 81 be
       0.10390746 -0.06870236 0.13493997 -0.25284895
000390 49 7f 30 bb f0 30 8d 3e a3 89 e5 bc 58 33 bc bd
       -0.0026931337 0.275764 -0.028019732 -0.091894805
0003a0 eb 6f 64 be d6 42 e8 3a ca 8c bd bc 0a fb 66 3e
       -0.22308318 0.0017720114 -0.023138423 0.22556701
0003b0 e4 00 c6 bc 1d 46 be be 3b 93 55 bd 93 52 df bc
       -0.024170347 -0.37162867 -0.052142363 -0.027261054
0003c0 0f 1d b1 be 96 b4 ce bd 5e 24 d7 bc 33 cd 00 be
       -0.34592482 -0.10093038 -0.026262458 -0.12578277
0003d0 eb b1 47 be 39 b6 ff bd 98 29 2c be e0 e6 03 bb
       -0.19501464 -0.12485928 -0.16812742 -0.0020126626
0003e0 6d 39 4b 3d 5c e6 7d 3c c3 c0 e1 be f4 4f aa bd
       0.049615312 0.0154968165 -0.44092378 -0.08316031
0003f0 4b 60 12 3e 63 99 c8 bd b9 86 6d be f9 89 a9 bd
       0.14294545 -0.09794881 -0.23195924 -0.08278269

encoder.blocks.1.attn.proj.weight f4 [16, 16]
000000 a9 29 45 3e 74 af 88 bd 0c bc a6 3e 92 53 5a be
       0.19254173 -0.0667409 0.32565343 -0.21320942
000010 3a a3 10 be 4a 44 d9 be 3c 3e 9a be a1 1a 28 be
       -0.14124766 -0.42434913 -0.30125606 -0.16416408
000020 da 50 b2 3e 2f 3b 3c 3e c4 29 b7 be b3 36 ab 3e
       0.3482731 0.18381952 -0.35774052 0.3344017
000030 b5 9e 7c be d7 e5 49 be f4 41 35 be 11 ed 97 3b
       -0.24669917 -0.19716583 -0.1770094 0.004636415
000040 72 7b 28 3c a5 32 a2 be 43 cf ba 3d eb a9 94 3d
       0.010283338 -0.31679264 0.09121563 0.07258972
000050 53 2b 11 3e 48 45 bd 3d 1b 2c cd be 9e c6 af 3e
       0.14176683 0.0924173 -0.40072712 0.3433122
000060 39 33 69 be bd e2 60 be 33 42 30 3d 60 de d7 3e
       -0.22773446 -0.21961494 0.043031882 0.42161846
000070 0e dd 79 be a8 6f 89 bd d4 03 d0 bd 9c 43 a9 be
       -0.24400732 -0.0671075 -0.1015698 -0.33059394
000080 55 c2 04 be b5 52 66 ba 16 fe 7c 3e c6 65 6f 3e
       -0.12964757 -0.0008786128 0.24706301 0.23378667
000090 ce ba c0 3d 71 b9 b3 3e df 4d a2 3d 1b c0 5e be
       0.0941063 0.35102418 0.07925009 -0.2175297
0000a0 80 18 ba 3e d5 a1 6c be b9 0a 32 be 3b 7e 84 3e
       0.36346817 -0.23108609 -0.17386903 0.25877556
0000b0 aa 5d 71 be 68 08 cf 3d fe 01 e4 be a3 2b ba be
       -0.23570886 0.10109025 -0.4453277 -0.36361417
0000c0 f4 fb 7e 3a 1d 81 99 be 89 cf 81 be 9d 34 fd bd
       0.0009726875 -0.29981318 -0.2535365 -0.12363551
0000d0 05 2f 9f be ad 71 a0 3e d6 52 a5 3e 89 14 d0 3e
       -0.3109056 0.31336728 0.3228976 0.40640667
0000e0 54 4b 62 3e 7a 7e 68 3e f2 d5 a0 be 37 e2 88 be
       0.22099048 0.22704497 -0.31413227 -0.26735088
0000f0 f7 0d 8d 3e 13 3a c2 bd 36 24 7b be 2f 35 8b 3d
       0.27549717 -0.09483733 -0.24525532 0.06797253
000100 53 55 84 3d 6c 27 c5 be b1 b7 e5 3d 8c 88 98 bd
       0.06461587 -0.3850664 0.11216677 -0.07447919
000110 48 dd b1 3e 15 5b cd bd 61 07 a8 3e ef b8 a5 3e
       0.34739137 -0.10027138 0.3281813 0.32367656
000120 e0 3f b9 3d 3e 54 66 be c5 39 92 3e 68 27 ab 3d
       0.09045386 -0.22493073 0.285597 0.083571255
000130 de 06 34 be 4d 96 c7 bc 27 9c c5 be 38 8a 8f 3e
       -0.17580745 -0.024363661 -0.38595697 0.2803514
000140 b9 c0 dc 3d aa e6 4c be 70 49 92 3e be 8b 94 be
       0.107789464 -0.20009866 0.28571653 -0.29012865
000150 8a c5 a5 3c 0a 43 c8 bd b8 c1 05 bd 71 66 a6 3e
       0.020235796 -0.09778412 -0.032655448 0.32500032
000160 6a bd 2f be 6c ae 2a 3e b5 83 d7 3e 0d 30 e0 3d
       -0.171621 0.16668099 0.42092672 0.10946665
000170 87 7a dc be a5 17 96 3e 2b b4 2e be d4 60 98 3d
       -0.4306223 0.29314914 -0.17060916 0.074403435
000180 35 f0 c6 3e 5f f9 63 3c ea e4 9f be 0d 6d 93 be
       0.38855138 0.013914435 -0.31229335 -0.28794137
000190 48 1c b0 3d a8 96 f2 be f7 da c0 3d 30 9c df bd
       0.08599144 -0.47380567 0.09416764 -0.10918462
0001a0 a9 87 9d be 5d 02 5a 3e 13 89 b4 3c 7a c3 c7 be
       -0.30767563 0.21289964 0.022038018 -0.39016324
0001b0 34 61 90 bd b5 52 d4 bc 1f 17 c9 3d c2 20 f8 bd
       -0.0704979 -0.025918344 0.09818863 -0.12115623
0001c0 0f e3 e4 bd c8 f7 81 be f5 ff c5 3d be 8a 0a 3e
       -0.111761205 -0.25384355 0.096679606 0.13529488
0001d0 0f 5e 8b bd 8c 16 75 3e e0 99 5a 3e ba 25 85 be
       -0.0680505 0.23934382 0.21347761 -0.26005346
0001e0 ca ac e2 3e a3 3f a4 3e a9 6f 46 bd cb fb c0 bd
       0.44272453 0.320798 -0.04844633 -0.09423026
0001f0 93 42 0b 3e 4b c9 e4 3c 8a 2a 36 bc ee 4c 01 3e
       0.13599615 0.027928015 -0.011118541 0.12627003
000200 b1 0f 65 bd ca b9 fc bd c2 95 e1 be 81 45 ab 3e
       -0.055923168 -0.12340124 -0.4405957 0.33451465
000210 30 95 d9 3d 6d 13 d8 bd 11 52 66 3d ec c0 c2 be
       0.106241584 -0.1055058 0.05623061 -0.38037813
000220 c1 f7 9d 3e 89 88 1f be 37 6f 5a 3e 15 2a a3 be
       0.30853084 -0.15579428 0.21331488 -0.31868044
000230 a9 be bc be ee 55 03 be 6f f7 9a be c8 1a cc be
       -0.36864212 -0.12825748 -0.30266902 -0.39864182
000240 55 0b da 3e e2 b0 7c 3e 0b 70 20 3e 03 a2 6b be
       0.4258677 0.2467685 0.15667741 -0.23011021
000250 88 41 97 be eb 97 4a be c7 17 a6 be 38 ed 4d 3d
       -0.29542184 -0.19784515 -0.32440016 0.050275058
000260 3e d9 c6 3d f7 17 f1 be d4 85 cd 3e e6 67 88 3d
       0.097094044 -0.47088596 0.40141165 0.06660442
000270 1d df ff 3d 29 2b b5 bd 46 00 7f bc fa 87 94 be
       0.12493727 -0.08846123 -0.01556403 -0.29009992
000280 11 12 e9 3d 9e ea a5 3e 27 fb b1 bd 13 4c 5b bd
       0.11380399 0.3240556 -0.08690482 -0.053539347
000290 2b 05 c9 3d 0f 3c 93 3e bf 20 82 be dc b0 9b 3c
       0.09815439 0.2875676 -0.25415608 0.019005232
0002a0 38 2d d3 be 2b fb a2 3e 6a 7d f9 3d 0e 48 7c be
       -0.41245437 0.3183225 0.12182124 -0.24636862
0002b0 5c 2c 2a be d7 57 4b bc 40 d3 40 be 0a 60 a1 be
       -0.16618484 -0.012411079 -0.18830585 -0.31518584
0002c0 70 5a 00 be 36 f1 ed 3a 5e 54 44 3e 0c 01 ad be
       -0.12534499 0.0018153552 0.19172809 -0.3378986
0002d0 94 d4 ac 3e 5f 25 89 3e 7c d3 af bd d9 b0 49 be
       0.33755934 0.26786324 -0.08585259 -0.19696368
0002e0 82 a5 37 bc 11 1b ca be 2f 13 7e 3d 99 83 ac 3d
       -0.011208894 -0.39473775 0.062030014 0.08423538
0002f0 88 f0 8a bc 03 f3 bc be d6 c4 a3 3e 34 04 e1 bd
       -0.016960397 -0.36904153 0.3198611 -0.1098713
000300 9a 77 a0 3e d3 6d c1 3e c2 e2 98 3e cc 9c 5c be
       0.3134125 0.37779102 0.29860502 -0.21544188
000310 a9 e1 ac be 89 82 73 3e e9 b9 be be 5f 87 bb be
       -0.33765915 0.23780264 -0.37251213 -0.36626717
000320 50 ee b7 3d e4 0a ad be 67 1b af be c1 86 af 3d
       0.089810014 -0.3379737 -0.34200594 0.08570624
000330 c8 36 14 bc f6 a8 fe 3e 6a f4 04 3d a6 53 4d bd
       -0.009046264 0.49738282 0.032459654 -0.0501286
000340 6e 4d 7a bd 3f 7a 6b 3e 49 b3 91 bd 91 d1 36 bd
       -0.061109 0.22995852 -0.07114274 -0.04463345
000350 ad 95 2e 3b 89 bb 38 3e 41 50 b4 be 43 c1 7f be
       0.0026639507 0.18040289 -0.3521748 -0.24976067
000360 cf 6b 85 3b f9 1a cd be 13 28 1a bd a2 2b c1 3e
       0.0040716897 -0.4005964 -0.037635874 0.37728602
000370 a0 65 9d be 73 2b 80 3c 7e a7 be 3e ec 16 bf 3e
       -0.30741596 0.015645718 0.3723716 0.37322176
000380 4e 07 d1 be 51 e8 a5 be 4e cd 70 be a2 26 a8 3e
       -0.40825886 -0.32403806 -0.23515818 0.32841974
000390 da e4 a5 be 5c 49 6c 3e f7 c8 9a be 49 8b 2c be
       -0.32401162 0.2307486 -0.3023145 -0.16850008
0003a0 d3 dd b6 be 2e 7b d2 3d f2 dc af be b8 9d 51 be
       -0.35716113 0.10277401 -0.34348255 -0.20470321
0003b0 af bd 73 be 99 8a 19 3e 98 29 f9 3c e6 db 44 3e
       -0.23802827 0.14994277 0.030415341 0.1922451
0003c0 74 a1 d3 3e f5 a6 d7 3d 59 80 2c bd f4 dc d4 bb
       0.41334116 0.105298914 -0.04211459 -0.006496066
0003d0 74 68 8c 3d 3b ec ac 3e 4f 13 e5 3e 28 0a 6f be
       0.0685586 0.3377398 0.44741294 -0.23343718
0003e0 6f 10 0a 3e ce 2b 6d 3e af af 4f be fa 3e 13 be
       0.13482831 0.23161241 -0.20281862 -0.14379492
0003f0 57 79 15 3e 51 ef 01 3d e7 a6 55 3e 23 95 36 bd
       0.14597069 0.03172237 0.2086445 -0.04457582
