Checkpoint/dict_9.pth (torch, 108719 bytes, 64 tensors)

encoder.cls_token f4 [1, 1, 16]
-0.8990348 -0.79233205 0.96827954 -0.5764444 0.1929566 0.20951429 -2.1573386 -1.0001438
-0.37686425 -1.0472168 -0.2636113 0.045955993 -0.8088495 1.3409473 0.5711009 0.14662123
00000000: 2527 66bf 46d6 4abf 2be1 773f dc91 13bf
00000010: 6a96 453e ea8a 563e d611 0ac0 b604 80bf
00000020: 5af4 c0be 330b 86bf 0ff8 86be 5a3c 3c3d
00000030: c310 4fbf 29a4 ab3f ab33 123f e023 163e

encoder.patch_embed.weight f4 [16, 5]
0.27579123 -0.22768478 0.14350723 0.19516012 0.19639106 0.30076832 -0.3661044 0.38408265
-0.097866334 0.13477378 -0.038953535 -0.20778525 -0.3584708 -0.47637907 -0.4505846 -0.33598664
0.2462025 0.021785518 -0.10943723 0.2387799 -0.31210658 0.527594 0.55477613 0.0037954883
0.30598986 -0.42694703 -0.5769306 -0.2679077 0.46586958 -0.1989329 0.23184775 0.15871762
-0.10729569 -0.026922809 -0.17175862 0.06364343 -0.41828045 -0.1572102 0.3444483 -0.26297504
-0.3541896 -0.20511204 -0.06349436 -0.3148548 0.00062585395 -0.012946711 0.11410715 -0.38580784
0.57651526 -0.22736397 0.188373 -0.19770329 -0.6574709 0.35969394 -0.19318876 0.039171778
-0.24875109 0.572034 -0.36752948 0.25213358 -0.090183415 -0.05775012 0.00015051007 0.2657852
-0.27752644 -0.059050187 -0.31516933 0.3140824 -0.08101096 -0.105296254 0.293442 0.28470743
0.27627373 -0.081846505 0.23990789 0.01964453 0.33783898 -0.4603622 -0.3317842 -0.33332878
00000000: 8234 8d3e 3326 69be 8ff3 123e 0ed8 473e
00000010: bd1a 493e 4efe 993e 0972 bbbe 7ba6 c43e
00000020: 256e c8bd 2302 0a3e be8d 1fbd a8c5 54be
00000030: 7c89 b7be f5e7 f3be 06b3 e6be 7106 acbe
00000040: 821c 7c3e 8b77 b23c a020 e0bd b882 743e
00000050: 6fcc 9fbe 6610 073f cf05 0e3f babd 783b
00000060: b4aa 9c3e cd98 dabe b9b1 13bf 332b 89be
00000070: 7586 ee3e 11b5 4bbe 7f69 6d3e df86 223e
00000080: d8bd dbbd 398d dcbc 7ee1 2fbe 7d57 823d
00000090: db28 d6be b6fb 20be 875b b03e aaa4 86be
000000a0: 5758 b5be e408 52be 5509 82bd a634 a1be
000000b0: 5910 243a 711e 54bc 02b1 e93d 9b88 c5be
000000c0: 8196 133f 1ad2 68be dae4 403e bb72 4abe
000000d0: 0350 28bf ce29 b83e 46d3 45be 9672 203d
000000e0: 9bb8 7ebe d270 123f d32c bcbe a717 813e
000000f0: 15b2 b8bd 648b 6cbd 3dd2 1d39 ff14 883e
00000100: f217 8ebe 9cde 71bd e05d a1be 69cf a03e
00000110: 13e9 a5bd 90a5 d7bd 083e 963e 2cc5 913e
00000120: c073 8d3e 249f a7bd 6aaa 753e 91ed a03c
00000130: 3bf9 ac3e 98b4 ebbe 9edf a9be 12aa aabe

encoder.patch_embed.bias f4 [16]
-0.025800968 -0.072689794 0.027083859 -0.0075212843 0.036233835 -0.008279391 0.030589206 -0.120422356
0.044225316 0.010582011 0.053238813 -0.061172392 0.068358146 -0.009554165 -0.11137957 -0.0027010606
00000000: 8d5c d3bc 63de 94bd f8de dd3c 1b75 f6bb
00000010: ee69 143d 48a6 07bc 3796 fa3c ff9f f6bd
00000020: 9b25 353d 2c60 2d3c f110 5a3d e78f 7abd
00000030: 5bff 8b3d 1389 1cbc f91a e4bd 4704 31bb

encoder.blocks.0.norm1.weight f4 [16]
1.0110618 1.0775259 0.994802 1.0271549 0.94115084 1.0375096 0.91934305 0.99925435
1.040144 1.0802413 1.0442648 0.9897606 0.9570999 0.94820726 1.0367993 0.9866985
00000000: 796a 813f 5eec 893f 58ab 7e3f d079 833f
00000010: 43ef 703f 1dcd 843f 115a 6b3f 22cf 7f3f
00000020: 7023 853f 5945 8a3f 78aa 853f f360 7d3f
00000030: 8004 753f b6bd 723f d7b5 843f 4698 7c3f

encoder.blocks.0.norm1.bias f4 [16]
-0.038520444 0.01265798 0.037934445 -0.020572938 0.026265878 -0.016644225 0.05043026 -0.07172181
0.017393893 -0.032065593 0.018223729 -0.027363732 0.009775947 0.044844836 -0.014151456 0.0037886705
00000000: 9dc7 1dbd 6b63 4f3c 2661 1b3d 9488 a8bc
00000010: 8a2b d73c 7859 88bc f68f 4e3d e2e2 92bd
00000020: a37d 8e3c 3657 03bd ee49 953c e829 e0bc
00000030: 4b2b 203c 38af 373d 82db 67bc 584b 783b

encoder.blocks.0.attn.qkv.weight f4 [48, 16]
-0.37262806 -0.070191234 0.2582623 0.41725335 -0.21936026 -0.045446318 -0.08244625 0.30098242
0.078671835 -0.36178377 0.023578549 0.40239778 -0.36114275 0.36710915 -0.36038947 0.0104316985
0.02684255 0.13084997 -0.4135256 0.13276026 0.18578942 -0.19711322 0.3057925 0.22126335
-0.15474695 -0.26979357 -0.108832106 -0.1570657 -0.047781926 -0.028506547 0.10656262 0.02829947
-0.2453218 -0.12912443 0.037229992 -0.19074392 0.25489405 0.16749176 -0.2749641 -0.1160071
-0.24001496 -0.20046975 -0.23722626 -0.14992289 -0.29513788 0.3431408 0.07753177 0.06789007
0.24684982 0.06780067 0.047711946 0.28722823 0.050686568 0.32065618 -0.033839326 -0.21052544
-0.046096686 0.17155692 -0.066476375 0.31206706 0.16151163 -0.0979235 0.003106205 0.31097376
-0.1524823 -0.2519983 -0.14395231 -0.17140312 0.24904828 -0.18794525 0.12466046 0.20751885
0.21613511 -0.19148044 0.19942968 -0.260776 0.029574692 -0.070732065 0.081225604 0.12329996
-0.32840478 0.22167666 0.20817953 -0.08459429 -0.15924683 0.15697101 0.011481348 0.051746234
0.16905333 0.21862395 -0.2689222 -0.075827524 -0.336304 0.003024705 -0.21240151 -0.0317779
0.2568243 0.23574947 0.39914587 0.034410235 0.0415527 -0.17644839 0.15514413 -0.29711306
0.2646653 -0.2655038 0.09239281 -0.25228062 0.096870884 -0.32255894 0.2932321 0.04539961
-0.24104479 -0.02864049 0.1847195 -0.13549392 -0.17493199 0.08881255 0.06369054 0.2600299
0.30374223 0.2345644 -0.039552283 -0.23177074 -0.03234565 -0.2363003 -0.2813535 -0.17902017
0.3508427 -0.0032892327 0.110590644 -0.070542544 0.4233669 -0.021421105 0.37170193 -0.22908035
-0.19136819 -0.15994412 -0.25844955 -0.2701915 -0.033978224 -0.20565891 0.21346135 0.13847424
0.25294903 0.21508366 0.0665558 -0.06135572 -0.069165565 -0.10714717 -0.24507037 0.08120865
-0.16821244 0.2244201 0.0934549 -0.23977011 0.2457236 0.06290408 0.31742188 0.09885776
-0.2477229 0.07426237 0.05267775 0.090834424 0.053454082 0.23513213 -0.075409904 -0.14171757
-0.19619851 -0.24422152 0.08581582 -0.049454343 0.26852572 0.15089083 0.1462031 -0.2805825
-0.10060416 0.015390666 -0.18558043 -0.11391235 0.06257543 -0.15501945 0.26762727 -0.10968657
-0.14282416 -0.18541351 -0.16066323 -0.12576531 -0.01824801 0.11113329 -0.17229877 0.043343857
0.019986793 -0.031765252 -0.30471307 0.12750585 -0.08010661 0.012592653 -0.13558902 -0.17733696
0.14771909 -0.104886204 -0.297601 0.14590488 -0.2644261 -0.045218058 -0.27612284 0.047798354
0.25958598 0.035494808 -0.19233191 0.073502794 -0.12484359 0.08056176 -0.104065605 -0.22752757
-0.12565069 -0.01592153 -0.117385685 0.0060822107 -0.10031818 0.2142904 -0.16270587 0.25627005
0.0028492894 0.15711188 0.1812158 -0.18085544 0.015016368 -0.22295079 -0.16970922 0.023796892
0.26312438 -0.15796548 -0.0546474 0.26478148 -0.1219476 0.13110162 -0.14414133 0.15303674
-0.28130037 0.11776617 -0.054310124 -0.049207523 0.026468465 -0.10927604 0.026817694 -0.18852958
-0.283227 0.17927982 0.10633368 -0.12948415 0.16511896 0.20341586 -0.22235212 -0.20395835
00000000: 1bc9 bebe 6cc0 8fbd f53a 843e 3ba2 d53e
00000010: fa9f 60be eb25 3abd 94d9 a8bd 5e1a 9a3e
00000020: b31e a13d b93b b9be cd27 c13c 1507 ce3e
00000030: b4e7 b8be bbf5 bb3e f884 b8be b7e9 2a3c
00000040: e8e4 db3c 89fd 053e a1b9 d3be 4ef2 073e
00000050: 953f 3e3e 0cd8 49be d690 9c3e dc92 623e
00000060: fc75 1ebe 6222 8abe 5ee3 debd d5d5 20be
00000070: fbb6 43bd 9086 e9bc 813d da3d 4ad4 e73c
00000080: a335 7bbe 3239 04be 7a7e 183d 6052 43be
00000090: 7981 823e f682 2b3e 18c8 8cbe 2195 edbd
000000a0: 7bc6 75be f147 4dbe 71eb 72be 6385 19be
000000b0: 501c 97be 27b0 af3e fac8 9e3d f309 8b3d
000000c0: 33c6 7c3e 14db 8a3d 9a6d 433d 940f 933e
000000d0: b89c 4f3d 0c2d a43e 1b9b 0abd fb93 57be
000000e0: e1cf 3cbd 9eac 2f3e c424 88bd 41c7 9f3e
000000f0: 4e63 253e 1e8c c8bd 7991 4b3b f437 9f3e
00000100: 5224 1cbe ec05 81be 3c68 13be 4d84 2fbe
00000110: 8306 7f3e b874 40be fc4d ff3d d27f 543e
00000120: 8652 5d3e 7313 44be 4b37 4c3e 6f84 85be
00000130: a046 f23c f9db 90bd 9c59 a63d b084 fc3d
00000140: ac24 a8be 35ff 623e 042d 553e c53f adbd
00000150: 9a11 23be 02bd 203e 441c 3c3c dcf3 533d
00000160: 511c 2d3e f5de 5f3e 2cb0 89be 764b 9bbd
00000170: 0a30 acbe 213a 463b c87f 59be 8b29 02bd
00000180: 7a7e 833e 4f68 713e d95c cc3e bff1 0c3d
00000190: 2a33 2a3d e3ae 34be 1ade 1e3e 341f 98be
000001a0: 3682 873e 1df0 87be 7138 bd3d ed2a 81be
000001b0: 3e64 c63d 7226 a5be 8522 963e f1f4 393d
000001c0: 72d4 76be 769f eabc 1c27 3d3e ebbe 0abe
000001d0: 5f21 33be 5be3 b53d 3070 823d a422 853e
000001e0: 1a84 9b3e a631 703e 9301 22bd 4f55 6dbe
000001f0: df7c 04bd b5f8 71be 910d 90be 1051 37be
00000200: a8a1 b33e 2b90 57bb 597d e23d 9c78 90bd
00000210: 8cc3 d83e 507b afbc b74f be3e 0a94 6abe
00000220: 06f6 43be 64c8 23be 8053 84be 8a56 8abe
00000230: c02c 0bbd 4098 52be 9d95 5a3e 31cc 0d3e
00000240: 8982 813e e43e 5c3e 684e 883d 2350 7bbd
00000250: ada6 8dbd fa6f dbbd baf3 7abe b850 a63d
00000260: e23f 2cbe 62ce 653e 4865 bf3d 4c86 75be
00000270: f89e 7b3e dbd3 803d 1f85 a23e f075 ca3d
00000280: 12ab 7dbe df16 983d a0c4 573d 6607 ba3d
00000290: abf2 5a3d 7ac6 703e 8270 9abd 691e 11be
000002a0: 43e8 48be 3515 7abe 34c0 af3d a390 4abd
000002b0: 347c 893e 2083 1a3e 44b6 153e 82a8 8fbe
000002c0: 8e09 cebd 2229 7c3c cc08 3ebe e14a e9bd
000002d0: 8c27 803d 6bbd 1ebe 7106 893e 5aa3 e0bd
000002e0: 7f40 12be 0add 3dbe e784 24be 9fc8 00be
000002f0: da7c 95bc da99 e33d 176f 30be 5489 313d
00000300: 58bb a33c 481c 02bd 5a03 9cbe e590 023e
00000310: ef0e a4bd 6a51 4e3c d9d7 0abe d297 35be
00000320: ac43 173e 94ce d6bd 295f 98be 1768 153e
00000330: dc62 87be 9236 39bd f95f 8dbe 35c8 433d
00000340: 74e8 843e 0163 113d a8f2 44be a288 963d
00000350: ffad ffbd 90fd a43d 5920 d5bd fdfc 68be
00000360: 93aa 00be de6d 82bc e867 f0bd 484d c73b
00000370: 9e73 cdbd f16e 5b3e 5e9c 26be d435 833e
00000380: 25bb 3a3b f0e1 203e a290 393e 2b32 39be
00000390: 3607 763c 364d 64be 41c8 2dbe b3f1 c23c
000003a0: 3db8 863e b4c1 21be f4d5 5fbd 7091 873e
000003b0: aabf f9bd 813f 063e c999 13be aab5 1c3e
000003c0: 9a06 90be 642f f13d 4b74 5ebd d48d 49bd
000003d0: 65d4 d83c 1ecc dfbd c8b0 db3c e60d 41be
000003e0: 2103 91be 2195 373e 79c5 d93d 7e97 04be
000003f0: f214 293e 3f4c 503e 46b0 63be 75da 50be

encoder.blocks.0.attn.proj.weight f4 [16, 16]
0.20259212 -0.021249767 -0.0062067276 -0.26797548 -0.44867334 -0.28712893 -0.119706005 -0.33169958
0.3310615 -0.059573904 0.107073136 0.068218336 0.10381534 -0.1304549 0.24388272 0.40317133
-0.036801253 -0.095725685 -0.04903698 0.22816926 -0.0025619715 0.21060933 0.22596422 0.0015633632
-0.3530601 -0.41514635 0.26271236 0.30582765 -0.13485518 -0.19213548 0.14442301 0.43311828
-0.3517252 -0.39218196 0.07335579 -0.35774052 -0.38497287 0.105405584 0.48732096 -0.39810598
-0.12903237 -0.09048081 -0.021237772 -0.38149208 0.18074004 -0.12149506 0.10739226 0.11398825
0.24929583 0.37715003 -0.05651367 -0.02458595 0.4564469 0.34621593 0.25554553 -0.16270372
-0.3760728 -0.35253876 0.15967356 -0.36237842 0.25837693 0.035477046 0.0912951 -0.24007522
-0.12648669 0.265908 -0.17166752 -0.23423788 -0.17727298 0.054320138 -0.048120417 0.35914424
-0.046593286 0.021234253 -0.10737194 -0.18273127 -0.0898436 -0.21106659 -0.24711074 -0.1973887
0.11641552 -0.324663 -0.19886145 0.12913133 0.06700221 0.02003038 -0.24763376 -0.016566345
-0.16729993 -0.27654713 0.091938466 0.2293144 -0.02206495 0.3692924 0.32098213 -0.27334267
-0.39704606 -0.45703387 -0.13495585 -0.29341558 0.013911819 -0.375357 -0.22312075 -0.1295742
-0.0049237064 -0.19566423 0.36598292 0.1936839 -0.046988342 -0.26641795 0.2187836 0.49587363
-0.13182004 0.22245727 -0.36070687 -0.18039508 -0.032534964 -0.23979971 0.17554103 0.015336264
-0.22160845 -0.23741625 0.27928975 0.39870775 -0.29424682 0.27040768 -0.051940136 0.333974
-0.15694796 -0.23913704 -0.2660492 0.23524813 0.21360838 -0.05788123 0.36791328 0.21344662
0.10699318 0.33884284 0.16108352 -0.19730793 -0.26223806 0.2888633 -0.19346102 0.20296776
0.28716883 0.42836052 -0.15617876 0.31092268 0.25933537 0.2129577 0.1665757 -0.33027545
-0.043313444 0.14207569 -0.01721814 0.077399306 0.266475 0.110969864 0.20019528 0.23963115
0.25734833 0.037267804 -0.05810057 -0.10872859 0.0398784 0.06348981 0.14885147 -0.3466683
-0.13528422 0.059149712 0.0536668 -0.06844436 -0.14514197 -0.26867634 0.27608126 0.2081755
-0.118253455 -0.15204495 0.2783941 -0.32627085 0.28072336 0.048026588 -0.41385067 -0.19523185
-0.25962994 -0.18386859 -0.08811262 -0.45323443 0.09978771 0.35071886 -0.12887573 0.406009
-0.17095195 -0.3720092 0.09549808 -0.36373723 0.43706 0.114104085 -0.1033103 0.023494817
0.16862296 -0.08085364 -0.22285232 -0.031643927 0.3730087 -0.3196345 0.44370413 -0.02458
-0.34933656 -0.026616253 0.00052198506 0.13012041 0.13908228 0.17936726 0.42563727 -0.024765806
0.218429 0.27365485 -0.2950835 0.26944837 0.032885056 0.19200261 -0.26009923 -0.031134812
-0.09637291 0.27632532 -0.29239845 0.34559503 0.21915568 0.33692926 0.33973277 0.44173655
-0.13865066 -0.1711849 0.40716323 -0.08200044 -0.42528534 -0.109220356 0.39204556 0.22840045
0.4207198 0.10407459 -0.26869172 -0.04525473 -0.20759284 -0.35801855 -0.20056784 0.008297665
-0.2942734 -0.21393664 -0.17167881 -0.47344273 -0.009244312 0.00565611 -0.27701142 0.19174707
00000000: 4f74 4f3e fe13 aebc ce61 cbbb 1534 89be
00000010: 83b8 e5be 9002 93be 6c28 f5bd 87d4 a9be
00000020: e580 a93e c403 74bd 2949 db3d 0eb6 8b3d
00000030: 239d d43d f895 05be 64bc 793e 796c ce3e
00000040: e9bc 16bd d40b c4bd 00db 48bd 34a5 693e
00000050: c0e6 27bb f9a9 573e 2a63 673e c4e9 cc3a
00000060: 4bc4 b4be 108e d4be 3c82 863e 7195 9c3e
00000070: 7a17 0abe 2abf 44be a0e3 133e aec1 dd3e
00000080: 5315 b4be 13cc c8be 8f3b 963d c429 b7be
00000090: 2a1b c5be e2de d73d 2282 f93e 8cd4 cbbe
000000a0: 1021 04be 014e b9bd d6fa adbc ee52 c3be
000000b0: eb13 393e 67d2 f8bd 79f0 db3d ac72 e93d
000000c0: 6847 7f3e cf19 c13e e17a 67bd 7968 c9bc
000000d0: 68b3 e93e 3743 b13e ddd6 823e ce9b 26be
000000e0: 9d8c c0be f67f b4be 7781 233e aa89 b9be
000000f0: fb49 843e 6150 113d edf8 ba3d 47d6 75be
00000100: ba85 01be 1825 883e 9cc9 2fbe 0edc 6fbe
00000110: 0c87 35be cb7e 5e3d ea19 45bd c1e1 b73e
00000120: 9ad8 3ebd 75f3 ad3c d2e5 dbbd e81d 3bbe
00000130: ecff b7bd d721 58be 990a 7dbe 4320 4abe
00000140: 436b ee3d 3b3a a6be 56a2 4bbe 013b 043e
00000150: 7438 893d c016 a43c b493 7dbe 25b6 87bc
00000160: ac50 2bbe 9697 8dbe 3c4a bc3d 65d1 6a3e
00000170: 8ec1 b4bc e513 bd3e c557 a43e 92f3 8bbe
00000180: 9f49 cbbe 5800 eabe de31 0abe 913a 96be
00000190: 66ee 633c cb2e c0be c479 64be 19af 04be
000001a0: 0b57 a1bb 345c 48be 1d62 bb3e 1355 463e
000001b0: d976 40bd ef67 88be cf08 603e 26e3 fd3e
000001c0: d5fb 06be d7cb 633e 92ae b8be 7db9 38be
000001d0: 6243 05bd 0e8e 75be 07c1 333e f444 7b3c
000001e0: 53ed 62be 3f1d 73be 11ff 8e3e 6c23 cc3e
000001f0: 85a7 96be e072 8a3e 2ebf 54bd a4fe aa3e
00000200: f7b6 20be 57e0 74be 9a37 88be e3e4 703e
00000210: 28bc 5a3e de14 6dbd 215f bc3e c091 5a3e
00000220: 3e1f db3d cf7c ad3e 14f3 243e 170b 4abe
00000230: 1144 86be e4e5 933e a51a 46be c8d6 4f3e
00000240: cb07 933e 1252 db3e 53ed 1fbe 4231 9f3e
00000250: 9bc7 843e 9511 5a3e d292 2a3e dd19 a9be
00000260: 7069 31bd 4a7c 113e 0f0d 8dbc 8783 9e3d
00000270: 696f 883e 2b44 e33d feff 4c3e de61 753e
00000280: 29c3 833e 20a6 183d ddfa 6dbd 18ad debd
00000290: 8857 233d f206 823d 856c 183e 827e b1be
000002a0: f287 0abe f846 723d b8d1 5b3d 8e2c 8cbd
000002b0: 19a0 14be f28f 89be 865a 8d3e f52b 553e
000002c0: de2e f2bd acb1 1bbe ac89 8e3e f90c a7be
000002d0: f9ba 8f3e 87b7 443d 3ce4 d3be dcea 47be
000002e0: 37ee 84be 0c48 3cbe 6474 b4bd 580e e8be
000002f0: 805d cc3d 6c91 b33e 00f8 03be 69e0 cf3e
00000300: 070e 2fbe fd77 bebe 7f94 c33d c43b babe
00000310: 54c6 df3e 67af e93d 5a94 d3bd 3478 c03c
00000320: 7fab 2c3e 9896 a5bd 6633 64be 109d 01bd
00000330: fffa be3e 22a7 a3be 302d e33e ff5b c9bc
00000340: 3edc b2be 540a dabc d3d5 083a 493e 053e
00000350: 966b 0e3e 0dac 373e 21ed d93e a9e1 cabc
00000360: daab 5f3e 7d1c 8c3e 2f15 97be 23f5 893e
00000370: 7bb2 063d 559c 443e ba2b 85be 6f0e ffbc
00000380: 295f c5bd 837a 8d3e 40b5 95be d5f1 b03e
00000390: 596a 603e fe81 ac3e 74f1 ad3e 4b2b e23e
000003a0: 70fa 0dbe 184b 2fbe b377 d03e d9ef a7bd
000003b0: 00bf d9be ecae dfbd 32ba c83e cfe1 693e
000003c0: 9668 d73e 0f25 d53d f691 89be 065d 39bd
000003d0: 3893 54be 354e b7be a861 4dbe eef2 073c
000003e0: 01ab 96be 3512 5bbe 92cc 2fbe 1667 f2be
000003f0: 7475 17bc e456 b93b 71d4 8dbe 5859 443e

encoder.blocks.0.attn.proj.bias f4 [16]
-0.068817586 -0.00044181026 0.05909706 -0.016547581 0.005130145 -0.04239342 0.053165164 0.03579775
0.01609895 -0.034463238 0.010199008 -0.031894073 -0.0026035977 0.08277944 -0.03033182 -0.009782823
00000000: 3cf0 8cbd c5a2 e7b9 c20f 723d cb8e 87bc
00000010: c61a a83b b9a4 2dbd b7c3 593d a9a0 123d
00000020: f2e1 833c 5329 0dbd bd19 273c 5ca3 02bd
00000030: 1fa1 2abb 4488 a93d 707a f8bc 2248 20bc

encoder.blocks.0.norm2.weight f4 [16]
1.0321704 1.0705675 1.040715 1.0466394 0.9561157 1.0293467 1.0055882 1.0320996
0.9848119 1.0143731 0.9816287 0.9732928 0.98024964 0.9478965 0.9833322 0.95047396
00000000: 291e 843f 5b08 893f 2636 853f 48f8 853f
00000010: 00c4 743f a2c1 833f 1db7 803f d71b 843f
00000020: a21c 7c3f fad6 813f 054c 7b3f b829 793f
00000030: a4f1 7a3f 58a9 723f a9bb 7b3f 4352 733f

encoder.blocks.0.norm2.bias f4 [16]
0.0015511451 0.055089995 0.062109124 0.029780112 0.014514166 0.0043806164 -0.11770383 -0.02376068
-0.04105184 0.00736035 0.0412658 0.010240957 -0.0024970076 0.019992607 0.071614385 -0.03038379
00000000: cb4f cb3a 0ca6 613d 2366 7e3d 6cf5 f33c
00000010: d3cc 6d3c 468b 8f3b b50e f1bd c2a5 c2bc
00000020: f925 28bd 172f f13b 5406 293d b0c9 273c
00000030: d6a4 23bb 89c7 a33c 90aa 923d 6de7 f8bc

encoder.blocks.0.mlp.fc1.weight f4 [64, 16]
-0.16238573 0.08457988 0.2185988 -0.3588178 -0.16880152 -0.049379088 0.2728328 -0.036749538
0.10426947 0.102543436 -0.1387558 -0.2579395 -0.02647935 -0.31210673 -0.007001792 0.34690446
-0.21456651 -0.21981695 0.20914076 -0.037027292 -0.005712128 0.072410986 -0.059603676 0.088150606
0.108176045 0.14248319 -0.02479106 -0.10651027 -0.2249802 0.26904503 0.15388882 0.22346073
0.11828189 0.1915301 0.29138583 -0.09327298 -0.04613711 -0.21457928 -0.20881847 -0.3564416
-0.0060842126 0.059010938 -0.15066889 0.343215 -0.04330224 0.21634734 0.13036379 0.21925487
0.17333497 -0.27847964 -0.07315397 -0.20543192 -0.2717121 -0.006627061 0.092099115 -0.17578544
0.12667955 0.30356812 -0.206156 -0.14106584 0.06280997 -0.02292255 -0.25102818 0.032642096
-0.2646119 -0.16575749 0.22775508 -0.06206127 -0.29866317 0.12664801 -0.2510408 0.23196584
0.09563384 0.00967886 -0.261867 0.17350477 0.18683103 -0.23701684 0.14439163 -0.07750555
-0.06874686 0.30043396 -0.011010694 0.08290651 0.0036923194 -0.3024277 -0.053786315 -0.29848647
-0.3212388 -0.040981807 -0.3583229 0.023620876 0.10798539 -0.10938638 0.1775065 -0.110407256
0.122837394 -0.19074863 0.21656765 0.2759182 -0.2614765 -0.08108175 0.16075127 -0.059467655
0.04659547 0.34380502 0.040288866 0.26662076 0.15810674 -0.16513374 -0.041260008 -0.18659924
-0.024571355 0.22201209 -0.15111856 0.05125397 -0.24978907 0.166425 0.12753068 0.014929847
0.11023156 -0.13143314 0.1571332 -0.14056061 0.25907874 -0.060330518 0.12378252 -0.047229417
-0.032163855 -0.15869492 -0.055280156 0.2416031 0.2464817 0.22090697 -0.084873796 0.27257845
-0.061201338 0.35259652 -0.0693863 -0.17816335 -0.2159142 -0.049181145 -0.1868141 0.030940304
0.047435183 0.001239299 -0.19680552 0.035036407 0.09012138 -0.1513577 0.07119717 0.08343133
0.26478416 -0.26587757 -0.1964532 0.103006445 0.17669374 0.019249879 0.07928556 -0.21674074
0.024120087 0.15761605 -0.20282786 -0.37092483 0.083919704 0.08386773 -0.19355501 0.034340158
-0.26180294 0.091582045 -0.08251105 -0.078781284 -0.17187174 0.031312887 -0.023266125 -0.11270783
0.14998862 -0.057821117 0.17356497 -0.102123566 -0.19264673 -0.13818076 0.07821587 0.22532307
-0.058758866 0.118200175 -0.1663469 0.048084613 0.07513638 -0.068068035 -0.06324893 0.036463432
0.12150647 0.28740627 0.090860695 -0.22224149 -0.1780908 -0.28614902 -0.12478268 0.08490607
-0.30890656 0.26647726 0.23953323 -0.0032506003 -0.040899977 0.089541756 0.16304338 -0.08273199
-0.014674247 0.16298553 0.1417668 0.24506016 0.23470557 0.021897797 0.14104825 -0.14057225
-0.16882604 -0.09746996 0.0055181347 -0.103107624 -0.031423524 0.11290664 0.255016 -0.15804315
0.15308765 0.16915302 -0.23204297 0.13440672 -0.024725597 -0.12818 -0.05466601 0.13247173
0.21204059 -0.06649067 0.20827402 0.09900143 0.24088685 0.12393428 -0.054550312 0.013097695
0.0436703 -0.007986376 -0.099670015 -0.005920887 0.021654567 0.01998729 0.07910281 -0.027456695
-0.08473092 -0.14409153 -0.2209737 -0.19647846 -0.07336588 -0.3032499 -0.25783274 -0.09092504
00000000: 7248 26be 3738 ad3d 5dd8 5f3e f7b6 b7be
00000010: 4eda 2cbe ba41 4abd beb0 8b3e af86 16bd
00000020: 3b8b d53d 4b02 d23d 0016 0ebe a510 84be
00000030: 39eb d8bc 74cc 9fbe 4a6f e5bb 769d b13e
00000040: 53b7 5bbe b217 61be ff28 563e eea9 17bd
00000050: cd2c bbbb 364c 943d fc22 74bd 4e88 b43d
00000060: 678b dd3d 1de7 113e 9f16 cbbc 0e22 dabd
00000070: 3661 66be 45c0 893e 0895 1d3e e4d2 643e
00000080: c73d f23d 7720 443e 8630 953e e705 bfbd
00000090: 44fa 3cbd acba 5bbe 82d4 55be 837f b6be
000000a0: 135e c7bb 74b5 713d f248 1abe e0b9 af3e
000000b0: b15d 31bd 288a 5d3e 167e 053e 5984 603e
000000c0: b97e 313e e294 8ebe c0d1 95bd bf5c 52be
000000d0: d91d 8bbe d127 d9bb 769e bc3d 1901 34be
000000e0: 49b8 013e 486d 9b3e 8f1a 53be 9073 10be
000000f0: 83a2 803d 12c8 bbbc c486 80be b8b3 053d
00000100: 367b 87be 55bc 29be a138 693e f533 7ebd
00000110: 61ea 98be 04b0 013e 6b88 80be 7488 6d3e
00000120: addb c33d 1594 1e3c 6e13 86be 3cab 313e
00000130: a250 3f3e 8bb4 72be 66db 133e 3bbb 9ebd
00000140: 27cb 8cbd 7bd2 993e 3366 34bc e3ca a93d
00000150: d7fa 713b ced7 9abe 0a4f 5cbd 38d3 98be
00000160: 6979 a4be 8adc 27bd 1976 b7be 9180 c13c
00000170: 7227 dd3d f705 e0bd 44c4 353e 331d e2bd
00000180: 2c92 fb3d 9c53 43be e9c3 5d3e 2645 8d3e
00000190: 3fe0 85be 300e a6bd fb9b 243e 5b94 73bd
000001a0: e4da 3e3d 3607 b03e f005 253d 8482 883e
000001b0: bce6 213e d218 29be 4100 29bd df13 3fbe
000001c0: de49 c9bc 2357 633e d3be 1abe afef 513d
000001d0: b5c8 7fbe 516b 2a3e 6797 023e 519c 743c
000001e0: 16c1 e13d 6996 06be 87e7 203e 1fef 0fbe
000001f0: f8a5 843e 221d 77bd b181 fd3d a273 41bd
00000200: 3fbe 03bd ec80 22be 726d 62bd ce66 773e
00000210: b365 7c3e 7035 623e 50d2 adbd 678f 8b3e
00000220: 41ae 7abd 8887 b43e 681a 8ebd 7470 36be
00000230: 9d18 5dbe 2b72 49bd 324c 3fbe 8576 fd3c
00000240: 654b 423d f96f a23a 6387 49be 5682 0f3d
00000250: 8f91 b83d 83fd 1abe d2cf 913d 0cde aa3d
00000260: ca91 873e 1b21 88be 072b 49be 0bf5 d23d
00000270: 34ef 343e ecb1 9d3c 7860 a23d 49f1 5dbe
00000280: 7d97 c53c 1a66 213e 1bb2 4fbe dce9 bdbe
00000290: 18de ab3d d8c2 ab3d 4933 46be 44a8 0c3d
000002a0: 090b 86be 5e8f bb3d 8efb a8bd 1558 a1bd
000002b0: 25ff 2fbe f141 003d 9a98 bebc 5dd3 e6bd
000002c0: 9e96 193e d6d5 6cbd 04bb 313e 2926 d1bd
000002d0: 2f45 45be 427f 0dbe a42f a03d 17bb 663e
000002e0: 23ad 70bd ef12 f23d d756 2abe 5ff4 443d
000002f0: 1ae1 993d 4167 8bbd a888 81bd ae5a 153d
00000300: 62d8 f83d ea26 933e 2c15 ba3d 4693 63be
00000310: 6f5d 36be 2082 92be 108e ffbd 3ce3 ad3d
00000320: 0029 9ebe b56f 883e 3348 753e 0608 55bb
00000330: bc86 27bd ab61 b73d d8f4 263e 646f a9bd
00000340: 416c 70bc aee5 263e 512b 113e 0df1 7a3e
00000350: a856 703e 0263 b33c f46e 103e 2cf2 0fbe
00000360: bce0 2cbe 559e c7bd 78d1 b43b 172a d3bd
00000370: f4b5 00bd 993b e73d 7591 823e 10d6 21be
00000380: 02c3 1c3e 7336 2d3e ac9c 6dbe eaa1 093e
00000390: 568d cabc 9e41 03be 77e9 5fbd aba6 073e
000003a0: 2b21 593e 432c 88bd c945 553e 43c1 ca3d
000003b0: 0bab 763e 41d1 fd3d 2670 5fbd b797 563c
000003c0: a1df 323d 4ad9 02bc cb1f ccbd 0004 c2bb
000003d0: eb64 b13c 63bc a33c a700 a23d ddec e0bc
000003e0: 6887 adbd bb8c 13be ee46 62be a631 49be
000003f0: da40 96bd 9243 9bbe a702 84be e836 babd

encoder.blocks.0.mlp.fc1.bias f4 [64]
-0.05079211 0.065483436 0.013146392 -0.016622635 0.018153194 0.061591953 -0.03587448 -0.07461456
-0.037586138 0.04116005 -0.03886556 -0.054050427 -0.0007703995 0.036432967 0.0023394392 -0.09000383
-0.06343252 0.06943475 -0.088703066 -0.010769932 0.014903345 -0.025436368 -0.052815933 -0.038974773
-0.0056248005 0.02874167 -0.011632519 0.020833015 0.049290404 -0.029544089 0.02655131 -0.021254787
0.020385649 -0.08627446 -0.014563753 -0.052620173 -0.035957363 0.033902086 -0.06961476 -0.10887831
0.011442161 -0.017649554 -0.025574183 0.02268799 0.0053378553 0.009038191 -0.046782304 0.047495473
-0.014040215 -0.052507345 -0.061186556 -0.116340324 0.048620213 0.025814375 -0.0433786 0.03277181
-0.07320299 0.0021339704 0.03286607 -0.04879887 -0.020782033 -0.039290458 -0.026320146 0.0040559806
00000000: 630b 50bd 2e1c 863d f763 573c 312c 88bc
00000010: 02b6 943c d847 7c3d 1ef1 12bd 85cf 98bd
00000020: ecf3 19bd 7197 283d 7e31 1fbd fb63 5dbd
00000030: a3f4 49ba bc3a 153d 4751 193b ee53 b8bd
00000040: e9e8 81bd ce33 8e3d f4a9 b5bd 5e74 30bc
00000050: 292d 743c ee5f d0bc 8555 58bd 03a4 1fbd
00000060: 3f50 b8bb a773 eb3c 5296 3ebc 00aa aa3c
00000070: bce4 493d 7206 f2bc 2282 d93c 851e aebc
00000080: ceff a63c aab0 b0bd cf9c 6ebc 4088 57bd
00000090: 0748 13bd eadc 0a3d 2f92 8ebd 97fb debd
000000a0: e777 3b3c cc95 90bc f380 d1bc 2adc b93c
000000b0: 2de9 ae3b ec14 143c cd9e 3fbd 9d8a 423d
000000c0: ee08 66bc f111 57bd c19e 7abd d643 eebd
000000d0: fd25 473d ab78 d33c c2ad 31bd bc3b 063d
000000e0: 73eb 95bd 15da 0b3b 929e 063d 53e1 47bd
000000f0: 153f aabc 08ef 20bd 599d d7bc 08e8 843b

encoder.blocks.0.mlp.fc2.weight f4 [16, 64]
0.16177082 -0.24698167 -0.11825688 0.022651223 -0.04048979 0.09158978 -0.11560313 -0.024654586
0.1750757 0.091899216 0.19494502 -0.1370636 0.0968025 -0.27297345 -0.13297327 0.2174207
0.16154842 -0.04725601 0.15461847 -0.20822914 -0.02672505 0.22000273 -0.015112574 0.01566683
0.21958679 0.046126932 0.17736913 -0.16708928 0.27205184 0.14088137 -0.2563602 0.25383678
0.13439481 0.24475673 0.052231137 0.31174564 -0.18828975 -0.13252124 0.0135002555 0.13109149
0.25709593 -0.23364764 0.17159541 -0.22481664 -0.1470093 -0.11982322 -0.24874656 0.15469575
-0.040684894 0.23919335 -0.0388908 0.3129079 -0.34594765 -0.19741543 0.07395528 -0.0030112283
0.081272945 -0.010287101 -0.28914928 0.1792584 0.15528274 -0.015570575 0.06510328 -0.06737697
-0.3098863 0.17185444 0.29213125 0.065259695 -0.17178169 0.28241712 0.18240926 0.22984582
-0.18671742 -0.23052382 0.1922009 0.10748276 0.11325046 -0.21434669 0.06581845 -0.16757992
0.015549875 0.055198416 -0.08586594 -0.12343585 -0.050677817 0.22214109 -0.0068324097 0.054038323
0.10907489 0.09925708 -0.13423318 -0.19098878 0.025183523 0.08042773 0.18659554 -0.14000992
-0.024021264 -0.15598437 0.12719548 -0.035314884 0.07955687 0.2431459 0.16241172 0.07956291
0.26413286 -0.096043974 -0.21290988 0.12919965 0.052647896 0.08828919 -0.27231964 -0.24319537
-0.13683765 -0.021658707 0.2107299 -0.18480295 -0.057118006 -0.12091832 0.16455075 -0.25555968
0.108126655 -0.058235977 -0.064793915 0.15293384 0.07767568 -0.057088986 0.22694448 0.04121256
0.15841766 0.048860677 -0.10236016 -0.10582109 0.22804697 -0.011699475 -0.052747358 0.1096191
0.014561511 0.2841743 0.15755637 -0.12511308 0.17880641 0.22809765 -0.19159421 -0.18357082
-0.101562284 0.15925407 -0.059228126 0.36083254 0.029473096 0.06221516 -0.16728492 0.010879176
0.0031186293 -0.11351349 0.11345713 0.21935923 0.25524393 0.15644781 0.038660258 0.19666357
0.24731196 -0.13082457 0.09763493 0.1944696 -0.15897144 0.09880446 -0.04668316 0.05707592
0.068821855 -0.24395327 0.030425059 0.30050352 -0.28513116 0.2405455 0.056437105 0.20444581
-0.18081792 0.06753751 -0.12998782 -0.16119032 0.36035818 0.16860498 0.011275545 0.2967206
0.0116813835 0.23994341 0.2191351 0.015496331 0.29369116 -0.15317208 -0.13356507 0.19604091
-0.061677556 -0.013926049 0.027685361 -0.07237141 0.020607485 -0.067211606 0.13674721 0.11019216
0.14079782 -0.15159504 -0.069443725 -0.19850741 0.21283777 -0.22738154 0.24035324 0.19980069
0.046014685 -0.11641835 -0.3140438 0.1772396 -0.202004 0.20743789 0.22949539 -0.13326468
0.18665004 -0.16050439 -0.17438848 -0.06111204 -0.21951778 -0.16900961 0.041297283 0.15963213
-0.06958826 -0.031470194 0.10784769 0.19141458 -0.3080617 -0.3390068 0.053347368 -0.03737812
0.28651002 -0.22056045 -0.020125914 -0.1307828 0.081854954 -0.17567298 -0.2025308 -0.09435347
-0.13926266 -0.17661516 0.038901284 0.16713761 0.17773122 0.10136473 -0.196897 -0.038377505
0.35480812 -0.07923946 -0.30724195 -0.052099112 -0.08591313 -0.2761288 0.00593618 -0.024028515
00000000: 40a7 253e c3e8 7cbe aa30 f2bd 0f8f b93c
00000010: 9fd8 25bd 6c93 bb3d 55c1 ecbd 6af8 c9bc
00000020: 0b47 333e a835 bc3d ab9f 473e 665a 0cbe
00000030: 6440 c63d 2dc3 8bbe 252a 08be 88a3 5e3e
00000040: f36c 253e 858f 41bd 4e54 1e3e 053a 55be
00000050: 7eee dabc 6548 613e bb9a 77bc b957 803c
00000060: 5cdb 603e 98ef 3c3d 41a0 353e 7419 2bbe
00000070: 614a 8b3e 3543 103e a541 83be e5f6 813e
00000080: cb9e 093e 82a1 7a3e 51f0 553d 209d 9f3e
00000090: 07cf 40be a6b3 07be 2d30 5d3c d93c 063e
000000a0: 14a2 833e 5441 6fbe b5b6 2f3e 5536 66be
000000b0: 9b89 16be e065 f5bd 6bb7 7ebe 9068 1e3e
000000c0: 34a5 26bd 1aef 743e f64b 1fbd 7735 a03e
000000d0: 0d20 b1be 4527 4abe de75 973d 0758 45bb
000000e0: 6e72 a63d 3b8b 28bc 600b 94be 848f 373e
000000f0: 7002 1f3e ba1b 7fbc de54 853d f0fc 89bd
00000100: 6ba9 9ebe 9cfa 2f3e 3a92 953e e0a6 853d
00000110: 8ae7 2fbe fa98 903e 7ec9 3a3e b45c 6b3e
00000120: da32 3fbe 700e 6cbe 50d0 443e ec1f dc3d
00000130: dbef e73d b37d 5bbe d3cb 863d 129a 2bbe
00000140: e7c4 7e3c bc17 623d 7bda afbd efcb fcbd
00000150: 8b93 4fbd f478 633e 68e2 dfbb 4a57 5d3d
00000160: a862 df3d 4c47 cb3d 6c74 09be 9092 43be
00000170: ad4d ce3c 4bb7 a43d e712 3f3e c35e 0fbe
00000180: 3ec8 c4bc 5eba 1fbe 883f 023e 57a6 10bd
00000190: b6ee a23d 3dfb 783e 424f 263e e1f1 a23d
000001a0: 6c3c 873e b4b2 c4bd 0c05 5abe ea4c 043e
000001b0: 52a5 573d f6d0 b43d 7b6d 8bbe 3508 79be
000001c0: 2b1f 0cbe 9a6d b1bc 94c9 573e fc3c 3dbe
000001d0: 92f4 69bd 06a4 f7bd fe7f 283e b8d8 82be
000001e0: 8271 dd3d d988 6ebd acb2 84bd b09a 1c3e
000001f0: 6d14 9f3d 24d6 69bd 2264 683e 80ce 283d
00000200: 3d38 223e 2222 483d 34a2 d1bd bab8 d8bd
00000210: 2585 693e 28af 3fbc 9d0d 58bd fb7f e03d
00000220: 6793 6e3c 4b7f 913e 7556 213e a51d 00be
00000230: 0719 373e 6e92 693e 4631 44be fdf9 3bbe
00000240: e3ff cfbd 8013 233e 3199 72bd 0bbf b83e
00000250: 9071 f13c 53d5 7e3d bd4c 2bbe 923e 323c
00000260: eb61 4c3b c379 e8bd 365c e83d b59f 603e
00000270: 55af 823e db33 203e 385a 1e3d 2d62 493e
00000280: 593f 7d3e e0f6 05be d2f4 c73d 0a23 473e
00000290: 69c9 22be fe59 ca3d d736 3fbd 71c8 693d
000002a0: 79f2 8c3d e3ce 79be f93d f93c 99db 993e
000002b0: b6fc 91be 8f51 763e 982a 673d 3e5a 513e
000002c0: 5528 39be 1b51 8a3d 871b 05be 130f 25be
000002d0: de80 b83e c9a6 2c3e 10bd 383c c3eb 973e
000002e0: 4663 3f3c bab3 753e f464 603e 53e4 7d3c
000002f0: b05e 963e 24d9 1cbe 48c5 08be f3be 483e
00000300: 9ba1 7cbd 152a 64bc 69cc e23c 7637 94bd
00000310: 07d1 a83c 3da6 89bd 7607 0c3e 6dac e13d
00000320: 4e2d 103e bb3b 1bbe 8338 8ebd 8745 4bbe
00000330: 25f2 593e b5d6 68be 291f 763e 8d98 4c3e
00000340: e579 3c3d be6c eebd 59ca a0be 4c7e 353e
00000350: 23da 4ebe 996a 543e d700 6b3e 8976 08be
00000360: 3021 3f3e 435b 24be e592 32be 9e50 7abd
00000370: 45c9 60be db10 2dbe 5727 293d 9b76 233e
00000380: 4a84 8ebd e4e6 00bd 40df dc3d 2f02 443e
00000390: 43ba 9dbe 4d92 adbe c582 5a3d cd19 19bd
000003a0: 71b1 923e 99da 61be 1adf a4bc edeb 05be
000003b0: 92a3 a73d 9ee3 33be 3c64 4fbe 643c c1bd
000003c0: df9a 0ebe 9bda 34be f456 1f3d 1f26 2b3e
000003d0: 2cff 353e 5098 cf3d 5e9f 49be bb31 1dbd
000003e0: 69a9 b53e 4c48 a2bd d14e 9dbe e165 55bd
000003f0: 39f3 afbd c160 8dbe 4984 c23b 73d7 c4bc

encoder.blocks.0.mlp.fc2.bias f4 [16]
-0.096359566 -0.009407874 0.07564458 -0.05709081 0.0023996932 -0.04575046 0.08232744 0.03667472
0.00986705 -0.032241844 -0.019955037 -0.059807487 -0.007183551 0.08997076 -0.040210783 0.03555581
00000000: 2a58 c5bd 7c23 1abc 8ceb 9a3d 0ed8 69bd
00000010: 2c44 1d3b d664 3bbd 4a9b a83d 3b38 163d
00000020: 68a9 213c 0610 04bd bf78 a3bc b2f8 74bd
00000030: fe63 ebbb 9742 b83d 10b4 24bd f8a2 113d

encoder.blocks.1.norm1.weight f4 [16]
1.0486174 0.9520048 1.0394489 1.0054282 0.9627832 1.0250242 0.99050295 1.0725485
1.0462241 1.1502794 1.0010142 0.9345298 1.0142578 0.9808363 1.0046649 1.013648
00000000: 1839 863f 96b6 733f a90c 853f dfb1 803f
00000010: f678 763f fe33 833f 9a91 7d3f 4549 893f
00000020: acea 853f 5b3c 933f 3c21 803f 583d 6f3f
00000030: 33d3 813f 1618 7b3f dc98 803f 38bf 813f

encoder.blocks.1.norm1.bias f4 [16]
-0.054508306 -0.0058116554 0.06921939 -0.044011626 0.00069533434 -0.049730353 0.080511436 0.040735453
-0.0260256 -0.07606292 -0.021311697 -0.033186477 -0.030310962 0.09547781 -0.026613757 0.023167746
00000000: 1a44 5fbd b36f bebb e5c2 8d3d 8945 34bd
00000010: 1947 363a 0eb2 4bbd 2ee3 a43d 38da 263d
00000020: a433 d5bc e0c6 9bbd de95 aebc 8bee 07bd
00000030: b24e f8bc df89 c33d 1805 dabc 49ca bd3c

encoder.blocks.1.attn.qkv.weight f4 [48, 16]
-0.07297637 -0.024234226 -0.20419 0.04496547 0.06904227 -0.10860106 -0.19418906 -0.22264926
0.06399105 -0.03186966 -0.0160933 -0.07164184 -0.02095131 -0.20701374 -0.13950212 0.14096059
0.17824836 -0.34008732 0.27413493 0.20550841 0.12378104 0.34860486 -0.045762327 -0.1929093
-0.113641195 0.28911704 0.34476304 0.13742344 0.04551107 -0.20536882 -0.086095124 -0.19832379
0.31934002 -0.17708741 -0.3106452 0.022283679 0.2601279 -0.1938763 -0.15653174 0.019652145
0.070311725 -0.16946402 -0.31136855 0.22164312 -0.20939331 0.19576396 0.31385595 -0.018719284
0.31173798 0.13888308 -0.25463596 0.07619718 -0.10177899 0.055128034 -0.26200035 -0.2735123
-0.15187074 0.12231243 -0.0954615 0.059101604 -0.12717217 -0.19935514 0.016093105 -0.18250251
-0.059853964 0.33673158 -0.24250935 -0.08333828 0.29022744 -0.17659263 -0.33142614 -0.20189998
0.054100543 0.021255538 0.07071288 0.101575546 -0.12504146 0.09244612 0.13076672 0.26461837
-0.19798882 -0.11110351 -0.29088676 -0.076385014 -0.047876373 0.033787314 -0.13335352 0.13607037
0.15874353 -0.2650082 0.2729829 -0.2830389 0.11647646 0.2032172 0.07388419 0.27879405
0.043945357 -0.1447663 0.24169944 -0.20074718 -0.15265934 -0.062011715 0.00033861338 -0.083021306
-0.38166523 0.2984506 -0.11085766 -0.10113336 -0.005056366 0.23487584 0.09199191 0.42810887
0.11559754 -0.13255727 0.24870357 -0.21243638 -0.20401682 0.09946429 -0.081071205 0.16036183
-0.15343904 0.08888652 0.015845198 0.21724318 -0.20459816 -0.10290502 -0.17375992 -0.2689425
-0.081248134 -0.14129454 -0.016279725 -0.2586633 0.10651469 0.015802111 0.1425131 -0.2299881
-0.13357437 0.078037426 -0.06587308 -0.11790739 0.032279205 0.02986363 -0.22932719 0.14421774
-0.24152163 0.021254579 0.3302698 -0.091895975 0.2485149 -0.032388337 0.24962497 0.20687012
0.17113085 0.31628072 0.36474627 -0.27459344 0.15425313 -0.0928026 -0.025192399 -0.024240667
0.04207621 -0.2756804 -0.041406695 0.08287222 0.012326319 -0.102842085 0.263432 -0.15374374
-0.029061468 -0.07522167 0.14114335 -0.10773519 -0.00998074 -0.1707353 -0.22267358 0.20035069
-0.061271295 -0.05965005 -0.17626093 -0.22827528 0.1545863 -0.15580682 0.07298475 0.05982247
-0.0994246 0.28982857 -0.22923325 -0.18030734 0.02115715 -0.14827754 0.33893022 -0.012170965
0.045847964 -0.10400706 0.17879225 -0.18293844 -0.07334824 -0.14013933 -2.5883153e-06 0.13072646
0.05989952 0.15429606 -0.077728495 0.047499496 0.11711933 0.07616872 0.26515767 -0.31831998
0.18442322 0.08915092 -0.058358204 0.35019124 0.27153745 -0.18915772 0.2548801 0.03475539
-0.40444118 -0.17599286 -0.2361806 0.3165424 0.13821217 -0.074001394 -0.26828334 0.054741543
0.24147372 0.27061546 0.2071345 -0.12014263 -0.24834451 0.24519762 0.30827916 0.093080536
0.15943754 0.13154104 0.009800302 0.08912562 -0.32121998 -0.094471216 0.11451462 0.07317906
-0.06539203 0.0066297045 0.07516355 -0.088868536 -0.14473113 -0.19265707 -0.29783902 -0.25240073
0.069283776 0.22790559 -0.25926182 -0.18859698 0.07833502 -0.27626577 -0.19276729 0.17466973
00000000: a374 95bd db86 c6bc 2f17 51be b62d 383d
00000010: 0966 8d3d 3c6a debd 7fd9 46be 2bfe 63be
00000020: bd0d 833d c389 02bd 19d6 83bc f5b8 92bd
00000030: 15a2 abbc 69fb 53be a5d9 0ebe f957 103e
00000040: bd86 363e ed1f aebe 6a5b 8c3e cc70 523e
00000050: ea80 fd3d 567c b23e 4771 3bbd 048a 45be
00000060: b7bc e8bd 2607 943e c884 b03e bbb8 0c3e
00000070: d169 3a3d 344c 52be a452 b0bd 6415 4bbe
00000080: 8980 a33e 6756 35be e30c 9fbe 438c b63c
00000090: 7c2f 853e 8287 46be db49 20be 89fd a03c
000000a0: 98ff 8f3d fa87 2dbe b36b 9fbe 6af6 623e
000000b0: 336b 56be 5976 483e bab1 a03e 2f59 99bc
000000c0: 1f9c 9f3e 5e37 0e3e a55f 82be 440d 9c3d
000000d0: 8171 d0bd efcd 613d e924 86be ce09 8cbe
000000e0: 0184 1bbe f07e fa3d 5281 c3bd 8614 723d
000000f0: 6c39 02be c123 4cbe b0d5 833c f0e1 3abe
00000100: 6e29 75bd 1568 ac3e 5f54 78be 43ad aabd
00000110: b198 943e b3d4 34be b0b0 a9be debe 4ebe
00000120: 8898 5d3d 1820 ae3c ead1 903d d706 d03d
00000130: de0a 00be 6454 bd3d b6e7 053e 0f7c 873e
00000140: 95bd 4abe 3d8a e3bd 1cef 94be bf6f 9cbd
00000150: 041a 44bd 9164 0a3d d38d 08be 0856 0b3e
00000160: aa8d 223e 28af 87be 6ac4 8b3e 7aea 90be
00000170: 368b ee3d 2b18 503e 9850 973d 18be 8e3e
00000180: 0c00 343d 9e3d 14be 0f80 773e ab90 4dbe
00000190: bb52 1cbe ffff 7dbd eb87 b139 1307 aabd
000001a0: a069 c3be 84ce 983e 5709 e3bd 021f cfbd
000001b0: dfaf a5bb 4b83 703e 4166 bc3d 1631 db3e
000001c0: 67be ec3d 18bd 07be 26ac 7e3e ec88 59be
000001d0: c9e9 50be efb3 cb3d a908 a6bd e435 243e
000001e0: 201f 1dbe 230a b63d cacd 813c ff74 5e3e
000001f0: 2e82 51be debf d2bd 1fee 31be d5b2 89be
00000200: 6c65 a6bd 84af 10be 0f5d 85bc 846f 84be
00000210: 6024 da3d 6e73 813c f4ee 113e 0082 6bbe
00000220: b8c7 08be 16d2 9f3d 77e8 86bd 6e79 f1bd
00000230: 3337 043d 92a4 f43c bfd4 6abe d1ad 133e
00000240: 7251 77be 151e ae3c 2019 a93e f533 bcbd
00000250: b17a 7e3e a2a9 04bd b09d 7f3e c3d5 533e
00000260: ed3c 2f3e 8cef a13e 06c0 ba3e 8397 8cbe
00000270: 88f4 1d3e 4a0f bebd 4a60 cebc 5d94 c6bc
00000280: 1b58 2c3d fb25 8dbe 119a 29bd e9b8 a93d
00000290: 54f4 493c df9e d2bd 8fe0 863e 006f 1dbe
000002a0: 5112 eebc d20d 9abd e287 103e 44a4 dcbd
000002b0: 4286 23bc 3cd5 2ebe 8b04 64be bb28 4d3e
000002c0: 9cf7 7abd 9c53 74bd bf7d 34be ffc0 69be
000002d0: df4b 1e3e d38b 1fbe 0779 953d 6808 753d
000002e0: 209f cbbd 6964 943e 1fbc 6abe 7da2 38be
000002f0: c251 ad3c 11d6 17be 4388 ad3e ba68 47bc
00000300: 13cb 3b3d a701 d5bd 5115 373e 3754 3bbe
00000310: 9a37 96bd af80 0fbe ebb2 2db6 28dd 053e
00000320: 3359 753d c9ff 1d3e 1e30 9fbd d58e 423d
00000330: 42dc ef3d 59fe 9b3d bfc2 873e d6fa a2be
00000340: 71d9 3c3e c294 b63d 0309 6fbd 444c b33e
00000350: f506 8b3e 90b2 41be a57f 823e ab5b 0e3d
00000360: ea12 cfbe 7937 34be 54d9 71be d811 a23e
00000370: 7e87 0d3e 0b8e 97bd 6f5c 89be ab38 603d
00000380: e344 773e 1c8e 8a3e 111b 543e 570d f6bd
00000390: 064e 7ebe 1615 7b3e c4d6 9d3e 02a1 be3d
000003a0: 9843 233e b2b2 063e 7291 203c 7e87 b63d
000003b0: f276 a4be 207a c1bd a486 ea3d e7de 953d
000003c0: 42ec 85bd fe3d d93b 59ef 993d b500 b6bd
000003d0: 6634 14be e547 45be 5b7e 98be ab3a 81be
000003e0: a7e4 8d3d 1560 693e f7bd 84be 911f 41be
000003f0: 1c6e a03d b572 8dbe ca64 45be 9fdc 323e

encoder.blocks.1.attn.proj.weight f4 [16, 16]
-0.2143764 -0.21956952 -0.006683615 -0.36037055 -0.13787304 0.172386 -0.11277324 0.27808022
0.28050807 0.058445275 -0.17674942 -0.00925467 0.271538 -0.108080246 0.24080408 -0.19043668
0.06823568 0.1883361 0.11916372 0.08976122 -0.37488905 -0.21008079 -0.23727582 -0.25426936
0.10520474 0.38528404 0.16462003 -0.42948237 -0.23304881 -0.43043646 -0.2903475 -0.0058917496
-0.19173808 0.45821112 -0.04826261 -0.37730023 -0.32545975 0.30715 -0.42320278 0.11125228
-0.050368425 -0.38793844 -0.11275871 0.44478828 0.26334354 0.22675136 -0.10654173 0.47721395
0.292968 0.046120662 0.15432785 0.1160125 -0.13485026 -0.30538735 -0.080937184 -0.40153018
0.26444772 0.117606245 0.25287166 0.10828013 0.1616642 -0.14355598 -0.177314 0.07001227
0.29879552 -0.46704343 -0.3567253 -0.4073097 0.3045207 0.039538488 -0.2991667 0.012807078
-0.31219566 0.35391918 -0.2038402 0.18222754 0.15666339 -0.25477007 -0.32864478 -0.37578756
-0.31009346 0.003634776 -0.1199623 -0.0040850174 -0.2740145 -0.09739631 -0.18307039 0.326556
0.22434595 -0.06451166 0.26811373 -0.31829593 -0.15199415 -0.050133973 -0.30310962 0.33371592
-0.382632 0.25346184 -0.27387118 0.36054918 0.20464791 -0.015793616 0.23507147 -0.18592931
0.19103588 -0.10330467 0.35649574 0.46016654 0.025536485 0.496037 -0.18846 0.15436974
-0.29014182 0.08071206 -0.44583765 -0.40771377 -0.38444692 -0.08416913 -0.108459875 -0.24838309
-0.4396963 0.423975 -0.10910884 -0.15691105 0.30028632 -0.27845544 -0.10566821 -0.117566004
-0.42022976 -0.38096592 -0.21301197 -0.15427451 0.04911502 -0.062440492 -0.04952307 0.017566036
0.21794225 0.4889868 -0.04622331 0.0257561 0.31669292 -0.42401174 0.4657467 0.265187
-0.060745385 -0.3269211 0.28182518 -0.31498924 -0.12657703 0.22023539 0.017575726 -0.044055812
0.051301096 0.4179747 0.24921353 0.22818127 0.41542405 -0.0056203664 -0.122007966 -0.11542482
0.47002813 -0.03304326 0.020205073 0.3264894 0.05507333 0.023103753 0.37682083 -0.36859295
0.12827285 0.10196697 0.17209108 -0.06851143 0.02300201 -0.4037001 -0.26408306 -0.39328334
0.36139104 0.29215077 0.3267231 -0.068458945 0.43488076 0.24952327 0.025067229 -0.4075353
0.44993573 -0.34947735 0.19580938 -0.12170538 -0.38730907 -0.065538704 0.27934185 0.09988501
0.4091338 -0.31804922 0.396293 -0.0064340043 -0.26485774 0.42201287 0.11083175 0.44609132
0.016958924 -0.14457123 0.044844728 -0.36763632 -0.25385675 -0.09752864 0.04037066 0.112027965
-0.33655623 0.13235892 -0.084282964 -0.051598128 0.14969844 0.19077605 0.48917308 -0.17094423
0.13296309 -0.22257239 0.30698955 0.13308258 -0.014688207 -0.03211706 -0.3080926 -0.07281002
-0.2981498 -0.12189095 -0.2897582 -0.09653921 0.195034 0.17510004 -0.22457077 0.0026534547
0.2954408 0.0328376 -0.12306398 0.22580518 0.05394446 -0.3037606 -0.10659187 -0.39463425
-0.3482009 -0.33916637 -0.36919552 -0.19831115 0.28776968 0.45248637 0.3134808 0.08001997
0.2532045 -0.09280146 -0.036067877 -0.41370448 0.3369716 -0.34558278 0.24256057 -0.022424597
00000000: 7d85 5bbe d5d6 60be 3a02 dbbb 7d82 b8be
00000010: 972e 0dbe f585 303e a8f5 e6bd 8860 8e3e
00000020: c19e 8f3e 5064 6f3d cdfd 34be e6a0 17bc
00000030: 0707 8b3e 2d59 ddbd 5895 763e d501 43be
00000040: 26bf 8b3d 2edb 403e 1c0c f43d bbd4 b73d
00000050: 75f1 bfbe 6b1f 57be 6ff8 72be 982f 82be
00000060: 9575 d73d f343 c53e 2792 283e 1de5 dbbe
00000070: 59a4 6ebe 2b62 dcbe 6da8 94be 940f c1bb
00000080: fd56 44be a69a ea3e 04af 45bd 7f2d c1be
00000090: a9a2 a6be c442 9d3e 09ae d8be 3cd8 e33d
000000a0: 1f4f 4ebd de9f c6be 0aee e6bd 4abb e33e
000000b0: f7d4 863e 8231 683e 8d32 dabd 6355 f43e
000000c0: e7ff 953e 05e9 3c3d 1f08 1e3e f697 ed3d
000000d0: 3016 0abe bb5b 9cbe 65c2 a5bd 5d95 cdbe
000000e0: b165 873e 8bdb f03d 6578 813e f9c1 dd3d
000000f0: 4d8b 253e 5700 13be cd91 35be 9862 8f3d
00000100: bafb 983e 5120 efbe b3a4 b6be e68a d0be
00000110: 23ea 9b3e 1cf3 213d 612c 99be c7d4 513c
00000120: 1cd8 9fbe e534 b53e 7cbb 50be db99 3a3e
00000130: 5e6c 203e 3971 82be 2144 a8be 3a67 c0be
00000140: 92c4 9ebe 6c35 6e3b cbae f5bd 9cdb 85bb
00000150: a14b 8cbe b777 c7bd ce76 3bbe 5932 a73e
00000160: f2ba 653e b01e 84bd 3446 893e aff7 a2be
00000170: 5ba4 1bbe 4859 4dbd 2f31 9bbe d0dc aa3e
00000180: 57e8 c3be c0c5 813e d838 8cbe e799 b83e
00000190: 398f 513e 9d61 81bc 93b6 703e 4164 3ebe
000001a0: e99e 433e 6691 d3bd 9c86 b63e f39a eb3e
000001b0: e431 d13c 90f8 fd3e a9fb 40be 1a13 1e3e
000001c0: 788d 94be 5d4c a53d d544 e4be dcbf d0be
000001d0: 3ad6 c4be dd60 acbd 3620 debd 2358 7ebe
000001e0: e01f e1be 4013 d93e 7574 dfbd 4aad 20be
000001f0: 21bf 993e b691 8ebe 9368 d8bd 72c6 f0bd
00000200: 5b28 d7be f70d c3be cf1f 5abe 23fa 1dbe
00000210: d52c 493d 9ac1 7fbd b4d8 4abd a6e6 8f3c
00000220: 412c 5f3e 7a5c fa3e a754 3dbd 75fe d23c
00000230: 9325 a23e 1118 d9be 5a76 ee3e 97c6 873e
00000240: 27d0 78bd 3462 a7be 644b 903e 4546 a1be
00000250: 699d 01be 6385 613e f8fa 8f3c de73 34bd
00000260: 1921 523d c800 d63e d531 7f3e 5aa8 693e
00000270: 76b2 d43e 0d2b b8bb 50df f9bd d963 ecbd
00000280: 87a7 f03e 5f58 07bd 1c85 a53c 9e29 a73e
00000290: 9294 613d 1544 bd3c a9ee c03e 37b8 bcbe
000002a0: f559 033e 0fd4 d03d a538 303e b84f 8cbd
000002b0: b66e bc3c c8b1 cebe e535 87be 6f5c c9be
000002c0: 3f08 b93e c994 953e 4048 a73e 3434 8cbd
000002d0: b1a8 de3e 0783 7f3e ca59 cd3c 78a8 d0be
000002e0: fa5d e63e b2ee b2be 4182 483e ac40 f9bd
000002f0: 604d c6be 2839 86bd e505 8f3e 8390 cc3d
00000300: fc79 d13e 59d7 a2be ebe6 ca3e 57d4 d2bb
00000310: 6f9b 87be 1212 d83e c2fb e23d 1566 e43e
00000320: 71ed 8a3c 7b0a 14be 1baf 373d d43a bcbe
00000330: 83f9 81be 18bd c7bd b55b 253d eb6e e53d
00000340: 1951 acbe 1989 073e 8c9c acbd 8f58 53bd
00000350: 8c4a 193e cc5a 433e e574 fa3e 010c 2fbe
00000360: 7a27 083e 04ea 63be bc2d 9d3e cd46 083e
00000370: cea6 70bc 2e8d 03bd 50be 9dbe 6b1d 95bd
00000380: 17a7 98be f6a1 f9bd 305b 94be 59b6 c5bd
00000390: feb6 473e 6d4d 333e e1f5 65be 95e5 2d3b
000003a0: 0444 973e b880 063d f808 fcbd 7939 673e
000003b0: def4 5c3d 8286 9bbe d74c dabd 800d cabe
000003c0: 6347 b2be 37a7 adbe 3207 bdbe 1412 4bbe
000003d0: 8c56 933e 4bac e73e 8e80 a03e 83e1 a33d
000003e0: 05a4 813e b10e bebd e9bb 13bd 13d1 d3be
000003f0: 8b87 ac3e 3af0 b0be cc61 783e cab3 b7bc

encoder.blocks.1.attn.proj.bias f4 [16]
-0.0767096 -0.01604338 0.06748098 0.01039815 -0.020065019 -0.051138595 0.08858773 0.03967477
0.0032279417 -0.05480998 -0.038509924 -0.025287816 0.0063066487 0.018192476 -0.020893136 0.023761896
00000000: ec19 9dbd 686d 83bc 7833 8a3d 015d 2a3c
00000010: 655f a4bc b476 51bd 7c6d b53d 0382 223d
00000020: e08b 533b 6e80 60bd 95bc 1dbd 6528 cfbc
00000030: 01a8 ce3b 6308 953c 1528 abbc 4fa8 c23c

encoder.blocks.1.norm2.weight f4 [16]
0.9216623 0.95029926 0.9700607 0.95321965 0.93322027 0.9420822 0.99876004 0.8442967
0.9713959 1.0957874 0.94261307 0.89092845 0.90531266 0.93404645 0.919744 0.9236796
00000000: 0ff2 6b3f d046 733f e655 783f 3406 743f
00000010: 86e7 6e3f 4d2c 713f bdae 7f3f d423 583f
00000020: 67ad 783f c342 8c3f 174f 713f e313 643f
00000030: 92c2 673f ab1d 6f3f 5874 6b3f 4476 6c3f

encoder.blocks.1.norm2.bias f4 [16]
0.03767889 0.11960098 0.00050424685 0.0010126303 -0.0273505 -0.07612212 0.009537544 0.0040840427
-0.011436289 -0.018986424 0.013090208 -0.026426192 0.04105837 -0.058976837 0.109401025 -0.0036347848
00000000: 2e55 1a3d 5cf1 f43d 6f2f 043a 3cba 843a
00000010: 280e e0bc eae5 9bbd 5c43 1c3c 6fd3 853b
00000020: 465f 3bbc 6b89 9bbc 5078 563c be7b d8bc
00000030: d22c 283d b291 71bd a50d e03d 9235 6ebb
