Checkpoint/dict_3.pth (torch, 108719 bytes, 64 tensors)

encoder.cls_token f4 [1, 1, 16]
00000000: 110a a3bf a790 593f 3d74 233e c404 03c0
00000010: a0af 66bf 31c4 c33e cf26 a63f 22d1 d43d
00000020: 317b 80bf b6f7 9fbf 7dfb ab3f ce4d b2bf
00000030: dc62 053e a068 5abf d34a f0bd 7ac2 0140
-1.2737447 0.84986347 0.1596231 -2.0471659 -0.9011173 0.3823562 1.2980593 0.103914514
-1.0037595 -1.249747 1.3436123 -1.3929994 0.13025993 -0.85315895 -0.117330216 2.027495

encoder.patch_embed.weight f4 [16, 5]
00000000: 9027 003f 2b78 333e 4090 563d 2d2c 9d3e
00000010: 63b1 9a3e 574e 803d 7ead 7a3e f6aa 8f3d
00000020: ac9c 86be 20e5 1f3e 0dc9 11bf ac8f f73d
00000030: 5d85 dd3d d1f1 02bf 3dda a83e 9f5b 10bf
00000040: aad1 a23e 287e cbbe 0384 203f 7f7d c2bd
00000050: 5136 dbbd dfaf 733e d53e 67be b21e bc3e
00000060: ae95 ea3e f55c 09be 7369 953e 2884 223f
00000070: 92fd ccbc 240e 5abd aeb6 263e f84c 39be
00000080: a8e0 233e 7c6b 1abf 7f09 da3e 61fb 683d
00000090: 4798 27be 8b2e bcbd 2879 62be 0c0a b4bc
000000a0: c1cd 6dbe 15a2 fdbe ac5e 7abe 9528 c13e
000000b0: 0ac3 013f b9e4 cebe c974 b73e 0bfc f33e
000000c0: 074a 7d3e 48ce 033f c014 8cbe 6e1f 183e
000000d0: f089 f3be 3ee4 2cbe 3e0b 0d3f 0722 103e
000000e0: f6df 65be 18ce 7f3c 4ed1 7c3c bc8f 06bf
000000f0: 314a 79be b027 e83e 22e2 c7bc e19e 50bd
00000100: d5c6 3bbf b8a8 61be 7c06 99be 5fb2 0e3e
00000110: 74bd f03e 48d6 e9be ae61 5d3e 70cd b73e
00000120: 62af e7be 4351 abbd a918 2e3e 9c1f a73e
00000130: 0fc4 7abe 4217 18be 7b73 b5be ef2a 2d3f
0.5006037 0.17526309 0.05238366 0.30697766 0.3021346 0.06264942 0.24480245 0.0701503
-0.26291406 0.15614748 -0.56947404 0.1208795 0.10816453 -0.5115023 0.32979003 -0.563898
0.31800586 -0.39744687 0.62701434 -0.09496593 -0.107037194 0.23797558 -0.22582562 0.3674217
0.45817322 -0.13414367 0.29182014 0.63482904 -0.025023255 -0.05323614 0.16280624 -0.18095767
0.16003668 -0.6032026 0.4258537 0.05688036 -0.16366683 -0.09188565 -0.2211653 -0.021977447
-0.2322302 -0.4953772 -0.24450177 0.37726274 0.5068823 -0.40408877 0.35831288 0.4765323
0.2473527 0.51486635 -0.2735958 0.1485574 -0.47566175 -0.16883942 0.5509528 0.1407548
-0.22448716 0.015613101 0.0154307615 -0.5256307 -0.24344708 0.4534278 -0.02439982 -0.05093277
-0.7335027 -0.22037017 -0.2988776 0.1393523 0.4701954 -0.45671296 0.21619293 0.35898924
-0.45250994 -0.08365109 0.17001595 0.32641304 -0.24488853 -0.14852622 -0.35439667 0.67643636

encoder.patch_embed.bias f4 [16]
00000000: 13ca 99bc 12b3 283d 44f9 7c3d 1f38 0dbe
00000010: de27 0c3e 68a4 efbd 949e cc3d 08af 7ebd
00000020: 6e88 053d c9d3 893c e355 a83d 59ac 06bd
00000030: c31f 37bd b9d6 01bd ec49 6f3d 1ede ca3c
-0.018773114 0.0411864 0.061761156 -0.1379094 0.13687083 -0.1170128 0.09991184 -0.06217864
0.032600813 0.01682462 0.082195066 -0.032879207 -0.044708025 -0.031698916 0.058420107 0.024764117

encoder.blocks.0.norm1.weight f4 [16]
00000000: 0b28 8a3f 3b65 9c3f f578 833f 1724 8e3f
00000010: 4ab1 6b3f 6817 8a3f 1d58 883f 161f 773f
00000020: 1f2f 703f 6347 833f 9fe0 853f 626d 903f
00000030: d8b1 8b3f 356a 673f 0154 5e3f 3931 8a3f
1.079347 1.2218393 1.0271288 1.1104764 0.92067397 1.0788393 1.065189 0.9653181
0.938219 1.025616 1.0459174 1.1283381 1.0913649 0.90396434 0.8684693 1.0796272

encoder.blocks.0.norm1.bias f4 [16]
00000000: 19d4 23bd fd41 0f3c d5cf 103d 0262 fcbc
00000010: 5f33 a03c 35ee 163d 2c7e 99bc caad 063c
00000020: 61d3 8a3d c1e5 7fbd aff7 22bd 2c1f 163d
00000030: 26a2 1f3d a2e2 e83c 22fb 6e3d 6b53 6b3c
-0.039997194 0.00874376 0.035354454 -0.030808453 0.019555746 0.036848266 -0.018736921 0.0082201455
0.067785986 -0.06247497 -0.03978699 0.03665082 0.038972996 0.02842838 0.058344968 0.01436315

encoder.blocks.0.attn.qkv.weight f4 [48, 16]
00000000: 477e 533e fd81 763e efd1 e3be b632 193f
00000010: 9d92 89be 10c8 003e 0ef7 f7be 1e58 e03e
00000020: d154 8cbe 4039 c1bd e7ec 48be 3199 cd3e
00000030: 3d68 46be 05f2 bf3e e02a 443d fa14 fc3e
00000040: 5366 4fbe 87ce e23d 3301 293e a843 71be
00000050: debb cdbe 5370 bf3e 0dcd adbe c3af d53a
00000060: ef00 543d 9e7f a7be 65ce 08be 2b88 353e
00000070: 5878 213c 2ff0 6bbe 8c44 83be e25a 56bd
00000080: 3c9f 9e3e df43 5dbe 1b46 78be 8619 ccbc
00000090: f6bd 17bd 9f21 b7bd 72b1 993d 9873 283e
000000a0: 7776 6a3e 2b3b eebd c0ae bb3e 2b93 98be
000000b0: 25e8 943e 4093 32bd c63d 48bd e783 23be
000000c0: 3bc0 bc3e 0c0a 1e3e 3162 95bd c102 2fbe
000000d0: 076b d23e 1c24 8abe 67a7 ff3d 8902 06bf
000000e0: bcbf c2be 8061 ae3e 508e 043f 3a48 51be
000000f0: 892a cb3d a807 61be 552a 053d 0150 c3be
00000100: 7a25 073e 2419 bb3d f8e7 55be 9450 3abe
00000110: 0736 aa3d e377 133e 3a78 3b3d 8f13 0abd
00000120: 41ca a2be 2b88 91bc 1101 aa3e 0556 84be
00000130: aa68 cb3e c209 56be 8737 883e 3ab0 6dbe
00000140: 6203 2a3e f15d 68be ae61 aebe e5a9 80be
00000150: eaef 49bb 71ce 72bc 6284 4ebe 24e5 1b3e
00000160: fef4 f7bd e889 0abe 54fb 473e a7f1 0ebe
00000170: fb4d c8bd 717d 4b3e f254 513e 4f50 0e3e
00000180: 56e3 c9bd 699c 1bbe ba3a 873e 7fc4 3e3e
00000190: 9cd6 ec3d c080 55bd bb37 09be eedc 45be
000001a0: 5816 f63d 787e ec3d b001 773e 962c 3dbe
000001b0: e845 23be 03f8 a6be a7e3 8a3c 32ce 90bc
000001c0: 321e 283e 8099 81be 632f 48be 81a3 bc3d
000001d0: f551 813e 536b 26be 3be6 8c3e c44d 583e
000001e0: 8d99 de3e ed2e 96be 28b5 73be 7c10 1abd
000001f0: 43b3 953e 4f48 cdbd adef 69be 15b5 173b
00000200: 7efd 7bbd e3e2 6abe c4a6 cabb 61cd 103e
00000210: 6dd1 5f3e ad56 20be be61 8a3e 6424 063e
00000220: beb4 443e 167b ecbd 8ac2 6abe b449 87be
00000230: 1e7f 063e 8ee6 bfbe ba1d 933e 0478 91bc
00000240: 8f3c 21bf 3def 473c 530e dd3e f3b4 ef3e
00000250: ad10 0fbf 25ed e13e 01eb c7be 846f 953e
00000260: 85b9 d73e b272 1ebe 890a fcbd 91eb 573e
00000270: b9d3 3d3d 4590 85bd 7d5d 43be 02c2 fa3e
00000280: 4796 a93d 8c36 093e 8aab 513e 2997 dabc
00000290: 1622 01be 0492 843e 7247 843e 7376 fc3d
000002a0: 3dd6 72be 57d6 debc 6cf7 31be d446 30be
000002b0: efc0 0ebe 9292 fdbd 9980 67be abf4 17be
000002c0: 6a15 04be 590f 973e 65ce ca3d 56b9 9f3e
000002d0: b53a c6bd 496d 53be f8d3 6d3e aa7a 633d
000002e0: 6e50 6abe 0493 1e3e d0ff c73e e66f 9d3d
000002f0: 1112 92be 90a9 cbbd 9047 1cbe ff0c 8c3e
00000300: 275b 8bbe 27f1 68be 0c83 0d3f b1fc 62be
00000310: 9e1c 683b fced 993d 8594 cf3e 1c65 2c3e
00000320: 4194 dc3e 1030 e0be 2bbf e43e 8b28 773e
00000330: d2fe 8dbd f293 c3be 089d d03e 9272 57be
00000340: b26d 703e 8ca3 ca3e 2a02 603e d21d b53d
00000350: b7a7 813e 12ac b63d 7957 80bc 854d 0cbe
00000360: bbce 17be 4bff c33e a5b0 e23c e497 b3bd
00000370: 2855 65bd 3c5b fdbb 57e1 253e 1a2a 9c3e
00000380: f7fa 163e 227c 6d3d fcc6 78be b8f8 96be
00000390: befa 813e 772b f6bc 3c23 a7bd d9c2 213c
000003a0: 1d9b 883e ea70 b1be 261e 853e 619d e4bd
000003b0: bb47 833d 0238 7fbe 698c 303e 026f a73d
000003c0: af55 113e 4e4d 623e 7fef 643e beb0 9b3e
000003d0: fbed e3bd 54d7 74be 4905 01be 4175 863e
000003e0: d9e2 5bbe 4154 483e 38cc bd3e d44b 50be
000003f0: 1400 89be 3426 5f3e 7a84 d5bc f070 1e3e
0.2065364 0.24073024 -0.44496104 0.59843004 -0.2686967 0.12576318 -0.48430675 0.43817228
-0.2740846 -0.09434748 -0.19621621 0.40155938 -0.19375701 0.37489334 0.04789245 0.49234754
-0.20253877 0.11074548 0.16504364 -0.23560965 -0.40182394 0.37390384 -0.33945504 0.0016302991
0.051758703 -0.32714552 -0.13359983 0.17727725 0.009855352 -0.23040842 -0.25638235 -0.052332766
0.3098086 -0.21607922 -0.24245493 -0.024914514 -0.037046395 -0.089419596 0.07504548 0.16450346
0.22896753 -0.11632379 0.3665676 -0.2979978 0.29083362 -0.04359746 -0.048887037 -0.15968286
0.3686541 0.1543352 -0.07294119 -0.17090894 0.4109728 -0.26980674 0.12483101 -0.5234762
-0.38036907 0.34058762 0.5177965 -0.20437708 0.09920222 -0.21975577 0.032511074 -0.38146976
0.1319789 0.091356546 -0.2088927 -0.181948 0.08311086 0.14401202 0.045768954 -0.03371006
-0.31794932 -0.017765125 0.3320394 -0.25846878 0.3972829 -0.2090216 0.26604864 -0.23211756
0.16602853 -0.22692086 -0.340589 -0.2512962 -0.0030813166 -0.014819727 -0.20167688 0.15224129
-0.121072754 -0.1352917 0.19529468 -0.1395937 -0.097804986 0.19872071 0.2044256 0.13897823
-0.09857814 -0.15196384 0.26411992 0.18629645 0.11564371 -0.05212474 -0.13400166 -0.19322559
0.120159805 0.115475595 0.24121737 -0.1847404 -0.15944636 -0.32611093 0.016954256 -0.017676447
0.16417769 -0.25312424 -0.19549327 0.092108734 0.2525784 -0.16251878 0.27519402 0.21123415
0.43476525 -0.29332677 -0.23799574 -0.037613377 0.29238328 -0.100235574 -0.22845335 0.0023148705
-0.061521046 -0.22938113 -0.006184431 0.14140846 0.21857233 -0.15658064 0.27027696 0.1309982
0.19209573 -0.11546914 -0.22925773 -0.2642342 0.13134429 -0.37480587 0.28733617 -0.017757423
-0.6298303 0.012203035 0.4317499 0.4681774 -0.5588482 0.4412624 -0.3904648 0.29186642
0.42133728 -0.1547344 -0.12306697 0.21085955 0.046344493 -0.06521658 -0.19078632 0.4897614
0.08280616 0.13399714 0.20475593 -0.026683407 -0.12610659 0.2589265 0.25835758 0.1232728
-0.23714538 -0.027201815 -0.1737954 -0.17214519 -0.13940786 -0.12381472 -0.2260765 -0.14839427
-0.12898794 0.29503897 0.09902648 0.31196088 -0.09679166 -0.20647158 0.23225391 0.055536903
-0.22882244 0.1548577 0.39062357 0.076873586 -0.2852941 -0.09944451 -0.15261674 0.27353665
-0.2721798 -0.22748242 0.55278087 -0.22166707 0.0035417448 0.07516095 0.40543 0.16835445
0.4308186 -0.4378667 0.446771 0.2413656 -0.06933369 -0.3819881 0.40744805 -0.21039799
0.23479345 0.395779 0.21875826 0.088435784 0.2532327 0.089195386 -0.01566671 -0.13701446
-0.14824955 0.3828071 0.027672121 -0.08769205 -0.055989414 -0.0077318233 0.16199242 0.3050087
0.14744173 0.05797971 -0.24294657 -0.29486632 0.25386614 -0.030050023 -0.08161017 0.009873115
0.26680842 -0.3465646 0.25999564 -0.1116283 0.06410166 -0.24923709 0.17241062 0.0817547
0.14192842 0.22099802 0.22356986 0.3040828 -0.111293755 -0.23910266 -0.12599672 0.26261333
-0.21473254 0.1956339 0.3706987 -0.20341426 -0.26757872 0.21791917 -0.026064146 0.1547277

encoder.blocks.0.attn.proj.weight f4 [16, 16]
00000000: ebb4 96be daf2 8dbe 5662 a53e a1b6 8abb
00000010: d221 06be 1617 bebe a147 dcbe abfc 5abe
00000020: 15d4 85bd 0ec0 a63e e00d 403e 358d 54bd
00000030: dd67 fdbc 3e74 963e 8a00 933e ffc0 563c
00000040: e4db ab3d 7dda 69be f98f d63c 5ced b03d
00000050: 2623 d23e 8fdc 843e 5839 d4be 620a 873e
00000060: f518 cb3d defe 0c3e 64c2 c53e bce2 b0bd
00000070: 25f5 78bd 4f29 aabd c6b3 d13e 7de2 b2be
00000080: 7275 49be fb1b 803e 0684 bbbd 2e23 90bd
00000090: a685 543e d198 ccbe 9546 9b3e 64e6 20bc
000000a0: 9887 b3bd 091c b1be 8478 4c3e bb2d 2cba
000000b0: 3ed7 2cbb 3f03 7dbe 5801 713e 1392 4fbe
000000c0: 4e0f c4be cf68 82be 14d5 413e 1cff e3be
000000d0: 5e1a d0be 4b0a c6bc 1799 f2be cb4f 80be
000000e0: c3b1 1fbe 380f a0be 57de e43d d1e6 85be
000000f0: 248e 42bd ebdd 0b3b 3368 5fbd 1ffc f4bd
00000100: 5e41 13be fda7 bd3c 1b27 a5be c395 b53e
00000110: 1d89 be3a be8b c33d f1d4 963e 1d45 74bd
00000120: cda0 933e a161 453e e02e e63e 5ced c0bd
00000130: a4d9 18bf 3aa0 d4be 5b51 86be 20ef 43be
00000140: c6a6 dfbd 4b8b 7f3e cfcc 823e f533 36bc
00000150: cd5d d43d b713 aabe 24cd d9bd 311b 38bd
00000160: 36a6 f5be c857 f23e b941 c2be 6f89 85be
00000170: aad7 08be de43 a93e 812f c5bb be77 e23d
00000180: 7fbb 153e c164 b23d 3c69 d03e af3c c0be
00000190: 5fac 99be 0660 2e3c 2270 bdbe f0c5 b93e
000001a0: 19ee be3e c039 a73d 8ff3 883e 6d19 7b3e
000001b0: 640d 2d3e 088a 033e 791e 81be 083f a2be
000001c0: 1186 393e 52a3 a5be f47c b53e 9ddb 473e
000001d0: dac0 46bd 1255 48bc 9e7f 8fbe f443 87be
000001e0: 5a79 133b 4565 cbbe 4762 50be cd36 7b3d
000001f0: 07cd c5be bcbe 783e 7cbd 963e b697 e43d
00000200: b1a9 8f3e 22dd 9bbe 822d debd a198 b63e
00000210: 9884 c23e 11ae 6ebe 951c bc3e eb43 cb3e
00000220: bdc6 9c3e 4d9b 433e 6c81 5b3e 6a1c 5d3e
00000230: b885 fabd 6f16 453e ce2b 2e3e 4b84 e03d
00000240: 3d28 61be 5265 6abe 0820 e43d ec71 bdbd
00000250: ba4a 44be 15ea cabe e025 da3d 0799 4c3e
00000260: 7f35 89bc 60a9 dcbd 85da 3f3e c0b1 bdbe
00000270: 1c46 eb3e 35a6 d83e 5982 be3e 14a6 52bd
00000280: f34d 853e 6098 9cbe c567 c4bd 1363 ba3e
00000290: f132 a6bd b268 733d b530 b2be 1d3b 6f3d
000002a0: 4bb2 49be b1e4 36be e1b0 c93e 9e5d 233d
000002b0: be5f de3e fedb 6d3e 554c a83e c2a0 833e
000002c0: 5ae5 07be 2cb3 5abe 3ef4 813e aa7a f4bd
000002d0: d6bf 84be eebe cc3e 5e35 ea3c d3ef a93b
000002e0: 3d36 213e bf69 1b3c bb58 51be 57f7 eabd
000002f0: 3856 dd3e 697a 02be a910 cbbd 484d 77bd
00000300: b58b 93be 6f1b 883e f349 f23e ddba 853d
00000310: 38a6 86be 4068 a3be f795 3abd 3ade 013e
00000320: e1cb 1fbe 23a9 1abf 752a edbe c473 e73d
00000330: d2d5 aebe a909 29bc 0026 e23e 68c3 0dbd
00000340: e902 a93e 7516 c6be 09d7 c23e 03e1 be3e
00000350: 9bdc b9bd 9e37 7ebe 8099 923d f1fb 053b
00000360: 7c29 7bbe c3c7 e93d 1ec6 8a3e be51 8d3d
00000370: afa3 e23e 4155 a0be 9f34 853e b917 5f3e
00000380: 10d7 803b cc58 e73d aed5 03bf d726 843e
00000390: 842a 6f3e a12f b93e 7db5 943d 0cba dc3e
000003a0: bd76 3b3d 5539 8cbe d1be 60bd f4e1 903d
000003b0: 5f55 81be dbf5 aabd 822c 923e 90a7 b23d
000003c0: f331 f53e 9c7d 07bf 5969 8bbe a27a f23d
000003d0: 4a45 963e 2b56 06bd 343a f2bd b952 1abe
000003e0: f9fa dbbe ef49 a53d 45dd 14be 5168 783e
000003f0: 11d2 c83e 7e4d 3bbe 57a6 edbe b393 eabe
-0.29434904 -0.27724344 0.32301587 -0.004233197 -0.13098839 -0.37126988 -0.430234 -0.21385448
-0.06534592 0.325684 0.18755293 -0.051892478 -0.030933315 0.2938556 0.2871135 0.013107537
0.0839155 -0.22837253 0.026191698 0.08639023 0.4104244 0.25949523 -0.4145 0.2637511
0.099168696 0.13769099 0.3862487 -0.08636996 -0.060780663 -0.0830866 0.4095747 -0.34938422
-0.19673708 0.25021347 -0.09156041 -0.0703796 0.20754108 -0.3996034 0.30327287 -0.009820554
-0.08766097 -0.34591702 0.19967848 -0.00065680937 -0.0026373412 -0.2470827 0.23535669 -0.20270567
-0.38292927 -0.25470588 0.18928939 -0.4453057 -0.40645117 -0.02417483 -0.47382423 -0.25060877
-0.15595154 -0.3126161 0.111752205 -0.2615266 -0.047498837 0.002134199 -0.05454273 -0.11962151
-0.14380404 0.023151392 -0.32256398 0.35465822 0.0014536713 0.09548138 0.29459336 -0.059636224
0.2883362 0.19275524 0.44957638 -0.09420273 -0.59707093 -0.41528493 -0.26233944 -0.19134188
-0.109204814 0.2495548 0.25546882 -0.011120786 0.103694536 -0.33218166 -0.106348306 -0.044947807
-0.4797837 0.47332597 -0.37940767 -0.26081416 -0.1336352 0.3305959 -0.006017626 0.11057995
0.14622305 0.087106235 0.40705287 -0.37546298 -0.3001432 0.010643011 -0.36999613 0.36283827
0.3729103 0.08165312 0.2674832 0.24521418 0.1689964 0.12845623 -0.2521856 -0.31688714
0.18117549 -0.32351166 0.35446894 0.1951737 -0.04852376 -0.012227314 -0.28027052 -0.26419032
0.002250275 -0.397257 -0.2034999 0.06133156 -0.38632986 0.2429151 0.2944144 0.11161749
0.28059152 -0.30442148 -0.10848524 0.35663322 0.37991786 -0.23308589 0.36740556 0.39700255
0.30620375 0.19102211 0.2143609 0.2159287 -0.12232536 0.19246839 0.17008898 0.10962733
-0.21988006 -0.22890213 0.11138922 -0.092502445 -0.19169131 -0.39631715 0.10651755 0.1998025
-0.016749142 -0.10774493 0.18735702 -0.37049675 0.45951927 0.42314306 0.37208822 -0.051427916
0.26036033 -0.30585003 -0.09590105 0.36403713 -0.08115185 0.059426017 -0.34802786 0.058405984
-0.1969692 -0.17860676 0.3939276 0.039884202 0.4343242 0.23228452 0.32870737 0.25708586
-0.13271084 -0.21357411 0.25381655 -0.11937459 -0.2592761 0.39989418 0.0285899 0.00518606
0.15743347 0.009485661 -0.20444004 -0.114729576 0.43229842 -0.12742008 -0.09915287 -0.060376436
-0.28817526 0.2658343 0.47322044 0.06529782 -0.2629869 -0.31915474 -0.045553174 0.12682429
-0.15605117 -0.6041433 -0.46321455 0.113013774 -0.34147507 -0.010317245 0.44169617 -0.034610182
0.33010033 -0.38689008 0.38054684 0.37281045 -0.0907528 -0.24825904 0.07158184 0.0020444358
-0.24527544 0.11415055 0.27104276 0.06900357 0.44265506 -0.31315044 0.2601671 0.21786393
0.0039318874 0.112962335 -0.51497924 0.25810882 0.23356062 0.3616915 0.07261179 0.43110693
0.045767535 -0.2738749 -0.054869477 0.07074347 -0.25260445 -0.083476745 0.28549582 0.08723366
0.4788967 -0.5292604 -0.2722881 0.118397966 0.29349738 -0.03279702 -0.118275076 -0.15070619
-0.42964914 0.08070742 -0.14537533 0.24258544 0.39222768 -0.1829128 -0.4641597 -0.4581581

encoder.blocks.0.attn.proj.bias f4 [16]
00000000: b5dd 82bd b28a 0c3c 3cd3 533a 46e0 01bd
00000010: 5401 bebb 7621 313d 94a1 31bd 0d31 903b
00000020: ddfd fbbc 46a4 03bd 6b40 cbbc 93e2 b03d
00000030: b03d 51bb 090b 543d bf59 5a3b e3e9 043d
-0.063899435 0.008577989 0.00080804876 -0.031708024 -0.005798498 0.0432448 -0.043366984 0.0044003786
-0.0307607 -0.032139085 -0.02481099 0.086369656 -0.0031927638 0.051768336 0.0033317653 0.032449614

encoder.blocks.0.norm2.weight f4 [16]
00000000: 0ec4 8e3f d9f8 793f 5ed4 853f 698b 893f
00000010: 1d62 813f 5513 5d3f ace6 6c3f 3f76 653f
00000020: 4dcf 7b3f 2a79 773f 4ee9 683f d100 6a3f
00000030: 0262 873f b7eb 6c3f d7f4 6b3f f624 663f
1.1153581 0.97645336 1.0455434 1.074567 1.0108067 0.86357623 0.9253948 0.89633554
0.9836319 0.96669257 0.90980995 0.91407496 1.0576785 0.9254717 0.9217047 0.8990015

encoder.blocks.0.norm2.bias f4 [16]
00000000: e531 e9bc 7cc8 b8bb 4941 673d c1f3 613c
00000010: 7787 663a 4274 bcbd 5fbf a83d 5788 73bd
00000020: fc30 03bc 3812 573d 2de1 103c a24c 4bbd
00000030: fbb6 fa3c ee24 9e3b d820 97bc 529a 79bd
-0.028466174 -0.005639134 0.056458745 0.013791026 0.00087939895 -0.09201862 0.08239626 -0.059456196
-0.008007284 0.05250761 0.008842749 -0.04963363 0.03060483 0.0048261797 -0.018448278 -0.060938187

encoder.blocks.0.mlp.fc1.weight f4 [64, 16]
00000000: 4f45 803e 151a 2c3c d92f 26bd eb58 1fbd
00000010: f846 e1bc 4b3b 57bb f0a0 233e 9e71 693e
00000020: 9927 223e 539b 953d 5cef e03d 4c81 0f3e
00000030: d8ef a63e 4df3 87be 276a a0be fa78 01be
00000040: 94b8 9b3d 6153 dbbc 036c 613d 16db b33e
00000050: 373b 153e 607a e23d b843 0c3e 1da4 47bd
00000060: 0c32 1c3e 3af7 65bd 0466 163e 5974 d03d
00000070: e778 8e3e 001e 91be 4ffd 03be 219b e6bd
00000080: 1870 da3e b3ac 9f3e f54c bcbd 6d6e 97be
00000090: fa07 21be 3232 e0bd b81c 33be 0b82 f73d
000000a0: 3b60 7bbe 0a4f 1cbe 2419 66be 86d8 69be
000000b0: 7133 043d 13da 9ebe 942a 853e d0d6 923d
000000c0: 8221 8cbe 4eaa 94be e96b 9bbe 0788 003d
000000d0: 9234 873e fd13 b7bc 44f7 b33d c97b 21bd
000000e0: 8a88 803e fba2 29be 8585 0abe 5880 6c3e
000000f0: f83c 8d3d 2ac2 55be 22e9 3bbe 29dc 8d3d
00000100: 08b4 b43c eab5 cdbc 2f12 613c 92d2 42be
00000110: 47c9 c93d 6abe dd3d 7320 a1bd 547a 673e
00000120: 28dd 313e f45d 8f3e 6512 233e 9344 273e
00000130: 0fb3 07be 3ed7 99bd 98e5 c93d 6924 a03d
00000140: b4bd 7c3e 5d0a 933d 64c5 5fbe 4a33 3abd
00000150: a0bc a2bd 30e1 8fbe 9ce3 05ba 83ae cebc
00000160: 9663 46be f315 8abe 096b 37be f83d 1dbe
00000170: e128 45be 175a 27be 7f55 59be dc89 d53c
00000180: a0a9 893b 4fd5 ba3c e022 e6ba 35c0 aa3d
00000190: c984 40be f429 803e a71f 19be 626b da3d
000001a0: b340 d43d 95e5 05be 3aa5 643e e859 af3d
000001b0: f8ca 103e 0527 53bc 2130 293e e35b 34be
000001c0: 4aa7 973d 4a38 663e aaf7 503d 79ce d73d
000001d0: fbee b83d c73f 60bd 93ac 603e 3e18 6c3e
000001e0: 0ad4 88bd cc5a 3d3e 2f81 15bd 0a06 2b3d
000001f0: 0337 c5bd 0666 74be 0abd 84be 60cb f43d
00000200: 7775 883e f8e7 3d3d 2d4e c5bd d4a8 f1bd
00000210: b5f1 063e fbdb f0bd 10bf 313e 08d0 e93c
00000220: ca5f a4bd 9950 3e3e 9ac0 12be aaca 573e
00000230: 8e6f 28be e61a 87be f47b 25bd 807d e7bd
00000240: f89b 803e edad 883e e547 5fbd af59 08be
00000250: 9a7c 753e a644 46be b697 523e 680b 5ebd
00000260: 9d79 f53d f6ad 6c3d 72e9 243d c7c8 9fbe
00000270: 9c41 b3bd f08a 52be 0434 1f3d 8750 eb3d
00000280: 395d 37be f1af 60be 7501 4fbd 9fdc 343c
00000290: f6b5 adbe 5e97 85be fc1f 873e fb5f 5ebe
000002a0: a2cc 55bd fc80 65be 1d3a 0b3e b4fb c43d
000002b0: 01d9 fbbd c24b 64be ddf3 883e 1317 82bd
000002c0: 34c2 3a3e 0f9c 473e 412c d83b 8ed7 ed3d
000002d0: 618b d83e e29f a2bd 3114 32be 9eb9 5b3e
000002e0: cb95 60be fa78 22bd 5bca ba3d db5a 1b3e
000002f0: 535d 63be a4e9 8dbc a4cb be3d 178a 24be
00000300: 4cf8 6fbd c89b 4fbe b8d6 3c3e 5cff ffbd
00000310: f156 e8bd ef49 f43d 70c0 d93d 3b98 c7bd
00000320: a97c 183d 107d e1bd ba8d 643d ed13 0fbe
00000330: 8577 80be df5f 15bd 2346 f73d 527b 8abe
00000340: d0a9 403e fd8d 4fbe a281 d63d 3b39 85be
00000350: 68b3 f7bd 8036 803e a1f4 0dbd 9816 6abe
00000360: 59ed 4dbe 887c c43e 8699 813d 8b12 b1bd
00000370: 19c5 64be 07f0 81bd 5bca 893e 9510 773e
00000380: 391f 5c3e 337c 18be b740 95be bca7 b43d
00000390: 666d c73e 2869 4f3e 7fd6 3d3e e459 c7bd
000003a0: ddec 6ebe 9a4a 47be 7a56 6cbe c311 243e
000003b0: 0756 a2bd fccf be3d fb33 2fbd 3b6c 7ebe
000003c0: 5152 2abe 6099 153e ab7e 2fbe 8c6c 623d
000003d0: c682 c83d 02ee 863e b739 133e a719 793e
000003e0: 088f 283d 235a 0abe f040 3e3e b875 b13d
000003f0: 4bb3 9dbc a56d 203e 8138 703e a8fe 613e
0.25052878 0.010504265 -0.040572975 -0.03890316 -0.02749966 -0.0032841738 0.15979362 0.22797248
0.15835418 0.07305016 0.10983154 0.14014167 0.3260486 -0.2655281 -0.31330988 -0.12643805
0.07603565 -0.026773157 0.05503465 0.35128087 0.1457337 0.110584974 0.13697708 -0.048740495
0.15253466 -0.056143977 0.14687353 0.101784416 0.27826616 -0.283432 -0.12889598 -0.11260057
0.42663646 0.31186447 -0.09194366 -0.29576436 -0.15725699 -0.10947074 -0.17491424 0.120853506
-0.24548428 -0.15264526 -0.22470528 -0.22836503 0.03227562 -0.31025752 0.26009047 0.071698785
-0.27369314 -0.29036182 -0.30355766 0.031379726 0.26407295 -0.022348398 0.087873966 -0.03942469
0.2510417 -0.16566078 -0.13527496 0.23095834 0.068963945 -0.20874849 -0.18350652 0.06926758
0.022058502 -0.025111157 0.013737245 -0.19025639 0.09852844 0.10827334 -0.07867517 0.22605258
0.1736952 0.28001368 0.15924986 0.16334753 -0.13251899 -0.07511757 0.09858245 0.07819445
0.24681741 0.07179711 -0.21852642 -0.04545907 -0.079461336 -0.28101492 -0.0005107464 -0.025229698
-0.19373927 -0.2696987 -0.17911924 -0.1535567 -0.19253875 -0.1634296 -0.2122402 0.026066713
0.004201129 0.022806792 -0.0017558001 0.08337442 -0.18800654 0.25032008 -0.1495348 0.10665013
0.10363903 -0.1307586 0.22328654 0.0856207 0.14139926 -0.012887721 0.16522266 -0.17613177
0.07404955 0.2248241 0.05101744 0.105374284 0.09029957 -0.054748323 0.21940832 0.23056123
-0.06681068 0.18491668 -0.036500152 0.041753806 -0.09629633 -0.23867044 -0.25925475 0.11952853
0.2665212 0.0463638 -0.096340515 -0.117997795 0.13178141 -0.11760708 0.17358041 0.02854158
-0.08026083 0.18585433 -0.14331284 0.21073404 -0.16448805 -0.2638771 -0.040401414 -0.11303234
0.25118995 0.26695195 -0.054511923 -0.13315462 0.23973313 -0.19362125 0.20565686 -0.054210097
0.119860865 0.05778309 0.040261693 -0.31207868 -0.08752748 -0.20560813 0.038867965 0.11489969
-0.17906655 -0.21942116 -0.0505385 0.011038928 -0.33927888 -0.26092046 0.2639159 -0.21716301
-0.052197106 -0.22412485 0.13596387 0.09618321 -0.122972496 -0.22294524 0.26748553 -0.06352057
0.18238145 0.19493125 0.0065970724 0.116133794 0.42293838 -0.079406515 -0.17390515 0.21457526
-0.21932141 -0.039666153 0.091206275 0.15171377 -0.22203569 -0.017323323 0.09316185 -0.16068302
-0.058586404 -0.2027427 0.18441284 -0.12499878 -0.11344708 0.11928164 0.10632408 -0.097458325
0.03722826 -0.11010182 0.055799223 -0.13972445 -0.25091186 -0.036468383 0.120739244 -0.2704721
0.18814778 -0.20269008 0.10473944 -0.26020226 -0.12094766 0.2504158 -0.034657124 -0.22860181
-0.20110072 0.3837626 0.063281104 -0.08646115 -0.22340812 -0.0634461 0.26912197 0.2412742
0.21496285 -0.14891128 -0.29150936 0.08821055 0.38950652 0.20254958 0.18538855 -0.09733942
-0.23332544 -0.19462052 -0.23079863 0.160224 -0.07926565 0.093170136 -0.04277418 -0.24845974
-0.16632964 0.14609289 -0.17138164 0.0552793 0.09790568 0.2635346 0.14377485 0.24326192
0.04115203 -0.13510947 0.18579459 0.08665031 -0.019250533 0.15666826 0.23459055 0.220698

encoder.blocks.0.mlp.fc1.bias f4 [64]
00000000: 555e 80bd dc0f b7bd 5cbf 2dbd d377 2dbb
00000010: b5d8 91bb 1b56 99bd f784 9f3c 5bb4 f0bc
00000020: 4a97 8ebd 2a40 d4bc cddb 78bd 6627 d4bb
00000030: 6eda c1bc 71ea 34bc 3e17 213d 25b5 aabc
00000040: 2bed 383c 01a0 a33d c261 acbb 977c 80bd
00000050: a1b4 69bc b0e0 94bc 9cdd 203d 3dad 9cbd
00000060: 15de 013d 307a abbc 1ca1 d3bc 3d8a 26bd
00000070: a788 91bd 3410 64bd eeba 8ebc d1b8 94bc
00000080: d0f9 76bd 2b05 fb3c a745 a6bd ef1a de3a
00000090: 7783 94bd 9496 f7bc edb3 e6bb c8a6 023d
000000a0: 91c1 213c 7f09 f73c 8049 ffb9 e019 633b
000000b0: 6dae 3d3a 968a 853d 4b20 bebb 7351 713d
000000c0: 884d a1bd 9d24 97bd 04b2 0ebd 5762 d23b
000000d0: d738 8dbd a8c4 78bc 5ca9 a9bc 19c2 bf3d
000000e0: 6f9f 21bd c88e b3bd fd75 89bd a6e7 2cbd
000000f0: aa8f 0a3e 19bd 4bbd 7e56 703d 27e2 91bd
-0.062679924 -0.08938572 -0.042418823 -0.0026469126 -0.0044508823 -0.074871264 0.019472582 -0.029382875
-0.0696245 -0.025909502 -0.060756493 -0.006474423 -0.023663726 -0.011042223 0.039328806 -0.02083833
0.011287014 0.07989503 -0.005260677 -0.062737636 -0.014264257 -0.018173546 0.039273843 -0.0765023
0.031705935 -0.020932287 -0.025833659 -0.040659178 -0.071061425 -0.055679515 -0.01742312 -0.018154534
-0.060296834 0.030642113 -0.08118754 0.0016945283 -0.072516374 -0.030223168 -0.007040492 0.031897336
0.00987281 0.030155895 -0.00048692152 0.0034652874 0.00072357693 0.06520574 -0.0058021895 0.058915567
-0.07876116 -0.0738003 -0.034837738 0.0064204144 -0.06895607 -0.015183605 -0.02071064 0.09363193
-0.03945869 -0.08767468 -0.067119576 -0.042213105 0.13531366 -0.049740884 0.058676235 -0.07123213

encoder.blocks.0.mlp.fc2.weight f4 [16, 64]
00000000: 7989 b73e 5d55 ae3e 4a7d 3fbd 28b6 3b3e
00000010: 8193 87be ae81 74be f635 ff3d 5591 f63d
00000020: c2dc a9bd 7b54 ba3b ef2b 58bd b481 643e
00000030: d90c 2e3e 7872 023d daf5 03be d9a0 65be
00000040: 3854 73be bbfc 15bd 9dfc 083d f93e 88be
00000050: f868 8cbe 1b37 66be 0afc 30be 7048 a83d
00000060: fd70 02be c1c5 723e 2164 843d f5c7 d33c
00000070: 171d 14bd 4dd5 debd cb80 3dbe d07a 66bd
00000080: 1751 8d3e de85 a73d 47fc 583e e28c 6b3d
00000090: 28fa 02bc f575 353e 62c7 a2bd 9dc1 40be
000000a0: b910 bc3d ebc1 e3bc bd9b 98be 2fda b83d
000000b0: 4877 3dbe 92d3 acbe d9ec 49be bc16 a3be
000000c0: 4b5a a6bd 2546 893e f0f1 363e 2bfe 9f3d
000000d0: 012d 70be 77f0 243e 6fb7 9dbc 2d94 83be
000000e0: 7854 cf3d 6437 913e c40a 0a3e 1996 d33e
000000f0: 7704 ac3d 1ca2 fc3d ddba 74be f530 c9bd
00000100: 1366 e4bd acaa 39be 3b36 9fbb 3f6e 1bbe
00000110: 3aa8 703e 7f42 83be 4d12 e63c 3963 f73d
00000120: 99b3 063e 8e16 1bbd a5f7 a63d 36a5 273e
00000130: 6c2f 663d 55b8 013e 84e9 5e3d ee64 463e
00000140: 3067 7f3e 8aa6 a9be c1c6 fb3d bae7 58be
00000150: c1d1 983d d082 5d3d b3da 40be 2f2c 0b3e
00000160: 3993 c63d 725c 2fbe 545b ad3d 2eda 563e
00000170: e5f2 57bc c31c 893e 7b7d 143d e41f 4b3e
00000180: 3399 7d3e a4c5 2bbe 182f 233e 4c4e 603e
00000190: 8bb7 1abe b9fc e1bd 4caa 9c3d d105 1abe
000001a0: a73c a13e 7004 ac3b 3887 fc3b 2889 91bd
000001b0: 2c72 84be 8300 403e 3df6 5ebe c776 4f3e
000001c0: 8148 4fbe 4795 1c3e 71c5 773e a45d 483e
000001d0: bcef cbbd eddd 21be 0195 5bbe 0ca5 ef3e
000001e0: 443f 29be 1448 413e 184d 2a3e be8e 5f3e
000001f0: a7bd 653e 9082 6f3e 29ed 37be 2f89 a4bd
00000200: ec1c 1fbe f412 95be 4e91 543d 10f5 313e
00000210: ad38 ebbd 9244 493d 78d5 913d 215f 423d
00000220: b450 85be d4c3 be3d 6840 66be e9c0 793e
00000230: b8d2 2ebe 4c50 113d 6f80 b33c 3856 2a3c
00000240: ebbe 653e 33f2 03be 0ef8 143e edd6 823d
00000250: f669 c2bd a96f c53d 20dc e8bd c0c8 453e
00000260: 4c89 633e f142 cdbd 2d3b e8bd 9a11 823e
00000270: d9d3 f6bd 2dcc 1e3b 6921 afbc 4eb8 9b3d
00000280: 1da8 80bd 64be 3cbe ee62 05be ff83 19be
00000290: 2730 f2bd 9d2e bdbd c744 b5bd e033 39be
000002a0: 89e0 5f3d 597a c7be 0f8d ef3d b46e 13be
000002b0: 48a2 253e 8103 1abe a0af a3bd 3474 bbbe
000002c0: 6aac 163e 0e4d 19be 3d55 753e bc9c 35bd
000002d0: 7a6e 563e 0f3d f43c 872a 0d3e cf66 c6bd
000002e0: 5664 d83d 27ff c23d 92ae 0e3e c9ba 0dbe
000002f0: 759e b73e a377 55be 52b2 11bd d534 bfbc
00000300: b322 043c 2d09 3b3e 182f 123e 7d94 7bbe
00000310: 5187 1fbe 2b1a e03d 07e9 0d3e 8e62 f8bd
00000320: 1c88 813e 5fa8 c03d cca6 093e 2299 943d
00000330: 934e 0d3e e0d3 583e 4532 88be ca2d 79be
00000340: 5493 c13d 41b6 33be 104e 743e b864 843e
00000350: 208c d0bd 05e0 423e d83f 48be 40ee a93d
00000360: e010 a73c e7e0 2f3e 3f5d 64be 6f94 8c3e
00000370: 9621 babd 9902 ba3e 068a 56be 31f2 1f3d
00000380: 6b92 573e c754 fcbd 3a4b 233e 1e5d 48be
00000390: 746e 5dbd 1216 353e ea13 be3d 8138 7fbe
000003a0: 1a5e df3c f9c5 563e dce3 e03b 1bee 633e
000003b0: 130f 9dbe 52d4 6bbe f492 283e 96cd 9bbe
000003c0: bfe3 ec3d b460 943e 1bc3 7f3e 8e98 053e
000003d0: 5853 ff3d a23d 5d3e 3a0c 25be 35ba 9c3e
000003e0: 979b 24be 4b39 2fbe 4e3b de3d 8ea8 013c
000003f0: 12a0 813e 0c13 2c3e 46d3 f83d 0ef5 5f3e
0.3584707 0.34049502 -0.046750344 0.18331206 -0.26479724 -0.23877594 0.12461464 0.12039439
-0.08294059 0.0056863404 -0.052776273 0.22315103 0.16997088 0.031847447 -0.12886754 -0.2242464
-0.23762596 -0.036617976 0.033444036 -0.26610544 -0.27423835 -0.22481959 -0.17283645 0.08216941
-0.12738414 0.2370825 0.064644106 0.025852183 -0.036160555 -0.10880528 -0.18506162 -0.056269467
0.2760093 0.0817983 0.21189986 0.057507403 -0.007994212 0.17720778 -0.079481855 -0.18823858
0.09182877 -0.027802428 -0.2980632 0.0902599 -0.18502533 -0.33755165 -0.19719256 -0.31853282
-0.08122691 0.2681133 0.1786573 0.078121506 -0.23454668 0.16107355 -0.019252507 -0.25698987
0.10123533 0.28362572 0.1348067 0.41325453 0.08399289 0.123356074 -0.23899408 -0.09823791
-0.111522816 -0.18131512 -0.0048587597 -0.15178774 0.23501673 -0.2563667 0.028084898 0.12079472
0.13154449 -0.037863307 0.08152703 0.16371617 0.05619757 0.12667973 0.054421917 0.19374439
0.24941707 -0.33134872 0.12293769 -0.21182147 0.074618824 0.05407983 -0.18833427 0.13591073
0.09696049 -0.17125109 0.08464685 0.20981666 -0.013180469 0.26779756 0.03625248 0.19836384
0.24765472 -0.16774613 0.15935934 0.21904868 -0.15109079 -0.11034531 0.07649669 -0.15041281
0.31491587 0.0052495524 0.007706549 -0.071062386 -0.25868356 0.18750195 -0.2177362 0.20260154
-0.20242502 0.1529132 0.24196412 0.19566971 -0.09957835 -0.15807314 -0.21443559 0.46805608
-0.1652804 0.18875152 0.16630971 0.21831796 0.22435628 0.2338965 -0.17961563 -0.08033978
-0.15538377 -0.29116023 0.051896386 0.1737864 -0.114854194 0.04913766 0.07120794 0.047454003
-0.26038134 0.09314695 -0.22485507 0.24389996 -0.1707257 0.035476968 0.021911828 0.010396533
0.2243611 -0.1288536 0.1454775 0.0638865 -0.09492867 0.09640438 -0.113701105 0.19314861
0.22220343 -0.10022534 -0.11339412 0.25404054 -0.120521255 0.0024230585 -0.021378236 0.07603513
-0.06282065 -0.18432003 -0.1302602 -0.14991759 -0.118255906 -0.092374064 -0.08851009 -0.18086195
0.054657493 -0.3896053 0.11696827 -0.14397699 0.16175187 -0.15040399 -0.07992482 -0.36612093
0.14714208 -0.149708 0.23958297 -0.044338927 0.20940581 0.029814271 0.13785754 -0.09687578
0.105660126 0.09521323 0.13933781 -0.13840784 0.3586308 -0.20846419 -0.03557045 -0.023340622
0.008064914 0.18265219 0.14275777 -0.24568363 -0.15578963 0.10942491 0.13858424 -0.12128173
0.25299156 0.09407114 0.13442534 0.0725577 0.13799505 0.21174574 -0.26600853 -0.24333873
0.09451929 -0.17549993 0.23857903 0.25858092 -0.10182977 0.19030769 -0.19555604 0.08297396
0.020393789 0.17175637 -0.22301196 0.27456996 -0.09088437 0.36330107 -0.2095109 0.03904933
0.21051948 -0.123208575 0.15946665 -0.19566771 -0.054060414 0.176842 0.09281142 -0.24923898
0.02726655 0.20973958 0.0068631005 0.22258799 -0.30675563 -0.23030213 0.16462308 -0.30430287
0.115668766 0.2898003 0.2497677 0.13046476 0.124670684 0.21605542 -0.16117945 0.30610815
-0.16074978 -0.171117 0.10851155 0.007913722 0.25317436 0.16804141 0.12149672 0.21870825

encoder.blocks.0.mlp.fc2.bias f4 [16]
00000000: 2532 e8bd f233 7d3c 4d8e c3bb a48c fcbc
00000010: 40cc 583c 4106 9b3d 5a59 babd 89c9 c13b
00000020: 6c5a 4a39 361d 28bd 55ce 30bd 11bc 993d
00000030: 85c1 933c 79d7 8d3d 45e6 d1bc 851b 773b
-0.11337689 0.015454279 -0.0059678913 -0.030828781 0.013232291 0.07569552 -0.09099074 0.0059139174
0.00019297906 -0.041043483 -0.043165524 0.07506574 0.018036613 0.06925864 -0.025622496 0.0037705612

encoder.blocks.1.norm1.weight f4 [16]
00000000: 4c35 853f 4cb0 823f 683a 823f bb19 803f
00000010: 395b 893f ee9d 883f 4bd6 853f d9f2 753f
00000020: debe 823f 7480 7b3f f1f8 6e3f 9bcf 7f3f
00000030: 99aa 863f 5f13 843f 70d7 653f 9eb6 8a3f
1.040689 1.0210052 1.0174074 1.0007852 1.0730964 1.0673196 1.0456022 0.9607368
1.0214498 0.9824288 0.93348604 0.99926156 1.0520812 1.0318412 0.89781857 1.083698

encoder.blocks.1.norm1.bias f4 [16]
00000000: 4ba0 0dbe 865c 403c 199b a43c be4d 80bc
00000010: 124e 35bb 790d 6a3d 327d 8cbd a728 9fbb
00000020: e0d5 8d3c 0f49 16bd 44dd 4fbd 6f94 963d
00000030: d0c9 a83c ac20 653d 3ca4 61bc 75ba c53c
-0.13830678 0.011740809 0.020093488 -0.01566207 -0.0027664942 0.057141755 -0.068598166 -0.004857141
0.017313898 -0.036690768 -0.050748125 0.0735253 0.020604044 0.05593936 -0.013772067 0.024136761

encoder.blocks.1.attn.qkv.weight f4 [48, 16]
00000000: 235c 81bc 1a48 ccbe faa3 3fbe cddf aebe
00000010: 796d 38bd 46b4 84bd bac4 1fbe d893 23be
00000020: 3038 d3be 5bb2 c0bd 32f4 3d3e d2ce 443e
00000030: d10b 473e c2da babe 5fcf a13e 43e6 ffbd
00000040: 2ff0 203c 0b7e bd3e 16f8 45bd 0aa5 78be
00000050: e729 383e a00d 803e 1ddd e6be ab2f 96bd
00000060: 4765 5c3e b9a9 aa3d 3475 91be c640 5b3e
00000070: d5aa e3be ba5a 823e 9733 983d ee95 823e
00000080: f34a f63d 75e2 b5be 374a ccbd a324 02bd
00000090: 2fe7 b23e eabb 41be 7a4c 313d be64 f0bd
000000a0: fd8e 24be 24ed 41be efba a8bd a7ce 90be
000000b0: 25fe 38bd 25e5 643e e8e7 69be e80f 153e
000000c0: 3ae4 15be 9275 0d3f 8c9f e63d 0ad5 523d
000000d0: 8ea4 82be 6867 4bbe 7c14 4abe 90b8 073e
000000e0: 28c5 493d b821 1f3e 8c2c f7bc 34ca a73e
000000f0: 25e7 753e fbbc db3e d6b6 56be 92ee c7bb
00000100: dee3 2dbe 5791 263e a7e1 913e 29cb cbbd
00000110: e8d0 2a3e 30a3 6a3e 4251 dfbd 59e1 cbbc
00000120: 64b0 913d 0558 073f eeb4 523e 326f dfbe
00000130: e5ea 273e 1cbb 40bb aaf5 4f3e 3363 2abe
00000140: 829c 30bd d222 f03d b711 e23e 0d8c 01bd
00000150: 1d64 16bd b29c 8ebc c496 83be cd3d bb3e
00000160: 1328 603d 9790 67be feb7 0e3d ce4b 793e
00000170: c70b c93d 06da 30be bfa8 8a3d 0de1 14be
00000180: dba4 e1be 4fed 31bd fe99 d43d 79a8 0cbd
00000190: f30f f2bd 2acb a7bc 0fa0 4bbe 6c07 993e
000001a0: 266c 00be 4d2f 9c3e c12b 70bd 1751 353e
000001b0: 4a8e f63d 5af1 153e c62d 70bb 572e 7c3d
000001c0: ff93 b43e 5df7 16bd aa6a 96bd abde 58be
000001d0: 1c49 6e3e b270 803e 74c9 7a3e 9829 373d
000001e0: 7e5a 6bbe c45b 943e 18ac 7abe 8063 ac3c
000001f0: 4c37 5d3d 5300 16bd 00ea c1bd 1f23 c83d
00000200: d174 983e 2a97 cbbe 643b 923d 5330 303e
00000210: 3c67 48be f1c3 713e 18d2 843e eab8 1f3d
00000220: e19a 1cbe 7e52 9b3e 13bb 893d cb5a e73c
00000230: 0ce0 99be 758b 12bd c17b d5bd 141d 38be
00000240: ee7d 103d 1330 373e e721 3fbd 6dcf f6bd
00000250: 9c63 50bc 5245 a83e 4f09 cabe 67ae 983e
00000260: df05 10be 5d7e 0d3d a606 cdbc 9720 17be
00000270: 84d0 08be a0d2 55bd c985 b6be c29a 1dbe
00000280: 7e9d a0bd dcc4 10bc 579a 11be 5e57 72be
00000290: 5227 103e aa3c 40be 58e0 0ebd af87 c9bd
000002a0: 1b6d ac3e 0a19 303e aacd d83d dbd0 dabd
000002b0: 09a5 2ebe 68ec 7c3e 3c11 85be ef15 a4be
000002c0: 954b 5dbc 0999 1f3e 79d2 07be 00fc c63e
000002d0: e574 253e 79b9 003e d13d ac3d 4de9 8a39
000002e0: 4c78 683e 8b5d 1e3e 7325 bfbd 2a30 763e
000002f0: 0ca1 54be ffc5 693e f0cf 96bd 89ff 64be
00000300: dbde 273c 4d32 283e 5081 b6bd 5010 8f3d
00000310: 9d2c 603d ea72 1fbe 947b 4bbe ff15 97bd
00000320: a2f5 9a3e 872c 98be 6276 1cbe 2f9c b5bd
00000330: 0bb7 da3e a2ef b7bd cee3 81be 6f95 babe
00000340: 5346 fc3e 08fb a2bd f797 47be 53d5 9abe
00000350: 84f0 943e dffd 6d3e e5f6 373e 29fe b5be
00000360: 788a 8ebe 90e4 8f3e e39f f63e e14a bebe
00000370: 4353 08bc 880c 063e f352 433e 7548 99bd
00000380: 4292 6f3e 849f 77bd a436 843e fdd4 d23e
00000390: 7583 c6be a3e2 173e 1191 f53c af19 81be
000003a0: eb3f a53e 1360 903e 14f5 4f3b 80f8 733e
000003b0: bea4 693e 99af 1a3e bbed 2fbd 7b1a 6cbc
000003c0: 2b60 503e ec31 7bbe b4c3 7abe c435 003e
000003d0: 590e 6a3d be05 cdbd ebea 953e 4551 3abe
000003e0: 8b84 84be 7f3f 80be 0799 abbd 2dda 9cbe
000003f0: fccb f8bd 9de2 bebd 16dd ddb9 4357 8cbd
-0.015791005 -0.3989876 -0.18714896 -0.3415512 -0.045026276 -0.06479697 -0.15602389 -0.15974367
-0.41253805 -0.094090186 0.18550184 0.1921952 0.19438101 -0.36495024 0.31603524 -0.12495091
0.009822889 0.37010226 -0.048332296 -0.24281707 0.17984734 0.25010395 -0.4509057 -0.07333311
0.21523009 0.08333153 -0.2840973 0.21411428 -0.44466272 0.25459844 0.07431715 0.25505012
0.12026014 -0.35524336 -0.09975093 -0.03177322 0.34942004 -0.1891934 0.043285824 -0.11737965
-0.1607017 -0.18938118 -0.0823878 -0.28282663 -0.045164246 0.22353037 -0.22842371 0.14556849
-0.14637843 0.55257523 0.112609 0.0514727 -0.2551617 -0.19863665 -0.19734377 0.13253999
0.04926029 0.15540206 -0.030172609 0.32771456 0.24013956 0.42917618 -0.20968184 -0.006101438
-0.16981456 0.1626638 0.28492472 -0.09950859 0.16681254 0.22913814 -0.109041706 -0.024887728
0.07113722 0.5286868 0.20576832 -0.43639523 0.16398199 -0.00294084 0.20308557 -0.16639404
-0.043118007 0.117253914 0.4415414 -0.031627703 -0.03671657 -0.017408703 -0.25700963 0.36570588
0.054725718 -0.2261375 0.034843437 0.24345323 0.098166995 -0.1727067 0.06770467 -0.14538975
-0.44071087 -0.043439206 0.10380934 -0.034340356 -0.11819448 -0.020482618 -0.19885276 0.29888475
-0.12541255 0.30504838 -0.058635477 0.17706715 0.12038858 0.1464285 -0.0036648377 0.06156763
0.35269162 -0.036856998 -0.07344563 -0.21178691 0.23270077 0.2508598 0.24490911 0.0447174
-0.22983739 0.28976262 -0.24479711 0.021043539 0.054007813 -0.036621403 -0.0946846 0.09772324
0.29776624 -0.39763767 0.07140234 0.17205934 -0.19570631 0.23609902 0.2594154 0.038994707
-0.15293457 0.30336374 0.06725135 0.028241536 -0.30053747 -0.035777528 -0.10423995 -0.17979842
0.035276346 0.17889433 -0.04666319 -0.12051282 -0.012719061 0.32865387 -0.39460227 0.29820558
-0.1406474 0.034544338 -0.025027584 -0.14758526 -0.13360792 -0.05220282 -0.35648945 -0.15391067
-0.07842539 -0.008835997 -0.14219032 -0.2366614 0.140775 -0.18773142 -0.03488192 -0.09840333
0.3367699 0.17197052 0.10586102 -0.10684367 -0.17055143 0.24699557 -0.2598971 -0.32047984
-0.01350679 0.15585722 -0.13263883 0.38864136 0.16157873 0.12570752 0.08410228 0.00026495234
0.2270214 0.15465371 -0.09333315 0.2404181 -0.2076456 0.22829436 -0.0736388 -0.22363104
0.010246004 0.16425438 -0.08911383 0.06985533 0.054730047 -0.1557118 -0.1987136 -0.07377242
0.30265528 -0.29721472 -0.15279534 -0.0886768 0.42717776 -0.08981253 -0.25369114 -0.36442134
0.49272403 -0.07958037 -0.19491564 -0.30240878 0.2908975 0.23241375 0.17965277 -0.3554547
-0.27840018 0.28104067 0.4816886 -0.37166503 -0.008320632 0.13090718 0.19074611 -0.07484523
0.23395637 -0.06045486 0.25822937 0.41178122 -0.3877217 0.14832549 0.0299764 -0.25214908
0.32275328 0.281983 0.0031731771 0.23825264 0.2281675 0.15106048 -0.042951327 -0.01441061
0.20349185 -0.24530762 -0.24488717 0.1252051 0.05714259 -0.10010861 0.2928079 -0.18195064
-0.25882372 -0.25048444 -0.08378797 -0.30635205 -0.12148282 -0.09320567 -0.00042317127 -0.06852581

encoder.blocks.1.attn.proj.weight f4 [16, 16]
00000000: 4522 dc3e 8467 8c3d 7afe 6fbe 971e b13e
00000010: 4f52 c6bd c0c8 4b3d b450 b13e 763e 77be
00000020: c52f 89be f0e4 253e 7749 b9be 5e46 03bf
00000030: 1540 3e3e 8a1a a7be 106c d73e c3f4 8f3d
00000040: 926c f23d f9a9 63bd 4f7d 93be a03c 763e
00000050: 0ca1 57bd 4f82 a4bd 46b4 4a3e 2aa8 f6bc
00000060: afaa adbd b7c8 7abd f0b2 413e d994 e23e
00000070: bd9a 7d3d 2ca9 5abd 5b49 04be 2730 84be
00000080: 6168 83be 6c37 9abe aa13 cc3e aa76 c83d
00000090: 3cb8 34bd 62a5 81be 9629 a0be 2727 b13d
000000a0: b9f0 27be e752 0b3e d7f2 f8bd b699 6ebc
000000b0: 358d 1c3e 64ac d83b 2f5d 973e 04a1 023d
000000c0: c81b 96be 8df4 933e 0129 7fbe 29ab 723e
000000d0: 4248 38be f333 b63e 559a 443e 5b4d 82be
000000e0: 437d 2ebe 7296 353d db3c e53d f452 b7be
000000f0: 84ee e53e 76df 71bd 5d98 9e3e ced2 bb3d
00000100: 3f4e 313e 504e cc3d e570 343e 449f 853e
00000110: 7602 323e 6430 e4bc b314 01be d666 803d
00000120: 3999 b9be fc95 23be d947 9e3d 1b14 c93e
00000130: b754 353e 3a90 b83d 0631 b33e 7093 4ebe
00000140: 345c b6be 0cf4 d3be c147 9bbe 578b 00be
00000150: d3aa ecbd ef1b bc3e 62a2 afbe 0e1a 0c3e
00000160: bae7 b6be 3f5e b2be 0757 ac3d 0d72 b33e
00000170: a6aa b5be 2df2 ac3e 2dc4 293e 95c3 0bbc
00000180: e50b a8bc 058a 8d3e aa96 d13e f878 b4be
00000190: d083 9a3e 4e98 9cbe 4916 903d 2a51 053e
000001a0: 1201 b3be 08a8 563d 6f0b a13e e60e 08bd
000001b0: 5525 57be adab 613e b8f8 5a3e 95cd 2a3c
000001c0: 7cfd 9a3d 17db b93e 44e9 b8be 892e b13b
000001d0: 4291 3abc a824 b5be b17a 9cbe 3dba a13e
000001e0: 4b76 ac3e 1993 913e 8d0f ca3e ab4d d2bd
000001f0: c847 143d 82e2 bcbe 2a90 95bd d8c4 96be
00000200: cd12 c83d c2bc 9bbd 0eae 3abe b3d5 67be
00000210: 0e58 a3bb 9bcc aebe 79e3 c03e effb 03be
00000220: 99bf d6be f372 5c3e fe13 b73e 9260 dc3e
00000230: f882 8e3c 8ac6 29be 126d df3c e3b7 92bd
00000240: 3f86 7fbd 5ed6 36bc e264 013f b6b7 28be
00000250: ceeb 9b3e 0de6 dbbe 33f5 e8be ce6c 4c3e
00000260: 71ce 64be 63c2 c93e 75c8 c03d e1d3 71be
00000270: bf77 e2be 5065 783e 244a 8bbb 340f 973e
00000280: c4a4 f4bc d6cf 493e 93f5 95be c6ff 94be
00000290: 0587 b33e c83a 58be a9ad e83d 6d4f 093e
000002a0: a6be 90bd c925 8dbb 8f99 813e 0a9e ad3e
000002b0: 5286 e3ba 2f26 d9be 74d5 e2bc 2ee9 45be
000002c0: b3b2 a43e 4791 d43e b362 d4be e131 e83e
000002d0: 5545 e0bd aa8c 053e 2f04 94be de70 f9be
000002e0: 3e0b 6d3e eb92 35be bd4c 9ebe b8bb 83bd
000002f0: 3e05 6b3e 0a45 b4bd 3167 ecbe a5cd 6ebe
00000300: 2378 e93c fe56 a7be 101a 803e 0044 babe
00000310: 506a 83be 59d3 ccbe b383 0f3d 1f81 8e3e
00000320: 6dcc 18be 0e94 aebd 8e88 a23d f2db bebd
00000330: b9fe 313e c709 c6be 7c09 203c 67d7 89be
00000340: 626a c43c be48 2d3e 552c 283e 0102 eb3e
00000350: a1da 5b3e 6dfc dbbc e3b8 8fbe 7d8a b23d
00000360: e076 9d3d 2ab7 a33e a1b9 ac3e ce2b 22bd
00000370: b870 c03d fe85 113c 8f50 aabe 2acf dbbe
00000380: 7c30 89be 68c2 873e 5c2d dfbe d078 a53e
00000390: 752e 97be 0f49 943e 9f38 313e 4cb1 803e
000003a0: 52b2 81be acbb 803c 79e6 903e 0e79 ef3e
000003b0: 32ca b03d 20a2 ec3e c53d b6be 01de 973e
000003c0: 9763 1abe 5b7d c33d 9eb2 d0bc 0e09 3fbe
000003d0: adc2 0b3e fecb 46be 9dd9 a83e 446d f13e
000003e0: f397 a63e 79db 273c af65 973e b699 a4be
000003f0: f7e4 acbe 3e4e 3abe a882 cebe 09f5 b83e
0.42994896 0.068556815 -0.23436919 0.3459365 -0.09683668 0.049751997 0.34631884 -0.2414492
-0.26794258 0.16200614 -0.36188862 -0.51279247 0.18579133 -0.32637435 0.42074633 0.070291065
0.118371144 -0.05558202 -0.2880654 0.24046564 -0.05264382 -0.08032667 0.19795331 -0.030109484
-0.08479821 -0.061226573 0.18915915 0.44254187 0.061915148 -0.05338399 -0.12918608 -0.25817987
-0.25665572 -0.3012041 0.39858752 0.097882584 -0.044121012 -0.2532149 -0.31281728 0.08650046
-0.16400422 0.13605843 -0.12155693 -0.014563015 0.15288241 0.0066123474 0.2956328 0.031891838
-0.2931807 0.28897515 -0.24917985 0.23698105 -0.17996314 0.3558651 0.19199498 -0.25449643
-0.17039971 0.04433293 0.11193248 -0.35805476 0.44908535 -0.059051 0.3097562 0.09171067
0.17315005 0.099758744 0.17621191 0.26098073 0.17383751 -0.027855106 -0.12605552 0.062696144
-0.36249712 -0.15975183 0.077285476 0.39273152 0.17708097 0.09011884 0.3499834 -0.2017343
-0.3561722 -0.4139713 -0.3032818 -0.12553154 -0.1155602 0.36740062 -0.34303576 0.13681814
-0.35723668 -0.3483753 0.08415037 0.3504795 -0.35481757 0.33778515 0.16578741 -0.008530517
-0.020513484 0.27644363 0.4093526 -0.35248542 0.3017869 -0.3058495 0.070355006 0.13019243
-0.34961754 0.05240634 0.31454036 -0.033217333 -0.21010335 0.22038145 0.21383941 0.010424991
0.075678796 0.36299965 -0.36115468 0.0054071588 -0.011387171 -0.3537953 -0.30562356 0.315874
0.33684 0.2843254 0.3946499 -0.1026872 0.03620127 -0.36891562 -0.07302888 -0.29447055
0.09769211 -0.07604362 -0.18230459 -0.22640114 -0.004984862 -0.34140477 0.37673548 -0.12889074
-0.41943052 0.21528225 0.3575744 0.43042427 0.017396435 -0.16579643 0.027273688 -0.0716398
-0.062383886 -0.011159508 0.5054456 -0.1647633 0.30453342 -0.42948952 -0.45499572 0.1996338
-0.22344376 0.39406118 0.09413234 -0.23615982 -0.44231984 0.24257398 -0.0042507816 0.29503787
-0.029863723 0.1970819 -0.2928892 -0.2910139 0.3506395 -0.21116173 0.11361248 0.13409205
-0.07067613 -0.004307483 0.25312468 0.33909637 -0.0017358756 -0.42411944 -0.027689673 -0.19327232
0.32167587 0.41517088 -0.41481552 0.45350555 -0.10950724 0.1304194 -0.28909442 -0.48718923
0.2314882 -0.17731826 -0.30917922 -0.06432289 0.22951218 -0.08802231 -0.4617248 -0.23320635
0.028499668 -0.32683557 0.25019884 -0.36380005 -0.25667048 -0.40004995 0.035037708 0.27832887
-0.14921732 -0.08524333 0.07936202 -0.09319295 0.17382325 -0.38679335 0.009767886 -0.2692215
0.023976509 0.1692228 0.16423161 0.45899966 0.21470119 -0.026853764 -0.28070745 0.08717821
0.07688689 0.3197568 0.33735374 -0.039592557 0.093964994 0.008882044 -0.33264586 -0.4293149
-0.26794803 0.26515508 -0.43589294 0.32318735 -0.2952763 0.2896199 0.17306755 0.25135267
-0.2533136 0.015714489 0.28300837 0.46772045 0.08632316 0.46217442 -0.35594 0.29661563
-0.15077053 0.09545394 -0.025475796 -0.18655798 0.13648482 -0.19413754 0.32978526 0.47153676
0.32537803 0.010245197 0.29569766 -0.32148522 -0.33768436 -0.1819391 -0.40334058 0.36124447

encoder.blocks.1.attn.proj.bias f4 [16]
00000000: bc03 cdbd 3c7f ff3c ea26 943d d050 e6bc
00000010: bf34 f63b 439f 763d 21a1 9ebb a752 3cbb
00000020: 600c 5b3c abf4 9dbd 7e5a febc a55e 923d
00000030: ebd7 85bd 9fe0 603d 58b9 9d3c 760e 54bc
-0.10010478 0.0311886 0.07233985 -0.028114706 0.007513612 0.060210478 -0.0048409854 -0.0028735788
0.01336965 -0.07712682 -0.03104901 0.07146958 -0.06535324 0.054901715 0.019253418 -0.012942901

encoder.blocks.1.norm2.weight f4 [16]
00000000: 52bf 823f 9b8a 6e3f fa0e 813f 79f9 5a3f
00000010: d9c6 5e3f 3f9d 703f 1488 693f 056b 803f
00000020: c090 773f 553d 4e3f e845 723f e079 703f
00000030: 804e 813f dd7b 6c3f 049d 813f 0232 7b3f
1.0214636 0.93180245 1.0082695 0.85536915 0.8702217 0.9398994 0.91223264 1.003266
0.96705246 0.80562335 0.9463792 0.93935966 1.0102081 0.923765 1.0126042 0.9812318

encoder.blocks.1.norm2.bias f4 [16]
00000000: 1f53 0cbd 45a4 8cbc c101 11bd 2696 b7bd
00000010: 1456 c23c 00ac d43b 93ce 1c3d 80de 2a3d
00000020: 2ac1 17bd ce1f 273d e5ee 6abc faaf 5bbd
00000030: f8ee 11bd fc90 bc3b c65c 483d c043 d5bb
-0.034258958 -0.017168174 -0.035402063 -0.089641854 0.023722686 0.0064902306 0.038282942 0.0417161
-0.03704945 0.040801816 -0.014339183 -0.05363462 -0.03562829 0.005754588 0.0489166 -0.0065083206
