Checkpoint/dict_7.pth (torch, 108719 bytes, 64 tensors)

encoder.cls_token f4 [1, 1, 16]
0	0xbda1df17	-0.07903879
1	0x3fcded32	1.6088011
2	0x3e0848f3	0.13309078
3	0x3e3425dc	0.17592567
4	0x40014b42	2.0202184
5	0xbe71678c	-0.23574656
6	0xbea3f25f	-0.32020852
7	0xbfe4759a	-1.7848389
8	0xbf307591	-0.6892939
9	0x3e83eb70	0.25765562
10	0xbf961fb6	-1.1728427
11	0xbe808ca0	-0.25107288
12	0xbebd02f7	-0.36916324
13	0x3f69cf8f	0.91332334
14	0xbef2c897	-0.47418663
15	0xbefaa080	-0.48950577

encoder.patch_embed.weight f4 [16, 5]
0	0x3da85088	0.08218485
1	0xbefaca00	-0.4898224
2	0x3f0e09a4	0.5548346
3	0x3eef8565	0.4678146
4	0xbecad96b	-0.39619002
5	0xbea8c0c7	-0.32959577
6	0x3eb992d1	0.36244825
7	0x3eb0a69d	0.34502116
8	0xbe02b2df	-0.12763546
9	0x3db1d7ce	0.086837396
10	0x3c27f513	0.010251301
11	0xbebf09d6	-0.37312192
12	0xbedfe15c	-0.43726623
13	0xbe61d81d	-0.22055097
14	0xbe05bba8	-0.13059866
15	0x3eab35f9	0.33439615
16	0x3e507e3b	0.20360653
17	0xbef3e1ea	-0.47633296
18	0x3eb5e211	0.35524037
19	0xbf0ac05a	-0.54199755
20	0xbe5ef8dc	-0.2177462
21	0x3ec4f27f	0.3846626
22	0xbea37683	-0.31926355
23	0xbe0b2146	-0.13586912
24	0xbef526c6	-0.47881144
25	0x3e81d6c5	0.2535917
26	0xbee75374	-0.45180857
27	0xbe3eb8b4	-0.18625146
28	0xbeccc838	-0.39996505
29	0x3ef374ba	0.47549993
30	0xbf1e9ef4	-0.61961293
31	0x3e89f725	0.2694637
32	0x3e308dd3	0.17241602
33	0x3ef0207d	0.46899787
34	0xbec9c4b8	-0.39407897
35	0xbf49bcc6	-0.7880367
36	0x3e8e4ebe	0.2779445
37	0xbd4c444f	-0.04986983
38	0x3ec3048a	0.380894
39	0xbe3eb0a7	-0.18622075
40	0xbe226c39	-0.15861596
41	0xbe9078af	-0.28217074
42	0xbf07fd13	-0.53120536
43	0xbe96ad49	-0.2942908
44	0x3eae161e	0.3400125
45	0xbcb29643	-0.021800166
46	0x3e58722b	0.21137302
47	0xbe8fd839	-0.28094652
48	0x3e9187ff	0.2842407
49	0x3e5c53fb	0.21516411
50	0x3e538179	0.20654859
51	0xbf0ef71f	-0.55845827
52	0x3ec178e4	0.37787545
53	0x3e26917b	0.16266434
54	0xbdd8bf87	-0.10583406
55	0xbe4676a3	-0.19381194
56	0xbe3967b8	-0.18105972
57	0x3f12a140	0.572773
58	0xbe7b2c2c	-0.24528569
59	0xbe2abe6d	-0.16674204
60	0x3de34b7b	0.11098381
61	0x3f0b3998	0.54384756
62	0xbebc27ff	-0.36749265
63	0xbddcd71c	-0.10783216
64	0xbf08a5f2	-0.5337821
65	0x3eb44cc2	0.35214812
66	0x3e6fd098	0.23419416
67	0xbec9bc89	-0.39401653
68	0xbdb7aa0f	-0.08967983
69	0xbf06f3e7	-0.52715915
70	0xbea3aa4a	-0.31965858
71	0x3d216306	0.039401077
72	0xbe750267	-0.23926698
73	0xbec77221	-0.3895426
74	0x3f078e04	0.52951074
75	0xbda52bbb	-0.080649815
76	0xbd0380ef	-0.032105383
77	0xbeb93987	-0.36176702
78	0x3e5f631a	0.21815148
79	0x3eaf76ab	0.34270224

encoder.patch_embed.bias f4 [16]
0	0xbd2e22a0	-0.04251349
1	0x3d4e56db	0.0503758
2	0x3d0979d4	0.03356345
3	0x3ca59dee	0.020216908
4	0xbcc3fa89	-0.023923175
5	0xbd0687f5	-0.032844502
6	0xbb2246c7	-0.0024761425
7	0xbd6443cb	-0.055728715
8	0xbd2f40c1	-0.042786364
9	0x3ce1edb9	0.027579175
10	0x3d6fcb13	0.058543276
11	0xbd126fe4	-0.03575124
12	0x3d1db31d	0.038500894
13	0xbd29eefc	-0.04148768
14	0x3d2c74b4	0.042103484
15	0x3d19c0db	0.037537437

encoder.blocks.0.norm1.weight f4 [16]
0	0x3f801a43	1.0008014
1	0x3f81d7a1	1.014393
2	0x3f86b108	1.0522776
3	0x3f86a224	1.0518231
4	0x3f80547b	1.0025781
5	0x3f77199b	0.96523446
6	0x3f8bf89b	1.0935243
7	0x3f7e148d	0.9925011
8	0x3f81e2e6	1.0147369
9	0x3f87e1b3	1.0615753
10	0x3f835fdd	1.026363
11	0x3f7b519d	0.98171407
12	0x3f77edec	0.96847415
13	0x3f7f0e0c	0.9963081
14	0x3f7365d1	0.95077235
15	0x3f855f3d	1.041969

encoder.blocks.0.norm1.bias f4 [16]
0	0xbd0c4bef	-0.034252103
1	0x3d572ba2	0.052531846
2	0x3cc03018	0.023460433
3	0x3cefb3b7	0.0292605
4	0xbcffc1d7	-0.03122036
5	0xbca8dc0a	-0.020612735
6	0xba6e83bc	-0.00090986094
7	0xbd27ca9f	-0.04096472
8	0xbd3efbc4	-0.04662682
9	0x3c8f1917	0.017468018
10	0x3d290c76	0.04127165
11	0xbcf11d9b	-0.029433062
12	0x3d09ec39	0.033672545
13	0xbd0b6043	-0.03402735
14	0x3ce62caa	0.02809747
15	0x3d2337ba	0.039848067

encoder.blocks.0.attn.qkv.weight f4 [48, 16]
0	0xbe898c3b	-0.268648
1	0xbcafc725	-0.021457264
2	0xbe7e5cbf	-0.24840067
3	0x3e01e8c3	0.12686448
4	0xbd758232	-0.059938617
5	0x3e861b11	0.26192525
6	0xbe879bb8	-0.2648599
7	0x3e071591	0.1319182
8	0xbcf64260	-0.030060947
9	0x3dba5b09	0.09099395
10	0xbe28dbd3	-0.16490106
11	0xbe880b25	-0.26571003
12	0xbe0ed0bf	-0.13946818
13	0x3ea0802f	0.31347796
14	0xbea1db90	-0.31612825
15	0xbddbe8a6	-0.107377335
16	0xbe2631a8	-0.1622988
17	0xbd3512ad	-0.044207264
18	0xbe8602e4	-0.2617408
19	0x3b253d45	0.0025213521
20	0xbe1e0364	-0.15430981
21	0xbeb839c1	-0.35981563
22	0xbe5dc650	-0.21657681
23	0xbdc4ad8e	-0.096034154
24	0xbd1edaf3	-0.038783025
25	0xbe92769a	-0.2860611
26	0x3e78505a	0.24249402
27	0xbe156684	-0.14589888
28	0x3e553028	0.20819151
29	0x3ddce876	0.10786526
30	0xbd0871e2	-0.033311732
31	0xbe3db328	-0.18525374
32	0x3dd8fa9e	0.105946764
33	0xbe5214ea	-0.2051579
34	0x3e98866d	0.2979006
35	0x3e291d1d	0.16515012
36	0xbe016aeb	-0.12638442
37	0xbe49ee8d	-0.19719906
38	0xbe73dff3	-0.23815899
39	0xbd61281d	-0.054969896
40	0x3e4a0065	0.19726713
41	0x3de7d56d	0.113200046
42	0xbdc00edd	-0.09377835
43	0xbe2b88af	-0.1675136
44	0xbe5dc406	-0.21656808
45	0xbd3d9214	-0.04628189
46	0xbe55977c	-0.20858568
47	0xbdafecad	-0.08590064
48	0x3e16ad71	0.147146
49	0xbe4ee3e1	-0.20204116
50	0x3da50008	0.080566466
51	0xbbea174e	-0.0071438914
52	0x3d101943	0.03518034
53	0x3e360e8f	0.17778991
54	0xbe2aeeda	-0.16692677
55	0xbe8b994e	-0.272654
56	0x3e3d3277	0.18476282
57	0x3e3bec71	0.18351914
58	0xbc6a3bd6	-0.014296493
59	0x3d9b4a0a	0.07582481
60	0xbe54514c	-0.20734137
61	0x3df25e60	0.11834407
62	0x3e4055cd	0.1878273
63	0xbe827a1b	-0.25483784
64	0x3e28354e	0.16426584
65	0x3e2da405	0.169571
66	0x3e29baa4	0.16575104
67	0xbeb0641b	-0.34451374
68	0x3e83b75c	0.2572583
69	0xbe847638	-0.25871444
70	0x3e6e76e1	0.23287536
71	0x3cc56573	0.024096226
72	0x3eb3fabb	0.3515223
73	0xbe3fc342	-0.18726829
74	0xbe300542	-0.17189506
75	0xbd0aebe8	-0.033916384
76	0x3ea3a7af	0.3196387
77	0x3e431451	0.19050719
78	0x3e992090	0.29907656
79	0x3e3e32f5	0.18574126
80	0x3e57dc83	0.21080212
81	0xbec3c9d6	-0.38239926
82	0x3f1c1769	0.6097322
83	0x3c8c31e3	0.017113632
84	0xbbca6673	-0.0061767637
85	0xbd79435f	-0.060855266
86	0xbc9e0b4f	-0.019292502
87	0xbea08ae3	-0.31355962
88	0x3ef95d8a	0.48704177
89	0xbe8ac745	-0.27105156
90	0xbdbf7a8c	-0.09349546
91	0xbdfdbbe3	-0.12389352
92	0xbdc020b0	-0.09381235
93	0x3de8a0c1	0.113587864
94	0x3ead8d8c	0.33897054
95	0xbe92d788	-0.28680062
96	0xbe7ffe6b	-0.24999397
97	0xbe6a0ae5	-0.22855718
98	0xbd6aae68	-0.057295233
99	0xbdbc029c	-0.09180185
100	0xbd6a839e	-0.057254426
101	0x3e5e4ad9	0.2170824
102	0xbe4a5c2f	-0.19761728
103	0x3e90ca55	0.28279367
104	0x3d85a95a	0.06526442
105	0x3dd895ef	0.105754726
106	0xbe5a8fe8	-0.21343958
107	0x3e9f4ccf	0.31113288
108	0x3c8c2054	0.017105259
109	0x3c886a27	0.01665218
110	0xbe607ba4	-0.21922165
111	0xbb866f90	-0.0041026548
112	0xbdb29c27	-0.0872119
113	0xbd1ba99e	-0.038003556
114	0x3e5e902e	0.21734688
115	0x3e1966fe	0.14980695
116	0x3e53f011	0.20697047
117	0x3dc3c43a	0.095589116
118	0xbe36d87f	-0.17856024
119	0x3e02b58f	0.12764572
120	0x3d0e2dfb	0.03471182
121	0x3de1c3d5	0.1102368
122	0x3aef0ef1	0.0018238706
123	0x3e7f918c	0.24957865
124	0xbe51b7e1	-0.204803
125	0x3e20b496	0.15693888
126	0x3da89d5b	0.08233138
127	0xbeb82e77	-0.3597295
128	0xbe26b342	-0.16279319
129	0x3e12a89a	0.14322129
130	0x3e365297	0.17804943
131	0xbe60afa4	-0.21942002
132	0x3e389e71	0.1802919
133	0x3dfa3027	0.122162156
134	0x3e84d3ed	0.25942937
135	0x3e4d403d	0.20044036
136	0x3e6f988a	0.23398033
137	0x3e4d2016	0.20031771
138	0xbe24ffac	-0.16113156
139	0x3e1dc4e1	0.15407135
140	0x3dd1caa0	0.10243726
141	0x3e8c2c74	0.27377665
142	0xbea9bd14	-0.33152068
143	0x3dacab81	0.08431149
144	0xbe944450	-0.28958368
145	0xbe3e0920	-0.18558168
146	0x3dae0abb	0.084981404
147	0x3e7cb02e	0.24676582
148	0xbdbb870a	-0.09156616
149	0xbe5372ba	-0.20649233
150	0xbeb10d57	-0.3458049
151	0x3e886dee	0.2664637
152	0xbd46da26	-0.048547886
153	0x3be3936c	0.0069450643
154	0x3e3ea9f7	0.18619524
155	0x3e125e38	0.14293754
156	0xbdcbc31e	-0.09949325
157	0x3de5208e	0.1118785
158	0xbe92d940	-0.28681374
159	0x3e8b9d5c	0.27268493
160	0x3ebe1b71	0.3713031
161	0x3de85a03	0.113452934
162	0xbeab4959	-0.33454397
163	0xbe336ef7	-0.17522798
164	0x3ec7d0de	0.3902654
165	0xbe54474a	-0.2073032
166	0x3e941988	0.2892573
167	0xbea962b9	-0.33083132
168	0x3e9fa730	0.3118224
169	0x3ef122a5	0.47096744
170	0xbe277516	-0.16353258
171	0xbe952f85	-0.29137817
172	0x3dbf88e8	0.09352285
173	0xbf03e8de	-0.515272
174	0x3f0152eb	0.5051715
175	0xbe22a496	-0.15883097
176	0xbe2cf8d6	-0.16891798
177	0x3eb7c162	0.35889727
178	0x3e291b31	0.16514279
179	0x3cc941f2	0.024567578
180	0x3d89a2e1	0.0672052
181	0xbd335e0e	-0.04379087
182	0xbd1720ee	-0.03689664
183	0x3e6117be	0.21981713
184	0xbd759e83	-0.05996562
185	0xbe8aec3b	-0.27133355
186	0xbeaf2bef	-0.34213206
187	0xbe04a52b	-0.12953632
188	0x3d70d09f	0.058792707
189	0x3dba10c9	0.09085233
190	0xbeaa39cf	-0.3324723
191	0x3e5ce183	0.21570401
192	0xbe42f5d1	-0.19039084
193	0x3e481b1f	0.19541596
194	0x3e8e8d6b	0.27842268
195	0x3e5ac47b	0.21364014
196	0xbd98b24a	-0.07455881
197	0xbe10da94	-0.14145881
198	0xbd6f0ce0	-0.058361888
199	0x3e905214	0.2818762
200	0xbe7de8d2	-0.24795845
201	0x3dc770c9	0.09738309
202	0x3d904beb	0.0704573
203	0xbdef2fa7	-0.11679011
204	0xbe1628b8	-0.1466397
205	0xbe045946	-0.1292468
206	0x3e9e9c36	0.30978554
207	0x3d542c87	0.051800277
208	0xbe2bfa9a	-0.16794816
209	0x3e9a4ebf	0.30138204
210	0x3e85738b	0.26064715
211	0xbe96c358	-0.2944591
212	0x3ea55eda	0.32298928
213	0xbe896b75	-0.26839796
214	0xbda656d3	-0.08122029
215	0xbe6e8e23	-0.23296408
216	0xbe67183f	-0.22567843
217	0x3ea60f7d	0.32433692
218	0x3c29491d	0.010332373
219	0x3e2b6676	0.16738304
220	0x3c369027	0.011142767
221	0xbd8bf573	-0.06833925
222	0x3eaf336d	0.34218922
223	0x3de959a4	0.11394051
224	0x3e91997d	0.28437415
225	0xbe54231e	-0.20716521
226	0xbe8f3266	-0.27968138
227	0xbde7b372	-0.11313523
228	0xbd4691e7	-0.048478987
229	0x3d732f63	0.059371363
230	0xbe58d51f	-0.21175049
231	0x3e108b71	0.14115693
232	0xbce0f731	-0.02746162
233	0x3ecb110f	0.39661452
234	0x3c86ba08	0.016446128
235	0x3e573815	0.21017487
236	0x3e4823db	0.19544928
237	0xbe3140be	-0.17309853
238	0x3e204a49	0.15653338
239	0x3e291922	0.16513494
240	0xbe014d5e	-0.1262717
241	0x3ea452a5	0.32094303
242	0xbe0aff41	-0.13573934
243	0xbe105062	-0.14093164
244	0xbe2427e7	-0.16030847
245	0xbe9d9cfe	-0.30783838
246	0xbe0cafe4	-0.13738972
247	0x3dbfe6a4	0.09370163
248	0x3e35a901	0.17740251
249	0xbe494a1e	-0.1965718
250	0x3e58c7b1	0.21169926
251	0x3da48ac6	0.080342814
252	0x3dd83ae2	0.10558106
253	0x3e513f62	0.20434335
254	0xbd0da734	-0.034583285
255	0xbe5e3e80	-0.2170353

encoder.blocks.0.attn.proj.weight f4 [16, 16]
0	0xbebf1c9a	-0.3732651
1	0x3e65a06f	0.22424482
2	0x3e82355e	0.2543134
3	0x3eb7b416	0.35879582
4	0x3eb22744	0.34795582
5	0x3e367d7f	0.1782131
6	0x3ed2ce2c	0.41172922
7	0xbebbc447	-0.36673185
8	0x3e625a4f	0.22104762
9	0xbd9f1deb	-0.07769378
10	0xbe89c034	-0.26904452
11	0x3e9a50d0	0.3013978
12	0x3e83ddab	0.25755057
13	0x3eb01536	0.34391183
14	0x3cb95918	0.022625491
15	0xbe650332	-0.223645
16	0x3e24bc59	0.16087474
17	0xbd902bdf	-0.07039618
18	0xbd78ea4b	-0.060770314
19	0x3d2c1e6a	0.042021193
20	0xbdec4313	-0.11536231
21	0xbc959cdb	-0.018263271
22	0xbee66fee	-0.4500727
23	0x3e2e30fb	0.17010872
24	0xbcbdc4be	-0.023165103
25	0xbedc7ba5	-0.43063083
26	0xbacd566a	-0.0015666012
27	0x3ed58563	0.41703328
28	0x3eb4bbdb	0.35299572
29	0xbe9f882c	-0.31158578
30	0x3e89a1e0	0.26881313
31	0x3ee20f4e	0.44152302
32	0xbe097109	-0.13422026
33	0x3e3b5bbb	0.18296711
34	0xbd1f7244	-0.03892733
35	0x3cf9beab	0.030486425
36	0xbecbda8a	-0.3981517
37	0xbe3a9dcf	-0.18224262
38	0x3dc19931	0.09453047
39	0x3e98c387	0.29836676
40	0x3e3bc4e6	0.1833683
41	0x3edb1e85	0.42796722
42	0xbe5d2142	-0.21594718
43	0x3ea0a7f3	0.31378135
44	0x3eb7fee6	0.3593666
45	0x3e19dda0	0.1502595
46	0x3e96cf35	0.2945496
47	0x3df0602c	0.11737093
48	0xbe395ea6	-0.18102512
49	0x3df5756e	0.119852886
50	0xbe23f1b8	-0.16010177
51	0xbd81b1a1	-0.06332708
52	0x3de70cc1	0.112817295
53	0xbe0243ae	-0.1272113
54	0xbe962b5c	-0.29329956
55	0x3ee9d419	0.4566963
56	0xbeb4aefc	-0.35289752
57	0x3e5b5698	0.21419752
58	0xbeea8555	-0.4580485
59	0xbec80a01	-0.39070132
60	0x3ee23313	0.44179592
61	0x3e67030c	0.22559756
62	0x3e8394d8	0.25699496
63	0x3e32c22d	0.17456885
64	0xbe8ff8de	-0.28119558
65	0x3d749f41	0.05972219
66	0xbe8709b2	-0.26374584
67	0x3daa41fa	0.08313365
68	0xbb62cb58	-0.0034606066
69	0xbeb6e367	-0.3572037
70	0xbeca3796	-0.39495534
71	0xbee85da1	-0.45383933
72	0xbe1274a4	-0.14302307
73	0x3e9e8281	0.30958942
74	0x3e75dead	0.24010725
75	0x3eaf8641	0.34282115
76	0xbe5e8e11	-0.21733882
77	0xbea28ed9	-0.3174961
78	0xbdfa9572	-0.12235536
79	0xbe94acb1	-0.29038003
80	0xbec8f7cf	-0.39251563
81	0x3e94fe6b	0.29100356
82	0x3e69c0b0	0.2282741
83	0x3d8f4ff8	0.06997675
84	0xbe2a62a4	-0.16639191
85	0xbebba73e	-0.36651033
86	0x3e0870d7	0.13324295
87	0xbda02049	-0.07818658
88	0x3e724acc	0.23661345
89	0xbecd0fba	-0.4005106
90	0xbeaee798	-0.34161067
91	0xbe8a89ca	-0.2705825
92	0x3ec48b5f	0.38387582
93	0xbea08120	-0.31348515
94	0xbe87bef2	-0.26512867
95	0x3e771760	0.2413001
96	0xbe207c67	-0.15672456
97	0xbd402755	-0.04691251
98	0x3dea200d	0.114318945
99	0xbebc058a	-0.36722976
100	0xbe86b83b	-0.26312432
101	0x3d1ac6b5	0.037787158
102	0xbe935394	-0.28774703
103	0x3ea7297a	0.32648832
104	0x3d7dd4da	0.06197057
105	0xbe7178bd	-0.23581214
106	0xbd76eb38	-0.060282916
107	0x3e3c1c5d	0.18370195
108	0xbee35b40	-0.44405556
109	0x3e08a8ce	0.13345644
110	0xbe8faa8e	-0.2805981
111	0x3e81cbf0	0.25350904
112	0x3e6849d8	0.22684419
113	0x3e89bd59	0.26902273
114	0x3dba7cdb	0.091058455
115	0x3e0677e1	0.13131668
116	0x3d471b92	0.048610277
117	0xbe5c2ebc	-0.21502203
118	0xbe1785b1	-0.14797093
119	0xbe4cd731	-0.20003964
120	0x3e4014fd	0.18758006
121	0xbe9885cb	-0.29789576
122	0x3ed4bdb1	0.41550973
123	0xbee045b0	-0.43803167
124	0x3e953920	0.29145145
125	0x3e893ba1	0.26803306
126	0x3ee7f1bc	0.45301616
127	0xbe9c44f6	-0.30521363
128	0x3e39849a	0.1811699
129	0x3dcbfaf1	0.09959973
130	0x3e2e42c7	0.17017661
131	0x3eac2040	0.33618355
132	0xbed1121c	-0.4083413
133	0xbe90f511	-0.2831197
134	0x3ea83ed2	0.32860428
135	0x3dab272d	0.083570816
136	0x3e4a93e0	0.19782972
137	0x3ef00cf6	0.46884888
138	0xbec3ee99	-0.38267973
139	0xbcd1f217	-0.025628133
140	0xbdf708ab	-0.120622
141	0x3dadd835	0.08488504
142	0xbe768cd3	-0.24077158
143	0xbed03b67	-0.4067032
144	0xbeb31109	-0.34973934
145	0x3ed79a1a	0.42109758
146	0x3ed6b28b	0.41933092
147	0x3e713728	0.23556197
148	0x3dc6f98a	0.097155645
149	0xbe90ac22	-0.28256327
150	0x3e3772f7	0.1791495
151	0x3dbddd54	0.092707306
152	0xbe985e6f	-0.29759547
153	0x3e5f918e	0.21832868
154	0xbee603d7	-0.44924805
155	0x3e8f2cc5	0.27963844
156	0xbc258f45	-0.010104959
157	0xbde65c33	-0.11248054
158	0xbeb28a88	-0.34871316
159	0xbd68fd2e	-0.056882076
160	0x3e9f0c43	0.31064042
161	0x3e1f05ee	0.15529606
162	0x3eb2443d	0.34817687
163	0x3e9d0757	0.30669662
164	0x3e72ec3c	0.23722929
165	0x3e8abef2	0.27098805
166	0x3e9cc454	0.30618536
167	0xbe31d074	-0.17364675
168	0x3edef6ae	0.43547577
169	0x3e3cbc4d	0.18431206
170	0xbd9b993f	-0.07597589
171	0x3ea5d4b3	0.3238884
172	0xba818e2a	-0.0009884287
173	0xbe2cb6dd	-0.16866632
174	0x3e825e45	0.25462547
175	0x3ea52f68	0.3226273
176	0x3eeced01	0.4627457
177	0xbe245569	-0.16048206
178	0x3e9ef3b2	0.310453
179	0x3e2d9982	0.1695309
180	0x3ea664f9	0.3249891
181	0xbe85286c	-0.26007402
182	0x3e8f99ff	0.28047177
183	0x3eb0a135	0.3449799
184	0x3e35b6c4	0.17745501
185	0x3dcc3f09	0.099729605
186	0x3e9164b1	0.28397134
187	0x3d98ae49	0.07455117
188	0x3ebc01fd	0.36720267
189	0x3ebf0bfe	0.37313837
190	0xbec0d72d	-0.37664166
191	0xbe69847e	-0.22804448
192	0x3d981576	0.07425968
193	0x3d2cb9b8	0.042169303
194	0xbd7f83fa	-0.062381722
195	0x3e11ae73	0.14226703
196	0x3e79d0a0	0.2439599
197	0x3d89cb73	0.06728258
198	0xbdd94998	-0.1060974
199	0x3ecbf22f	0.3983321
200	0x3e8a872a	0.27056247
201	0xbe5ec180	-0.21753502
202	0xbe66d946	-0.2254382
203	0x3e08025e	0.13282153
204	0x3cd5a30e	0.026078727
205	0xbea22b2c	-0.31673563
206	0xbe9d79b6	-0.3075692
207	0x3e3ad4b6	0.18245205
208	0xbe572474	-0.2101
209	0x3de4ac45	0.1116567
210	0xbe24fcbc	-0.16112036
211	0x3ebb47cd	0.36578217
212	0x3ec6d4b9	0.3883417
213	0xbde75a90	-0.1129657
214	0x3db0d73d	0.086348034
215	0xbe0eeac0	-0.13956738
216	0xbeca1464	-0.39468682
217	0x3dc28a40	0.09499025
218	0x3ea839d2	0.32856613
219	0xbdf5ab3c	-0.11995551
220	0xbe926853	-0.28595218
221	0xbea22542	-0.3166905
222	0x3eb4c746	0.35308284
223	0xbe4acb06	-0.1980401
224	0xbe9c9b93	-0.30587444
225	0x3e460735	0.19338687
226	0x3d752df0	0.059858263
227	0x3dde5a41	0.10857058
228	0x3c574a88	0.013140328
229	0xbe7f64e4	-0.2494083
230	0xbd35f3e1	-0.044422034
231	0xbebd568e	-0.36980098
232	0x3eb93ccb	0.36179194
233	0xbe30e85a	-0.17276135
234	0x3cf69171	0.030098649
235	0xbec7199a	-0.3888672
236	0x3e94e34c	0.29079664
237	0x3e67ee68	0.22649539
238	0xbe4e20f2	-0.20129755
239	0xbe3356d7	-0.17513596
240	0x3df011b0	0.117221236
241	0x3e14b3f8	0.14521778
242	0xbe068d1d	-0.13139768
243	0xbedd298a	-0.43195754
244	0xbe8fda0f	-0.28096053
245	0x3e9437d4	0.28948843
246	0x3eb7a073	0.358646
247	0xbda00be1	-0.07814766
248	0xbeb592be	-0.35463518
249	0xbe3e0427	-0.18556271
250	0x3e7cd0ba	0.24688998
251	0xbe9ced1f	-0.3064966
252	0xbeac1988	-0.3361323
253	0x3e2efaaf	0.17087816
254	0xbecaca3d	-0.3960742
255	0x3e185cf8	0.14879215

encoder.blocks.0.attn.proj.bias f4 [16]
0	0xbd0db2be	-0.03459429
1	0x3d6870bd	0.05674814
2	0xbd2be24a	-0.041963853
3	0x3cbb8f35	0.022895435
4	0xbceaa830	-0.028644651
5	0x3d189be8	0.03725806
6	0x3d81a5a2	0.0633042
7	0xbd2321ef	-0.039827283
8	0xbd30cc24	-0.043163434
9	0x3d000890	0.031258166
10	0x3d43af23	0.047774445
11	0xbd09f071	-0.03367657
12	0x3cfbb242	0.030724648
13	0xbd386fad	-0.045028377
14	0x3d1abb56	0.037776314
15	0x3d0546a2	0.032538064

encoder.blocks.0.norm2.weight f4 [16]
0	0x3f81433c	1.0098643
1	0x3f881a6c	1.0633063
2	0x3f7eda7f	0.9955215
3	0x3f7afaac	0.98038745
4	0x3f7af017	0.980226
5	0x3f79edca	0.9762846
6	0x3f8e4c05	1.1116949
7	0x3f787719	0.9705673
8	0x3f80297e	1.0012662
9	0x3f854795	1.041247
10	0x3f6e8dea	0.93185294
11	0x3f788cbc	0.97089744
12	0x3f5783ff	0.84185785
13	0x3f7c0f62	0.9846097
14	0x3f7297f0	0.9476309
15	0x3f778511	0.9668742

encoder.blocks.0.norm2.bias f4 [16]
0	0xbc50b709	-0.0127389515
1	0x3d2abc02	0.041683204
2	0x3ca065ea	0.019579846
3	0xbd6dc52a	-0.05804936
4	0x3ccfcc76	0.02536605
5	0xbc87b8e0	-0.016567647
6	0xbc91f7ee	-0.017818417
7	0xbcfc5d18	-0.03080611
8	0xbd870aa4	-0.065938264
9	0xbbd49c54	-0.0064883623
10	0x3b69ae18	0.0035656746
11	0xbccf31f4	-0.025292374
12	0x3aac4d23	0.0013145547
13	0x3cecefd5	0.028922955
14	0x3d3088f3	0.043099355
15	0xbd0463a1	-0.032321576

encoder.blocks.0.mlp.fc1.weight f4 [64, 16]
0	0x3d820dab	0.06350263
1	0x3e392b7e	0.18082997
2	0x3d7eec9e	0.062237374
3	0x3e4684a9	0.19386543
4	0x3e3baf64	0.18328625
5	0x3df80b61	0.12111545
6	0xbe45afd3	-0.19305353
7	0xbda6564f	-0.08121931
8	0xbe3b7011	-0.18304469
9	0xbeb12adb	-0.3460301
10	0x3e053801	0.13009645
11	0x3e442f0c	0.19158572
12	0xbe502fad	-0.20330687
13	0xbde4a558	-0.11164349
14	0xbe0be6c1	-0.13662244
15	0x3e4cda5c	0.20005172
16	0x3e12d2ca	0.14338222
17	0x3e16e42b	0.14735477
18	0x3e96bba6	0.2944004
19	0xbe5aed1a	-0.2137951
20	0xbbe385b7	-0.0069434303
21	0x3e3f782b	0.18698184
22	0x3e7b17ae	0.24520752
23	0x3d05880e	0.032600455
24	0xbc2594ec	-0.0101063065
25	0xbe1d9781	-0.15389825
26	0x3d93ed6d	0.0722302
27	0xbd378f22	-0.044814236
28	0xbe034f5a	-0.12823239
29	0xbe1012ca	-0.14069667
30	0xbd7b2945	-0.061318655
31	0x3e1b0565	0.15138777
32	0x3e17642d	0.14784308
33	0x3dcce674	0.10004893
34	0x3b346861	0.0027528035
35	0xbe5a3aa5	-0.21311434
36	0x3d7f9198	0.06239471
37	0x3e477a79	0.19480313
38	0x3e5a610d	0.21326084
39	0x3e1139f7	0.14182268
40	0x3e4598dc	0.19296592
41	0xbd87dca8	-0.06633884
42	0xbd8d0607	-0.06885915
43	0xbe390ef5	-0.18072112
44	0xbe0cfee4	-0.13769108
45	0xbe673664	-0.22579342
46	0xbdd58a9e	-0.1042683
47	0xbe1078f3	-0.14108638
48	0x3dce6043	0.10076954
49	0xbc9b0dc0	-0.018927455
50	0xbd8413eb	-0.064491116
51	0xbe7b3129	-0.24530472
52	0xbe103472	-0.14082506
53	0xbe76331a	-0.24042931
54	0xbdf55007	-0.11978155
55	0x3e5962ea	0.21229139
56	0xbb8aaf46	-0.00423232
57	0x3e78ece9	0.24309124
58	0xbd2d1985	-0.042260665
59	0xbe48e087	-0.196169
60	0xbdec459f	-0.11536717
61	0x3e4a67df	0.19766186
62	0x3e931a47	0.28730986
63	0x3d6a3c75	0.057186563
64	0xbdbb84fa	-0.09156223
65	0xbd3652de	-0.044512622
66	0xbcfac850	-0.030613095
67	0x3d995834	0.074875265
68	0x3d771072	0.060318418
69	0xbd41342b	-0.047168892
70	0x3cd4052e	0.025881376
71	0xbd9a04e9	-0.07520468
72	0x3e195428	0.1497351
73	0x3e5d8771	0.21633698
74	0x3d3f901d	0.046768297
75	0xbe78f1d2	-0.24310997
76	0x3e78ba34	0.24289781
77	0xbd7a0843	-0.061043035
78	0xbe42dad7	-0.19028793
79	0xbe8d2165	-0.2756454
80	0xbe539c19	-0.20665015
81	0xbe153727	-0.1457182
82	0xbca47852	-0.020076904
83	0xbd265b10	-0.040614188
84	0x3c937a67	0.018002702
85	0xbe264f5e	-0.16241214
86	0x3dd62ad8	0.104573905
87	0xbdbdbc34	-0.092644125
88	0xbdf62e79	-0.12020583
89	0x3db65850	0.08903563
90	0xbe7de3f1	-0.24793984
91	0x3c66be30	0.01408343
92	0x3e335392	0.17512348
93	0x3dbcc6e9	0.092176266
94	0x3c680c14	0.014163036
95	0x3e052434	0.13002092
96	0xbd69b472	-0.05705685
97	0x3d1187f4	0.035530046
98	0xbe51b421	-0.2047887
99	0x3e1b59ab	0.15170924
100	0xbdd506be	-0.104016766
101	0xbe1af057	-0.15130745
102	0xbda2d8bb	-0.07951494
103	0xbd5dc928	-0.054146916
104	0xbdd59a21	-0.104297884
105	0x3e43610f	0.19079994
106	0x3de7d743	0.11320355
107	0x3e64e42d	0.22352667
108	0xbdd1050b	-0.1020604
109	0xbdd6ed46	-0.10494475
110	0x3e50b825	0.20382746
111	0x3df72236	0.12067072
112	0x3dda1632	0.10648765
113	0x3e1541b5	0.14575846
114	0xbdb85e5f	-0.09002375
115	0x3cb7343e	0.022363778
116	0xbe111f3d	-0.14172073
117	0xbe0bc2e3	-0.13648562
118	0x3eb6e620	0.35722446
119	0x3e90e5af	0.28300235
120	0xbe98e14c	-0.29859388
121	0x3e6385f2	0.22219065
122	0xbd935ced	-0.071954586
123	0x3e466ae4	0.19376713
124	0x3e301d64	0.17198712
125	0x3db05e7d	0.08611772
126	0x3e6262d4	0.22108012
127	0x3e887c02	0.2665711
128	0x3e94633c	0.2898196
129	0xbce4c0b4	-0.02792392
130	0xbdf92d4c	-0.12166843
131	0xbe83c916	-0.25739354
132	0x3d0fdd3b	0.03512309
133	0xbe2dce37	-0.16973196
134	0xbd088734	-0.033332065
135	0x3e0f9d2e	0.14024803
136	0xbe00e6e3	-0.12588076
137	0x3dd7f355	0.10544459
138	0xbe30de8c	-0.17272395
139	0x3e732c3e	0.23747346
140	0xbe4d6e81	-0.20061685
141	0x3e928be2	0.28622347
142	0x3d518f76	0.051162206
143	0x3d902df8	0.07040018
144	0xbd1b7f8c	-0.037963435
145	0x3e33a00b	0.1754152
146	0x3e703339	0.2345704
147	0xbe05a24c	-0.13050193
148	0xbdbecac2	-0.09316017
149	0x3de1d859	0.11027593
150	0xbe4d73b6	-0.20063671
151	0xbe7544b0	-0.23951983
152	0xbe1817d9	-0.14852847
153	0x3d4240dd	0.04742514
154	0x3e2522df	0.16126584
155	0x3e4e93dd	0.20173593
156	0x3cff5743	0.03116954
157	0xbe62be59	-0.22142924
158	0x3e3d895c	0.1850943
159	0xbd9b9b59	-0.075979896
160	0x3e42644d	0.18983574
161	0xbc858fb1	-0.016303869
162	0x3d8195bc	0.06327388
163	0x3dc69d40	0.09697962
164	0x3e0d74d2	0.13814095
165	0x3d6143ae	0.054996185
166	0x3e99477d	0.29937354
167	0x3e19eeb4	0.15032464
168	0x3cf45050	0.029823452
169	0x3e4050b4	0.18780786
170	0x3d816434	0.0631794
171	0xbc6906bf	-0.0142228
172	0x3d490ca8	0.049084336
173	0x3c9d34f3	0.019190287
174	0x3e7278eb	0.23678939
175	0xbe4071fb	-0.1879348
176	0x3e41fa8a	0.1894323
177	0x3e3b03a7	0.18263112
178	0x3e2b0af5	0.16703399
179	0xbdbe1a1d	-0.092823245
180	0xbe43c0dc	-0.19116539
181	0xbe1d19a2	-0.1534181
182	0x3dad2965	0.08455161
183	0x3e0138e6	0.12619361
184	0xbe2b27de	-0.16714427
185	0xbe7cd56f	-0.24690793
186	0xbe7cf9b6	-0.24704632
187	0x3e4afe6c	0.19823617
188	0xbe0f73a5	-0.14008959
189	0xbdad1a92	-0.084523335
190	0xbe1c1860	-0.15243673
191	0xbcf7eb9d	-0.030263716
192	0x3e77ab80	0.24186516
193	0xbccd6ba1	-0.025075736
194	0x3e036251	0.12830473
195	0xbd3e7f0f	-0.04650789
196	0x3e4562be	0.19275948
197	0xbe729274	-0.2368868
198	0x3c314254	0.0108190365
199	0x3d1a0bb7	0.03760883
200	0xbdfe1fb0	-0.12408388
201	0xbd71f9c1	-0.059076075
202	0xbe882ec8	-0.2659819
203	0x3e19f90c	0.1503641
204	0xbe2d9e8d	-0.16955014
205	0x3d7a2b73	0.061076593
206	0xbe35b13b	-0.1774339
207	0x3e539055	0.20660527
208	0x3d3e75f1	0.046499196
209	0x3dd012a8	0.101598084
210	0xbd8f9534	-0.0701088
211	0x3e3fb9d8	0.18723238
212	0xbe86a4f9	-0.2629774
213	0x3eaceabb	0.33772835
214	0xbe210cbd	-0.15727516
215	0x3d30d861	0.043175105
216	0x3da8cfd2	0.082427636
217	0x3e223445	0.15840252
218	0x3e607c3a	0.21922389
219	0x3dfcfcc1	0.123528965
220	0x3d6a9ea0	0.057280183
221	0xbe7f39c5	-0.24924381
222	0x3e1a46cb	0.15066068
223	0xbe43a524	-0.19105965
224	0xbc6b5ecd	-0.014365864
225	0x3d051faf	0.03250092
226	0xbe76f94f	-0.24118541
227	0xbe868276	-0.2627141
228	0xbdf3a4ee	-0.11896692
229	0x3e32a558	0.17445886
230	0xbd8c125b	-0.068394385
231	0x3e3ad714	0.18246108
232	0x3d4f2f1b	0.050582033
233	0xbe23b052	-0.1598523
234	0xbe297567	-0.16548692
235	0xbd326377	-0.04355189
236	0x3de9dcaa	0.114190415
237	0xbe999c43	-0.3000203
238	0x3e189c8d	0.1490347
239	0x3e6f8c96	0.23393473
240	0x3e89e570	0.2693286
241	0xbdfc8904	-0.12330821
242	0xbe2c3a7a	-0.16819182
243	0x3e310182	0.17285731
244	0x3d1c1000	0.038101196
245	0x3e7106f0	0.23537803
246	0x3e607ec6	0.2192336
247	0xbd18c1cb	-0.03729419
248	0xbd83ad1f	-0.064295046
249	0xbd9f8cba	-0.07790513
250	0x3def2091	0.116761334
251	0x3e1f8dd4	0.15581447
252	0x3e7ea826	0.24868831
253	0xbe8cb762	-0.2748366
254	0xbe3967e5	-0.18106039
255	0xbe1571b7	-0.1459416

encoder.blocks.0.mlp.fc1.bias f4 [64]
0	0x3c7a2aa1	0.015268953
1	0x3c23d598	0.009999655
2	0xbcc0baf1	-0.02352664
3	0xbcf9bc03	-0.030485159
4	0xbd4afe87	-0.049559142
5	0x3a1c7d0d	0.0005969562
6	0xbd1fc5f4	-0.039007142
7	0xbbe39cfc	-0.006946204
8	0xbd146877	-0.036232438
9	0xbcf3a34f	-0.029740958
10	0xbc2dd46b	-0.010609726
11	0x3d0e34b0	0.034718215
12	0x3c92ca9b	0.017918875
13	0x3d82a7c2	0.063796535
14	0x3cc4d7a9	0.024028616
15	0xbcc547c3	-0.02408207
16	0xbccb03e7	-0.024782134
17	0x3bf58dec	0.007493725
18	0xbc865277	-0.016396744
19	0x3cfa63f5	0.030565241
20	0xbd017bc1	-0.03161216
21	0xbd2bd6dd	-0.041952956
22	0x3d42f0ef	0.047593053
23	0x3d072ff4	0.033004716
24	0xbacafce7	-0.0015486748
25	0x3d17b7aa	0.03704039
26	0x3dae0501	0.08497048
27	0x3cd6e5df	0.026232658
28	0x3cea147a	0.028574217
29	0x3bbacb72	0.005700522
30	0xbc540369	-0.012940266
31	0x3d176212	0.03695876
32	0x3cbc3be2	0.022977773
33	0xbccbc11a	-0.024872351
34	0xbd0014e7	-0.031269934
35	0xbd63bb68	-0.055598646
36	0x3d3766c7	0.04477575
37	0x3c6735f4	0.0141119845
38	0xbd6203f1	-0.05517954
39	0xbb02ede3	-0.0019978217
40	0xbcde6c6b	-0.027151307
41	0xbd05b71e	-0.032645337
42	0x3d87a943	0.06624081
43	0xbc81dd7d	-0.015852684
44	0xbcf39971	-0.029736253
45	0x3cbece30	0.023291677
46	0xbd1c4ab5	-0.038157184
47	0x3d07728c	0.033068225
48	0xbcbe8c16	-0.023260158
49	0xbc576c41	-0.013148368
50	0xbca357fb	-0.019939413
51	0xbdb43b97	-0.08800428
52	0xbd08c3db	-0.033389907
53	0xbd2b8d0c	-0.04188256
54	0x3cf75f9d	0.03019696
55	0x3bd1ca2d	0.006402275
56	0x3cede384	0.029039152
57	0xbd644fbd	-0.055740107
58	0x3c885b3a	0.016645063
59	0xbd23c2ce	-0.039980702
60	0x3ac50dbc	0.0015034
61	0x3d1048bc	0.035225615
62	0xbd83729f	-0.064183466
63	0xbd022937	-0.031777587

encoder.blocks.0.mlp.fc2.weight f4 [16, 64]
0	0xbd880feb	-0.06643661
1	0x3d9040df	0.07043623
2	0xbd6ceb83	-0.05784179
3	0xbe779ee2	-0.24181703
4	0xbe0d9751	-0.13827254
5	0x3dcef8d2	0.101060525
6	0x3e122149	0.1427051
7	0x3d805829	0.06266815
8	0x3e17805c	0.14795059
9	0x3d4a0fb3	0.04933138
10	0x3e3a1282	0.18171123
11	0xbe9ad6b6	-0.30241936
12	0xbd80cf71	-0.06289566
13	0xbe880b29	-0.26571015
14	0x3c44e144	0.012016598
15	0x3e16c455	0.14723332
16	0x3e130d4e	0.14360544
17	0x3e2295c9	0.15877451
18	0x3e20e3d8	0.15711915
19	0xbe02cb84	-0.12772948
20	0x3d49e9aa	0.049295105
21	0x3e1d3cf1	0.15355279
22	0xbe8b6031	-0.27221826
23	0x3e4c6089	0.199587
24	0x3d65827d	0.056032646
25	0xbc715e05	-0.014731889
26	0x3e6a50de	0.22882411
27	0xbdad22cc	-0.084539026
28	0xbd953494	-0.07285419
29	0x3e693595	0.22774346
30	0xbe3a656d	-0.18202753
31	0x3dfddb33	0.123953246
32	0xbe3df9b5	-0.18552287
33	0xbcd00a0c	-0.025395416
34	0x3e5f8f52	0.21832016
35	0x3e8eaf7e	0.27868265
36	0xbe5fb8d8	-0.21847856
37	0xbe14698e	-0.14493391
38	0x3db0a4cc	0.086251825
39	0xbe46fb61	-0.19431831
40	0xbde57257	-0.11203449
41	0x3da64ae7	0.08119755
42	0xbe98e26f	-0.29860255
43	0x3aa50fe9	0.0012593243
44	0xbe93caca	-0.28865653
45	0xbe1406ac	-0.1445567
46	0x3e364ab7	0.17801939
47	0xbd015000	-0.031570435
48	0xbe8fbc80	-0.28073502
49	0x3df9e41f	0.12201714
50	0x3e3a898b	0.18216531
51	0x3e0222af	0.12708543
52	0x3e2c2845	0.16812237
53	0xbe2c3139	-0.16815652
54	0xbe589585	-0.21150787
55	0xbe6f908a	-0.23394981
56	0x3d78a7c0	0.060706854
57	0xbe0d8392	-0.13819721
58	0xbd645583	-0.055745613
59	0x3e102bc1	0.14079191
60	0xbd5df810	-0.05419165
61	0x3e0ab656	0.13546118
62	0x3e2c73ce	0.16841051
63	0xbc0792f1	-0.00827478
64	0xbdfbcc88	-0.122948706
65	0xbe265774	-0.16244298
66	0xbc0fd188	-0.0087779835
67	0xbdc28f3c	-0.09499976
68	0x3e0f0e52	0.13970307
69	0xbd5123e7	-0.05105963
70	0x39e73257	0.0004409726
71	0x3e2671d2	0.16254357
72	0x3e6b1674	0.22957784
73	0x3e0b81a1	0.13623668
74	0x3e2b8ff3	0.16754131
75	0x3df2d37e	0.11856745
76	0x3c6ecbd9	0.014574968
77	0x3da991cb	0.08279761
78	0x3d862f2b	0.06551965
79	0x3d92f280	0.071751595
80	0xbe5ee79b	-0.21768038
81	0xbdc41b3a	-0.095755056
82	0x3d13fe6a	0.0361313
83	0x3da3ab07	0.07991605
84	0x3dc0456d	0.09388242
85	0xbe25d2be	-0.16193673
86	0x3e2e6d06	0.17033777
87	0x3e2a4e0a	0.16631332
88	0xbe445107	-0.19171534
89	0x3dd8ed1e	0.105921015
90	0x3e580136	0.21094212
91	0xbe4eedca	-0.20207897
92	0xba889cf2	-0.001042275
93	0xbdb068b3	-0.0861372
94	0x3d6df8d4	0.05809863
95	0xbd37d978	-0.04488513
96	0x3df28993	0.118426464
97	0x3e929b9d	0.2863435
98	0x3d25656a	0.04037992
99	0xbe7197aa	-0.23593011
100	0x3dd70995	0.104998745
101	0xbdf3bc37	-0.119011335
102	0xbe846c5d	-0.25863925
103	0x3e2b9720	0.16756868
104	0x3dc26683	0.09492209
105	0xbd139e42	-0.0360396
106	0xbd7dfadb	-0.062006813
107	0x3d846c44	0.064659625
108	0xbd48c5ed	-0.04901688
109	0x3d9d8b4e	0.07692586
110	0xbe36a46a	-0.17836156
111	0xbdbe1e61	-0.09283138
112	0xbdd63998	-0.10460204
113	0x3e0efef2	0.13964441
114	0x3e01783d	0.12643524
115	0x3d3d4abb	0.046213847
116	0x3db8d4fe	0.09025
117	0x3d635d36	0.055508815
118	0xbe71af14	-0.23601943
119	0x3e6826f7	0.22671114
120	0xbc312a9c	-0.0108133815
121	0xbd660df3	-0.056165647
122	0xbd034433	-0.03204746
123	0x3e0d1329	0.1377684
124	0x3e0d47ba	0.13796893
125	0x3d0056e1	0.031332854
126	0x3a773f9d	0.00094317814
127	0x3e162031	0.14660718
128	0x3e049ae8	0.12949717
129	0x3db84e14	0.08999267
130	0x3d1fb9cf	0.03899556
131	0x3d32e915	0.043679316
132	0xbd39ec05	-0.0453911
133	0xbe42ecfa	-0.19035712
134	0x3e2f007a	0.17090026
135	0xbb4dfe33	-0.0031432032
136	0xbe640983	-0.22269253
137	0x3ddb9d9e	0.107234225
138	0x3e84ef66	0.25963897
139	0x3de3b0aa	0.1111768
140	0x3e78331c	0.24238247
141	0x3ca1a039	0.01972972
142	0xbe5bcf59	-0.21465816
143	0xbdbff8e5	-0.09373645
144	0x3e27ac2f	0.16374277
145	0xbe88621b	-0.2663735
146	0x3d5c5f4b	0.053801816
147	0xbdc5ef54	-0.09664789
148	0x3df0784a	0.11741693
149	0xbe315495	-0.17317422
150	0xbe2cb4ee	-0.16865894
151	0xbe2fcbcf	-0.1716759
152	0x3d29c095	0.041443426
153	0x3df88d54	0.12136331
154	0x3d907295	0.07053105
155	0xbc97930d	-0.018502736
156	0xbe5f5c23	-0.21812491
157	0xbe42caac	-0.19022626
158	0xbe7075b5	-0.23482402
159	0x3e5f39b6	0.21799359
160	0x3e1bc7b9	0.15212907
161	0xbe6826fb	-0.2267112
162	0x3d55837e	0.052127354
163	0xbe3a53ae	-0.18195984
164	0x3e68dbef	0.22740148
165	0xbe79a067	-0.24377595
166	0x3bb9cbb4	0.0056700353
167	0x3e8d0d18	0.27549052
168	0x3e489737	0.19588934
169	0xbe43b826	-0.19113216
170	0xbe408552	-0.18800858
171	0x3e672a9a	0.22574845
172	0x3e137466	0.14399871
173	0x3c93df47	0.018050803
174	0xbe47739d	-0.19477697
175	0x3e5254a3	0.20540099
176	0xbcdcf824	-0.026973791
177	0x3e630e31	0.22173382
178	0x3e79ce15	0.2439502
179	0xbe0d66c2	-0.1380873
180	0x3e582008	0.21105969
181	0x3d5b2491	0.05350167
182	0xbe089a2c	-0.13340062
183	0x3e665096	0.22491679
184	0xbe81e196	-0.2536742
185	0xbdfeb68b	-0.12437161
186	0xbe80c2e0	-0.25148678
187	0x3a19f5f4	0.00058731367
188	0x3d8c75da	0.06858416
189	0x3e5f7072	0.21820238
190	0xbdfacd8f	-0.122462384
191	0x3e5e79e1	0.2172618
192	0x3d15b495	0.03654917
193	0x3e1c4984	0.15262419
194	0xbdd549d5	-0.10414473
195	0xbd726f6a	-0.059188284
196	0xbe98840e	-0.2978825
197	0xbe61442c	-0.21998662
198	0xbe540f86	-0.20709047
199	0xbe0ba633	-0.13637619
200	0xbdf2bd8d	-0.1185256
201	0x3d290fd9	0.04127488
202	0x3df7b99e	0.120959505
203	0xbe5b025c	-0.21387619
204	0x3e8fb8e6	0.28070754
205	0xbd3dac4f	-0.046306904
206	0xbe234856	-0.15945563
207	0xbdebeb60	-0.115195036
208	0x3e4582cd	0.19288178
209	0xbe8f59a9	-0.27998093
210	0x3e43f6cd	0.19137116
211	0xbe23eb52	-0.16007736
212	0x3e0979b1	0.13425328
213	0xbb35119b	-0.0027628902
214	0x3db5ea4a	0.08882578
215	0x3e58285e	0.21109149
216	0x3d85d33d	0.06534431
217	0x3cb42110	0.021988422
218	0xbdb46f9d	-0.08810351
219	0x3e5399f3	0.20664196
220	0x3d3ab357	0.045581188
221	0x3e1f4e22	0.15557149
222	0xbe414124	-0.18872505
223	0xbd96ec65	-0.073693074
224	0x3eae1425	0.33999744
225	0x3e0289b6	0.12747845
226	0x3d5a2b40	0.053263903
227	0xbded3965	-0.11583213
228	0xbe1b68ed	-0.15176745
229	0xbbf9034b	-0.0075992695
230	0x3e124ccb	0.14287107
231	0x3e454998	0.19266355
232	0xbc5af9f4	-0.0133652575
233	0x3c360fab	0.011112134
234	0xbe771214	-0.2412799
235	0xbe9382c6	-0.2881071
236	0xbe31ccc1	-0.17363264
237	0xbe47c341	-0.19508077
238	0x3e2ac229	0.16675629
239	0x3e2f7767	0.17135392
240	0xbe1a3e7f	-0.15062903
241	0x3cc590c3	0.02411688
242	0x3d349177	0.04408404
243	0x3e6d31a8	0.23163474
244	0x3d45db6b	0.048304956
245	0xbdfe16c6	-0.124066874
246	0xbe74d609	-0.23909773
247	0xbd879f88	-0.06622225
248	0xbdd2db6a	-0.10295756
249	0x3e73feee	0.23827717
250	0x3e5e200f	0.21691917
251	0x3e982518	0.297158
252	0x3df33f59	0.11877317
253	0xbe020ec1	-0.1270094
254	0x3e567b5f	0.209455
255	0x3e3e6c3d	0.18595977

encoder.blocks.0.mlp.fc2.bias f4 [16]
0	0xbd2b6023	-0.04183973
1	0x3d847c82	0.064690605
2	0xbceee1ab	-0.029160341
3	0x3d0b0c44	0.033947244
4	0xbcd545e3	-0.026034301
5	0x3cca86cf	0.024722485
6	0x3d41461b	0.047186
7	0xb9be9ae6	-0.00036355032
8	0xbd12283a	-0.035682894
9	0x3cda6b56	0.02666251
10	0x3d0a7647	0.033804204
11	0xbcf7157d	-0.030161614
12	0x3cf42988	0.02980496
13	0xbd19eb69	-0.03757802
14	0x3d18a9d5	0.03727134
15	0x3d10d591	0.035359923

encoder.blocks.1.norm1.weight f4 [16]
0	0x3f77954a	0.9671217
1	0x3f6c7d04	0.9237826
2	0x3f7c9641	0.9866677
3	0x3f812366	1.0088928
4	0x3f838708	1.0275583
5	0x3f87a33e	1.0596693
6	0x3f81ac98	1.0130796
7	0x3f84b9c5	1.0369192
8	0x3f7e8765	0.99425346
9	0x3f82b6f6	1.0212085
10	0x3f7e173c	0.992542
11	0x3f79ad52	0.9753009
12	0x3f769544	0.9632151
13	0x3f7eb4e6	0.9949478
14	0x3f6ab08b	0.91675633
15	0x3f852822	1.0402873

encoder.blocks.1.norm1.bias f4 [16]
0	0xbd158e03	-0.036512386
1	0x3d31a0ff	0.04336643
2	0xbccf1f98	-0.02528362
3	0x3c4ca484	0.012490395
4	0xbcd380e3	-0.025818294
5	0x3d1523c6	0.03641107
6	0x3d326c02	0.043560036
7	0xbcbeafdb	-0.023277214
8	0xbcece34c	-0.028916977
9	0x3c92a38a	0.017900247
10	0x3c992f4f	0.018699316
11	0xbcc0dd92	-0.023543153
12	0x3cf3e2ee	0.029771294
13	0xbd04d821	-0.03243268
14	0x3cfc77ec	0.030818902
15	0x3d20e29d	0.039278615

encoder.blocks.1.attn.qkv.weight f4 [48, 16]
0	0xbe4b52fa	-0.19855872
1	0x3e42f59c	0.19039005
2	0xbd69b5b2	-0.057058044
3	0xbe131ce9	-0.14366497
4	0xbe48c96e	-0.1960809
5	0xbe815d4c	-0.25266492
6	0x3e160244	0.14649302
7	0xbbc09945	-0.005877646
8	0xbc8c21a0	-0.017105877
9	0x3e7cd8bd	0.24692054
10	0xbde354b0	-0.11100137
11	0x3dd3a467	0.10334092
12	0x3d21ec36	0.03953191
13	0x3d3ea0d3	0.046540093
14	0x3d175045	0.036941785
15	0xbe98fc2f	-0.298799
16	0xbd46a240	-0.048494577
17	0xbdc9317e	-0.09823893
18	0x3e1b2f30	0.1515472
19	0xbea2e899	-0.31818083
20	0xbd22c3e4	-0.039737597
21	0xbe6857b0	-0.226897
22	0x3eaa3e84	0.3325082
23	0x3d0884ad	0.033329654
24	0x3e35cae8	0.17753184
25	0x3e0c53ef	0.13703893
26	0xbe13e17c	-0.14441484
27	0xbe856e2b	-0.26060614
28	0xbd01b948	-0.03167084
29	0xbe82fc61	-0.25583175
30	0xbe4ea241	-0.20179082
31	0x3dc0cc0b	0.09413918
32	0x3e3d755a	0.18501797
33	0xbdca0cdb	-0.09865733
34	0x3e9734fd	0.29532614
35	0x3d1001bb	0.0351579
36	0xbdbfc237	-0.093632154
37	0x3e214e7b	0.15752594
38	0xbe4bf064	-0.1991592
39	0xbdf3fed6	-0.119138405
40	0xbcf2accb	-0.02962341
41	0x3e27a587	0.16371737
42	0x3d1f75ef	0.03893083
43	0x3e225d4f	0.15855907
44	0xbd8419a1	-0.06450201
45	0x3cdfd054	0.027321018
46	0x3d0e529b	0.034746747
47	0xbc36c62e	-0.011155648
48	0xbe5178d1	-0.20456244
49	0xbe444121	-0.1916547
50	0xbe6ad652	-0.22933319
51	0xbe3d3117	-0.18475758
52	0xbd16c6b3	-0.036810588
53	0xbdf15f04	-0.11785701
54	0x3e5795b8	0.21053207
55	0x3de54690	0.11195099
56	0x3e7dfb00	0.2480278
57	0x3e990e57	0.29893753
58	0x3e9d0a57	0.3067195
59	0xbe28dcdf	-0.16490506
60	0x3d04b0bf	0.03239512
61	0x3e979a0a	0.2960971
62	0xbe2fa916	-0.17154345
63	0xbe8c4b81	-0.27401355
64	0xbde97f36	-0.11401217
65	0xbe53f428	-0.20698607
66	0xbe37fd43	-0.17967705
67	0x3bf02745	0.0073289
68	0x3e425d1b	0.1898083
69	0xbf0e6505	-0.55622894
70	0xbc980f9f	-0.018562136
71	0x3e016344	0.12635523
72	0xbe420cd5	-0.18950208
73	0x3e83a227	0.2570965
74	0x3ef80ef8	0.4844892
75	0xbe48d4bb	-0.196124
76	0xbcdf91ac	-0.027291141
77	0x3ec523b2	0.38503796
78	0x3d92bff7	0.07165521
79	0xbd920fc7	-0.071319155
80	0xbe70b570	-0.23506713
81	0x3eb53e61	0.35399154
82	0xbe7d33c0	-0.24726772
83	0x3e047877	0.12936579
84	0xbe6ac051	-0.22924925
85	0x3e2f39ae	0.17111847
86	0xbe6fefe7	-0.23431359
87	0xbe07e934	-0.13272554
88	0xbe2cc70a	-0.16872802
89	0xbe042076	-0.12903008
90	0x3ddc5709	0.10758788
91	0xbe6d2cf3	-0.23161678
92	0xbd9f24e3	-0.077707075
93	0xbe4e1983	-0.2012692
94	0x3e3021f4	0.17200452
95	0xbe1db9f6	-0.1540297
96	0x3c913278	0.01772426
97	0x3d3a3c20	0.045467496
98	0x3d6d07a1	0.057868604
99	0xbd93841b	-0.072029315
100	0x3e4db776	0.20089516
101	0xbe52293f	-0.20523547
102	0x3db17e46	0.08666663
103	0xbda7562d	-0.081707336
104	0xbe30313a	-0.17206278
105	0x3d7acff7	0.061233487
106	0xbe3df6f1	-0.18551232
107	0xbe2df00f	-0.16986106
108	0xbe8dd209	-0.27699307
109	0x3e3d488c	0.18484706
110	0xbe588ed7	-0.21148239
111	0x3e87feb3	0.26561508
112	0xbe56a659	-0.20961894
113	0x3e038fb3	0.12847786
114	0x3dc079ee	0.09398256
115	0xbe14ee0f	-0.14543937
116	0x3dc75460	0.0973289
117	0xbe9654ab	-0.29361472
118	0x3dd5e453	0.1044394
119	0xbd8dcf2e	-0.06924282
120	0x3e60574e	0.21908304
121	0x3e02099d	0.1269898
122	0x3d07ccec	0.033154413
123	0x3e171615	0.14754517
124	0x3db72cd8	0.089441
125	0x3e8d62e4	0.2761451
126	0x3da41251	0.08011306
127	0xbea2487e	-0.31695932
128	0x3e8895c8	0.26676774
129	0xbeb1e56a	-0.34745342
130	0x3d2b82db	0.04187284
131	0xbe8861bb	-0.26637062
132	0xbd957f48	-0.072996676
133	0xbe16a148	-0.14709961
134	0xbc82b9ba	-0.015957702
135	0xbe88813a	-0.26661092
136	0x3e4b8c91	0.1987784
137	0xbd1548f2	-0.03644652
138	0xbdf4bebf	-0.119504444
139	0xbdb14b94	-0.086569935
140	0x3dd82db9	0.10555596
141	0x3eb084ea	0.34476405
142	0xbd342cf3	-0.04398818
143	0xbe287337	-0.16450201
144	0xbe0f1bc6	-0.13975438
145	0x3eaaedc0	0.33384514
146	0xbea7a9f3	-0.32746848
147	0xbe94c2f5	-0.2905499
148	0x3e709322	0.23493627
149	0xbdca1e8d	-0.09869108
150	0xbe146983	-0.14493375
151	0xbe2d937a	-0.16950789
152	0xbde2e981	-0.110796936
153	0x3df639c3	0.12022736
154	0xbd5f6a72	-0.054544874
155	0xbe97dbfe	-0.29660028
156	0x3e8791e3	0.2647849
157	0x3dc6780d	0.096908666
158	0xbdb3a92e	-0.08772503
159	0xbdc6d50a	-0.09708603
160	0xbe0de35c	-0.13856262
161	0xbd16e06a	-0.03683511
162	0x3ce5c9b7	0.028050287
163	0x3ddfcf55	0.10928217
164	0x3e39c2be	0.18140694
165	0x3e65d346	0.22443876
166	0xbe7c6ef9	-0.24651708
167	0x3dad0efb	0.08450123
168	0xbe00cdcd	-0.12578507
169	0x3d9fab00	0.077962875
170	0x3e473bb8	0.19456375
171	0x3ce6dad4	0.028180517
172	0xbd2e0b23	-0.04249109
173	0x3cb1cf7d	0.021705383
174	0xbe35e1ca	-0.17761913
175	0xbe98205f	-0.29712197
176	0xbe21f226	-0.15815029
177	0x3e2170f5	0.15765746
178	0xbe62688c	-0.22110194
179	0x3e1f448c	0.15553492
180	0xbcc3d283	-0.02390409
181	0x3e926a69	0.2859681
182	0xbc949459	-0.018137144
183	0xbda35541	-0.07975245
184	0x3e506b18	0.20353353
185	0xbe495cd0	-0.19664311
186	0xbe64c67a	-0.22341338
187	0x3e8c7a86	0.27437228
188	0xbda94cc3	-0.08266594
189	0xbd7db0b7	-0.061936107
190	0x3e7e5b68	0.24839556
191	0x3e9c8a7a	0.305744
192	0xbd8c57ff	-0.068527214
193	0xbeabd32c	-0.3355955
194	0x3d34a918	0.044106573
195	0xbdb9c2a0	-0.09070325
196	0xbe1e8c39	-0.15483178
197	0x3e0358f9	0.12826909
198	0x3c33d4e9	0.010976055
199	0x3cadce7d	0.021216625
200	0xbe7cfd4f	-0.24706005
201	0xbb87123f	-0.004122048
202	0x3dc89401	0.097938545
203	0x3e1a22cd	0.15052338
204	0xbdd31aa2	-0.10307814
205	0xbe35cd8d	-0.17754193
206	0x3e596b4a	0.21232334
207	0x3e5c7145	0.21527584
208	0xbc58b56c	-0.013226848
209	0x3e523c6a	0.20530859
210	0x3e76e418	0.24110448
211	0x3e104b32	0.14091185
212	0x3e81295a	0.2522686
213	0xbeb84133	-0.35987243
214	0xbd483ca6	-0.048885964
215	0xbe578f85	-0.21050842
216	0xbe73bdad	-0.23802824
217	0x3e4e2f72	0.20135286
218	0xbe541169	-0.20709766
219	0x3e34ff22	0.1767545
220	0xbe0b24c2	-0.1358824
221	0xbe1a4e15	-0.15068848
222	0xbde7cca9	-0.11318333
223	0x3d5cb429	0.05388275
224	0xbe99e9e9	-0.30061272
225	0x3dd8fc77	0.10595029
226	0xbe3383e0	-0.17530775
227	0x3e3524b8	0.17689788
228	0xbe9efa63	-0.31050405
229	0xbe53b1b4	-0.20673257
230	0x3e87a6a6	0.2649433
231	0x3e8de7ac	0.27715814
232	0x3ccf130b	0.025277635
233	0x3e041b53	0.12901048
234	0xbdc4ad47	-0.096033625
235	0x3cfbceda	0.030738283
236	0x3e63f197	0.22260128
237	0x3de70ee0	0.11282134
238	0xbe26b990	-0.16281724
239	0x3d94600a	0.072448805
240	0x3d39efc6	0.04539468
241	0xbde75516	-0.11295526
242	0xbd602d0e	-0.054730467
243	0x3e07936d	0.13239832
244	0xbe9c524c	-0.30531538
245	0x3e1f9d73	0.15587406
246	0xbd758fb7	-0.05995151
247	0x3eb46ae9	0.35237816
248	0xbcd8d646	-0.026469361
249	0x3d2509b3	0.040292453
250	0x3e4d8d3e	0.20073411
251	0x3e139496	0.1441215
252	0x3e778579	0.2417201
253	0xbd8ce768	-0.06880075
254	0x3df418ad	0.11918769
255	0x3d425e29	0.04745308

encoder.blocks.1.attn.proj.weight f4 [16, 16]
0	0xbe8d0734	-0.27544558
1	0x3e1962fa	0.14979163
2	0xbe75d190	-0.24005723
3	0xbe959d8b	-0.29221758
4	0x3d3ccbac	0.046092674
5	0xbda886b8	-0.082288206
6	0x3d75daab	0.06002299
7	0x3e97ec40	0.29672432
8	0xbdc58f3a	-0.09646459
9	0xbd38f8fc	-0.045159325
10	0x3e6fde6f	0.23424695
11	0x3e64f086	0.22357377
12	0xbe5aa9b6	-0.21353802
13	0xbcf5e6b7	-0.03001724
14	0xbd909172	-0.070589915
15	0xbe676390	-0.22596574
16	0xbd35715f	-0.044297572
17	0x3dd205e4	0.1025503
18	0x3e6ad229	0.22931732
19	0x3eb05d1c	0.34446037
20	0x3e8b9866	0.27264708
21	0x3e81f904	0.25385296
22	0xbec64ae0	-0.38729
23	0xbebb5a6f	-0.36592433
24	0xbe915d61	-0.28391555
25	0x3eabf40c	0.3358463
26	0xbe8abc4f	-0.27096793
27	0xbead9786	-0.33904666
28	0x3ddfd053	0.109284066
29	0x3c9f4af5	0.019444922
30	0xbe6461e5	-0.22302969
31	0xbe65ef40	-0.22454548
32	0xbd765b31	-0.06014556
33	0x3ca7973e	0.02045786
34	0x3ecab9c2	0.39594847
35	0xbee87e69	-0.45408943
36	0x3e9c62a2	0.30544
37	0xbe7c2f14	-0.24627334
38	0xbe07fe8a	-0.13280693
39	0xbecc2ccb	-0.39877924
40	0x3e139a96	0.14414439
41	0x3efff1e9	0.4998925
42	0xbe6235d8	-0.22090852
43	0xbef3c49a	-0.47610933
44	0x3d6b28bc	0.057411894
45	0x3e28ba92	0.16477421
46	0x3e9df894	0.30853713
47	0x3e1f4589	0.1555387
48	0xbebee21e	-0.3728189
49	0xbe84b74a	-0.25921088
50	0x3e69cb6f	0.2283151
51	0xbd45ddf5	-0.048307378
52	0xbeb23e37	-0.3481309
53	0xbe8085ba	-0.25102025
54	0x3d0069b4	0.031350806
55	0x3e9504bf	0.29105183
56	0xbda2afac	-0.07943663
57	0x3ed0149f	0.40640733
58	0x3e137d65	0.14403303
59	0xbe160443	-0.14650063
60	0x3eb49ee9	0.3527749
61	0xbebf38c2	-0.3734799
62	0x3e9310e4	0.28723824
63	0x3ee02400	0.43777466
64	0x3a4a7442	0.0007723012
65	0xbe81489b	-0.25250706
66	0x3ce91362	0.028451625
67	0xbe0f12f1	-0.1397207
68	0x3eb9ec9f	0.3631334
69	0x3e804484	0.25052273
70	0xbcedd71b	-0.029033234
71	0x3e4903ec	0.19630402
72	0x3de97e7c	0.11401078
73	0x3dc7fc7e	0.09764956
74	0x3e3fdaee	0.18735859
75	0x3e88dfe8	0.26733327
76	0xbdb4eee4	-0.08834627
77	0xbebe41e7	-0.37159654
78	0xbeb68e89	-0.3565562
79	0x3e25473a	0.16140452
80	0x3eafdf51	0.34350064
81	0x3ec5e215	0.3864905
82	0xbcbd1d67	-0.02308531
83	0xbe93bfdb	-0.28857312
84	0x3dc89148	0.09793335
85	0xbe00598b	-0.12534158
86	0x3ea2d8e6	0.31806105
87	0x3edc4803	0.4302369
88	0x3e860295	0.26173845
89	0xbe9eaca5	-0.30991092
90	0x3dcbd22e	0.09952198
91	0xbea7c5d5	-0.3276812
92	0x3eedbdb1	0.46433786
93	0x3cfa1f72	0.030532572
94	0xbea684e3	-0.3252326
95	0xbe64bc76	-0.22337517
96	0xbec2d952	-0.38056427
97	0xbe446421	-0.19178821
98	0xbe67393a	-0.22580424
99	0x3c297aee	0.01034425
100	0x3ebbef20	0.36705875
101	0xbe7466ac	-0.23867291
102	0xbdf616a6	-0.120160386
103	0xbe0e9f59	-0.13927974
104	0xbebf0637	-0.3730943
105	0x3e7b418b	0.24536721
106	0x3e512eb8	0.20427978
107	0x3d36298b	0.044473212
108	0xbe901256	-0.2813899
109	0x3ebc6d55	0.36802164
110	0x3ea1bc02	0.3158875
111	0x3e94e906	0.29084033
112	0x3eb2adf6	0.34898347
113	0xbe5bd214	-0.21466857
114	0x3bd4ff6e	0.006500176
115	0x3eac3424	0.3363353
116	0xbde260ee	-0.11053644
117	0x3d701d2a	0.058621563
118	0xbe31f787	-0.1737958
119	0x3ed1b567	0.40958712
120	0xbed53052	-0.41638428
121	0xbeca664a	-0.39531165
122	0xbe6d81e9	-0.23194088
123	0xbc9ae56e	-0.018908229
124	0x3d361d93	0.044461798
125	0xbed16d1c	-0.40903556
126	0x3e922e48	0.28550935
127	0xbe996913	-0.29962978
128	0xbe8ba59a	-0.2727478
129	0xbe80efa6	-0.25182837
130	0x3ebdad58	0.37046313
131	0x3cb41132	0.021980856
132	0xbca4c23b	-0.020112148
133	0xbcfba82e	-0.030719843
134	0x3e6a28ae	0.2286708
135	0xbe235705	-0.15951164
136	0x3ead4c88	0.3384745
137	0xbe8d8d11	-0.27646688
138	0x3d91f402	0.07126619
139	0xbdb67b2a	-0.089102104
140	0x3e536fcb	0.20648114
141	0x3d82097c	0.06349465
142	0xbe409bed	-0.18809481
143	0x3ce52e19	0.027976083
144	0x3ec3859e	0.3818788
145	0x3e83afc0	0.25720024
146	0xbd7a5a91	-0.061121527
147	0xbe887e70	-0.26658964
148	0xbd873056	-0.06601016
149	0x3e93d0a4	0.28870118
150	0x3d49f2c5	0.04930379
151	0xbe92747d	-0.28604499
152	0x3e550c29	0.2080542
153	0x3dc48d0d	0.09597216
154	0x3dcf6d7b	0.101283036
155	0x3eab9f20	0.3351984
156	0xbea735f2	-0.32658345
157	0xbecbbf19	-0.39794233
158	0xbe32fc6f	-0.17479108
159	0xbe780001	-0.24218751
160	0xbc58cfcc	-0.013233136
161	0x3e9d3a65	0.30708614
162	0xbe9ed7e3	-0.31024083
163	0x3e93cacc	0.2886566
164	0xbdd71818	-0.105026424
165	0x3d1fce37	0.03901502
166	0x3d7cd652	0.06172783
167	0x3d26faad	0.040766407
168	0xbd17e8ab	-0.037087124
169	0x3e2c9c8f	0.16856597
170	0x3ea88fab	0.3292211
171	0x3ebd1b89	0.3693507
172	0x3e56332e	0.20917961
173	0xbe3bbc67	-0.18333589
174	0xbe9120a3	-0.28345212
175	0x3e696b73	0.22794895
176	0xbe7488b6	-0.23880276
177	0xbe0e21b9	-0.13880052
178	0x3e9cb622	0.30607706
179	0xbe6a9077	-0.22906671
180	0x3eb7143f	0.35757634
181	0xbd0c3ce5	-0.03423776
182	0x3ed6d875	0.4196202
183	0x3ef6f791	0.48235753
184	0xbe595e0d	-0.21227284
185	0xbe20370b	-0.15645997
186	0xbd4efb50	-0.05053264
187	0x3d9f5676	0.07780163
188	0x3ecd2304	0.40065777
189	0x3ed1e297	0.40993187
190	0x3e783f6d	0.24242945
191	0x3edbd5f4	0.4293667
192	0x3e7428a8	0.23843634
193	0xbe5b4bac	-0.21415585
194	0x3e36a4aa	0.17836252
195	0x3e615169	0.22003712
196	0x3ec96fdc	0.39343154
197	0xbe347faf	-0.17626832
198	0xbe8651b1	-0.262342
199	0x3d9fb1ef	0.0779761
200	0x3e2dc543	0.1696978
201	0xbe1f5dc5	-0.15563114
202	0x3e7c4e91	0.24639346
203	0x3e9829f7	0.29719517
204	0xbdd033a2	-0.10166098
205	0xbeb0475e	-0.3442945
206	0x3ec01c2b	0.3752149
207	0xbc820b41	-0.015874507
208	0xbe4825a1	-0.19545604
209	0x3e36fc92	0.17869785
210	0x3c10e8f3	0.008844602
211	0xbedd349e	-0.43204206
212	0xbdd408b5	-0.10353223
213	0x3e3b47a3	0.18289046
214	0x3c995767	0.018718434
215	0xbe279879	-0.16366757
216	0xbdfdb188	-0.12387377
217	0x3de8f885	0.11375526
218	0xbe6a61c2	-0.22888854
219	0x3ec1806c	0.3779329
220	0x3d9b689a	0.075883105
221	0xbe782957	-0.2423452
222	0xbd814c56	-0.06313388
223	0x3d2e3f75	0.042540986
224	0xbbd4da15	-0.006495724
225	0xbd80798a	-0.06273182
226	0x3e7a6128	0.24451125
227	0x3d6a2ab7	0.057169642
228	0xbe9fa2d2	-0.3117891
229	0x3e2abe9f	0.16674279
230	0x3eb6480b	0.3560184
231	0xbd3cd0c9	-0.04609755
232	0x3e3aea75	0.18253501
233	0x3e57e3dd	0.21083017
234	0xbc09a984	-0.008402232
235	0xbed7832d	-0.42092267
236	0xbd9dfb3b	-0.07713934
237	0xbe86c8f0	-0.26325178
238	0xbed24663	-0.41069326
239	0xbdc713a0	-0.0972054
240	0xbeb41eb3	-0.35179672
241	0xbdf43d43	-0.11925747
242	0x3d5f71a1	0.054551724
243	0xbeaf72a2	-0.34267145
244	0x3d841ee9	0.06451208
245	0xbef65b08	-0.48116326
246	0xbee5e998	-0.4490478
247	0xbdbd3a30	-0.09239614
248	0xbeb1c1a1	-0.3471804
249	0x3cc97cfd	0.024595732
250	0x3ebc5ecd	0.36791077
251	0x3e8bb244	0.27284443
252	0x3e4e31db	0.20136206
253	0xbe86e2b6	-0.26344842
254	0x3e87e974	0.26545298
255	0xbe97895a	-0.29596978

encoder.blocks.1.attn.proj.bias f4 [16]
0	0x3c924139	0.017853366
1	0xbcd567f3	-0.026050543
2	0xbcf031af	-0.029320566
3	0x3d07d32b	0.03316037
4	0xbce1935e	-0.02753609
5	0x3d14dac2	0.036341436
6	0x3d739fee	0.059478693
7	0x3cd39ae0	0.025830686
8	0xbd1156f9	-0.035483334
9	0x3cb9542a	0.02262314
10	0x3d544ca2	0.051830895
11	0xbc9a4876	-0.01883338
12	0x3cf0212d	0.029312694
13	0xbd17dc4a	-0.03707532
14	0x3bcec8b0	0.006310545
15	0x3cce2c99	0.02516775

encoder.blocks.1.norm2.weight f4 [16]
0	0x3f752c0b	0.9577033
1	0x3f78d1c9	0.97195107
2	0x3f7b9e8e	0.9828881
3	0x3f7eb31f	0.9949207
4	0x3f77f656	0.96860254
5	0x3f811ad6	1.0086315
6	0x3f86591c	1.0495944
7	0x3f73e837	0.95276207
8	0x3f64d2bf	0.89384073
9	0x3f833de2	1.025326
10	0x3f744c30	0.9542875
11	0x3f828d04	1.0199285
12	0x3f7230ed	0.94605905
13	0x3f89dc16	1.077029
14	0x3f7c46b3	0.9854538
15	0x3f77a867	0.96741337

encoder.blocks.1.norm2.bias f4 [16]
0	0x3c7f24fa	0.015572781
1	0x3ca43de4	0.020049043
2	0xbd0696f2	-0.032858796
3	0xbcd1147e	-0.025522467
4	0x3d000e7d	0.031263817
5	0x3c3d8b10	0.0115688
6	0x3cec245f	0.028825937
7	0x3b8a20c9	0.004215334
8	0xbb63377d	-0.0034670525
9	0xbd48463f	-0.048895117
10	0x3d031116	0.031998716
11	0x3d3c3a68	0.045954138
12	0x3d0e194a	0.034692086
13	0xbbb66a3b	-0.005566863
14	0x3b459062	0.0030145873
15	0xbd1c332a	-0.03813473
