Checkpoint/dict_18.pth (torch, 108787 bytes, 64 tensors)

encoder.cls_token f4 [1, 1, 16]
000000 9e dc d1 bf 6b c3 d2 3d 33 24 35 bf 94 13 72 be
       -1.6395452 0.10291179 -0.7075836 -0.23640281
000010 62 87 f1 3d 5b dd 38 bd 1e 32 98 3f a5 d2 8e bf
       0.117934 -0.045132976 1.1890295 -1.1158034
000020 c4 fe b1 3d 83 6a de bf 4e a6 97 3f d7 24 a4 bf
       0.08691171 -1.7376255 1.1847627 -1.2823743
000030 8f 2a 8f be 01 59 94 bf d7 36 91 be e4 fe 93 3f
       -0.27962157 -1.1589662 -0.28362152 1.1562161

encoder.patch_embed.weight f4 [16, 5]
000000 2a 3c 08 bf 6d 85 ea be 7c ed e7 3d f9 80 da bb
       -0.53216803 -0.4580492 0.113245934 -0.006668207
000010 18 bd bd 3e d4 5f 20 3f 8d 2e 92 be eb d3 0f bd
       0.3705833 0.6264622 -0.2855114 -0.03511421
000020 aa 90 76 be a1 ed 3c be 8a 85 9c be 7c 13 fc bd
       -0.24078622 -0.18450023 -0.30570632 -0.12308404
000030 ff 80 d5 3e f5 d1 21 bf c7 51 0a bf 59 3e 42 be
       0.4169998 -0.63210994 -0.5403103 -0.18969096
000040 0d df 6a 3d fe 7c d2 3e 47 9f aa be ba d4 6a be
       0.057341624 0.41110986 -0.33324644 -0.22932711
000050 7e 67 57 be b5 76 19 3e b2 a5 7e be 75 f0 8e be
       -0.21035573 0.1498669 -0.24867895 -0.2791783
000060 c3 88 3b 3e 98 b6 ef bd 6f c3 15 be d9 ff eb be
       0.18313889 -0.11704749 -0.14625333 -0.46093634
000070 94 13 21 3e 4a 65 0c bd 2e 42 9e be c0 e7 1e 3f
       0.15730125 -0.034276284 -0.30909866 0.6207237
000080 eb 77 9f 3d 04 f5 22 3e 25 1b 00 be 74 d2 81 3e
       0.077865444 0.15913779 -0.12510355 0.25355875
000090 a3 8f 97 be 68 a9 06 bf 5c e7 ee bd dd 27 c4 3d
       -0.29601774 -0.52602243 -0.11665222 0.09577916
0000a0 fd 03 a6 3d 77 32 7f be 54 0c b5 3e 82 35 d4 3e
       0.081062295 -0.24921595 0.35360968 0.41447073
0000b0 37 a2 fd be ed b1 e9 3e f8 98 83 be 08 20 80 3e
       -0.49537823 0.4564356 -0.25702643 0.25024438
0000c0 34 f7 76 3e f0 c9 3a 3d d3 d1 fd be 1b 25 c4 3e
       0.24117738 0.04560274 -0.49574146 0.3830956
0000d0 c1 13 08 bf e2 26 13 3f 57 dd ca be 1e 33 3e be
       -0.5315514 0.57481205 -0.39621994 -0.18574187
0000e0 ed 54 4a bd 8b 42 b6 be 5b 3a 11 3f ed 99 af bd
       -0.049397398 -0.35597643 0.5672967 -0.08574281
0000f0 05 16 a2 be dc 9b 3e bd 13 08 21 3f 8b d2 33 3e
       -0.31657425 -0.046535358 0.62902945 0.17560785
000100 13 11 d1 be 00 16 b3 3e 1f 26 e3 be 3e d2 83 3e
       -0.4083334 0.34977722 -0.44365022 0.2574634
000110 56 4c 23 be 84 78 1b bd f9 4f 6d bd b6 70 36 3e
       -0.15947089 -0.03795673 -0.057937596 0.17816433
000120 98 10 78 be 47 43 a1 be 9e 70 a4 3e a8 f4 65 be
       -0.2422508 -0.3149664 0.3211717 -0.2245661
000130 3e 86 80 3e 12 96 dd bc ab ec c2 3e 10 54 a3 3d
       0.2510242 -0.027049098 0.38071188 0.07975018

encoder.patch_embed.bias f4 [16]
000000 2c 81 46 3e 78 76 56 3d 2e 1d 3b bd 6e b8 c8 bd
       0.19385213 0.052359074 -0.045682125 -0.09800802
000010 fa e9 9b 3c 20 37 44 bd 3c f9 1a 3b 3a 71 86 bc
       0.019032467 -0.047904134 0.002364709 -0.016411413
000020 56 6b eb ba a6 d4 3e 39 f5 19 19 3d d2 ee f5 bd
       -0.0017961066 0.0001819903 0.03737827 -0.12008442
000030 78 51 3b 3c 66 f9 9d bd 7d 4e 89 3d 37 75 7f bd
       0.011432998 -0.077135846 0.067044236 -0.062367644

encoder.blocks.0.norm1.weight f4 [16]
000000 32 31 8e 3f 34 7b 7d 3f d8 15 7e 3f f7 8d 75 3f
       1.1108763 0.9901612 0.9925208 0.95919746
000010 b7 f7 85 3f ea 82 76 3f a3 af 85 3f 7f 8c 7e 3f
       1.0466222 0.9629351 1.0444225 0.9943313
000020 67 72 8b 3f 05 98 80 3f 3b 74 8c 3f 66 a6 85 3f
       1.0894288 1.0046393 1.0972971 1.0441406
000030 da 18 90 3f 58 6d 65 3f 0a 60 80 3f 85 d9 90 3f
       1.1257584 0.8961997 1.0029309 1.1316382

encoder.blocks.0.norm1.bias f4 [16]
000000 87 52 5f bd 04 ce 27 3d b1 a9 6b bd 10 96 57 bd
       -0.054522064 0.040967956 -0.057534877 -0.052633345
000010 a4 34 5f 3c 77 c1 10 3d 59 d3 9b bb 19 16 71 3d
       0.01362339 0.035340752 -0.004755419 0.058858965
000020 bc b7 68 bd b5 f2 0f 3d c6 24 67 bd 36 1e dc 3c
       -0.056815848 0.035143573 -0.056431554 0.026869874
000030 ba 53 0b bd 71 cb 4f 3c c5 e2 4c 3d d4 30 84 bc
       -0.034015395 0.012682782 0.05002095 -0.016136564

encoder.blocks.0.attn.qkv.weight f4 [48, 16]
000000 df b6 3a 3d cb 82 0f be 7a fa 82 bd 9d 54 a4 be
       0.045584556 -0.14014737 -0.06395431 -0.32095805
000010 f1 ba 67 3e 24 88 97 be 43 37 cb 3e 25 d4 5b 3e
       0.22629906 -0.29596055 0.396906 0.21467645
000020 66 1f 35 3d da 04 f7 bd 77 e5 5d 3e b6 71 0f 3e
       0.044219397 -0.12061472 0.21669565 0.14008221
000030 09 7c 2c 3d 0a bd c9 3d 17 fb 7f 3e a8 83 56 bd
       0.042110477 0.098505095 0.24998127 -0.05237165
000040 60 f1 ca 3e 91 32 aa 3e 5a 88 ca be 81 a9 86 3d
       0.3963728 0.33241704 -0.39557153 0.06575299
000050 d4 e0 9b 3e fb 75 7d bd b8 79 1f 3d 5e fd 34 3e
       0.30444968 -0.061880093 0.03893444 0.17674777
000060 ee 85 af 3d 4a 2d 4e bd 9b 8c 3a 3d d9 ee ea 3d
       0.08570467 -0.05033616 0.045544248 0.11471338
000070 a3 fd 0d be 64 c6 25 be 88 1a 76 3e 6c fc c6 bd
       -0.13866286 -0.16188961 0.24033558 -0.097161144
000080 04 92 4b bd 33 bc 52 3e 7a 8f a2 3e b5 39 4b be
       -0.0496998 0.20579605 0.3175009 -0.19846232
000090 69 ee 98 bd de bd 64 be 6f 4b 03 3e 2d dd bd bd
       -0.07467348 -0.22338054 0.12821744 -0.092707016
0000a0 c6 ae 3e 3e 2a de 71 3e 8a 2f c4 be 78 22 7f be
       0.18621358 0.23619905 -0.3831752 -0.24915493
0000b0 e1 50 c0 bc 9f bd e6 bc 13 6f 87 bd de a0 9f be
       -0.023476066 -0.02816659 -0.066129826 -0.3117742
0000c0 6e 28 64 be 49 d3 1d be 35 f3 a9 be 25 d2 6a 3e
       -0.22281048 -0.1541263 -0.33193365 0.22931726
0000d0 cd 16 23 3e b8 d1 a5 bc 1f d1 52 bd 5d 1d c9 3e
       0.15926667 -0.020241603 -0.051468965 0.39280215
0000e0 d0 24 fd be 00 b8 ed 3d c4 7b 39 bd 68 3e 84 3d
       -0.49442148 0.11607361 -0.045284048 0.064572155
0000f0 44 ca 31 3e 58 8c 9f 3e 3e 36 29 3e 44 b5 49 3e
       0.17362314 0.3116176 0.16524598 0.19698054
000100 57 8e e8 3d 1f 57 4f 3e 53 14 8d 3e fd 64 55 bc
       0.11355274 0.20248078 0.2755457 -0.013024566
000110 94 c8 6f be ce 52 3b be 15 08 c7 3d 30 33 d2 bd
       -0.23416358 -0.18293306 0.097183384 -0.102636695
000120 05 f8 24 3e 31 a5 00 3f cd a7 e5 3d ad 57 ea bd
       0.16110237 0.5025206 0.11213646 -0.11442504
000130 24 da 99 bd a5 d0 9b be 03 d9 58 be da b0 68 3e
       -0.0751231 -0.3043262 -0.21176533 0.22723714
000140 da 18 c1 bd 1d 2f b3 be 2c 1e a9 3e 90 d6 8e 3e
       -0.09428568 -0.34996882 0.33030832 0.27898073
000150 a8 42 89 be 9b 61 d6 3d 56 8e f3 bd 68 fb 54 bd
       -0.26808667 0.104678355 -0.11892383 -0.051997572
000160 19 97 c1 be 14 9d c6 bc 49 09 0f bd 5c 6b 88 3e
       -0.3781059 -0.024244823 -0.034920964 0.2664441
000170 26 02 b2 3d 7e 65 ab 3d 96 cc 8b be a2 73 c7 bd
       0.08691816 0.083689675 -0.27304524 -0.09738852
000180 e5 9c 51 3e 84 af 5d bd ba 27 d8 3a 3c 09 7a be
       0.20470007 -0.054122463 0.0016491332 -0.24417585
000190 f0 94 bd bd 0f 51 c2 bb ed 9b a4 bd 74 1e 4b 3d
       -0.09256923 -0.005930073 -0.08037553 0.04958959
0001a0 33 f6 c3 3e f8 82 30 3d 5d 95 53 3d f7 49 1d be
       0.38273773 0.04309365 0.051656116 -0.15360247
0001b0 3f 7d 3d 3e bf 48 46 be 20 bd 0a 3e 8d 2a b2 3d
       0.18504809 -0.19363688 0.13548708 0.08699522
0001c0 1a 76 8e bd 28 9c 1e be c5 e6 00 be d8 83 86 3e
       -0.0695612 -0.15489256 -0.12588032 0.26272464
0001d0 50 b3 3c be 89 01 be 3e 4d c3 6e be db b1 5a bd
       -0.18427777 0.37110546 -0.23316689 -0.053392272
0001e0 d6 0b d4 bd c1 ad 56 3d 99 db 46 be 9f 27 b4 3e
       -0.1035382 0.0524118 -0.19419707 0.35186478
0001f0 30 f8 68 3d 86 ed 77 bd 41 6e a7 be 40 ba 97 bd
       0.056877315 -0.060529254 -0.32701305 -0.07408571
000200 9d a5 17 be f0 8d 0b be 3b 1b 6a bc 51 32 d7 3d
       -0.1480927 -0.13628364 -0.014288719 0.10507644
000210 4e 9d c3 3d 5c 10 0e 3e d2 68 d0 bd 01 4a a3 3e
       0.09551488 0.13873428 -0.10176243 0.31892398
000220 d0 cd 84 be f3 ba f0 bd 57 84 32 bd ad f2 66 3e
       -0.25938272 -0.11754408 -0.04358324 0.22553511
000230 de 7e aa be c5 93 66 be 1d 00 37 be cc 77 3b 3d
       -0.33299917 -0.22517307 -0.17871137 0.045768544
000240 a7 d4 3f bd 11 45 bd 3e 7e 8b 14 bf 77 6b 63 be
       -0.04683366 0.36966756 -0.5802535 -0.22208963
000250 ec 8e c6 3d 19 b0 0a bd 0a dd 8f be 07 12 c2 3d
       0.09695229 -0.033859346 -0.28098327 0.09476095
000260 41 82 6c 3e 5a ae cf 3e cb d9 33 3e c3 71 a4 3e
       0.23096563 0.40562707 0.1756355 0.32118043
000270 2c 41 9d 3d f8 92 70 3e d9 89 76 3e d8 eb 14 3d
       0.07678446 0.23493564 0.24076022 0.03635773
000280 aa a4 7f 3d df 40 9a bd 33 5f 07 be e6 83 c9 bd
       0.062412895 -0.075319044 -0.1321991 -0.09839611
000290 96 70 90 be b6 d5 b8 3e 5a dc ba be 71 59 31 3d
       -0.28210896 0.36100549 -0.3649624 0.04329819
0002a0 17 03 6b 3d da 3a 10 3e 72 9e ab be 58 03 aa 3e
       0.057375994 0.1408495 -0.33519322 0.33205676
0002b0 9c ed e5 3d ab cd c6 3e 2d 88 a0 3d 7a 1d 70 be
       0.11226961 0.38828787 0.078384735 -0.23448744
0002c0 1d 05 0d be 02 9b 0b 3d 46 a0 22 3d bf bf 2e 3e
       -0.13771482 0.034083374 0.03970363 0.17065333
0002d0 38 0c 0d 3e 12 ff 42 be a1 4b 55 3e 40 0a f9 3d
       0.13774192 -0.19042614 0.20829631 0.12160158
0002e0 f0 98 a5 be 87 fb b7 be c8 bf ba 3c c8 11 59 3d
       -0.32343245 -0.35934088 0.022796527 0.052995473
0002f0 a5 29 6f 3d 94 ef 7b be 53 58 81 be ff 36 97 3e
       0.058389325 -0.2460311 -0.252627 0.29534146
000300 39 0c 8a 3e df 27 b5 3d 58 e4 a0 3e 89 60 05 3e
       0.2696245 0.088454954 0.31424212 0.13025106
000310 db 30 84 be d9 d3 30 3e 5f f6 5a be 92 ca 03 3e
       -0.25818524 0.17268313 -0.21383046 0.12870243
000320 d5 7a 89 be 6d 3f 46 3d 83 54 71 be e8 37 9b 3e
       -0.26851526 0.04840033 -0.23567395 0.3031609
000330 b2 a5 a2 bd 16 21 8c 3e 97 48 00 be e6 dd 69 3e
       -0.0794176 0.27368993 -0.12527691 0.22838554
000340 aa 51 28 3d 86 96 8f 3e 9c 95 53 3e 9b 7d 3d 3e
       0.041093506 0.28044528 0.2066254 0.18504946
000350 2a d4 be 3c 7d 25 dc 3e 13 da e1 bd 03 f2 12 bc
       0.023294527 0.4299735 -0.110279225 -0.008968833
000360 6f 6b 16 be cb 76 cb 3e 7e 0d 58 be 78 70 dd bd
       -0.1468942 0.3973907 -0.21098897 -0.10812467
000370 68 9e 1f bd 09 5e 2d 3e e1 38 a8 be c4 11 bb 3e
       -0.038969427 0.16930403 -0.32855895 0.36536992
000380 55 05 90 3e 14 bf a1 3d fc b2 20 3a 95 de 55 bd
       0.28129068 0.078977734 0.00061301864 -0.052214224
000390 28 2c ab 3e 22 af aa be a6 ed 1b 3e 32 59 1e be
       0.33432126 -0.3333674 0.15227374 -0.15463713
0003a0 72 02 58 3e df 88 55 3e b4 3d 08 3e 5a a2 b2 be
       0.21094683 0.20852993 0.13304788 -0.3488949
0003b0 bc 3d d6 3d 7d a6 9f be e0 3d a2 bc ba f4 76 bc
       0.10460994 -0.31181708 -0.019804895 -0.015072996
0003c0 4b ed b7 3d cf c5 04 3d 9e 4a 61 be e0 ef 6a 3e
       0.08980807 0.032415207 -0.2200112 0.22943068
0003d0 89 6a 9e 3e 4c f6 b3 bc 4c 50 1c be 98 e6 fa bd
       0.30940655 -0.02196803 -0.15265006 -0.122510135
0003e0 3f 6b 05 bc df e6 b7 be 93 83 8d 3e ed 9c 31 3d
       -0.008143245 -0.35918328 0.27639446 0.043362547
0003f0 b7 b3 79 be 0c 04 97 3e ef ba 28 bc bc 94 e4 3d
       -0.24384962 0.29495275 -0.010298475 0.11161181

encoder.blocks.0.attn.proj.weight f4 [16, 16]
000000 c5 b4 06 3e 4f 1a 8e be 81 97 3d 3e bd 1c 0c 3e
       0.13154896 -0.27754447 0.18514825 0.13682838
000010 75 c5 f2 3d 62 71 7a 3e b6 6d 69 bd e5 69 08 bb
       0.11854068 0.24457315 -0.056989394 -0.0020815071
000020 6e 89 87 3e bb e9 78 3d 8a b0 de 3e 83 41 74 3e
       0.26472038 0.060769778 0.43494064 0.23853116
000030 ff 5a 90 3e f2 17 56 3d e9 a5 4a 3e 5d 70 1c 3e
       0.28194425 0.05226893 0.19789852 0.15277238
000040 7f 8b bc 3d dc 96 89 3e e8 b3 a9 be c9 57 b1 3e
       0.09206294 0.2687291 -0.3314507 0.34637287
000050 71 c7 bd bd b0 25 03 be df 35 40 3d 71 bf 93 be
       -0.09266556 -0.12807345 0.046926375 -0.28856996
000060 37 8a b6 bd ac 45 a4 bd e6 3e 8f be e6 11 4f 3e
       -0.08913081 -0.08021101 -0.27977675 0.20221671
000070 54 2c 3b 3e 0e 9e 54 be a7 5f 42 3d 65 3f 4b 3c
       0.18278629 -0.20763418 0.047454502 0.012405251
000080 e6 20 20 3e d4 a7 74 3d ba 51 12 bd 1d 01 e6 be
       0.1563755 0.059730366 -0.03572247 -0.44922724
000090 fd d9 df be 9c 2a a0 3e 37 47 b2 3e ef 35 da 3e
       -0.43721 0.31282508 0.34819958 0.42619273
0000a0 ab e0 97 3e 10 d4 93 bc 11 93 ce 3d 4b b9 ee 3e
       0.29663596 -0.018045455 0.100866444 0.46625742
0000b0 1d 9b c7 be be 6c 19 be 4a 9d e0 bd 01 fa 39 be
       -0.3898553 -0.14982888 -0.109675005 -0.18161775
0000c0 aa f0 b9 3e ac ec 84 3e c4 3c b5 3e b1 71 3a be
       0.36316425 0.25961816 0.35397923 -0.18207432
0000d0 cb 97 cd bc 96 f0 8a be 67 13 d7 3e 6d 2e 1b bd
       -0.025096795 -0.27136678 0.4200699 -0.037886072
0000e0 01 b1 57 be 2f 44 7b be f4 bc 93 3d c2 cb d5 be
       -0.21063615 -0.24537729 0.07213774 -0.41757017
0000f0 c5 1a bb bd 9f 71 20 3d e7 8e 9d 3e 3b 4c e8 bc
       -0.09135965 0.039170858 0.30773088 -0.028356662
000100 4c 17 a8 be 38 f8 e1 3d ac a6 41 3e 27 24 80 be
       -0.32830274 0.11033672 0.18911237 -0.25027582
000110 58 9c b3 3d 94 69 1f be 4d dc c8 bd a0 92 ba 3e
       0.087700546 -0.15567619 -0.09807644 0.3643999
000120 b4 7f c2 3e 09 4a 82 3e 19 37 8b be d6 9e a4 be
       0.37988055 0.2544711 -0.27190474 -0.32152432
000130 3d d2 a1 bd 7c a7 ea be 3e 7f 3d be 28 b0 bb be
       -0.07901428 -0.45830905 -0.1850557 -0.36657834
000140 52 91 d1 3d 09 e2 d7 3e 11 1b bc 3d a9 5d 0c bd
       0.10232796 0.4216464 0.0918485 -0.03426901
000150 f0 ed 42 3e 55 2f 92 bd 99 42 99 3d 37 30 14 be
       0.19036078 -0.07137934 0.074834056 -0.14471518
000160 7c d0 ce 3e ae d6 0e be 5d ea 9d be 76 8d d4 3d
       0.40393436 -0.13949081 -0.30842867 0.10378544
000170 e3 67 55 be 75 81 da 3d ca 91 6b be 14 47 85 3d
       -0.20840411 0.10669223 -0.23004833 0.06507698
000180 4f 8b 0d 3d de da 44 3e 1d 92 de 3d 16 0d 36 be
       0.034556683 0.19224116 0.10867713 -0.1777843
000190 6b 4e 96 be 6f 24 53 3b 21 77 19 be 20 a9 a9 3e
       -0.29356703 0.003221776 -0.1498685 0.33136845
0001a0 92 62 2e 3e 17 fd 7a be b6 5e 81 bd db d7 5c be
       0.17029789 -0.24510609 -0.06316893 -0.21566717
0001b0 e6 21 bc bd e0 f5 a6 be be 3b 01 3f 31 fc a2 bd
       -0.09186153 -0.32609463 0.50481784 -0.07958258
0001c0 ef 35 82 3e ab c9 bd 3e 5b 69 ae be bc 65 f4 3e
       0.25431773 0.37067923 -0.34064755 0.47733867
0001d0 4d bd ed bc 8b b0 9b be 00 f1 a1 3e b5 e4 16 3e
       -0.02902093 -0.3040813 0.3162918 0.14735682
0001e0 af 61 be be 95 f1 27 3e 0f fb c8 3e d6 0e 9d be
       -0.37183902 0.1640075 0.39254043 -0.3067538
0001f0 8f 9f d0 be 83 d1 f5 bd 51 9a 6a b9 15 23 06 3d
       -0.40746734 -0.12002852 -0.00022373466 0.0327483
000200 9d 2f e4 be 28 1e 76 3e 29 e5 d1 3e 0b 96 52 be
       -0.44567576 0.24034941 0.40995148 -0.2056505
000210 37 c3 cf 3d 10 ca 37 bc 0c 22 20 3e 90 dd 7f 3e
       0.10144656 -0.011217609 0.15637988 0.24986863
000220 46 90 c9 be b2 af ae bb 3c 7b 51 be 80 31 b3 3e
       -0.39367884 -0.005331003 -0.20457166 0.34998703
000230 85 5a 67 be c7 5d 27 be 99 f8 3a be 3a 27 95 be
       -0.22593124 -0.16344367 -0.18258895 -0.2913149
000240 ee 43 8a be e4 97 85 be b8 7b b4 3e dd 64 ba be
       -0.2700495 -0.26092446 0.3525064 -0.36405078
000250 09 0d 53 3e b7 23 bb be e5 a2 f1 3e f2 84 b3 be
       0.20610441 -0.36550686 0.4719459 -0.35062367
000260 e3 bd d4 3d 0c f7 d9 3d df f0 0b bc c2 39 c0 be
       0.103877805 0.106428236 -0.008541315 -0.37544066
000270 f1 7e 33 be e0 c3 0d bb 36 05 18 3e 52 5b 07 3e
       -0.17528893 -0.0021631643 0.14845738 0.1321843
000280 cd 13 a3 3b 38 5c a6 3e 81 42 d1 bd 16 ca d7 be
       0.0049767257 0.32492232 -0.10217763 -0.42146367
000290 6f 86 db 3e 00 80 0b be aa cc ae be 3f 27 95 be
       0.42876002 -0.13623047 -0.3414052 -0.29131505
0002a0 31 bd fe 3d dd b4 77 bd ac 92 da bd e6 0d 4b be
       0.12438429 -0.06047522 -0.10672507 -0.1982952
0002b0 0c 6e c7 3d b1 ca 8f be 68 6f b5 be c7 70 f8 3e
       0.09737787 -0.2808433 -0.3543656 0.48523542
0002c0 86 8f d2 3c 85 62 2d be 92 39 50 be 62 ba dc bd
       0.025703203 -0.16932113 -0.20334461 -0.10777737
0002d0 bf ff 02 be 01 28 37 bd 5a ef 86 be 2a 5b 9d bd
       -0.12792872 -0.044715885 -0.26354486 -0.07683404
0002e0 b4 bc 1e 3e 88 68 2d be a6 cb d6 3e bb 03 7f 3e
       0.15501672 -0.16934407 0.41952246 0.24903767
0002f0 25 88 3d be 26 76 4e bd d2 d7 8f bd b5 15 29 3e
       -0.18508966 -0.050405644 -0.07023586 0.16512187
000300 03 ed 6a 3e a9 74 d1 bd 47 96 3f be 32 31 41 3e
       0.22941975 -0.10227329 -0.1870967 0.18866423
000310 9a 26 fa bd a1 c0 e4 3e 57 bf b1 be da c1 8b be
       -0.12214394 0.44678214 -0.34716293 -0.27296335
000320 09 50 61 be d0 d3 ce be 71 ab c5 bd 4e 51 1d bd
       -0.22003187 -0.40395975 -0.096518405 -0.038407616
000330 54 be 9c 3d 86 6c 82 3d 0d f8 04 3e a2 fd ac 3e
       0.0765349 0.063683555 0.12985249 0.33787256
000340 1f f6 db 3e 50 ac b2 3e 82 de f0 be f5 24 33 3e
       0.42961213 0.3489709 -0.4704476 0.17494567
000350 47 05 99 3e da c9 a5 3e 72 44 17 bd 63 62 ce 3d
       0.2988684 0.32380563 -0.03693051 0.100773595
000360 e3 1f ca bd 25 b0 5e 3e ec 84 94 3e 7a e5 72 be
       -0.09869363 0.21746881 0.2900766 -0.23720351
000370 60 d4 ee 3d ac b6 f6 3e a7 94 af bd 15 e3 12 3e
       0.11661601 0.48186243 -0.08573275 0.14344437
000380 b3 60 c4 3e 4e b6 8f be 8b 50 df 3d b7 a8 a3 3e
       0.38355026 -0.28068775 0.10904034 0.31964657
000390 19 87 cd 3e c2 d0 30 3e fa 79 a6 bd 19 7a df bd
       0.40142134 0.17267135 -0.08128734 -0.1091196
0003a0 8c d4 5e be ab 8f 8b 3e 5b 3f 79 3e 72 c1 ad be
       -0.21760768 0.27258047 0.24340574 -0.3393665
0003b0 c2 f8 a6 3e bf 09 02 3f ef 71 84 3e 85 4d 0a 3c
       0.32611662 0.5079612 0.25868174 0.008441334
0003c0 78 5b 8d 3e 60 62 37 3e 03 8f 40 be 86 2e 71 be
       0.27608848 0.17908621 -0.18804555 -0.23552904
0003d0 cc cd 0f 3e 9a 2d 9d be 62 03 9e be c3 ad 36 be
       0.14043349 -0.30698854 -0.30861956 -0.17839722
0003e0 e1 0f 12 3e 16 6e 1b be 49 d0 49 be 46 4c d0 be
       0.1426387 -0.15178713 -0.1970836 -0.40683192
0003f0 bc 4f 5c be 5c 49 20 be a2 49 54 3e 42 a4 6a bb
       -0.21514791 -0.15652984 0.20731214 -0.0035803472

encoder.blocks.0.attn.proj.bias f4 [16]
000000 7c ae ff 3c 19 f0 3d 3d 96 86 11 bd 05 d8 8c 3c
       0.03121113 0.046371553 -0.03552874 0.01719285
000010 97 f3 b3 3b 9d c6 91 bb d6 b1 82 3c ee 6c a2 3d
       0.0054916847 -0.0044487254 0.01595394 0.07930933
000020 47 75 c9 bc d4 7b 30 3d 02 b6 a1 bc 63 69 1a bd
       -0.024592055 0.04308684 -0.019740108 -0.03769816
000030 aa f8 5d bd ab 8e bf bb 75 34 79 3c 24 3b b1 3c
       -0.054192223 -0.005845865 0.015210261 0.021634646

encoder.blocks.0.norm2.weight f4 [16]
000000 6d 5c 86 3f c9 07 65 3f 5f c6 6b 3f e0 d8 64 3f
       1.0496956 0.89465004 0.92099565 0.89393425
000010 1c dd 5a 3f a5 d0 6b 3f 73 b9 54 3f 84 8c 6a 3f
       0.85493636 0.9211524 0.83095473 0.9162066
000020 91 12 6c 3f 02 0a 70 3f 78 2d 77 3f d4 57 64 3f
       0.9221583 0.9376527 0.96553755 0.89196515
000030 e5 3e 85 3f 78 38 6a 3f 56 23 81 3f 57 62 73 3f
       1.0409819 0.91492414 1.0088909 0.9507193

encoder.blocks.0.norm2.bias f4 [16]
000000 47 b7 81 3d b6 35 16 3c df 54 44 bd 51 fa 6a bd
       0.063337855 0.009168079 -0.047932502 -0.057367627
000010 b3 61 d8 3d 82 a4 d7 bd 3a 97 ae 3d 61 a1 8f bd
       0.1056551 -0.10529424 0.08524938 -0.070132025
000020 ac dc 68 3d fd cd 7b 3c 2a 01 f0 3c ba 4c fb bd
       0.056851074 0.015368936 0.02929743 -0.12270494
000030 8b 34 26 3c 89 fa cc bd 0f ad 89 bd 62 06 ba bc
       0.010144363 -0.10008723 -0.067224614 -0.022708122

encoder.blocks.0.mlp.fc1.weight f4 [64, 16]
000000 df 19 95 3d 37 50 7f be ef 86 9b 3e 6f 0b c7 bd
       0.07280325 -0.24932943 0.30376384 -0.09718978
000010 f4 cf a0 bd 53 e4 aa 3d c8 20 22 3e 67 0e 9a bd
       -0.07852164 0.08344331 0.15832818 -0.07522278
000020 31 5a 18 3e f4 c6 1a 3d 0c a6 7e be 4d 64 84 3d
       0.14878155 0.037787393 -0.2486803 0.06464443
000030 69 76 d4 bd 1a d3 26 3e 46 69 b9 bd 62 96 4f be
       -0.103741474 0.16291466 -0.090532824 -0.2027221
000040 f1 5a ba be f1 15 e3 bd 59 68 fe bd 5c cd 16 be
       -0.36397508 -0.11088169 -0.124222465 -0.14726776
000050 c8 ef b3 3d 7c d2 13 be c8 44 4a 3d 80 dd ab bd
       0.08785969 -0.14435762 0.049382 -0.08391857
000060 83 3a 81 3d 54 1b e5 bc 5f b9 e8 3d 06 06 34 bb
       0.06309988 -0.027967133 0.11363482 -0.002746941
000070 6b a9 74 3e 26 b0 fc bd 43 10 86 3c b5 9b 5b be
       0.23892753 -0.12338285 0.016365176 -0.21446116
000080 a9 5d 67 be 06 38 2d be 4c e5 06 bc cb 31 d0 bc
       -0.22594322 -0.16915902 -0.00823338 -0.025414368
000090 72 a4 f2 bd 8c c1 ae bb 20 1e 35 3e 62 3f 3a be
       -0.11847772 -0.005333131 0.17687273 -0.18188241
0000a0 c0 87 7c 3d 6b 33 96 3d fc 4f b2 bd 35 0f a4 be
       0.0616529 0.07334026 -0.08706662 -0.32042852
0000b0 8c b7 76 3e c3 17 80 be 0a 30 3c 3d 32 5c 5b bd
       0.24093455 -0.2501813 0.04594425 -0.05355472
0000c0 d6 bd 47 3e 55 1d a9 3d 8f a9 b0 bd 55 a7 75 3b
       0.1950601 0.08257548 -0.08626091 0.003748377
0000d0 38 a9 2c 3e bc 0a 06 be 66 66 c2 3d f6 31 60 bc
       0.16861427 -0.13090032 0.09492187 -0.013683787
0000e0 2f 58 9a 3e bd 42 6c be 47 b1 f1 3d ae 5a 33 be
       0.30145404 -0.23072334 0.11801391 -0.1751506
0000f0 09 e2 c5 bd 0e 58 8f be 62 71 48 bc e3 82 96 be
       -0.096622534 -0.27996868 -0.012234064 -0.29396734
000100 62 24 c0 bd 50 66 f3 3c f4 67 1b be 85 96 96 3d
       -0.093819395 0.029711872 -0.15176374 0.07352928
000110 c9 ce 1b 3e ee 53 03 be c4 88 67 3e ce d4 dd 3d
       0.15215601 -0.12824985 0.22610766 0.10831605
000120 b0 17 8c be b1 43 5f be 60 64 72 be 1a c3 3a 3e
       -0.27361822 -0.21803166 -0.23671103 0.18238488
000130 0c 47 09 be 86 a9 8e be 2c 33 45 3e 56 ac 0c 3d
       -0.13406008 -0.2786371 0.19257802 0.03434404
000140 e4 d6 22 3e 0f 73 54 3d 13 a9 cc 3d 1f eb 9a 3d
       0.15902287 0.05186754 0.09993186 0.07564377
000150 75 20 22 3e bc 95 00 3e 6e 17 a5 3d 82 8d 70 3e
       0.15832694 0.12557119 0.080611095 0.23491481
000160 de 6f 31 be cd 43 9f bd c8 64 d1 3d 68 b9 90 be
       -0.1732783 -0.07776604 0.102243006 -0.28266454
000170 a3 58 19 bd d0 cc 25 bc ed 8b b9 bd ac 08 2c 3e
       -0.037438046 -0.010119632 -0.09059892 0.16800183
000180 34 f5 52 be d4 c6 57 3e 8d f4 68 3e 90 34 2b be
       -0.2060135 0.2107194 0.22749539 -0.1671927
000190 bc 02 34 3e f9 0f cb 3c 07 2a a3 be 69 60 ac bd
       0.17579168 0.02478789 -0.31868002 -0.08416826
0001a0 b8 35 79 be f4 3b b1 be b5 73 94 3e 63 86 8e 3e
       -0.24336898 -0.34616053 0.28994527 0.27836904
0001b0 cf df e9 bc 35 ce 47 be f9 8f c9 bd 5f 17 73 be
       -0.028549103 -0.19512255 -0.09841914 -0.23739384
0001c0 7e 48 7b be b8 3f 24 be bf 71 b4 bd b6 7b 0b bd
       -0.24539372 -0.16039932 -0.08810758 -0.034053527
0001d0 fa 07 3c 3d 44 39 92 be 5f 21 18 3e 61 d4 27 3e
       0.045906045 -0.28559315 0.1485648 0.1638961
0001e0 0e 78 c6 3c c5 57 64 3e 63 eb 36 3e f9 9f 33 be
       0.024227168 0.22299106 0.1786323 -0.17541493
0001f0 0f ad 93 bd bf 83 8b bc 99 4a b9 bd d2 f6 10 be
       -0.07210743 -0.017030595 -0.090474315 -0.14156654
000200 b9 b2 b0 bd 10 4e e0 bd f9 75 2e 3d a9 26 51 bd
       -0.08627839 -0.10952389 0.042592976 -0.05106226
000210 e3 31 a0 3e 32 37 3e 3d 43 e4 12 be 9f e8 89 3d
       0.3128806 0.046439357 -0.14344887 0.06733822
000220 db be 8e 3d 64 5a 9a 3d 77 a8 66 3e 05 3a 98 bd
       0.069699965 0.07536772 0.22525202 -0.07432941
000230 d8 7d f3 bd e1 a8 ac bd 90 ca 9c 3d 71 52 b2 3d
       -0.11889237 -0.084306486 0.07655823 0.08707131
000240 ac 20 70 be 39 7c 49 be 4a a6 46 be 1c 7c 53 3e
       -0.23449963 -0.19676293 -0.19399372 0.20652813
000250 2f 33 64 be 3a f3 8c 3e 6b ab 2e 3c 97 c9 44 be
       -0.2228515 0.27529317 0.010660986 -0.19217525
000260 80 c8 14 bd 89 38 17 be 7a 45 0c 3e 8f eb 2e 3d
       -0.036324024 -0.1476766 0.13698378 0.042705115
000270 f1 4e 85 be fd f4 fa bc ab 61 ad be 13 e6 12 3c
       -0.2603679 -0.030634398 -0.33863577 0.008965987
000280 db 9a 72 3d ad 69 b7 bd f9 69 38 3e 83 9b 1e 3e
       0.059229713 -0.08955703 0.18009175 0.1548901
000290 84 23 fa bd ef 48 64 3e e7 f4 19 bd e8 40 98 3e
       -0.12213805 0.22293447 -0.037587073 0.2973702
0002a0 98 57 8a 3d 3f bd 0a be 3f 00 47 3d 1f d9 fa bd
       0.067549884 -0.13548754 0.04858422 -0.12248444
0002b0 bf 55 4e 3e e9 ae 21 3e 1c 76 d0 bc 43 69 58 3e
       0.20149897 0.15789379 -0.025446944 0.21133904
0002c0 ac 52 45 bd 7d 9a c0 bc 30 79 57 3e 46 6b 36 3e
       -0.048174545 -0.023511166 0.21042323 0.17814359
0002d0 10 a1 2b be 29 76 3d be 39 57 dc bd 3a 5b 18 be
       -0.16760659 -0.18502106 -0.10758824 -0.1487855
0002e0 38 2e e7 3d ec 5e f2 3c 67 79 72 be 5e b6 6f 3e
       0.112881124 0.029586278 -0.23679124 0.23409411
0002f0 4a c6 d2 3d 58 e2 5e bd 23 9d 58 3d 81 41 35 3d
       0.10291727 -0.054415077 0.052884232 0.044251923
000300 50 53 74 be 5e 2b 7c be b3 1b 8a 3e bd a1 52 3e
       -0.23859906 -0.24625918 0.26974258 0.20569511
000310 01 d9 0c 3e 88 b9 30 3e f9 03 15 be 33 22 13 bd
       0.13754655 0.17258275 -0.14552297 -0.035921287
000320 93 d2 24 be 32 8a eb 3d b9 4d 36 bd ad da 0a be
       -0.16095953 0.11500968 -0.044507716 -0.1355998
000330 95 be 8c be bc 35 c7 bc 57 8c a8 3d 0f 8d 66 3e
       -0.27489153 -0.024317615 0.08229893 0.22514747
000340 1c 88 a9 be 53 33 41 be c0 a9 b3 3d ca 04 3d 3e
       -0.33111656 -0.18867235 0.087726116 0.18458858
000350 bd e5 b1 bd 21 05 44 3c 33 7c c7 3d 15 1c 68 be
       -0.08686397 0.011964113 0.09740486 -0.22666962
000360 e5 e8 4f be fe 75 8d bd dc 8e 82 be d5 93 20 3e
       -0.20303686 -0.06907271 -0.25499618 0.15681393
000370 11 0b 0d be d4 b6 81 be c4 be 1a be 40 eb 90 3e
       -0.13773753 -0.253348 -0.15111834 0.28304482
000380 dc b2 50 3e 76 7a fb bd 58 49 ac bc 14 af 0b 3e
       0.2038073 -0.12279217 -0.021031067 0.13641006
000390 48 3c 12 3e e5 3d 87 3e 0d b3 6a 3e f3 a1 c4 3d
       0.14280808 0.2641441 0.22919865 0.09601202
0003a0 9f cc 69 3e 30 7f 33 be fa c8 70 bd 63 8d 33 3d
       0.22831963 -0.17528987 -0.058785416 0.04383601
0003b0 da 80 55 3e 06 8c 1a be f1 1b b8 bc c7 a6 93 be
       0.20849934 -0.15092477 -0.022474261 -0.2883818
0003c0 cd 3a 18 3e 8b fa 66 be ac 1b 1f be 23 14 53 be
       0.1486618 -0.22556512 -0.155379 -0.2061315
0003d0 87 f6 19 be 4c a5 10 be e8 a5 44 3e 3b f1 52 3e
       -0.15035449 -0.14125556 0.19203913 0.20599835
0003e0 44 8e 8c 3d c4 b6 4d 3e d7 3f 30 3e 18 e4 35 bc
       0.068630725 0.20089251 0.17211853 -0.011101745
0003f0 bf c4 92 3e c4 c5 8a be 09 95 d4 bd 40 9f da bc
       0.2866573 -0.27104008 -0.10379989 -0.026687264

encoder.blocks.0.mlp.fc1.bias f4 [64]
000000 e9 35 9d bd a6 72 7a 3d 6f 3a e1 bd 08 ca e4 bd
       -0.07676298 0.061144494 -0.109974734 -0.11171347
000010 8a db 9a bb 98 1c 11 bd 26 c7 94 bb b0 7a b0 bc
       -0.004725878 -0.03542766 -0.004540342 -0.021542877
000020 15 a7 4b bd 0d 75 85 bc c7 00 93 bc 43 d6 86 bc
       -0.04971989 -0.016291166 -0.017944707 -0.01645959
000030 98 a8 b9 3b 46 47 d6 bc 54 76 2d bd a8 b4 4a bd
       0.00566585 -0.026157033 -0.042349175 -0.049488693
000040 57 0e c3 bc 07 45 9c bd c6 63 99 bd 01 9f 38 bd
       -0.023810549 -0.076303534 -0.074897334 -0.045073513
000050 1a 2a 96 bc 39 f9 fb 3c 99 1d 24 bc bc b9 20 bd
       -0.018330622 0.030758487 -0.010016822 -0.03923963
000060 53 c5 1a bd fd 67 e3 bc df 0c f3 bc f0 4b f7 3d
       -0.03778584 -0.027759546 -0.029669223 0.12075031
000070 bb 53 a9 bc 7f d1 e7 bc 5e 94 2f 3b b3 59 8d bd
       -0.020669809 -0.028298138 0.0026791315 -0.069018744
000080 fb 5f ba bd ca 53 4f bd 62 62 ef bc 00 bf 86 bd
       -0.09100338 -0.050617017 -0.029221717 -0.06579399
000090 eb ce ee bb 91 56 db bc 81 d4 a3 3c e3 a9 45 3d
       -0.00728785 -0.026774677 0.01999879 0.04825772
0000a0 80 75 b1 3a 77 78 64 bd 2a fa 82 bd 61 8d 08 3c
       0.0013539046 -0.055778947 -0.06395371 0.008334489
0000b0 75 48 e4 bd fe fc 5e bd c1 05 1d 3d 47 41 8d bd
       -0.111466326 -0.05444049 0.038335565 -0.06897216
0000c0 d5 44 3a 3d e3 e1 75 bc aa 0b 74 3c 1c 41 e3 3b
       0.0454758 -0.015007469 0.014895359 0.006935252
0000d0 1c 99 13 bd 91 bf b6 3c f1 d3 47 bd 40 ad 02 bd
       -0.03603469 0.022308143 -0.048786107 -0.031903505
0000e0 36 00 7f bd 21 22 8f bb 72 72 ea bc 69 58 3b bd
       -0.06225606 -0.004368082 -0.028619025 -0.04573861
0000f0 0b 64 66 bd e4 fc 58 bd 04 d6 06 bd d1 f4 85 3c
       -0.056247752 -0.05297555 -0.032918945 0.01635209

encoder.blocks.0.mlp.fc2.weight f4 [16, 64]
000000 7c 6f 47 3e 77 0a 25 3e 6d 45 7c 3d 5b e5 c7 bd
       0.19476122 0.16117273 0.061589647 -0.09760543
000010 5b 61 60 3d dd b0 44 bd 10 29 6f be 91 62 d3 3b
       0.054780345 -0.048020232 -0.23355508 0.006450959
000020 a1 f7 d5 3d 48 9a e7 3c b7 85 7c 3e d2 9f e8 bd
       0.10447622 0.02827181 0.24660383 -0.11358608
000030 8c 46 84 bd aa 7c 2a 3e 45 0a 44 be d4 55 29 3d
       -0.06458768 0.16649118 -0.19144543 0.041341618
000040 02 c7 e0 3d cc 38 01 3e 40 eb 3a 3e 5c 5d 5d be
       0.10975458 0.12619323 0.18253803 -0.21617645
000050 99 be 88 3e 3b 94 91 be 90 8f 08 3e 17 e3 75 3c
       0.26707914 -0.28433403 0.13336015 0.015007756
000060 42 7f 09 3e 3f 13 16 3e 13 21 87 3e c1 cf 77 3e
       0.13427451 0.1465578 0.2639242 0.24200346
000070 70 1d 84 3e 98 6a db 3d 58 87 ab 3d 2b 3b 4f bd
       0.2580371 0.107136905 0.08375424 -0.050593536
000080 92 07 b7 3b 18 b1 a3 bd 96 9a 9d bd 29 4d 82 3d
       0.0055856192 -0.07992762 -0.076955006 0.063623734
000090 2a 62 7d be be 66 20 be b3 8d 8a be d9 9a 91 3e
       -0.24744478 -0.15664193 -0.27061233 0.28438452
0000a0 f5 a9 21 be 13 dc 0c 3e 3b 0e 92 bd ab e5 91 3e
       -0.1578749 0.13755827 -0.071316205 0.28495535
0000b0 0a 8f 9b 3b f1 51 26 be 01 9e 4f 3e 07 54 38 be
       0.004747276 -0.16242196 0.20275117 -0.18000804
0000c0 27 3c a1 bd 94 ee 39 be 53 a3 63 3e ed 2a 65 3e
       -0.07872801 -0.18157417 0.22230272 0.22379656
0000d0 43 4b 7c 3e bf 8a e4 3d 76 47 88 3d 56 b6 2b 3e
       0.24638085 0.11159276 0.06654255 0.16768774
0000e0 1b 4e c1 3d de 30 5d 3e 8c 13 f8 bb 94 52 84 bd
       0.094387256 0.21600673 -0.0075706895 -0.06461063
0000f0 6e f4 16 3e e4 06 17 3e bc a9 14 bd 82 58 bd bc
       0.1474168 0.14748722 -0.036294684 -0.023113493
000100 02 d7 1a bc 63 c7 0e be 53 49 0b be c8 36 e1 3d
       -0.009450676 -0.13943247 -0.1360219 0.10996777
000110 4a f9 ee 3d ee a3 46 3c a5 71 39 3e 5d c3 03 3e
       0.11668642 0.012124045 0.18109758 0.12867494
000120 43 f2 af bc 32 79 3a 3e b3 ff bf 3d f1 26 90 3d
       -0.021477824 0.18210295 0.09374943 0.070386775
000130 85 2c c9 3d 4f 3c 72 3d fb 9d 2a 3e fc 48 31 be
       0.098229446 0.059139546 0.16661827 -0.17312998
000140 51 d8 0d 3e 87 44 6e 3e 9c b8 86 bc 5c e0 4c bb
       0.1385205 0.23268329 -0.01644545 -0.0031261658
000150 41 80 5c be 7e 01 13 3e 96 0e f7 3d 48 8d 87 3e
       -0.215333 0.14356038 0.12063329 0.26474977
000160 7b e7 73 3c a5 86 48 be 90 70 e9 bd b4 bd 81 3e
       0.014886732 -0.19582613 -0.11398423 0.25340044
000170 a4 04 83 3e a3 56 2e 3e c4 e1 9c 3e 16 41 6f 3d
       0.25589478 0.17025237 0.30640996 0.05841168
000180 4e 11 2d 3d 44 f9 2a be c5 6e 2b be 23 50 37 be
       0.04225283 -0.1669665 -0.16741474 -0.17901663
000190 53 92 a2 be 21 8b a2 be a1 7f a6 3e d7 ef 4b bd
       -0.31752262 -0.31746772 0.32519248 -0.049789276
0001a0 d8 90 1a 3e c9 6f 6a bd bf 01 47 3e 2a 76 14 3e
       0.15094316 -0.057235513 0.1943426 0.14498201
0001b0 bf c4 7c bb 61 13 4a bb 1e e3 46 3e f3 db a8 bd
       -0.0038569418 -0.0030834305 0.19422576 -0.08245077
0001c0 af d8 42 3e 05 71 83 bd 98 8e 26 be d9 c1 31 3c
       0.1902797 -0.06418041 -0.16265333 0.01084944
0001d0 d8 d9 1d 3d d9 7a 53 3e 86 c4 50 be 9f 4e aa bd
       0.03853783 0.20652331 -0.20387468 -0.08315777
0001e0 c3 b8 1d 3e 49 be 50 3e 03 2a 81 3e 69 30 85 be
       0.15402512 0.20385088 0.25227365 -0.26013497
0001f0 93 b3 ab bd ad 43 fb bd fd 2f 4a bd f6 d1 03 be
       -0.083838604 -0.122687675 -0.04936217 -0.12873062
000200 6e f7 1a bc c4 71 1a be 59 96 90 3d ad 8e e3 3d
       -0.009458406 -0.1508246 0.070599265 0.111111976
000210 b5 a3 4e be d7 b4 fa 3c 33 42 0e 3e f5 f5 94 bd
       -0.20179637 0.03060381 0.1389244 -0.07273475
000220 0c d0 e0 bc c8 72 d2 3d 89 2d 72 be 7d 43 0f 3c
       -0.027442954 0.10275799 -0.23650183 0.008744118
000230 6b 4c 53 3e 3c 58 80 be e8 8e 42 3e f7 b3 af bc
       0.2063462 -0.25067317 0.18999827 -0.021448119
000240 e8 3b b9 be 34 66 87 bd 54 83 78 3d b2 a6 28 3e
       -0.36178517 -0.066112906 0.06067212 0.16469839
000250 7d aa 06 3e 9c 9f 41 be 67 f6 01 bd a7 a3 94 3d
       0.13150974 -0.18908542 -0.03172913 0.07257777
000260 20 eb a3 3d 3a 0e 8d bd 03 51 1d be 42 03 60 3d
       0.08003831 -0.06887479 -0.15362935 0.054690607
000270 93 b2 79 bd fc bd a9 3d fc 76 38 be ac 27 04 be
       -0.060961317 0.0828819 -0.18014139 -0.12905759
000280 8a 7d 8f 3d 70 5a 1f 3e c3 07 0a be 9f 64 3b 3e
       0.070063666 0.15561843 -0.13479523 0.18300103
000290 b5 fe f8 3d 21 5c 17 be 92 3e 23 3e 4f b5 5f bd
       0.121579565 -0.14781238 0.15941837 -0.05461627
0002a0 dd 29 86 3d d7 c6 81 be 6c 2f 03 3e 11 f6 f0 3d
       0.065509535 -0.25347015 0.12811059 0.117656834
0002b0 07 52 c6 bd 4d 04 13 3e d4 44 b5 bd 86 06 5a be
       -0.09683614 0.1435711 -0.088510185 -0.21291551
0002c0 b4 69 41 be 92 e2 8a 3e d9 08 1b be 43 ec ca 3d
       -0.18887979 0.27125984 -0.15140094 0.099083446
0002d0 82 c7 28 bd 56 04 d6 bd df ba 13 3e fa a2 a0 3d
       -0.04120589 -0.10450046 0.14426754 0.07843585
0002e0 26 0c 7d 3d b1 db f7 3d e9 9b 0b 3e 0e fc 09 be
       0.061779164 0.1210245 0.13633694 -0.13475057
0002f0 77 fb 95 bc ef 0f 59 3b f5 33 e0 bd b4 94 b0 3d
       -0.018308384 0.003312107 -0.1094741 0.08622113
000300 f2 59 0e 3e a8 10 0f 3e 96 67 0d be a9 bf 17 be
       0.13901499 0.13971198 -0.13809046 -0.14819206
000310 b9 f3 34 3e 59 7e dc bd 3f da 68 bd c5 50 d3 bd
       0.17671098 -0.107662864 -0.05684876 -0.1031814
000320 b3 37 70 3e 39 50 88 bd 96 c6 2f bd 24 89 75 be
       0.23458748 -0.06655926 -0.042913996 -0.23978096
000330 d8 f4 7d be 44 73 bd 3c 58 f6 4c bd d3 f9 f9 bd
       -0.24800432 0.023126252 -0.05003962 -0.12205853
000340 fd ce 8b bd d5 a7 90 bd a2 e9 00 bd d2 c4 68 3e
       -0.06826589 -0.070632614 -0.03147281 0.22731331
000350 1f b0 53 be 9e d1 79 3e 80 d5 aa 3d e7 83 34 3c
       -0.20672654 0.24396369 0.08341503 0.011017776
000360 29 c1 61 3e d3 15 b7 bb 30 45 63 3c bc fa 83 be
       0.22046341 -0.0055873184 0.013871476 -0.25777233
000370 52 c8 2d be db 20 21 3b e2 76 33 be e7 b3 26 bd
       -0.16970947 0.0024586234 -0.17525819 -0.040698912
000380 b7 1e 55 be 5d c2 28 3e db a8 4f be d6 68 02 3d
       -0.20812498 0.16480394 -0.20279257 0.03183826
000390 81 65 a4 be 51 5d ac bd 79 67 cf 3c 6f dd 93 be
       -0.3210869 -0.08416236 0.025317894 -0.28879878
0003a0 ed 29 c5 3c f1 66 eb 3d ab 37 14 3e 9a 7d 4a 3e
       0.024067843 0.11494244 0.1447436 0.19774476
0003b0 17 31 16 3e b8 34 1a be e6 d3 73 be 0c 06 31 3e
       0.14667164 -0.15059173 -0.23811302 0.17287463
0003c0 85 f1 f9 3c 29 7a 4b be d3 bc bf bd 5e f4 21 3d
       0.030510673 -0.19870819 -0.09362187 0.039539687
0003d0 4b 82 10 be ca fc 11 be da 07 b5 3c 64 9a 50 be
       -0.14112203 -0.14256588 0.02209847 -0.20371395
0003e0 09 ca a1 be bf 63 fc 3d c9 d5 6b be 5d 00 8e be
       -0.31599453 0.123237126 -0.23030771 -0.27734652
0003f0 80 43 e6 3d 7d 4f 73 be 54 01 84 3e fe 77 ea 3c
       0.11243343 -0.23760791 0.25782263 0.02862167

encoder.blocks.0.mlp.fc2.bias f4 [16]
000000 92 79 02 3d 61 20 80 3d 35 bd 3e bc 01 1c 21 bb
       0.03185422 0.06256176 -0.01164179 -0.0024583342
000010 a6 57 fd 3c 66 ef c5 3c 79 24 40 3d 88 a5 37 3c
       0.030925583 0.024162006 0.046909783 0.011208899
000020 22 4e 29 bc b7 9d 1d 3c da 40 a6 bc d1 fa fc bc
       -0.01033357 0.009620122 -0.020294596 -0.030881317
000030 cb 7d 58 bd ed df 95 bd cc d3 d2 3c 26 63 b8 bb
       -0.05285434 -0.07318101 0.025735758 -0.005627054

encoder.blocks.1.norm1.weight f4 [16]
000000 d1 ca 85 3f 03 6d 81 3f ec 5c 84 3f dd 75 80 3f
       1.045252 1.0111393 1.0340858 1.0035969
000010 c2 11 85 3f 84 d2 68 3f 23 1f 84 3f 74 0d 80 3f
       1.0396044 0.9094622 1.0322002 1.0004106
000020 3f e0 87 3f e3 ad 87 3f b1 58 88 3f b9 3f 6f 3f
       1.061531 1.0599941 1.0652066 0.9345661
000030 9f ce 85 3f 67 1a 7d 3f 4d 06 8b 3f a0 9c 87 3f
       1.0453681 0.9886841 1.0861298 1.0594673

encoder.blocks.1.norm1.bias f4 [16]
000000 ab 23 a6 3c 6f cb 30 3b 0a af 85 bd c0 e2 b2 3c
       0.02028068 0.0026976725 -0.06527527 0.021836638
000010 1f 77 cc bc f2 cb d2 3c c8 85 a5 3d 8f 0d 88 3d
       -0.024959145 0.025732014 0.080821574 0.06643211
000020 19 6a 9a bd 33 02 7f 3d 6a a7 18 bd 5d 1f ba bb
       -0.07539768 0.062257957 -0.037269033 -0.0056800083
000030 f3 e5 56 bd 72 7a 86 3b e1 18 17 3d 4a b6 42 3d
       -0.05246539 0.004103952 0.03688896 0.047537126

encoder.blocks.1.attn.qkv.weight f4 [48, 16]
000000 c6 e4 95 be 94 a3 83 3e 55 73 48 be aa 9b 34 3e
       -0.29276103 0.25710738 -0.19575246 0.17637506
000010 d6 34 b4 be 3b a0 71 3d 82 32 1d be c5 bc c7 3e
       -0.3519656 0.0589907 -0.15351298 0.39011207
000020 fe 5e 9b bd 62 b9 7e 3e aa 7d 4e 3e 69 96 14 be
       -0.07586478 0.24875405 0.20165125 -0.14510502
000030 af 07 f5 bc e7 8f 73 3d 08 ad 24 3e fb 62 4c be
       -0.02991089 0.059463408 0.16081631 -0.19959633
000040 24 c0 84 be 6b 9c 91 be f1 dc 9b be a7 76 86 3e
       -0.25927842 -0.2843965 -0.30442002 0.262624
000050 b2 89 88 bd 81 dc 3e bd bc 4a 91 3e 54 e6 3b be
       -0.06666888 -0.046597008 0.2837733 -0.18349582
000060 72 14 d0 bd 66 4b d7 bd 50 63 12 3d 56 1a 33 3e
       -0.1016015 -0.10512428 0.035739243 0.17490515
000070 f8 90 7a bd 36 0a 02 3d 6f 8d 2a be 0d ec 9d 3d
       -0.06117341 0.03174802 -0.16655515 0.07711039
000080 a3 fd 97 be ed e5 07 bd ca 4f 10 be 2c c3 43 3e
       -0.29685697 -0.03317826 -0.14092937 0.19117421
000090 9d 1a 2f 3d 75 3c 29 3e ab ad 04 be be 62 a5 3c
       0.04274999 0.16526969 -0.12956874 0.020188686
0000a0 ca 00 fc bd 52 32 89 bd 42 c3 ed bc 58 c2 e9 bd
       -0.12304838 -0.06699051 -0.02902377 -0.11414021
0000b0 07 f0 0a 3d 56 6b 82 3e 82 7d 07 bc db 39 4d 3e
       0.033920314 0.25472516 -0.0082696695 0.20041601
0000c0 9b 1b 29 bd 79 2f 46 be 5e 92 1a 3d 75 c2 16 3e
       -0.041286092 -0.19354047 0.037737243 0.14722617
0000d0 4f 94 62 3d 35 ff 97 3e 47 e2 e1 bd 60 a1 87 bd
       0.05531722 0.29686895 -0.11029487 -0.06622577
0000e0 48 91 23 3e b7 b7 85 3d b1 3a 8b be bc 86 57 be
       0.15973389 0.065291815 -0.27193215 -0.21047491
0000f0 38 06 36 3e 1f 34 b8 3e 5d 16 1d be df bc 2e 3e
       0.1777581 0.35977265 -0.15340562 0.17064236
000100 2f 18 8e 3e 60 d8 25 be f7 ee e6 3c d0 42 20 be
       0.27752826 -0.16195822 0.02819012 -0.15650487
000110 2d 00 9b 3e 37 00 b3 bd 0a f3 c0 3d 31 91 28 3e
       0.30273572 -0.08740275 0.09421356 0.16461636
000120 6f 6d e1 3c 17 ad 6d be d4 fc 23 3e d0 94 14 be
       0.027518002 -0.2321056 0.16014415 -0.14509892
000130 d6 6c e8 bd 24 23 82 3e 9e bb 27 bd d9 ed 0a 3e
       -0.11348884 0.25417435 -0.04095041 0.13567294
000140 44 ed 9b 3d c1 ca 40 bd 41 63 d4 3d 91 61 9a be
       0.07613614 -0.04706836 0.10370494 -0.30152562
000150 5e 17 94 be ee 16 2c bd 75 0e be bd c3 e3 08 3e
       -0.28924078 -0.042014055 -0.09280101 0.13368134
000160 c8 c6 37 be 2e e2 6e 3e 00 41 33 be be 45 bd 3d
       -0.17946923 0.23328468 -0.17505264 0.09241818
000170 13 5a a5 3d b9 d8 94 bb 2b cb 4c be c1 6f 12 bc
       0.08073821 -0.004542437 -0.19999377 -0.008937777
000180 e0 92 25 be b8 b8 b2 3e e1 80 50 be a8 cc 22 3e
       -0.1616931 0.34906554 -0.20361663 0.15898383
000190 77 64 22 3e ec 75 23 bd 8d a3 8d bd df 39 1c be
       0.15858637 -0.03990738 -0.069159605 -0.15256451
0001a0 59 80 04 be 82 7f 86 bd 24 27 4d 3b 46 b9 5b 3c
       -0.12939586 -0.06567289 0.0031303847 0.013410872
0001b0 cf e5 4a 3e 32 5d a0 be b3 2b 82 be de 36 45 be
       0.19814228 -0.31321102 -0.25423965 -0.19259211
0001c0 a1 c0 3a be 08 67 a3 3d 02 15 d6 3c 57 22 a7 bd
       -0.18237545 0.07978636 0.026133064 -0.08160847
0001d0 14 fd ab bd 8f 08 65 be 71 13 92 be 34 88 9a 3e
       -0.0839788 -0.22366546 -0.28530458 0.3018204
0001e0 ae 2f f2 3d db 33 48 3e a6 12 88 bd d2 ae 66 3e
       0.118255004 0.19551031 -0.06644182 0.22527626
0001f0 59 eb 2e 3e 15 48 32 3e 65 f9 2c be 88 d8 49 bd
       0.17081966 0.1741031 -0.16892011 -0.049278766
000200 8f b3 b5 3d 77 62 b8 bd 92 ab 65 3c a1 95 ce 3e
       0.08872139 -0.09003156 0.014017956 0.40348533
000210 6b af 8a 3d ec 0b 26 bd fa 43 9a be 39 a0 d0 3e
       0.067717396 -0.040538713 -0.30129987 0.4074724
000220 8a 5e ce bc de 03 5f 3d 01 f4 68 be ec 9c be bd
       -0.025191564 0.054447047 -0.2274933 -0.09307274
000230 15 6c dc be 14 67 06 be 4a d5 70 3e d5 1c bb 3d
       -0.4305121 -0.13125259 0.23518863 0.09136359
000240 40 56 29 be 41 71 f1 3d 52 9d af bc 3f 8b 87 3d
       -0.16536808 0.117891796 -0.02143732 0.06618356
000250 05 45 16 3e 0a 9f 84 be f0 84 9b bd 1e 41 39 3d
       0.14674766 -0.25902587 -0.07593715 0.045228116
000260 38 84 e8 3d 3a 2b e1 3d a3 7b 3a 3e b6 ee 65 3e
       0.11353344 0.10994573 0.18211226 0.22454342
000270 39 ac 63 be 00 06 bd bc 4b fe 9e be bd d8 56 be
       -0.22233666 -0.02307415 -0.31053385 -0.20981117
000280 ae 27 63 be 77 17 a6 3d de 2a 95 be 26 59 95 be
       -0.22183105 0.08109944 -0.29134268 -0.29169577
000290 bd 90 eb bd 59 73 c0 bd f3 29 50 be 42 e7 25 be
       -0.11502216 -0.09397001 -0.20328502 -0.16201499
0002a0 b5 db 56 3d 82 55 cb bc 47 bc e4 3d 64 d2 2e 3e
       0.052455623 -0.024821047 0.111687236 0.17072445
0002b0 08 27 e1 3d 9a e8 81 be c3 b9 de 3d 4f 17 34 3c
       0.10993773 -0.25372773 0.10875275 0.010991885
0002c0 2f ff 24 3e c7 e0 f1 bd bf d0 87 be 62 ed b5 bc
       0.1611297 -0.11810451 -0.26526448 -0.02220792
0002d0 a7 22 55 be ca ff b1 3e 1d eb 00 3e 38 e8 e8 3e
       -0.20814 0.34765464 0.12589689 0.4548967
0002e0 a0 e6 1a be 75 b6 68 3d 37 74 ca be b7 25 24 3b
       -0.15127039 0.05681463 -0.3954179 0.0025046894
0002f0 06 8a 99 bd 9f 11 d1 3e 20 9d b8 bd 79 3a b9 3e
       -0.07497029 0.40833756 -0.09014344 0.36177424
000300 e1 b3 dd 3d 97 1b e6 3e 4c 1f 08 3e 4c 44 0e 3e
       0.10825325 0.44942924 0.13293189 0.1389324
000310 6b d3 e3 bd 9b 13 93 bd 99 f8 94 be 58 45 ef 3d
       -0.11124309 -0.07181474 -0.29095915 0.11683148
000320 15 a1 96 3e 99 df b6 bd d3 27 38 bd d2 05 95 bd
       0.2941977 -0.089293666 -0.044959854 -0.07276501
000330 c6 16 c1 b5 1a 77 2c be b4 de f1 3d 02 6e b4 3b
       -1.4386248e-06 -0.16842309 0.118100554 0.005506278
000340 86 15 03 3f 5e 6c b3 be 3d 9a 66 be d4 b2 67 be
       0.5120472 -0.35043615 -0.22519775 -0.22626811
000350 66 4f 9d bd af db ea 3e 1d 92 88 3c bd 8e 77 3d
       -0.0768116 0.4587073 0.016671235 0.06043886
000360 f2 0a e3 be b9 ab 33 3d 28 6e ad ba 89 c4 8e be
       -0.44344288 0.04386494 -0.0013231682 -0.2788432
000370 3e a6 c1 be d8 c1 c1 bc 10 68 d4 3e 33 40 34 3e
       -0.37822145 -0.023652002 0.41485643 0.17602615
000380 c7 60 a6 3e cd 05 c6 3e 70 cc 14 be a7 c8 98 be
       0.3249571 0.386763 -0.14531112 -0.29840586
000390 99 8f c5 3c c6 6b ee 3d 57 4d db 3c 62 4a 6a bd
       0.024116324 0.1164165 0.026770277 -0.057199843
0003a0 92 dd 4a 3e c5 3e a7 bd ff 56 2e 3e 2b e0 9e 3b
       0.19811085 -0.08166269 0.17025374 0.0048485002
0003b0 33 e1 9c 3e cf fa c8 be ac 53 d1 bd 26 60 3e be
       0.30640563 -0.39253852 -0.10221037 -0.18591365
0003c0 31 61 0b 3d 9a 9c 32 be 7e 8a 25 3d 8b fb 4d be
       0.034028236 -0.17442551 0.04041528 -0.20115487
0003d0 84 ae 70 be 73 64 d0 3c b4 45 86 bc e6 61 e2 3d
       -0.23504072 0.025438523 -0.016390659 0.11053829
0003e0 bb bd be bc b6 a8 49 3e 0b 37 2c be 16 a4 06 3e
       -0.02328383 0.19693264 -0.16817872 0.13148531
0003f0 fd ac 88 bd 8e ef 31 be bc a9 32 3e 94 41 66 3e
       -0.0667362 -0.17376539 0.17447561 0.22485954

encoder.blocks.1.attn.proj.weight f4 [16, 16]
000000 99 66 91 3e 6d 33 dc bc bb 27 cf bc 9c 3f 4e bd
       0.28398588 -0.02687999 -0.0252875 -0.05035363
000010 04 9e 82 3e a4 5a 7a bd 6e 8f ef bc 86 12 9e bd
       0.2551118 -0.061121598 -0.029243197 -0.07718377
000020 03 04 34 bd f6 a7 bf bd 7b e7 8d be 22 8b 98 3d
       -0.04394914 -0.09358208 -0.27715668 0.074484125
000030 39 85 ff 3d f3 e5 22 be 05 62 e3 bd 25 d2 cb be
       0.12476582 -0.15908031 -0.1110268 -0.39808765
000040 92 90 b9 3e b0 7f aa 3e ec 22 2c 3e aa 09 07 be
       0.3624311 0.33300543 0.16810197 -0.1318728
000050 aa 4a 33 3e 55 85 03 be 90 48 bf 3e 7d 92 e8 bd
       0.17508951 -0.12843831 0.37360048 -0.113560654
000060 4d ff d8 3e a5 d5 8b 3e b0 ae 09 bf 54 67 96 be
       0.4238228 0.27311435 -0.53782177 -0.29375708
000070 4a 90 d1 3e a3 57 18 3e 7d a0 a9 be 13 01 be 3e
       0.40930396 0.14877181 -0.33130255 0.37110195
000080 b3 1b 2e 3e bd 3d ba 3e 78 a3 ce 3e da d8 a9 3d
       0.17002754 0.36375228 0.40359092 0.08293314
000090 d0 45 c4 3e 60 6f e2 3d a1 e5 ad bd b3 33 ef bd
       0.38334513 0.11056399 -0.08491064 -0.11679783
0000a0 00 9b 88 be e3 89 16 be 4a 44 5f bd 2b 22 1d be
       -0.26680756 -0.14701037 -0.054508485 -0.15345065
0000b0 0d fc ef be 1e 55 bb 3e f9 ee 1f be 4a 11 fb 3d
       -0.46871987 0.36588377 -0.15618505 0.12259157
0000c0 c4 a7 a5 3e 7e 7d 70 be 8b d5 95 3e f0 f0 15 3e
       0.32354558 -0.23485371 0.29264483 0.14642692
0000d0 83 14 d2 3e 9c d5 26 be 37 0c 24 be 0d af 54 be
       0.41031274 -0.16292423 -0.16020285 -0.20769902
0000e0 02 5c 3e 3e 96 42 4c be 47 e5 f0 be f3 ab 8f 3e
       0.18589786 -0.19947276 -0.47049925 0.28060874
0000f0 34 6d 75 be 07 72 8a be fa b2 19 be 15 94 58 3d
       -0.23967439 -0.2704012 -0.1500968 0.052875597
000100 0f 68 27 bd 4b 46 39 be 34 c1 91 be 34 63 61 be
       -0.040870722 -0.18093221 -0.28467715 -0.22010499
000110 95 5d 6f 3e 66 05 46 3d e8 e0 4f 3e ab 05 e8 be
       0.23375542 0.048344992 0.20300639 -0.45316824
000120 7c a2 d7 3e 6b 26 a2 3e 93 04 b8 3e 88 c3 7c 3e
       0.42116153 0.31669936 0.3594099 0.24683964
000130 c1 1b d8 be 74 6b 5f 3e 9c 7e 5e 3c b5 c6 9f be
       -0.42208675 0.21818334 0.013579991 -0.3120629
000140 31 37 5d be 06 b4 f6 be 89 51 d7 3e 3e 0f 6f be
       -0.21603085 -0.48184222 0.42054394 -0.23345658
000150 ac 60 c4 3e 01 50 54 3e f6 90 98 be e8 f5 a3 bd
       0.38355005 0.20733644 -0.29798096 -0.08005887
000160 23 48 d2 bd 32 90 89 bc 2c f4 a7 be 5d 90 60 be
       -0.10267665 -0.01679239 -0.32803476 -0.2193007
000170 9d 10 12 3e 85 0d 78 be e5 b0 de 3e aa 2d 47 3d
       0.1426415 -0.24223907 0.43494335 0.048627533
000180 2b d5 61 bd fb 61 c6 3e 3d 1d 0d 3b 06 fe 95 3d
       -0.055134933 0.38746628 0.002153232 0.07323842
000190 7f b0 47 3d 20 b3 d0 be 4e b6 93 3d 37 6b 81 bd
       0.048752304 -0.40761662 0.07212506 -0.06319278
0001a0 0d 77 10 be 92 e7 7b 3d 9a 7f 68 be e6 5a b3 be
       -0.14107914 0.06150014 -0.22704926 -0.35030288
0001b0 6f 8f 36 3c 46 29 65 be 32 d3 74 be 22 30 57 3e
       0.011142596 -0.22379026 -0.2390869 0.21014455
0001c0 60 19 07 be 36 a8 33 be 42 b8 d3 3d e4 75 8d be
       -0.13193274 -0.17544636 0.10337879 -0.27629006
0001d0 93 43 e0 bc 9b 5a 32 3e 7e 39 ca bd a5 35 6b be
       -0.027375972 0.17417376 -0.09874247 -0.22969683
0001e0 07 43 01 be 68 f6 5b 3e 24 2e 11 bf 44 98 88 3e
       -0.12623225 0.21480715 -0.5671103 0.2667867
0001f0 2a 91 99 3e 75 19 86 3e 36 8e d3 3d 49 86 a2 3e
       0.29993564 0.26191297 0.10329859 0.31743076
000200 60 f2 23 3e 35 3f 44 3e 8e aa e8 3c 90 7e ec 3e
       0.16010427 0.19164737 0.02840164 0.4619031
000210 f1 d5 a9 be 4c ff 23 be 75 2a e3 be 4d 95 92 be
       -0.33171037 -0.16015357 -0.4436833 -0.28629532
000220 57 8e 28 3e 34 9f b6 3d 42 28 73 be bd 7c 00 3f
       0.16460548 0.08917084 -0.23745826 0.50190336
000230 a3 97 63 3e 6f 6d a3 3c 5d 0e be be 93 bc bd be
       0.22225814 0.019949643 -0.37120333 -0.37057933
000240 b5 f1 72 3e 0c b9 b1 be 09 1e 8b 3e f1 70 e4 bd
       0.23725016 -0.34711492 0.27171353 -0.11154354
000250 8f 15 ca bc f4 d5 ed bd 96 67 b8 be c7 88 8e be
       -0.024668483 -0.11613074 -0.3601653 -0.27838728
000260 a3 20 ac 3e 7d 9a a7 3e c9 52 4b be e5 be 89 3e
       0.3361865 0.32735053 -0.19855799 0.26903453
000270 36 f9 b9 3e 16 0a 83 3e d8 8e 01 be ea 29 ce be
       0.36322945 0.25593632 -0.12652147 -0.40266353
000280 79 d7 b5 bd e4 e4 2b 3e 8c 70 9b 3e 8d 61 07 bd
       -0.08878989 0.16786534 0.30359304 -0.033052016
000290 5e 24 81 be ac fc 57 be 2b af ba be 58 f0 82 3d
       -0.25223058 -0.2109248 -0.36461768 0.06393498
0002a0 90 ac d7 bd e9 15 8c 3e 76 3f aa 3e 16 6c 6d 3e
       -0.105309606 0.27360466 0.33251542 0.23185763
0002b0 71 a8 a0 3e 66 2f 97 3d 19 df 87 be 7c f3 45 3e
       0.3137851 0.073820874 -0.26537398 0.19331163
0002c0 17 27 63 bb 3a c2 da be 99 16 09 3e 2e 39 71 be
       -0.003466075 -0.42726308 0.13387527 -0.23556969
0002d0 cb f6 a7 3e fc 36 81 3e e1 d4 81 3d bf d1 ce bd
       0.32805476 0.25237262 0.063394316 -0.100986
0002e0 a8 31 ae 3d ee c1 a1 3e 8e fc 7b 3d ca 74 45 3e
       0.08505565 0.3159327 0.06152015 0.19282833
0002f0 eb ff ac be 1c ec 5f 3d 97 12 64 3e 17 bb 45 3e
       -0.33789 0.05466853 0.22272716 0.1930965
000300 e5 5b e7 be d0 c1 3a 3e a9 66 19 bd 5b c8 d9 3e
       -0.45187297 0.18237996 -0.03745142 0.42535672
000310 e7 f1 76 3e 06 fe ce 3c e7 6c f4 be 7e 92 ad be
       0.24115716 0.025267612 -0.47739336 -0.33900827
000320 27 30 26 be fd c0 99 3d c8 a1 79 bd ab c8 3a 3d
       -0.16229306 0.07507513 -0.060945302 0.04560153
000330 8a 51 93 3e f8 9f 37 be b7 8f 9e be 8a 01 9a 3e
       0.28773147 -0.17932117 -0.3096902 0.300793
000340 19 08 26 3d 38 78 a2 bc 4f b3 14 3e 87 a0 7b 3e
       0.040535066 -0.019832715 0.14521526 0.24572955
000350 ae 1a a2 be 63 00 95 39 7a 7b 87 3e 66 49 7f bd
       -0.3166098 0.00028419783 0.26461393 -0.062325858
000360 cd b8 9a be f6 3c f7 bc 39 af b5 3e 1b 0b 3e 3d
       -0.30219117 -0.030180436 0.35485247 0.04639731
000370 05 77 80 bd 3c 1c f8 3d 5c cf 89 be cd f9 ad be
       -0.06272701 0.1211476 -0.26916015 -0.33979645
000380 3b c5 08 be 7e 48 6b 3d 09 19 be be dc ad ce bd
       -0.13356487 0.05744218 -0.37128475 -0.10091755
000390 3a 3c 93 be 4f fd a0 be 41 db 67 be 93 1f 87 3d
       -0.28756887 -0.3144326 -0.22642232 0.06597819
0003a0 19 03 40 3e 5f a3 42 be 4f 23 54 bd 0e 30 56 3e
       0.18751182 -0.19007634 -0.051791485 0.20916769
0003b0 00 96 b7 be 11 3b 4b be 3f 01 da 3e e6 59 5f 3e
       -0.35856628 -0.19846751 0.42579076 0.21811637
0003c0 2a 7f 11 3e fd 3a 21 3d 3e 45 cc 3c 3a 1a be 3e
       0.14208665 0.039362896 0.024935361 0.37129384
0003d0 7d 11 60 be 7b d1 b2 be 7e ea 12 3e b5 20 6f be
       -0.21881671 -0.34925446 0.14347264 -0.2335232
0003e0 d9 37 0d 3e e7 5c 6c be 30 6f 7b 3d 9d be 83 be
       0.13790835 -0.23082314 0.061385334 -0.25731364
0003f0 1a 1a d7 3c fc c6 6c be fa ad 7d be 97 a1 27 be
       0.026257563 -0.23122782 -0.24773398 -0.16370235
