Checkpoint/dict_1.pth (torch, 108719 bytes, 64 tensors)

encoder.cls_token f4 [1, 1, 16]
0	0xbe80b824	-0.25140488
1	0xbee67681	-0.45012286
2	0x3fd10f8d	1.6332871
3	0xbdca19e2	-0.09868218
4	0xbf869001	-1.0512697
5	0xbf1505c0	-0.582119
6	0x3f5c1fe2	0.8598615
7	0x3fc4b63d	1.5368115
8	0xbf4fb039	-0.8112827
9	0xbfa0a06a	-1.2548954
10	0x3eed2aed	0.46321812
11	0xbfb1d0fb	-1.3891901
12	0x400ce41c	2.2014227
13	0xbf9689ed	-1.1760842
14	0xbf2bb220	-0.6706867
15	0x3e9c7e05	0.30564895

encoder.patch_embed.weight f4 [16, 5]
0	0xbea6e628	-0.3259747
1	0x3f02bc3d	0.5106848
2	0xbe935326	-0.28774375
3	0xbe0bfe8a	-0.13671318
4	0x3bd62cc7	0.0065360996
5	0x3d2b2fc1	0.04179359
6	0x3e704f9f	0.23467873
7	0xbeca7541	-0.39542583
8	0xb991aa52	-0.00027783454
9	0x3e3705c9	0.178733
10	0xbdea8b2d	-0.11452327
11	0x3e96db8c	0.29464376
12	0x3e6ed822	0.23324636
13	0xbf1f63ef	-0.6226186
14	0x3e8d41d1	0.27589276
15	0x3d274515	0.040837366
16	0x3e1e103e	0.15435883
17	0x3df99e48	0.12188393
18	0xbf2176be	-0.6307181
19	0x3e935d35	0.2878205
20	0xbeda37db	-0.4262074
21	0x3c312c07	0.01081372
22	0xbf04625a	-0.5171257
23	0x3ebfbbbc	0.37447917
24	0x3cb20fd3	0.021736061
25	0x3de909b5	0.113788046
26	0xbf16bd71	-0.58882815
27	0x3cacda8e	0.021100309
28	0xbd92a945	-0.07161192
29	0x3e88f832	0.26751858
30	0x3eecd352	0.46254975
31	0x3ec765ce	0.38944858
32	0xbf10872b	-0.5645625
33	0xbf019581	-0.5061875
34	0x3ed12d21	0.40854743
35	0xbe2f7a7d	-0.1713657
36	0x3ead5ccc	0.3385986
37	0x3ed9cc56	0.42538708
38	0xbf11f9f4	-0.57022023
39	0xbf17a597	-0.59237045
40	0xbf034570	-0.5127783
41	0xbf21ded9	-0.63230664
42	0x3e93fd8a	0.28904372
43	0x3e5d49d4	0.21610194
44	0xbecc180d	-0.398621
45	0x3eb50d1d	0.35361567
46	0xbef01520	-0.46891117
47	0x3ed487df	0.4150991
48	0xbe99a897	-0.30011436
49	0x3e98af03	0.29821023
50	0xbeb4f5d8	-0.35343814
51	0x3ee6a528	0.4504788
52	0x3e12b001	0.14324953
53	0x3e29187d	0.16513248
54	0xbd983670	-0.07432258
55	0x3ef20fab	0.4727758
56	0xbea0ce28	-0.31407285
57	0x3e76a78a	0.24087349
58	0x3e549091	0.20758273
59	0xbeebc20d	-0.46046486
60	0x3e0b3ccf	0.13597415
61	0x3cb3a190	0.021927625
62	0x3ea49420	0.3214426
63	0x3f011320	0.5041981
64	0xbeaded83	-0.3397027
65	0xbe675b4d	-0.22593422
66	0x3e403e30	0.18773723
67	0xbeca8022	-0.39550883
68	0x3f11f59d	0.570154
69	0xbf04e2dc	-0.5190866
70	0x3e3dbde0	0.18529463
71	0xbe419079	-0.18902768
72	0xbe058ff4	-0.13043195
73	0x3d7c3957	0.06157812
74	0xbefc64f9	-0.49295786
75	0x3d7fb66d	0.062429834
76	0x3e3288da	0.17435017
77	0xbeb53a91	-0.35396245
78	0x3f1037cd	0.56335145
79	0x3e09e9d1	0.134681

encoder.patch_embed.bias f4 [16]
0	0x3da1a745	0.07893232
1	0x3e52a748	0.20571625
2	0xbb8e57bc	-0.004343955
3	0xbdc02ca4	-0.093835145
4	0x3d7f2c7a	0.062298276
5	0xbde7a3c8	-0.11310536
6	0x3e00a31e	0.12562224
7	0xbd93d5b3	-0.07218494
8	0x3ca316da	0.019908357
9	0x3c6158cb	0.01375408
10	0xbd86f619	-0.06589908
11	0xbd715afe	-0.058924668
12	0xbda88e3f	-0.08230256
13	0xbe18e1cc	-0.14929885
14	0x3df14acc	0.117818445
15	0xbb48154a	-0.0030530267

encoder.blocks.0.norm1.weight f4 [16]
0	0x3f7c7cb0	0.9862776
1	0x3f9f612b	1.2451528
2	0x3f893904	1.0720525
3	0x3f8d6c13	1.1048607
4	0x3f977f13	1.1835655
5	0x3f82dd5b	1.0223802
6	0x3f9008b6	1.1252658
7	0x3f8865d4	1.0656075
8	0x3f827be6	1.0194061
9	0x3f937962	1.1521418
10	0x3f886bd3	1.0657905
11	0x3f8a0e47	1.0785607
12	0x3f8a9f5e	1.0829885
13	0x3f8d0097	1.1015805
14	0x3f6597bb	0.8968465
15	0x3f9349dd	1.1506916

encoder.blocks.0.norm1.bias f4 [16]
0	0xbd81dedd	-0.06341336
1	0xbbe5e896	-0.007016252
2	0xbae59c06	-0.0017517812
3	0x3d45424b	0.048158925
4	0xbd6ae1c7	-0.057344224
5	0xbd036d59	-0.032086704
6	0xbe10e009	-0.14147963
7	0x3d466845	0.048439283
8	0xbdbefde9	-0.09325773
9	0x3cd8f567	0.026484204
10	0xbd3c9670	-0.046041906
11	0x3d308530	0.043095767
12	0xbddd51db	-0.10806628
13	0xbd12a2b0	-0.035799682
14	0x3df6fc92	0.12059893
15	0x3de6ac42	0.11263324

encoder.blocks.0.attn.qkv.weight f4 [48, 16]
0	0xbdba31f6	-0.090915605
1	0xbceb7a27	-0.02874477
2	0xbd81f399	-0.06345291
3	0x3eb41536	0.35172433
4	0x3e10af11	0.14129283
5	0xbe01c338	-0.12672126
6	0xbe5c4ac9	-0.21512903
7	0x3e91aa44	0.28450215
8	0xbeda0200	-0.4257965
9	0x3e4dff7f	0.20116995
10	0x3e399f84	0.18127257
11	0xbcf66444	-0.030077107
12	0x3dd5788d	0.10423384
13	0x3d8507a2	0.064955965
14	0xbd80041f	-0.06250786
15	0x3ea7125d	0.32631198
16	0xbefc92d8	-0.49330783
17	0xbd9a0133	-0.0751976
18	0x3cb697aa	0.022289116
19	0x3d60da96	0.05489596
20	0xbeec9a5e	-0.46211523
21	0x3e8cce6c	0.27501237
22	0xbe571502	-0.21004108
23	0x3ec4ac8b	0.3841289
24	0xbe9d5b84	-0.30733883
25	0xbf046ed1	-0.5173159
26	0xbad2e598	-0.0016090153
27	0x3ddf3400	0.1089859
28	0xbe737095	-0.23773415
29	0x3ea6d9e7	0.3258812
30	0xbdaa44d6	-0.08313911
31	0x3e8b7668	0.27238774
32	0x3d18ce20	0.03730595
33	0x3e5f73b1	0.21821477
34	0x3d985cc3	0.07439568
35	0x3dbc4c00	0.09194183
36	0xbe900d0b	-0.2813495
37	0x3e5225ae	0.20522186
38	0x3e1f6d49	0.15569033
39	0xbe859466	-0.26089782
40	0x3eb82c0a	0.359711
41	0xbe72c0a1	-0.23706295
42	0xbd8c1e4d	-0.06841717
43	0x3e590347	0.21192656
44	0x3e3d6422	0.18495229
45	0xbe8e4f81	-0.27795032
46	0x3d25127a	0.040300824
47	0xbe6a7522	-0.22896245
48	0x3dd34e21	0.10317636
49	0x3df8b262	0.12143399
50	0xbe17f37c	-0.14838976
51	0xbe3360f8	-0.1751746
52	0x3ee90214	0.45509398
53	0xbed8a934	-0.42316592
54	0x3f038491	0.51374155
55	0xbca36ad1	-0.019948395
56	0xbe1df28a	-0.15424553
57	0x3efdb7ca	0.49554282
58	0x3e92a4fa	0.28641492
59	0xbebd798d	-0.37006798
60	0x3eb2c8a0	0.3491869
61	0x3d5b3ac5	0.053522844
62	0x3c97d2f8	0.018533215
63	0xbef560f3	-0.4792553
64	0x3c81ce3b	0.015845409
65	0x3d73adc6	0.059491895
66	0x3ce6223a	0.028092492
67	0xbe8d39bb	-0.27583107
68	0x3e2f8900	0.17142105
69	0x3d200321	0.039065484
70	0xbd956979	-0.07295508
71	0x3d761546	0.06007888
72	0xbe427ec5	-0.18993671
73	0xbe821379	-0.2540548
74	0xbdfc2ec2	-0.12313606
75	0x3e31ae47	0.17351638
76	0xbde216e0	-0.11039519
77	0x3e19267c	0.14956087
78	0x3d547d8a	0.051877536
79	0x3e64a67d	0.22329135
80	0x3e3cf242	0.18451789
81	0x3d8b96a7	0.06815844
82	0xbe6a72fa	-0.22895423
83	0xbe50ab1e	-0.20377776
84	0x3e881dd2	0.2658525
85	0xbe4eda97	-0.20200573
86	0x3e39f679	0.18160428
87	0xbdef2735	-0.116774
88	0xbe8a0a9c	-0.2696122
89	0xbd1c2d88	-0.03812936
90	0xbe3e1b7b	-0.1856517
91	0xbe1dad4e	-0.15398142
92	0x3e216d8a	0.15764442
93	0x3e51334c	0.20429724
94	0x3e0503e9	0.12989773
95	0xbe9a832a	-0.30178195
96	0xbd4583f1	-0.048221532
97	0x3e00b597	0.12569271
98	0x3cedf1cb	0.02904596
99	0xbe518eff	-0.20464705
100	0x3c5d67cd	0.013513518
101	0x3dedfe8c	0.116208166
102	0xbcd26163	-0.025681203
103	0x3e291558	0.16512048
104	0x3e23b66b	0.15987556
105	0x3ec5d0af	0.38635775
106	0xbdf8bf94	-0.12145916
107	0xbe5484cb	-0.20753781
108	0x3ec2afb0	0.38024664
109	0xbd8cf58c	-0.06882772
110	0x3b56e029	0.0032787418
111	0x3e10a083	0.1412373
112	0x3ce2a531	0.02766666
113	0x3d8ee682	0.069775596
114	0xbece49d9	-0.40290716
115	0xbe6bd847	-0.23031722
116	0xbd8ed9d8	-0.06975144
117	0x3c8377d1	0.016048344
118	0x3e6432d6	0.22285017
119	0xbebd5c9f	-0.36984727
120	0xbe02a4f0	-0.12758231
121	0x3efc1275	0.49232832
122	0xbe34a750	-0.1764195
123	0xbaed2c06	-0.0018094785
124	0x3bd5f2e9	0.0065292013
125	0xbdf122f7	-0.11774247
126	0x3d31a35a	0.043368675
127	0xbd991ff1	-0.074767955
128	0x3daec4b3	0.08533611
129	0x3dadf7f7	0.08494561
130	0x3cc8407f	0.024444817
131	0xbea8030d	-0.32814828
132	0xbe3d17f9	-0.18466176
133	0x3dd81255	0.105503716
134	0x3e5a7676	0.21334252
135	0xbd9022ac	-0.07037863
136	0xbe296e28	-0.16545928
137	0xbedc1f70	-0.42992735
138	0x3e975ae6	0.29561538
139	0xbec6dd05	-0.388405
140	0x3e6e3b56	0.23264822
141	0xbe8db8b1	-0.2767997
142	0xbe3cb293	-0.18427496
143	0xbe5ac23b	-0.21363156
144	0xbe1bc9ae	-0.15213653
145	0x3dabfefe	0.08398245
146	0xbeab115f	-0.3341169
147	0xbbd2f2e5	-0.0064376467
148	0x3ea7b6fe	0.327568
149	0xbda2b523	-0.07944705
150	0x3e3dc3a1	0.18531658
151	0xbeb8a279	-0.36061457
152	0x3e204c7e	0.1565418
153	0x3e07a2a5	0.13245638
154	0x3e91fd0e	0.28513378
155	0xbe72c9b2	-0.23709753
156	0x3e4bd6fa	0.19906226
157	0xbe0feed7	-0.14055954
158	0x3ddc281b	0.10749837
159	0xbe97d41b	-0.2965401
160	0x3e78bb4a	0.24290195
161	0xbe8218fd	-0.2540969
162	0x3e8e1832	0.27752835
163	0xbea73196	-0.3265502
164	0xbe2ee493	-0.17079382
165	0x3db2076e	0.08692823
166	0x3c77cee8	0.015125014
167	0xbe839eec	-0.25707185
168	0xbdb83a98	-0.08995551
169	0x3e0a8242	0.13526252
170	0xbe5bf9bc	-0.21481985
171	0xbde53c79	-0.11193175
172	0xbdf481f9	-0.11938853
173	0xbe70b198	-0.23505247
174	0xbe71edff	-0.23625945
175	0xbe93633b	-0.28786644
176	0x3e0b7cb4	0.13621789
177	0xbe462f1c	-0.19353908
178	0x3e14b72e	0.14523003
179	0x3d504234	0.050844386
180	0xbda5cd51	-0.080958016
181	0xbc221eb7	-0.009895018
182	0xbe7a5fda	-0.24450627
183	0x3ea7a02b	0.32739386
184	0x3e16bf3b	0.14721386
185	0xbeac1da1	-0.33616355
186	0x3df8d188	0.1214934
187	0x3e9a72f3	0.30165824
188	0x3d9730d3	0.07382359
189	0x3d799f41	0.060942892
190	0x3e5cde0d	0.2156908
191	0xbe8ab132	-0.27088314
192	0x3ca3ecc8	0.020010367
193	0xbe962722	-0.2932673
194	0xbcfac91f	-0.03061348
195	0x3d918d03	0.07106974
196	0xbe0087f0	-0.12551856
197	0x3e8a097d	0.26960364
198	0x3e866e95	0.26256242
199	0xbd194abb	-0.037424784
200	0x3d8000a8	0.06250125
201	0xbedd46ab	-0.43217978
202	0xbd4c4d19	-0.049878214
203	0x3c9dd83d	0.01926815
204	0x3d4ce4cf	0.050022896
205	0x3e6e1889	0.23251547
206	0xbe2f2365	-0.17103346
207	0x3d63d1cf	0.05562001
208	0x3e1a4858	0.1506666
209	0x3e8652a6	0.2623493
210	0x3cb324ed	0.021868194
211	0xbe0070a5	-0.1254297
212	0x3e4a7979	0.197729
213	0xbebf2999	-0.37336424
214	0x3dc26ff2	0.09494008
215	0x3de669de	0.11250661
216	0x3ed6cf77	0.41955158
217	0x3f0f1bbb	0.5590169
218	0xbe5cb48d	-0.2155325
219	0xbe32f522	-0.17476323
220	0xbe3e511b	-0.18585627
221	0xbe21f42f	-0.15815805
222	0xbe30ae52	-0.17253998
223	0xbd91d58b	-0.07120808
224	0x3e4d21fb	0.20032494
225	0x3e802b71	0.25033143
226	0xbe7c2c3a	-0.24626246
227	0xbef3fe5d	-0.47655
228	0xbc96669f	-0.01835948
229	0xbdfb80ed	-0.1228045
230	0x3ccedf47	0.025252951
231	0xbe9cb4b7	-0.30606624
232	0x3ecf44a0	0.40482044
233	0xbec6a1f9	-0.3879545
234	0x3e822bf9	0.25424173
235	0xbd068f70	-0.032851636
236	0x3ee7d916	0.4528281
237	0xbe2ab9d4	-0.1667245
238	0x3d2dc66f	0.04242557
239	0xbe87cfcf	-0.26525733
240	0xbee7c257	-0.45265457
241	0x3d96bd42	0.07360317
242	0x3e0ffd12	0.14061382
243	0x3eb4bc3f	0.3529987
244	0xbd757409	-0.059925113
245	0xbdc10a98	-0.09425849
246	0xbeb18e46	-0.3467886
247	0x3de33065	0.11093215
248	0xbead3c57	-0.33835098
249	0x3ee8163c	0.45329463
250	0xbef7f219	-0.48426893
251	0x3ed699af	0.41914126
252	0xbefc8c37	-0.49325725
253	0x3e1f4d51	0.15556838
254	0x3dee385b	0.11631843
255	0x3ee4695f	0.44611642

encoder.blocks.0.attn.proj.weight f4 [16, 16]
0	0x3d9a82fa	0.07544513
1	0x3e592a5c	0.21207565
2	0xbeeca697	-0.46220848
3	0xbeab1f13	-0.33422145
4	0xbe8437dc	-0.25823867
5	0xbedbdf13	-0.4294363
6	0x3e8d4836	0.27594155
7	0xbb97b6da	-0.004629952
8	0x3e54bb13	0.20774488
9	0xbcf703b2	-0.03015313
10	0x3c98604c	0.018600605
11	0x3eba4c35	0.36386266
12	0x3eae2588	0.3401301
13	0xbe7f6e7c	-0.2494449
14	0x3ece2c9b	0.40268406
15	0x3ec57848	0.3856833
16	0xbe383cdd	-0.17991967
17	0xbd491e3b	-0.049101096
18	0x3d830c2e	0.063988075
19	0xbec0b7cc	-0.37640226
20	0x394cf6cc	0.00019546895
21	0x3e1a6554	0.15077716
22	0x3eb7016f	0.3574328
23	0x3ae8d189	0.0017762642
24	0x3e2888d2	0.16458443
25	0xbe3a5ffe	-0.1820068
26	0xbb8cada1	-0.004293159
27	0x3e269c56	0.16270575
28	0x3ea3ea09	0.32014492
29	0x3eb417cb	0.35174403
30	0xbdf709f5	-0.12062446
31	0x3d510b4c	0.051036164
32	0xbec1f152	-0.37879425
33	0xbe9dcc30	-0.30819845
34	0xbe903124	-0.2816249
35	0xbe8e28c6	-0.27765483
36	0x3e87d88d	0.26532403
37	0xbe80950e	-0.2511372
38	0x3e1cbbe8	0.15306056
39	0x3d0d7041	0.03453088
40	0x3db89a54	0.09013811
41	0xbcc457dc	-0.023967676
42	0x3e9cfde2	0.30662447
43	0x3e76077f	0.24026297
44	0xbe9f5c00	-0.31124878
45	0x3ec39145	0.3819677
46	0x3e6cc026	0.23120174
47	0xbe976536	-0.29569405
48	0xbe29c466	-0.16578826
49	0x3ec9a42e	0.39383072
50	0x3dffd220	0.1249125
51	0x3cdf82df	0.027284084
52	0xbcf047c1	-0.02933109
53	0x3ed5eb6f	0.41781184
54	0x3c8545c7	0.016268624
55	0x3c884919	0.016636418
56	0xbea1267d	-0.31474677
57	0x3e8aeec4	0.2713529
58	0xbdbd6cd7	-0.09249275
59	0xbe42374a	-0.18966404
60	0xbd09531c	-0.033526525
61	0x3ded3546	0.11582427
62	0x3e9d2f4a	0.3070014
63	0x3e8e0631	0.277391
64	0x3e607639	0.21920098
65	0xbec1a8bf	-0.37824056
66	0xbec84a1c	-0.3911904
67	0xbdf02c06	-0.11727147
68	0xbd972a45	-0.07381109
69	0x3ec8f14e	0.392466
70	0xbe2bcdb4	-0.16777688
71	0x3ed2b8bf	0.41156575
72	0x3dfbb871	0.12291039
73	0x3e7fbb91	0.24973895
74	0xbea80b59	-0.32821158
75	0x3c16709e	0.0091821235
76	0xbe53fca8	-0.2070185
77	0xbe99b896	-0.3002364
78	0xbd810c95	-0.06301228
79	0x3e302977	0.17203318
80	0xbf13f9ad	-0.5780285
81	0xbe49b605	-0.19698341
82	0x3e286af3	0.16447048
83	0x3cf50211	0.029908212
84	0xbde39979	-0.11113257
85	0x3e30a9d7	0.17252289
86	0xbd4cd7dc	-0.050010547
87	0xbd119f5d	-0.03555237
88	0x3e029705	0.12752922
89	0xbea7d09c	-0.32776344
90	0x3eaebaa6	0.34126776
91	0xbe9ef7b2	-0.31048352
92	0xbee336bb	-0.44377694
93	0xbe73982b	-0.23788516
94	0xbe79a5d5	-0.24379666
95	0x3ecd5624	0.40104783
96	0xbdb21554	-0.08695474
97	0xbe2faa4b	-0.17154805
98	0xbd0c67e3	-0.03427876
99	0x3e6c7de9	0.23094906
100	0x3eda2d6a	0.42612773
101	0x3e8b4b33	0.2720581
102	0xbdde67b6	-0.10859625
103	0xbed50038	-0.4160173
104	0x3ef1c607	0.47221395
105	0xbe89f430	-0.26944113
106	0xbeb43861	-0.35199264
107	0xbec4db9a	-0.38448793
108	0xbea3efef	-0.32018992
109	0xbe971c32	-0.295137
110	0x3ee8799d	0.45405284
111	0x3eeee89c	0.46661842
112	0x3eed1495	0.46304765
113	0x3ee817e0	0.45330715
114	0x3d9ad0bb	0.075593434
115	0xbe4035c4	-0.1877051
116	0x3e41cbe8	0.1892544
117	0xbe36cbda	-0.178512
118	0xbc19f5ea	-0.009397009
119	0xbee4c3fc	-0.44680774
120	0x3aa122f8	0.0012293747
121	0x3e8ac77a	0.27105314
122	0xbeff5dfa	-0.49876386
123	0x3ea88fc1	0.32922176
124	0x3e8b1055	0.27160898
125	0xbedd06d7	-0.4316928
126	0xbe1ead0c	-0.154957
127	0x3e608df1	0.21929146
128	0xbe7d5939	-0.24741067
129	0xbee440b2	-0.4458061
130	0xbda7d08b	-0.08194073
131	0xbc46d5b8	-0.012135915
132	0x3e69a138	0.22815406
133	0x3ee834b9	0.45352724
134	0x3e08d8e4	0.13363987
135	0xbde3147e	-0.11087893
136	0xbe9de124	-0.3083583
137	0x3e04f465	0.12983854
138	0x3e20ea76	0.1571444
139	0x3ebad867	0.36493227
140	0x3e1b4f4e	0.15166971
141	0xbdf81bee	-0.12114702
142	0xbe78fdb1	-0.24315526
143	0xbe3c67ab	-0.18398921
144	0x3e062fc8	0.13104165
145	0xbae30f26	-0.001732324
146	0xbef657c0	-0.48113823
147	0xbecd0f96	-0.40050954
148	0xbd8ffadc	-0.070302695
149	0x3e8bed54	0.27329504
150	0x3e1a2257	0.15052162
151	0x3e864d93	0.2623106
152	0x3e8a1ffc	0.26977527
153	0x3ec01bce	0.37521213
154	0xbea9dbe7	-0.33175585
155	0xbdb2fbc6	-0.08739428
156	0x3c776c74	0.015101541
157	0x3de77da4	0.11303261
158	0xbea4f0ab	-0.32214865
159	0x3f159d01	0.58442694
160	0xbefa0eca	-0.48839408
161	0x3e24e966	0.1610466
162	0xbe0da1ad	-0.13831206
163	0x3ee9cff0	0.45666456
164	0xbec43652	-0.38322693
165	0x3e8638cc	0.26215208
166	0x3d4a9b2e	0.049464397
167	0x3ea458c8	0.32098985
168	0xbeadd177	-0.33948871
169	0x3eaf1fde	0.34204
170	0x3ea71ab2	0.32637554
171	0x3ea0c045	0.3139669
172	0xbe375480	-0.17903328
173	0xbd49d202	-0.049272545
174	0xbe317b65	-0.17332228
175	0x3ecc343b	0.398836
176	0x3e2a9dcc	0.16661757
177	0x3edb3850	0.428164
178	0xbe70ce34	-0.2351616
179	0xbe8b97d0	-0.2726426
180	0xbe748494	-0.238787
181	0xbed143a3	-0.40871915
182	0xbecc6485	-0.3992044
183	0x3dc843f8	0.09778589
184	0xbea8d824	-0.32977402
185	0xbedbc5db	-0.4292439
186	0x3dd08e7b	0.10183426
187	0x3e703b9f	0.23460244
188	0x3e8d48e4	0.27594674
189	0xbeb186d2	-0.34673172
190	0x3e304840	0.17215061
191	0xbead7b52	-0.33883148
192	0x3ec4192b	0.38300452
193	0x3e37b71c	0.17940944
194	0x3ecf6ad4	0.4051119
195	0x3ead1872	0.33807713
196	0x3ed1dfc5	0.40991035
197	0x3ec0b45d	0.37637606
198	0xbdb2319d	-0.08700869
199	0xbe3cb876	-0.18429741
200	0xbd9c2f29	-0.076261826
201	0xbe44da96	-0.19224009
202	0x3da9b235	0.082859434
203	0xbecd613a	-0.4011324
204	0x3e2813b6	0.16413769
205	0x3ec96fae	0.39343017
206	0x3eb82beb	0.35971007
207	0xbe973470	-0.29532194
208	0xbdbfe934	-0.09370652
209	0xbef68fd9	-0.48156622
210	0x3d1e6081	0.038666252
211	0x3ecb8a41	0.39753917
212	0xbe73eff3	-0.23822002
213	0x3e158281	0.14600565
214	0x3c68d65b	0.014211263
215	0xbd08c961	-0.033395175
216	0x3edba4b3	0.42899093
217	0x3e46b848	0.19406235
218	0x3dc8f0dd	0.09811566
219	0x3e92182e	0.28534073
220	0x3ad03403	0.0015884641
221	0x3eaf7b83	0.3427392
222	0xbe19e6a8	-0.15029395
223	0x3ed59030	0.4171157
224	0x3eac2eb4	0.33629382
225	0x3da67171	0.08127106
226	0xbd398fc0	-0.045303106
227	0x3df4e627	0.119579606
228	0xbedc4a69	-0.4302552
229	0xbefcbdc6	-0.49363536
230	0x3ef3ba0e	0.47602886
231	0x3f00d0a5	0.50318366
232	0xbe36955f	-0.17830418
233	0x3d82724d	0.063694574
234	0x3e1c8dc3	0.15288453
235	0x3ee5ad6a	0.44858867
236	0xbefdf1dc	-0.49598587
237	0xbe1b841e	-0.15187117
238	0xbe989659	-0.29802206
239	0x3e2f3f51	0.17113997
240	0xbe67d0ad	-0.22638197
241	0xbe355741	-0.17709066
242	0x3e9f42a4	0.3110553
243	0x3e824692	0.25444466
244	0xbebdd62f	-0.37077472
245	0x3daaa8e2	0.08332993
246	0x3ecd4416	0.40091008
247	0x3e96e0b3	0.29468307
248	0x3eb56724	0.35430253
249	0xbd4b9d8a	-0.049710788
250	0x3ed4934d	0.41518632
251	0x3d138988	0.036019832
252	0x3e39a837	0.18130575
253	0xbdb008a1	-0.08595396
254	0x3eb18b19	0.34676436
255	0x3e657735	0.22408755

encoder.blocks.0.attn.proj.bias f4 [16]
0	0x3ce5284b	0.027973315
1	0x3c998152	0.018738423
2	0x3d719ff5	0.058990438
3	0xbc853ed0	-0.016265303
4	0x3d113f20	0.03546059
5	0x3d60d777	0.054892983
6	0xbd578973	-0.052621316
7	0xbd22395b	-0.03960548
8	0xbd1c50ad	-0.038162876
9	0x3c8f08b1	0.0174602
10	0x3d7f3577	0.062306847
11	0x3cdd4964	0.027012534
12	0xbd49ac27	-0.049236443
13	0xbd387d3e	-0.045041315
14	0x3d193ddf	0.03741252
15	0x3cf5aa80	0.029988527

encoder.blocks.0.norm2.weight f4 [16]
0	0x3f88a936	1.0676639
1	0x3f8f04b2	1.1173308
2	0x3f75fd73	0.9608986
3	0x3f6830c0	0.90699387
4	0x3f5ba7ca	0.858029
5	0x3f5fe0e8	0.87452555
6	0x3f76349d	0.9617403
7	0x3f6c65a1	0.92342573
8	0x3f7fc37e	0.9990767
9	0x3f718f5c	0.94359374
10	0x3f713760	0.9422512
11	0x3f81ac9e	1.0130804
12	0x3f78f223	0.9724447
13	0x3f7fba03	0.99893206
14	0x3f6c068f	0.9219751
15	0x3f728c75	0.9474557

encoder.blocks.0.norm2.bias f4 [16]
0	0xbbf01226	-0.007326382
1	0x3c999cf4	0.018751599
2	0xbd1daad7	-0.038493004
3	0x3ce8a783	0.028400188
4	0x3dc8e194	0.098086506
5	0xbd1c5a4c	-0.03817205
6	0x3d4901a7	0.04907384
7	0x3cf0c826	0.029392313
8	0x3d9f0876	0.07765286
9	0x3ccd2595	0.025042335
10	0xbd1c3af2	-0.038142152
11	0xbba77af8	-0.0051110946
12	0x3ce53573	0.027979588
13	0x3c611753	0.013738471
14	0xbd9b3d7a	-0.07580085
15	0xbd2e3551	-0.042531315

encoder.blocks.0.mlp.fc1.weight f4 [64, 16]
0	0xbde951ff	-0.11392593
1	0x3d785512	0.060628004
2	0x3e0858c2	0.13315108
3	0x3d274fdf	0.040847655
4	0xbde21192	-0.110385075
5	0xbda2b93b	-0.07945486
6	0xbe34e8fd	-0.17667003
7	0x3dc42923	0.09578159
8	0x3cff3bfa	0.031156529
9	0x3eb2186e	0.34784263
10	0xbeb104bf	-0.34573933
11	0xbd8cb6d1	-0.06870807
12	0x3e4e79c2	0.20163634
13	0x3e9393c7	0.28823683
14	0xbe51042b	-0.20411746
15	0x3d1d382c	0.038383648
16	0x3d31e217	0.043428507
17	0x3dd431f6	0.10361092
18	0x3e591288	0.21198475
19	0xbd649c2a	-0.055812992
20	0x3e0eb636	0.13936695
21	0x3e2708e3	0.16311984
22	0x3e578c77	0.21049677
23	0x3e46dab9	0.19419374
24	0xbd54dcb1	-0.05196828
25	0x3ca11902	0.019665245
26	0xbc93181c	-0.017955832
27	0xbe767f12	-0.24071911
28	0xbe10d971	-0.14145447
29	0x3daa937f	0.08328914
30	0x3e3ac33e	0.18238541
31	0xbd9b7afd	-0.075918175
32	0x3d3c8695	0.046026785
33	0xbead7f23	-0.3388606
34	0xbdc0c83d	-0.094131924
35	0xbe5a99a2	-0.21347669
36	0x3de43263	0.11142423
37	0xbe173d02	-0.14769366
38	0xbd75abf0	-0.059978426
39	0x3e6df00d	0.23236103
40	0x3ecffa9e	0.40620893
41	0x3d8c308e	0.068451986
42	0x3e22ab8a	0.1588575
43	0x3deda1b3	0.11603107
44	0xbc340359	-0.010987126
45	0x3ca54bc9	0.020177739
46	0xbde14efd	-0.11001394
47	0x3e14a6a1	0.14516689
48	0x3e34ae48	0.17644608
49	0x3ea1d654	0.31608832
50	0x3da2fb17	0.07958048
51	0x3e92d934	0.28681338
52	0x3e363c8e	0.17796537
53	0xbd40ea2f	-0.047098335
54	0xbe2e5c98	-0.17027509
55	0x3e264ab0	0.16239429
56	0xbe53cc72	-0.20683458
57	0xbe976a2b	-0.29573187
58	0xbe83e865	-0.2576324
59	0xbdf653d5	-0.120277084
60	0xbd54590c	-0.051842734
61	0x3db94fe7	0.09048443
62	0x3dfcc686	0.12342553
63	0xbe8e0939	-0.2774141
64	0xbdab50cd	-0.08365021
65	0xbe816e8d	-0.25279656
66	0x3e8efe8d	0.27928582
67	0x3e23772c	0.15963429
68	0xbe4d9e2e	-0.20079872
69	0x3e3be41d	0.18348737
70	0x3dc323ca	0.095283106
71	0xbb333f08	-0.0027350802
72	0xbe266ab2	-0.16251639
73	0x3c292c8e	0.010325564
74	0xbc224a47	-0.009905404
75	0x3e5def74	0.21673375
76	0xbd8f78e5	-0.07005481
77	0xbddb9c71	-0.10723198
78	0x3b67b44b	0.0035355266
79	0x3e7a2870	0.24429488
80	0xbdafeb78	-0.08589834
81	0xbebbd197	-0.36683342
82	0x3e562195	0.20911248
83	0xbcde7c49	-0.027158873
84	0x3dc9627c	0.098332375
85	0x3e791d6f	0.24327634
86	0x3c572e8f	0.013133659
87	0xbe9233bf	-0.28555104
88	0x3ec6864b	0.38774332
89	0xbdfe4d99	-0.12417144
90	0xbe61edee	-0.22063419
91	0xbd972995	-0.07380978
92	0x3d838cc7	0.064233355
93	0xbe9c9d1f	-0.30588624
94	0x3db3937c	0.08768365
95	0x3e93f89a	0.28900605
96	0xbd8ad129	-0.067781754
97	0x3e2c8657	0.16848122
98	0xbe53f0c4	-0.20697314
99	0xbe462adc	-0.19352287
100	0xbc9dd806	-0.019268047
101	0x3dca4fef	0.098785274
102	0xbcae7c81	-0.021299602
103	0x3e473274	0.1945284
104	0x3ea8eb1c	0.32991874
105	0x3d401c51	0.046902005
106	0xbc002389	-0.007820972
107	0x3c9aa1e0	0.018876016
108	0xbe16a75a	-0.14712277
109	0x3e5c02cd	0.21485443
110	0x3d353e96	0.04424914
111	0x3e2ef605	0.17086037
112	0x3b9e2fa7	0.004827458
113	0xbdc0c50a	-0.09412582
114	0x3dbda8ff	0.09260749
115	0x3e13da22	0.1443868
116	0xbb5268e9	-0.0032105988
117	0xbe58099e	-0.21097419
118	0x3dc68c7a	0.096947625
119	0x3e1292cc	0.14313811
120	0xbe5c6bca	-0.21525493
121	0xbcad7842	-0.021175507
122	0xbe4a9ac2	-0.19785598
123	0xbdaf519e	-0.08560489
124	0x3e87aeb8	0.26500487
125	0xbe15333a	-0.14570323
126	0xbe90f6c5	-0.2831327
127	0x3dc9120a	0.09817894
128	0xbe6a7bd9	-0.22898807
129	0x3cd2a17a	0.025711764
130	0xbe1195fc	-0.14217371
131	0xbe25df51	-0.1619847
132	0x3cb93a31	0.022610756
133	0x3da3326c	0.079686016
134	0x3de2facc	0.11082992
135	0x3df5c070	0.11999595
136	0x3dfcdc45	0.123467006
137	0x3d2a71cc	0.04161243
138	0x3dab9729	0.08378441
139	0xbde18ce9	-0.110132046
140	0x3e1dbee0	0.15404844
141	0x3e963c34	0.29342806
142	0xbe0bbba5	-0.136458
143	0xbd5dfada	-0.05419431
144	0xbe26269f	-0.1622567
145	0x3e56b99b	0.2096924
146	0xbc8fc31d	-0.017549092
147	0xbe81d54f	-0.25358054
148	0x3c427061	0.0118676135
149	0xbdb9eb72	-0.09078111
150	0x3e9386e4	0.2881385
151	0x3e29314b	0.1652271
152	0xbe5f4774	-0.21804601
153	0xbcc89786	-0.024486315
154	0xbe5f0f80	-0.21783257
155	0xbc99464e	-0.018710282
156	0x3ead2846	0.3381979
157	0x3d87e560	0.06635547
158	0xbe6e0a70	-0.23246169
159	0xbb7445a7	-0.0037272961
160	0xbe4e3ae3	-0.20139651
161	0xbe3c1c7d	-0.18370242
162	0x3d49adf8	0.049238175
163	0x3e45e337	0.19324957
164	0xbe291956	-0.16513571
165	0xbe0ec84e	-0.13943598
166	0x3e885d7e	0.2663383
167	0x3de0306e	0.10946737
168	0xbe14844c	-0.14503592
169	0xbe0bc2b2	-0.13648489
170	0x3e2befcc	0.16790694
171	0x3e4dfd94	0.20116264
172	0x3e754455	0.23951848
173	0xbdc35534	-0.095377356
174	0xbe893666	-0.26799315
175	0x3e12edd6	0.1434854
176	0x3e219bfc	0.1578216
177	0xbe2f3945	-0.1711169
178	0x3e5a78df	0.21335171
179	0xbe70a447	-0.23500167
180	0x3df8465e	0.121227965
181	0xba546eae	-0.0008103651
182	0x3e981099	0.29700163
183	0xbe19be64	-0.15014035
184	0x3e4dad4c	0.20085639
185	0x3e6532eb	0.22382705
186	0x3dfd973f	0.123823635
187	0xbc899ba6	-0.016797852
188	0x3e5e96b1	0.21737172
189	0x3e1d38a6	0.15353641
190	0x3e8dc2f4	0.276878
191	0x3dd23efe	0.10265921
192	0x3e2b253a	0.1671342
193	0xbd7287f7	-0.059211697
194	0xbe696afc	-0.22794718
195	0xbe3b15d6	-0.18270048
196	0xbdfc1645	-0.12308935
197	0x3dd619f6	0.104541704
198	0x3e6ca16c	0.23108453
199	0x3db069fd	0.08613966
200	0xbe206382	-0.15662959
201	0xbdbc37d2	-0.091903344
202	0xbe043e2b	-0.1291434
203	0xbe3e3b08	-0.18577206
204	0x3cf71497	0.030161185
205	0xbe4828b0	-0.19546771
206	0x3e68357a	0.2267665
207	0xbe1c663d	-0.15273376
208	0xbe931382	-0.2872582
209	0xbe8d04ab	-0.27542624
210	0xbe63c4ca	-0.22243038
211	0xbdcddb96	-0.10051648
212	0xbcd29e9a	-0.025710393
213	0x3df18332	0.11792602
214	0x3e0b92ec	0.13630265
215	0x3e4be1c5	0.19910343
216	0x3e2d918b	0.16950051
217	0xbe1c32eb	-0.15253799
218	0xbdefe8f9	-0.11714358
219	0x3d86cf00	0.06582451
220	0xbda435be	-0.08018063
221	0x3e1c287d	0.1524982
222	0xbc91d803	-0.017803198
223	0x3e882cb6	0.26596612
224	0xbe52c2a3	-0.2058206
225	0xbddacf6a	-0.10684092
226	0xbea9813a	-0.33106405
227	0xbd06fc1b	-0.03295527
228	0x3e9c9f18	0.3059013
229	0xbd0ea525	-0.034825463
230	0x3e4e1f84	0.2012921
231	0xbeafb2cd	-0.34316102
232	0xbe6f9b1f	-0.23399018
233	0x3e497a95	0.19675668
234	0x3c0d5c55	0.008627971
235	0xbed604cd	-0.41800538
236	0x3e60e7ee	0.21963474
237	0xbe8795ab	-0.26481375
238	0x3dc10c16	0.09426133
239	0xbc9ca0c9	-0.019119637
240	0x3db959f4	0.0905036
241	0x3cf53ffe	0.02993774
242	0xbe71624b	-0.23572652
243	0x3dcd25dd	0.100169875
244	0xbe009b5b	-0.12559263
245	0x3e06f9bd	0.13181205
246	0x3de2cf10	0.1107465
247	0xbca6696f	-0.020313947
248	0xbdec6c71	-0.11544121
249	0xbd3da764	-0.046302214
250	0xbdcef274	-0.10104838
251	0x3e5edd8f	0.21764205
252	0xbd31a57d	-0.043370713
253	0x3ea50ee5	0.32237926
254	0xbe835692	-0.25651985
255	0x3deb1be5	0.1147993

encoder.blocks.0.mlp.fc1.bias f4 [64]
0	0x3c8c8afc	0.017156117
1	0xbd8328a2	-0.064042345
2	0xbaef9ffe	-0.0018281934
3	0xbce73bc5	-0.028226743
4	0x3c54ce88	0.012988694
5	0x3b52e207	0.003217818
6	0xbc385943	-0.01125175
7	0xbd6c4130	-0.057679355
8	0xbc8a001b	-0.016845753
9	0xbda57dbb	-0.08080622
10	0x3ac5b35c	0.001508336
11	0xbccfeb0d	-0.025380636
12	0xbd3071ad	-0.04307716
13	0x3cb3aea9	0.02193387
14	0xbd19c4ca	-0.03754119
15	0x3caca43f	0.021074412
16	0xbd0e618f	-0.034761008
17	0xbcd4a507	-0.025957597
18	0xbcab40f8	-0.020905003
19	0xbcfc5346	-0.030801427
20	0xbd86b2b0	-0.06577051
21	0xbd6ef7ba	-0.05834172
22	0xba1f78b3	-0.0006083354
23	0xbd1959dd	-0.037439216
24	0xbdcb8cd1	-0.09938968
25	0xbcba65b4	-0.022753574
26	0xbb94251f	-0.0045210267
27	0xbd0bfaff	-0.034174915
28	0xbcd4331e	-0.02590328
29	0x3d1cdcfe	0.038296692
30	0x3d92f2c5	0.07175211
31	0x3be33826	0.0069341836
32	0xbc1963bf	-0.00936216
33	0xbdadf416	-0.08493821
34	0xbdac382e	-0.08409153
35	0x3c07fc01	0.0082998285
36	0xbc86e2bf	-0.016465543
37	0x3cd835cc	0.02639284
38	0xbde406d6	-0.11134116
39	0x3c349fb9	0.011024409
40	0xbb9f2142	-0.0048562596
41	0xbba50c7f	-0.00503689
42	0xbd6ef5d2	-0.0583399
43	0xbd1d0c20	-0.03834164
44	0x3bc97afc	0.006148694
45	0x3d5f9425	0.05458464
46	0x3ca80ef9	0.020514952
47	0xbd840708	-0.064466536
48	0xbd04ccfd	-0.032422055
49	0x3dd1bdb9	0.10241265
50	0xbdaa585e	-0.08317636
51	0xbd718925	-0.05896868
52	0x3c41a5e3	0.011819336
53	0x390300f7	0.00012493493
54	0xbd912740	-0.070875645
55	0x3c7683fe	0.015046118
56	0x383c6457	4.491614e-05
57	0x3bbd01bb	0.0057680286
58	0xbd468e52	-0.04847557
59	0xbc01ed0f	-0.007930054
60	0x3c977550	0.018488556
61	0xbd186bec	-0.037212297
62	0xbd118874	-0.035530522
63	0xbd3e9242	-0.0465262

encoder.blocks.0.mlp.fc2.weight f4 [16, 64]
0	0x3e726ee3	0.23675112
1	0x3b973070	0.0046139285
2	0x3e99c0b3	0.3002983
3	0x3d66f646	0.05638721
4	0x3e603cde	0.21898219
5	0xbd60a37f	-0.054843422
6	0xbd307f9d	-0.04309045
7	0xbd35ffaa	-0.044433273
8	0x3e317477	0.17329584
9	0xbe1c3e8b	-0.15258233
10	0x3d94b271	0.072605975
11	0x3e0143b1	0.12623478
12	0xbe87c924	-0.26520646
13	0xbb34c5fc	-0.0027583828
14	0xbc542f6d	-0.01295076
15	0x3ce0bee5	0.027434776
16	0x3de9f795	0.11424176
17	0xbe005b31	-0.12534787
18	0x3e0354a6	0.1282526
19	0x3e7babfb	0.24577324
20	0x3e6e3276	0.23261437
21	0x3dbd951b	0.09256955
22	0x3dc9aa46	0.0984693
23	0x3e5d6a94	0.21622688
24	0x3e700ff0	0.2344358
25	0x3dad8d50	0.08474219
26	0x3d8916b3	0.06693783
27	0xbe3dc240	-0.18531132
28	0x3c02cb55	0.007983048
29	0x3e3204e1	0.17384674
30	0x3d2d842e	0.042362384
31	0x3e42e990	0.1903441
32	0xbbc30794	-0.005951831
33	0xbdeb7ce4	-0.1149843
34	0x3e965c02	0.2936707
35	0x3e37ef3c	0.17962354
36	0xbe9525b6	-0.29130334
37	0x3e9a314c	0.30115736
38	0xbe1c154c	-0.15242499
39	0x3e6efe9c	0.23339313
40	0x3e1e779d	0.15475316
41	0x3e1fd4b9	0.15608491
42	0x3e7ccc6d	0.24687357
43	0xbe9a49fe	-0.30134577
44	0x3e1af512	0.1513255
45	0xbe21d3cc	-0.1580345
46	0xbcda4e4d	-0.026648665
47	0xbdd47b79	-0.10375113
48	0xbe18aee9	-0.14910473
49	0x3dbb0953	0.09132638
50	0xbe572205	-0.21009071
51	0xbda7ce35	-0.08193628
52	0x3dc4d45d	0.096108176
53	0x3e366ad1	0.17814185
54	0xbe13972e	-0.14413139
55	0x3db1c585	0.08680252
56	0xbe1204fc	-0.14259714
57	0x3e0e8e78	0.13921535
58	0xbcb16850	-0.021656185
59	0xbe1dab81	-0.15397455
60	0x3da8cb73	0.0824193
61	0x3e298809	0.165558
62	0x3dc6a13d	0.096987225
63	0xbdc67448	-0.09690148
64	0xbd08b5c4	-0.03337647
65	0xbd914382	-0.07092954
66	0xbd82006e	-0.06347738
67	0x3e30e1b7	0.17273603
68	0x3e81af37	0.2532899
69	0xbc5728c0	-0.013132274
70	0xbded5bf0	-0.11589801
71	0xbcea46ca	-0.028598208
72	0xbdefb03a	-0.117035344
73	0x3cea3531	0.028589817
74	0xbe273713	-0.16329603
75	0xbd36c769	-0.044623766
76	0x3dc26c2b	0.09493288
77	0x3e194069	0.14965977
78	0xbdd8369a	-0.105572894
79	0xbc3a4cdd	-0.011370865
80	0xbe104359	-0.14088191
81	0x3dd3a5bd	0.103343464
82	0xbe7c30ab	-0.2462794
83	0xbcb066ff	-0.021533487
84	0x3e86bb1a	0.26314622
85	0x3d9cd6d3	0.07658162
86	0xbb022305	-0.00198573
87	0xbdac86ef	-0.08424174
88	0x3e746c9a	0.23869553
89	0x3e34f2b0	0.17670703
90	0x3e9074b6	0.28214043
91	0xbe116722	-0.14199498
92	0x3e9a8105	0.3017656
93	0xbdaf1965	-0.085497655
94	0xbd063f74	-0.032775357
95	0x3cf50f20	0.029914439
96	0xbe90e930	-0.28302908
97	0x3dc64b5c	0.096823424
98	0x3e4544ad	0.19264479
99	0xbdf14a06	-0.11781697
100	0xbe2034b2	-0.15645102
101	0x3e310398	0.17286527
102	0xbe03e526	-0.12880382
103	0x3e10284a	0.14077869
104	0xbde3e79a	-0.11128159
105	0x3cd11f1f	0.025527535
106	0xbe320d35	-0.1738785
107	0x3dba7cc4	0.091058284
108	0xbc54b9ac	-0.012983721
109	0xbd36fbb1	-0.044673625
110	0xbe1a608f	-0.15075897
111	0x3e25f931	0.1620834
112	0xbe53402d	-0.2062995
113	0xbe4302d4	-0.19044048
114	0x3e3bcad5	0.18339093
115	0x3c6ae551	0.0143369
116	0x3e783902	0.24240497
117	0xbd4d1037	-0.05006429
118	0x3e6c70bb	0.23089878
119	0x3e1fd980	0.15610313
120	0x3e665f2a	0.2249724
121	0x3e0e09b6	0.13870892
122	0x3ca515bf	0.02015197
123	0x3ea6aaf5	0.32552305
124	0x3e3f3b9b	0.18675081
125	0xbe104888	-0.14090168
126	0x3d4ad1f6	0.04951664
127	0xbe204fdb	-0.15655462
128	0xbe7ee704	-0.24892813
129	0xbdef30f7	-0.11679261
130	0x3d3e7fc5	0.04650857
131	0xbbbbd2a0	-0.0057318956
132	0xbdce58ab	-0.10075506
133	0xbe7bfa79	-0.24607266
134	0x3e9a7fa6	0.30175513
135	0x3d8c936f	0.06864058
136	0xbe0c24a0	-0.13685846
137	0xbd8c4c5f	-0.06850504
138	0xbe6416b5	-0.22274287
139	0xbe12b5d1	-0.1432717
140	0xbe3c224a	-0.18372455
141	0x3db3c301	0.087774284
142	0xbe40536e	-0.18781826
143	0x3dc2d1e8	0.09512693
144	0xbe829974	-0.255077
145	0xbe088f33	-0.13335876
146	0xbe9c9734	-0.3058411
147	0x3ea63c96	0.32468098
148	0x3e0633e0	0.13105726
149	0x3c904cd7	0.017614765
150	0x3ec4ae2f	0.38414142
151	0xbdb7a361	-0.08966709
152	0xbe6474b7	-0.22310148
153	0xbea7b471	-0.32754853
154	0xbe12956f	-0.14314817
155	0xbd17340e	-0.036914878
156	0x3ea7683d	0.32696715
157	0xbe048e36	-0.12944874
158	0xbeabba6b	-0.33540663
159	0xbd2c681e	-0.04209148
160	0xbb6e0c11	-0.003632311
161	0x3cd4ea2f	0.025990574
162	0xbe62dc58	-0.22154367
163	0xbe7f9c79	-0.24962033
164	0x3d36761b	0.044546228
165	0x3e9cf1d6	0.30653256
166	0xbea68520	-0.3252344
167	0xbe007176	-0.12543282
168	0xbdb57772	-0.08860673
169	0x3cd2fbf2	0.025754903
170	0x3e05162a	0.12996736
171	0x3e9316d1	0.28728345
172	0x3db7785a	0.08958502
173	0x3e96e446	0.29471034
174	0x3e8551d6	0.26038998
175	0xbced2682	-0.028949026
176	0x3dd8a67d	0.1057863
177	0x3d3ca979	0.04606006
178	0xbe3886de	-0.18020198
179	0x3d845cd4	0.06463018
180	0x3d2dc654	0.04242547
181	0x3ccbacd7	0.02486269
182	0xbe608a26	-0.219277
183	0x3de6cb63	0.11269262
184	0x3e1b7214	0.15180236
185	0xbe282cd0	-0.16423345
186	0xbdcea94d	-0.10090885
187	0x3dd3ea01	0.10347367
188	0x3d4fe9f0	0.05076021
189	0xbe02113c	-0.12701887
190	0xbe90419b	-0.28175053
191	0x3e79143f	0.2432413
192	0xbd86bcb4	-0.06578961
193	0x3e4d02e9	0.20020641
194	0xbe11f8af	-0.14255022
195	0x3e8bb3b5	0.27285543
196	0x3aafd445	0.0013414702
197	0xbe7d2ed1	-0.2472489
198	0xbd3b8272	-0.0457787
199	0xbdcf8825	-0.101333894
200	0x3e1f865b	0.15578596
201	0xbe2b051e	-0.16701171
202	0xbd9ce4a5	-0.07660798
203	0x3b9569d1	0.0045597334
204	0x3e3fd877	0.18734919
205	0xbda125f1	-0.07868565
206	0xbd071338	-0.032977313
207	0xbe9d2bec	-0.30697572
208	0x3e2ee037	0.17077719
209	0xbd8a48dc	-0.06752178
210	0xbe132062	-0.14367822
211	0x3dfd2d18	0.123621166
212	0x3e4b4394	0.19849998
213	0x3b05c00f	0.0020408665
214	0x3e49a3ed	0.19691439
215	0xbe1e174c	-0.15438575
216	0xbe4a6aea	-0.19767347
217	0xbe019f51	-0.1265843
218	0xbe8e10d7	-0.27747223
219	0xbe3fef05	-0.18743522
220	0x3d6893f6	0.05678173
221	0x3eabaa84	0.3352853
222	0xbc3e91e6	-0.011631465
223	0x3e674132	0.22583464
224	0x3e0e7bf8	0.13914478
225	0xbe8cc0d6	-0.27490872
226	0x3e08c7a3	0.13357405
227	0x3d840848	0.06446892
228	0x3d8b53c0	0.068030834
229	0xbd55002a	-0.05200211
230	0x3df8b1e7	0.12143307
231	0xbe4f22ad	-0.20228072
232	0x3dd52528	0.104074776
233	0xbe040037	-0.12890707
234	0xbde83dae	-0.113398895
235	0x3e58a1eb	0.21155517
236	0xbe4304cd	-0.190448
237	0xbe778011	-0.24169947
238	0x3e9b7fe4	0.3037101
239	0x3d7acd8a	0.061231174
240	0x3eb88625	0.36039844
241	0x3e5a0596	0.21291193
242	0x3e6dd451	0.23225524
243	0x3e47b775	0.19503577
244	0x3eafb423	0.3431712
245	0x3eaa46d1	0.33257154
246	0xbd2224f1	-0.03958601
247	0x3dc7ef41	0.09762431
248	0xbe50f340	-0.20405293
249	0x3de350ef	0.11099421
250	0x3e559c3f	0.20860384
251	0x3d59b250	0.053148568
252	0xbe50cd0c	-0.20390719
253	0xbe3b0e75	-0.18267234
254	0xbe59b238	-0.21259391
255	0xbe86b50a	-0.26309997

encoder.blocks.0.mlp.fc2.bias f4 [16]
0	0x3d067767	0.032828715
1	0xbb538bea	-0.003227944
2	0x3d51bfc0	0.051208258
3	0xbb6c2e67	-0.00360384
4	0x3ce480d2	0.027893458
5	0x3d55927d	0.052141655
6	0xbcc7d694	-0.024394311
7	0xbd28e6f6	-0.041235887
8	0xbd08e145	-0.03341796
9	0xbc17bb50	-0.009260967
10	0x3d6dd927	0.05806842
11	0x3c87a959	0.016560243
12	0xbd09a14e	-0.033601098
13	0xbd535234	-0.051592067
14	0x3ce5be35	0.0280448
15	0x3c9a9a95	0.018872539

encoder.blocks.1.norm1.weight f4 [16]
0	0x3f721680	0.9456558
1	0x3f8192ca	1.0122921
2	0x3f7e9a4d	0.99454194
3	0x3f73e9a3	0.95278376
4	0x3f7e7915	0.99403507
5	0x3f92643c	1.1436839
6	0x3f91a5c0	1.1378708
7	0x3f6fcf4b	0.9367568
8	0x3f96ee9c	1.1791568
9	0x3f919ddf	1.1376303
10	0x3f774a35	0.96597606
11	0x3f883c69	1.0643436
12	0x3f8616d0	1.0475712
13	0x3f7dbb73	0.9911415
14	0x3f839cdb	1.0282243
15	0x3f78b381	0.971489

encoder.blocks.1.norm1.bias f4 [16]
0	0x3bea736b	0.007154872
1	0x3c808d29	0.01569231
2	0x3d5c01d3	0.053712677
3	0xbd0dfda1	-0.034665707
4	0x3ca113b6	0.01966272
5	0x3e02defd	0.12780376
6	0xbd27bfa3	-0.040954243
7	0xbd2f46cc	-0.042792127
8	0xbd2b55c2	-0.041829832
9	0xbc40517b	-0.011738176
10	0xbbfa0006	-0.0076293973
11	0x3d209edc	0.039214
12	0xbd64261a	-0.0557004
13	0xbd14dc6d	-0.036343027
14	0x3d907c43	0.07054951
15	0x3d340db3	0.043958377

encoder.blocks.1.attn.qkv.weight f4 [48, 16]
0	0x3eaaf32d	0.33388653
1	0xbe824d6d	-0.25449696
2	0xbce8cebe	-0.028418895
3	0xbe80a294	-0.25124037
4	0x3e4e3970	0.20139098
5	0xbe8b3a4e	-0.2719292
6	0xbc05d5fe	-0.0081686955
7	0x3d9879be	0.074450955
8	0x3e14b2f2	0.14521387
9	0xbd864e33	-0.06557884
10	0x3ea60688	0.32426858
11	0x3cc0cd42	0.023535375
12	0x3d9274e8	0.07151204
13	0xbd5dc57b	-0.05414341
14	0x3d1959a6	0.03743901
15	0xbe5e21da	-0.21692601
16	0xbe793afa	-0.24338904
17	0x3d2f48a3	0.04279388
18	0x3e8665db	0.26249585
19	0x3e851dd5	0.25999323
20	0x3d1c4eba	0.038161017
21	0xbd2d015d	-0.04223763
22	0x3de0cb74	0.109763056
23	0xbe280ca1	-0.16411068
24	0xbe7462ee	-0.23865864
25	0xbe8004d7	-0.25003693
26	0xbe60394e	-0.2189686
27	0xbdcc5b27	-0.099783234
28	0xbd720b4e	-0.059092812
29	0x3e1a8b53	0.1509221
30	0x3e64b27f	0.22333716
31	0x3e1f55c2	0.15560058
32	0xbe63487b	-0.22195618
33	0x3e180602	0.14846042
34	0x3e72a687	0.23696338
35	0x3e30dda9	0.17272057
36	0x3c8b2b54	0.016988434
37	0x3e5515ab	0.20809047
38	0xbe0417f0	-0.12899756
39	0xbdab8304	-0.083745986
40	0xbe4ef439	-0.20210351
41	0xbe1fec23	-0.15617423
42	0x3e737a58	0.23777139
43	0xbe7a6a05	-0.24454506
44	0x3deaae65	0.11459044
45	0xbe82f2d5	-0.2557589
46	0xbdf77d91	-0.12084497
47	0x3e196dbb	0.14983265
48	0xbe4872a4	-0.19574982
49	0xbd8327e2	-0.064040914
50	0x3ea5b003	0.3236085
51	0x3dc994dd	0.098428465
52	0x3cbb36db	0.022853306
53	0xbe2321cb	-0.1593086
54	0x3e38e3d6	0.18055663
55	0xbd0acc52	-0.03388626
56	0x3e6772de	0.22602412
57	0xbe929330	-0.2862792
58	0xbd8765a7	-0.066111855
59	0xbe47848a	-0.19484153
60	0xbe6dbee6	-0.23217353
61	0xbdf0744b	-0.11740931
62	0x3e4f0975	0.20218451
63	0x3c4791b3	0.0121807335
64	0x3e46c727	0.19411908
65	0x3cf52872	0.029926512
66	0x3e61fb69	0.22068562
67	0xbe61c5d3	-0.2204812
68	0x3c931b0a	0.01795723
69	0xbe3e7bfb	-0.18601982
70	0x3e78cc64	0.24296719
71	0xbdd51fbe	-0.10406445
72	0xbe42d581	-0.19026758
73	0x3cd46370	0.025926322
74	0x3e2cfd6e	0.16893551
75	0x3e03e8b1	0.12881733
76	0x3e78751a	0.2426342
77	0x3e83a57f	0.257122
78	0x3dd93c4a	0.10607202
79	0xbdbd182a	-0.092331246
80	0x3e69a1e8	0.22815669
81	0xbef3edc2	-0.47642332
82	0xbec8c69f	-0.39214036
83	0x3da38b29	0.07985527
84	0x3e5847ac	0.2112109
85	0xbe3b9aa7	-0.18320714
86	0x3d354a10	0.044260085
87	0x3ee3fa77	0.44527027
88	0x3e74adac	0.23894376
89	0xbeab0a5c	-0.3340634
90	0xbd826edf	-0.06368803
91	0xbeb9ebe5	-0.36312786
92	0x3e6bb98b	0.23019998
93	0x3d470128	0.048585087
94	0xbed86bf6	-0.42269868
95	0xbe3d9169	-0.18512501
96	0x3eba487d	0.3638343
97	0x3dc5ff27	0.09667807
98	0xbe4e96c9	-0.20174707
99	0xbbf44b4d	-0.0074552656
100	0x3c392faf	0.011302873
101	0xbdb8543e	-0.09000443
102	0x3edf7915	0.43647066
103	0x3ce99b6a	0.02851649
104	0x3ea0dcb4	0.31418383
105	0xbd41a1d9	-0.04727349
106	0xbe96dc55	-0.29464975
107	0x3c85551c	0.016275935
108	0x3edaf29b	0.42763218
109	0x3e1d5d05	0.15367515
110	0xbeaa04c3	-0.33206758
111	0xbea60470	-0.3242526
112	0x3e59387c	0.21212953
113	0xbc146b26	-0.009058749
114	0x3e93418e	0.28760952
115	0x3e0ca3a1	0.13734294
116	0xbe024e16	-0.127251
117	0xbe60fd74	-0.21971685
118	0xbdef956e	-0.11698423
119	0x3c179459	0.009251677
120	0x3e1f0932	0.15530851
121	0x3cbb2d98	0.02284889
122	0x3e85f3c5	0.26162544
123	0xbe1d022a	-0.15332857
124	0x3e218bb3	0.15775947
125	0xbe7f311e	-0.2492108
126	0xbe0e56ac	-0.1390025
127	0xbd9a5c90	-0.07537186
128	0xbe66be1e	-0.22533461
129	0x3dbf64bc	0.093453854
130	0xbd169503	-0.036763202
131	0x3d15c126	0.036561154
132	0xbeb19c87	-0.34689733
133	0xbe6133af	-0.21992372
134	0xbe9cb837	-0.30609295
135	0x3e98e641	0.2986317
136	0xbcb87da9	-0.022520857
137	0xbd4ff30b	-0.050768893
138	0x3e3235d6	0.1740335
139	0x3e4382b1	0.19092824
140	0xbde877f0	-0.11351001
141	0xbca82169	-0.020523744
142	0x3c9fad02	0.019491676
143	0xbd9e340e	-0.077247724
144	0xbddb1e4d	-0.10699139
145	0x3e26c117	0.16284595
146	0xbe342fc1	-0.17596342
147	0x3da809d8	0.082050025
148	0x3e4b589d	0.19858022
149	0x3e8a52e3	0.27016363
150	0x3e431168	0.19049609
151	0xbd96f01b	-0.07370015
152	0xbe2c976e	-0.16854641
153	0xbcbc2980	-0.022969007
154	0xbe54077c	-0.2070598
155	0x3dbc4bf6	0.09194176
156	0x3b6237dd	0.003451816
157	0xbe8ace37	-0.27110454
158	0x3cb307db	0.021854332
159	0x3db5c1e8	0.08874875
160	0x3c828cd0	0.015936285
161	0x3db11f5f	0.08648562
162	0x3ddf7bba	0.10912271
163	0x3cd1e17e	0.025620218
164	0x3eb0011b	0.34375843
165	0xbeb24cf3	-0.34824333
166	0x3e108eac	0.14116925
167	0xbeb5f42e	-0.35537857
168	0x3e955d18	0.29172587
169	0x3e1b70a5	0.15179689
170	0xbd2e38fb	-0.04253481
171	0x3bd36b9c	0.006452037
172	0x3dd6d711	0.104902394
173	0x3e85d605	0.26139846
174	0xbe975c6e	-0.29562706
175	0xbd8350ca	-0.06411894
176	0xbe7f3fba	-0.24926654
177	0xbdaa3143	-0.08310177
178	0xbdf0c870	-0.117569804
179	0xbe0cf723	-0.1376615
180	0x3e9282b3	0.2861534
181	0x3e4a6f76	0.19769081
182	0x3e4fa774	0.20278722
183	0xbc59d610	-0.013295665
184	0x3e81ccb4	0.2535149
185	0xbeacfb50	-0.33785486
186	0xbe1c628f	-0.15271972
187	0xbe749347	-0.23884307
188	0x3e4f1e80	0.20226479
189	0xbe821fc0	-0.25414848
190	0xbd7ef462	-0.06224478
191	0xbe720012	-0.2363284
192	0x3ba1c121	0.004936353
193	0xbc675b7e	-0.0141209345
194	0x3e16374e	0.14669535
195	0xbe371e04	-0.17882544
196	0x3e4b436b	0.19849937
197	0x3e55e053	0.20886354
198	0x3e922004	0.2854005
199	0x3cf021e0	0.029313028
200	0xbe45bd34	-0.19310457
201	0xbe5cbcca	-0.21556392
202	0xbe49c47f	-0.19703864
203	0xbe5f57ab	-0.21810786
204	0x3e644fde	0.22296092
205	0xbe74d064	-0.2390762
206	0x3e705eda	0.23473683
207	0x3e942176	0.2893178
208	0xbe747149	-0.2387134
209	0xbe2c533b	-0.16828625
210	0xbe3b1fd7	-0.18273865
211	0x3e4069cb	0.18790357
212	0xbd1d8dea	-0.038465418
213	0xbdc4cb28	-0.096090615
214	0x3e3c7998	0.1840576
215	0x3e274ba6	0.16337451
216	0x3d33f546	0.043935083
217	0xbe280db0	-0.16411471
218	0xbdb37c8d	-0.087639906
219	0xbe1a0533	-0.15041046
220	0x3e0cd2f6	0.1375235
221	0x3da28e4c	0.07937297
222	0xbe961d59	-0.29319265
223	0x3ec85170	0.39124632
224	0x3bd509b1	0.0065013994
225	0xbdca36d5	-0.0987374
226	0x3e9f406e	0.31103843
227	0xbea58ae1	-0.3233252
228	0xbc88f14a	-0.016716618
229	0x3e189a95	0.14902718
230	0xbdeb4d45	-0.11489347
231	0x3d59ecb0	0.05320424
232	0xbeaf8dce	-0.34287876
233	0x3dc7e4ac	0.097604126
234	0xbe48102b	-0.19537418
235	0x3e74f964	0.2392326
236	0xbddfc4b5	-0.10926191
237	0x3d214642	0.039373644
238	0x3e912ddb	0.28355297
239	0xbe435f31	-0.19079281
240	0x3e2dc5e0	0.16970015
241	0x3c837ec5	0.01605166
242	0xbe853c6d	-0.26022664
243	0xb9d1b642	-0.0003999938
244	0xbd82d2b0	-0.06387842
245	0xbe1db172	-0.15399721
246	0x3ec0f170	0.37684202
247	0x3e109871	0.14120652
248	0xbec8b490	-0.39200258
249	0x3f35143b	0.70733994
250	0xbe5283fa	-0.20558158
251	0x3e0fca25	0.14041956
252	0xbdb49c6c	-0.088188976
253	0x3eb97cd2	0.36228043
254	0xbeb8b06e	-0.36072105
255	0xbd76578a	-0.060142078

encoder.blocks.1.attn.proj.weight f4 [16, 16]
0	0x3d5c9efd	0.05386256
1	0xbe874417	-0.26419136
2	0xbeae6fb5	-0.340696
3	0xbe2b7fb9	-0.16747941
4	0xbec39d79	-0.3820608
5	0xbe8c6013	-0.2741705
6	0x3ec42597	0.3830993
7	0xbebed2be	-0.3727016
8	0x3e2dddf8	0.16979206
9	0x3e74163b	0.23836605
10	0x3ee6ce0f	0.45079085
11	0xbd1d3381	-0.038379196
12	0x3e290d2c	0.16508931
13	0x3eb050b3	0.3443657
14	0x3e679646	0.22615919
15	0x3e2ec6ef	0.17068075
16	0x3e3950b9	0.180972
17	0x3de8ff6f	0.11376845
18	0x3ccba23f	0.024857638
19	0xbe294001	-0.16528322
20	0x3e42e8e7	0.19034158
21	0xbe7a96c0	-0.24471569
22	0x3e39eb7a	0.18156233
23	0x3e2b9355	0.16755421
24	0x3e8cad75	0.27476087
25	0xbdcf3492	-0.10117449
26	0xbe866214	-0.26246703
27	0xbeb7ac50	-0.35873652
28	0xbe976993	-0.29572734
29	0x3e98f2b5	0.2987267
30	0xbd438be7	-0.047740843
31	0xbecd8645	-0.40141502
32	0xbeab4b35	-0.33455816
33	0xbe5e6f7e	-0.21722218
34	0xbee1c163	-0.44092855
35	0x3e3cacf6	0.18425354
36	0xbe0042d7	-0.12525497
37	0x3e75a4a8	0.23988593
38	0xbe4ba4fa	-0.19887152
39	0xbdd835db	-0.10557147
40	0x3ed00232	0.40626675
41	0x3ecdfbb6	0.40231103
42	0x3ecf854e	0.4053139
43	0x3d9495f5	0.072551645
44	0x3d8d7329	0.06906731
45	0x3ecc844b	0.39944682
46	0xbe618bb3	-0.22025947
47	0x3d4fc57c	0.050725445
48	0xbeb4f999	-0.35346678
49	0x3e57de30	0.21080852
50	0x3e70e261	0.23523857
51	0x3e689371	0.22712494
52	0xbe870418	-0.2637031
53	0x3d7d432c	0.06183164
54	0xbe6e97df	-0.23300122
55	0xbe3599b7	-0.17734419
56	0x3e759570	0.23982787
57	0xbe9787a5	-0.29595676
58	0xbebe5925	-0.37177387
59	0x3d758b4c	0.059947297
60	0xbe1a4818	-0.15066564
61	0xbd38cbf3	-0.045116376
62	0xbe831397	-0.25600883
63	0xbd268ba5	-0.04066052
64	0x3d817b98	0.06322402
65	0x3eb24865	0.34820858
66	0xbdd3d659	-0.10343618
67	0x3e7363e5	0.23768575
68	0x3e4180c9	0.18896784
69	0x3e8d5f8d	0.27611962
70	0xbea27d3d	-0.31736174
71	0xbe1a7789	-0.15084662
72	0xbd1d3178	-0.038377255
73	0x3e8a3e29	0.2700055
74	0x3e3ad3a4	0.18244797
75	0x3ec5791a	0.38568956
76	0xbe2d1bcf	-0.1690514
77	0x3da09b3b	0.07842108
78	0xbe20b5a3	-0.15694289
79	0xbec99302	-0.3936997
80	0x3dda6623	0.10664012
81	0xbe14ba9c	-0.14524311
82	0x3e846203	0.25856027
83	0xbd429685	-0.047506828
84	0xbe1c6c01	-0.15275575
85	0x3e08076f	0.13284086
86	0xbe4c0961	-0.19925453
87	0xbedcfe03	-0.43162546
88	0xbd5fba02	-0.05462075
89	0x3dd6a0c6	0.10479884
90	0xbcc1ef15	-0.023673574
91	0x3ed345f4	0.41264307
92	0x3ea9f674	0.3319584
93	0x3eb245d0	0.34818888
94	0x3ee6e55b	0.4509686
95	0x3e23286a	0.15933385
96	0xbee7efdd	-0.4530019
97	0x3e9b8bb4	0.30380023
98	0xbe7c267a	-0.24624053
99	0xbec3df4c	-0.382563
100	0xbe29637e	-0.1654186
101	0x3e07c20f	0.13257621
102	0xbe407143	-0.18793206
103	0xbd9c4455	-0.07630221
104	0x3e8c2495	0.2737166
105	0x3e168d62	0.14702371
106	0x3ec2c023	0.38037214
107	0xbe54e66d	-0.20791025
108	0x3b07814d	0.0020676435
109	0x3eb54cbe	0.35410112
110	0x3ec2f930	0.3808074
111	0x3de485bd	0.11158321
112	0x3d27dedc	0.04098402
113	0x3e13c98d	0.14432354
114	0xbc83f2aa	-0.016106922
115	0xbeb68d3a	-0.35654622
116	0x3d4e9ddf	0.050443526
117	0xbdc78a76	-0.09743206
118	0x3e8d5821	0.276063
119	0xbe49a1ce	-0.1969063
120	0xbe5b12ce	-0.21393892
121	0xbdfcf12c	-0.123506874
122	0x3e1a0e14	0.15044433
123	0xbde83851	-0.113388665
124	0x3e4dd1da	0.20099583
125	0xbe61b2c2	-0.22040847
126	0xbeac6193	-0.33668193
127	0x3c916b72	0.01775143
128	0xbeabf0d7	-0.33582184
129	0x3dfd0848	0.12355095
130	0xbec715ee	-0.3888392
131	0xbec0d180	-0.37659836
132	0x3ebc15a8	0.36735272
133	0x3ecff641	0.40617564
134	0xbec1d655	-0.37858835
135	0x3ccf814e	0.025330212
136	0xbd3fdafd	-0.046839703
137	0x3e47eb5a	0.19523373
138	0x3e5f5611	0.21810175
139	0xbeaa1349	-0.33217838
140	0xbe33fad2	-0.17576149
141	0x3e8810ca	0.2657531
142	0x3e959704	0.29216778
143	0xbeaa467d	-0.33256903
144	0xbe970aa4	-0.29500306
145	0xbeb30ce8	-0.34970784
146	0xbe0d5dad	-0.13805266
147	0x3dd5c208	0.10437399
148	0xbe714467	-0.2356125
149	0x3eb6f1df	0.35731408
150	0xbdea1de0	-0.114314795
151	0xbe8f67fc	-0.2800902
152	0x3d8a3e33	0.06750145
153	0xbef78c96	-0.48349446
154	0x3e17ffec	0.1484372
155	0x3eee701e	0.46569914
156	0x3e973da3	0.29539213
157	0xbebe273f	-0.37139317
158	0x3e956c85	0.29184356
159	0xbe98b109	-0.29822567
160	0x3e523a74	0.2053011
161	0xbe8b2cb0	-0.2718253
162	0xbe6df5c1	-0.23238279
163	0xbeac5f55	-0.33666483
164	0x3e28e827	0.16494809
165	0x3ec56b07	0.38558218
166	0xbdc1c0d3	-0.094606064
167	0xbe1b104b	-0.15142934
168	0x3dc99714	0.09843269
169	0x3e257e0b	0.16161363
170	0x3e60a9f7	0.21939836
171	0x3d30c55c	0.043156967
172	0x3e6ad924	0.22934395
173	0x3e96c8f5	0.29450193
174	0x3e9ca255	0.305926
175	0x3ec540ca	0.38525993
176	0x3ea15b7c	0.3151511
177	0xbe8aab05	-0.27083603
178	0x3d57ad3f	0.052655455
179	0xbcfd3395	-0.030908385
180	0x3d651043	0.05592371
181	0x3ebbd60a	0.36686736
182	0x3f007593	0.50179404
183	0xbea6b515	-0.3256003
184	0x37d0a97a	2.487445e-05
185	0x3d872321	0.06598497
186	0x3e9be9ce	0.30451816
187	0xbe98f46d	-0.29873982
188	0xbdb27648	-0.087139666
189	0x3e794ec6	0.24346456
190	0x3d1960a4	0.03744568
191	0x3e16eacc	0.14738005
192	0x3e78108c	0.24225062
193	0xbd94312f	-0.072359435
194	0xbe307f85	-0.17236145
195	0xbeb0aca8	-0.34506726
196	0x3e225b6d	0.15855189
197	0x3c40ffb0	0.011779711
198	0xbe62cded	-0.22148867
199	0xbeadf4a3	-0.33975706
200	0xbe8664d3	-0.26248798
201	0xbef1758c	-0.47159994
202	0xbe75c9b9	-0.24002732
203	0x3ee07130	0.43836355
204	0x3e955b75	0.2917134
205	0x3e85e75f	0.26153085
206	0xbeae5890	-0.34051943
207	0x3bbe046c	0.005798867
208	0x3e32aec2	0.17449477
209	0x3e0ad651	0.13558318
210	0x3c32cf76	0.01091372
211	0xbe44b9fb	-0.19211571
212	0xbf00dba4	-0.50335145
213	0x3df67102	0.12033273
214	0xbe890924	-0.26764786
215	0xbdb9ad9d	-0.09066317
216	0xbe99e5b0	-0.3005805
217	0xbec1d20b	-0.37855563
218	0xbee7235b	-0.45144162
219	0x3eb01944	0.34394276
220	0xbe39af35	-0.18133242
221	0xbed86a7b	-0.42268738
222	0x3ec55ba2	0.38546473
223	0x3ebcda7d	0.36885443
224	0xbebbc279	-0.36671808
225	0xbec6b8a6	-0.3881275
226	0x3df89e55	0.121395744
227	0xbd9223c7	-0.0713573
228	0x3e0c1982	0.13681605
229	0x3e7e47a3	0.24832015
230	0x3e470622	0.19435933
231	0x3e0729c0	0.1319952
232	0xbe1d5b1c	-0.15366787
233	0x3ead68c4	0.33868992
234	0xbd8194af	-0.06327187
235	0xbe85d32a	-0.26137668
236	0xbcfd369d	-0.03090983
237	0x3c4e67a0	0.012597948
238	0x3e6713aa	0.22566095
239	0x3e81523f	0.2525806
240	0xbe9c6281	-0.30543903
241	0x3e91f434	0.28506625
242	0xbe7e753f	-0.24849413
243	0x3dc9a671	0.09846199
244	0xbe460376	-0.19337258
245	0xbe8ac9fd	-0.2710723
246	0x3e303a45	0.17209728
247	0x3e82e58a	0.2556575
248	0x3e85f89d	0.2616624
249	0xbea49daa	-0.32151538
250	0xbe37522b	-0.17902438
251	0x3eba88ba	0.3643244
252	0xbc3cbe20	-0.011519939
253	0xbe3f0ee7	-0.18658029
254	0x3e7aa387	0.24476443
255	0xbe2d73c9	-0.169387

encoder.blocks.1.attn.proj.bias f4 [16]
0	0x3d052ca4	0.032513276
1	0x3b045be3	0.002019637
2	0x3d25f35b	0.040515285
3	0xbd3053b6	-0.043048583
4	0x3cb3d95f	0.021954237
5	0x3dd85005	0.105621375
6	0xbc78e529	-0.015191355
7	0xbcf39c77	-0.029737694
8	0xbcfc3fc7	-0.03079213
9	0xbd894800	-0.06703186
10	0x3d09c5d1	0.033635918
11	0x3d12dc61	0.0358547
12	0xbd560648	-0.052252084
13	0xbce2bda5	-0.02767832
14	0xbbd6ad1e	-0.006551399
15	0xbccf6e9b	-0.025321295

encoder.blocks.1.norm2.weight f4 [16]
0	0x3f6a23db	0.9146096
1	0x3f65918b	0.89675206
2	0x3f62322e	0.8835782
3	0x3f6f537a	0.9348675
4	0x3f728ef9	0.9474941
5	0x3f74d761	0.9564114
6	0x3f81ccc7	1.0140618
7	0x3f880117	1.0625333
8	0x3f67a67d	0.90488416
9	0x3f7f4fbd	0.99731046
10	0x3f7deb8c	0.9918754
11	0x3f6db871	0.9285956
12	0x3f708595	0.9395383
13	0x3f5b4f01	0.85667425
14	0x3f7d8e3d	0.99045163
15	0x3f6e2bb6	0.9303545

encoder.blocks.1.norm2.bias f4 [16]
0	0xbb1009a7	-0.002197841
1	0x3d354b59	0.04426131
2	0xbd556dd6	-0.0521067
3	0x3dbb91f3	0.09158697
4	0xbd20b3ac	-0.03923385
5	0x3d07ef9b	0.03318749
6	0x3cb9eaa1	0.022694888
7	0x3d337f18	0.043822378
8	0xbcc50e7d	-0.02405476
9	0x3c8b0060	0.016967952
10	0xbc6d4334	-0.0144813545
11	0xbdddcfeb	-0.10830673
12	0xbcdbb446	-0.02681936
13	0x3db0e1d0	0.0863682
14	0x3cd42346	0.025895726
15	0x3b893774	0.0041875187
