Checkpoint/dict_10.pth (torch, 108787 bytes, 64 tensors)

encoder.cls_token f4 [1, 1, 16]
000000 60 c5 a1 3f 7e 9f 28 3f 95 54 a8 3e 68 3b 94 3f
       1.2638359 0.65868366 0.3287703 1.1580629
000010 5b 53 af bf 95 3f 53 3f 29 5c 30 bf a5 2c 0a 40
       -1.3697313 0.82518893 -0.68890625 2.158975
000020 24 0c 36 bf 6a 9d 2f 3f 9f 1f bb 3e bd d9 cc 3f
       -0.71112275 0.6859957 0.36547562 1.6003948
000030 9e 82 22 bd 29 c4 ad 3f bb 18 ce 3f 26 8f 3b bf
       -0.039675348 1.3575488 1.6101297 -0.732653

encoder.patch_embed.weight f4 [16, 5]
000000 38 13 94 3d 48 75 a1 3d 94 dd 09 bf cf 8e 5a be
       0.07230228 0.07883698 -0.53853726 -0.2134354
000010 72 b7 a1 3e 5e 39 1f 3e 0c 3d d7 3d d6 f6 66 be
       0.3158527 0.15549228 0.10509691 -0.22555098
000020 d5 92 87 be 43 dd e4 3e 58 a2 e8 be 50 37 d6 be
       -0.2647921 0.4470006 -0.45436358 -0.41839075
000030 d1 fe 48 3e 52 96 8c be 8a 6a dc be 3f 22 82 3c
       0.19628455 -0.27458435 -0.43050033 0.01588547
000040 8d af 81 3e 2d fd 7c 3e 9c f2 79 3e 59 b8 93 3d
       0.25329247 0.24705954 0.24408954 0.07212896
000050 80 8a ea 3e 99 3e 54 be fc 93 76 3d 56 56 14 3f
       0.45808792 -0.20727004 0.060199723 0.5794424
000060 12 bb 01 bf 93 3c 00 3f 74 73 57 be 31 e6 23 bf
       -0.5067607 0.5009243 -0.21040136 -0.6402312
000070 55 d0 eb 3e fc 01 b4 be 72 29 85 3e d7 14 8d be
       0.46057382 -0.35157764 0.26008183 -0.27554962
000080 98 7e b8 be 93 42 27 be 87 f4 53 bd 2d 15 82 be
       -0.36034083 -0.1633399 -0.05174687 -0.2540678
000090 83 76 31 3d d9 23 4e 3e b9 2a d0 bb d5 a3 c3 3d
       0.043325912 0.20130862 -0.006352749 0.09552733
0000a0 9d 00 7c be a8 fb f9 bd 42 9f dc be c6 fc e9 3d
       -0.24609609 -0.12206203 -0.43090254 0.11425166
0000b0 cd 72 72 be 88 43 9e be 99 5e c6 be a7 93 e4 3e
       -0.23676606 -0.30910897 -0.38744047 0.446439
0000c0 74 60 bc 3e 84 7f 9e 3e c9 73 07 3f cf 2c bb be
       0.36792338 0.30956662 0.5291105 -0.36557624
0000d0 42 80 a9 3e 06 6d dc be 4b cf 78 3d 2c f3 a4 be
       0.33105665 -0.43051928 0.060744565 -0.32216775
0000e0 ec b5 b8 3d 37 6d 1e 3e f1 d8 ec be d7 1b 03 bf
       0.09019074 0.1547135 -0.46259263 -0.51214355
0000f0 8f 0c af 3e 7c e3 00 bf 09 90 c3 3e ee 8f 5d be
       0.3418927 -0.50347114 0.38195828 -0.21636936
000100 cf 8c 78 3e cd 10 b3 be af 23 04 bf 24 e9 00 be
       0.24272464 -0.34973755 -0.5161695 -0.12588936
000110 dc 9c 75 3e ad 09 aa be af 10 c3 3e 1b a8 f3 3e
       0.23985618 -0.33210507 0.38098666 0.47589192
000120 b0 cf fb 3e 3c 0e 30 bf 8b 02 59 3e 1c e0 20 be
       0.4918189 -0.6877172 0.21192376 -0.15710491
000130 a7 5f c6 3e 80 06 ed be 45 80 00 3f e0 07 f2 3d
       0.38744852 -0.46294022 0.50195724 0.11817908

encoder.patch_embed.bias f4 [16]
000000 d1 71 5c bd 8e bc 02 3d e3 6c 4b 3d 53 0b e0 bb
       -0.05381948 0.0319181 0.04966439 -0.0068372875
000010 1b 66 71 3d e3 c6 b2 bd 04 e9 cf 3d 03 cf 85 bd
       0.058935266 -0.08729341 0.10151866 -0.06533625
000020 9c fe bd 3b 9e c8 81 3d cf 2b a7 3c 7b 79 b3 bd
       0.005798174 0.06337093 0.020406632 -0.08763405
000030 e3 64 af 3c 2a a0 a4 bc a3 4a d8 3c e3 79 34 bd
       0.021410411 -0.020095903 0.026402777 -0.044061553

encoder.blocks.0.norm1.weight f4 [16]
000000 b7 f5 8a 3f 33 54 8d 3f 89 eb 84 3f 54 fb 85 3f
       1.0856236 1.104132 1.038438 1.0467324
000010 2e f2 7d 3f 82 35 8a 3f 92 77 64 3f 3b 15 79 3f
       0.9919766 1.0797579 0.8924495 0.9729802
000020 0d 52 83 3f b8 8a 86 3f 64 0f 8c 3f 51 aa 7f 3f
       1.0259415 1.0511084 1.0942197 0.9986926
000030 1f 4d 7e 3f 0a 6c 7b 3f ad 24 88 3f 74 25 82 3f
       0.9933643 0.9821173 1.0636193 1.016768

encoder.blocks.0.norm1.bias f4 [16]
000000 0f 96 7a bd 76 ec c4 3c d9 1a 3d 3d db 59 8f 3c
       -0.061178263 0.024038535 0.046168182 0.017498901
000010 63 10 75 3c 94 07 07 bd 28 09 60 3d 14 7c f1 bc
       0.01495752 -0.03296621 0.054696232 -0.02947811
000020 11 33 c7 bc ec 4b b8 3d d3 ad 09 bd 4a 8f f8 bc
       -0.024316343 0.08998856 -0.033613037 -0.030341763
000030 31 63 f2 bb e2 4d 8f 3c 2a 2c 05 3b a4 1e 80 3c
       -0.0073970784 0.017493192 0.0020320513 0.01563961

encoder.blocks.0.attn.qkv.weight f4 [48, 16]
000000 ac f4 85 be 95 3d a4 be 0f 09 36 bd d9 5b b5 3e
       -0.26163232 -0.32078233 -0.044442233 0.35421637
000010 ec 6c 88 be 66 63 ca bd 18 b5 28 be ba 51 bf 3c
       -0.266456 -0.0988224 -0.16475332 0.0233544
000020 72 59 a4 be fe bb 3e bd 3e 88 b9 3d 80 47 47 bd
       -0.3209949 -0.046566002 0.09059189 -0.048652172
000030 b8 b1 69 3e 52 d1 de 3d 3d 7e 53 3e 0f e7 9a 3e
       0.228217 0.108797684 0.20653625 0.3025441
000040 1c 5c d9 bd 7e 94 9f 3e c4 c3 3b 3e 55 3f dd be
       -0.106132716 0.31167978 0.18336397 -0.4321238
000050 16 5f 82 bd 4e 5c c4 be 6b a7 c7 bd 09 50 5e be
       -0.063657925 -0.38351673 -0.09748729 -0.21710218
000060 6e ff e9 3e f2 0b 46 be dc 89 78 3e 93 27 85 3d
       0.4570269 -0.19340494 0.24271339 0.06501689
000070 28 b1 85 3e a1 aa 20 3e 52 3d 9d 3e 56 2c a0 bd
       0.26111722 0.1569009 0.30710846 -0.078209564
000080 ac 29 8a be 64 93 94 3e 2c 0b 0a bf 25 72 75 3d
       -0.26984918 0.290187 -0.53923297 0.05992331
000090 58 6a da bd cc 30 9b 3d f0 36 4a 3e 02 dc 48 be
       -0.10664815 0.07577667 0.1974752 -0.19615176
0000a0 a3 80 8e 3e 88 71 a1 3d 3a 0e 5a be ee 3b 84 3d
       0.27832517 0.078829825 -0.2129449 0.06456743
0000b0 49 c0 56 bc 97 ba fd bc 8a fa 05 3e 8a d6 7f be
       -0.013107368 -0.030972762 0.13083854 -0.24984184
0000c0 98 2b 92 3e 14 37 e3 ba 36 aa a7 3d 19 83 85 be
       0.28548884 -0.001733514 0.08186762 -0.26076582
0000d0 72 30 87 3d 2c 50 d3 3d 52 39 5f be c7 02 93 be
       0.06601037 0.10318026 -0.2179921 -0.28713056
0000e0 fe 1e 30 bc 54 85 63 be a9 75 4f bc 7f 4e 84 be
       -0.010749577 -0.2221883 -0.01266233 -0.25841138
0000f0 fc f8 3d 3e c2 e0 7f be bb 66 39 3e 12 2d aa be
       0.18552011 -0.24988082 0.18105595 -0.3323751
000100 eb 37 8a 3d 73 79 6f 3e 6f fa 72 be 7a 77 f4 3d
       0.06748947 0.23386173 -0.23728345 0.11936851
000110 66 75 55 3e 87 64 7f be 8d d7 b1 bd cf 26 ae bd
       0.20845565 -0.24940692 -0.08683691 -0.08503496
000120 bd ee 67 be c1 e4 d9 bd a9 25 ed bc 3f 9e 25 be
       -0.22649665 -0.106393345 -0.028948622 -0.16173647
000130 7b ee dc bd ca 77 92 3d 44 64 c7 3d 4b ab 61 3e
       -0.10787674 0.07151754 0.09735921 0.22038
000140 9b 9e a8 3d 16 9f cb be 07 36 25 3d 54 e1 b2 bd
       0.082333766 -0.3976981 0.040334728 -0.08734384
000150 d5 68 e7 ba d7 9f 78 be 77 1a a3 3e 75 fe 7f 3e
       -0.0017655144 -0.24279724 0.3185613 0.24999411
000160 fb 7a b0 be 21 b4 a3 3d 18 41 b1 3e 44 d8 ba bd
       -0.34468827 0.07993341 0.34619975 -0.09123281
000170 45 19 c3 bd 63 b2 ca bd 57 a5 47 be 59 61 89 bd
       -0.09526304 -0.09897306 -0.19496666 -0.06708021
000180 43 d9 d3 be b5 76 14 bd 04 7b 9a 3e 55 ee 76 3e
       -0.41376695 -0.03624602 0.30171978 0.24114354
000190 6c 18 4b be 83 ff b3 3d a4 c4 d3 3d 32 29 19 3e
       -0.19833535 0.08788969 0.103402406 0.14957121
0001a0 8a 61 a0 3e 4a 59 d9 3d 58 88 07 bd 02 8d c9 3d
       0.31324416 0.10612734 -0.033089012 0.09841348
0001b0 ac e5 13 3e 50 81 29 3e f2 80 1a 3e ec bd d9 bc
       0.14443082 0.16553235 0.15088251 -0.02657982
0001c0 99 4a 45 3d 40 fe aa be 99 d5 cc 3d 03 5d 4a 3d
       0.048166845 -0.33397102 0.10001678 0.04940511
0001d0 c7 88 71 be 7a fe 88 3e 8f ff bd bd 6a 54 43 be
       -0.23587333 0.2675665 -0.092772596 -0.1907517
0001e0 37 f5 8a 3e 84 14 4f be 08 74 de 3e 87 aa 8f 3d
       0.2714021 -0.2022267 0.434479 0.070149474
0001f0 52 f5 84 be ed ec 44 3e db 4a 2b be 86 39 f1 bd
       -0.25968415 0.19231005 -0.16727774 -0.1177855
000200 55 ea 40 3e 7d 59 a0 bb 33 73 b4 3d ff c6 4a be
       0.1883939 -0.0048934803 0.08811035 -0.19802473
000210 9f b6 37 3e 66 a1 86 be d9 07 8a be dd 85 6a be
       0.17940758 -0.26295012 -0.26959112 -0.22902627
000220 23 99 0b be 0b 9e ac 3c 6d d4 b3 bd 23 91 82 be
       -0.13632636 0.021071455 -0.087807514 -0.25501356
000230 37 c9 42 be 26 c5 72 be fd 15 ce 3e e9 e4 e0 3c
       -0.1902207 -0.23708019 0.4025115 0.027452903
000240 bc 8c 0d bb bb e2 c8 bd 2f c2 a0 3e c3 3d b2 bc
       -0.0021598777 -0.098088704 0.3139815 -0.021757966
000250 f2 18 9d be 56 12 0d 3e 07 11 4b 3c ab d2 49 3e
       -0.30683094 0.13776526 0.012394196 0.1970927
000260 9a a6 cf bc b9 5f ac 3e cb 29 17 bf 35 96 27 3e
       -0.025347997 0.3366678 -0.59048146 0.16365893
000270 52 ae d3 be cb 4f ae 3e 5a 55 c8 be e2 91 c3 3e
       -0.41343933 0.34045252 -0.39127618 0.38197237
000280 6c c0 b0 3e 88 d2 f2 bd 7f 9d a8 3c 6e 2d fe bd
       0.34521806 -0.11856562 0.020582912 -0.12411009
000290 67 c1 fa 39 de 57 bf be 38 74 2e 3e 56 be 8c be
       0.00047827812 -0.37371725 0.17036521 -0.27488965
0002a0 7c 81 64 bd 31 e0 9b 3d b2 b5 fb 3c bb e4 30 bc
       -0.05578755 0.076111205 0.030726288 -0.010796721
0002b0 41 6d 0a be 10 a8 06 be 2a 08 2e 3d b6 2b ff bd
       -0.1351824 -0.13150048 0.042488255 -0.12459509
0002c0 0e 0d 8a 3e de 06 21 3e 86 53 83 3e d9 db a3 be
       0.26963085 0.15725276 0.2564966 -0.32003668
0002d0 64 55 2e be 74 82 62 3e a7 83 13 3e 09 6c 3a bd
       -0.17024761 0.22120076 0.1440569 -0.045513187
0002e0 87 27 ff 3c 39 26 99 bc 27 1a 09 bc 18 9a 06 3d
       0.031146778 -0.018694984 -0.008368052 0.0328618
0002f0 a2 2f de 3d d0 a8 a6 3d f9 d7 05 be 13 e5 75 3e
       0.10848929 0.08137667 -0.13070668 0.24013166
000300 ac 16 fd bd 1a 99 56 3d 7c 62 81 be d6 81 a9 3e
       -0.1235784 0.052392103 -0.2527045 0.3310687
000310 c2 ec 1a 3e f8 fb 2b 3e c2 ff b5 be a2 82 bb 3e
       0.15129378 0.16795337 -0.3554669 0.36623102
000320 1e 0f f8 be 4e 79 ad 3d 15 b7 a0 3e 2f 72 c0 bc
       -0.48449033 0.08470403 0.3138968 -0.023491947
000330 d1 9d 0c be 1e d6 d9 3e f7 78 97 3d dc f0 bb 3e
       -0.13732077 0.4254617 0.07396119 0.367072
000340 2a ca 81 be f3 d9 46 3e 1d 04 6f 3e d2 cf b1 bd
       -0.2534955 0.19419079 0.23341413 -0.08682217
000350 59 03 cd 3d 26 a2 c1 3d 6e 6a 7a 3e ee 3a 3d 3e
       0.10010404 0.094547555 0.24454662 0.18479511
000360 c7 e6 02 3e 0a 79 f2 bd 8a be 1c be 61 ef 54 be
       0.12783347 -0.118394926 -0.1530706 -0.20794441
000370 2f 38 cc 3c 0c 19 dd bd e9 25 43 be 6d 5e cb bd
       0.024929134 -0.10795793 -0.1905743 -0.0993012
000380 d4 ec 17 3c b2 b6 f5 3d 2e 5d 5c be f2 e3 98 be
       0.009272773 0.11997737 -0.2151992 -0.29861408
000390 1a 14 99 3e 41 10 94 be 23 3a 4c 3d 98 6f 4a 3d
       0.2989815 -0.2891865 0.04986013 0.04942283
0003a0 9f c2 5a be 81 ba 1a be f9 d0 84 be fb 75 cc be
       -0.21363305 -0.15110208 -0.25940683 -0.39933762
0003b0 e1 9b 61 3e 9e 38 8a 3d 64 da 92 bd 89 e1 9f be
       0.2203212 0.0674908 -0.07170561 -0.31226757
0003c0 31 44 11 3e 59 56 de 3d 03 c7 c2 bd c4 22 61 3e
       0.14186169 0.10856313 -0.09510615 0.21985918
0003d0 31 90 8b be 13 2f 7f be d4 b1 0f 3d c9 1f 2d 3d
       -0.27258447 -0.24920301 0.0350817 0.04226664
0003e0 31 f8 9d be cd 71 46 3e b6 6b 4a 3e 17 d8 c7 bb
       -0.30853418 0.19379349 0.19767651 -0.006098758
0003f0 ff 55 37 be af a8 66 be b7 4d 43 be 6c 82 01 bd
       -0.17903899 -0.22525285 -0.19072615 -0.03161852

encoder.blocks.0.attn.proj.weight f4 [16, 16]
000000 dd 47 d0 3e ba 06 a4 be 5e 28 a5 3e 47 54 3c 3d
       0.40679827 -0.32036382 0.3225736 0.04597881
000010 29 54 db 3e 12 e1 57 be 64 d8 62 3e 9b 6b 0b bd
       0.42837647 -0.21081951 0.22152859 -0.034038167
000020 02 29 94 be d5 ab 8d 3e 54 f2 8c 3d 31 c3 e6 3d
       -0.28937536 0.2767016 0.06882158 0.112676986
000030 6a cf d2 be ee 6b 3a 3e 43 b1 d6 3e 66 2f e5 be
       -0.4117387 0.18205234 0.41932115 -0.44762725
000040 45 ff d2 bd 8a e5 1f bb 7a e1 f3 bd 85 3d 7c be
       -0.10302595 -0.002439829 -0.119082406 -0.24632843
000050 f4 4b df be b7 cd 4b be 1b 85 96 be 6c e9 50 3e
       -0.43612635 -0.19902693 -0.29398426 0.20401543
000060 79 6d d0 be 36 ef 9f be 17 11 c9 be 74 0c c7 3e
       -0.4070852 -0.3123719 -0.3927085 0.38876688
000070 bd af dd bd 17 54 74 3e 8f 68 bd be 65 e3 1d 3e
       -0.10824535 0.23860203 -0.36993834 0.15418775
000080 76 cb bc be fc 20 a4 3c 6e a0 e0 3e c1 ee bc 3e
       -0.36873978 0.02003526 0.43872398 0.36900905
000090 a0 5a 1d 3d 42 43 c2 3e d7 f1 9b 3e aa b8 b7 3e
       0.038416505 0.3794194 0.30457947 0.35883075
0000a0 63 54 c2 be a0 7a 71 3e 73 4f 5b be 54 43 4f 3d
       -0.37955007 0.23581934 -0.21417026 0.05060132
0000b0 82 cc 6f 3e 50 fc c7 be 07 9e 39 be dd 09 a2 3e
       0.23417857 -0.39059687 -0.18126689 0.3164815
0000c0 9b 79 ef be 87 cc c5 3e b7 21 c7 3a 1b dc 9b 3d
       -0.46772465 0.38632604 0.0015192543 0.07610341
0000d0 9b cd a7 be 6c 42 57 be fc 28 10 be b9 38 af be
       -0.32774052 -0.21021432 -0.14078134 -0.34222963
0000e0 31 9c 90 3e b5 ab f2 3e 22 52 73 3e 4e 93 75 3e
       0.28244165 0.47396627 0.237618 0.23981974
0000f0 9b 77 c2 be f1 0f 5c 3c 9e e2 ae be 4f 5d b2 be
       -0.37981877 0.013431535 -0.3415727 -0.34836814
000100 a6 bc 77 be 5d ed 87 3e 19 c6 59 3e e7 c9 84 be
       -0.24193057 0.2654828 0.21266975 -0.2593529
000110 03 d7 d7 3e 71 59 3c 3e 0d 82 be 3d 95 bd 48 be
       0.42156228 0.18393494 0.09302149 -0.1960357
000120 b2 f2 9e 3e 97 ae 5f be c4 6d 88 3e 14 33 97 3e
       0.31044537 -0.21843944 0.26646245 0.29531157
000130 6a a6 2d 3e 9c 9d 99 bd 52 32 aa 3c 32 b2 52 3c
       0.16958013 -0.07500765 0.020775948 0.012859868
000140 8d cf c1 3d fc 7b 66 3e 62 78 9d 3c 31 8c a4 bd
       0.09463415 0.22508234 0.019222442 -0.08034552
000150 de a2 bf be 8c 39 69 3e 92 d0 e3 bd e1 11 5c be
       -0.37428945 0.22775859 -0.11123766 -0.21491195
000160 37 5f 4f be 94 0a 0c bf 4e 4c 70 be 76 d4 d0 3d
       -0.20251165 -0.5470364 -0.23466608 0.10196774
000170 41 c3 82 3e 28 03 54 be 1f ee d5 3e 03 92 b8 be
       0.25539592 -0.20704329 0.41783234 -0.36048898
000180 90 fc c3 3d 99 ce 63 3e 23 bc 1d 3d aa 16 8a be
       0.09569657 0.2224678 0.0385095 -0.26970416
000190 bb ec 6b be 25 f8 4e be f9 66 75 be 95 f9 2a 3e
       -0.23039524 -0.20211847 -0.23965062 0.1669677
0001a0 ec 2a 3b 3c a4 96 16 3d 27 44 c0 be ab 70 a6 3e
       0.011423808 0.036764756 -0.37551996 0.32507834
0001b0 f7 9b c5 be 2a 88 18 be 47 3e 3b be 6d 05 4b bd
       -0.38595554 -0.14895692 -0.18285476 -0.04956572
0001c0 85 47 70 3d 95 00 b3 3c cb 7f 7a 3d e9 3e ec 3d
       0.058661956 0.021850863 0.06115703 0.11535437
0001d0 14 67 b5 3e a1 8d cc 3a 6f dd ba 3e 6c c4 97 bd
       0.35430205 0.0015606174 0.36497065 -0.074105114
0001e0 13 b9 bd be 0a b1 0c 3d 9a fa 17 3e e4 7d 74 bd
       -0.37055263 0.034348525 0.1484169 -0.05969037
0001f0 2a 98 b0 3e 44 68 ba 3d b5 a5 63 3e 33 04 ef be
       0.34491092 0.09101918 0.22231181 -0.4668289
000200 4f 8d 35 be 8d 83 07 3d e4 78 0f be 80 55 7a bd
       -0.17729686 0.03308444 -0.1401096 -0.061116695
000210 24 e0 2d 3e 20 ee c0 3e 6e f5 86 be 25 fc 20 3e
       0.16980034 0.37681675 -0.26359123 0.15721186
000220 5e 0e ed bd 69 0b d9 be 94 0c a9 3e 9d d5 a0 be
       -0.11575006 -0.42391518 0.3301741 -0.31412974
000230 a4 28 9e be 94 f6 be 3e 9d 9b 51 be 80 b0 92 3e
       -0.3089038 0.372975 -0.20469518 0.28650284
000240 39 74 2e bd b0 72 01 3f 86 ae 84 bc 06 50 99 3e
       -0.042591307 0.50565624 -0.0161965 0.29943866
000250 1c 88 9b 3e c4 20 a5 3e 2d 36 a5 be aa 34 84 3e
       0.3037728 0.3225156 -0.32267895 0.2582143
000260 22 51 b0 be 54 fe c1 3d 4b b0 2c be 46 28 86 3d
       -0.344369 0.09472337 -0.16864125 0.0655065
000270 05 8b 8c be 3a 27 5c 3e ca 33 08 be 7a b4 c1 3e
       -0.27449813 0.21499339 -0.13301006 0.37833005
000280 f9 c3 6e 3d cf 99 84 3e a4 cc 17 3e c5 c0 a3 3e
       0.058292363 0.25898597 0.14824158 0.3198301
000290 5d a7 98 3e 44 2b e8 be 15 1a e1 3e 84 0b a1 3e
       0.29815188 -0.4534551 0.43965212 0.31454098
0002a0 51 0c 54 be 94 bb 17 be 01 4e 47 be 11 2c 46 3d
       -0.20707823 -0.14817649 -0.1946335 0.04838187
0002b0 59 96 01 3e 8c e4 88 3e 0e 01 7d be 2b 9a 9b be
       0.1265501 0.26736867 -0.24707434 -0.30391058
0002c0 a4 f3 b2 3c 8d a0 23 be dd 3e 68 be 8f ec 9b bd
       0.021844693 -0.15979214 -0.2268023 -0.07613479
0002d0 bf 57 15 be 59 7c 28 be ae ee 79 be 0d 7b 59 3e
       -0.14584254 -0.16453685 -0.24407455 0.21238346
0002e0 b6 81 27 bd 7b 23 60 be bb 2c e0 bd 07 b6 22 3d
       -0.040895186 -0.21888535 -0.10946032 0.039724376
0002f0 3a 24 ea bd bf 10 5c 3e 19 a7 e1 bc ef 53 8e 3e
       -0.11432691 0.21490763 -0.027545499 0.2779841
000300 3d 28 b4 3e 8b d1 d0 3e d9 10 9e 3e cb a7 cd 3d
       0.3518695 0.4078487 0.3087223 0.100417696
000310 00 5b 8a 3e a9 00 1c 3c a7 fc cc be da 7a 8c 3e
       0.27022552 0.009521642 -0.40036508 0.27437478
000320 ef 8e ec bd 5c 1f d8 be 85 bc c4 be 4a 57 71 3e
       -0.115507 -0.42211425 -0.3842508 0.23568454
000330 b9 cb 9c 3e 12 71 83 3e 4b 62 c4 3e 8b 4d bc be
       0.30624178 0.25672203 0.38356242 -0.3677791
000340 6a b5 b5 be ef 66 d1 bd 4b f8 79 bd 2d 89 ab 3e
       -0.3548997 -0.10224711 -0.061027806 0.33503094
000350 4b e5 98 be 40 80 be be 4b 1a ae be f9 2a 48 3d
       -0.29862437 -0.37207222 -0.34004435 0.048869107
000360 dc c3 4d be f1 3d db bc 4b 45 ac be 3e 79 e1 3e
       -0.20094246 -0.026762934 -0.33646616 0.44037813
000370 65 e1 32 bc 94 f0 c8 bd 92 0f 9c 3e e5 16 58 3e
       -0.010917996 -0.09811512 0.3048063 0.21102484
000380 09 fd 56 3e e9 b5 7c be 06 8a 17 be 3e 2e a9 3e
       0.20994963 -0.24678768 -0.14798746 0.33043092
000390 c0 0e af 3e 34 c7 ba be 54 bc 19 be ba 7e ef bd
       0.3419094 -0.36480105 -0.15013248 -0.11694093
0003a0 f2 d0 b1 3d d5 05 54 bd b7 32 b6 3e 9d 92 c9 3e
       0.08682431 -0.051763374 0.35585567 0.3936967
0003b0 a5 07 2d be 21 1b 0a 3e 66 92 12 3d d4 b0 49 be
       -0.16897447 0.13486911 0.035784148 -0.19696361
0003c0 72 76 7d 3e 12 04 b8 3e 01 fa 93 3e e1 31 aa 3c
       0.24752215 0.35940605 0.28901675 0.020775737
0003d0 5a 79 8c bd 5f 99 3f 3e 2e be c9 3e c5 8f 4b be
       -0.068590835 0.1871085 0.39402908 -0.19879062
0003e0 0f b1 c0 be 87 1e 5c bd 58 33 b8 be fe bf 2d 3e
       -0.37635085 -0.05374005 -0.35976672 0.1696777
0003f0 70 b0 30 be a5 e5 c9 3e 61 a5 65 3e f6 fe 84 3e
       -0.17254806 0.39433017 0.22426368 0.2597577

encoder.blocks.0.attn.proj.bias f4 [16]
000000 5c 50 63 bd 88 a5 57 3d 18 48 1e 3d c6 70 fd bc
       -0.05549656 0.052648097 0.038642973 -0.030937564
000010 2a a8 4a 3d c1 d4 81 bc 78 68 cc 3c 3c 2b 13 bd
       0.04947678 -0.01584852 0.024952158 -0.035929903
000020 c5 9b da bc 95 73 5e 3c 74 df 0d 3c 1c c6 71 3c
       -0.026685605 0.013577362 0.008659232 0.014756706
000030 e1 fd 3f bc 97 bc 98 3c 75 90 8b bc 15 81 2d bc
       -0.011718244 0.018644614 -0.017036656 -0.010589858

encoder.blocks.0.norm2.weight f4 [16]
000000 8e 2f 79 3f 83 c3 89 3f 8f 6a 7b 3f 25 2c 7c 3f
       0.9733819 1.076279 0.9820947 0.9850486
000010 77 d2 76 3f eb 11 8f 3f 8a e8 86 3f 41 07 80 3f
       0.96414894 1.1177343 1.0539715 1.0002214
000020 e5 af 6f 3f d2 0e 7d 3f ff 38 6d 3f 84 fd 78 3f
       0.9362777 0.9885074 0.92665094 0.97261834
000030 8e 65 78 3f cd 6b 7d 3f a6 e6 69 3f e6 3e 86 3f
       0.9702996 0.98992616 0.91367567 1.0487945

encoder.blocks.0.norm2.bias f4 [16]
000000 7a c0 2a 3d d8 94 1f 3c 4a 96 29 3d c2 69 2b bd
       0.041687466 0.009740077 0.041403092 -0.041848905
000010 93 42 8d 3d a7 0d 10 bd 6b 84 77 bc c0 3b 34 3d
       0.06897464 -0.03516927 -0.0151072545 0.044002295
000020 2f 00 86 bb 6a b6 68 3c f2 c1 a7 3c 95 aa 23 3c
       -0.0040893774 0.014203647 0.020478223 0.0099894
000030 24 b8 ef 3c 9d de 00 3c ce fa c3 3b 61 1f b7 3c
       0.02926261 0.007865575 0.005980826 0.02235383

encoder.blocks.0.mlp.fc1.weight f4 [64, 16]
000000 31 1a 45 be 2e e9 bf 3d e9 cf 08 3e 15 b4 8a 3e
       -0.19248272 0.09370647 0.13360561 0.27090517
000010 6e d0 4d be 21 b1 9b 3d 8c 77 47 be a8 ee 84 be
       -0.20099041 0.07602144 -0.19479197 -0.2596333
000020 e3 44 33 3d 1f 12 91 3e 94 42 fc 3d 75 16 80 be
       0.043766867 0.28334138 0.12317386 -0.25017133
000030 b0 9d eb bd d3 7a 55 bd d2 50 86 3e b7 57 8e 3e
       -0.11504686 -0.052119087 0.26233536 0.27801296
000040 a4 20 27 bd d7 df e6 be 91 92 a4 be b2 1b 8c bc
       -0.040802613 -0.4509265 -0.3214307 -0.01710305
000050 3c d3 a9 bd 33 51 c6 3c 2d 75 5f 3e 00 ec 18 be
       -0.08292243 0.02420864 0.21822043 -0.14933777
000060 fc 6b 50 3d ed 53 a3 bc db b1 e6 3c 2f 70 4a be
       0.050884232 -0.01993748 0.02816098 -0.19769357
000070 0a 65 50 3d c3 ea 93 be ff a2 fd bd fb 98 09 bd
       0.05087761 -0.28890046 -0.12384605 -0.03359316
000080 82 71 6a 3d 21 26 eb 3d 53 6e 77 be d5 fe 39 3b
       0.057237156 0.11481882 -0.24163179 0.0028380651
000090 61 07 49 be f6 34 50 bd 0b 6d f8 bd 0d e8 fd 3d
       -0.19631721 -0.050831757 -0.12130173 0.12397776
0000a0 8f a4 a6 3d d1 b2 a4 bb 3c 65 71 3e 56 6b 3a 3e
       0.08136856 -0.0050261994 0.23573774 0.18205008
0000b0 a2 b3 13 3e dc bd 2a 3e 0d 1b 19 be e8 ac 27 be
       0.14423993 0.16673988 -0.14951725 -0.16374552
0000c0 34 e5 41 bd ed 95 7d 3e 9e d5 91 bd bf 3c cc bd
       -0.047337726 0.24764223 -0.07120822 -0.09972524
0000d0 74 7b a0 bd 42 8e 93 be 19 3a 09 be 91 2c a7 bd
       -0.07836047 -0.28819472 -0.13401069 -0.08162797
0000e0 50 91 49 3d e8 1a 5d 3e ed a4 95 bb 35 a8 4e be
       0.049210846 0.21592295 -0.00456678 -0.20181353
0000f0 6a c3 16 be 84 7f fd 3d 47 00 22 be 9a 4d 49 3e
       -0.14722982 0.12377837 -0.15820418 0.19658509
000100 8d a1 1f be da 09 0f 3e 0d b4 36 bc 98 fe 30 3e
       -0.1558897 0.13968602 -0.011151326 0.1728462
000110 bb 25 70 bd 0b f0 0c bd 85 55 a1 bd e0 e2 93 be
       -0.058629733 -0.03440861 -0.0787764 -0.2888403
000120 7e 19 15 3e 4a 67 71 3e 35 23 9e 3d 57 95 91 be
       0.14560506 0.23574558 0.07721559 -0.2843425
000130 6c d8 8f 3d c0 cf 23 3e a2 8c 98 be 61 a2 6a be
       0.07023701 0.15997219 -0.29794794 -0.22913505
000140 ab f0 ea 3d af bd c4 3d 56 1a cf 3d 9e d5 c8 bb
       0.11471685 0.09606492 0.10112445 -0.006128981
000150 b1 5a a3 3d cb 97 80 3e c8 d8 7e 3c ac db 27 3c
       0.079762824 0.2511581 0.015554614 0.010245245
000160 85 1e f7 3d f7 08 82 be e0 5d b0 be 5b 8b b3 3d
       0.12066368 -0.25397465 -0.3444662 0.08766814
000170 a0 08 09 3e 46 bb 23 3e 41 b9 79 3e 63 18 6f 3e
       0.13382196 0.15989408 0.24387075 0.23349147
000180 7b 15 93 bd a7 e1 84 3e b1 ee 68 3e 6a c4 ec 3d
       -0.071818314 0.2595341 0.22747304 0.115609005
000190 c2 65 44 3e 00 2c a9 3e c2 47 14 3d 4d 56 c9 3d
       0.19179443 0.33041382 0.036201246 0.09830914
0001a0 ac af c3 3d e4 79 22 3e d7 e6 b7 bd 4f d6 88 be
       0.09554991 0.1586681 -0.08979576 -0.26726004
0001b0 0a bd 58 be bb ea 69 be db 7a a7 be 14 3b e6 3c
       -0.21165863 -0.22843449 -0.3271092 0.028104343
0001c0 7a e4 8c be fd e6 4f 3d 78 1c 19 3e 4b 2f 89 be
       -0.27518064 0.050757397 0.14952266 -0.26793894
0001d0 81 f0 5e 3e ee 52 af 3e 06 5d 7c 3d fb 41 3f be
       0.21771432 0.34242958 0.06161215 -0.18677513
0001e0 97 02 b3 3e 4e 53 73 3e 48 3b 5c 3d d4 ef ae 3b
       0.34962913 0.23762247 0.053767473 0.0053386483
0001f0 54 3b 36 3d 6f 37 21 3e 4a e6 de 3d 60 1c a8 bd
       0.044490173 0.15743802 0.10883768 -0.08208537
000200 37 d6 31 be bb 0d 22 be 76 b2 0a be aa 58 61 bd
       -0.17366873 -0.1582555 -0.1354464 -0.055016197
000210 75 ec 8c bd 46 dc 3c bc 97 07 2d be 17 77 11 3d
       -0.06881038 -0.011527127 -0.16897427 0.035513964
000220 34 5e 5f 3d 74 a1 5a bc 34 a7 52 be 0c 11 0c 3e
       0.0545332 -0.0133441575 -0.20571595 0.13678378
000230 5a 6b 8b 3d 19 da 4c be 1e 40 59 3d 65 93 0e bd
       0.06807585 -0.20005073 0.053039663 -0.034808535
000240 ac ff a2 bd 9e a7 88 3d 2a c9 83 be fe 15 e8 bd
       -0.07958922 0.066725954 -0.25739413 -0.1133232
000250 71 1f d4 3d 8c 97 03 be 72 15 40 3e f4 f3 4d bd
       0.103575595 -0.1285078 0.1875818 -0.05028148
000260 72 58 2e 3e dc 34 64 be f3 ad 4a be fd e4 1b be
       0.17025927 -0.22285789 -0.19792919 -0.15224071
000270 ca be 6b 3e 96 ce dc 3d 2d f3 e5 3d cc 99 c1 bd
       0.23021999 0.10781591 0.11228023 -0.094531626
000280 ba 15 42 bd de 0e a0 bd 5e 08 cf bc b6 ea 92 bd
       -0.047384 -0.07815336 -0.025272544 -0.07173674
000290 7e 61 8e 3e 2e 3f fe bd e7 de b6 3c d9 26 6b bd
       0.27808756 -0.12414394 0.022323085 -0.057410095
0002a0 aa 7f 35 be 19 26 f0 bd bf 7c f2 bd 0f 77 aa bd
       -0.17724481 -0.117260166 -0.118402 -0.0832349
0002b0 8a 88 b1 bd 1b c3 50 3e da 3a 7e bd 6b f0 27 be
       -0.08668621 0.20386927 -0.062067844 -0.16400306
0002c0 3e 45 fe 3d 82 02 66 3e f0 60 6a bd c5 28 8c be
       0.12415551 0.22461894 -0.057221353 -0.27374855
0002d0 ae b9 c9 bd 55 b7 91 3e ab af 70 be e3 02 8a be
       -0.09849869 0.28460184 -0.23504512 -0.26955327
0002e0 96 38 0f be 0e 6a 2a 3d c3 d0 6f 3d c2 6b e8 3c
       -0.1398643 0.041605048 0.0585487 0.028371695
0002f0 04 51 55 be 3d 99 b4 3d ba 92 98 3d 1e 04 05 bd
       -0.20831686 0.088182904 0.07449861 -0.03247463
000300 48 68 91 bd ec 50 90 bd f2 fb a0 bd 68 9e 26 3c
       -0.07099968 -0.070466846 -0.07860555 0.010169603
000310 5d 45 81 3e 84 1c 5b bd 90 37 83 3e 3b 3a 1c 3e
       0.25248232 -0.05349399 0.25628328 0.15256588
000320 81 06 30 3c 57 e1 4e bd d5 fc 60 3d c6 f1 95 bb
       0.010743738 -0.05050787 0.05492862 -0.004575941
000330 17 ee 9b bd e1 1b 88 bd eb 22 3c 3e a7 16 4b 3d
       -0.076137714 -0.066459425 0.18372695 0.04958215
000340 58 20 33 3e 30 5d 37 be 3b 3a cf 3c 76 01 03 3e
       0.17492807 -0.17906642 0.025296321 0.12793526
000350 4d b0 ce bd 4a bc 1f 3e 4c f2 4b 3e ce 54 87 be
       -0.100922205 0.1559917 0.19916648 -0.26431888
000360 4a c6 1e bd 35 ee c9 3d bd c9 0f 3d 5a c1 7b 3e
       -0.038763322 0.098598875 0.035104502 0.24585477
000370 3b 7f 22 be 60 ac 3a be a8 c2 01 3e e8 72 86 be
       -0.15868847 -0.18229818 0.12671912 -0.26259542
000380 4a 50 05 3e 9a 82 1d be a1 5d 14 be b0 49 40 3c
       0.13018909 -0.15381852 -0.14488842 0.0117363185
000390 9e e1 79 be 6a e9 56 bd 3f 0c 3e be 1e 77 e6 bd
       -0.24402472 -0.052468695 -0.18559359 -0.112531886
0003a0 e4 39 6d 3d ef 29 40 3e 35 3b ad bd d2 b6 f5 3d
       0.057916537 0.18765996 -0.084585585 0.11997761
0003b0 db b4 b0 3c 28 18 8b be 88 b2 40 be 56 a8 19 3e
       0.021570614 -0.27166867 -0.18818104 0.15005621
0003c0 10 76 0a bd 49 52 33 3e b7 ae 8e bd 30 58 d7 bc
       -0.033804 0.17511858 -0.06966918 -0.026287168
0003d0 d6 a3 2e be b7 65 d8 3c 48 eb 46 3d 6b 4a 62 3e
       -0.17054686 0.026415689 0.048564225 0.220987
0003e0 cf ef 0b be 08 fb a8 3d f3 02 4c be 43 dd d6 3c
       -0.13665698 0.082510054 -0.19923 0.026228553
0003f0 2e ac 24 be 7e 13 cd 3d ff 19 aa 3d 6a cd 6f bd
       -0.16081306 0.100134835 0.083057396 -0.058545507

encoder.blocks.0.mlp.fc1.bias f4 [64]
000000 c5 1f 6a 3c 98 af c2 bc 0a e1 2e 3c d3 6f 1b bd
       0.014289801 -0.02376537 0.010673771 -0.03794844
000010 9f f6 3e bd 7f cf 2a 3d ed 9c dc bc d4 36 95 3c
       -0.046621915 0.04170179 -0.026930297 0.01821462
000020 fb 4b 37 bc 1d 31 2e 3d 53 be 55 bd 21 46 0e bc
       -0.011187549 0.042527307 -0.05218346 -0.008683712
000030 fe 6f 22 bd ac 86 2d bd 1d eb a8 bc 69 c0 57 bd
       -0.039657585 -0.04236476 -0.020619923 -0.05267373
000040 06 49 05 3d 10 2c 42 bd 15 76 5f 3b 6d 12 c8 bc
       0.032540344 -0.047405303 0.0034097482 -0.024422849
000050 21 55 08 bd 49 ea ca 3c d0 b2 67 bd a9 eb 30 3d
       -0.03328431 0.024769919 -0.056567013 0.043193493
000060 99 d0 e3 bc 93 19 44 bd 97 9f 00 bd c6 88 9f 3b
       -0.027809428 -0.047875952 -0.031402197 0.0048685996
000070 18 d9 2a 3d f6 dd 76 bc ce 54 34 bd 60 2a 27 3d
       0.041710943 -0.015067568 -0.04402619 0.040811896
000080 8c 35 2c bd d4 e5 9a 3c 03 7c a0 bc ce 29 d2 bc
       -0.042043254 0.018908419 -0.019590383 -0.0256547
000090 46 4b 09 3d 05 42 97 bc 84 8f 17 be 58 86 b9 3d
       0.033519052 -0.018464098 -0.1480084 0.09058827
0000a0 75 e5 ad 3c 25 fb db bc 00 52 16 bd 71 ba 1f 3c
       0.021227578 -0.026853153 -0.036699295 0.009749041
0000b0 7c f8 bd bb 63 af a0 bc c5 1c 19 bd 8f 5d be bc
       -0.005797444 -0.01961488 -0.037380952 -0.023237972
0000c0 9d 51 6b 3c 9f cb b1 3c cc 61 45 bb 66 1f fd ba
       0.01436272 0.02170354 -0.0030118106 -0.0019311726
0000d0 97 33 1c bd ce 37 c9 bb 36 34 fa bc d3 c5 93 bc
       -0.038135137 -0.0061406856 -0.030542474 -0.018038666
0000e0 7d 86 3b bd 2e 2e 87 3d d6 11 c1 bc ba 43 0b 3e
       -0.045782555 0.06600605 -0.023568075 0.13600054
0000f0 6e b4 fe 3c 6c 92 85 3a dd 71 ef bc 81 fa 2d 3d
       0.031091895 0.0010190732 -0.029229099 0.042475227

encoder.blocks.0.mlp.fc2.weight f4 [16, 64]
000000 cd 4e 19 3e f6 e5 80 3e 0b 1c 3b 3e f1 0d ab 3d
       0.14971466 0.25175446 0.18272416 0.083522685
000010 55 48 ea 3a ba d1 40 3d f4 d8 b0 bb 9e 65 b8 3c
       0.001787434 0.04707501 -0.0053969566 0.022509392
000020 13 4e 93 be f7 75 44 3c e4 51 31 3c ab f7 19 3d
       -0.28770503 0.011991016 0.010822747 0.03758971
000030 d9 e4 d3 bc d9 59 26 be 64 f2 bc 3d 39 6d 26 3e
       -0.025865959 -0.16245212 0.0922592 0.16252603
000040 1b ef c1 3d 51 d3 11 be 19 89 2c bd 8f 37 7e bc
       0.09469434 -0.14240767 -0.042122934 -0.015516176
000050 66 9f a2 bd 2f fc b8 bd a1 cc 26 3e 97 a2 80 be
       -0.07940559 -0.09032475 0.16288997 -0.25124046
000060 6a a1 a2 3e e9 17 79 3d 62 59 14 be 46 1f 1a 3d
       0.31763774 0.060813818 -0.14487222 0.03762748
000070 cf b1 5a be c5 f6 3d be 5c db 9f 3d 27 8d f2 bd
       -0.21356891 -0.18551166 0.07805511 -0.11843329
000080 58 9e 42 bd 2a 02 3f 3e 9c f7 04 be 3d 2f 5a 3e
       -0.04751429 0.1865317 -0.1298508 0.21307082
000090 5a 12 81 be 58 fa 62 be 4a b6 52 3e 84 3a bd 3e
       -0.25209314 -0.22165811 0.2057735 0.36958706
0000a0 2a af 5c be 25 14 81 3e 8a 07 d5 3d 6b c8 98 3e
       -0.21551195 0.25210682 0.104018286 0.29840407
0000b0 39 18 06 be 7f cb d6 3d 2f 19 7e 3e 22 17 8d be
       -0.13095178 0.104880325 0.24814294 -0.2755671
0000c0 6d 30 8f be 4e 5c 7d 3e 46 e7 1e 3e ed 5b 44 be
       -0.27966633 0.24742243 0.15517911 -0.19175692
0000d0 7e a7 81 3e af 56 9c 3e 63 56 31 3e a3 5b 9f 3d
       0.253231 0.30534884 0.1731811 0.0778115
0000e0 1c f6 0c 3e 8f 58 78 be 90 a3 f0 bd 0b 44 a3 3d
       0.13765758 -0.24252532 -0.11749947 0.079719625
0000f0 cc 07 1c be b2 6e 13 be 0d 8a 5e be ba 36 48 3e
       -0.1523735 -0.14397696 -0.2173235 0.19552127
000100 ec 4a 47 bd c5 3a 86 be cd b8 84 be a9 40 2b bd
       -0.048655435 -0.26216713 -0.25922242 -0.04180971
000110 21 40 e5 bc e5 5c 93 3d 40 b9 15 3e 2b 5a 19 3e
       -0.02798468 0.071954526 0.14621449 0.14975803
000120 50 dd b5 bd fe 34 f7 3c 67 e9 01 be 12 b9 5a 3e
       -0.08880103 0.030176636 -0.12686692 0.21359661
000130 24 63 11 3e 44 75 ad bd e9 0d e4 3d c3 4e 2b 3e
       0.14197975 -0.08469632 0.11135466 0.16729264
000140 d4 d5 bb bd 20 c8 52 be f7 db 08 bd bc 79 a0 bc
       -0.09171644 -0.20584154 -0.0334129 -0.019589297
000150 1c 06 40 be 71 00 5a 3e 38 7a 41 3e 7a 35 dd 3d
       -0.1875233 0.21289231 0.18894279 0.108012155
000160 61 29 8d be 19 38 a4 3c 00 e0 93 3d 62 c2 33 be
       -0.27570632 0.02004628 0.07220459 -0.1755462
000170 6a db 24 3e e4 f9 a8 3c 53 65 1c 3d 19 ad 02 3e
       0.16099325 0.02062697 0.038182568 0.12761344
000180 4d 0a 80 bd cb e2 06 be 84 61 96 3d 90 cf 89 3e
       -0.06251965 -0.13172452 0.073428184 0.2691617
000190 de 5b c5 3d 12 82 aa 3c a4 25 3f 3e f5 cf 87 3e
       0.09636663 0.020813975 0.18666703 0.26525846
0001a0 3e a5 c8 bd 2b 44 16 3e a6 3f b6 bc 07 6f bc bd
       -0.097971424 0.14674442 -0.022247147 -0.09200864
0001b0 4d 3b 94 bd e6 e0 43 3e 54 a1 4b be e8 35 cb 3b
       -0.07237873 0.1912876 -0.1988576 0.0062014945
0001c0 d3 af ba bc a2 00 89 be 6f ea a8 3d 10 0d 60 be
       -0.022788918 -0.26758295 0.0824784 -0.21879983
0001d0 d5 60 22 be 2f e9 32 be ea 33 42 be e7 80 35 3e
       -0.15857251 -0.17471765 -0.18965116 0.17724954
0001e0 5e 82 37 be 2e 3b c7 bd a9 44 3e be cc f3 4b 3e
       -0.17920825 -0.097280845 -0.1858088 0.1991722
0001f0 a2 04 71 3e eb 0b 89 bd 30 bc 41 be f7 a5 b6 3d
       0.23536924 -0.06691726 -0.18919444 0.08918374
000200 2a 07 67 3e 20 22 7e 3c 40 b7 2b bd fb 3f 07 be
       0.22561327 0.015511066 -0.041922808 -0.13208
000210 ce f4 67 3d 66 b9 85 be 24 4c 57 be 5a 4e 58 be
       0.05662995 -0.2611801 -0.21025139 -0.21123639
000220 d8 82 af bd a2 02 8d be 26 57 55 3e 42 db e8 bd
       -0.08569878 -0.2754107 0.20834026 -0.11369945
000230 e6 b8 35 3d 88 36 44 be 0f e0 ba bc 1f fc 32 3d
       0.044365786 -0.19161427 -0.022811918 0.043697473
000240 94 98 85 bd 1b 53 16 3e e3 30 84 bd a3 28 db bd
       -0.065232426 0.1468014 -0.06454637 -0.1070111
000250 68 15 cf 3d 6d bd 66 3e e3 00 0a 3d 30 19 bc 3c
       0.10111505 0.22533198 0.033692252 0.02296123
000260 79 cb 80 be bd b5 5e be 30 b7 93 3d 1a 39 40 3e
       -0.25155237 -0.21749015 0.072126746 0.18771783
000270 66 19 74 3c b3 47 35 3e 00 34 05 3e c0 ca 05 3e
       0.014898634 0.17703132 0.13008118 0.13065624
000280 18 37 95 3d 16 78 da 3d d7 ef 39 be e2 73 0c 3d
       0.07285899 0.10667436 -0.18157898 0.034290202
000290 6a 1d c5 3d c4 5c 25 3c 36 d3 eb bc 17 1f d2 3d
       0.09624751 0.010092918 -0.028787237 0.10259836
0002a0 65 03 cc 3d 08 ff a0 3d d9 50 a9 bd ce 32 bb 3c
       0.09961585 0.07861143 -0.082673736 0.022851374
0002b0 ff 4c 46 3c 6e c4 d7 3d 6d b7 3f bd a7 27 35 be
       0.012103318 0.10535513 -0.046805788 -0.17690907
0002c0 44 e5 40 be 80 54 7e bd 7f 8b a5 3d ae f8 9e bd
       -0.18837458 -0.062092304 0.080832474 -0.07762276
0002d0 4a 64 77 3d 3e 2d b1 bb ed cd 8d be 27 ad b8 bd
       0.060398377 -0.0054070046 -0.2769617 -0.09017401
0002e0 ec 95 6f 3d ea 25 31 bc 6c 40 fe bd 68 53 e4 3c
       0.058492586 -0.010812262 -0.12414631 0.027871802
0002f0 57 75 8f be c3 10 b4 bd c3 7a 18 3d b3 4e dd 3d
       -0.2801921 -0.087922595 0.03722645 0.10806026
000300 64 12 34 3e a4 6a 4a 3e 1f 16 37 3e af 20 43 3e
       0.1758514 0.19767243 0.17879532 0.19055437
000310 90 3c 82 3e 97 54 88 bd b8 98 25 3d 46 2d 69 3e
       0.2543683 -0.06656759 0.040428847 0.22771177
000320 90 49 56 bd 1c 2c eb bd 16 aa 05 3e fe a7 87 3e
       -0.05231625 -0.114830226 0.13053164 0.26495355
000330 e0 13 a1 bc 28 47 77 3b 76 83 75 be 7f 99 2f 3e
       -0.019662797 0.0037731621 -0.2397593 0.17148398
000340 22 0d 49 3c 17 c6 21 3e 67 fa 47 3e 05 a2 24 bd
       0.0122711975 0.15798222 0.19529115 -0.040193576
000350 4b 49 b4 bd 17 24 8d bd 71 60 3b 3e e1 e7 77 3e
       -0.08803042 -0.06891649 0.18298508 0.24209549
000360 f2 c1 c7 3d 93 93 76 bd 85 56 29 3e 3e 4c 26 be
       0.09753789 -0.06019933 0.16536911 -0.16240022
000370 d5 e6 39 be 34 39 f4 bd 69 d8 78 be de 0a 18 3e
       -0.18154462 -0.11924973 -0.24301304 0.14847896
000380 3d 4a 22 3e 03 a7 5a 3e 6f 59 9f 3d 95 ec 7c 3e
       0.15848632 0.21352772 0.0778073 0.24699624
000390 d8 8d 01 be fd 91 ad bd 59 16 04 3e ec 5f 3c 3e
       -0.12651765 -0.08475111 0.1289915 0.18395966
0003a0 67 73 d5 bd 37 f7 1e 3e 38 cb 97 bd 6c 86 c6 bd
       -0.10422402 0.15523992 -0.07411808 -0.09693608
0003b0 b3 13 ee 3c 19 65 07 3b 92 03 29 be a1 ce df 3d
       0.029062128 0.0020659624 -0.16505268 0.10928083
0003c0 e1 6b 16 be d9 3b 16 be e2 72 58 bc 9f e3 68 be
       -0.1468959 -0.14671268 -0.013210984 -0.2274308
0003d0 8a f1 f1 bd 1a 0c f7 bd 01 9d 8a bd 3b a9 23 be
       -0.11813648 -0.12062855 -0.06768227 -0.15982525
0003e0 a9 a6 44 3e c0 d1 87 be 13 98 ac bd 9f 57 6a 3e
       0.19204201 -0.26527214 -0.08427443 0.22884987
0003f0 61 0d 06 3e 2f dd 65 be b0 f7 d9 bd 6e bc 94 bc
       0.13091041 -0.22447656 -0.10642946 -0.018156257

encoder.blocks.0.mlp.fc2.bias f4 [16]
000000 75 a5 53 bd 4b 21 25 3d 52 63 0d 3d 36 74 d1 bb
       -0.051671464 0.040314954 0.034518547 -0.0063920273
000010 b9 57 e0 3c e3 ef 72 bb ea 27 01 3d 77 3c 14 bd
       0.02738558 -0.0037069253 0.031532206 -0.036190476
000020 38 a8 b5 bc ef 28 1c 3d 24 bc 0b ba c8 22 07 3c
       -0.02217494 0.038124975 -0.00053304643 0.008248039
000030 f5 ca 61 bc 82 53 a3 3c 2d 50 ea bb bb f7 86 bd
       -0.013781299 0.01993728 -0.007150671 -0.065902196

encoder.blocks.1.norm1.weight f4 [16]
000000 6e 85 87 3f 3f 55 8a 3f 21 61 83 3f 00 b9 81 3f
       1.0587595 1.0807265 1.0264016 1.0134583
000010 c2 a6 6c 3f f0 25 7d 3f cf 24 75 3f f2 3b 76 3f
       0.9244195 0.98886013 0.9575929 0.9618522
000020 a6 6e 86 3f 01 68 82 3f 36 57 8e 3f 2c 90 81 3f
       1.0502517 1.018799 1.1120365 1.0122123
000030 ce 08 82 3f 1f 5d 7d 3f d7 dc 82 3f 91 8a 6a 3f
       1.0158937 0.98970217 1.0223645 0.91617686

encoder.blocks.1.norm1.bias f4 [16]
000000 9f 3a 6a bd 54 37 2a 3d 2d 8d 29 3d 7d 71 a1 bb
       -0.05718481 0.04155667 0.0413944 -0.004926859
000010 1d 9c a1 3c 9f 84 91 3b 10 2c 22 3d 3a e3 21 bd
       0.01972776 0.0044408585 0.039592803 -0.03952334
000020 c4 32 e2 bc e5 64 42 3d 9f b8 0d 3b 5f 37 5c 3c
       -0.027612098 0.0474595 0.0021624935 0.013440936
000030 46 a9 bb bc 7c a4 ae 3c ec d4 84 bc c7 70 c6 bc
       -0.022907864 0.021318667 -0.01621481 -0.024223698

encoder.blocks.1.attn.qkv.weight f4 [48, 16]
000000 18 fc 22 be 34 1f 59 be 18 0f 9e 3b 05 d2 84 be
       -0.15916479 -0.2120331 0.0048235767 -0.25941482
000010 22 e1 8c be 9c 96 90 3e 5a e0 85 bd be 02 fe bd
       -0.27515513 0.28239906 -0.06536932 -0.12402867
000020 a8 92 97 be 07 33 3b bd dc 76 1b 3e 1a 77 84 be
       -0.29604077 -0.04570296 0.1518206 -0.25872117
000030 af 9b c2 bd 9f 42 7b be 0e 85 f6 3c 6c 8a d8 bb
       -0.095023505 -0.24537133 0.030092742 -0.006608298
000040 75 e0 45 be 8d d1 e6 bd 40 cc 8c 3d 5a d0 8c 3e
       -0.19323905 -0.112704374 0.06874895 0.2750271
000050 4f 5d 74 3d af 0b b3 bd d1 87 94 3e 8d c5 af 3d
       0.0596593 -0.08742463 0.2900987 0.08582602
000060 05 65 92 bd f6 4d 4b 3d 55 c4 b5 bd 2e bb fd bd
       -0.07148174 0.049634896 -0.08875338 -0.12389217
000070 11 6b 32 3e c4 85 03 3e 23 40 7f be ae ac 9d be
       0.17423655 0.12843996 -0.2492681 -0.30795807
000080 cf 0e b1 be ea f1 23 3e 9b 0b 6a 3e b2 d2 41 be
       -0.3458161 0.16010252 0.2285599 -0.1892803
000090 72 99 43 3e 41 0d c1 3e 93 b5 26 3c 4f 3d 87 3e
       0.19101503 0.37705424 0.010175127 0.26413962
0000a0 b6 32 fa bd a2 c0 af 3e 7c cd 08 3d be 10 6b be
       -0.122167036 0.34326655 0.03339909 -0.22955605
0000b0 e1 8f 93 be 86 4a 43 be 9b da 9d be 2e b0 6c 3d
       -0.28820708 -0.19071397 -0.30830845 0.057785206
0000c0 f5 c9 c6 3d 71 0a c0 3d 5b 65 c9 bc 0b d4 11 3e
       0.09706489 0.093769915 -0.024584463 0.14241044
0000d0 d6 00 5d bc 8b 4e bb 3e 46 f8 ed 3c cd 5a 81 be
       -0.013488969 0.3658336 0.02904905 -0.25264588
0000e0 d8 7c be be c0 e2 b9 bc a0 aa cf bd 2c 86 5f 3e
       -0.37204623 -0.02269113 -0.10139966 0.21828526
0000f0 38 f3 ee 3d 00 18 9b 3e c1 e4 94 be 06 99 0b 3e
       0.11667484 0.30291748 -0.29080775 0.13632593
000100 1b a7 cd 3d c2 e2 07 3d fb b5 0e be 10 ef 71 be
       0.100416385 0.033175237 -0.13936608 -0.23626351
000110 6f 5e fb 3d 18 f6 8b 3e c4 a3 1e be 49 58 e3 bd
       0.12273871 0.27336192 -0.15492159 -0.111008234
000120 3b 33 7e bc 6a 8e 79 bd 8b 54 26 3e 08 c7 9f bd
       -0.015515144 -0.060926832 0.16243188 -0.07801634
000130 7e 3f 52 bd cb 6e 50 3e 77 39 ee ba d6 8d c7 3d
       -0.051330082 0.20354764 -0.0018175085 0.0974385
000140 46 e5 a6 bd f5 4f 8f 3e d4 fc ba 3e fe b5 54 3d
       -0.08149199 0.2799069 0.36521018 0.051931374
000150 0c 05 4f be 9b 1a 2f 3e 50 8e 19 be 13 94 0e 3d
       -0.20216769 0.17099993 -0.14995694 0.034809183
000160 a7 59 fb 3d 44 fa 5d 3e 53 ba 05 3e 1b 0f 99 3e
       0.12272959 0.216775 0.13059358 0.29894337
000170 ba 4d 2f 3d 26 9c 6e 3d 7a 4b 4f be 60 08 98 3d
       0.042798735 0.058254384 -0.20243636 0.074234724
000180 c8 93 92 be 48 ec 86 3d 6e cd 41 3e 67 f2 dc bc
       -0.28628373 0.06588036 0.18926021 -0.026971055
000190 cc 7c 4b be bf 82 87 3e 5d c2 69 3e 01 b5 8c bd
       -0.19871825 0.2646694 0.2282805 -0.06870461
0001a0 f9 eb 49 3e 15 bc a2 3e 6e e1 3a be d9 4a 81 3e
       0.19718923 0.3178412 -0.18250057 0.25252417
0001b0 e5 f7 f3 bd cf 64 a5 3c 47 b2 8b be 8f d3 27 be
       -0.119125165 0.02018967 -0.27284452 -0.16389297
0001c0 8a 24 83 be 2c 92 6d 3d fd 53 95 3e 85 76 a1 3c
       -0.25613815 0.05800073 0.2916564 0.019709835
0001d0 01 38 18 be c9 4c c9 bd c1 a9 f6 3d 8c 2c 83 be
       -0.14865114 -0.09829099 0.12044097 -0.25619924
0001e0 e5 59 b6 be cf 3e da 3e 5d a9 48 3e 80 8f 12 be
       -0.3561546 0.42626044 0.19595857 -0.14312553
0001f0 fa 7d 86 be fe dd c0 3e ab 59 cd be af 68 c9 3e
       -0.26267987 0.37669367 -0.40107474 0.3933768
000200 23 5a 91 3e f0 c1 cb be ff 98 26 be 55 f0 3b be
       0.2838908 -0.397964 -0.16269301 -0.18353398
000210 e1 95 0d bd 9b e6 a5 be f1 7b 25 3e 61 1a 21 be
       -0.034566764 -0.324025 0.16160561 -0.15732719
000220 2e d4 b6 bd 51 a1 47 be 3f 71 11 be 4c 9d 4c 3c
       -0.08927189 -0.19495131 -0.14203356 0.012488674
000230 a3 ff 5d be d5 ca 98 be e0 b1 a7 3e d7 d7 cb bd
       -0.21679549 -0.2984225 0.32752895 -0.099532776
000240 23 f9 3b 3e c7 ed ab 3e 70 48 c7 bd 2f 62 ac 3e
       0.18356757 0.33579847 -0.09730613 0.33668658
000250 1b 43 4b be d9 f1 91 bd ce 11 18 3e 53 ab 8b bd
       -0.19849817 -0.07126207 0.14850542 -0.06819787
000260 8a 9e 46 3e 4d 6b cf 3d bd 6a 2f be 9f 0c 84 be
       0.19396415 0.10127888 -0.17130561 -0.2579088
000270 30 74 ae be cb de 6e 3e a8 98 af bc 59 24 ad 3e
       -0.3407302 0.23327176 -0.021435097 0.33816794
000280 40 20 15 3e 56 11 07 3e c4 69 67 be fa 6e 0e 3e
       0.14563084 0.13190207 -0.2259894 0.13909522
000290 88 bc 64 3e 45 b2 fd 3d 82 8a 6c bd 82 74 57 3e
       0.22337544 0.12387518 -0.05774928 0.21040538
0002a0 a3 42 47 bd 98 7f f0 3d f5 f7 69 be ce ae 00 3e
       -0.048647534 0.117430866 -0.22848494 0.12566683
0002b0 51 16 ef 3d 14 1b bd 3d b7 38 34 be 74 30 91 3e
       0.116741784 0.0923368 -0.1759976 0.2835728
0002c0 62 25 e8 3d 32 e2 c1 be 4d 2f f7 3d 2c 6c 34 3e
       0.11335255 -0.37867886 0.12069569 0.1761939
0002d0 9b e3 1d 3e 67 f6 c0 bd 73 2b 1a 3e d1 80 7b bd
       0.15418856 -0.094219975 0.15055637 -0.061402146
0002e0 a2 35 84 3e 0a f7 7a be 39 f9 88 3e 01 5c 2f be
       0.2582217 -0.245083 0.26752642 -0.1712494
0002f0 84 34 6d bd 67 ad 8e 3e cb d7 0c bd d3 8c 91 3e
       -0.05791141 0.2786667 -0.034385484 0.28427753
000300 b1 2e 55 be 27 32 cc 3c c4 85 86 3e 76 de 0c 3d
       -0.20818593 0.024926258 0.2627393 0.034391843
000310 1f ed 45 3e 63 0c 89 3e 4d a8 69 be 7f 01 63 bc
       0.19328736 0.26767263 -0.22818108 -0.013855337
000320 c2 25 13 3e 10 0e 6a 3e 6e 7a 37 3e ae 60 93 be
       0.14369872 0.22856927 0.17917797 -0.28784698
000330 a6 a7 95 3e ec 71 83 3c f9 73 47 be 8d 8a 61 bd
       0.29229468 0.016045533 -0.19477834 -0.055063773
000340 15 83 f8 3d 0d 05 84 be 5b d7 98 bc 2c ed 4b be
       0.12134377 -0.25785103 -0.018657377 -0.19914693
000350 e6 7b 98 3e e7 90 2c 3e 7b d4 42 be b9 8d 81 3d
       0.29782027 0.16852151 -0.19026367 0.063258596
000360 f3 fa 7e 3e ac 53 72 bc 25 a5 0d be 60 8f 21 3e
       0.24900417 -0.014790457 -0.13832529 0.1577735
000370 43 c3 fe bc e8 67 f3 3d ff 71 81 be 93 65 a0 3d
       -0.031098967 0.11885053 -0.25282285 0.07831874
000380 3c c4 a4 3d 90 c3 6d be 59 6b 09 bf e6 9f fa 3d
       0.08045241 -0.23219132 -0.53679425 0.122375295
000390 fe c3 1a bc 28 45 b7 bd 86 fb 19 3e a2 11 fd bd
       -0.009446142 -0.089487374 0.15037355 -0.12356879
0003a0 46 06 86 be 23 2d 9d bd 64 3d 23 3d dc c6 ac bc
       -0.2617666 -0.07674625 0.03985347 -0.021090917
0003b0 94 34 88 3e 89 98 48 be f9 aa 02 be 09 68 3a be
       0.26602614 -0.19589438 -0.12760533 -0.18203749
0003c0 ce fa a1 3c 07 ff 24 3d 9d 4f fe bc 8b 0e 95 be
       0.019772913 0.040282276 -0.031043822 -0.29112658
0003d0 b2 70 2e bd 32 69 02 3e 1a e7 8d 3e 5a 55 8c 3d
       -0.042587943 0.12735441 0.2771538 0.06852217
0003e0 1c d2 a5 3e 36 e2 18 3e a8 f9 a1 3d ab 75 09 3e
       0.32386863 0.14930043 0.07908946 0.13423793
0003f0 57 0c 99 be e5 eb c2 bd f5 dc 8f 3e 15 be 87 be
       -0.29892227 -0.095176496 0.28098264 -0.2651221

encoder.blocks.1.attn.proj.weight f4 [16, 16]
000000 c2 5e a7 3e ee b7 36 3e 9d 5f cf 3d e7 59 70 be
       0.32689482 0.17843601 0.10125659 -0.23471795
000010 5b ad 5e 3e 77 c9 cb 3c de 1e 5c bd 58 a8 8e 3e
       0.21745817 0.02487634 -0.053740375 0.2786281
000020 35 0c 66 bd 43 6c ae be d3 5d cd 3d e3 76 8d be
       -0.056163985 -0.34066972 0.10027661 -0.27629766
000030 f9 42 b1 3e 84 53 de 3d 65 2a 1b 3e f4 23 b8 bd
       0.3462141 0.10855773 0.15152891 -0.089912325
000040 cd a8 66 be f0 4f cd 3e 62 72 12 bd 8a 66 92 bd
       -0.2252533 0.4010005 -0.035753615 -0.07148464
000050 d2 24 d3 3b ae b0 d6 be 2e 4e 46 3e 3f 5f f9 bb
       0.0064435983 -0.4193167 0.1936576 -0.007610231
000060 c0 2d 76 bd 9b 7e 69 3e ba b0 75 3e ec 59 68 be
       -0.060102224 0.22802202 0.23993197 -0.22690552
000070 b7 44 62 3e d3 06 8c be a1 49 dd be 2d a3 aa 3e
       0.22096525 -0.27348956 -0.43220237 0.33327618
000080 07 e9 a7 bb 98 03 3d be 0f db c6 3c 77 5e b6 be
       -0.0051242146 -0.18458402 0.024274377 -0.35618946
000090 70 64 4c be ec c4 ad 3e 21 d4 80 3e 0d a3 d9 3e
       -0.19960189 0.33939302 0.25161842 0.4250721
0000a0 ca a2 31 be d1 3e d8 3d 89 a9 a2 be df 15 8b be
       -0.17347255 0.10558856 -0.3176997 -0.27165124
0000b0 41 04 6c be 51 9c 80 be ef b4 48 bb 4d 7c a5 3e
       -0.23048498 -0.2511926 -0.0030625423 0.32321396
0000c0 9a 97 94 3e cf f6 1e be d5 2d c9 3e fb 50 de 3e
       0.29021913 -0.15523838 0.3929278 0.43421158
0000d0 23 b6 51 3c 2e 4b 23 3e eb 4d 34 3e 70 5d b5 3d
       0.012799772 0.15946648 0.17607848 0.088557124
0000e0 a5 01 81 3e 1f 5d ce be 95 e5 fd bd a8 b3 6c be
       0.25196567 -0.4030542 -0.12397305 -0.23115408
0000f0 7d 2c bc be 46 a0 c1 3e fb 23 85 be 1e c6 6e be
       -0.36752692 0.3781759 -0.26004013 -0.23317763
000100 91 97 bb be b1 08 b6 be b7 cc 4e 3e 8f 0e 4a be
       -0.36639073 -0.35553506 0.2019528 -0.19732116
000110 5c 87 a2 be 6f 97 03 3e a4 f1 2c be 5d ab 80 3e
       -0.31743896 0.12850736 -0.16889054 0.2513074
000120 26 95 a9 3d fc 78 07 be d8 64 6d 3e c8 05 8d 3e
       0.08280401 -0.13229746 0.23183 0.27543473
000130 30 df 81 3e 32 25 5d be ba 7d b3 3e 20 15 4f 3e
       0.2536559 -0.2159622 0.3505686 0.20222902
000140 ea 04 9b 3e 6f da c3 3e 55 8a eb 3d 33 c3 51 bc
       0.30277187 0.3825259 0.11500994 -0.012802887
000150 13 28 2c 3e 06 0b 15 bd 62 86 f7 bd 12 13 be 3e
       0.16812162 -0.036387466 -0.12086178 0.37123924
000160 a3 7e 11 bd 10 83 a7 3d da ae 2e 3e 75 cd 0d 3e
       -0.03552116 0.08179295 0.17058888 0.13847907
000170 47 fe 7b be 4f 64 8a 3e a4 f2 ef bd 85 f7 cb bd
       -0.24608718 0.27029654 -0.11716202 -0.0995932
000180 5d 01 99 bd 41 27 96 be 44 7d 5c be eb bd 14 3f
       -0.07470963 -0.29326823 -0.2153216 0.5810229
000190 7e 15 76 3e 26 56 8d be af 98 25 be 9a 6d 90 be
       0.24031636 -0.2760479 -0.16171525 -0.2820862
0001a0 7e 3c 60 be 37 5a e2 3d 85 22 c9 3d 86 ad d4 bd
       -0.21898076 0.11052363 0.09821037 -0.103846595
0001b0 8e e7 41 3e 3a e2 7f be 58 53 e3 3d 4a 0d 63 be
       0.18935987 -0.24988642 0.11099881 -0.22173038
0001c0 7d 39 7b 3e b3 df 97 3e 23 82 86 be bc d6 11 3e
       0.24533649 0.29662856 -0.2627116 0.14242071
0001d0 a8 19 9a 3e f9 46 b6 3e 38 ed b6 be 5e 3d b6 3d
       0.300977 0.35601023 -0.3572786 0.088984236
0001e0 fe 50 8e bd 8d bd 4f be 79 d6 76 bd 57 dc 6b be
       -0.06949042 -0.20287152 -0.06026313 -0.23033272
0001f0 79 1c 7b be c5 9c 3c 3e f1 f0 80 ba 46 08 83 3e
       -0.2452258 0.18419178 -0.0009837431 0.2559225
000200 5f 5a 49 be ae be 34 be c0 b2 d4 be 43 ce bd 3e
       -0.1966338 -0.17650864 -0.41542625 0.37071428
000210 f3 87 ee be 82 79 6e be 9e 60 3e bd 62 7e d1 3d
       -0.46588096 -0.23288539 -0.04647886 0.10229184
000220 aa c5 42 be 7b 5c 21 bc 53 f7 b8 be 8f ff ed be
       -0.19020715 -0.009848709 -0.36126193 -0.46484038
000230 2b e4 ac be ff 7b cf 3e 38 de 96 bd dc 4b 1f be
       -0.33767828 0.4052429 -0.073666036 -0.15556282
000240 39 bc 86 3e 9c dd 28 3e da 7e 65 3d e8 cc b8 3d
       0.26315477 0.16490787 0.05602918 0.09023458
000250 1b 98 28 3e 04 ef f7 3d f5 81 b2 3e 91 8b a6 3d
       0.16464274 0.121061355 0.34864774 0.08132089
000260 8e 23 de 3d ce 9b 26 be 84 70 03 bd 45 e4 b2 3e
       0.10846625 -0.16270372 -0.032089725 0.3493978
000270 ef 49 d9 be c6 62 2a 3e 0e 1e c9 3e d5 d7 42 be
       -0.4243922 0.16639242 0.39280742 -0.19027646
000280 b5 f8 dd be c5 8c dd 3c da f6 ce bd 15 69 af 3e
       -0.4335381 0.027044663 -0.10105677 0.3425986
000290 d2 c4 00 be b9 55 53 3e 8d b0 e0 be 29 10 21 be
       -0.12575081 0.2063817 -0.43884698 -0.15728821
0002a0 ab 9d 93 be ce 40 b7 be b9 d3 99 3e e1 2d cc 3e
       -0.2883123 -0.3579163 0.30044344 0.39878753
0002b0 17 9c c3 be 3d 44 b5 3e 19 cd c5 be d2 b0 09 be
       -0.38205025 0.35403624 -0.3863304 -0.13446358
0002c0 7b f6 ae 3e 4d ee 1b 3e d6 b6 41 bd ae 52 1b be
       0.34172425 0.15227623 -0.047293507 -0.15168259
0002d0 9b 2e e0 be b3 a3 56 be 97 f4 b0 be a8 59 f4 3d
       -0.43785557 -0.20960884 -0.34561607 0.11931163
0002e0 2f da bf 3e 95 c2 52 3e c0 e4 a1 bd d4 e9 c4 3e
       0.37471148 0.2058204 -0.07904959 0.38459647
0002f0 52 f0 8b 3e 47 bc 1f 3d b0 2c 6c 3e 07 65 6e 3e
       0.27331787 0.038997915 0.23063922 0.23280726
000300 42 a2 6d 3c 23 0f 7b 3e 34 00 bf be ae 54 95 3e
       0.014504017 0.24517493 -0.37304842 0.29166168
000310 1d a6 e3 be 03 19 f8 3b 32 e9 b1 be 3d e4 8d be
       -0.44462672 0.007571341 -0.34748226 -0.27713194
000320 d2 a8 9e bd 67 96 70 3e 1f f5 72 3d e1 0c 94 3d
       -0.07747044 0.23494874 0.059315797 0.07229019
000330 87 ca 77 3e 59 ed c9 3d f3 f7 bb 3d db e2 f1 bd
       0.24198352 0.098597236 0.09178152 -0.11810847
000340 18 5b 96 be d8 15 e0 be 31 67 7e be f0 e3 a9 bc
       -0.29366374 -0.43766665 -0.24844052 -0.020738572
000350 f2 5f 96 3d 1d 0d a0 3e 57 9a 12 bd 00 ce 6d be
       0.07342519 0.31260005 -0.03579172 -0.23223114
000360 1e 7e d4 3e b3 67 91 3e 09 5b de 3e c8 5e e2 3d
       0.4150247 0.2839943 0.4342883 0.11053234
000370 7a 9b 5c be bb 34 d1 bd 80 d0 65 be 77 00 f5 bc
       -0.21543685 -0.10215136 -0.22442818 -0.029907448
000380 d0 e2 05 be 21 34 34 bc 7e 35 da be f2 b7 c3 be
       -0.13074803 -0.010998757 -0.42618936 -0.38226277
000390 0d b7 be be 09 4f d9 3d 51 d7 a9 3e 53 59 d3 be
       -0.37249032 0.10610778 0.33172086 -0.41279086
0003a0 bb 3f 98 be 80 b6 47 be 21 be bd 3e d3 d0 6f 3e
       -0.29736122 -0.19503212 0.3705912 0.23419504
0003b0 97 a9 90 3d 08 6c ec 3d bf 6c 5b bd ad 5a cf bc
       0.07063597 0.11544043 -0.053570505 -0.025311792
0003c0 b8 4d fe 3d c1 11 69 be 3b 33 2d 3e 86 f7 a6 3e
       0.124171674 -0.22760679 0.16914074 0.3261072
0003d0 e0 49 f2 be 14 db d5 bd 26 02 90 be 37 1b 80 3e
       -0.47321987 -0.104421765 -0.2812664 0.25020763
0003e0 3a 3f d2 3e 73 30 0f 3e b6 e7 3d be 07 52 b4 be
       0.41063863 0.13983326 -0.18545422 -0.35218832
0003f0 e2 52 87 3d b3 7a 9f bc 98 62 12 be 0c 02 da 3e
       0.066076055 -0.019467687 -0.14295423 0.42579687
