Checkpoint/dict_14.pth (torch, 108787 bytes, 64 tensors)

encoder.cls_token f4 [1, 1, 16]
000000 df f8 3c bf fb 85 1f c0 fd 63 7e bf 7b 25 26 3e
       -0.7381725 -2.4925525 -0.9937132 0.16225235
000010 67 51 86 bf ea d5 0a 40 a8 d8 24 3f 89 5d 6f be
       -1.0493592 2.1693063 0.6439309 -0.23375525
000020 9b 40 08 3f 21 54 8d be ee 0e af bf cb e4 41 3f
       0.5322358 -0.27603248 -1.3676431 0.75739735
000030 c3 09 62 3f 52 88 15 bf 75 a6 77 bf 20 3a a2 bf
       0.88296145 -0.58411133 -0.9673837 -1.2673988

encoder.patch_embed.weight f4 [16, 5]
000000 6c a6 f6 bd e4 17 b0 be d5 33 a3 3b 5b 1e f4 be
       -0.12043461 -0.34393227 0.004980544 -0.4767941
000010 18 b4 d3 3e f2 72 16 3e de 61 12 3f ca d1 b4 be
       0.41348338 0.14692286 0.57180583 -0.35316306
000020 7f c1 57 3e 8f ce 98 bd e8 06 0f bf bb 6c 5f 3e
       0.21069907 -0.07461273 -0.55869913 0.21818821
000030 a6 e8 e2 3c 42 3a 4a 3e eb b5 69 3d a5 87 c3 3d
       0.027698826 0.19748786 0.057058256 0.095473565
000040 f7 41 3c bf 06 9f e6 3e f7 29 81 be 7f 8a c8 3d
       -0.73538154 0.450432 -0.2522733 0.09792041
000050 80 bc f5 be ea 60 1d 3f 2d 12 c8 3e 40 34 18 bd
       -0.47995377 0.61476004 0.39076367 -0.037159204
000060 94 a0 95 be 32 83 01 3f d1 c7 ad be 5a 81 19 3f
       -0.29224074 0.50590813 -0.3394151 0.59963
000070 bb a7 be be e0 9b 8d be 1d 9b 12 be f1 2d 9f be
       -0.37237343 -0.27657986 -0.14316984 -0.31089738
000080 34 9a 20 be b7 97 d9 be a5 72 1a 3e 05 71 04 bf
       -0.15683824 -0.42498562 0.15082796 -0.51734954
000090 86 7d 01 bf 36 61 50 bb 0c 14 82 3e ba 07 f6 bd
       -0.5058216 -0.0031796223 0.2540592 -0.120131925
0000a0 7d 50 c4 be fe 37 09 bc b8 96 7c 3d f0 1b 2d 3e
       -0.38342658 -0.008375166 0.061667174 0.16905189
0000b0 9f 0f 77 be d8 81 50 be c6 9a 4a be 1f 35 a1 3d
       -0.24127053 -0.20362031 -0.19785604 0.0787146
0000c0 30 2c e7 3e 42 40 a4 3e e7 31 32 3e 46 c4 80 bd
       0.451509 0.32080275 0.17401849 -0.06287436
0000d0 bb 80 6e 3e a4 96 ff 3d 12 03 17 bf 98 cd 84 3e
       0.23291294 0.12479904 -0.5898906 0.25938106
0000e0 21 88 91 be e7 df b8 bc 1d 24 56 bd 78 c1 18 3f
       -0.2842417 -0.022567702 -0.052280534 0.5967021
0000f0 d4 97 da be ff 3a 87 bd d7 84 3f be 0b 25 84 be
       -0.4269396 -0.066030495 -0.18703018 -0.25809512
000100 00 ae 0b be fd 43 e5 3d 4d 64 ab 3e ed 52 87 3e
       -0.13640594 0.11194608 0.3347496 0.26430455
000110 14 e6 98 3e 02 fe 07 3f 2a c8 cd 3e 26 32 3a 3e
       0.29863036 0.5312196 0.40191776 0.18183193
000120 b5 f7 b4 bc 0f 81 20 3f ec 4b 01 bf 90 fe 40 bd
       -0.022090772 0.6269693 -0.5050647 -0.04711777
000130 46 f4 af 3e 36 b4 43 3e eb db 12 3f 2a 79 91 be
       0.34366053 0.19111714 0.5736682 -0.28412753

encoder.patch_embed.bias f4 [16]
000000 5d 0e 01 3e 62 18 e2 bb ec 9a 6e bc f0 a2 0b bd
       0.12603135 -0.0068998793 -0.014563303 -0.034090936
000010 7e d9 70 bc 51 4e 9a bd bb 7a a5 bc 89 45 76 bd
       -0.014700292 -0.07534469 -0.020200124 -0.060124908
000020 10 95 bf 3c 13 6a e1 3d 4f 35 fb bc b3 01 56 3d
       0.023386508 0.1100656 -0.030665068 0.052247714
000030 38 1f b2 3d 6d 65 d5 3c f2 d8 02 3d 5e 06 b0 bd
       0.08697361 0.02604934 0.031945176 -0.085949644

encoder.blocks.0.norm1.weight f4 [16]
000000 bd 09 7f 3f 49 87 61 3f 0e 1f 90 3f f2 dc 91 3f
       0.99624234 0.88097054 1.1259477 1.1395552
000010 09 ac 8e 3f a1 50 80 3f c0 2a 96 3f 55 d8 79 3f
       1.1146251 1.0024606 1.1731796 0.9759572
000020 a3 ba 75 3f 16 a6 89 3f 63 fd 8e 3f 94 a0 87 3f
       0.9598791 1.075381 1.1171077 1.059588
000030 c4 97 69 3f 2a f8 8e 3f bf 84 77 3f 59 5f 7d 3f
       0.912472 1.1169484 0.9668693 0.98973614

encoder.blocks.0.norm1.bias f4 [16]
000000 bc ca 8d bc 03 da 7f bd 65 d3 c6 bc c5 1d 4f 3d
       -0.017308585 -0.06246377 -0.024270723 0.0505655
000010 20 19 82 bd 46 70 44 bc 70 c7 98 bd 3a a1 60 3c
       -0.063524485 -0.011989659 -0.07459915 0.013710314
000020 c5 da b0 3d 62 83 98 3d 02 13 36 bd 08 92 27 3d
       0.08635477 0.07446934 -0.04445172 0.04091075
000030 15 52 ef 3c 21 b6 aa 3c ad 1a c6 3c 16 66 c7 bc
       0.029213944 0.020838799 0.024182642 -0.02434067

encoder.blocks.0.attn.qkv.weight f4 [48, 16]
000000 75 f4 66 3e 85 5e 1d 3f 49 e7 a5 be 48 cb ac be
       0.2255419 0.6147235 -0.3240302 -0.3374884
000010 0f 39 ab 3e 96 1c 93 be ec 6a 3e be 95 80 32 be
       0.3344197 -0.28732747 -0.18595475 -0.17431863
000020 5f 1d 71 be d0 d3 41 3e b2 43 da bd 1c 77 84 bd
       -0.2354636 0.18928456 -0.10657443 -0.06468031
000030 bf 4e 03 be c3 14 9c 3e 5f 22 bc 3e fc 1e 0d be
       -0.12823008 0.3048459 0.36744973 -0.13781351
000040 96 9b 82 3c 87 68 87 bd 62 17 48 3e d1 8b aa be
       0.01594333 -0.06611734 0.1954017 -0.33309796
000050 27 d1 a7 3e ff 81 9d bd 59 3d be 3e a8 95 4c be
       0.32776758 -0.076908104 0.3715618 -0.19978964
000060 a7 b3 23 be 70 85 a9 be 00 07 03 be 2b ad 09 bd
       -0.159865 -0.33109617 -0.12795639 -0.03361241
000070 6b 5c a6 bd b6 72 b3 be 26 2d ad 3d 71 10 40 3e
       -0.08123096 -0.35048455 0.08455877 0.18756272
000080 04 4b e9 be 01 77 11 be ec 44 33 3c b9 21 b4 bd
       -0.45565045 -0.14205553 0.010941725 -0.087954946
000090 72 9b ac bd 2f 90 18 3d ca 2e c0 be 1e ba 04 3e
       -0.08428086 0.03724688 -0.37535697 0.12961623
0000a0 12 6a f3 3e 0f 26 c0 3d b0 20 70 be 92 57 cb 3e
       0.47541863 0.09382259 -0.2344997 0.39715248
0000b0 42 07 16 3d 0d 08 e4 3d c8 c6 4b bc e3 ee b3 3e
       0.036628015 0.11134348 -0.01243753 0.35143194
0000c0 a2 2a 02 be 63 5b 7d be 50 76 80 3e 8f a2 88 be
       -0.12711576 -0.24741893 0.25090265 -0.26686522
0000d0 02 3e 1d be 30 a3 47 3c a1 35 70 be 99 18 8e 3e
       -0.15355685 0.012184903 -0.23457958 0.27753142
0000e0 90 58 78 3e 3f d1 48 3e bb dd d8 be fa 2a ae bd
       0.24252534 0.19611071 -0.42356667 -0.08504291
0000f0 3f 95 78 3e 52 53 73 3e fb ec 0d be b0 70 72 be
       0.24275683 0.23762253 -0.13859932 -0.236758
000100 48 81 55 3d f1 fc a0 3e 7d 7c 0f 3e 51 d2 e8 bd
       0.052125245 0.3144298 0.14012332 -0.1136824
000110 13 de 75 be e9 31 1f 3e 75 be cf 3d 74 64 60 bd
       -0.24010496 0.15546383 0.10143749 -0.0547833
000120 5b cf b0 be 68 c9 6e 3c f7 78 59 3d c5 e8 80 3d
       -0.345332 0.014574386 0.053093877 0.06294397
000130 ce 43 6f be 12 6f 49 be aa 35 1c 3e f5 16 5e be
       -0.23365709 -0.19671276 0.15254846 -0.21688445
000140 be 99 1d 3e 07 7e 8a 3d 79 74 ec 3d 7c 4b bf 3c
       0.15390679 0.06762319 0.11545653 0.023351423
000150 97 b3 43 3e a8 a6 0b be 75 05 fd 3d 2a 05 d3 3d
       0.19111477 -0.13637793 0.123545565 0.10303719
000160 fd 7b ea bd e7 ef 0b 3e 2a 82 13 bd 91 96 75 3e
       -0.1144943 0.13665734 -0.036012806 0.23983218
000170 e1 aa 47 3a 88 33 2b bd 26 4e 5d 3e 08 55 21 3d
       0.00076167105 -0.04179719 0.21611843 0.039387733
000180 7c e8 12 be 07 f2 72 be d7 00 34 3e 30 ee a4 3d
       -0.14346498 -0.23725139 0.17578445 0.08053243
000190 ed 84 da bd 2c d7 07 3d 66 c8 aa be d7 35 34 3e
       -0.10669885 0.03316419 -0.33356017 0.17598663
0001a0 57 75 ce 3c 51 71 7f 3d 24 18 96 3e 4a 70 02 be
       0.025202436 0.062363926 0.29315293 -0.12738147
0001b0 ff 6b 58 be 63 c8 93 3e bd e4 25 be 6a 97 5f be
       -0.21134947 0.2886382 -0.16200538 -0.21835104
0001c0 07 37 ee bd 73 38 46 be 9a 2b 52 bd 1b d2 84 3d
       -0.116315894 -0.19357471 -0.051311113 0.06485387
0001d0 38 a7 31 bd 08 95 b1 be fb c9 a1 3e b3 ba c0 be
       -0.043372363 -0.34684014 0.3159941 -0.3764244
0001e0 d8 a9 46 3d c1 d0 e2 3d 1d 05 9f 3e 6d 59 d3 3d
       0.04850182 0.11074973 0.3105859 0.10319791
0001f0 37 e4 44 3e 60 b0 7a 3d f4 8c 9e 3c e8 f1 ba 3c
       0.19227682 0.06120336 0.019354321 0.022820428
000200 88 43 b2 3e 58 54 8b be 8c 59 80 3e 2d 3b 9f be
       0.34817147 -0.27212787 0.2506832 -0.31099835
000210 d0 31 8a 3e de dc fb bd 47 ca de bd 73 41 08 be
       0.2699113 -0.122979864 -0.10878425 -0.13306217
000220 46 61 9f be 10 f8 a5 3e b2 33 bb bc 56 e0 0c 3e
       -0.311289 0.3241582 -0.022851799 0.13757452
000230 b2 0b 6a be e7 fa 99 3e a4 a7 9b bd da d0 60 be
       -0.22856024 0.30074236 -0.07600334 -0.2195467
000240 72 4a 7b be 11 65 e4 3d 40 d7 b6 3e e3 76 b0 3d
       -0.24540117 0.111520894 0.35711098 0.08616426
000250 b6 5c 89 3e 59 2a 11 be b5 0d 86 3e bc 6a 03 3d
       0.26828545 -0.1417631 0.26182333 0.03208421
000260 ad b6 80 3e 02 6c ac 3d ea b1 0e 3e ea 6e 4c bd
       0.2513937 0.08419038 0.13935056 -0.049910463
000270 a0 04 72 3e 24 8f 6c be 72 d8 e9 3d 06 60 10 3e
       0.23634577 -0.23101479 0.11418237 0.1409913
000280 c2 8d a6 3e 70 b4 31 bd e3 f3 d6 3d 5d 1d 7c be
       0.32530028 -0.04338497 0.104957364 -0.24620576
000290 19 6a cf 3b ea 77 4e 3d 66 3a 5d be 62 5b 6b be
       0.0063297865 0.050407328 -0.21604308 -0.22984079
0002a0 1d 15 8a bd b2 4e e1 3c e0 99 80 3e c3 87 8e 3d
       -0.06742308 0.027503345 0.25117397 0.06959488
0002b0 17 9d fd 3c 9c f7 5a be 36 f0 93 3e 25 44 7a 3e
       0.030958695 -0.21383518 0.28894204 0.24440058
0002c0 5d 51 95 3e dc fd 0e be 31 22 95 3d 7e 16 b3 be
       0.29163638 -0.13964027 0.07281912 -0.34978098
0002d0 10 de 6a 3e 7f 70 39 3e d6 87 d5 3d aa 72 f1 3d
       0.22936273 0.1810932 0.10426299 0.117894486
0002e0 d1 50 a0 3e bf 1e 5d bd e8 13 c7 bd b8 90 8c 3d
       0.31311658 -0.0539844 -0.09720594 0.068635404
0002f0 76 b2 24 3e 4c d8 93 be 58 34 2f be 74 8b 53 3e
       0.16083702 -0.2887596 -0.17109811 0.20658666
000300 16 11 88 bc c8 9c 5b bd 80 aa e4 3d b8 ab 8a be
       -0.01660971 -0.053616315 0.11165333 -0.27084136
000310 b7 60 2f be 4c c4 3e 3e ee eb c0 3d 18 e3 86 3d
       -0.17126738 0.18629569 0.0942 0.065862834
000320 e1 07 d0 be 3b c4 1e 3f 45 d7 d6 bd c1 4a 88 be
       -0.4063101 0.62018174 -0.10490278 -0.26619533
000330 83 ee 0a bb ec 82 92 be 87 17 36 3c 63 e3 d6 bd
       -0.0021199293 -0.2861551 0.011114008 -0.10492589
000340 63 30 b6 3e 57 73 95 3e d4 b5 41 be 1e 68 cd bd
       0.3558379 0.2918956 -0.18917018 -0.100296244
000350 64 24 a0 3d 3a 63 7e be 06 98 24 3e 75 5b cf be
       0.07819441 -0.2484254 0.16073617 -0.40499464
000360 a9 1d 18 be 16 ef e9 3d fb 25 64 3c 1c 77 18 bd
       -0.14855064 0.11422555 0.013925071 -0.037222967
000370 3f 6c d4 3c 9f bf 10 be d1 d4 96 bd cd 72 17 be
       0.025930522 -0.14135598 -0.0736481 -0.14789887
000380 ed 54 09 3e 17 88 d9 3d bb 9d 5b bd 23 c0 b1 3e
       0.13411303 0.1062166 -0.05361722 0.347169
000390 1e a0 0f be d8 e4 95 3e c4 35 c2 be 49 b4 c2 3e
       -0.14025924 0.29276156 -0.37931645 0.38028172
0003a0 cb 08 98 bd 3b b7 b2 bc 55 cb 8c be 9a 60 eb 3e
       -0.07423552 -0.021815887 -0.2749888 0.4597214
0003b0 e4 f3 c3 be cd b6 1c be d1 30 0a be 17 59 e0 bd
       -0.3827201 -0.15304108 -0.13495184 -0.109544925
0003c0 4f bd 7b bc e4 e5 a6 bd 99 e2 18 3e 47 bf fa bd
       -0.015364959 -0.08149317 0.1493019 -0.122435145
0003d0 5d 74 9c 3e 92 8d 5f be 90 0d 8f 3e 52 8d 27 be
       0.30557528 -0.21831349 0.27940035 -0.16362503
0003e0 69 e4 4f 3e 0a 2a 7e 3d 30 87 d3 3d 61 61 5b be
       0.20301975 0.06205181 0.10328519 -0.21423866
0003f0 98 56 59 bd cf 7e 8a be d7 c4 74 be e0 a8 93 be
       -0.053061098 -0.27049872 -0.23903213 -0.2883978

encoder.blocks.0.attn.proj.weight f4 [16, 16]
000000 e2 66 b3 3d 6b 4e 6c be 5a 2c 9e 3e e0 75 a6 3d
       0.08759858 -0.23076789 0.30893213 0.081279516
000010 77 bf bc be df 99 2f be ae 53 28 3c 7e af dc 3d
       -0.36864826 -0.17148541 0.010273857 0.1077566
000020 88 4e 07 3e b5 e4 0f 3e e3 5d f5 bd 49 d9 14 3d
       0.13213551 0.14052089 -0.11980798 0.03634003
000030 ef e8 83 3d b1 fb d2 3e 35 3f cd 3e a1 41 82 be
       0.06440913 0.4120765 0.40087286 -0.25440696
000040 8b f3 01 3e bf 4a 2d 3d 56 50 a4 3e da b7 93 3b
       0.1269056 0.04230761 0.3209254 0.004508001
000050 8b 8c cd 3d a4 65 dd 3e 56 36 c9 be 1c ae 9d 3e
       0.10036572 0.43241608 -0.39299268 0.30796897
000060 fd d4 c5 3e 35 be ea be dc 2a fa 3d 8a 1a 3c bc
       0.3863906 -0.4584824 0.12215206 -0.011480937
000070 f3 83 b6 be ff d2 a7 3e b2 b1 c6 3e e9 d7 c7 3e
       -0.35647544 0.32778165 0.38807446 0.39031914
000080 51 45 a3 be 8d 9e c7 be 77 6c 81 be 90 f5 26 3e
       -0.31888822 -0.38988152 -0.25278065 0.16304612
000090 0e e9 61 be 15 88 27 3e 9f 95 b1 3e 31 ae 74 be
       -0.2206156 0.16360505 0.34684464 -0.23894574
0000a0 b5 c9 7e 3e bc ff 34 3c a3 6e 7b bc 42 03 30 be
       0.24881633 0.0110473 -0.015346202 -0.17188743
0000b0 c5 92 3c bc 79 d9 68 3e 5c 50 8f 3d a8 d7 96 be
       -0.011509602 0.22739209 0.06997749 -0.29461408
0000c0 a5 00 7e 3e b8 51 be 3e c5 6f bd 3e e6 58 c9 be
       0.24804933 0.3717172 0.36999336 -0.39325637
0000d0 1e 85 3b bd 5d 21 92 be d6 c1 e7 3e 81 fe 81 3e
       -0.045781247 -0.2854108 0.45265073 0.25389484
0000e0 57 0e f2 3c f4 d0 03 be c2 32 03 3e 13 1f 86 3e
       0.029547853 -0.12872678 0.12812331 0.26195583
0000f0 11 88 a7 be 89 0d b0 3e c5 f6 ef 3d 71 e2 90 3e
       -0.32720998 0.34385327 0.117169894 0.2829776
000100 ad 09 e4 bd 58 57 66 bc be ba 9c be eb b2 6e be
       -0.11134658 -0.01405891 -0.30611223 -0.2331044
000110 4a a2 3d 3e 02 e4 c9 3e 7d bf d6 bd 38 ed 33 be
       0.1851894 0.3943177 -0.10485742 -0.1757096
000120 c6 51 e4 3e ab 65 3c bd d6 20 a4 3e 0a 5b 0d bd
       0.44593638 -0.045995396 0.32056302 -0.03451065
000130 ea 61 ee bc 28 82 cd be a2 8d 37 3e 6e 0b 0c be
       -0.029099423 -0.40138364 0.17925122 -0.13676235
000140 e6 1f 85 be b2 0c cc 3e 56 27 60 3e 13 57 fe be
       -0.260009 0.39853436 0.21890005 -0.49675807
000150 0a 29 95 3e b5 c4 16 3e 98 fc 9e 3e 4b b2 95 3e
       0.29132873 0.14723475 0.3105209 0.2923759
000160 33 de b0 3e 46 05 4e be da 64 23 3e 1c 68 3b be
       0.34544525 -0.20119199 0.1595644 -0.18301433
000170 9e ed 09 3e 6e ed ac be 56 16 a0 39 eb 83 65 3e
       0.1346955 -0.33774894 0.0003053422 0.22413604
000180 3b 4b 90 be 3b 99 a0 3e de 3f cf bd c5 e8 fd 3e
       -0.28182396 0.31366906 -0.101196036 0.49591652
000190 29 d5 4e be 7c de 90 be b1 14 72 3e 57 86 14 3e
       -0.20198502 -0.28294742 0.23640706 0.14504372
0001a0 4e 41 bb 3d b2 64 82 3e 46 8a 04 be 45 2a 97 be
       0.09143315 0.2546745 -0.12943372 -0.29524437
0001b0 74 e6 08 3e bc d9 81 bd 08 68 8d 3e d5 b9 53 be
       0.13369161 -0.06340358 0.27618432 -0.20676358
0001c0 6c d3 8f 3e 99 90 c9 3e 62 67 a0 be 0a b1 aa bc
       0.2809099 0.39368132 -0.31328875 -0.020836372
0001d0 bc 74 21 3e 41 e7 dd be e0 69 36 3e 44 0d c2 3e
       0.15767187 -0.43340495 0.17813826 0.37900746
0001e0 bc 39 89 be 2c 83 b4 3e 1e b7 e5 3d 22 4e 90 be
       -0.2680186 0.35256326 0.112165675 -0.2818461
0001f0 ae 57 2a 3d f2 e2 57 3e f2 ff ca 3e 33 76 c2 bd
       0.041587524 0.21082667 0.39648396 -0.09495201
000200 59 fb 96 bd 36 2f 83 3e 79 a1 b7 be 10 5c f9 3e
       -0.073721595 0.25621957 -0.3586538 0.4870305
000210 31 04 e3 3d 7b c4 62 be fe bb 4b be e9 39 47 be
       0.11084784 -0.22145264 -0.19895932 -0.19455685
000220 78 a2 e3 3b ee d1 bf 3e 5c a9 7a bd 21 62 fd be
       0.006946858 0.3746485 -0.06119667 -0.4948893
000230 fc 80 3c be 28 59 b4 bc 3a 56 98 bd 2c 4a 95 3e
       -0.18408579 -0.02201517 -0.074383214 0.2915815
000240 a1 89 ea 3c aa de 99 3d 8e cc 1e 3d 78 98 13 3e
       0.02863008 0.07513173 0.038769297 0.14413631
000250 23 88 5c be 72 51 a6 3e d6 9a 97 3c 63 54 31 3d
       -0.21536307 0.32484013 0.018506449 0.043293368
000260 e0 83 7c 3e 24 bc a1 3d 4b 59 a2 be f6 d0 01 be
       0.24659681 0.07897213 -0.3170875 -0.12677369
000270 fd 4d 01 be 02 ea 88 3e 6c 42 71 bd 40 a2 f5 bb
       -0.12627406 0.26741034 -0.058901235 -0.0074961483
000280 09 4e 02 3e be 53 a2 3e 85 28 44 3e 8d c8 65 3e
       0.1272508 0.31704515 0.19156082 0.22439785
000290 df 4d 51 3d 98 c4 2b be 4d 48 ef bd 2c db 32 be
       0.051099654 -0.16774213 -0.11683712 -0.1746642
0002a0 21 dc 45 3e 53 6d 3d 3e 96 c6 58 be 0b 14 8d 3e
       0.19322254 0.18498735 -0.21169505 0.27554354
0002b0 42 86 c0 be 33 63 94 be fe a7 a9 be a6 32 91 3d
       -0.3760243 -0.28981933 -0.3313598 0.070897385
0002c0 03 0c 49 3e 62 63 fa be 92 87 e6 3e 2a b5 b4 3e
       0.19633488 -0.48903948 0.45025307 0.35294467
0002d0 0d a8 31 3e a2 0a 4a bd c6 ae a8 3e 0f 4c 1a be
       0.17349263 -0.049326546 0.32945842 -0.15068077
0002e0 20 0c 6e 3e 8e 1f 86 3e 2d f8 93 be 25 75 65 bd
       0.23246813 0.2619595 -0.2890028 -0.05601992
0002f0 08 e7 01 3e 84 77 00 be 2a fc 08 be 1b fc 6d 3e
       0.12685788 -0.12545592 -0.13377443 0.23240702
000300 06 36 a8 3d 8a f6 2c 3e 5e df ec be 5c fb 91 be
       0.08213429 0.16890922 -0.46264166 -0.28512084
000310 a7 ec e2 bd f0 b9 2f 3e 37 3e 8c be 4b a6 55 be
       -0.11080294 0.17160773 -0.27391216 -0.20864217
000320 11 ff 37 3e 6e 4c bb be 03 d4 82 bd f4 44 a7 be
       0.17968394 -0.3658175 -0.06388094 -0.32669795
000330 ae 1f 0a 3e f2 ba 4f bc 57 e0 a4 3d 76 80 9a be
       0.13488647 -0.012678849 0.08050602 -0.30176133
000340 0d 5c e5 be b1 31 20 be 27 91 a6 bd f3 6c ec be
       -0.44796792 -0.15643956 -0.08133154 -0.46176872
000350 39 a1 f3 3e 85 86 f4 be 96 b7 a6 3e 75 57 d5 3e
       0.4758394 -0.4775888 0.3256194 0.41668287
000360 ad ef ac 3e b4 e1 a7 3e 9a 6a 54 3d 7a 09 05 3f
       0.33776608 0.32789385 0.051859476 0.51967585
000370 9f 95 62 be 3e 4e f4 bd 14 0a 9f be 3e cb fa 3e
       -0.22127388 -0.11928986 -0.31062376 0.48983186
000380 11 fd 26 be b0 9a 80 bd 9d ba a8 be bb 4a de 3e
       -0.16307475 -0.06279504 -0.32954875 0.4341639
000390 8e 94 4c be 30 0c d3 3d e6 55 37 bd 3d b1 8f 3e
       -0.19978544 0.10305059 -0.044759654 0.2806491
0003a0 04 cb e1 3d b2 15 98 be ff 13 2f 3e 61 49 0a 3e
       0.1102505 -0.29704052 0.17097472 0.13504554
0003b0 8c ee 9d bd ae 61 8d 3e 3a c3 ff 3d f6 b1 82 3e
       -0.07711515 0.27613586 0.124884084 0.25526398
0003c0 c7 8b a1 3e f0 d0 a5 3e 88 b3 72 3e 69 96 3b be
       0.31551954 0.3238597 0.23701298 -0.18319096
0003d0 96 98 9d 3e 76 f5 be 3e 19 33 1d 3d 2a 38 ae 3e
       0.30780476 0.37296647 0.03837881 0.34027225
0003e0 08 79 48 3c bc 80 8f be ba bd 35 3d 79 4b 2f 3e
       0.012235887 -0.28027904 0.04437039 0.17118634
0003f0 a3 c2 6d bc c5 f7 c5 be dc 1f ba 3d 53 0d 98 3e
       -0.014511737 -0.38665596 0.09088108 0.29697666

encoder.blocks.0.attn.proj.bias f4 [16]
000000 80 60 52 3c 64 52 b7 bd 6f 66 66 bd 7e 6d 8d 3d
       0.01284039 -0.08951262 -0.056250032 0.069056496
000010 d3 52 af bd 35 7f 82 3d 01 c7 32 bd 6b 1e d3 3b
       -0.08560719 0.06371919 -0.043646816 0.006442835
000020 f7 86 75 bc fc f5 7f 3d ae 45 d7 bc bd b1 55 3d
       -0.014985791 0.06249045 -0.026278343 0.052171458
000030 3b 76 4d bb 3e 59 6f 3d 4b 62 72 bc c2 9d 16 3c
       -0.0031350988 0.058434717 -0.014793943 0.009192886

encoder.blocks.0.norm2.weight f4 [16]
000000 a7 4f 55 3f af b3 74 3f 88 29 7e 3f bb ac 6a 3f
       0.83324665 0.95586675 0.9928212 0.91669816
000010 30 41 61 3f 14 61 5b 3f fd 4f 87 3f 4d 5c 74 3f
       0.87990093 0.85695004 1.0571285 0.9545334
000020 dc ce 76 3f 39 c1 61 3f e1 c4 76 3f e1 59 72 3f
       0.9640939 0.8818546 0.96394163 0.94668394
000030 d7 30 74 3f 7b 85 62 3f 93 aa 6e 3f 2c 48 70 3f
       0.95387024 0.88484925 0.93229026 0.93860126

encoder.blocks.0.norm2.bias f4 [16]
000000 04 2b 16 3c bf ba de 3c c3 f3 8a 3d 0e b0 07 bd
       0.009165529 0.027188657 0.06784775 -0.033126883
000010 1e 82 bc 3d 7f 74 9c bd 81 18 85 39 16 5d 78 bd
       0.092045054 -0.07639407 0.00025385994 -0.06063565
000020 85 b4 a0 3d 5f 5f 66 3c b3 f3 2f bd f8 0a 0f bd
       0.07846931 0.014060824 -0.04295702 -0.03492257
000030 e5 b6 96 3c 69 67 bc bd e7 2f de bb 93 ff 4e bd
       0.018397758 -0.091994114 -0.0067806127 -0.050536703

encoder.blocks.0.mlp.fc1.weight f4 [64, 16]
000000 15 3c 80 3e c7 70 d1 bd 44 9a dd bb da 13 34 be
       0.2504584 -0.10226589 -0.0067627747 -0.17585698
000010 98 d9 07 be 54 be 0b 3e 01 34 24 3e 95 cb 53 be
       -0.13266599 0.13646823 0.16035463 -0.20683129
000020 63 55 dd bd 98 f2 44 3e e8 3a c8 bd a1 83 1a 3e
       -0.10807302 0.19233167 -0.097768605 0.15089275
000030 b8 6d 8c 3e bd e3 02 be 3e 9d 22 3e 68 e5 81 3c
       0.2742746 -0.12782188 0.15880296 0.01585646
000040 35 0d aa bd aa 82 d2 3d 53 34 4a 3c bb b1 fe 3c
       -0.083033 0.102788284 0.012341577 0.031090608
000050 c2 eb 07 be 20 4a 33 3e 27 58 33 bd 6b 88 b0 3d
       -0.13273528 0.17508745 -0.04378524 0.0861977
000060 43 f0 41 be e5 30 45 be ea 5e cb 3b c0 5b 17 3d
       -0.18939309 -0.19256933 0.006206383 0.036952734
000070 f1 6d 59 3c 26 ae 96 bd e2 c4 5d 3e 08 07 f3 3d
       0.013270841 -0.07357435 0.21657136 0.118665755
000080 9e c4 3a 3e 4f e9 bd bd 72 33 57 3d 44 df 01 be
       0.18239066 -0.09273016 0.052539296 -0.12682825
000090 ff 50 11 be 79 51 3f be 8b ea f3 3d 4a 38 33 bd
       -0.14191054 -0.18683423 0.1190997 -0.043754853
0000a0 a7 27 8a 3e a7 ca c0 bd ea 74 04 3e 7a 75 a7 3d
       0.26983377 -0.09413653 0.12935224 0.08176704
0000b0 33 be 2d bc 76 58 89 be e4 51 2c 3d 4a 0b 39 be
       -0.010604429 -0.26825303 0.042070284 -0.18070713
0000c0 38 19 10 bd 44 05 4d bc a6 80 b1 bd 2a 9c 69 3e
       -0.0351803 -0.012513462 -0.08667116 0.22813478
0000d0 4d 67 da bd 28 a5 2d 3e 96 25 dc 3d 23 66 5a be
       -0.10664234 0.16957533 0.107493564 -0.21328025
0000e0 27 8e b2 3c bd e6 21 3e b2 ef 46 3e 3e 4d 12 be
       0.0217963 0.15810676 0.19427374 -0.14287278
0000f0 e3 44 1e 3d fd 2d 15 3e 2b b9 a2 3d 1e 3b 39 be
       0.038639914 0.14568324 0.07945474 -0.18088958
000100 99 3b 0d 3e 06 15 08 3e 6a d9 a0 bd d7 32 52 be
       0.13792266 0.1328927 -0.078539684 -0.20527206
000110 90 3c 72 3c c4 f5 64 3e ab b6 52 be 1a bb 8c bd
       0.014784947 0.22359377 -0.20577495 -0.06871624
000120 ca f5 0c 3e 49 b4 5c be 23 eb 00 be 9b 2c 92 be
       0.13765636 -0.21553148 -0.12589698 -0.28549656
000130 a9 13 92 3e 93 c6 47 be d2 69 28 3e 0b 5f 32 be
       0.28530625 -0.19509344 0.16446617 -0.17419069
000140 99 00 04 be ce 20 1e be 8d 29 72 3d 79 50 28 be
       -0.12890853 -0.15442201 0.059121657 -0.16436948
000150 21 4e 03 be 99 18 8e be 80 42 bd 3e a1 6c 46 3d
       -0.12822773 -0.27753142 0.36964798 0.04844344
000160 a6 ff bc 3e 83 65 00 be 66 fc 9b be a2 4f 22 3e
       0.36913794 -0.12538724 -0.30466002 0.1585069
000170 7b 04 1e 3e 01 45 44 3e 04 af 08 be 14 32 c8 be
       0.15431397 0.19166948 -0.13348013 -0.39100707
000180 6d 83 ed bd ba b1 28 be 10 e9 93 bc 4e 6a 30 be
       -0.11597333 -0.16474047 -0.018055469 -0.17228052
000190 48 91 3d be 38 24 0d be 13 01 80 bd 25 cd 59 bd
       -0.18512452 -0.13783348 -0.06250205 -0.053174157
0001a0 80 f1 43 3e fa 63 1e be f7 d0 11 3e 1b 47 44 be
       0.19135094 -0.15467826 0.1423987 -0.1916775
0001b0 0e 56 0c be 9d a5 36 3a 03 bf 2f be df 8c 02 3e
       -0.13704702 0.00069674273 -0.17162709 0.1274905
0001c0 b8 70 b2 3e 48 31 a9 3e c2 0b b7 3d ce ef c9 3d
       0.34851623 0.3304541 0.089377895 0.09860192
0001d0 3a 7a 0b bd 8a 42 34 be b2 d8 71 bd 39 dd c1 3d
       -0.03405211 -0.17603508 -0.059044547 0.09466023
0001e0 06 5f 22 3e ec 53 fe bb a0 b6 a7 3d 28 8f dd 3c
       0.15856561 -0.007761469 0.0818913 0.027045801
0001f0 28 be c5 3d a1 c6 27 bc f3 dd 90 be 57 bc 40 3e
       0.0965541 -0.010240228 -0.28294334 0.18821846
000200 42 eb 0a 3d af 23 fe bd c5 21 87 3d e7 90 63 bc
       0.033915766 -0.1240915 0.06598238 -0.013889528
000210 8c d3 62 3e 4e af e9 bc 1c 33 3f 3e 15 fd 3b 3e
       0.22151011 -0.028525975 0.1867184 0.18358262
000220 ff 1d 62 be 0a eb 9b bd 50 62 8d 3d a4 2f 7d be
       -0.22081755 -0.076131895 0.06903517 -0.24725205
000230 37 3f 59 3e a7 e1 90 be 82 8a 22 be 87 f1 1a 3e
       0.21215521 -0.2829716 -0.15873149 0.15131198
000240 e2 cc 82 3e 8b 58 b7 3d 24 19 66 3d 0d 15 a6 3e
       0.25546938 0.08952435 0.05617632 0.32437935
000250 f6 87 21 3d d2 01 c9 bd 01 26 83 3e 8e 8f 30 be
       0.039436303 -0.098148 0.25614932 -0.17242262
000260 3a c9 98 bd fc 36 96 bd 86 3a 84 be be ce 54 3e
       -0.07460256 -0.07334706 -0.258259 0.20781991
000270 9f d0 4a 3e 19 47 0f 3e c3 66 07 3d 91 72 6a 3e
       0.19806145 0.13991965 0.033056986 0.22895266
000280 4c 9f 37 be 5a 43 36 be f6 5b 20 be 18 f6 fe 3d
       -0.1793186 -0.1779913 -0.1566008 0.124492824
000290 fb f7 80 be 44 8a f7 3d ed 14 f4 3d ec 72 d9 3d
       -0.25189194 0.12086919 0.11918054 0.10617623
0002a0 39 76 7a 3e e1 60 33 3e 3d 2d d7 3d 81 17 1a 3e
       0.24459161 0.17517425 0.105066754 0.15048029
0002b0 b7 bd 71 3d 8e f8 59 3e a7 d7 99 3e 6f 7c 36 3e
       0.059018817 0.21286222 0.30047342 0.17820905
0002c0 48 4e b2 3c a8 48 a6 bb 56 00 f2 3d 7c d9 3d 3e
       0.021765843 -0.0050745793 0.1181647 0.18539995
0002d0 09 cb 1d 3e 9c ff 56 3d dc 9b 19 be 0b c2 80 3e
       0.15409483 0.05248986 -0.15000862 0.25148043
0002e0 bb 1c 49 bb 2e e5 70 3e 1c a1 71 3e 68 94 40 3e
       -0.003068729 0.23524925 0.23596615 0.18806612
0002f0 29 dd ac 3d 89 24 4d 3d f9 1d 16 3e 97 a7 b9 3d
       0.084406205 0.05008367 0.14659871 0.09065168
000300 af 38 5a bd e4 02 29 3e 81 08 4b 3e 58 f8 8c be
       -0.053276714 0.16505009 0.19827463 -0.2753322
000310 e5 b0 69 bd a4 56 bc 3d 08 d3 8f 3d b2 a4 3d be
       -0.057053465 0.09196213 0.07022673 -0.18519858
000320 a7 6b 76 3d ee 5f 04 3e ae da 8d bd 9b 9f 8f be
       0.06016126 0.1292722 -0.069264755 -0.28051457
000330 23 a3 29 3e 73 8a aa 3d d6 3c 2e 3e 83 5a 97 3d
       0.16566138 0.08327188 0.17015395 0.073903106
000340 2d af 5a be 89 c2 74 3e 4b 08 cb bd ab 94 8e be
       -0.21355887 0.23902334 -0.09913691 -0.278478
000350 f9 ce 0f be a0 5c 2b 3d 05 cf 55 3e 5d 31 79 bc
       -0.14043798 0.04183638 0.20879753 -0.015209523
000360 54 00 fe bd ea 7e 87 3e 1c 4c 29 bc 9e e0 4b be
       -0.12402406 0.26464015 -0.010333087 -0.19909903
000370 6f b7 69 3e 82 55 bf 3d da 78 b1 3d c5 c1 61 3e
       0.2282388 0.09342481 0.08665629 0.22046573
000380 f6 8d 28 3e 8d 91 eb 3d 20 50 87 be 38 6f 00 3e
       0.16460404 0.11502371 -0.26428318 0.12542427
000390 6c 36 8a be 19 b4 c5 3d 6d 07 67 bd 00 56 16 bc
       -0.26994646 0.096534915 -0.056403566 -0.009175777
0003a0 c7 82 a3 3e f4 97 a6 3e 17 35 65 3d 00 71 c1 be
       0.31935713 0.32537806 0.055958834 -0.37781525
0003b0 35 43 8f 3e 32 4c 3d be 0d 73 71 3d 81 d4 00 be
       0.27980962 -0.18486097 0.05894761 -0.12581064
0003c0 6c 5e 03 3c 76 8c d6 bd 7e 05 a0 be e6 20 ac be
       0.008018117 -0.104760095 -0.3125419 -0.3361885
0003d0 a0 a5 47 bd a8 7a 17 be 3a 5c 75 3e 72 33 f7 bb
       -0.048741937 -0.14792883 0.23960963 -0.0075439746
0003e0 59 4b 0b be 97 b7 65 3e 02 99 b7 bc 6b 40 e9 3d
       -0.13602962 0.22433315 -0.022411827 0.1138924
0003f0 f7 48 2b 3e f7 05 3b be fb e3 6a bd ef 43 49 3e
       0.16727053 -0.18263994 -0.057346325 0.19654821

encoder.blocks.0.mlp.fc1.bias f4 [64]
000000 5a e2 65 bd c9 39 56 bd 8c a6 58 bd 6e 00 fc bd
       -0.05612407 -0.052301202 -0.052893206 -0.123047695
000010 a3 b1 13 bd 16 f5 1c bd cd be 5c bd 59 2a 60 bd
       -0.03605808 -0.03831967 -0.0538929 -0.054727886
000020 24 02 b1 bc 54 d7 1f 3d 71 38 92 3d d2 1d 59 3d
       -0.021607466 0.039023712 0.071396716 0.053006954
000030 ef 70 04 bd 1d 73 59 bd 77 01 81 bd b5 f5 b6 bd
       -0.032334264 -0.053088296 -0.062991075 -0.08933584
000040 80 2b 94 bd 10 ff 61 bc 74 60 68 3d b6 64 1c bd
       -0.072348595 -0.013793722 0.05673261 -0.038181983
000050 a5 ea 62 bd d8 72 d7 bc c3 55 e5 bc 3e 5e 85 bd
       -0.055399556 -0.026299879 -0.027994996 -0.06512116
000060 a5 47 f2 bc bb 75 06 be ec 9c 39 bd 5c 3b b3 bd
       -0.029575178 -0.13130848 -0.045315668 -0.08751556
000070 5e 97 03 bd 6a 28 2b bd 76 e7 52 bd 38 0d 6f bd
       -0.032126777 -0.04178659 -0.05149027 -0.058362216
000080 17 bb a3 bc a1 ae 13 bd b0 a5 0b bd 1b 08 98 bc
       -0.019986672 -0.03605521 -0.03409356 -0.018558552
000090 46 d8 d9 bc 41 ae 19 bc 7b 91 12 3b 31 55 fd 3c
       -0.026592385 -0.009379924 0.0022364545 0.030924411
0000a0 ff a2 80 bc 57 bf 9d bc 57 07 2f 3c 5a af f7 bc
       -0.015702723 -0.019256277 0.010682902 -0.030234981
0000b0 e4 1f a5 3b 4c 87 81 bd 43 54 72 bd cc 8b 89 bd
       0.005039202 -0.06324634 -0.05916239 -0.06716117
0000c0 52 d8 90 bd fd e9 ea 3b 43 47 78 3d 18 3d 45 bc
       -0.0707251 0.007169007 0.060614835 -0.012038492
0000d0 14 d9 cf 3b a7 b3 45 3c 47 22 9f 3c 8d bb e9 bc
       0.0063430164 0.012066758 0.019425524 -0.028531814
0000e0 63 1e 0c bc 60 ee 44 3c d9 bc 07 3d 0f 39 f9 bb
       -0.008552167 0.012019724 0.033139084 -0.007605679
0000f0 00 4f 18 bd d7 ff 42 bd c2 09 61 3d a6 0d 7b bd
       -0.037184715 -0.04760727 0.054940946 -0.061292313

encoder.blocks.0.mlp.fc2.weight f4 [16, 64]
000000 13 82 30 3b ae 8f bf bd 81 10 62 bc ca 8a 41 3e
       0.0026933 -0.093535766 -0.01379788 0.189006
000010 22 b1 dd 3d 31 19 e9 bc 20 86 bd 3d a7 eb 35 be
       0.10824801 -0.028454395 0.09254098 -0.17765675
000020 58 c9 2d be 33 2e 14 3e 13 4e c7 bd ee e4 0b be
       -0.16971338 0.14470749 -0.09731688 -0.13661548
000030 c9 e3 f1 bc c6 4e 3b be 6a 91 6b 3b e1 e4 02 bd
       -0.029527562 -0.18291768 0.0035944828 -0.031956557
000040 b6 91 59 3e be 31 46 be 3c 95 ae 3d f7 79 41 bc
       0.2124699 -0.19354913 0.08524558 -0.011808864
000050 79 73 80 3e 7d 5f 14 3e 9e d4 06 3e 26 98 e0 bc
       0.250881 0.14489551 0.13167045 -0.0274163
000060 76 42 c7 3d 97 96 d1 bd f0 6c 62 bd df f0 80 3e
       0.09729473 -0.10233801 -0.055279672 0.2518377
000070 b9 ce 32 bb b9 64 d3 bd 7a c8 7a 3e 14 4a 08 bc
       -0.002728386 -0.10321946 0.24490538 -0.008318443
000080 ee e4 ef 3c 82 d0 db bd 65 97 6c be b6 17 2c bd
       0.029283967 -0.10733129 -0.23104627 -0.0420148
000090 3f 43 cd bd 09 a1 e3 bd 02 33 64 bd fe 23 be 3b
       -0.10022592 -0.111146994 -0.055712707 0.0058026304
0000a0 a0 37 1b 3e 64 35 5a be 58 b1 32 be af 91 9c 3d
       0.15157938 -0.2130943 -0.17450464 0.076449744
0000b0 fc 66 60 3e 89 23 3e be 2a f9 20 3e 85 ee 8a 3d
       0.21914285 -0.18568243 0.15720049 0.06783775
0000c0 cc a8 04 3e 53 f9 5b bc e6 ea 87 3c f8 db 85 be
       0.12955016 -0.013426143 0.0165915 -0.26144385
0000d0 15 d4 18 3e 50 86 04 3e d5 c1 49 be d0 a1 27 3d
       0.14924653 0.12941861 -0.19702847 0.0409258
0000e0 5f 43 6c bd 7b 31 5f be 8e e8 73 be 5d 4f da 3d
       -0.057681438 -0.21796219 -0.23819181 0.106596686
0000f0 54 3d 2d 3e 18 b7 92 3e de 42 ff 3c 85 f1 3f be
       0.16917926 0.28655314 0.031159814 -0.18744476
000100 ff ed e3 bd 6b de 8a be bd c7 b0 3d d1 c2 ce bc
       -0.111293785 -0.27122816 0.08631847 -0.02523938
000110 d6 a0 62 3b c1 ab ac 3e ba 11 af bd 8c 6e ed bd
       0.003458073 0.33724788 -0.08548303 -0.11593351
000120 39 05 f8 3d f6 cd 32 3e 79 72 86 3e 1c fd c3 3e
       0.12110371 0.1746138 0.2625921 0.38279045
000130 c2 1f 00 3c 5c a0 a8 be a1 06 98 bd 30 e7 55 be
       0.007820072 -0.32934844 -0.07423139 -0.20888972
000140 fd 07 10 be 4f f8 c1 bc 50 c5 38 be c6 82 05 be
       -0.14065547 -0.023677973 -0.18044019 -0.13038167
000150 b4 ae 44 3e d4 e2 26 3e b7 c1 a6 3e 5f 32 98 bb
       0.19207269 0.16297466 0.32569668 -0.0046446766
000160 14 2b 9e 3d d5 60 2a 3e 17 62 68 bd 53 9a 62 be
       0.0772306 0.16638501 -0.05673417 -0.22129183
000170 e3 24 9c bc d9 6b 5c bd e5 7b a9 be f5 00 29 3e
       -0.019060558 -0.05381379 -0.33102337 0.16504271
000180 7a 2a 73 3c 15 ab 0a 3e 2b 9f 83 3d b4 89 ab 3d
       0.01484167 0.13541825 0.06426843 0.08375874
000190 ad 5b 9c 3e 77 81 6b 3e 94 d3 86 3b 85 62 01 be
       0.30538693 0.22998606 0.0041145775 -0.12635238
0001a0 16 78 1d 3e c2 fe 65 bd 7c 34 a1 3e ff b5 1e 3e
       0.1537784 -0.05615116 0.31485355 0.15499114
0001b0 1c 40 6e be e7 c3 12 3e 59 25 b1 bc 1a be 37 3e
       -0.23266643 0.14332543 -0.021624254 0.17943612
0001c0 04 fc 91 be 6c 7f 5f 3e 9c f1 96 ba 2b 89 20 3e
       -0.28512585 0.21825951 -0.0011516097 0.15677325
0001d0 dd c4 61 3e 14 6f 85 bb c3 84 ad 3d 2b 35 62 3e
       0.22047754 -0.0040720794 0.08472588 0.22090594
0001e0 da f8 df 3d 4f d7 8d be 60 c8 e6 bc 96 30 1f be
       0.109361365 -0.2770333 -0.028171718 -0.15545878
0001f0 a5 1f 90 3e 6f a0 d4 3d d0 5a 3f bc fd 97 63 3e
       0.28149143 0.10382163 -0.011679366 0.22225948
000200 62 96 2f be 49 9a 62 3e 3c 13 e3 3d 12 eb 44 be
       -0.1714721 0.22129168 0.11087653 -0.19230297
000210 4a 01 f3 3c 93 5e 11 3d d7 c9 36 be 18 ba b7 bd
       0.0296637 0.035490584 -0.17850433 -0.089710414
000220 9c 58 41 be 4e c7 ad bd 84 08 25 3d 17 a1 82 be
       -0.18881458 -0.0848528 0.040291324 -0.25513527
000230 ca 8b 59 3e 30 cf 8c 3d 9d 62 0a be de 81 59 be
       0.21244732 0.068754554 -0.1351418 -0.21240947
000240 12 bd ed bd b7 4d 3c 3e a8 67 9a be fc 67 70 bd
       -0.11608328 0.18389021 -0.30157208 -0.058692917
000250 1c e0 cb bc 34 81 44 be 35 24 dc 3d 60 05 17 3e
       -0.024887137 -0.19189912 0.107490934 0.14748144
000260 55 91 12 bd 58 78 0b bd be cb 5e be f8 97 7a bd
       -0.03578313 -0.034050316 -0.21757409 -0.061180085
000270 07 47 99 be 97 27 6c be 8d 82 86 bc 16 04 a2 bd
       -0.29937002 -0.23061977 -0.016419673 -0.079109356
000280 6f 2b 8a 3e 30 1f f4 3c 47 32 90 bd ab 12 10 3e
       0.26986262 0.029800028 -0.0704084 0.14069621
000290 18 d6 38 3e 28 79 64 be d5 6b 83 bd 18 cb b5 3e
       0.1805042 -0.22311842 -0.06417052 0.3550651
0002a0 3a 90 0b bd 4d 1c 00 3e 29 95 53 be a8 14 15 be
       -0.034073092 0.12510796 -0.20662369 -0.14558661
0002b0 5c 24 64 3e 06 6e 1f 3d 9b 4c c9 3d 76 ed a8 bd
       0.22279495 0.038923286 0.098290645 -0.08248417
0002c0 95 86 79 3e 4e b4 29 bd 9e c2 01 be ff 3c f0 3d
       0.24367745 -0.041431718 -0.12671897 0.11730384
0002d0 d1 32 80 be ae 13 78 be d1 28 02 be ea 4e 86 bc
       -0.2503877 -0.24226257 -0.12710883 -0.016395051
0002e0 57 8c 3c 3e b7 5f 96 bd 79 e4 a9 bd 3c 42 8e bd
       0.1841291 -0.07342475 -0.08295531 -0.06946227
0002f0 66 2c 50 3e cd 3b 02 be e2 bc 81 be 80 f1 65 be
       0.20329437 -0.12718125 -0.2533942 -0.22455406
000300 df 42 21 3e 9d 13 b4 3d 55 1b f4 bd ed 26 80 3e
       0.15748166 0.087928034 -0.11919276 0.25029698
000310 90 b6 3c be 58 63 71 be 49 a2 dc bd 6b a7 44 be
       -0.18429017 -0.23573053 -0.10773141 -0.1920449
000320 8e b8 d2 bd 93 ad 38 3e c1 f0 93 bc bc b2 24 be
       -0.10289107 0.18034963 -0.018059136 -0.16083807
000330 39 94 0a be 36 06 54 be 5f 0e 5c be c0 68 1e be
       -0.13533105 -0.20705494 -0.21489857 -0.15469646
000340 0a 96 3e 3d 18 5f 5f 3d d1 09 2f be 24 96 0b 3e
       0.046529807 0.054534048 -0.17093588 0.13631493
000350 2a de f0 3d 73 a2 99 3d 28 06 9f 3d c1 20 83 be
       0.117611244 0.07501688 0.07764846 -0.25610927
000360 5b 14 1c 3e fc b6 83 3e 14 0d 30 be 9a 00 00 be
       0.1524214 0.25725543 -0.17192489 -0.1250023
000370 77 e6 dc bd 3b 0b 38 be ff 1d 90 be a8 c9 4b bd
       -0.10786145 -0.17973034 -0.28147885 -0.04975286
000380 c6 be a2 bc b5 6b 30 3d 71 64 6a 3d 74 84 87 3e
       -0.019866358 0.043071467 0.057224695 0.2646824
000390 ac fd b1 bd db d1 84 be e6 b3 59 3e a3 67 92 be
       -0.08690962 -0.25941357 0.21260032 -0.28594694
0003a0 ec 6b 88 bd 83 a6 16 be 15 14 fd bd 61 0d 91 3e
       -0.066612095 -0.14711957 -0.12357346 0.2833052
0003b0 5e fb 8c be 64 f0 8b bc 4e 6c b0 be c4 7e 90 3e
       -0.27535528 -0.0170824 -0.3445763 0.28221714
0003c0 ad 77 26 be 2e 43 3f be 13 4d 26 be fc 4c 4d 3d
       -0.1625659 -0.18677971 -0.16240339 0.050122246
0003d0 ff 6f 2c 3e 83 6b 10 3e d2 e3 bf bd 14 ce 08 3c
       0.16839598 0.14103512 -0.09369625 0.008349914
0003e0 b7 94 05 3e 6e df 2b 3e 9e 98 77 bb 63 4d cd bd
       0.13045011 0.1678445 -0.0037780176 -0.10024526
0003f0 a3 a8 75 be 03 d4 06 be 21 e5 43 be dc e9 40 3e
       -0.23990111 -0.13166814 -0.19130374 0.1883921

encoder.blocks.0.mlp.fc2.bias f4 [16]
000000 6c 73 7c 3c 54 3b 19 bd 9a 1f be bd 5d e1 19 3c
       0.015408378 -0.037410095 -0.09283371 0.00939211
000010 93 f6 95 bd b6 b7 17 3d 19 a4 c7 39 cb db 5c bc
       -0.07322421 0.037040435 0.000380785 -0.013480137
000020 b9 b3 67 3d 3c 01 ee 3d 30 72 9b 3c 54 7f 00 3d
       0.05656788 0.11621329 0.018975347 0.03137143
000030 54 b9 37 3d b4 0d 8f bc c7 e9 19 3d 56 50 71 3b
       0.044854477 -0.017462589 0.037576463 0.0036821566

encoder.blocks.1.norm1.weight f4 [16]
000000 f7 bd 72 3f 54 a8 67 3f 71 f4 74 3f e1 7a 8e 3f
       0.94821113 0.90491223 0.9568549 1.113125
000010 e9 6a 95 3f aa cd 87 3f 47 62 90 3f 37 43 75 3f
       1.1673251 1.0609639 1.1279992 0.95805687
000020 b6 36 72 3f 57 dd 86 3f db 0b 87 3f 50 6e 84 3f
       0.9461473 1.0536298 1.0550493 1.0346165
000030 8d 0b 70 3f 7e bc 8e 3f b4 95 75 3f d5 d8 84 3f
       0.93767625 1.1151273 0.95931554 1.0378672

encoder.blocks.1.norm1.bias f4 [16]
000000 42 88 c4 bc cf f6 a5 bd cd dc ab bd ba 5f 73 3d
       -0.023990754 -0.08103716 -0.08391724 0.059417464
000010 a7 b7 9c bd db 32 b0 3d 08 45 00 bd 96 f2 ad 3c
       -0.076522164 0.0860345 -0.031315833 0.021233838
000020 f5 65 2a 3d fc ea ab 3c a7 cb 94 3c 06 11 58 3d
       0.04160114 0.020986073 0.018163515 0.05275061
000030 9d 61 e3 3c 8c e4 a3 3d 89 cf 10 3d 1c a7 3f 3d
       0.027756507 0.08002576 0.03535417 0.046790227

encoder.blocks.1.attn.qkv.weight f4 [48, 16]
000000 70 69 b5 3c 7a 0f 1b 3c a7 27 e8 3d 43 f5 20 3e
       0.022145003 0.009464139 0.11335688 0.1571856
000010 a5 a9 b9 bd 3f 9c 5d 3e 8c 1d 20 be 95 37 4e bd
       -0.0906556 0.21641634 -0.15636271 -0.050345976
000020 9e f7 c4 be 4d d8 99 be 09 08 86 be 99 f9 4c bd
       -0.38470167 -0.30047837 -0.26178005 -0.050042722
000030 a6 a2 02 3e 69 98 02 3c 47 39 0e 3e 44 75 51 be
       0.12757358 0.007970908 0.13889037 -0.2045489
000040 e6 69 fe 3c 9b d5 3d 3e 6e 97 e5 3d b0 c8 e5 bd
       0.031056356 0.18538515 0.112105235 -0.11219919
000050 32 a9 78 3e 2b e9 69 be 7a df 19 3e bf 6c 55 bd
       0.24283293 -0.22842853 0.15026656 -0.05210566
000060 1a dc c7 3d 36 23 86 3e 4a 31 4e bc a4 04 1f 3e
       0.09758778 0.2619874 -0.012584994 0.15529114
000070 a0 c3 6a 3e 51 a5 bc be 53 01 5d 3e 26 8e 49 3e
       0.22926188 -0.36844876 0.21582536 0.19683132
000080 58 8a ca 3d 60 a0 13 3e 2e 1e e7 3c c6 b7 14 3e
       0.09889668 0.14416647 0.028212633 0.14523229
000090 6a ee 53 be 06 de 7e 3e e6 c8 3a be f0 c6 a6 3d
       -0.20696416 0.24889383 -0.18240699 0.08143413
0000a0 56 a0 e7 bd a5 19 06 be 20 35 01 be 4d 3f 01 bd
       -0.113098785 -0.1309572 -0.12617922 -0.03155451
0000b0 b7 db 12 bd c6 e9 83 3d 57 a4 0d 3d 88 e4 f0 3d
       -0.035854068 0.06441073 0.034580555 0.11762339
0000c0 1a 97 8d bd c1 b2 83 be 59 15 cf be 1c 51 74 be
       -0.06913586 -0.25722316 -0.40445974 -0.23859066
0000d0 cb 04 84 3e 6e ff 35 3e fd aa a7 3c 78 c0 a5 3d
       0.25784907 0.1777322 0.020467276 0.08093351
0000e0 2c 34 8e be fb 8b 56 3c a4 33 84 3e ac 56 a8 3d
       -0.2777418 0.013094897 0.2582065 0.08219656
0000f0 7d 23 b3 3e 6d 98 06 3e ae ff a0 be e4 d0 e0 3c
       0.34988013 0.13144083 -0.31445068 0.027443357
000100 17 4b 5c bd 0f 87 ab bd c0 bb d3 be 95 d2 3b 3d
       -0.05378255 -0.0837537 -0.4135418 0.045855124
000110 81 c5 7f be 9e a0 cb 3e bd 73 9c 3d fa 68 09 be
       -0.24977686 0.3977098 0.07639263 -0.13418952
000120 71 e3 e8 be 29 f9 d0 3d 4e 94 7a be 75 8b b8 3e
       -0.45486024 0.102037735 -0.24470636 0.36043897
000130 c3 90 1d bc 08 eb d7 3e 9d 7d 15 be d4 21 a9 3c
       -0.009617033 0.42171502 -0.14598699 0.020646013
000140 40 69 1d 3d f8 58 0c bf 40 5c 3c be ac 16 03 3f
       0.038430452 -0.54823256 -0.18394566 0.5120647
000150 a3 d3 02 bf 07 25 a6 3e 45 d6 df be 44 49 2f be
       -0.5110418 0.32450125 -0.43718162 -0.17117792
000160 31 9f 99 bd 10 c2 c6 bc d2 0c 53 bd 58 8f 6d 3e
       -0.075010665 -0.024262458 -0.0515259 0.23199213
000170 38 b5 81 be eb 34 37 3e d8 d0 fb 3b d0 54 5d 3e
       -0.2533357 0.1789128 0.007684808 0.21614385
000180 c5 83 25 3e 34 55 94 be 27 07 8e be 78 37 71 bc
       0.16163547 -0.28971255 -0.27739832 -0.014722697
000190 04 52 53 bc ef 86 25 3d ac ce 95 be 8c c5 1b 3d
       -0.012897972 0.040411886 -0.2925924 0.038030192
0001a0 d7 df e2 3d c6 e2 84 3e a5 f9 5d be 46 f6 9b 3c
       0.1107785 0.25954264 -0.21677263 0.01903833
0001b0 c5 7a 7e be 6e de e8 3d 40 a4 d6 3d 74 02 ab bd
       -0.2485152 0.1137055 0.10480547 -0.08350077
0001c0 30 98 20 be a9 5a a3 3d d7 d3 b0 be f4 de 06 be
       -0.15683055 0.079762764 -0.3453662 -0.13170987
0001d0 bd 95 cb bd 3c b4 6b be c1 7f 9b 3d 8c 3e 80 3e
       -0.0994067 -0.23017973 0.075927265 0.2504772
0001e0 cc 74 c7 3d ec 75 1c be 6e 84 20 3e 92 25 1a be
       0.09739074 -0.15279359 0.15675518 -0.15053394
0001f0 d2 4e 17 bd 5a 6c ee 3d 7a cc 8d 3d ac 3b 7e 3e
       -0.036940403 0.1164176 0.069237664 0.2482745
000200 71 64 52 3d 86 88 43 bc f5 7a 6c be 8a d5 88 3d
       0.05136532 -0.011934405 -0.2309378 0.06681354
000210 c7 04 0b be 11 6f bb bd 32 ff 5b bd 60 70 8f 3e
       -0.13576041 -0.091520436 -0.05371017 0.28015423
000220 01 53 2e be 3c 48 79 be 78 1e 36 3e d6 d4 37 3d
       -0.17023851 -0.24343961 0.1778506 0.04488071
000230 67 4d 2f be 17 73 8d be d7 0f 7c be e0 08 52 be
       -0.1711937 -0.2762687 -0.24615417 -0.20511198
000240 59 13 bc 3e 20 58 11 3e bb 13 25 be 87 5d 26 bd
       0.3673351 0.14193773 -0.16120808 -0.04061654
000250 01 0e 2d 3d ca 06 09 bd c7 16 98 3e cf f1 68 bd
       0.042249683 -0.03345374 0.29704878 -0.05687123
000260 c2 ac b7 3b db 80 d4 bd 47 b0 8c 3e f6 c8 d5 be
       0.005605311 -0.1037614 0.2747824 -0.41754884
000270 aa d0 6a bc 58 87 4d be 76 36 79 3e 0a 0b 80 be
       -0.014331976 -0.20071161 0.24337181 -0.25008422
000280 73 12 f0 3d 48 75 2c be e9 b3 3b 3a f4 05 6e be
       0.11722269 -0.16841614 0.00071602926 -0.23244458
000290 fe b6 8c be 61 11 9d 3d 24 fc f3 3d 1a 00 0c bd
       -0.27483362 0.076693304 0.119133264 -0.034179784
0002a0 20 06 a9 be d4 16 f5 bc d2 e3 07 be e5 7d d3 bd
       -0.33012486 -0.029918112 -0.132705 -0.10326747
0002b0 61 9f 1f be 4e c2 42 3e 12 9e 40 be aa ed 93 bc
       -0.15588142 0.19019434 -0.18810299 -0.018057663
0002c0 34 d4 aa be e3 01 6b 3e 04 11 7d be 57 2e a0 be
       -0.33365023 0.22949938 -0.24713522 -0.31285354
0002d0 e2 7f 97 3e db 43 56 be 01 50 f5 bd 7f 64 b9 3c
       0.29589754 -0.20924322 -0.1197815 0.022630928
0002e0 74 5e b0 3b 8d 41 a0 3e b1 31 92 3e 09 bb 30 bd
       0.0053823534 0.3130001 0.28553537 -0.04314712
0002f0 dc 3d 26 be d3 56 89 3e ff b1 f1 3d 6c b2 1b be
       -0.16234535 0.26824054 0.11801528 -0.15204781
000300 d6 c3 9a be f6 7b 45 3e 58 70 72 3e b5 c2 f6 bd
       -0.30227536 0.19285569 0.23675668 -0.12048856
000310 1d 50 39 3e 9b ee 6b be ff 98 85 3e 30 60 63 be
       0.18096967 -0.2304024 0.2609329 -0.22204661
000320 de 52 b0 bd 9f 5e 71 3d 78 d9 8d be e2 e9 cb 3d
       -0.08609556 0.05892813 -0.27704978 0.09956719
000330 9b 0c b6 be 04 77 d5 3c 9e 78 77 3e 09 b5 6c be
       -0.35556492 0.026057728 0.24167106 -0.23115934
000340 25 95 aa bd a3 ec f7 3c 9e 87 51 bd 1e 58 25 3e
       -0.08329228 0.030264204 -0.051154725 0.16146895
000350 3f fa 78 3e b1 fb c7 3d 83 a8 ad 3e ed b3 0b be
       0.24314211 0.09764803 0.33917627 -0.13642855
000360 b5 41 89 3d 94 eb 5e be 76 27 3b 3d 99 fd 89 bc
       0.06701986 -0.21769553 0.04569193 -0.016844558
000370 21 3c 10 3e 99 d2 70 3e b6 09 ad 3e f3 77 b0 bd
       0.14085437 0.23517837 0.3379647 -0.086166285
000380 68 93 9d 3e cb 6a 87 3e 35 d2 33 be 29 39 aa 3e
       0.30776525 0.26448664 -0.17560656 0.33246735
000390 a0 23 48 be d2 f8 7d be b6 88 52 3e 46 b4 87 be
       -0.1954484 -0.24801949 0.20559964 -0.26504725
0003a0 bf b9 68 3d 0b 18 50 be 6c e8 68 3d ac 6b 2c be
       0.056817766 -0.20321672 0.05686228 -0.16837949
0003b0 f4 54 83 3e d6 a0 ab bd fd a9 bb 3d 1b 74 75 be
       0.25650752 -0.083802864 0.09163282 -0.23970072
0003c0 0d a2 aa 3d c6 9b 64 be f6 e7 25 be 99 29 bc 3d
       0.0833169 -0.22325048 -0.16201767 0.091876216
0003d0 31 b1 98 3d ec 93 04 3e cd b1 72 be 99 65 9d 3d
       0.074556716 0.12947053 -0.23700638 0.07685394
0003e0 6c 4d 36 3b dc 97 64 bc 77 9b ad 3d 8d b0 23 bd
       0.0027817143 -0.013952222 0.08476918 -0.039963294
0003f0 31 85 7c bd 21 39 12 be a5 50 86 be 40 53 1c 3d
       -0.06165046 -0.14279605 -0.26233402 0.03816533

encoder.blocks.1.attn.proj.weight f4 [16, 16]
000000 cd b7 c0 3e 88 c0 b7 3d aa 67 bb 3e 3d 08 54 be
       0.3764023 0.08972269 0.36602527 -0.20706268
000010 6f e5 21 be e3 bd 5d be aa c0 d2 3e 72 68 f0 3d
       -0.15810178 -0.21654467 0.41162616 0.11738671
000020 31 f6 c1 3e 32 b7 7c 3d f0 53 32 be 8f 97 2d be
       0.37883142 0.061698146 -0.17414832 -0.16952346
000030 b8 0b d3 be 94 dd 4e be 56 d4 94 bd 45 46 b1 3e
       -0.41219878 -0.20201713 -0.07267062 0.34623924
000040 6a be 02 3e 09 83 52 be 0b 8f 99 be 60 0d 3e 3e
       0.1276795 -0.20557798 -0.29991946 0.1855979
000050 9b 89 1f be 4f 5f ba 3e 91 79 ec bd 41 f3 22 3d
       -0.15579836 0.3640084 -0.115466245 0.039782766
000060 b9 ae f7 3d b5 ce 59 3d 43 41 d6 be 1d 89 a9 3e
       0.120938726 0.053175647 -0.41846666 0.33112422
000070 ef 13 d9 3e 6d fd cb 3e 6b 2f 02 3e 61 87 82 be
       0.4239802 0.39841786 0.12713401 -0.2549391
000080 14 da 2b 3d 61 4c cf bb 7b e4 c9 be 2b 80 8a bd
       0.041956022 -0.0063262437 -0.3943213 -0.06762727
000090 93 a9 7b 3e 6a fa c6 be 11 5c b6 bd 20 f0 38 3e
       0.24576406 -0.38862926 -0.08904279 0.1806035
0000a0 86 51 36 3e c7 1c 83 3c 9f ca 6a be 1e 70 3c 3e
       0.17804536 0.016004933 -0.22928856 0.18402144
0000b0 ae 60 09 3e 2f 89 4b 3e 3d d4 27 3e c4 eb 9f be
       0.13415787 0.1987655 0.16389556 -0.31234562
0000c0 5f 6e dc 3d eb 1a 03 be 5b 5b a2 bd 08 9c 89 be
       0.10763239 -0.12803237 -0.07927581 -0.26876855
0000d0 89 48 8d 3e 17 a5 c4 be 14 f1 e7 3e 6e b8 bb bc
       0.27594402 -0.38407204 0.45301116 -0.022915091
0000e0 e6 2d 44 be c9 a7 c2 bd cd 63 34 be 85 15 81 be
       -0.19158134 -0.09504659 -0.17616196 -0.2521173
0000f0 40 be 8c 3e cb 0e b6 3e 56 5b 8a be bd f9 88 be
       0.274889 0.3555816 -0.2702281 -0.26753035
000100 e1 60 a5 be 6b ec b8 3c fa 94 71 bd f5 12 d8 bd
       -0.32300475 0.02257367 -0.058979966 -0.10550491
000110 74 1c e4 3c a8 0a 7d 3e fe b0 8c be 0a 60 9d be
       0.027845599 0.24711096 -0.27478784 -0.30737334
000120 41 b7 0a 3e fc a5 87 be 5c 43 9c 3d 4a ca 05 bd
       0.13546468 -0.26493824 0.07630035 -0.03266362
000130 ae db c6 3d 60 7c 5f 3e 58 21 ad be c6 70 70 be
       0.09709869 0.21824789 -0.33814502 -0.2348052
000140 db d3 41 be fd 84 3c be b9 da 46 3e 33 bb fc 3d
       -0.18928473 -0.18410106 0.19419374 0.12340393
000150 7d ac 41 be 3e f9 8c bc 97 6f 2e be aa c3 b5 be
       -0.18913455 -0.017208692 -0.17034756 -0.35500842
000160 4f 26 a6 bd c9 68 9c 3e 27 3b 9c 3e e7 92 0c 3e
       -0.081127755 0.30548695 0.3051388 0.13727914
000170 9c 7c c4 bd 9a 37 25 be 0b 90 37 3e 46 da 16 3e
       -0.0959408 -0.16134492 0.17926042 0.14731702
000180 74 59 c5 be d2 8d 57 3c bf 3b 3f 3d e0 e7 4e 3e
       -0.3854481 0.013156371 0.046687838 0.20205641
000190 9f d6 6f 3e 9f 69 b8 3d a5 d9 a9 be ff 15 95 3e
       0.23421715 0.090045206 -0.33173862 0.29118344
0001a0 1d 74 89 3e 3f a1 67 3e 30 a2 e5 bd bc 6f 1f 3e
       0.268464 0.22620104 -0.112125754 0.15569967
0001b0 ce 4c bb be e2 b8 96 be 7f f3 45 bd a2 88 6d be
       -0.36582035 -0.2943793 -0.04832792 -0.23196653
0001c0 81 2d 27 be 82 4b 0b bd d9 47 00 3e e3 89 a4 bd
       -0.16325952 -0.034007557 0.12527408 -0.08034112
0001d0 70 bd e8 be da 0a 89 be d1 ce c1 bd fa 46 89 bd
       -0.4545703 -0.26766092 -0.09463275 -0.06702991
0001e0 02 3e 89 be 70 87 ba 3e 0b 6f d1 3d 50 bc 2d 3e
       -0.2680512 0.36431456 0.10226258 0.16966367
0001f0 40 20 9c 3e 5c 2a 10 be e9 f2 b4 3e 45 56 1d be
       0.30493355 -0.14078659 0.35341576 -0.1536494
000200 5e 8c 5a 3e 94 69 1e 3e 7b 6f 13 3e de 65 b4 3c
       0.21342608 0.15469962 0.14397995 0.02202123
000210 cb 7e 78 bd db ea 8c be 69 0a f4 3d 66 51 b5 3e
       -0.060667794 -0.2752293 0.11916048 0.35413665
000220 06 26 20 3e 21 0a af 3e 11 c6 61 be 82 ef c5 3d
       0.15639505 0.34187415 -0.22048213 0.09664823
000230 cd ec a2 be 97 14 bc be 61 f0 60 be 56 21 f4 3d
       -0.3182129 -0.3673446 -0.21966697 0.11920421
000240 57 0d 6a bd ba be 9c 3e cf ff c6 be 10 ab e5 3e
       -0.057141628 0.30614263 -0.3886704 0.44857073
000250 6a 06 0b be 5a ab d1 be e0 ae b7 3d e7 62 64 3e
       -0.13576666 -0.40951043 0.08968902 0.22303353
000260 da 0f 9d 3e c7 e5 6a be c4 3e f8 3e 61 1c ad 3e
       0.30676156 -0.22939216 0.48485386 0.33810714
000270 b8 cb ec be 4a c9 ca be 85 04 f7 3d 62 81 21 be
       -0.46249175 -0.39606696 0.12061409 -0.15772012
000280 cd ae a4 be 76 dd af be 36 57 d0 3d c2 42 8f bd
       -0.32164612 -0.3434865 0.10172884 -0.06995155
000290 00 6b 16 be 44 1a da be 6c 7e ce 3e 7d c6 9d 3e
       -0.14689255 -0.42598164 0.40330827 0.30815497
0002a0 fd 2c ac 3e 54 9f aa be 96 e5 dc be 98 e4 01 3d
       0.33628073 -0.33324683 -0.4314391 0.031712145
0002b0 c1 a2 4c 3e f9 17 6f be 91 2c b2 3e fd 60 b6 be
       0.1998396 -0.23348989 0.34799626 -0.3562087
0002c0 87 e9 00 3f 0b c1 0f 3e 52 73 84 be 5a 60 a1 3d
       0.50356334 0.14038484 -0.25869232 0.07879706
0002d0 ba f7 df 3e 53 4e 4b 3d 1e d6 9b be 7b bc 7a be
       0.43743688 0.049635243 -0.30436796 -0.24485962
0002e0 0a 44 2e 3e 9d a8 cc bb d0 85 b4 3e ae 56 74 3d
       0.17018142 -0.006245686 0.3525834 0.059652977
0002f0 f5 75 b5 3d ed 72 49 3d 3b 2d 7c 3e 65 60 b2 3e
       0.08860389 0.049181867 0.24626629 0.34839168
000300 7a df c7 3e 50 4e 8a 3e f8 4a ba be 5f 32 8b be
       0.39037687 0.27012873 -0.36385322 -0.27186868
000310 14 fb f0 be 2d 8e d5 be 93 f3 77 be 0e ae a6 bd
       -0.47066557 -0.41710034 -0.2421401 -0.08138667
000320 49 10 14 3e 8d f8 a3 be a2 79 94 be 27 5d 85 3c
       0.14459337 -0.32025567 -0.28999048 0.01627977
000330 28 f2 28 3e 70 ae 95 3e ed 91 d2 3d f9 42 81 3e
       0.16498625 0.29234648 0.102817394 0.2524641
000340 e4 41 1f be 2f cb b2 bd 99 d2 81 be 9a 87 cb 3e
       -0.15552479 -0.087301604 -0.25355986 0.39751893
000350 a4 6a 97 3d ba 3c 86 3e d1 da b3 3e a2 c2 4c 3c
       0.07393387 0.26218206 0.3512788 0.012497576
000360 68 01 4e be ff 01 90 bd 56 3d a9 be 8b 80 95 be
       -0.20117724 -0.07031631 -0.33054608 -0.29199633
000370 7b 70 08 be b4 84 4e be 82 4c 89 be e4 8a 9b bd
       -0.13324158 -0.2016781 -0.26816183 -0.07594851
000380 c9 29 33 be cd ac 9c be ef 26 0c be 15 b6 20 be
       -0.17496409 -0.30600587 -0.13686727 -0.15694459
000390 a6 28 a2 3d 69 b6 c6 3e ba 95 49 bd a3 79 e3 be
       0.07917909 0.38811043 -0.049215056 -0.4442874
0003a0 67 0a aa bc f5 a7 16 3e ba bd 1d be 9a 92 a6 be
       -0.020756913 0.14712508 -0.15404406 -0.32533723
0003b0 28 77 0c 3e d2 6e 5e 3e a3 9c 4f 3e 87 61 9a be
       0.1371733 0.21721962 0.20274596 -0.30152532
0003c0 1e 94 b0 3e 4c bf 5f 3e 85 87 2f 3e a7 63 ca 3b
       0.34488004 0.21850318 0.1714154 0.0061764303
0003d0 c3 51 3d 3d f3 a8 e4 3c 3d f1 c2 bd 3a fc cb 3e
       0.046220552 0.027912593 -0.09518669 0.3984087
0003e0 83 4d d0 be 28 00 1a 3e 63 fc 32 bd eb cc 9a 3d
       -0.40684137 0.15039122 -0.043697726 0.07558616
0003f0 51 4e d6 bd 10 e7 9e be 7d e5 7b 3e 2b 56 96 be
       -0.104641564 -0.31035662 0.24599262 -0.29362616
