Checkpoint/dict_22.pth (torch, 108787 bytes, 64 tensors)

encoder.cls_token f4 [1, 1, 16]
-0.23188418 -0.99075377 0.18994114 -0.53597957 -0.72215873 -1.5426286 0.67904484 -0.35823914
-0.72607994 -0.3512578 -0.2557541 -0.16097398 1.7232581 -0.3832346 0.31433767 1.2859026
00000000: 0c73 6dbe 0aa2 7dbf ee7f 423e f535 09bf
00000010: 65df 38bf db74 c5bf e2d5 2d3f 1f6b b7be
00000020: 60e0 39bf 10d8 b3be 34f2 82be 5dd6 24be
00000030: b993 dc3f 5337 c4be def0 a03e 7598 a43f

encoder.patch_embed.weight f4 [16, 5]
0.016476225 -0.18283227 -0.17766006 0.16322084 -0.3097287 0.21803693 0.119482554 -0.1075127
-0.52768385 0.021849446 0.25368458 0.2897337 0.25749236 0.47334284 -0.22468312 -0.3698418
-0.3499187 -0.019814117 -0.23298375 -0.30536464 0.11268304 -0.64318377 0.07275003 -0.2512216
0.17448969 -0.59058064 0.3820214 -0.016487109 0.12775333 -0.47089893 -0.41050753 0.6810158
-0.09119811 -0.22440389 0.2415586 0.2832633 -0.011273931 -0.2691965 0.44474247 -0.061569147
-0.5663779 -0.32672527 0.057159547 -0.43858036 -0.3588533 -0.21717766 0.4837038 -0.5964893
-0.035780072 0.38438234 0.16685791 -0.18650763 -0.088871114 0.25234705 0.018069206 0.12934881
-0.4852628 0.56927836 0.5042397 0.32719368 0.0047987555 -0.12904906 -0.45276168 -0.5828639
0.5456113 0.47085667 -0.48032457 -0.3670492 -0.016884847 0.3945029 -0.2722128 -0.010546945
-0.52379525 0.1615373 -0.34904772 0.2047194 -0.5244654 -0.17651473 0.15506461 -0.50954807
00000000: 26f9 863c 6238 3bbe 85ec 35be 5d23 273e
00000010: c394 9ebe 1345 5f3e 45b3 f43d 9e2f dcbd
00000020: 4a16 07bf 9cfd b23c f2e2 813e fa57 943e
00000030: 0ad6 833e fe59 f23e 5513 66be e85b bdbe
00000040: 8b28 b3be 3751 a2bc 4b93 6ebe c158 9cbe
00000050: 5ec6 e63d b1a7 24bf f8fd 943d 1ea0 80be
00000060: 6dad 323e 4b30 17bf 4f98 c33e f90f 87bc
00000070: c5d1 023e aa19 f1be 0b2e d2be 0d57 2e3f
00000080: 13c6 babd 22ca 65be 235b 773e e307 913e
00000090: 4bb6 38bc 20d4 89be 49b5 e33e ee2f 7cbd
000000a0: 24fe 10bf 8948 a7be 2120 6a3d 9b8d e0be
000000b0: 9fbb b7be d263 5ebe 06a8 f73e 86b3 18bf
000000c0: 208e 12bd c3cd c43e cddc 2a3e dbfb 3ebe
000000d0: 0f02 b6bd a233 813e df05 943c 0474 043e
000000e0: 5e74 f8be 3abc 113f da15 013f ee85 a73e
000000f0: e13e 9d3b 7025 04be 61d0 e7be 9236 15bf
00000100: 2fad 0b3f 2014 f13e 1aed f5be dfed bbbe
00000110: 1752 8abc 49fc c93e 7a5f 8bbe 18cd 2cbc
00000120: 7217 06bf 096a 253e 62b6 b2be f6a1 513e
00000130: 5d43 06bf 47c0 34be 42c9 1e3e be71 02bf

encoder.patch_embed.bias f4 [16]
0.07671937 0.03356886 0.006733378 0.00014418812 0.019390015 -0.041941628 -0.025367368 -0.01307146
0.024151051 -0.02424143 0.02197335 0.01114593 -0.017994523 0.12567231 0.027814114 -0.08031907
00000000: 0c1f 9d3d 807f 093d aba3 dc3b 3431 1739
00000010: cfd7 9e3c fcca 2bbd 3acf cfbc ad29 56bc
00000020: 6dd8 c53c f795 c6bc 7401 b43c 6b9d 363c
00000030: 4069 93bc 3eb0 003e 6dda e33c 537e a4bd

encoder.blocks.0.norm1.weight f4 [16]
1.0533879 1.1434598 0.9143881 1.0026901 1.0239931 1.0057541 1.0379747 1.0243878
0.96468127 0.9314781 0.9330893 1.0659829 1.0631827 1.1550646 0.9994409 0.97727615
00000000: 6ad5 863f e45c 923f 5715 6a3f 2658 803f
00000010: 3512 833f 8dbc 803f 5bdc 843f 241f 833f
00000020: 5af5 763f 5975 6e3f f1de 6e3f 2172 883f
00000030: 5f16 883f 28d9 933f 5cdb 7f3f c52e 7a3f

encoder.blocks.0.norm1.bias f4 [16]
-0.054740045 0.025862653 0.06364579 0.07353447 0.021475216 -0.028027749 -0.046430018 0.044151857
-0.036606852 -0.038259216 0.026203867 0.04396328 -0.04543921 0.11486941 0.029437164 0.008485261
00000000: 1937 60bd eadd d33c b958 823d 3d99 963d
00000010: cbec af3c 739a e5bc 672d 3ebd 94d8 343d
00000020: 11f1 15bd b2b5 1cbd 7ea9 d63c d712 343d
00000030: 771e 3abd a740 eb3d 3526 f13c c405 0b3c

encoder.blocks.0.attn.qkv.weight f4 [48, 16]
-0.13209525 0.32166448 0.2527379 0.4553481 0.012798101 0.083472945 -0.12461852 -0.055127736
0.2006289 -0.40156016 0.072012365 0.25030512 -0.31140637 0.36625433 -0.21542926 -0.09609341
0.0075720935 -0.14609687 0.22413585 0.48359865 0.1277487 0.21494614 -0.2644265 0.047597267
0.33062327 -0.31970537 -0.031091828 0.37539864 -0.41168684 0.2563051 -0.40430516 0.14730051
0.26836488 0.11737297 0.061346 0.02648805 -0.00108865 -0.0051341197 0.30509648 -0.30097133
0.057654854 -0.4877499 0.21011022 -0.2898205 -0.10427538 -0.1754696 -0.051489606 -0.06478558
-0.17135133 -0.19874294 0.042716376 0.11808837 0.13035898 0.2608688 -0.24574648 -0.22192429
0.212999 -0.2580559 -0.09190291 0.32779 -0.18965581 0.21415602 -0.16393451 -0.002616182
0.1527856 0.43467462 -0.31458765 -0.19945703 -0.029196182 -0.13863002 0.40337342 -0.031057354
0.09270493 -0.1845085 0.10823972 0.039468657 0.47726837 -0.3811699 0.22604465 -0.45586398
-0.11788889 0.50498706 -0.061606325 -0.2958918 -0.14028108 -0.36257687 0.26738393 -0.37083685
0.31462628 -0.019908357 0.40121952 0.21608636 -0.09850245 -0.022968419 0.27781922 -0.040304117
-0.17681065 -0.44178307 0.52799076 0.18822771 -0.44476753 0.27316797 0.11998058 0.2695511
-0.15178983 -0.16100952 -0.43128252 -0.050177857 -0.19871466 0.47266617 0.059273213 0.366808
-0.37109435 -0.35966125 0.36435387 0.38016793 -0.17759748 0.12820074 -0.23582841 0.56212705
-0.19816221 -0.35060307 0.25073823 0.5111195 -0.18804786 0.09622617 -0.35691962 0.35594684
-0.04227482 -0.14965451 -0.12939963 -0.30102473 0.024197115 -0.06225459 -0.083190486 0.036025245
0.29659498 -0.2037946 0.15255252 -0.22882406 0.096321374 -0.020854088 0.14946286 -0.34753287
0.31391886 0.52275485 -0.02278 -0.23931356 0.15599921 0.038824387 0.3574431 -0.2283055
-0.11254343 -0.13348468 0.29236546 0.16038997 0.004913639 -0.035492484 0.021763578 -0.24581051
0.14682356 0.008481035 -0.013566611 -0.21970728 0.39069203 -0.07974794 0.31447798 -0.10694013
-0.02814713 0.04071145 0.462895 -0.3720404 0.22214769 0.10665113 -0.14141433 -0.4680291
0.17506568 0.37465852 0.12917359 0.24118067 -0.25303698 -0.031769708 0.12720704 -0.076461785
0.22267903 0.15929537 -0.15445057 -0.21790487 0.13452418 -0.2105599 -0.13935055 -0.12336462
-0.045305878 0.061685454 -0.39867538 0.058122773 -0.16276138 0.17336097 0.2274084 -0.16299015
-0.3380038 0.13687705 0.10288448 0.026643341 0.14883566 -0.33476782 -0.06289009 -0.09368162
-0.25791916 0.18290685 0.07065236 -0.06431406 0.17535466 0.11835015 0.19867027 -0.28406397
-0.30982733 0.14458409 0.15825622 0.23265405 0.18483919 -0.2525788 -0.27775806 0.17754129
-0.031991217 -0.18702878 0.0066327862 -0.15834033 0.28764918 -0.16149868 0.009711619 -0.14333121
-0.07222455 -0.107600704 -0.09252363 0.13078563 0.082545236 0.06377882 -0.012471781 -0.21367563
-0.09744281 0.067858815 -0.18019836 -0.14156748 -0.08667788 -0.34232116 -0.17525198 -0.28571662
0.1883761 -0.07432586 -0.12771744 0.025682494 -0.2567135 0.13476275 -0.14925528 0.044689253
00000000: fa43 07be 35b1 a43e dd66 813e 6323 e93e
00000010: 20af 513c ddf3 aa3d ff37 ffbd 9fcd 61bd
00000020: aa71 4d3e 4b99 cdbe 387b 933d fe27 803e
00000030: a870 9fbe b085 bb3e 7d99 5cbe 9fcc c4bd
00000040: 531f f83b 6b9a 15be de83 653e 3e9a f73e
00000050: 8ed0 023e d71a 5c3e e962 87be 5af5 423d
00000060: 7447 a93e 6cb0 a3be 4ab4 febc 4034 c03e
00000070: 9ec8 d2be 6c3a 833e 1601 cfbe f2d5 163e
00000080: 1f67 893e 3d61 f03d f145 7b3d 78fd d83c
00000090: 08b1 8eba 1e3c a8bb 9b35 9c3e ea18 9abe
000000a0: 7f27 6c3d 5bba f9be 2227 573e 5a63 94be
000000b0: 558e d5bd 4eae 33be c4e6 52bd 4dae 84bd
000000c0: b976 2fbe 4583 4bbe 5ef7 2e3d 51d8 f13d
000000d0: d37c 053e 9890 853e f7a4 7bbe 1f40 63be
000000e0: 691c 5a3e e71f 84be 9837 bcbd 17d4 a73e
000000f0: 2235 42be b74b 5b3e 73de 27be 4074 2bbb
00000100: d473 1c3e ac8d de3e a211 a1be 773e 4cbe
00000110: d52c efbc 07f5 0dbe f686 ce3e fe6b febc
00000120: 15dc bd3d ccef 3cbe c9ac dd3d e3a9 213d
00000130: 855c f43e b328 c3be 4078 673e 0167 e9be
00000140: bb6f f1bd d546 013f ea56 7cbd 217f 97be
00000150: d8a5 0fbe ada3 b9be 8ce6 883e 54de bdbe
00000160: b216 a13e da16 a3bc a56c cd3e be45 5d3e
00000170: a7bb c9bd 4428 bcbc 523e 8e3e ee15 25bd
00000180: da0d 35be 6431 e2be 672a 073f c4be 403e
00000190: 92b8 e3be acdc 8b3e 61b8 f53d 9a02 8a3e
000001a0: cb6e 1bbe aedf 24be 10d1 dcbe 4c87 4dbd
000001b0: db7b 4bbe 4d01 f23e 78c8 723d 42ce bb3e
000001c0: 1400 bebe 8525 b8be 978c ba3e 5fa5 c23e
000001d0: 1ddc 35be 0e47 033e 017d 71be 8fe7 0f3f
000001e0: 09eb 4abe 3f82 b3be c360 803e bad8 023f
000001f0: 9e8f 40be 3a12 c53d 2bbe b6be aa3e b63e
00000200: 5d28 2dbd 083f 19be 5681 04be ea1f 9abe
00000210: 0739 c63c abfe 7ebd c65f aabd 358f 133d
00000220: 4cdb 973e 88af 50be ba36 1c3e db50 6abe
00000230: 2444 c53d 31d6 aabc cb0c 193e d4ef b1be
00000240: f9b9 a03e 43d3 053f 1f9d babc 9d0e 75be
00000250: 42be 1f3e 5206 1f3d c802 b73e ebc8 69be
00000260: 2b7d e6bd 35b0 08be edb0 953e 453d 243e
00000270: 9702 a13b 9160 11bd 8849 b23c c0b5 7bbe
00000280: ea58 163e 0af4 0a3c 7e46 5ebc f2fa 60be
00000290: c908 c83e e352 a3bd 4203 a13e 6d03 dbbd
000002a0: cf94 e6bc 0dc1 263d 9300 ed3e 147c bebe
000002b0: af7a 633e e86b da3d ebce 10be 83a1 efbe
000002c0: 6b44 333e 3ed3 bf3e 1546 043e 11f8 763e
000002d0: 108e 81be f420 02bd 9042 023e ff97 9cbd
000002e0: f905 643e 531e 233e 4a28 1ebe 7422 5fbe
000002f0: b5c0 093e 049d 57be e9b1 0ebe 97a6 fcbd
00000300: a892 39bd e3a9 7c3d 2e1f ccbe 2512 6e3d
00000310: ebaa 26be 8a85 313e bfdd 683e e4e6 26be
00000320: d60e adbe 7f29 0c3e 19b5 d23d 2343 da3c
00000330: 6068 183e b066 abbe 85cc 80bd 26dc bfbd
00000340: fb0d 84be ef4b 3b3e 2fb2 903d 17b7 83bd
00000350: 2c90 333e 9061 f23d 3870 4b3e d570 91be
00000360: b0a1 9ebe da0d 143e eb0d 223e dd3c 6e3e
00000370: 7c46 3d3e 0252 81be 4e36 8ebe 62cd 353e
00000380: 3909 03bd 7984 3fbe d857 d93b f823 22be
00000390: c146 933e e95f 25be 7b1d 1f3c 6bc5 12be
000003a0: 77ea 93bd c25d dcbd 077d bdbd abec 053e
000003b0: 7a0d a93d 789e 823d 7156 4cbc c9cd 5abe
000003c0: 1990 c7bd 90f9 8a3d eb85 38be 11f7 10be
000003d0: 2c84 b1bd b844 afbe 4175 33be 7349 92be
000003e0: aae5 403e 2838 98bd 5cc8 02be 1864 d23c
000003f0: f46f 83be 3fff 093e 60d6 18be 140c 373d

encoder.blocks.0.attn.proj.weight f4 [16, 16]
-0.28958994 0.13455713 0.2625552 0.3993767 -0.35539442 0.40073547 0.24904837 -0.03453427
-0.32191703 -0.5042982 0.109521344 0.23099603 -0.0110930195 0.39477915 -0.30540213 0.32973304
0.3488796 -0.10910972 0.24177243 -0.036384758 -0.259438 -0.20915888 0.4425363 0.014266266
-0.14176565 0.34089732 -0.39354745 -0.26032272 0.12850536 0.16150172 -0.44686216 0.21179743
-0.28979978 -0.1862527 -0.08739163 0.35546544 -0.4637586 -0.09995702 0.25483057 0.24317218
0.0434353 0.24513301 -0.15108892 0.4276386 0.4083391 0.19772902 0.4158403 -0.3711542
0.17885196 0.5775969 0.25065455 0.06067097 -0.39735705 -0.20938697 -0.51772004 -0.33034754
-0.25530016 0.11556875 0.07470609 -0.07639214 0.29165402 -0.3225747 -0.19736266 0.004254726
-0.34147406 -0.10099677 -0.053005997 0.38344952 0.25336626 -0.006179731 0.17639492 0.0076848455
0.002176864 0.054716837 -0.20416866 0.36490086 0.15205112 0.29949802 -0.114303924 0.14447655
0.38756818 -0.34847453 0.29182944 0.5016715 -0.052476954 -0.33501777 0.17383365 -0.07363372
-0.02692125 0.1910705 -0.28700557 -0.23404032 -0.3229291 0.32931423 0.2088065 0.43268448
0.36327899 0.48033157 -0.34695506 0.23647857 -0.29622206 -0.2937209 -0.4846988 0.32088873
0.2905635 0.38432917 -0.3453317 0.21331932 -0.089948155 0.22809947 -0.17578618 -0.40643823
0.34166145 0.16123386 -0.34623525 -0.4948705 -0.17788464 -0.42353496 0.2318554 0.03141626
-0.002140299 0.33616525 -0.14058223 -0.0050687054 0.28273427 0.21517402 -0.0087664835 -0.33636072
0.36597195 0.11020037 0.30759132 -0.34639943 0.29019347 -0.09172329 0.2903789 -0.054429535
0.07719366 -0.14597236 -0.08439501 -0.117822886 0.04368492 -0.029845813 0.31214193 -0.15370697
0.011094312 -0.51687443 -0.13981317 -0.025735775 0.21743089 -0.1474623 0.15468729 -0.23009951
-0.039447665 -0.1982867 -0.19934802 -0.054256767 -0.12045118 0.4018262 -0.074910775 -0.4077916
0.19071986 -0.0746791 -0.26687995 -0.1590515 -0.13975716 0.12925977 -0.42050204 0.38955116
-0.024153497 0.40584505 -0.27787003 0.24113095 0.26051402 -0.34449008 0.29517603 -0.39498875
0.018334381 -0.25612038 -0.099405766 0.14706537 -0.2069892 -0.39439562 0.10428209 -0.36808333
-0.07835281 0.19321336 -0.36725003 0.09039304 -0.26396924 -0.23213476 -0.06066875 -0.25619832
0.24916938 -0.15290189 0.1973804 0.15250337 0.28838077 0.20733656 -0.045905344 0.39543882
0.10912675 -0.29936072 0.3415169 -0.25794646 -0.12513681 0.14925462 -0.32579285 0.45192122
-0.002914971 -0.43606472 0.42261973 -0.33099484 -0.08374784 -0.038295772 0.0743508 0.23369679
0.21881947 0.24099474 0.13265435 0.16740014 0.1826717 0.1794624 -0.101983234 -0.23667666
0.05885504 -0.5412879 0.12229056 -0.2562514 -0.15059659 -0.2337514 -0.26583022 -0.4347092
0.4124064 -0.0076055853 0.17643191 0.22251186 0.37844047 0.2529389 0.318573 -0.2600977
0.22563674 -0.22652829 0.056887154 -0.18637648 0.09049735 0.08941107 0.032100353 0.021220647
-0.18641107 0.29254574 0.17329267 -0.35241836 0.35677406 -0.3503469 -0.32139233 0.26948786
00000000: 2245 94be 58c9 093e a36d 863e 1a7b cc3e
00000010: 42f6 b5be 332d cd3e 8906 7f3e cf73 0dbd
00000020: 4fd2 a4be b019 01bf ba4c e03d 398a 6c3e
00000030: 7fbf 35bc 7e20 ca3e ab5d 9cbe c5d2 a83e
00000040: 59a0 b23e eb74 dfbd 3193 773e 2f08 15bd
00000050: 0fd5 84be bf2d 56be 1e94 e23e 0ebd 693c
00000060: 042b 11be 188a ae3e 0d7f c9be 0549 85be
00000070: e996 033e b560 253e 1ecb e4be 6de1 583e
00000080: a360 94be 07b9 3ebe 62fa b2bd 91ff b53e
00000090: c471 edbe 44b6 ccbd 2779 823e 2102 793e
000000a0: 37e9 313d 2604 7b3e 0eb7 1abe 72f3 da3e
000000b0: d311 d13e 7a79 4a3e 05e9 d43e ec07 bebe
000000c0: f824 373e 64dd 133f cb55 803e 1f82 783d
000000d0: 6272 cbbe 8a69 56be 4d89 04bf 5023 a9be
000000e0: b4b6 82be 4faf ec3d 82ff 983d 7b73 9cbd
000000f0: ad53 953e 8328 a5be 7019 4abe 3b6b 8b3b
00000100: b0d5 aebe 65d7 cebd d11c 59bd 7f53 c43e
00000110: 39b9 813e 577f cabb dfa0 343e 28d1 fb3b
00000120: b8a9 0e3b c31e 603d 9711 51be 49d4 ba3e
00000130: 4ab3 1b3e ce57 993e 2d18 eabd a9f1 133e
00000140: 566f c63e 416b b2be ab6a 953e 8b6d 003f
00000150: 13f2 56bd 7387 abbe 7301 323e 47cd 96bd
00000160: f489 dcbc fca7 433e 65f2 92be 44a8 6fbe
00000170: f756 a5be e09b a83e 5fd1 553e d288 dd3e
00000180: b4ff b93e 05ee f53e 18a4 b1be 7027 723e
00000190: 6baa 97be 9662 96be 712a f8be 874b a43e
000001a0: bdc4 943e cbc6 c43e 51cf b0be 6170 5a3e
000001b0: bd36 b8bd e892 693e 4b01 34be ac18 d0be
000001c0: 40ee ae3e 7d1a 253e bf45 b1be ab5f fdbe
000001d0: 6427 36be 93d9 d8be 816b 6d3e 56ae 003d
000001e0: 4244 0cbb da1d ac3e caf4 0fbe 6217 a6bb
000001f0: 8cc2 903e 9456 5c3e 4ca1 0fbc 7937 acbe
00000200: ad60 bb3e bbb0 e13d 9c7c 9d3e 445b b1be
00000210: 3d94 943e 6cd9 bbbd 8bac 943e 81f1 5ebd
00000220: b617 9e3d c779 15be 4ad7 acbd 204d f1bd
00000230: f5ee 323d 357f f4bc 11d1 9f3e 5c65 1dbe
00000240: ebc4 353c e251 04bf 2f2b 0fbe d5d3 d2bc
00000250: 34a6 5e3e 5b00 17be 5866 1e3e 359f 6bbe
00000260: e093 21bd ab0b 4bbe e321 4cbe 583c 5ebd
00000270: 1caf f6bd 2abc cd3e d26a 99bd 10ca d0be
00000280: 114c 433e 5bf1 98bd 7da4 88be 65de 22be
00000290: 801c 0fbe ac5c 043e 0b4c d7be 4073 c73e
000002a0: 8edd c5bc ecca cf3e fb44 8ebe 08eb 763e
000002b0: 1862 853e 0161 b0be 5021 973e f73b cabe
000002c0: fc31 963c 3622 83be 4095 cbbd 4e98 163e
000002d0: faf4 53be 39ee c9be d991 d53d 6b75 bcbe
000002e0: 7077 a0bd b9d9 453e 3208 bcbe fc1f b93d
000002f0: fa26 87be bcb4 6dbe cc7f 78bd 6d2c 83be
00000300: 4226 7f3e 5092 1cbe 161e 4a3e d829 1c3e
00000310: a5a6 933e 0950 543e 3e07 3cbd f576 ca3e
00000320: d87d df3d cf45 99be 4edb ae3e 8f11 84be
00000330: dd23 00be 34d6 183e 52ce a6be 3862 e73e
00000340: 1909 3fbb e043 dfbe 9d61 d83e 2878 a9be
00000350: fd83 abbd 07dc 1cbd 3b45 983d 364e 6f3e
00000360: 3612 603e 53c7 763e 8bd6 073e f16a 2b3e
00000370: 4a0e 3b3e fec4 373e 96dc d0bd 5e5b 72be
00000380: fc11 713d d891 0abf 7973 fa3d 6233 83be
00000390: fe35 1abe 875c 6fbe e61a 88be 3492 debe
000003a0: ef26 d33e 4638 f9bb 91aa 343e 26da 633e
000003b0: f3c2 c13e 3581 813e 001c a33e 872b 85be
000003c0: 510d 673e 08f7 67be 8102 693d 7ad9 3ebe
000003d0: ad56 b93d 271d b73d a97b 033d ecd6 ad3c
000003e0: 8be2 3ebe 8ec8 953e a273 313e 2e70 b4be
000003f0: 17ab b63e ab60 b3be 898d a4be 50fa 893e

encoder.blocks.0.attn.proj.bias f4 [16]
-0.039406806 0.035283107 -0.011956575 0.070262164 -0.053501327 -0.025533073 0.028836742 0.049732964
-0.0452911 -0.03928242 0.029223597 -0.00655694 -0.038934495 0.032824017 0.023668222 -0.009394679
00000000: 0869 21bd 0585 103d 83e5 43bc 9ce5 8f3d
00000010: 3524 5bbd bc2a d1bc 083b ec3c cbb4 4b3d
00000020: 2983 39bd 9ae6 20bd 5366 ef3c 99db d6bb
00000030: c779 1fbd 7a72 063d dce3 c13c 24ec 19bc

encoder.blocks.0.norm2.weight f4 [16]
0.98682743 1.1206347 0.9019231 0.8858057 0.888108 0.99582934 1.0047054 0.8638834
1.0183686 0.9094081 0.87501657 1.0213284 0.9903404 0.95153 0.9988598 0.9622334
00000000: b9a0 7c3f f570 8f3f 6fe4 663f 2ac4 623f
00000010: 0c5b 633f acee 7e3f 309a 803f 7627 5d3f
00000020: e759 823f f8ce 683f 1601 603f e4ba 823f
00000030: f386 7d3f 7897 733f 47b5 7f3f ee54 763f

encoder.blocks.0.norm2.bias f4 [16]
0.030660711 0.030036146 -0.017347855 0.030471047 0.02111258 0.057557378 -0.011692866 -0.06351491
-0.041550923 0.05042145 0.01641426 0.0145918755 0.0033949725 0.026318826 0.029244483 0.0085597625
00000000: 2c2c fb3c 5d0e f63c 171d 8ebc 6b9e f93c
00000010: 4af4 ac3c 49c1 6b3d 6f93 3fbc 1b14 82bd
00000020: 4d31 2abd b986 4e3d 3377 863c c312 6f3c
00000030: 307e 5e3b 949a d73c 2092 ef3c 3f3e 0c3c

encoder.blocks.0.mlp.fc1.weight f4 [64, 16]
0.25440836 -0.032119453 -0.27072772 -0.2335131 0.18855226 -0.20121597 0.2240643 0.2190287
-0.1522331 -0.10725448 0.1259062 0.064342655 0.22216322 -0.19361565 -0.2296868 -0.16426119
0.18387139 -0.0537365 0.044248447 0.17904726 -0.14300327 -0.19079089 0.12623876 -0.32824555
0.17897695 -0.17757209 -0.0036826613 -0.31671792 0.12491157 -0.08360749 0.32157108 0.09404279
0.22347106 0.0007330983 0.20737413 0.024329277 -0.2959278 0.0010247543 -0.28629297 -0.30715522
0.21084821 -0.08626134 -0.0001782831 -0.24821055 0.25193968 -0.1833245 0.20237677 0.30738837
0.16777182 0.34512344 -0.2081461 -0.041461606 -0.2075663 0.13159178 0.13330539 -0.26554132
0.02221266 0.24313763 0.25186625 -0.13422634 0.102706835 0.1612529 -0.01727705 0.044665303
0.13353908 0.22696494 -0.29593274 0.16263585 -0.11729034 -0.0040357998 -0.035307195 -0.043544933
-0.17172664 0.19843486 0.169001 0.030700162 -0.123360105 0.10794206 0.20082392 0.37161097
0.08278923 0.05440007 0.21685952 -0.046687286 0.18413302 0.12551878 0.15083212 -0.05884527
0.23861621 -0.083277 -0.09440682 0.1540988 0.04908074 -0.28901893 0.30197552 0.21738115
0.08567929 0.2827189 -0.20604563 0.1049998 0.03208963 -0.08075741 -0.22707696 -0.22930536
-0.22001906 0.036566615 -0.2656222 0.3031466 0.07370525 -0.23104505 -0.018819196 -0.16595472
-0.00021881031 0.18705554 -0.11668011 -0.28149083 0.071742676 -0.12037797 -0.17835338 -0.07602292
0.11101229 -0.15323757 0.20477363 -0.23924361 0.0031906245 0.012111913 -0.14421123 -0.121820405
0.23951417 0.26000205 0.09130298 -0.0025703465 -0.20357971 -0.051373962 -0.15149309 -0.17316519
-0.1367642 0.096314624 0.08481824 0.10146091 -0.116434455 -0.16362287 -0.30608743 -0.059111036
-0.18848953 -0.06066592 -0.16732486 -0.21139698 0.16328762 0.1044193 0.044170406 -0.12506825
0.24390909 -0.14707972 -0.1750061 0.17718384 0.14852317 -0.14122225 -0.09541055 0.014875691
-0.18067986 -0.22797978 -0.10306851 -0.088310786 0.059848674 -0.10316096 0.114461824 -0.010381368
0.14143474 -0.18044677 -0.21874958 -0.026469178 -0.13322403 0.10658598 0.20395182 -0.2264104
0.099033 -0.08342236 0.14120103 -0.07768325 -0.03088489 -0.029605642 -0.09153576 0.04964821
0.18417978 0.07506183 0.06639895 0.090979 0.23802918 -0.032322414 -0.15176263 0.03878559
-0.21502477 0.117525384 -0.22943424 -0.11757034 0.07907334 -0.015722163 0.021851676 0.20833978
0.031156741 -0.03994108 0.11587655 0.03533642 -0.044207852 -0.14704919 -0.32861665 -0.15101168
0.034887996 0.1735223 -0.019826664 0.11611889 -0.080829605 0.0005347183 -0.24615982 -0.037877984
0.23996717 -0.23481584 -0.25854477 -0.04574306 -0.0016934932 -0.28874496 -0.055820182 0.14862448
0.20646091 0.2933858 0.21446855 0.032851815 0.074252866 0.045361932 -0.12250335 -0.30026588
0.29855603 0.0035808121 -0.10952153 -0.053047262 -0.20455246 -0.33132523 0.24668786 -0.078148074
0.16141199 -0.12784551 -0.023626404 -0.22070058 -0.2585606 -0.2799918 -0.05763624 -0.2461594
0.25616726 0.20215565 0.22876754 0.10756177 -0.08661278 -0.15696172 0.100628495 0.15877768
00000000: d041 823e b08f 03bd d39c 8abe 0f1e 6fbe
00000010: d813 413e 8f0b 4ebe 1d71 653e 0f49 603e
00000020: fee2 1bbe 3da8 dbbd 8eed 003e 15c6 833d
00000030: c17e 633e 2e43 46be 0433 6bbe 1634 28be
00000040: c848 3c3e ce1a 5cbd dc3d 353d 2a58 373e
00000050: 736f 12be b05e 43be bc44 013e cd0f a8be
00000060: bc45 373e 75d5 35be ce58 71bb da28 a2be
00000070: a3d1 ff3d 673a abbd f7a4 a43e 8299 c03d
00000080: 99d5 643e 652d 403a e259 543e 314e c73c
00000090: d983 97be 0c51 863a fe94 92be 7343 9dbe
000000a0: 98e8 573e c9a9 b0bd 81f1 3ab9 e82a 7ebe
000000b0: 3dfe 803e 6bb9 3bbe db3b 4f3e 0262 9d3e
000000c0: 60cc 2b3e 05b4 b03e 4024 55be a5d3 29bd
000000d0: 438c 54be ffbf 063e 3581 083e 08f5 87be
000000e0: 53f7 b53c 12f9 783e 9df4 803e a172 09be
000000f0: f657 d23d 7b1f 253e 9a88 8dbc f7f2 363d
00000100: 78be 083e 7f69 683e 7f84 97be 038a 263e
00000110: eb35 f0bd be3e 84bb 479e 10bd 2c5c 32bd
00000120: 1cd9 2fbe 8232 4b3e 990e 2d3e e87e fb3c
00000130: 39a4 fcbd ba10 dd3d c9a4 4d3e cb43 be3e
00000140: 668d a93d 9cd2 5e3d 6c10 5e3e 2b3b 3fbd
00000150: 5e8d 3c3e ff87 003e bc73 1a3e bd07 71bd
00000160: cf57 743e 228d aabd 5d58 c1bd 13cc 1d3e
00000170: e308 493d 4afa 93be 899c 9a3e 2a99 5e3e
00000180: a078 af3d 88c0 903e a0fd 52be 230a d73d
00000190: 6a70 033d 2464 a5bd dd86 68be 06cf 6abe
000001a0: ad4c 61be e0c6 153d a2ff 87be 0836 9b3e
000001b0: c7f2 963d 1397 6cbe b72a 9abc 09f0 29be
000001c0: 7270 65b9 7d8b 3f3e fbf5 eebd 911f 90be
000001d0: d3ed 923d ba88 f6bd 45a2 36be e8b1 9bbd
000001e0: 695a e33d 4fea 1cbe 2eb0 513e 47fc 74be
000001f0: cc19 513b 0c71 463c 1cac 13be fa7c f9bd
00000200: 3443 753e fd1e 853e 0ffd ba3d 4273 28bb
00000210: 3377 50be 816d 52bd 0121 1bbe 3752 31be
00000220: ea0b 0cbe 9a40 c53d 2fb5 ad3d bdca cf3d
00000230: 3075 eebd c18c 27be 7eb7 9cbe 6a1e 72bd
00000240: 6603 41be d47c 78bd 3557 2bbe 7378 58be
00000250: df34 273e c9d9 d53d 07ec 343d e411 00be
00000260: 4ec3 793e 119c 16be cd34 33be ae6f 353e
00000270: 7516 183e 919c 10be 9b66 c3bd 2cb9 733c
00000280: 2404 39be 8873 69be 9515 d3bd 49dc b4bd
00000290: e223 753d 0e46 d3bd f66a ea3d 9d16 2abc
000002a0: 45d4 103e 0ac7 38be e4ff 5fbe e4d5 d8bc
000002b0: e16b 08be c049 da3d bfd8 503e 21d8 67be
000002c0: d0d1 ca3d 58d9 aabd 0197 103e 6518 9fbd
000002d0: 4f02 fdbc 8887 f2bc 1a77 bbbd ec5b 4b3d
000002e0: a099 3c3e 04ba 993d 2cfc 873d 3353 ba3d
000002f0: ecbd 733e 8264 04bd aa67 1bbe a4dd 1e3d
00000300: 742f 5cbe 26b1 f03d cff0 6abe b8c8 f0bd
00000310: 34f1 a13d c4cb 80bc 4902 b33c 0657 553e
00000320: 6c3c ff3c 4299 23bd af50 ed3d ecbc 103d
00000330: 4b13 35bd 1094 16be 7140 a8be cea2 1abe
00000340: b7e6 0e3d d4af 313e 876b a2bc becf ed3d
00000350: fe89 a5bd 562c 0c3a 5211 7cbe f225 1bbd
00000360: f4b9 753e 9073 70be fb5f 84be 135d 3bbd
00000370: 34f8 ddba 61d6 93be b4a3 64bd 0431 183e
00000380: 7d6a 533e aa36 963e a59d 5b3e a08f 063d
00000390: e311 983d 6fcd 393d 09e3 fabd 73bc 99be
000003a0: 56dc 983e 0fac 6a3b d34c e0bd 1648 59bd
000003b0: 3376 51be 76a3 a9be be9b 7c3e 190c a0bd
000003c0: 2f49 253e efe9 02be 298c c1bc 55ff 61be
000003d0: 0e62 84be 165b 8fbe fa13 6cbd 3611 7cbe
000003e0: 5b28 833e e401 4f3e 0a42 6a3e 5849 dc3d
000003f0: 0b62 b1bd 93ba 20be 5016 ce3d 9e96 223e

encoder.blocks.0.mlp.fc1.bias f4 [64]
0.013770622 -0.054656353 -0.034899738 -0.024934208 -0.018041274 -0.022846028 0.02957771 -0.050697777
-0.012559395 -0.0067235758 -0.03488701 -0.03160471 0.025241878 -0.036608186 -0.060485482 -0.020252869
0.01467875 -0.011185552 0.052411195 -0.04101618 0.033937916 -0.021721525 0.031159583 0.0065352554
-0.06658865 -0.04138177 -0.024502961 -0.032554477 0.0096218735 -0.052780665 -0.022392364 0.032992885
-0.053693097 0.0052445023 -0.03622966 -0.012108319 0.005311826 0.0012347687 0.009687461 -0.03922525
-0.03778554 0.012795007 -0.012944329 -0.02673286 -0.07918986 -0.029182749 -0.031164773 0.0038449399
-0.080149956 0.008563785 0.03522932 0.018257981 -0.020431558 -0.026151983 0.05697929 -0.017075824
0.022523716 -0.0062976843 0.018817417 -0.081999995 0.011913951 -0.054844104 0.03741325 -0.03212362
00000000: 2d9e 613c 57df 5fbd 07f3 0ebd d342 ccbc
00000010: 4bcb 93bc 9827 bbbc f44c f23c 79a8 4fbd
00000020: ecc5 4dbc 7151 dcbb aee5 0ebd f173 01bd
00000030: 0ec8 ce3c 77f2 15bd a0bf 77bd 58e9 a5bc
00000040: 247f 703c 9b43 37bc 1fad 563d 9500 28bd
00000050: 7c02 0b3d 57f1 b1bc 6242 ff3c b225 d63b
00000060: a15f 88bd ee7f 29bd 6fba c8bc d857 05bd
00000070: 10a5 1d3c 8a30 58bd 3170 b7bc 8c23 073d
00000080: 4bed 5bbd 13da ab3b 8d65 14bd f961 46bc
00000090: d30e ae3b f6d7 a13a 28b8 1e3c a8aa 20bd
000000a0: 03c5 1abd 26a2 513c 7314 54bc dffe dabc
000000b0: 4b2e a2bd a910 efbc 444d ffbc 63fb 7b3b
000000c0: a925 a4bd 1e4f 0c3c 9f4c 103d c391 953c
000000d0: 1560 a7bc af3c d6bc 1e63 693d 99e2 8bbc
000000e0: a883 b83c ce5c cebb fc26 9a3c 9def a7bd
000000f0: bb32 433c 36a4 60bd a33e 193d 0f94 03bd

encoder.blocks.0.mlp.fc2.weight f4 [16, 64]
-0.23570095 0.27978218 0.26448935 0.1061328 -0.27061135 -0.06899583 -0.17093003 -0.009450559
0.13833095 0.0105282115 0.23864645 0.21496128 0.016960645 0.12842263 0.06752437 0.27770936
-0.019318052 0.19090895 -0.08913282 0.069214724 -0.2153243 -0.07776001 0.22409831 -0.19502197
-0.08344786 0.02229473 0.23511526 0.13283923 0.09434381 -0.11854587 -0.15372336 -0.061604854
-0.20659229 0.19542533 0.09482249 -0.14477418 0.008230675 0.007973527 0.00831727 0.23887855
0.22299376 0.029412998 0.029609784 -0.025038565 -0.072639085 -0.04955891 0.22989991 0.14533946
-0.21466608 0.38611352 -0.2760318 -0.28709164 -0.15663707 -0.26049742 0.17407528 0.10110108
-0.2853105 -0.22084303 0.10766571 -0.03774778 -0.21111055 0.28409192 0.14378029 -0.0026005774
0.10688968 0.14905053 -0.1033422 0.04440773 -0.06780993 -0.053096507 0.14270672 -0.037692748
0.20656455 -0.07937607 -0.23784745 -0.16810723 0.17611319 -0.1973111 -0.28916654 -0.089415476
0.18625967 0.034583107 -0.0673846 -0.22578181 0.10910208 -0.089904875 0.22084297 -0.032798503
-0.24493466 -0.19893116 -0.18109858 -0.09362738 0.2566366 -0.113693446 -0.09940877 0.094473824
-0.22235052 -0.28872433 0.038134888 0.08112788 -0.22965878 0.08330587 0.22810279 -0.22546555
0.005516403 0.0647765 0.03314277 -0.24687852 -0.2088113 -0.17668794 -0.116196826 -0.049389455
-0.05427552 0.17806315 0.27512053 0.32351825 -0.19502793 -0.16691634 -0.13526686 -0.055434432
0.26657945 -0.049422547 0.11844581 -0.09023782 0.021811936 -0.008945758 0.21156746 -0.13122225
0.17017363 0.26433614 -0.12668982 -0.0119416285 -0.1537535 0.09493041 -0.19405183 -0.0515287
0.016911693 -0.19648066 0.054164767 0.1459935 -0.12997633 0.2032845 0.10590613 -0.09865101
-0.01761363 -0.017123545 0.0966559 -0.22476856 0.1498065 -0.122972116 -0.23040842 0.15871483
-0.13934326 0.22761323 -0.038876846 -0.16355918 -0.10642072 -0.13647853 -0.22892448 0.0511232
-0.02715841 -0.015266446 -0.20033589 -0.065117285 -0.1759364 -0.08737524 0.08851877 -0.03128573
-0.090882875 -0.2016496 0.17385493 -0.1244688 0.08764701 0.021574909 0.030618949 -0.031957813
0.03826113 -0.18134294 -0.06947178 0.0072554317 -0.006487861 0.21632594 0.21725897 0.10600143
-0.22764155 0.09543809 -0.20951743 0.14084518 -0.072116904 0.10198684 0.10614096 -0.10266126
-0.079297855 0.06462407 0.21141024 0.042667244 -0.042083062 0.004545302 -0.21920975 -0.04752445
-0.22619675 -0.26807538 -0.2060737 0.2935754 0.16857168 -0.32029495 -0.17246044 -0.14555909
0.12263944 -0.03934515 -0.034063574 -0.0479941 -0.06988425 0.2258123 0.048152752 -0.059738353
0.061652604 -0.0582237 0.046163093 0.1020673 0.05140261 0.12777948 -0.17895116 -0.034739774
-0.31962955 -0.38655964 -0.2967138 -0.18858643 0.17485306 -0.24967048 -0.11328685 0.074460156
-0.10589946 -0.06317451 0.040907774 0.21606448 0.09271219 0.15645333 -0.059277467 -0.059531853
0.011870289 -0.103398 0.028855493 0.041411553 -0.08404143 0.24613988 -0.18179166 -0.10446357
-0.0763573 0.031813253 -0.15639506 0.1672506 -0.18104205 -0.2418194 -0.004264563 0.08689971
00000000: 975b 71be 9c3f 8f3e 266b 873e 275c d93d
00000010: 928d 8abe b04d 8dbd 4808 2fbe 84d6 1abc
00000020: a1a6 0d3e 857e 2c3c bc5f 743e cf1e 5c3e
00000030: 0df1 8a3c 3981 033e 384a 8a3d ec2f 8e3e
00000040: e440 9ebc a37d 433e 458b b6bd 73c0 8d3d
00000050: f97d 5cbe a440 9fbd 077a 653e d7b3 47be
00000060: b6e6 aabd 70a3 b63c 0ec2 703e 0207 083e
00000070: 5437 c13d 2dc8 f2bd a869 1dbe 5f55 7cbd
00000080: ee8c 53be 941d 483e 4b32 c23d af3f 14be
00000090: f4d9 063c 65a3 023c 2945 083c 949c 743e
000000a0: 7a58 643e 87f3 f03c 3890 f23c ad1d cdbc
000000b0: cdc3 94bd 49fe 4abd e26a 6b3e ded3 143e
000000c0: 6dd1 5bbe acb0 c53e 0a54 8dbe adfd 92be
000000d0: 7865 20be eb5f 85be ca40 323e 150e cf3d
000000e0: 3814 92be ad24 62be d77f dc3d 6b9d 1abd
000000f0: 5d2d 58be 7f74 913e 243b 133e 736e 2abb
00000100: fae8 da3d b4a0 183e 13a5 d3bd e1e4 353d
00000110: efdf 8abd b97b 59bd b621 123e b663 1abd
00000120: a885 533e ec8f a2bd 488e 73be 4d24 2cbe
00000130: 0457 343e ec0b 4abe a30d 94be 761f b7bd
00000140: dbba 3e3e 04a7 0d3d f000 8abd 5933 67be
00000150: e970 df3d 0c20 b8bd a924 623e b957 06bd
00000160: 27d0 7abe 9cb4 4bbe e871 39be b6bf bfbd
00000170: df65 833e 1cd8 e8bd d396 cbbd 7e7b c13d
00000180: dbaf 63be add3 93be 5433 1c3d 6026 a63d
00000190: ac2b 6bbe 459c aa3d c793 693e 71e0 66be
000001a0: f1c2 b43b 8ba9 843d b7c0 073d b9cd 7cbe
000001b0: a1d2 55be afed 34be 9af8 edbd 994c 4abd
000001c0: 0250 5ebd 3056 363e 99dc 8c3e 2fa4 a53e
000001d0: 67b5 47be 1eec 2abe 6583 0abe 370f 63bd
000001e0: 1a7d 883e 4c6f 4abd b893 f23d 9bce b8bd
000001f0: f2ae b23c 3b91 12bc 24a5 583e 205f 06be
00000200: ff41 2e3e 1157 873e faba 01be d2a6 43bc
00000210: 8f71 1dbe e06a c23d 86b5 46be c20f 53bd
00000220: 648a 8a3c 3a32 49be e0db 5d3d 527f 153e
00000230: 8418 05be d029 503e 50e5 d83d 8a09 cabd
00000240: 764a 90bc ad46 8cbc 87f3 c53d bb29 66be
00000250: e066 193e ced8 fbbd 2ff0 6bbe 2486 223e
00000260: 00b0 0ebe 7113 693e 543d 1fbd 0f7c 27be
00000270: 1bf3 d9bd 07c1 0bbe 2e6b 6abe 9066 513d
00000280: 507b debc 1e20 7abc da24 4dbe 365c 85bd
00000290: ac28 34be caf1 b2bd 5449 b53d 7725 00bd
000002a0: cd20 babd 3c7d 4ebe 0707 323e 80e9 febd
000002b0: 4780 b33d ddbd b03c 97d4 fa3c 32e6 02bd
000002c0: b4b7 1c3d f7b1 39be 3847 8ebd f9be ed3b
000002d0: 1f98 d4bb 8c84 5d3e 2379 5e3e 4717 d93d
000002e0: de1a 69be 0c75 c33d bd8b 56be b839 103e
000002f0: 07b2 93bd 7ade d03d 6e60 d93d 1140 d2bd
00000300: ea66 a2bd a059 843d ed7b 583e d9c3 2e3d
00000310: 4a5f 2cbd c2f0 943b 8578 60be ffa8 42bd
00000320: 1fa0 67be 2d41 89be fc04 53be 844f 963e
00000330: 0e9e 2c3e b3fd a3be 7899 30be 710d 15be
00000340: 632a fb3d 6128 21bd 3f86 0bbd 7695 44bd
00000350: 791f 8fbd 573b 673e d23b 453d 34b0 74bd
00000360: 7187 7c3d f97b 6ebd 8315 3d3d a908 d13d
00000370: 8b8b 523d a0d8 023e f93e 37be 4b4b 0ebd
00000380: 7ca6 a3be 25eb c5be dfea 97be cd1c 41be
00000390: ae0c 333e 9ea9 7fbe f002 e8bd 917e 983d
000003a0: d1e1 d8bd a361 81bd e98e 273d 0240 5d3e
000003b0: e3df bd3d 4d35 203e eecc 72bd acd7 73bd
000003c0: 9a7b 423c 55c2 d3bd 5b62 ec3c 299f 293d
000003d0: ea1d acbd 180c 7c3e 9827 3abe fff0 d5bd
000003e0: 3761 9cbd 9d4e 023d 0726 20be be43 2b3e
000003f0: 1663 39be 819f 77be bfbd 8bbb 7af8 b13d

encoder.blocks.0.mlp.fc2.bias f4 [16]
-0.026383372 0.03392009 0.0071087424 0.035235584 -0.027926235 -0.029126026 0.017721951 0.037034873
0.005131768 -0.04791904 0.02935946 -0.019670155 -0.038877934 0.023771299 0.023651222 0.014569634
00000000: f121 d8bc cbef 0a3d 74f0 e83b 3053 103d
00000010: 8fc5 e4bc b499 eebc a02d 913c e1b1 173d
00000020: 6428 a83b c146 44bd 4083 f03c 4e23 a1bc
00000030: 783e 1fbd 07bc c23c 35c0 c13c 79b5 6e3c

encoder.blocks.1.norm1.weight f4 [16]
1.0214459 1.0741609 0.97106314 0.9354109 1.0283827 0.95967215 1.086785 1.0650566
0.93241894 0.89448345 0.9859509 0.9667751 1.0260324 0.99060094 0.9980233 0.86311024
00000000: bdbe 823f 1b7e 893f 9897 783f 1777 6f3f
00000010: 0ba2 833f 13ad 753f c51b 8b3f c653 883f
00000020: 02b3 6e3f defc 643f 4767 7c3f 937e 773f
00000030: 0855 833f 0698 7d3f 747e 7f3f cbf4 5c3f

encoder.blocks.1.norm1.bias f4 [16]
-0.043080643 0.030887362 -0.0061262366 0.021982376 -0.05881511 -0.030317876 0.018187163 0.046167005
-0.011943959 -0.03867358 0.013550234 -0.03788268 -0.03378126 0.036640484 0.01668922 0.031893183
00000000: 5475 30bd 7e07 fd3c 99be c8bb 6214 b43c
00000010: 1de8 70bd 325d f8bc 3ffd 943c 9d19 3d3d
00000020: 98b0 43bc 3068 1ebd cd01 5e3c de2a 1bbd
00000030: 385e 0abd 5514 163d d5b7 883c 6da2 023d

encoder.blocks.1.attn.qkv.weight f4 [48, 16]
-0.22291663 -0.19502747 0.09422874 -0.041111592 0.22783543 0.06604239 0.06966981 -0.03729361
0.2030472 0.13445297 0.083707385 -0.22647776 -0.32679152 0.0055150036 0.13625865 0.104452536
0.08412591 -0.012273786 0.19777891 -0.1864444 0.27084413 -0.19335207 0.13777426 0.12146092
0.33964846 -0.034176834 0.1721276 -0.22892414 0.23385563 -0.24906908 -0.12140601 0.14616983
0.22833352 -0.056946892 -0.120620556 0.25803012 0.19397604 -0.14660928 0.049468584 0.058499064
-0.029302524 0.017886069 0.056512367 0.007191975 0.21577299 -0.33388442 0.33230785 0.116905265
-0.023673005 -0.11726413 -0.07988985 0.13406467 -0.25783038 -0.1423588 0.05018228 -0.0560979
-0.11590606 0.31748706 -0.25750566 0.30726305 0.28473738 -0.27037403 0.19552927 0.22334
0.13641472 0.13850954 0.1678644 -0.030936245 0.19565913 -0.11237502 -0.15332201 0.08737068
0.2937629 0.071689606 0.15211283 0.27945447 -0.04254275 0.024580171 -0.2531677 0.16890441
-0.33309627 -0.13420814 -0.33369294 0.24147701 -0.24793872 0.3328126 0.28384793 -0.20766589
0.21868056 0.36449635 0.27019697 -0.21571302 0.15616249 0.20129612 -0.24369222 0.26699096
-0.16244711 0.18866597 -0.0058522522 -0.17188089 0.04216716 -0.11052142 0.17629106 -0.06299362
-0.22947818 -0.23473084 0.18028335 -0.019211896 -0.27872413 0.16097921 -0.042281434 -0.10501862
-0.07845452 -0.048116006 0.21306911 -0.00012445053 0.122005545 -0.10420961 0.29544774 0.15254547
-0.051467504 0.35481504 0.12134109 0.14377119 0.114211716 -0.022093248 0.016828207 -0.26080143
-0.20517763 -0.014409403 -0.006860025 -0.0026622948 -0.38232687 0.1912581 -0.09339163 0.059343036
-0.20043668 -0.22909155 0.39004084 0.28156474 -0.14610657 0.076300934 0.25746354 0.08155129
0.14022066 0.10569237 0.1408241 -0.14081956 0.1564925 0.086066976 0.07455937 -0.15217896
0.09425591 0.33633572 0.178961 0.04827158 0.09115966 0.0137567865 -0.10524239 -0.02315906
-0.23166879 -0.39024898 -0.12789802 0.1413741 -0.13919227 0.35137346 -0.28060067 0.14962685
-0.04786534 0.11009187 -0.25490138 0.073540434 -0.050909884 0.10552916 -0.14513415 -0.082720816
0.27953938 -0.02652922 -0.059597116 -0.009236949 0.019168677 0.010620291 0.032736935 -0.016761817
-0.21381555 0.016700573 -0.17688398 -0.2874641 -0.064830914 0.013487861 -0.18031962 0.0718395
-0.07493766 0.35522965 0.16214834 -0.12336356 0.06432795 -0.25188878 -0.045281556 -0.20917204
-0.072456986 -0.20778003 -0.07459288 0.133208 -0.34886837 0.058246326 -0.11994947 0.057502452
-0.14006224 -0.117247015 0.12842135 0.29887772 0.10761064 -0.24022517 0.055257343 0.16544265
0.11888481 -0.21254772 -0.2639641 -0.06676318 -0.18213846 -0.08490121 0.17992455 -0.18014486
-0.16104098 -0.05316029 -0.05767095 -0.02665023 0.16631 -0.08924067 0.16652046 -0.20021881
0.080676556 0.076933295 0.15567945 0.24465652 0.31597143 -0.083723314 0.0026845864 0.16684379
-0.21556082 -0.06136353 0.17512433 -0.040781684 -0.25349715 -0.17732327 0.26102832 -0.29001835
-0.30885902 0.048675165 0.15667441 -0.0111162355 -0.08992065 -0.19362184 -0.18037249 -0.010716208
00000000: 4244 64be 48b5 47be fffa c03d a164 28bd
00000010: b14d 693e 3c41 873d 0caf 8e3d 2fc1 18bd
00000020: 9beb 4f3e 0aae 093e c76e ab3d c9e9 67be
00000030: 3851 a7be 34b7 b43b 6387 0b3e 36eb d53d
00000040: 354a ac3d fd17 49bc 8e86 4a3e 48eb 3ebe
00000050: 15ac 8a3e 16fe 45be b214 0d3e 81c0 f83d
00000060: 67e6 ad3e 02fd 0bbd 3842 303e 176b 6abe
00000070: da77 6f3e f70b 7fbe b7a3 f8bd 8bad 153e
00000080: 43d0 693e 2541 69bd e907 f7bd 861c 843e
00000090: a8a1 463e be20 16be 929f 4a3d b79c 6f3d
000000a0: d90b f0bc ce85 923c 8379 673d a9aa eb3b
000000b0: 98f3 5c3e e6f2 aabe 4124 aa3e 076c ef3d
000000c0: e4ed c1bc 2d28 f0bd 4a9d a3bd 4048 093e
000000d0: 5802 84be 81c6 11be ef8b 4d3d e9c6 65bd
000000e0: 2860 edbd aa8d a23e c8d7 83be 9551 9d3e
000000f0: 19c9 913e 776e 8abe d338 483e 3eb3 643e
00000100: 4db0 0b3e 72d5 0d3e a5e4 2b3e 026e fdbc
00000110: de5a 483e e024 e6bd 7200 1dbe 66ef b23d
00000120: 1768 963e 00d2 923d 77c3 1b3e a814 8f3e
00000130: 4e41 2ebd 5b5c c93c 329f 81be 47f5 2c3e
00000140: 988b aabe dc6d 09be cdd9 aabe c045 773e
00000150: a6e3 7dbe 6a66 aa3e 8454 913e 5ea6 54be
00000160: cced 5f3e 449f ba3e 4257 8a3e e0e3 5cbe
00000170: 0fe9 1f3e 9220 4e3e 748a 79be 0ab3 883e
00000180: 8958 26be a731 413e 40c4 bfbb 8b01 30be
00000190: 79b7 2c3d 0e59 e2bd a585 343e cd02 81bd
000001a0: 54fc 6abe 485d 70be 339c 383e 4462 9dbc
000001b0: eeb4 8ebe bcd7 243e 4c2f 2dbd 0114 d7bd
000001c0: c3ac a0bd 4a15 45bd ca2e 5a3e ef7e 02b9
000001d0: 0bde f93d d96b d5bd ed44 973e e134 1c3e
000001e0: 97cf 52bd 51aa b53e ad81 f83d c138 133e
000001f0: d5e7 e93d e6fc b4bc 4fdb 893c c487 85be
00000200: 161a 52be 6b15 6cbc 10ca e0bb e579 2ebb
00000210: 59c0 c3be 2ad9 433e 1c44 bfbd af11 733d
00000220: 463f 4dbe fa96 6abe 6fb3 c73e 4129 903e
00000230: f69c 15be aa43 9c3d 43d2 833e 5d04 a73d
00000240: 0196 0f3e 3e75 d83d 3134 103e 0133 10be
00000250: 923f 203e e243 b03d 95b2 983d cdd4 1bbe
00000260: 3e09 c13d 3234 ac3e 8d41 373e 6cb8 453d
00000270: eab1 ba3d 2564 613c 5289 d7bd 12b8 bdbc
00000280: 953a 6dbe b7ce c7be b3f7 02be 5fc4 103e
00000290: 6b88 0ebe 39e7 b33e e4aa 8fbe c837 193e
000002a0: 720e 44bd d977 e13d 6f82 82be 5e9c 963d
000002b0: e286 50bd ac1f d83d 0c9e 14be 8869 a9bd
000002c0: c91f 8f3e cf53 d9bc 1b1c 74bd 9256 17bc
000002d0: a107 9d3c bb00 2e3c 2a17 063d 1450 89bc
000002e0: 77f2 5abe a4cf 883c 1321 35be 7f2e 93be
000002f0: 12c6 84bd 30fc 5c3c b5a5 38be 9620 933d
00000300: ea78 99bd a9e0 b53e 370a 263e 09a6 fcbd
00000310: 5fbe 833d 91f7 80be 2779 39bd 3231 56be
00000320: 5464 94bd 4ac4 54be 27c4 98bd ae67 083e
00000330: e09e b2be b393 6e3d 11a8 f5bd b187 6b3d
00000340: 7a6c 0fbe 341f f0bd e380 033e 8006 993e
00000350: f862 dc3d 96fd 75be 8655 623d cc69 293e
00000360: e179 f33d 1ca6 59be 4d26 87be 22bb 88bd
00000370: 8182 3abe b0e0 adbd 243e 383e e577 38be
00000380: ede7 24be 9bbe 59bd 6038 6cbd 9551 dabc
00000390: 2b4d 2a3e d0c3 b6bd 5784 2a3e 2906 4dbe
000003a0: c039 a53d 348f 9d3d 6f6a 1f3e 3d87 7a3e
000003b0: 02c7 a13e 2177 abbd e3ef 2f3b 19d9 2a3e
000003c0: fabb 5cbe 5358 7bbd cb53 333e b20a 27bd
000003d0: 61ca 81be 3b94 35be 81a5 853e 497d 94be
000003e0: c522 9ebe 9c5f 473d 426f 203e df20 36bc
000003f0: 5128 b8bd ce44 46be 91b3 38be 0993 2fbc

encoder.blocks.1.attn.proj.weight f4 [16, 16]
-0.17665932 0.43200314 -0.30294734 0.3719945 0.04140202 0.23095316 0.0023353368 -0.24483009
0.4526714 -0.31228712 -0.31071913 -0.34549078 0.27834094 0.10189439 0.21408784 0.12859374
-0.16329965 0.36280814 0.09281246 -0.24702726 0.2173175 -0.3807879 -0.20183241 -0.1461732
0.270658 0.4643868 0.3410675 -0.077420995 0.37765145 -0.36273357 -0.033553805 0.2529955
-0.45920187 -0.06859877 -0.30896872 0.18586768 0.40803197 0.1428085 -0.42961714 -0.29841155
-0.01261877 0.20812765 0.36166793 -0.3757755 0.4263063 0.054530438 0.25227958 -0.15720886
-0.035919584 -0.007745336 -0.28494334 0.29214588 -0.23179033 -0.17182876 0.41304877 -0.32480255
-0.17409247 -0.3883037 0.30031365 -0.21204387 -0.13954175 0.08991385 -0.3072327 0.04207773
-0.2586366 0.28766963 0.32096285 0.35461938 -0.063465156 -0.306383 0.01110609 -0.20821083
0.300714 0.029464003 -0.27939975 0.051446438 0.054740533 -0.3000326 -0.17854583 0.30910242
0.33282098 0.38413423 0.054983407 0.068510376 -0.23156169 0.34557903 0.3568967 -0.084903896
-0.18253088 0.024447372 0.18377249 -0.30771923 -0.3240611 0.05417578 -0.21270403 -0.11172661
-0.031599354 0.1500197 0.34911194 -0.3358587 0.35147098 0.1580807 0.0847847 -0.35852146
0.09157712 -0.35867167 0.11584233 0.08892972 0.1433445 0.067176394 -0.09787476 -0.20938739
-0.021283934 -0.090546235 -0.27251858 0.23422837 0.044408765 0.06973843 0.1985064 0.17400879
0.13189696 -0.030061264 -0.24172364 0.050515056 0.40301278 0.19430467 0.30352002 -0.0060056397
-0.39570573 -0.044328332 -0.37802368 -0.2548148 0.11612955 -0.12951466 -0.030566659 -0.39762235
-0.20469041 -0.21232703 0.08095888 -0.08388483 0.36536857 -0.10833527 0.5065896 -0.16963154
0.15858184 0.4516697 -0.0446627 0.11568083 -0.09561147 0.46430603 0.23371466 -0.16038756
-0.018638633 0.2483864 -0.3359941 -0.0181466 -0.48571143 0.048020046 -0.3473306 0.08329132
-0.029492058 -0.37712333 0.21989904 0.24073112 -0.37601507 0.059131112 -0.019014291 0.4406408
-0.016378917 0.16051747 0.04904073 -0.081473105 0.3918113 -0.036059976 0.26925063 -0.19326915
-0.17654172 0.47711462 0.092635505 -0.107371226 0.40845177 -0.10413657 -0.15254658 0.14586993
-0.2621402 -0.26517123 -0.29612383 0.25483537 -0.19238739 -0.049056392 -0.070123464 -0.044045568
-0.31870565 -0.3648086 -0.29993358 0.29706687 0.30579433 0.36171407 -0.13788718 0.24735759
-0.4663063 -0.42448556 -0.34691915 0.29594466 -0.43483353 -0.10702661 -0.06914863 -0.14577727
-0.21352689 0.16974628 0.18151808 -0.263466 -0.1997313 0.27357554 0.118677534 0.08016507
-0.20135677 0.12699969 0.12315299 0.07216334 -0.31994686 -0.22587508 -0.2524341 -0.039262913
-0.39367452 0.15976706 0.2654385 -0.061457764 -0.26579416 0.08726658 -0.3977478 -0.2020686
-0.35361245 0.13492528 0.1292546 0.20195451 -0.43209374 -0.17793106 0.0048367996 0.20908342
0.28668955 0.050507188 0.27749583 -0.36495775 -0.24269068 -0.55592436 0.18113162 0.17433485
0.37054768 0.285753 0.34014955 0.049422707 0.29650745 -0.25543135 -0.010245464 0.076261885
00000000: 2ee6 34be 842f dd3e ea1b 9bbe 1076 be3e
00000010: 2a95 293d fc7e 6c3e 730c 193b bdb4 7abe
00000020: 8cc4 e73e 19e4 9fbe 9416 9fbe 2be4 b0be
00000030: b482 8e3e 02ae d03d d839 5b3e 14ae 033e
00000040: 0638 27be fdc1 b93e 7614 be3d b7f4 7cbe
00000050: 7b88 5e3e a2f6 c2be 28ad 4ebe 6dae 15be
00000060: af93 8a3e 1bc4 ed3e 66a0 ae3e e68e 9ebd
00000070: 885b c13e 37b8 b9be b76f 09bd a088 813e
00000080: 821c ebbe 837d 8cbd 2631 9ebe 1954 3e3e
00000090: 91e9 d03e 643c 123e c7f6 dbbe 66c9 98be
000000a0: f5be 4ebc 6a1f 553e 8a2c b93e a565 c0be
000000b0: d244 da3e 4f5b 5f3d ca2a 813e 5cfb 20be
000000c0: 6a20 13bd 96cc fdbb 18e4 91be 2594 953e
000000d0: 725a 6dbe e1f3 2fbe 217b d33e 854c a6be
000000e0: 4c45 32be becf c6be b6c2 993e 0722 59be
000000f0: 08e4 0ebe c124 b83d 9b4d 9dbe b359 2c3d
00000100: 046c 84be 6f49 933e 3e55 a43e ac90 b53e
00000110: 05fa 81bd 3cde 9cbe 51f6 353c 3835 55be
00000120: 2ff7 993e 7e5e f13c 7c0d 8fbe 80b9 523d
00000130: 9c37 603d df9d 99be b8d4 36be ac42 9e3e
00000140: 8367 aa3e 3ead c43e 4836 613d 2b4f 8c3d
00000150: 821e 6dbe bcef b03e 2abb b63e 18e2 adbd
00000160: 60e9 3abe db45 c83c db2e 3c3e 608d 9dbe
00000170: 56eb a5be 6ce7 5d3d 16cf 59be ecd0 e4bd
00000180: 536e 01bd c49e 193e cdbe b23e acf5 abbe
00000190: 01f4 b33e e8df 213e 9aa3 ad3d 2090 b7be
000001a0: c98c bb3d d0a3 b7be be3e ed3d c920 b63d
000001b0: e7c8 123e c793 893d 9072 c8bd a669 56be
000001c0: a55b aebc 4e70 b9bd 8e87 8bbe 90d9 6f3e
000001d0: f7e5 353d 06d3 8e3d 4345 4b3e 5c2f 323e
000001e0: ff0f 073e 0a43 f6bc 6786 77be e0e8 4e3d
000001f0: b157 ce3e cef7 463e fa66 9b3e f5ca c4bb
00000200: f199 cabe a091 35bd 528c c1be 1677 82be
00000210: 54d5 ed3d 7e9f 04be ee66 fabc 2895 cbbe
00000220: 5d9a 51be 426c 59be c5cd a53d cfcb abbd
00000230: 9711 bb3e e2de ddbd dbaf 013f e4b3 2dbe
00000240: 4763 223e 4041 e73e 3cf0 36bd 12ea ec3d
00000250: f2cf c3bd 85b9 ed3e e552 6f3e a33c 24be
00000260: 0cb0 98bc 0159 7e3e 6b07 acbe 2ea8 94bc
00000270: 2baf f8be abb0 443d 51d5 b1be a494 aa3d
00000280: 5499 f1bc 4f16 c1be 372d 613e 3882 763e
00000290: 0c85 c0be 7733 723d dcc3 9bbc ac9b e13e
000002a0: 142d 86bc b15e 243e efde 483d 5fdb a6bd
000002b0: 7e9b c83e a0b3 13bd 38db 893e 59e8 45be
000002c0: 5ac7 34be 5e48 f43e afb7 bd3d 72e5 dbbd
000002d0: 9720 d13e 8e45 d5bd 2c35 1cbe ed5e 153e
000002e0: 3e37 86be 86c4 87be 8b9d 97be c879 823e
000002f0: 3301 45be 5bef 48bd e49c 8fbd 2069 34bd
00000300: 632d a3be 31c8 babe e590 99be 2619 983e
00000310: 1391 9c3e 9632 b93e 4c32 0dbe 4f4b 7d3e
00000320: b3bf eebe 2c56 d9be 639f b1be 0f86 973e
00000330: 80a2 debe c430 dbbd cc9d 8dbd a346 15be
00000340: cba6 5abe f8d1 2d3e e0df 393e 04e5 86be
00000350: 5d86 4cbe 1812 8c3e 350d f33d 962d a43d
00000360: 7830 4ebe 350c 023e a337 fc3d 60ca 933d
00000370: 13d0 a3be cc4b 67be 0b3f 81be 26d2 20bd
00000380: b58f c9be fa99 233e 8ee7 873e 23bb 7bbd
00000390: 2c16 88be d2b8 b23d 9aa5 cbbe 12eb 4ebe
000003a0: b10c b5be da29 0a3e 515b 043e 2acd 4e3e
000003b0: 643b ddbe 8f33 36be 047e 9e3b f719 563e
000003c0: f9c8 923e a0e0 4e3d ef13 8e3e bedb babe
000003d0: e883 78be 0f51 0ebf 917a 393e d684 323e
000003e0: 6db8 bd3e 384e 923e 1528 ae3e 776f 4a3d
000003f0: d3cf 973e e6c7 82be 97dc 27bc 312f 9c3d

encoder.blocks.1.attn.proj.bias f4 [16]
-0.03966636 0.03329309 -0.012872157 -0.026761586 0.011885438 -0.028745878 0.0279305 0.069640964
0.03892645 -0.033541303 0.028469654 -0.041389525 -0.033900324 0.038574114 -0.07549636 0.0067165606
00000000: 3179 22bd 565e 083d bde5 52bc 1d3b dbbc
00000010: 24bb 423c 7a7c ebbc 81ce e43c ec9f 8e3d
00000020: 5771 1f3d 9b62 09bd 3139 e93c 1088 29bd
00000030: 11db 0abd e4ff 1d3d d69d 9abd 9816 dc3b

encoder.blocks.1.norm2.weight f4 [16]
1.0074677 0.9523552 1.0360641 0.96427965 0.9033628 0.92617106 1.0578027 0.9518772
0.98818046 0.9043885 1.0096284 1.0276401 1.0181046 0.97266567 1.0355182 0.9652371
00000000: b4f4 803f 8dcd 733f c09d 843f 08db 763f
00000010: c942 673f 8c19 6d3f 1466 873f 39ae 733f
00000020: 65f9 7c3f 0186 673f 813b 813f b689 833f
00000030: 4051 823f 9e00 793f dc8b 843f c719 773f

encoder.blocks.1.norm2.bias f4 [16]
-0.032623693 0.02499979 0.021784533 0.023665613 0.022259267 0.06809186 -0.07282719 -0.036739573
-0.012024288 0.024651367 0.013865716 0.0149721475 -0.023626728 0.008615037 -0.035977256 -0.0281871
00000000: 6ca0 05bd 5ccc cc3c 7a75 b23c 63de c13c
00000010: 1159 b63c bf73 8b3d 6c26 95bd 3c7c 16bd
00000020: 8501 45bc aaf1 c93c 072d 633c bd4d 753c
00000030: d78c c1bc 1626 0d3c e35c 13bd a2e8 e6bc
