Checkpoint/dict_6.pth (torch, 108719 bytes, 64 tensors)

encoder.cls_token f4 [1, 1, 16]
00000000: ae64 02bf 40b1 2340 d11a 98be 34f7 8e3b
00000010: 8c13 d8bf 47f2 9fbe 6d45 ef3f e70e 003e
00000020: 3f4e c1bd 1a28 193f d0db 843e 3cd5 de3e
00000030: cfd2 c03e 6f0f ca3e 62c6 acbf ca57 a63f
-0.50934875 2.5576935 -0.2970796 0.004362965 -1.6880965 -0.3123953 1.8693062 0.12505685
-0.094387524 0.59826815 0.25948954 0.4352206 0.37660834 0.394649 -1.3498042 1.2995541

encoder.patch_embed.weight f4 [16, 5]
00000000: 1ac6 8abe 57c0 d03e a6dc d63d ee16 403f
00000010: 6d1a acbe 381e c33e cd81 3e3e e2a6 23be
00000020: 6810 fd3e f109 a7be bd4f 003f 5d2e 343d
00000030: 49d1 73be b619 92be 8eb4 0dbf 2d52 2dbf
00000040: 3f25 8c3e 3710 77be ae31 5f3e dffe 81be
00000050: a148 68bd 8f0f a6be 4ce7 bb3e c64d a3bd
00000060: 4c35 ec3e 603c 8f3e 9deb 25bf 60c8 93be
00000070: e02c ea3d 89c2 8dbe fe81 f6be d00a d8be
00000080: 6157 10be 444d 013f 77a8 28bd 2474 2ebe
00000090: 3f49 e33e 6339 aa3e 4963 1bbf 5544 8ebe
000000a0: fa41 19bf f7b3 e53e ec74 d2be ddd9 0bbe
000000b0: 764e b1be 5b7b 6ebe 0953 85bd ffb0 ef3d
000000c0: c8a9 493e 3409 25bf 7952 a0be 3c92 4fbe
000000d0: 56cb 5c3e a37e a8be 363a f63e c7ab 69be
000000e0: a57b 0b3f 0501 6bbe 0993 293e 529e 1abf
000000f0: 3d56 f6bd acbc 863e a383 a03e 3fae 87be
00000100: 06f9 34be a056 2b3e 21cd 0a3e 18d5 09bb
00000110: 49c6 833d 5557 52be bf8d 2c3d 3a4e 203e
00000120: adf5 a33e 7ebf 4f3d 2a52 f8be 4b9e 16bf
00000130: 95fa bd3c 81fc f2be 3a64 11bd b9c3 0abd
-0.27104264 0.40771744 0.10491304 0.7503499 -0.3361391 0.38108993 0.18604203 -0.1598163
0.4942658 -0.32624772 0.5012167 0.043989528 -0.23810305 -0.2853524 -0.5535363 -0.67703515
0.27372167 -0.24127279 0.21796295 -0.25389764 -0.05670989 -0.32433745 0.36699903 -0.079738185
0.46134412 0.2797575 -0.6481264 -0.28863811 0.114343405 -0.2768748 -0.4814605 -0.4219575
-0.14095832 0.50508523 -0.041176286 -0.17036492 0.4439182 0.33246908 -0.6069837 -0.27786508
-0.598663 0.44863865 -0.4110483 -0.13657327 -0.34630173 -0.23289244 -0.06509978 0.11703681
0.19693673 -0.6446717 -0.31312922 -0.20270628 0.21561942 -0.32909116 0.48091286 -0.22819434
0.5448554 -0.22949608 0.16559996 -0.6039783 -0.120281674 0.2631582 0.3135043 -0.26500127
-0.1767312 0.16732264 0.13554813 -0.0021031555 0.06434304 -0.20541127 0.042127367 0.15654841
0.32023373 0.05071973 -0.48500186 -0.58835286 0.023190776 -0.4745827 -0.035495974 -0.033878062

encoder.patch_embed.bias f4 [16]
00000000: 2b3e 0f3d b391 af3d e874 693c 16d4 f23c
00000010: 860d 59bb 6a37 26bd 8cf0 ce3b c0c3 94bd
00000020: 676a c73d de5a 27bd 2178 403d 9c5a c1bd
00000030: d828 f2bc b8b0 e63c a096 0abc ed32 a83d
0.034971397 0.08572712 0.014249064 0.029642146 -0.0033119633 -0.04058019 0.0063152965 -0.07263899
0.097370915 -0.040858142 0.046989564 -0.094411105 -0.029560491 0.028160438 -0.008458763 0.08212838

encoder.blocks.0.norm1.weight f4 [16]
00000000: cd1c 673f 25d1 563f b7e2 793f 4b99 883f
00000010: 0339 903f eccc 803f 8ca5 8d3f 171b 983f
00000020: d2cb 6e3f 0c6c 7d3f 990b 823f ac03 793f
00000030: 279a 8b3f 9ec4 873f 4e45 803f ef75 7c3f
0.9027832 0.8391288 0.97611564 1.0671781 1.1267399 1.0062537 1.1066146 1.1883267
0.93279755 0.9899299 1.0159789 0.9727123 1.0906419 1.0606878 1.002115 0.9861745

encoder.blocks.0.norm1.bias f4 [16]
00000000: 20a7 923c 3c21 c03c 4252 d1bc 5168 ec3d
00000010: 12c5 b8bd f895 f8bc 52d8 34bd 961b 48bd
00000020: 4a65 043e 4458 40bd 14bc 443c 753a e1bc
00000030: 9e0b c1bd 5833 753d 6ba2 e1bc e4d4 3b3e
0.017901957 0.023453347 -0.025551919 0.11543334 -0.09021963 -0.030344948 -0.04415161 -0.048854433
0.12929264 -0.046959177 0.012007732 -0.027493695 -0.09426044 0.05986342 -0.027543267 0.1834293

encoder.blocks.0.attn.qkv.weight f4 [48, 16]
00000000: e1ba 5c3e d79e b13d 15bf f7be 5d46 5cbe
00000010: 0145 9abd 619e 76be 34bb 793e cb24 993d
00000020: 072d 9e3e c3d0 58be fb87 3f3e 3635 79be
00000030: 5774 433e 5cc8 91be 99a9 e6bd 8b59 4f3e
00000040: d33e 103e ff44 a83e f613 1f3d 22c2 b3be
00000050: 62a1 8f3e 7130 2cbe fe96 683e 6d46 abbe
00000060: 9e66 59be c84f 843e 9480 793e 971d 8bbe
00000070: 4032 eabd 8cc0 f53d 2b1f c0bc 7f3e 61be
00000080: 9542 95be 10aa ae3e 7974 babe 8baa b03e
00000090: 3822 423e ccdf 1b3e 71be 18be 2a35 52be
000000a0: 88f7 683e 3110 863d 4499 f8be d681 0c3d
000000b0: d3f7 8ebe 9348 96bb f1fd 333e 080d 1abe
000000c0: 1648 033d 3841 6e3e dff7 19bd f049 243e
000000d0: 9f55 51be 066f bfbc 6150 24be c642 593e
000000e0: 5f58 453e b8fd e6bc e975 56be 12e0 143e
000000f0: 69d1 d2be 2772 cabd 08a4 cebe fd74 543e
00000100: 3b17 b23c ea1d debd 178c 08be 7892 d3bd
00000110: 751d 1dbe 7f5a 9cbe 5c1d 4d3e 8b8e bbbe
00000120: bbd3 acbe e3de 523e 0330 d5bc 04af 8c3c
00000130: 07c6 5b3d 9641 8bbd 0768 6bbe 3978 14be
00000140: 5cb6 953e 830d 583b 01f0 883c 4eb4 94be
00000150: 7057 9abd ac18 b0be 1560 b03e 855b 93be
00000160: 2a6e de3c 0571 a5bd 116b 66bc a093 a3be
00000170: bc23 8ebd 4d6c b1be e003 a4bc 63a0 1abe
00000180: e1af 893e 2304 f93d 10f7 123c 9298 8dbe
00000190: 8a93 bcbd 5586 0f3e 4905 37be 31ed 093d
000001a0: c790 a5bd 289d 85bd d4d4 17be c2c1 2cbe
000001b0: 8a89 933e e302 03be 5d2f 923d c191 643d
000001c0: 79eb 393c f7c6 9bbc 109c e63d 091b ae3e
000001d0: dfc3 b73d ed28 34be 3390 81be 7cff ea3d
000001e0: 9977 243e bf69 1bbe d0c4 82bc 80c1 5d3d
000001f0: ab17 3dbd 3c4f 1d3e 14bd 273e 90e1 a13e
00000200: ae53 f93d adff a0be faca ac3d 6666 2d3e
00000210: 697b 6e3e 680e c4bd 1c0f aabe a127 7b3e
00000220: 47f1 bfbe 8074 9d3d 59c1 f53c bb9d 51be
00000230: 5a5f 2abe 021d 3b3e b0fe 063e d6e8 41be
00000240: ea42 90bd 0434 e23d c3db cf3e 5deb afbe
00000250: ffea 363e ab49 a13d be51 863d f2b3 24be
00000260: 79d9 9abd 6652 6bbe 4407 353e ded5 a33d
00000270: 4241 b83e 1b77 6ebe 0345 283e afd0 56be
00000280: 157e 52be 5bf7 043e d022 9f3e 4736 b2be
00000290: 1301 ce3e 9aa7 0fbd 574b e03e 291d 2b3d
000002a0: a5d1 f33d 2649 e33d e3c4 51bd 96fc 03be
000002b0: 8f32 1e3f ce89 1abf 3942 3f3e 58ae d2be
000002c0: da51 1fbe c79f eebe bbd3 903e dc99 94bb
000002d0: 3aba 20bf b4d9 053f 5a0d febe d95c 1b3e
000002e0: b1b0 a93d 5b47 3b3d 9d12 cbbd d4bd 753e
000002f0: 615f 47be c495 fa3e 995f 66be a4e8 5b3e
00000300: dcc2 a13c ff72 513e 1f61 b9bd 714c b33e
00000310: 0934 77bd 223b 5abe 4495 a9bd 392d 0b3e
00000320: b030 6dbd f082 13bf 6056 583e ad4e 513d
00000330: 1ef6 5e3c 1507 b13e ee32 66be f72a ec3d
00000340: de4e 2f3d 4368 5dbe 1fd4 2abd 2d55 14be
00000350: 5e8d 513c 0f6d 343e 013b 14be 2bc8 61bc
00000360: d6f1 983d 996d 45be 8638 8d3e 06ac 46be
00000370: 9b51 64be 420b a83d 907b 66be 6ffb d7bd
00000380: c0f9 063c 3094 8a3e 9afe f3be 7792 e33d
00000390: 3956 0c3f 4d00 54be 2fe9 df3c b0ef 2bbe
000003a0: 194f 143e bf92 bd3e c553 af3e e669 56be
000003b0: 8beb acbd b633 29bc d807 393e a088 a8be
000003c0: ae95 adbe 4945 733d 11d3 5e3e 9c89 1abd
000003d0: 8c11 6b3d daf1 343e 2cae 7dbe e650 aa3e
000003e0: a075 3cbe 6ac0 5abe 292f 3bbe 7d6c 063d
000003f0: 243a 60be 7f25 d2bd d286 e33d 153e 003e
0.21555664 0.086728744 -0.48387972 -0.21511216 -0.07532693 -0.24083854 0.24387819 0.07477721
0.30893728 -0.21173386 0.18704216 -0.24336705 0.19087349 -0.28473175 -0.11262817 0.20249002
0.14086466 0.3286514 0.038837396 -0.3510905 0.28052813 -0.16815354 0.22713849 -0.33452168
-0.21230552 0.25842118 0.24365455 -0.27171013 -0.11435366 0.11999616 -0.023452362 -0.21996497
-0.2915236 0.34114122 -0.36416987 0.34505114 0.18958366 0.1522209 -0.14916398 -0.20528093
0.22750676 0.06546057 -0.48554432 0.03430351 -0.2792345 -0.0045862882 0.1757734 -0.15044034
0.03205117 0.23267066 -0.037589904 0.1604383 -0.20442818 -0.02336837 -0.16046287 0.21216878
0.19271992 -0.028197154 -0.20943417 0.14538601 -0.41175392 -0.09885054 -0.4035952 0.20747752
0.021739593 -0.108455494 -0.1333469 -0.10330671 -0.15343268 -0.30537793 0.20030731 -0.3663219
-0.33755288 0.20592837 -0.02602387 0.017173298 0.05365565 -0.06799619 -0.22988902 -0.14498986
0.29240692 0.0032967038 0.016716005 -0.29043812 -0.07536209 -0.34393823 0.34448305 -0.2878076
0.02715214 -0.080781974 -0.014063613 -0.31948566 -0.069404095 -0.3465294 -0.020021379 -0.15100245
0.26891997 0.12158992 0.008970037 -0.27655464 -0.09207828 0.14016087 -0.1787311 0.03367347
-0.08084255 -0.06524116 -0.14827281 -0.16870788 0.2881587 -0.1279407 0.0713794 0.055803064
0.011347645 -0.019015772 0.11260235 0.34005 0.08972906 -0.17593737 -0.25305328 0.11474511
0.16061248 -0.15177058 -0.015962988 0.054139614 -0.04616515 0.15362257 0.16380721 0.31617403
0.12174164 -0.31445065 0.08437152 0.16933593 0.23289265 -0.0957306 -0.33214653 0.24526836
-0.37488768 0.07688236 0.029999422 -0.20470326 -0.16637936 0.18272784 0.13183093 -0.18936476
-0.07044013 0.110450774 0.40597352 -0.34359255 0.17863081 0.07875379 0.0655856 -0.16084269
-0.07561011 -0.22980651 0.17678553 0.07999776 0.35987288 -0.23287623 0.16432576 -0.20978044
-0.20555909 0.12984984 0.31081247 -0.34807035 0.40235195 -0.035071947 0.4380748 0.041775856
0.11905221 0.11097936 -0.051213156 -0.12889323 0.61795896 -0.60366523 0.18677606 -0.4114864
-0.15558568 -0.46606275 0.28286538 -0.004534943 -0.6278416 0.52285314 -0.4961956 0.15172137
0.08285654 0.045722347 -0.099156596 0.23998195 -0.19469978 0.48942387 -0.22497405 0.21475464
0.019746237 0.20454024 -0.090517275 0.35019258 -0.06035236 -0.2131162 -0.08280423 0.1359147
-0.05790776 -0.5762167 0.211267 0.05110042 0.013608484 0.34575716 -0.22480366 0.115316324
0.042799823 -0.21621804 -0.0417062 -0.14485617 0.012790052 0.17619728 -0.14475633 -0.013780634
0.074680015 -0.1928009 0.27582186 -0.19401559 -0.22296755 0.08205272 -0.22508073 -0.10546004
0.008238256 0.27066183 -0.47655183 0.1111192 0.54819065 -0.2070324 0.02733287 -0.16790652
0.14483298 0.3702602 0.342436 -0.20938835 -0.08443364 -0.01032727 0.18069398 -0.32916737
-0.3390326 0.059392247 0.21760203 -0.03772889 0.05738978 0.17670384 -0.24773473 0.33264846
-0.18404245 -0.21362463 -0.18279709 0.032818306 -0.21897179 -0.10261058 0.11109699 0.12523682

encoder.blocks.0.attn.proj.weight f4 [16, 16]
00000000: 8c21 073d c88e ef3d 3f9a e63e 89ac 213e
00000010: 2795 ec3d e08f 953e 3d60 16be af0b 5c3e
00000020: 1955 d83e 4e81 743e e4e8 0dbe 9321 af3e
00000030: 3581 bdbe 4d15 88be 928e e63d 9420 b33e
00000040: 103c a93e 173b be3e 702f 763e e285 3d3c
00000050: e6e6 99be eb16 c4bd dc8b 6f3e 67b1 b6be
00000060: 9a38 e0be c2ec 92be 61bc 963d 3468 1b3e
00000070: fa2e 453d fab6 833e e6f1 18be 3f50 a93d
00000080: 685d 8cbe 78ac 213e 7df7 f43e ea65 3a3e
00000090: b3b3 b4bd 9b46 ff3c 3a96 ad3e 4dc3 e23e
000000a0: 7155 e3bd 7007 80be 5d0d e1bd 75dd 99bd
000000b0: 86e0 cfbc 4658 c23e 4a77 163d 23d3 e63e
000000c0: 2b42 e33c 5169 77be 67ab afbe 64ce e73e
000000d0: 854e ab3e 5465 003f b2b0 443e 0fcb d73e
000000e0: 66ba 253e c5d8 b33e 40ce ac3e 4dc8 5cbe
000000f0: dfa1 61be 6400 a63e 9829 113e 8c3e b03e
00000100: b42b cc3e 216c 9cbd 0fad 2bbe e79b ab3e
00000110: f930 e43e 75f4 f6bd c115 d23e c8e2 50be
00000120: 480f 9fbe f608 c73d 47ac d73e c61d 1cbe
00000130: 0684 85be 4b9b ef3e ee96 7cbe 1941 4d3e
00000140: 103f c03d 1e89 7cbe fe1e 2fbe 9be0 24be
00000150: 20b0 e2be 8b76 75be 1407 2e3d fc43 c4be
00000160: e113 7f3e c1ef ba3d 646b b6be 2b17 203e
00000170: 2e21 f3be 3264 afbe 36ec 85be a82d a13e
00000180: 1766 a03e 8cef 9a3e 1aba 3a3e 1134 93be
00000190: 0895 02be 750c 503e 3ea2 88be cc65 b73e
000001a0: 656a 7c3e 5bbc 563e a452 c5be bf84 9cbe
000001b0: ea17 e23e b827 8ebe 5aa0 b73e 2b05 5b3e
000001c0: 11e5 983d 5103 593e 81b0 d1bb eaf7 b93e
000001d0: 43f9 54be aa57 783e fcb7 ea3d ac05 cdbe
000001e0: d261 db3e 7a3a 43be 4488 8a3d aae4 c03e
000001f0: 9b1f ab3e f4e4 363e a7b1 e03d 221f 083d
00000200: 743a a63d 873c 83bd f587 27be 6719 9f3e
00000210: dd16 0bbe 9178 d03e b4a9 3a3e f665 a4be
00000220: 657d 743e 9d80 a33e 6404 063e afa5 d0be
00000230: 23db 31bd 5ed7 bdbe bb8d 423e 4494 053f
00000240: 6b08 083e e323 6bba 0164 08be d377 cf3e
00000250: 9748 82bd d82c 80bd 117e bfbe 9ef5 95be
00000260: 88cc a63e 30f6 483e fc43 afbc 3fb2 2b3d
00000270: 74a5 0fbe b51d a63e 636e e43e 13e0 f1bc
00000280: 8a59 65be 9c21 c83e 35c4 adbe 8d59 e0bd
00000290: a4ca a63d e1b7 ddbe b627 253e 0756 24be
000002a0: 1cd1 3e3c f9ae 563e 208f b4bc c7d2 a03e
000002b0: 499c a83d 73f9 da3e e451 ccbe 9f8a c1be
000002c0: 8289 8fbe 0ff1 233d 4bf3 963e 70a3 9d3e
000002d0: 82f6 313e a17b d13d 7983 7fbe 9fb1 93be
000002e0: cc59 f53e 58f4 1c3d 5af4 e03e fdc5 1fbc
000002f0: f3db 16bc df74 5c3d 2d00 20be 415e 8cbc
00000300: 4523 2cbd fc1f f6be e1df 10be 1267 80bd
00000310: ee27 eb3e f899 f5be 6e27 a53d c473 35be
00000320: dc92 cb3d deac e13e c5ff a7be 5e9f 973e
00000330: 11b4 eebe 9173 1dbe 197e 603e 2363 463e
00000340: 5090 b43d 673d 623e 1bf7 70be 7cc8 e23e
00000350: 6e87 8abe d98e 19bd 53ca 663e ef5f 133e
00000360: a713 ab3d 7e8d 973d 3992 d7be 05e8 173e
00000370: 74b9 dc3e 4638 953e d0a1 f73d 3646 b8bd
00000380: aaba 93be 27be d3bd 1263 b7be a128 d1bd
00000390: fd03 a1be a5f7 683e 9e74 62bb 1e0a a23e
000003a0: 6218 f13d 5fd8 c53e 7960 af3d 768f 36be
000003b0: 617f b43e af11 543c 78e2 fa3d 621f c43e
000003c0: e5ff a63e fa7f 913e 8f49 afbe 7b87 99bd
000003d0: 4aed 853e 8b2e 60be a1cd 883e ba0f 333e
000003e0: 87d8 2cbd 4630 97bd 8542 78be f1e2 383e
000003f0: 59e4 763e 695e 743b 9151 a4be ae53 c7bd
0.032990977 0.11697155 0.45039555 0.15788473 0.11551886 0.2921133 -0.1468515 0.21488832
0.42252424 0.23877451 -0.13858372 0.34205303 -0.3701264 -0.2657875 0.11257662 0.34985793
0.33053637 0.37154457 0.24041533 0.011567565 -0.30058974 -0.09574684 0.23393196 -0.35682222
-0.43793184 -0.28696257 0.07360149 0.15176469 0.048140503 0.25725538 -0.14936027 0.08267259
-0.27415013 0.15788448 0.4784507 0.1820294 -0.088233374 0.031161597 0.33903676 0.44289628
-0.11100281 -0.25005674 -0.10988877 -0.07512943 -0.025375616 0.37957972 0.036734857 0.4508296
0.027741512 -0.24161269 -0.34310457 0.4527465 0.33458343 0.50154614 0.19208029 0.4214711
0.16184387 0.3512632 0.33751106 -0.21560784 -0.22034405 0.32422173 0.14176023 0.3442272
0.39877093 -0.076378115 -0.16765235 0.33517382 0.44568613 -0.12058345 0.41032222 -0.2039901
-0.31066346 0.09718506 0.42123625 -0.15245733 -0.26077288 0.46798167 -0.2466695 0.20044364
0.09387028 -0.24661681 -0.17101666 -0.16101305 -0.44274998 -0.23971002 0.04248722 -0.38333118
0.24909927 0.09127761 -0.35628808 0.15633838 -0.47486252 -0.3425613 -0.26156777 0.31480145
0.31327888 0.30260885 0.18235055 -0.2875066 -0.12752163 0.20317252 -0.2668628 0.35819852
0.24649961 0.2097029 -0.38539612 -0.30570027 0.4415887 -0.27764678 0.35864526 0.2138869
0.07465566 0.21192671 -0.0063992147 0.36321956 -0.20798211 0.24252191 0.114608735 -0.4004339
0.42848068 -0.19065276 0.06764272 0.37674457 0.3342255 0.17860776 0.109713845 0.033232816
0.08116618 -0.06408029 -0.16360457 0.31074068 -0.1358294 0.40716985 0.18228799 -0.3210904
0.23875959 0.31934062 0.13087612 -0.40751407 -0.043421876 -0.37078375 0.18999378 0.5217936
0.13284461 -0.0008969886 -0.13319398 0.40521106 -0.06361502 -0.06258553 -0.3740087 -0.29288954
0.3257792 0.19625163 -0.021394722 0.041918036 -0.14027959 0.3244454 0.44615468 -0.029525792
-0.22397438 0.39088142 -0.33938757 -0.109545805 0.081441194 -0.4330435 0.1612843 -0.16048442
0.011646535 0.20965184 -0.022040904 0.3141081 0.08232934 0.4276844 -0.39906228 -0.37801072
-0.28034598 0.040024813 0.29482493 0.30788755 0.17379192 0.102286585 -0.24952497 -0.28846452
0.47920072 0.03831896 0.43936425 -0.009751794 -0.009207713 0.053822394 -0.15625067 -0.017134788
-0.042025823 -0.48071277 -0.14147903 -0.06269659 0.459289 -0.4796903 0.08064161 -0.17719942
0.099401206 0.440772 -0.32812324 0.29613775 -0.46621755 -0.15376116 0.21923102 0.19373755
0.08816588 0.22093736 -0.23531763 0.44293582 -0.2705645 -0.037489746 0.22538118 0.14392065
0.08353358 0.07400034 -0.42103747 0.14834602 0.4311024 0.29144496 0.1209141 -0.08997767
-0.2885335 -0.10339003 -0.35817772 -0.102128275 -0.31448355 0.22750719 -0.0034554373 0.31648344
0.11772229 0.3864164 0.085633226 -0.17828164 0.35253432 0.012943669 0.12250227 0.38305193
0.32617107 0.2841795 -0.34235808 -0.07496544 0.261576 -0.21892755 0.26719382 0.17486468
-0.042198684 -0.07382254 -0.24244125 0.18055321 0.24110545 0.0037287718 -0.3209348 -0.097327575

encoder.blocks.0.attn.proj.bias f4 [16]
00000000: 3f52 4b3b ff0f 5a3d 6e67 973c 8bfa a83d
00000010: 1cd5 033d c2ee 08bd fa3c 70bd 8653 3cbd
00000020: 38cc 53bd f21f 51bd d846 6db9 dee1 b9bc
00000030: f4b6 93bd 892d 493d 6c4d d4bc 938a e73d
0.0031024364 0.05323791 0.018481936 0.08250912 0.03218566 -0.033430822 -0.0586519 -0.04597809
-0.05170843 -0.051055856 -0.00022628473 -0.02269071 -0.0721263 0.04911569 -0.025915824 0.11305728

encoder.blocks.0.norm2.weight f4 [16]
00000000: 2c2a 7e3f a6a0 713f 40d1 803f 47a8 803f
00000010: 510d 773f 62eb 703f bf85 773f ff5a 6d3f
00000020: 2fe6 643f 4607 7d3f bc64 5f3f dbcb 763f
00000030: 696e 893f b347 843f e84e 873f 9974 533f
0.992831 0.94385755 1.0063858 1.0051354 0.96504694 0.94109166 0.96688455 0.92716974
0.8941373 0.98839223 0.87263083 0.9640481 1.073682 1.0334381 1.0570955 0.8259979

encoder.blocks.0.norm2.bias f4 [16]
00000000: 5614 a1bd f801 88bd 7e82 383d 0888 2a3d
00000010: 89f1 0ebd 6d4d 83bc 107a 723a b8f4 debb
00000020: 7b46 c8bb b2df 9ebc 40fb d23c 4acb 8fbc
00000030: f1dd 36bd 9cb9 2e3d a83d 7cbd 3eb3 b3bd
-0.07865207 -0.066410005 0.045046322 0.041633636 -0.034898315 -0.01602813 0.0009249756 -0.006804075
-0.0061119176 -0.019393776 0.025754571 -0.01755299 -0.044645254 0.04265748 -0.061582237 -0.08774422

encoder.blocks.0.mlp.fc1.weight f4 [64, 16]
00000000: b6c7 a23c 26af 8dbc 38a9 fe3d 2ad0 7f3c
00000010: c22f 76be 44a7 cb3d 3ff2 2e3d 1a15 713d
00000020: 7033 eb3d 89c5 adbd 8c0d 903e 3aa6 b53d
00000030: 7b65 483e 0881 86be 5a2c 463e 04d7 c03d
00000040: e9e1 c13d 68bd 89be fdfa fbbc 0893 6bbe
00000050: 0f36 6c3e 4f8d 04be e6bf 7ebe 9adb 9abd
00000060: a33e 513e 3d99 91bd b4a3 793e 9955 233e
00000070: f146 893d f66c 17be 00ac bf3c 6f95 0e3e
00000080: f950 4b3c 1a43 463d a3dc 04be 2c66 093e
00000090: ff4a a8be 195d c93d e8a7 1c3e eab3 a6be
000000a0: 0a86 f53d 38d3 f03d 884a 12bd c85b b0bd
000000b0: a503 343e bd0d 6aba bf1c 9c3d 12f6 32bd
000000c0: 9e0d 76bd 7efc 333e 0d28 093e ac25 0abe
000000d0: 6236 883e 47dc 0f3e cff6 843e 1830 673e
000000e0: a2c6 18be 302c 013e df14 673d ed0a 593e
000000f0: 59fb e7bc 6a88 8bbe 622e 8abd 503e 08be
00000100: 08fc 7f3e 9504 783d 4b5a cf3d 83af 2fbe
00000110: d2ed e9bd a038 a7bd 4b27 2cbd 0be5 e1bd
00000120: f9a8 3fbe a4f0 923e fff7 88be 4f60 683e
00000130: 0f6b 783e 2bcf aabd 79ca 183e 9869 a23d
00000140: b1d1 13be 6168 993c 1752 19be 9721 913b
00000150: f51c 50be 1063 433e 8fcc 003e 5c81 b9bc
00000160: f651 e0bd 554b 703c 8cf6 04be b8b2 333d
00000170: 0920 12bc acfd 6cbe 5e2a 913e 0153 56be
00000180: 58ed ecbd b590 8d3e 1b1b e63c e71d f9bd
00000190: d25d 133e d247 2bbe 3f4c 29be 9ca7 12be
000001a0: 8390 2bbe 7e74 913e 8725 a8be fbc8 97be
000001b0: 1d95 10be fba8 b8be 5ad0 85bd 3b6e d03b
000001c0: fab8 66bd 8368 a5bd e7c8 8bbe 62aa 26be
000001d0: 90ce 8dbe 51e4 86be e6eb 703e e477 77be
000001e0: 0665 473d ee93 393e 5ad2 7fbe 455b 553e
000001f0: b73f 84bd 04af 29be 6114 5f3c a43d e8bc
00000200: 6df8 283d 24b7 4b3d a486 6a3d c3a9 6d3e
00000210: a9ac 8ebe a095 003e 2135 163d a8e0 34be
00000220: 2a26 713e 3976 133d c6ff 203d c85c 343e
00000230: 2787 b93d 0410 80be 864e 7f3d 9571 72be
00000240: b8e8 0cbe 132c 96be a07c 213d 0e7a 0bbe
00000250: 49c3 353e 37c9 783e 2177 85bd aeed 0a3e
00000260: 7f4b 88be fea4 413e 3d23 373d b97d 0e3e
00000270: 7201 adbe dc64 8a3e a188 7a3d de32 dabb
00000280: 54c7 52bd 081f 34be 60f6 af3c 30c6 3dbe
00000290: 74e2 82be 72ce 4ebe 43bb 863e a77c e43c
000002a0: 0397 123e 8a54 123e 2f0e e53d 42ad a3bd
000002b0: 2c66 b63d 52e7 16bc 2d81 b2bd ceb0 28be
000002c0: ef24 4e3d 14ce c73c 5952 2b3e 447e e83d
000002d0: b11a 2b3e 4f06 343e 8836 63be 671f 613e
000002e0: 5fbc c83d 59f8 83be cf5e 32be f5e8 1a3e
000002f0: 7d54 57bc b698 9c3c f8e9 e3bd 717d 19be
00000300: c9b7 9d3d df3b 693c 7f93 f83d 10f3 bfbd
00000310: 84b7 443e 234c 30be e50a 04be 4419 4a3e
00000320: bfd4 853e a489 2d3e 0c0d 53be 399e 133e
00000330: 2f00 ac3d ddb0 d5bc 6713 2e3e 1975 fc3d
00000340: b687 b7bd c59f 49be 54fd e8bd 65ab 0d3e
00000350: 2948 5abe 0715 a73e a54d 7f3e c88e 5fbc
00000360: 7be4 1cba 4f27 8d3e a7b2 31be 0924 703b
00000370: ade6 cdbd d861 30be 8952 7f3e b722 8a3e
00000380: 6bf9 4abe 7476 0bbe ccbd 00bd a5b7 603e
00000390: c46a 21be 5a51 a5bb f84c 83be 48ed abbd
000003a0: 411c b5bd d67f 26be c776 373e b50d 31be
000003b0: 8a5b 4e3e ab04 9bbe eea6 5b3e 7bcc a13d
000003c0: 009c 903e a592 58be b152 c0be 21dc 7ebe
000003d0: 9258 123e 66d9 2f3e 74b3 af3e f6d5 c2be
000003e0: f465 32be f823 05be 8b77 913c f960 86be
000003f0: 88c0 083d 827b d4bd d1d5 0c3e 363d 73bd
0.01987062 -0.017295431 0.1243462 0.015613595 -0.24041656 0.09944013 0.042711493 0.058858015
0.1148442 -0.084849425 0.28135335 0.08869596 0.19569962 -0.26270318 0.19352856 0.09416011
0.09466917 -0.26902318 -0.030759329 -0.23005307 0.23067497 -0.1294453 -0.24877891 -0.07561417
0.2043405 -0.07109306 0.24378854 0.15950622 0.06702984 -0.14787659 0.023397446 0.13924192
0.012409442 0.048403837 -0.12974791 0.13417882 -0.32869717 0.0983221 0.15298426 -0.3255914
0.119884565 0.11759037 -0.03571561 -0.08611256 0.17579515 -0.0008928439 0.076226704 -0.043691702
-0.06007158 0.17576787 0.13394184 -0.13490933 0.2660399 0.14048873 0.2596955 0.2257694
-0.14919522 0.12614512 0.05641639 0.21195574 -0.028318094 -0.27252513 -0.06747128 -0.1330502
0.24998486 0.060551245 0.10124644 -0.17156796 -0.11422314 -0.08165097 -0.04202966 -0.110300146
-0.18716802 0.2869922 -0.26751706 0.22692989 0.2425959 -0.083402954 0.14920987 0.07930297
-0.1443546 0.01872653 -0.14972721 0.004429053 -0.20323546 0.19080758 0.12578033 -0.022644691
-0.10953133 0.014666398 -0.12984675 0.04387161 -0.008918771 -0.23143643 0.28352636 -0.20930101
-0.11568707 0.27649465 0.028089097 -0.121639065 0.14391258 -0.16726616 -0.16532992 -0.1432175
-0.16754346 0.2840919 -0.3284113 -0.29645523 -0.14119382 -0.36066422 -0.065338805 0.0063607967
-0.05632875 -0.08076575 -0.27301714 -0.16275933 -0.27696657 -0.26346067 0.23527488 -0.24166828
0.048680328 0.18122837 -0.24982587 0.20835598 -0.06457465 -0.1657067 0.013615699 -0.028349705
0.041252542 0.049735203 0.05725731 0.2320929 -0.27866104 0.12557077 0.03667176 -0.17663825
0.23549715 0.036001418 0.039306425 0.17613518 0.090589814 -0.2501222 0.062330745 -0.2367614
-0.1376065 -0.293305 0.039425492 -0.13620779 0.17750277 0.24295507 -0.06516863 0.1356723
-0.266201 0.18910596 0.04471134 0.13915147 -0.33790165 0.27030075 0.061165456 -0.006658896
-0.051459625 -0.17589962 0.021479785 -0.18532634 -0.25563395 -0.2019594 0.26314744 0.02789147
0.14315419 0.14290062 0.11184346 -0.07992031 0.089062065 -0.0092104245 -0.087160446 -0.16473696
0.05032819 0.024390258 0.16730632 0.11352208 0.167094 0.17580532 -0.22188771 0.21984635
0.09801554 -0.25775412 -0.17418979 0.15127929 -0.013142702 0.019115787 -0.111286104 -0.14989258
0.0770107 0.014235466 0.12137508 -0.09372532 0.1921063 -0.17216544 -0.12894781 0.197362
0.26138875 0.16947037 -0.20610446 0.14415826 0.083984725 -0.026085312 0.16999589 0.12327022
-0.08961432 -0.19689853 -0.113764435 0.13834913 -0.2131659 0.3263323 0.24931963 -0.013644882
-0.0005984974 0.27569053 -0.17353307 0.0036642572 -0.100537635 -0.17224824 0.24933828 0.2697961
-0.19821708 -0.13619405 -0.031431004 0.21945055 -0.15763384 -0.0050450983 -0.2564466 -0.08394867
-0.0884328 -0.16259703 0.17916404 -0.17290385 0.20152107 -0.30277 0.21450397 0.0790033
0.2824402 -0.2114969 -0.3756309 -0.2488866 0.142916 0.17172775 0.343166 -0.38053864
-0.17421705 -0.13002002 0.017757198 -0.2624586 0.033386737 -0.1037512 0.1375344 -0.059384547

encoder.blocks.0.mlp.fc1.bias f4 [64]
00000000: e2a9 f1bc 17ca 8fbc 000e 60bd 9ee7 013c
00000010: f456 c139 dff6 04bd ad2c 3cbd dce6 13bd
00000020: 81d5 0dbd 4b0f 303d b4ba 4fbd 21ac d33c
00000030: 23d8 61bd 7afa 05bc 0198 debc 7eee 26bd
00000040: f5ed 39bd e895 4dbd 5777 4ebd a2ef 01bd
00000050: d6b8 4c3d 8f41 36bc 4c72 a23c c505 393b
00000060: 9e2d 913b 5f8a 6cbd 7b55 8b3b 1d8a 8c3c
00000070: e134 eebc da80 483c 670a cbba cf68 94bd
00000080: ae3d 5abd a88d 1cbd cefc 68bd fd65 253d
00000090: 3cbc 06bd bc26 68bd 80dd cfbc e8bd 103d
000000a0: 9e50 74bd d556 fc3c 472a 26bd 3ff8 c7bc
000000b0: 5fae 243d a5d8 363c 98ad ad3c 424b 2bbd
000000c0: 9577 c73d 8caa b93c 727b f4bb 9ed2 05be
000000d0: 6dbf d3bb 6a8d 303d f8dc 5abd cbbb cabc
000000e0: 4cbc 27bd fef9 143d a64d 4d3d d548 2abd
000000f0: 0bbc 4bbd b38c 75bc 10f9 993a 6394 103d
-0.029499952 -0.017552419 -0.05470085 0.007928757 0.00036876614 -0.032461997 -0.045941044 -0.036108837
-0.03462744 0.042983335 -0.050715163 0.025838913 -0.055137765 -0.008177394 -0.02717209 -0.040754788
-0.04539295 -0.05019179 -0.05040678 -0.031722672 0.04998096 -0.011124029 0.019829892 0.0028232199
0.004430487 -0.05774915 0.0042521334 0.017155701 -0.029077949 0.012237752 -0.0015490771 -0.07246553
-0.05328148 -0.03822103 -0.05688172 0.040380467 -0.032894358 -0.056677565 -0.025374174 0.03533736
-0.059647195 0.030803123 -0.040567663 -0.024410365 0.040205356 0.0111600505 0.02120094 -0.04181982
0.09739605 0.02266433 -0.007461005 -0.13068625 -0.0064620287 0.043103613 -0.05343339 -0.02474775
-0.04095106 0.036371224 0.05012288 -0.041573364 -0.04973988 -0.014987159 0.00117472 0.035297763

encoder.blocks.0.mlp.fc2.weight f4 [16, 64]
00000000: 83d1 16be b991 4abd 3a38 41be caaa 0f3d
00000010: 461c 86bc 591f b3bd d798 423e eeb1 36be
00000020: 5bd1 20be c98b 843e 7aa2 d73c b63a 8c3e
00000030: a190 ae3d 2a41 55be fd67 023d 51f3 c5bd
00000040: 61f6 073e c337 80bd ec9c 833e 5b7b 853e
00000050: fcb8 803d b1b0 8a3e 9829 d73d d0ea 08be
00000060: 561f a23e 4028 78bd ddb0 3bbe 6f61 113e
00000070: da5b 2e3e 95ab 23be a873 443e d557 6e3e
00000080: 3e86 30be cf51 a73d 50cc 62be 5842 733d
00000090: 81d1 323e 3baf 84bd 1892 bcbd 76de 2a3e
000000a0: 5bf6 513e b9e3 fe3c e4a6 3b3e 7598 9dbe
000000b0: 90f7 293e 0505 803e 8b9f 103d 0e56 3ebe
000000c0: 098b af3e 90d4 9b3d 530c 21bd e00e 06bd
000000d0: 239f 0abe 61db 113d 28eb 4e3e 4d43 4a3e
000000e0: 8eb4 92be f654 dfbd 02b7 643e 5564 2abe
000000f0: b7f2 9a3d 6a88 65bd ec9a a93c 42d0 343e
00000100: 1fa3 1fbe 1143 7bbe c158 3dbe 615c 40be
00000110: 9125 f13d 7b25 07be 4be7 a8bd b180 92bd
00000120: e56a afbe c223 5a3e 0c71 07be 4bcd 113e
00000130: 29c7 5c3e 51ec 833c 6be1 e53d a2c9 b13c
00000140: cf2f eabd f2b0 64be 28d3 d0bd e424 38be
00000150: a14e 413e 31ca 653d 9362 8ebe bc95 4c3e
00000160: 9a71 033e 071e 04bd 9d6b 3d3e 82e7 c13d
00000170: 9b8e 5abc 62ea 363d e9ed 8f3e 2085 16be
00000180: 27a3 68be 8cc6 fbbd e3c7 c03d 0bd8 1e3e
00000190: a134 083e 34d5 673e 9a1a b43d 58af 65bd
000001a0: 20e9 89bd 5a59 e73d 006b 49be bb79 6f3d
000001b0: 4de1 703d e389 593e 506c 1c3e 5cca 0cbe
000001c0: b234 94bd 4aa2 da3d 2656 133e edec 20bb
000001d0: 50ec 913d bbc2 39bd a3dd a33d a043 773e
000001e0: e0bb 633e 0a88 723e be27 32be 1923 3ebe
000001f0: 44b0 c4bd 8436 c73d ac5f 9e3d 6515 06be
00000200: 3ff3 49be 51ef 7e3b a75e 5a3c a2d0 e33d
00000210: d981 2fbd e0fc 933e 34e8 11bd 0121 193e
00000220: deb3 91bd 23ba 323e 217c 5e3e 7d3a 033e
00000230: a5ef 273d 454b 57bc be00 c93d 772b df3d
00000240: 9421 3cbe 40f6 673e 7130 55be e936 33be
00000250: d762 84be 4fbd 7abe 5666 1c3d 1fab 38be
00000260: 5fa8 a23d 6e1b 293e 5a62 35be a93f 6cbe
00000270: 9133 c3bd 56d7 cb3d 5cfa 243e eb38 81bd
00000280: b9ed 903d c04f 50be b1dd 6c3c ed3f 8fbe
00000290: 5c89 ccbd b885 d4bc 95c7 26be be6a 93be
000002a0: fee1 5d3e 933b 29be c9e7 90bd 0172 5bbe
000002b0: 5c15 183e b7c5 a4be 17e3 48be 7a84 3cbe
000002c0: 1bea 80be 0e3f 813e 2121 d73c cdd2 213e
000002d0: 4383 8e3e 161f 87be 7669 1cbd 9460 2f3e
000002e0: c351 863e b0a7 3bbe 6806 36be 7dfc fa3d
000002f0: 0853 e63d 7583 12be 763a 8dbd 41e8 71be
00000300: f8a5 d63d 0432 a33d c808 6bbe 5933 803e
00000310: 2c1c c13c 55c5 03bd 8d01 8e3e b389 43be
00000320: f5ba e83c d834 063d 1d26 cb3d 3e23 f6bd
00000330: 466d 18be a7ff e0bd dfdb 70be 50d0 603d
00000340: f2a3 4fbd c256 ccbd 0819 86be 857b eebb
00000350: a39b 093e 1784 2e3e 324f 96be f787 fa3d
00000360: 551f aabd 39c3 79bd a419 69be 7211 4fbd
00000370: 4040 95be 96c9 0bbe d53a 4c3e 622b 3b3e
00000380: a183 1e3e e39a 823e 88a5 29be 3b0a 6cbe
00000390: 1f22 043d 1d8c e3bc 72ec 2a3e 0f8c 793e
000003a0: b3d8 8c3c 1e78 013e 3d01 58bc a5b2 023d
000003b0: 2c04 743e 4acd 01bc cdeb 9dbd e9cc 383e
000003c0: 3ffd 5c3e e63a dc3b 18e3 3d3e 615f 62bd
000003d0: a866 d9be 27b7 e23d 0232 613d 06b5 1d3e
000003e0: c64e 7d3d 57ed 0d3e 857e 8e3c 471d 2fbc
000003f0: 3742 4fbe 418a c83d 7067 ecbd 7886 66bd
-0.1472836 -0.04945538 -0.18869105 0.035074987 -0.016370904 -0.087462135 0.19003616 -0.17841312
-0.15704863 0.25887898 0.026322592 0.27388543 0.085236795 -0.2082564 0.031837452 -0.096655495
0.1327758 -0.06260636 0.2570566 0.26070675 0.06285283 0.2708793 0.1050598 -0.13370824
0.31664532 -0.06058526 -0.18329187 0.14197324 0.17027226 -0.15983422 0.19184744 0.23275693
-0.1723871 0.081699006 -0.22148252 0.059389442 0.17462732 -0.06478735 -0.09207553 0.16686425
0.20504133 0.031114446 0.18325382 -0.30780378 0.16598344 0.2500383 0.035308402 -0.18587515
0.34285763 0.076089025 -0.039318394 -0.03272903 -0.13537268 0.035609607 0.20206892 0.19752236
-0.28653377 -0.10904877 0.22335437 -0.16639836 0.075658254 -0.056038298 0.020703755 0.17657569
-0.1558957 -0.24537303 -0.18490888 -0.1878524 0.11774743 -0.13197891 -0.08247241 -0.07153452
-0.34261242 0.21302703 -0.13226718 0.1423847 0.21560349 0.016103895 0.11224636 0.021702591
-0.114349 -0.22333124 -0.10196525 -0.17982823 0.18877651 0.056101028 -0.2780958 0.19978994
0.12836304 -0.0322552 0.18498082 0.09467985 -0.013339664 0.04465712 0.281112 -0.1469922
-0.22718488 -0.12293729 0.09413125 0.15512101 0.13301326 0.22639924 0.08794136 -0.056075424
-0.06733918 0.11296339 -0.19669724 0.0584657 0.058808614 0.21244006 0.15275693 -0.13749069
-0.07236613 0.106754854 0.14388332 -0.0024555281 0.07125151 -0.045351725 0.08001258 0.2414689
0.22239637 0.23684707 -0.17397973 -0.18568076 -0.096039325 0.09727195 0.07733092 -0.13094099
-0.19721697 0.0038899968 0.013328231 0.11123778 -0.04284844 0.28903866 -0.035621837 0.14953996
-0.07114385 0.17453818 0.21727039 0.1281528 0.041000027 -0.013140504 0.09814595 0.10896962
-0.18372184 0.2265253 -0.2081926 -0.17501415 -0.2585666 -0.24486278 0.038183533 -0.18034028
0.079422705 0.1651437 -0.177133 -0.2307116 -0.0953132 0.099531814 0.1611113 -0.06309684
0.07076592 -0.20342922 0.014457152 -0.2797846 -0.09987137 -0.025942668 -0.16287072 -0.28792375
0.2166824 -0.16526632 -0.070754595 -0.21430208 0.14851898 -0.32182094 -0.19617878 -0.18409911
-0.25178608 0.2524342 0.026260914 0.1580307 0.2783452 -0.26390904 -0.038186513 0.17126685
0.26234254 -0.18325686 -0.17775881 0.122551896 0.11246306 -0.1430796 -0.06895916 -0.23623754
0.10480875 0.07968524 -0.22952569 0.25039175 0.023573004 -0.032170612 0.27735558 -0.19095497
0.02840946 0.03276524 0.09919379 -0.12018441 -0.14885435 -0.10986262 -0.23521374 0.054886162
-0.05069346 -0.09977485 -0.26190972 -0.0072779083 0.13438277 0.17042576 -0.29357296 0.122329645
-0.08306757 -0.060977194 -0.22763687 -0.050553747 -0.2915058 -0.13651118 0.19944318 0.18278268
0.154799 0.25508794 -0.16567051 -0.23050778 0.032259103 -0.027776772 0.16691759 0.24369834
0.017193174 0.12643477 -0.013183889 0.03190865 0.23829716 -0.00792248 -0.07710991 0.18046917
0.2158098 0.0067208884 0.1854366 -0.05526674 -0.42461133 0.1107009 0.05497933 0.15401086
0.061842702 0.13860069 0.017394314 -0.010688133 -0.20240103 0.09791995 -0.11543167 -0.056280583

encoder.blocks.0.mlp.fc2.bias f4 [16]
00000000: 0e36 9c3d f578 6a3d 377c 5abd 2beb b63c
00000010: 0c7e f63c 17c2 0cbd ee62 0dbd d504 8dbd
00000020: 56f9 d13b ebae 08bc 35c2 5fbd 8f68 2abd
00000030: 9f3c 93bc e55c 103d b08b b83b 09cd 783d
0.076274976 0.05724426 -0.053341117 0.022328934 0.0300894 -0.034364786 -0.034518175 -0.06885687
0.006407897 -0.008342485 -0.05462857 -0.04160362 -0.017973242 0.03524484 0.0056318864 0.06074241

encoder.blocks.1.norm1.weight f4 [16]
00000000: aabf 783f 9f7b 853f 52e0 743f 6fcc 733f
00000010: bc04 873f 284a 7b3f d535 8f3f 3e32 803f
00000020: 7abf 7f3f d4a6 7e3f 4f5f 853f f859 7b3f
00000030: a672 863f cb5c 883f 94ac 783f 247e 783f
0.97167456 1.0428351 0.95654786 0.95233816 1.054832 0.9816003 1.1188303 1.0015333
0.99901545 0.9947331 1.0419711 0.98184156 1.0503738 1.0653318 0.97138333 0.97067475

encoder.blocks.1.norm1.bias f4 [16]
00000000: 82bd 453d 0de8 913d 5a2e f6bc 5566 85bc
00000010: b8c3 483d ffc4 12bd d481 e4bd 3b7b 41bd
00000020: 4ded 0dbd 9dd7 edbc 17ce 60bd 6fcb 9dbc
00000030: 9312 f5bc 1543 3c3d 33b2 343a e263 943d
0.04827643 0.07124338 -0.030051399 -0.016284147 0.049014777 -0.0358324 -0.11157575 -0.047236662
-0.034650136 -0.029033476 -0.054884043 -0.019262044 -0.029916083 0.045962412 0.0006893009 0.07245614

encoder.blocks.1.attn.qkv.weight f4 [48, 16]
00000000: 989d 95be 2c1f b2be e15b 3dbe f233 663d
00000010: 8afa e1be 2c8f 50ba 0e2c 453d ce6b e83d
00000020: d343 af3c 91da 71bd 22fc 143e 9a41 48be
00000030: 1e2f c13e 2176 62bc 8611 8f3e 68c5 df3d
00000040: 3afd 08bd 880a bcbd eb89 5c3e e604 5d3d
00000050: c791 593e e8b7 49bd 827a a4be 4466 65be
00000060: 0135 10be 9f16 b2bd 9287 6dbb b58e 9abe
00000070: e0d7 c9be f935 fc3c 8183 b8be 75fd b23e
00000080: 8d8e 42be b200 df3e fc91 8d3d f82d 6a3e
00000090: eb39 b53e c175 27be 21fe 463b df5c a2be
000000a0: 8106 953e 97ca 5d3e 6040 cfbe baac 8c3e
000000b0: 51eb 3e3e 6727 3cbe 38a8 543e 4229 a13e
000000c0: e1f3 813e c13c 303e 5782 f6bb 9d34 bf3d
000000d0: dfea a13e f5ec 86bd b3b9 41be 2306 82be
000000e0: f2e3 6cbe a971 59be 3fd0 433e 5cd2 d33d
000000f0: abd8 7f3e 5bb1 433d b9f8 193e 8b18 983d
00000100: 4962 913d 2e8f 483e f20e dbbc d2c2 35be
00000110: 8c65 583e bc4f 21be 7018 413e 9265 babd
00000120: 5d08 fcbe 0f96 933c ba40 81be fa42 3b3e
00000130: ed63 593e a28b b43e 28cc 093e 9940 c53e
00000140: 165d ff3d a10a d6be c8ac 883e 37ff 83bd
00000150: 5d02 643e 1e1a b03e 1ebf 47bd 3714 b93e
00000160: 988a f43e de1a 0cbe df8a 563e 0f62 2b3d
00000170: 7c46 773e b6bb 8b3c 3e2c 933e 19bb 34be
00000180: d729 07bd de20 5abe 809a aabe f3f0 02bd
00000190: e2df 773d 7235 80be afed 9e3e 7f91 3dbe
000001a0: e8ed 8c3d f9fc fbbd a4f3 023d 26ab e5bd
000001b0: c311 98bd 3012 0ebe 3ad2 61bd 4d8f ff3d
000001c0: 49fd 3d3e d1fc 1ebd a3c9 97bd 2645 d0bd
000001d0: 8a14 13be c7af 5cbe b2b0 843e 5f28 ba3e
000001e0: 64dd 48be 41ff e4bd a180 823d dde1 193e
000001f0: 780e 4ebe fa00 9c3d 70f4 323d e6bd 48be
00000200: 7c16 863d 9330 65be 02a5 7a3e 643f 67be
00000210: 1d86 5fbe 9303 943e a6e2 3abe 7673 a53d
00000220: f02e 143e 608c ad3e 4cf3 b1be 8e14 1cbe
00000230: 4f51 77be 481b 66be 8cde 8cbe d7ac 2c3e
00000240: 2960 b2bd 32a7 933e fec5 b0be 1bdc 85bd
00000250: 269f 53bc f20b 72be 0c11 cfbe 7b8c 25be
00000260: 1795 0b3e 0dda adbd 8393 99be 2370 923d
00000270: 871a 39be f8aa ad3e 44a0 3ebd 92bf d63e
00000280: 8419 163e 743c 06bd fc26 123e bf83 e53d
00000290: 30f9 65be 5718 92bd f90e ae3e 2e2f 08bd
000002a0: d0f1 d33e a297 523e 7660 2abe d5bc 813e
000002b0: bf7a 09be 40fe 9dbd 2762 b43e 4da3 a2be
000002c0: f92e 0ebe bce9 ba3e 3e3e 373e 20bd 083e
000002d0: 54a8 ac3e 3560 14be 7701 d53d 7a6f db3d
000002e0: 6fba b13c 8d1a 473e 766b e5bd dad9 563e
000002f0: 1b67 783e d69c ea3d 7e21 8aba 4821 043e
00000300: e581 d0be 3a5b 3bbd f940 7bbe b916 97bd
00000310: a124 ec3c ea74 393e 2468 b9be fc4f e43b
00000320: e438 7a3e 6444 113d b98c f5bd ae8f f83d
00000330: 2cec afbe ac93 09be 9501 93be 4838 973e
00000340: 3f1f 80bd 6d8d 933e 63a3 98be 25e3 003d
00000350: da77 91bd ba60 1bbe e3cc ffbd 20d4 54be
00000360: d8a1 9e3e cffb 1e3e 7c4d fbbd 8a47 1c3d
00000370: 0284 8abe 5a22 e23d 6acb 23be 59f9 573e
00000380: 831c 673e eacf 19be bb4d 7c3e 1ac2 533d
00000390: d73b 84be 87a2 b4bc 108a 3ebe 6c15 993e
000003a0: fe76 e1bd 4271 d03d fe44 c23d e54f a83e
000003b0: 699f 95be a8a2 783e bed2 c53e cdd6 90be
000003c0: 8a47 923d 58cf dabc a2f0 85bd bb1f aebd
000003d0: 7288 a1bd e3a1 93be a3d6 a23c 986c 13be
000003e0: a729 ecbe 0c6b 70bd 1163 733d f7ba 8c3e
000003f0: 49bb 7abe 58ca 5a3d 7b2d e3be 6651 2a3f
-0.29221797 -0.34789407 -0.1849208 0.056201883 -0.4413646 -0.00079559046 0.048137717 0.11348687
0.021394646 -0.05904633 0.14549306 -0.19556275 0.3773126 -0.013822109 0.27943057 0.10926324
-0.03344462 -0.09181696 0.21536987 0.05395975 0.21247016 -0.049247652 -0.32124716 -0.22402292
-0.1408272 -0.08695721 -0.0036244136 -0.30187002 -0.39422512 0.030787455 -0.3603783 0.34958997
-0.18999691 0.43555218 0.0691261 0.22869098 0.3539575 -0.16353513 0.0030363875 -0.3171148
0.29106525 0.21659313 -0.40478802 0.2747553 0.18644454 -0.18374406 0.20767295 0.3147679
0.25381377 0.17210676 -0.007522862 0.09336207 0.31624505 -0.06588165 -0.18918495 -0.25395307
-0.23133829 -0.21234764 0.19122408 0.10342857 0.24984996 0.04777656 0.15036286 0.07426556
0.070988245 0.19585869 -0.026740525 -0.177501 0.21132487 -0.15753073 0.18856978 -0.09101404
-0.4922513 0.01801589 -0.25244695 0.18287268 0.21229525 0.3526278 0.13456786 0.38525847
0.124689266 -0.41804984 0.26694322 -0.06445163 0.22266527 0.34394926 -0.048766248 0.36148235
0.4776199 -0.13682124 0.20951413 0.041841563 0.24147981 0.017057281 0.28744692 -0.17649497
-0.032998886 -0.213016 -0.33321 -0.03196807 0.060516246 -0.25040776 0.31040713 -0.18512534
0.068813145 -0.1230411 0.031970635 -0.112142846 -0.07425263 -0.13874125 -0.05513213 0.12478504
0.18553652 -0.038815323 -0.07411506 -0.10169439 -0.14363304 -0.21551429 0.25916058 0.36358926
-0.19615704 -0.11181498 0.0637219 0.15027566 -0.20122707 0.07617374 0.043690145 -0.1960369
0.06547257 -0.22381811 0.24477008 -0.22582775 -0.21828504 0.28908977 -0.18250522 0.08078663
0.1447103 0.3389616 -0.34755933 -0.15242216 -0.2415211 -0.22471344 -0.2751354 0.16862808
-0.08709747 0.28838497 -0.34526056 -0.065361224 -0.012916362 -0.2363737 -0.40442693 -0.1616687
0.13631092 -0.084888555 -0.29995355 0.07150295 -0.18076526 0.339195 -0.04653956 0.41943032
0.14658171 -0.032772496 0.14272684 0.11206769 -0.22458339 -0.07133549 0.33995798 -0.03324812
0.41395426 0.20565656 -0.1663836 0.2533938 -0.1342573 -0.0771451 0.35231134 -0.31765214
-0.13885106 0.3650645 0.17894837 0.13353395 0.33722174 -0.14489825 0.1040067 0.10714622
0.021695344 0.19443722 -0.11202137 0.20981541 0.24258082 0.11455695 -0.0010538546 0.12903321
-0.40724102 -0.045741297 -0.24536504 -0.07377381 0.02882606 0.18111005 -0.36212265 0.0069675427
0.24435765 0.035465613 -0.11989731 0.1213678 -0.34359872 -0.13435239 -0.28712144 0.29535127
-0.0625596 0.28818837 -0.29812154 0.031466622 -0.07102938 -0.15173617 -0.12490251 -0.20784044
0.30982852 0.15525745 -0.12270638 0.038154162 -0.2705384 0.11041708 -0.15995565 0.21091212
0.2256947 -0.15020719 0.24639027 0.05169878 -0.25826904 -0.022050155 -0.18607354 0.29899156
-0.11009024 0.10177852 0.094858155 0.32873455 -0.29223183 0.24280798 0.38637346 -0.2828888
0.07142551 -0.026710197 -0.06540038 -0.08502146 -0.07887353 -0.28834447 0.019877737 -0.14396894
-0.46125528 -0.058695838 0.05942065 0.27486393 -0.24485506 0.053415626 -0.44370636 0.66530454

encoder.blocks.1.attn.proj.weight f4 [16, 16]
00000000: 6050 fbbd 97be e3be 1e16 b2bd 7248 4cbd
00000010: 58e2 783e 5738 c23e b1a4 03bf c382 ea3e
00000020: 38ee abbd eafc 603e bee7 e93d 0dfe a83e
00000030: 0a13 073f 4dc1 a63e 9fb7 f33d f91c cd3e
00000040: 9581 afbe d0e5 31be 54a7 66be 37d0 513e
00000050: 8ee5 81be 6eee 0cbd f666 043e 2634 bebd
00000060: 03b5 5a3d 4a5b edbe c79d 923e 284e 703c
00000070: 8fc3 c0bc 3817 c53e d49f d0be b79c 2fbe
00000080: 497b 893e 7948 c1be 1bf5 f13d 12c4 853e
00000090: 14e6 55be bd8f aabe 4c24 1e3e 7fec 6ebe
000000a0: 6620 48be 7db7 eebb 8a6e c1bd cff4 ccbb
000000b0: e190 96bc 7428 c6bd b751 bbbe 05c0 88bc
000000c0: de36 08bf 0717 213e 57dd 83be 9136 4c3e
000000d0: 78db d93c 06b6 a4be ded3 0ebe a7a3 ebbe
000000e0: 5ce4 313e 8c28 5c3b 9487 273e dbdd 853d
000000f0: 0c82 403d e8c3 cd3d 58e1 d7be 38d7 d5be
00000100: 5368 38be 5c05 0c3d 19a2 693c 88b4 d8bc
00000110: d84c 6c3d 9277 d53e f9e7 8dbe 13f8 0abf
00000120: cea7 4a3e 84b8 17be 4d82 003f 7791 3b3e
00000130: 63dd 06bf 16b6 65be f87e 263e 75b6 5b3e
00000140: e3c0 b6be 8c5d 753e 2bce 9ebe b02d 9eba
00000150: a9e4 903e 276d cc3e 7ea1 963e bc71 cd3e
00000160: 2d0e c5be cd91 7c3e b90a cf3e b263 773e
00000170: c4fa 773e c3bd d3be 1410 c83e 04e2 cf3e
00000180: 7b73 69be d407 81be e28d cfbd 3472 f33c
00000190: d67b 713e de90 a53d dbf3 fdbd d9d3 01be
000001a0: 3c40 adbe 1e58 0d3e 54f7 85bc b764 30be
000001b0: a9b1 813c 60aa a1be 94c2 aa3e d463 693e
000001c0: 53da 85be 4f79 13be 4ac0 723e f66c 11be
000001d0: 1a31 06be 7331 693d dac6 b43e 1a41 c2bc
000001e0: e796 f53e c03f 8e3b 689c d53e a82b bfbe
000001f0: f7fb f03e 2bf4 193e 46cf 173d c1fd 863e
00000200: 1a20 333c 2393 f53d d690 8fbe 0934 0fbb
00000210: 147a 2a3e a6d7 123d 0516 c33d bf52 db3e
00000220: da2c eebd 95ce 103f 07dc 98be 75bd 32be
00000230: d52b 893e 9c64 09be 0982 a9bd 23fb 99be
00000240: 0057 863e 4d3c 6cbe 6ef2 3b3e f5b5 cbbc
00000250: eea1 95be 9646 5cbe d8ec 563e af53 693e
00000260: 0e56 ebbe 4edd 283e 5897 9dbe 063e 0abe
00000270: 6a66 1cbe ea3a e0be 497a 10bc 926a 593e
00000280: a905 ce3e 4435 8a3e 964b a0bd 77aa 16be
00000290: 3758 afbd e752 9c3e b4e7 b23e 8c2e e2be
000002a0: d2b4 513c 7b12 773e 3ffd 80be 4a16 2f3d
000002b0: 16f2 3dbe 5bad 243e 4053 e63d de1d 0c3e
000002c0: 4855 b83e e922 953e 4394 073d 430e 9fbe
000002d0: d267 19be f964 13bd 8706 cfbe e918 63be
000002e0: 6932 a5be e1d3 43bd 1bda 12be 77fe 0cbd
000002f0: 6138 af3e e7e6 40be 8a6e cc3e 124a ec3e
00000300: 1d8f 9a3e fb80 4e3e 5a70 b43e d7d8 a9be
00000310: 4ed2 d93e 4bf5 8e3c 43e3 cfbe 8971 fc3d
00000320: dd82 913e db8d be3d 1b8c ad3c 9ab5 483e
00000330: f6cf 6f3c b065 8abe 729b 77be 12f6 afb9
00000340: b6b8 a6be 9fea 303e a0fd 7e3e 409d ccbd
00000350: 3775 aabe a90e 413e bc7c 7d3d 8883 8abd
00000360: 3296 bdbe ae9c 6c3e 4827 0dbe 77ed 47bc
00000370: 94ef 9f3d db00 99be a62d acbe 2f64 d4be
00000380: 0be5 a6be b12c abbe 1683 96be 60d2 2abe
00000390: 9183 6b3e e40b 0f3d ed75 59be acae 593e
000003a0: ad48 403d 2924 833e 341d cb3e 62b7 e4bd
000003b0: 07a3 d73e ef2e 16be 86e4 dd3e 6401 d7bc
000003c0: dea7 9cbe ddf0 b13e bd10 d0bd 6bfc 80be
000003d0: b402 50be 0608 d03e 4e75 ba3e 7c66 bdbd
000003e0: c78e a83e 04f6 05be 024d 89be b5df 773c
000003f0: b166 4e3e 8061 0a3e 7530 ff3d 2a33 943d
-0.1227119 -0.44481346 -0.08695625 -0.049873777 0.24305093 0.3793361 -0.51423174 0.45802888
-0.08395046 0.21971479 0.114211544 0.33006325 0.52763426 0.32569352 0.11900257 0.40061167
-0.3427855 -0.17372823 -0.22524768 0.20489584 -0.2537045 -0.03440707 0.12929901 -0.0928729
0.053395282 -0.4635871 0.28636 0.014667071 -0.02353075 0.38494277 -0.4074694 -0.17149626
0.26851872 -0.37750605 0.11814328 0.26126152 -0.20888549 -0.3331279 0.15443534 -0.23332404
-0.19543609 -0.007285057 -0.09444912 -0.0062547694 -0.01837963 -0.096756846 -0.3658578 -0.016693125
-0.5320872 0.1573144 -0.25754806 0.1994269 0.026593909 -0.32170123 -0.13948008 -0.46023294
0.17372268 0.0033593504 0.16360313 0.06536456 0.046999022 0.10047132 -0.4216411 -0.4176576
-0.18008547 0.0341848 0.0142598385 -0.026453272 0.05769047 0.41692787 -0.27716044 -0.5428478
0.19790575 -0.14816481 0.50198823 0.18317209 -0.5268156 -0.22432742 0.16259372 0.2145632
-0.35694036 0.23961467 -0.3101667 -0.0012068059 0.28299454 0.39927027 0.29420084 0.40125835
-0.38487378 0.24664994 0.40437868 0.24159124 0.24216753 -0.41355714 0.39074767 0.40602124
-0.22797959 -0.25201285 -0.10134484 0.029717542 0.23582396 0.08084272 -0.12400027 -0.1267847
-0.3383807 0.13803145 -0.016353287 -0.1722592 0.015831785 -0.31575298 0.33351576 0.22791988
-0.2614313 -0.14401744 0.23706165 -0.14201722 -0.13104668 0.056931924 0.35307962 -0.023712683
0.47966692 0.0043410957 0.4172089 -0.37337995 0.47067234 0.15034549 0.037062906 0.26365474
0.010932947 0.11990955 -0.2804019 -0.0021851084 0.16648132 0.03585019 0.09525684 0.42836568
-0.116296485 0.5656522 -0.29855368 -0.17455085 0.26791254 -0.13417286 -0.08276755 -0.30074415
0.2623825 -0.23069878 0.18354198 -0.024867037 -0.29225105 -0.21511301 0.20988786 0.22785829
-0.45964092 0.16490671 -0.3077953 -0.13500223 -0.15273443 -0.43794948 -0.008818218 0.2123206
0.40238693 0.26993763 -0.07826917 -0.14713465 -0.085617475 0.30532 0.349424 -0.44176137
0.012799459 0.24128143 -0.2519321 0.042745866 -0.1854938 0.16081755 0.112463474 0.13683268
0.36002564 0.29128197 0.033100378 -0.31065568 -0.1498101 -0.035984967 -0.40434667 -0.22177471
-0.32265022 -0.047809485 -0.14341013 -0.034422364 0.342227 -0.18838082 0.39928085 0.4615026
0.30187312 0.2016639 0.35241967 -0.33173248 0.42543262 0.01745095 -0.40603074 0.123263426
0.28420153 0.093044005 0.021184972 0.19600525 0.014636984 -0.27030706 -0.24180391 -0.00033561938
-0.32562798 0.17277001 0.24901438 -0.099909306 -0.33292553 0.18853249 0.061886534 -0.06763369
-0.37028652 0.23106644 -0.13784516 -0.012202612 0.07809368 -0.29883465 -0.33628577 -0.41482684
-0.3259662 -0.33432534 -0.29396886 -0.16681814 0.22999407 0.03492345 -0.21236391 0.21258038
0.04694431 0.25613526 0.39670718 -0.1116779 0.42116567 -0.14666341 0.43338412 -0.02624578
-0.30596823 0.34754077 -0.101594426 -0.2519258 -0.20313531 0.4063112 0.3641762 -0.09248063
0.3292143 -0.13082129 -0.26816565 0.0151290195 0.20156361 0.13513756 0.12460414 0.07236321

encoder.blocks.1.attn.proj.bias f4 [16]
00000000: 636e 993c a1ee 303d ff7a 26bd 87b8 6e3d
00000010: 42a1 653d 78d7 03bd c189 563c f64f 90bd
00000020: e45f aabc 308f 163c 2bf9 14bc 5cfe 2cbd
00000030: 851b 42bc 84e4 393d 5310 553c 9817 183d
0.018729394 0.043196324 -0.040644642 0.058281448 0.05606199 -0.03218791 0.0130943665 -0.07046501
-0.020797677 0.009189412 -0.009092609 -0.042234764 -0.0118473815 0.045383945 0.01300438 0.037131876

encoder.blocks.1.norm2.weight f4 [16]
00000000: 744c 883f 0614 6b3f c30c 713f 92de 793f
00000010: 1297 773f c792 793f 740a 7c3f 693c 7e3f
00000020: 4062 733f 19b5 6c3f eb5f 7d3f c5e5 703f
00000030: e799 763f dc49 853f 4425 703f 0ae6 5c3f
1.0648332 0.9182743 0.941601 0.9760524 0.9671489 0.9748959 0.9845345 0.9931093
0.9507179 0.92463833 0.98974484 0.941006 0.96328586 1.0413165 0.9380686 0.8628851

encoder.blocks.1.norm2.bias f4 [16]
00000000: 7dcc e4bc 4d5e cdbc 6a9f 6a3d 4620 1a3d
00000010: 85b9 a03b c921 79bc f9d4 873c 5e7f 3f3d
00000020: 7c23 10bd cedf b33c 047f 2dbd d016 96bd
00000030: 3181 ff3c 43a2 353d 1afa 203d 4579 7dbd
-0.027929539 -0.02506938 0.057280935 0.037628435 0.004904928 -0.015205809 0.016581045 0.046752326
-0.03519009 0.021957304 -0.04235746 -0.0732857 0.031189533 0.044344198 0.039301015 -0.06188323
