Checkpoint/dict_4.pth (torch, 108719 bytes, 64 tensors)

encoder.cls_token f4 [1, 1, 16]
0	0x3f0f9044	0.56079507
1	0xbf61474a	-0.87999403
2	0x3ec51f80	0.38500595
3	0xbf096800	-0.53674316
4	0x3f82238c	1.0167098
5	0xbea4379d	-0.3207368
6	0xbefce916	-0.4939658
7	0xbe8f94cc	-0.2804321
8	0xbeb67935	-0.3563935
9	0x3f5cc7df	0.8624248
10	0x3faa3432	1.3297179
11	0xbd15de45	-0.036588926
12	0xbdee1a7d	-0.11626146
13	0x3f85d9d9	1.0457107
14	0x3f24dd78	0.64400434
15	0xbcc431df	-0.023949562

encoder.patch_embed.weight f4 [16, 5]
0	0x3e923580	0.28556442
1	0xbf1c54e5	-0.6106704
2	0xbe9d2340	-0.30690956
3	0xbe7ac9dd	-0.24491067
4	0x3ee76997	0.45197746
5	0x3eb8df71	0.36107972
6	0x3ce41c8d	0.027845645
7	0xbda3e25c	-0.08002159
8	0x3f16537a	0.58721125
9	0xbe365a5a	-0.17807904
10	0x3d841c96	0.06450765
11	0xbe5ac6ea	-0.21364942
12	0xbe4616e4	-0.1934467
13	0x3dc0ab02	0.09407617
14	0xbeba5576	-0.36393327
15	0x3e971c0d	0.2951359
16	0xbe85503b	-0.26037773
17	0xbf03a398	-0.514215
18	0xbce7f7c8	-0.028316393
19	0xbedcdfe0	-0.43139553
20	0xbe8902d1	-0.2675996
21	0x3eb36f8e	0.35046047
22	0x3d6a162b	0.057150047
23	0xbcbc20fb	-0.022964945
24	0x3ec36148	0.38160157
25	0xbe040203	-0.12891392
26	0x3e7dd3e7	0.24787866
27	0xbe4fd153	-0.20294695
28	0xbe80a2fd	-0.2512435
29	0x3e8015eb	0.25016722
30	0x3e76db15	0.2410701
31	0x3ea5415f	0.32276437
32	0x3ea5e419	0.32400587
33	0xbec7c476	-0.39017075
34	0xbe0fc3c3	-0.14039521
35	0xbec238f8	-0.3793409
36	0xbe8aecbc	-0.2713374
37	0x3ef93a60	0.4867735
38	0xbe1765a9	-0.14784874
39	0x3ee0577d	0.43816748
40	0xbee65524	-0.44986832
41	0x3f10ccce	0.5656251
42	0x3e9ebbd2	0.3100267
43	0xbb4a7488	-0.0030892212
44	0x3ea397f1	0.3195186
45	0x3e8017f7	0.25018284
46	0x3d4c4dbe	0.04987883
47	0xbf11adfc	-0.56906104
48	0xbe92fa73	-0.28706703
49	0x3ebfb680	0.37443924
50	0x3f0d106a	0.5510317
51	0xbe415dcd	-0.18883438
52	0x3ea316c4	0.31853306
53	0xbef995cb	-0.48747095
54	0xbe6b2db2	-0.2296665
55	0x3d88b2a5	0.06674699
56	0x3e8d150e	0.27555126
57	0x3ed6e2a7	0.41969797
58	0xbeb52a54	-0.35383856
59	0xbe32b9a1	-0.17453624
60	0xbd85681e	-0.065139994
61	0x3e84e59b	0.25956425
62	0x3e71ee19	0.23625983
63	0xbe2e9f47	-0.17052947
64	0xbdebbeb9	-0.11510987
65	0x3d9d1912	0.076707974
66	0x3f0234df	0.50861925
67	0xbe859715	-0.2609183
68	0x3ecf1272	0.4044376
69	0xbed0cd4e	-0.40781635
70	0xbe4d3b47	-0.20042144
71	0x3d9462d7	0.07245415
72	0xbe2b880a	-0.16751114
73	0x3f019878	0.50623274
74	0xbee05eea	-0.43822414
75	0xbed4598f	-0.41474578
76	0xbef0b49f	-0.47012803
77	0x3e4e5b36	0.20151982
78	0x3ed52788	0.41631722
79	0x3ec1e7d3	0.3787218

encoder.patch_embed.bias f4 [16]
0	0xbb1d2396	-0.002397751
1	0xbc4edfc2	-0.01262659
2	0x3d4d3063	0.050094973
3	0x3c621d64	0.013800953
4	0xbd33abb9	-0.04386494
5	0xbd97aa9c	-0.07405588
6	0x3d4016e8	0.046896845
7	0x3b44498f	0.002995107
8	0xbdc210d2	-0.094758645
9	0x3baeb952	0.0053321505
10	0x3d303974	0.04302354
11	0xbdbd04ff	-0.092294686
12	0x3d83262c	0.06403765
13	0xbcd89107	-0.026436342
14	0x3e2401bf	0.16016291
15	0xbd3cd00e	-0.046096854

encoder.blocks.0.norm1.weight f4 [16]
0	0x3f81e93c	1.0149302
1	0x3f9df8fe	1.2341611
2	0x3f559876	0.8343576
3	0x3f749217	0.95535415
4	0x3f80fefc	1.0077815
5	0x3f80ad59	1.0052902
6	0x3f806f97	1.0034055
7	0x3f6bb081	0.920662
8	0x3f86d95e	1.0535085
9	0x3f89d707	1.0768746
10	0x3f82e441	1.0225908
11	0x3f77dfb3	0.9682571
12	0x3f827df6	1.019469
13	0x3f8e0c92	1.1097586
14	0x3f861b87	1.0477151
15	0x3f7d2866	0.9888977

encoder.blocks.0.norm1.bias f4 [16]
0	0x3d3a7e81	0.0455308
1	0xbdbd85ba	-0.09254022
2	0x3d98844c	0.074471086
3	0xbcfdabdc	-0.030965738
4	0xbdcabad6	-0.098989174
5	0x3d63f27b	0.05565117
6	0xbafa0da2	-0.0019077549
7	0xbd398fd9	-0.0453032
8	0x3d0e8c26	0.034801625
9	0x3d3cd452	0.046100922
10	0x3d5886af	0.05286282
11	0xbc0d6030	-0.00862889
12	0x3ccf34b6	0.02529369
13	0x3d06153e	0.032735102
14	0x3dd588ad	0.104264595
15	0xbd84f9fb	-0.064929925

encoder.blocks.0.attn.qkv.weight f4 [48, 16]
0	0x3ad6c218	0.0016384749
1	0x3f09a701	0.5377045
2	0xbe3f596b	-0.18686454
3	0x3e621bee	0.22080967
4	0xbd958574	-0.07300845
5	0xbeb973e2	-0.36221224
6	0x3e28915f	0.16461705
7	0xbdb7365b	-0.08945914
8	0x3e108ac8	0.14115441
9	0xbdc459bb	-0.09587427
10	0x3cd4d611	0.025980981
11	0xbe0b2f53	-0.13592272
12	0xbe6ba078	-0.23010433
13	0x3e250c51	0.1611798
14	0x3e0f4e96	0.13994822
15	0xbebc04e7	-0.3672249
16	0x3c84ab62	0.016195003
17	0x3e3d1c12	0.18467739
18	0xbe0ff86e	-0.14059612
19	0x3d99179d	0.07475207
20	0x3e161512	0.14656475
21	0x3ea68ff1	0.32531694
22	0x3ddbe1ae	0.10736404
23	0xbe4fbe5b	-0.20287459
24	0xbd911dae	-0.07085739
25	0xbe4b4153	-0.19849138
26	0xbea1657d	-0.31522742
27	0xbd67ccee	-0.05659192
28	0xbdad3679	-0.084576555
29	0x3e74ba6c	0.2389924
30	0x3d537154	0.05162175
31	0xbe66696b	-0.22501151
32	0x3e87b8f8	0.26508307
33	0xbe13ffde	-0.14453074
34	0xbdb220b6	-0.08697645
35	0xbf0a443e	-0.5401038
36	0x3eab606c	0.33472002
37	0xbe3e53b1	-0.18586613
38	0xbcf6a8bd	-0.030109758
39	0x3ca21bbd	0.019788617
40	0xbe03bea4	-0.12865692
41	0xbe94eb57	-0.290858
42	0x3f072050	0.5278368
43	0xbeceb81f	-0.40374848
44	0x3ede99d6	0.43476743
45	0xbe01a2a8	-0.12659705
46	0x3e8a737e	0.2704124
47	0xbde4985b	-0.11161872
48	0x3e98c7e1	0.29839996
49	0xbdb1f1df	-0.086887114
50	0x3d1345c0	0.03595519
51	0xbeb5a704	-0.35478985
52	0x3e33a813	0.17544584
53	0xbe9e2d20	-0.30893803
54	0xbda0c22f	-0.078495376
55	0xbcde2f0e	-0.027122047
56	0xbd9a6777	-0.075392656
57	0xbe8511a9	-0.25990036
58	0x3b9115ad	0.004427633
59	0xbe965163	-0.29358968
60	0x3e6f64d9	0.23378314
61	0xbead72f7	-0.33876774
62	0x3e4e0aae	0.20121261
63	0xbe1e9c9c	-0.15489429
64	0x3d030c71	0.031994287
65	0xbe54dd63	-0.20787577
66	0x3d2ed3b6	0.042682372
67	0xbd9c28a3	-0.07624938
68	0xbe2353b6	-0.15949902
69	0xbe3ff323	-0.18745093
70	0x3e7eae03	0.24871068
71	0xbe0d152f	-0.13777612
72	0xbe672fa2	-0.22576764
73	0x3ea48690	0.32133913
74	0x3ea959a6	0.3307621
75	0xbe510a8d	-0.20414181
76	0xbd2f5615	-0.042806704
77	0x3dee02fe	0.116216645
78	0x3d7a609b	0.061127286
79	0x3e7a3fe6	0.24438438
80	0xbcc01533	-0.023447609
81	0xbead3ca9	-0.33835343
82	0x3e5cd5dc	0.21565956
83	0x3e760c26	0.24028072
84	0xbed62863	-0.41827688
85	0x3ea0c473	0.3139988
86	0xbe854e21	-0.2603617
87	0x3e526771	0.20547272
88	0xbe1ce8da	-0.15323201
89	0xbec99208	-0.39369226
90	0xbc058189	-0.008148559
91	0x3ed5e7f9	0.41778544
92	0xbed1a99c	-0.40949714
93	0x3e56a6ad	0.2096202
94	0x3e1b1002	0.15142825
95	0x3e86647d	0.2624854
96	0x3f0d3ad3	0.55167884
97	0xbe4fd845	-0.20297344
98	0xbd8eeb82	-0.06978513
99	0x3dec9ab4	0.11552945
100	0x3c939336	0.018014532
101	0xbe473b5c	-0.19456238
102	0xbc3be5dc	-0.011468377
103	0x3def04e5	0.116708554
104	0xbeef0088	-0.46680093
105	0xbe95937e	-0.2921409
106	0x3ed644b9	0.41849306
107	0xbad7398b	-0.0016420347
108	0x3db8c0c8	0.09021145
109	0xbebeb2ee	-0.37245888
110	0xbe11e45f	-0.14247273
111	0xbea84ef3	-0.32872733
112	0x3db3a78b	0.08772191
113	0x3db5aa4e	0.08870374
114	0x3d7673cd	0.06016903
115	0xbdc8b50b	-0.09800156
116	0xbe922b12	-0.28548485
117	0x3e86c0f0	0.26319075
118	0xbea29b6c	-0.31759202
119	0x3d9cfd65	0.07665519
120	0x3e0417fc	0.12899774
121	0x3e1c7ca2	0.15281919
122	0xbdaaa29d	-0.08331797
123	0xbdcb12e2	-0.09915711
124	0xbc20d37d	-0.009816048
125	0xbe85d6a8	-0.26140332
126	0x3da964c5	0.082711734
127	0x39752284	0.00023377879
128	0xbe871e34	-0.2639023
129	0xbe114ac7	-0.14188682
130	0x3e5d7442	0.2162638
131	0xbe32b3c7	-0.17451392
132	0xbe19be6c	-0.15014046
133	0x3e9c4cd6	0.3052737
134	0xbb9da676	-0.0048111035
135	0x3ea375fd	0.31925955
136	0x3e7aa3c6	0.24476537
137	0xbe366361	-0.17811348
138	0xbd7a2709	-0.061072383
139	0xbe19cea2	-0.1502023
140	0xbe431843	-0.19052224
141	0xbdf1f35d	-0.11813996
142	0xbe7e10e3	-0.2481113
143	0x3e1b3a0d	0.15158863
144	0x3e8aa379	0.27077845
145	0xbe0d80ed	-0.13818713
146	0x3ea9e191	0.33179906
147	0x3e1bfe11	0.15233637
148	0xbdedf282	-0.1161852
149	0x3d6851dc	0.056718692
150	0x3e1bad2e	0.15202782
151	0xbe6a5ea1	-0.2288766
152	0xbcba62b8	-0.02275215
153	0xbe19dda9	-0.15025963
154	0x3e864aed	0.2622904
155	0x3e439137	0.19098364
156	0xbddf6b92	-0.10909189
157	0xbdfc0b98	-0.12306899
158	0x3d9b5c3d	0.075859524
159	0x3dc09172	0.094027415
160	0xbeb3528a	-0.3502391
161	0xbb7204d5	-0.003692915
162	0x3f13b58b	0.5769889
163	0x3ccfcb91	0.025365623
164	0xbe6917f6	-0.22763047
165	0x3d11e8b7	0.035622325
166	0x3d5b0963	0.05347575
167	0xbd4df5a7	-0.0502831
168	0x3e463a00	0.19358063
169	0x3eb391c1	0.3507214
170	0xbd01dad7	-0.031702843
171	0xbdc73327	-0.097265534
172	0x3d8e8032	0.06958045
173	0x3e53e40f	0.20692466
174	0x3d93214b	0.071840845
175	0xbdafd415	-0.08585373
176	0xbd919f0b	-0.07110413
177	0xbe630746	-0.22170743
178	0xbe03bd22	-0.12865117
179	0xbe00e768	-0.12588274
180	0x3e278b2a	0.1636168
181	0x3e71cffd	0.23614497
182	0x3e03906f	0.12848066
183	0x3d9293b5	0.07157079
184	0xbda98764	-0.08277777
185	0xbf1b2811	-0.6060801
186	0x3e96b958	0.2943828
187	0x3e4b0ae6	0.19828376
188	0xbe4d4804	-0.20047003
189	0x3dbe7bf1	0.09300984
190	0xbd2660aa	-0.04061953
191	0x3ddabc8e	0.10680495
192	0x3c2785d5	0.010224779
193	0x3dcdc707	0.10047727
194	0x3e9585fc	0.29203784
195	0xbe1781d6	-0.14795622
196	0xbde3fb14	-0.11131874
197	0x3dd263b0	0.1027292
198	0x3e94f039	0.29089525
199	0xbb4ba70b	-0.0031074907
200	0x3db9c84f	0.09071409
201	0x3d53f0e5	0.051743407
202	0xbbcfb57c	-0.0063387733
203	0x3cea41e8	0.02859588
204	0x3d27d82a	0.040977634
205	0x3e926806	0.2859499
206	0xbe347384	-0.1762219
207	0xbe3b6f0c	-0.1830408
208	0x3e05ff66	0.13085708
209	0xbd472474	-0.04861875
210	0x3b3bdb58	0.0028664675
211	0x3eb5cf57	0.3550975
212	0xbeb31449	-0.34976414
213	0x3ec0f32f	0.37685534
214	0x3e047b8e	0.12937757
215	0xbe014cb2	-0.12626913
216	0xbddf26ab	-0.10896047
217	0x3e855e5a	0.26048547
218	0x3e55c4bd	0.20875831
219	0x3e3f2536	0.18666539
220	0xbea01a11	-0.31269887
221	0x3e051f41	0.13000204
222	0x3d9e6944	0.077349216
223	0x3eb52633	0.35380706
224	0x3ea6fd81	0.32615283
225	0xbebe3af1	-0.37154344
226	0x3ebbe588	0.36698556
227	0x3e73a077	0.23791681
228	0x3caa44f6	0.020784836
229	0x3dd45dde	0.10369466
230	0x3e1b1827	0.15145932
231	0x3c10a485	0.008828287
232	0xbe8eeffe	-0.27917475
233	0x3e9c6f6d	0.3055376
234	0x3d913bd1	0.07091487
235	0x3e2c810c	0.16846102
236	0x3ea7ca78	0.3277166
237	0xbe155213	-0.1458209
238	0x3e82c641	0.2554188
239	0x3e4f7470	0.20259261
240	0x38c196e0	9.23106e-05
241	0xbecc46d0	-0.39897776
242	0x3eff1bcb	0.49825892
243	0x3cd6aa3f	0.026204227
244	0xbd269df2	-0.040677972
245	0x3df9ae62	0.12191464
246	0xbe5ff7f3	-0.21871929
247	0x3e2616cf	0.16219638
248	0xbe20db72	-0.15708712
249	0x3e9c4c3f	0.3052692
250	0xbd41dfac	-0.04733245
251	0x3dffa664	0.12482908
252	0x3ea13453	0.31485233
253	0xbdf7f1f8	-0.12106699
254	0xbe52fd23	-0.20604376
255	0x3e89808a	0.2685588

encoder.blocks.0.attn.proj.weight f4 [16, 16]
0	0xbec30a83	-0.38093957
1	0x3e191440	0.14949131
2	0x3e8008a7	0.250066
3	0x3edb5172	0.42835575
4	0xbeb3e7f6	-0.3513791
5	0x3e75c9d8	0.24002779
6	0x3e7ec306	0.24879083
7	0x3ed86e45	0.4227163
8	0xbe853e84	-0.26024258
9	0xbe0b8e57	-0.13628517
10	0x3eba3165	0.3636581
11	0x3ddaefdf	0.10690283
12	0xbe8631bb	-0.26209816
13	0xbe9f2a09	-0.31086758
14	0xbe8bd533	-0.27311096
15	0xbeab0e78	-0.33409476
16	0x3ed31849	0.41229466
17	0x3e16c046	0.14721784
18	0x3e5d0a45	0.21585949
19	0xbec5e823	-0.3865367
20	0xbecd8759	-0.40142325
21	0xbf0169d6	-0.5055212
22	0xbe747300	-0.23871994
23	0x3debed8e	0.11519919
24	0x3ea9a14d	0.33130875
25	0xbeb4cde7	-0.3531334
26	0xbe544632	-0.20729902
27	0xbce8c41b	-0.028413823
28	0xbefc21cc	-0.49244535
29	0xbe819ea3	-0.25316343
30	0xbca5ec17	-0.020254178
31	0xbe44adb6	-0.1920689
32	0x3e76110f	0.24029945
33	0x3d550bb7	0.052013125
34	0xbca293c3	-0.019845849
35	0x3e8655ab	0.26237234
36	0x3eeab561	0.45841506
37	0x3e4cc368	0.19996417
38	0xbebf17be	-0.373228
39	0x3e9ba255	0.30397287
40	0x3e89ff60	0.26952648
41	0xbe8a215c	-0.26978576
42	0x3dceb8b6	0.100938246
43	0x3db57bbb	0.0886149
44	0x3f00b5cc	0.502774
45	0xbe6a7cdc	-0.22899193
46	0x3ed82700	0.42217255
47	0x3da91f80	0.08257961
48	0xbd4f702c	-0.050644085
49	0xbecbe340	-0.39821815
50	0xbe443b7f	-0.19163321
51	0xbca53609	-0.020167368
52	0x3ed1b68b	0.40959582
53	0xbe001bf0	-0.12510657
54	0xbccfdb75	-0.0253732
55	0xbf1778fb	-0.59168977
56	0x3d2be6bc	0.041968092
57	0x3df335fb	0.1187553
58	0x3d46a28c	0.04849486
59	0x3eae0673	0.33989295
60	0xbec99036	-0.39367837
61	0x3d278c10	0.04090506
62	0xbedfddb7	-0.43723843
63	0x3e809240	0.2511158
64	0xbeca601b	-0.39526448
65	0xbe3cb8b0	-0.18429828
66	0xbebe472b	-0.37163672
67	0x3e099377	0.1343516
68	0x3d0863d7	0.03329834
69	0xbe3bebe0	-0.18351698
70	0x3ee663af	0.44997928
71	0x3e0ba243	0.13636117
72	0x3deb957f	0.115031235
73	0x3dfd6ca3	0.123742364
74	0xbe5978a6	-0.2123743
75	0x3d9e0730	0.07716215
76	0xbef0c48d	-0.47024956
77	0xbd2665a9	-0.040624294
78	0xbe218377	-0.15772806
79	0xbe5dceb1	-0.21660878
80	0xbd246ad1	-0.04014093
81	0xbd839d9a	-0.064265445
82	0x3eaaf185	0.3338739
83	0xbea6cff1	-0.32580522
84	0xbe438fbb	-0.19097798
85	0x3e3ec42d	0.18629523
86	0xbec8615a	-0.39136773
87	0x3e78ca0a	0.24295822
88	0xbeb31719	-0.3497856
89	0xbeb3b0b7	-0.3509576
90	0x3ec70b0c	0.38875616
91	0x3dc1796d	0.09446988
92	0xbe0cedf8	-0.13762653
93	0xbe18244b	-0.14857595
94	0xbc475b71	-0.012167797
95	0x3edc8ec1	0.43077663
96	0xbe8518e7	-0.2599556
97	0xbe66a567	-0.22524033
98	0xbe8afd78	-0.27146506
99	0xbdc5d47d	-0.096596695
100	0x3dda7a5f	0.10667872
101	0x3ea4b805	0.32171646
102	0x3e91a520	0.28446293
103	0xbee8b233	-0.45448455
104	0xbe18af21	-0.14910556
105	0x3e792c26	0.24333248
106	0x3eba4252	0.36378723
107	0x3eb1f175	0.3475453
108	0x3e16c49b	0.14723437
109	0xbeae29d1	-0.34016278
110	0xbe369f08	-0.17834103
111	0xbe9d5b6d	-0.30733815
112	0x3e96b531	0.29435113
113	0x3eca30a1	0.39490226
114	0xbdf81490	-0.12113297
115	0x3ea3e03e	0.3200702
116	0xbe7159bd	-0.23569389
117	0xbd8a2579	-0.067454286
118	0xbdfb588b	-0.122727476
119	0x3e3f65b0	0.18691134
120	0x3f0a8eae	0.5412396
121	0xbe636dcc	-0.22209853
122	0x3e7efc2d	0.24900885
123	0x3e95c737	0.2925355
124	0xbe4619fc	-0.1934585
125	0x3e9cc72f	0.30620715
126	0xbec9f92c	-0.39447916
127	0xbe38ee25	-0.18059595
128	0xbe97c4a3	-0.2964221
129	0x3c3f3383	0.011669996
130	0x3d669611	0.05629546
131	0x3edcb7e8	0.4310906
132	0x3e8af1e4	0.27137673
133	0x3ede043d	0.4336261
134	0xbdd086c2	-0.10181953
135	0x3dd08de9	0.10183317
136	0xbb716c3d	-0.0036838197
137	0x3e6af8df	0.229465
138	0x3e8ee71f	0.27910706
139	0x3e41ebf7	0.1893767
140	0xbe9b0e5a	-0.30284387
141	0x3dcba64a	0.099438265
142	0xbe97b0e9	-0.2962716
143	0x3e0ce9b0	0.1376102
144	0xbdd83cca	-0.105584696
145	0xbe79c99c	-0.24393314
146	0x3e9b5fef	0.3034663
147	0x3e229924	0.15878731
148	0xbed036bf	-0.40666768
149	0x3e9313e0	0.287261
150	0x3e073d3b	0.13206951
151	0x3b0be6e2	0.0021347334
152	0x3b16bcce	0.002300072
153	0xbe1c14af	-0.15242265
154	0xbd5cd82f	-0.053917106
155	0xbe8ff870	-0.2811923
156	0xbe904f24	-0.2818538
157	0x3e4ab0af	0.19793962
158	0xbd089bdd	-0.033351768
159	0xbe2e7592	-0.17037037
160	0x3db13ac4	0.08653787
161	0xbdcfcc99	-0.10146446
162	0xbe7e45ba	-0.24831286
163	0xbec76941	-0.3894749
164	0xbe4af1db	-0.19818823
165	0xbec70ff0	-0.38879347
166	0x3d5648fb	0.052315693
167	0xbeeeff90	-0.46679354
168	0xbbf8f46d	-0.007597497
169	0xbd545151	-0.051835362
170	0xbe1bce55	-0.15215428
171	0xbedc0854	-0.42975104
172	0xbb5f8939	-0.003410889
173	0xbd9d872f	-0.076918
174	0xbe3f4faa	-0.18682733
175	0x3ec85934	0.39130557
176	0xbd665a2e	-0.056238346
177	0xbdfe7c78	-0.12426084
178	0x3be1baa0	0.0068887025
179	0xbed392ca	-0.4132293
180	0x3ef6b36b	0.4818376
181	0xbe0a651e	-0.13515136
182	0xbedd2ff9	-0.43200663
183	0x3e6123c2	0.21986297
184	0x3d034264	0.032045737
185	0xbe71cc78	-0.23613155
186	0x3ecdc75c	0.40191162
187	0x3e7ce1b6	0.24695477
188	0x3ec1e6a8	0.3787129
189	0xbec7a15e	-0.389903
190	0x3d8ec278	0.06970686
191	0xbda33005	-0.079681434
192	0x3cec2681	0.028826954
193	0xbb8205f9	-0.003967997
194	0xbe95e9f7	-0.29280064
195	0xbeabe09c	-0.335698
196	0xbebceb9b	-0.36898503
197	0x3eb60c7b	0.35556397
198	0x3e6a1205	0.22858436
199	0x3e928f2a	0.2862485
200	0x3d911693	0.07084384
201	0x3e9c3459	0.30508688
202	0xbdbb6896	-0.091508076
203	0xbe8483c1	-0.2588177
204	0xbeec4976	-0.46149796
205	0xbc643ba4	-0.013930235
206	0x3eabdd80	0.3356743
207	0xbe9cc4be	-0.30618852
208	0x3ea248da	0.31696206
209	0x3db63afd	0.0889797
210	0xbeb7b532	-0.3588043
211	0xbea18192	-0.31544167
212	0xbe0886cc	-0.13332671
213	0x3e9e43e9	0.30911186
214	0x3e9d7c0a	0.30758697
215	0x3e821cab	0.25412497
216	0x3ef801bd	0.48438826
217	0xbed1ed36	-0.4100129
218	0xbed4c579	-0.4155691
219	0x3d0abdf5	0.033872563
220	0xbeaa7c0b	-0.33297762
221	0xbcb9ce47	-0.022681369
222	0xbefa63e0	-0.48904324
223	0x3df273f7	0.11838525
224	0xbd2f6c2e	-0.042827778
225	0xbe260815	-0.1621402
226	0x3e87e8c3	0.2654477
227	0xbe96d40f	-0.29458663
228	0xbe3cbd01	-0.18431474
229	0x3c33a7ed	0.01096533
230	0xbd916af3	-0.07100477
231	0x3e9fbeb2	0.31200176
232	0xbe3bb411	-0.18330409
233	0x3e83de93	0.25755748
234	0x3eb6fe44	0.35740864
235	0xbd00f733	-0.031485748
236	0x3d8b251d	0.06794188
237	0x3d043987	0.032281425
238	0x3ed50ff8	0.41613746
239	0x3e9a4678	0.30131888
240	0x3eb78da9	0.35850266
241	0xbe206611	-0.15663935
242	0x3dfa66f0	0.12226665
243	0xbe6229f6	-0.2208632
244	0xbe2b04f2	-0.16701105
245	0xbe8d7348	-0.27627015
246	0x3e05ee95	0.13079293
247	0xbe91cda0	-0.28477192
248	0xbed5370b	-0.41643557
249	0x3eefafc1	0.46813777
250	0xbe827a2c	-0.25483835
251	0xbe8bdd18	-0.2731712
252	0x3e579dd0	0.21056294
253	0x3eb062f1	0.34450486
254	0xbdc5c0ca	-0.09655912
255	0xbc15260f	-0.009103312

encoder.blocks.0.attn.proj.bias f4 [16]
0	0x3ca03518	0.019556567
1	0xbde1b08a	-0.1102
2	0x3dc99c7a	0.09844299
3	0xbd7dffaa	-0.0620114
4	0xbe37ed0a	-0.17961517
5	0x3d4a567e	0.04939889
6	0xbd989e37	-0.07452052
7	0x3d1da30e	0.03848558
8	0xbd8b92ed	-0.06815133
9	0x3d2fce8f	0.0429216
10	0x3dacd23e	0.08438538
11	0x3af528d8	0.0018704189
12	0x3b8ce8ba	0.004300204
13	0x3daf3904	0.08555797
14	0x3bbd366f	0.0057743113
15	0xbce3538f	-0.027749805

encoder.blocks.0.norm2.weight f4 [16]
0	0x3f6b6fa0	0.919672
1	0x3f7c6f8b	0.986077
2	0x3f4e4797	0.8057799
3	0x3f717b47	0.9432873
4	0x3f82942d	1.020147
5	0x3f77ae96	0.9675077
6	0x3f6526fa	0.895126
7	0x3f61491e	0.8800219
8	0x3f83658c	1.0265365
9	0x3f5de0cd	0.86671144
10	0x3f6eab94	0.9323056
11	0x3f5c31eb	0.8601367
12	0x3f72c91d	0.94838125
13	0x3f59a385	0.85015136
14	0x3f7f83fa	0.99810755
15	0x3f801972	1.0007765

encoder.blocks.0.norm2.bias f4 [16]
0	0x3c41ea59	0.011835658
1	0x3c794d29	0.01521615
2	0xbe006e7d	-0.12542148
3	0x3daf3f17	0.08556955
4	0xbd500efa	-0.050795533
5	0x3ccab38a	0.024743814
6	0x3d38cccb	0.04511718
7	0xbd44d0ae	-0.048050575
8	0x3cce7663	0.025202936
9	0x3d4e0337	0.050296035
10	0x3d67e436	0.056614123
11	0xbdd1ec67	-0.10250168
12	0x3d012424	0.031528607
13	0xbdbf53e4	-0.09342173
14	0x3d798548	0.060918123
15	0xbcc74f11	-0.024329694

encoder.blocks.0.mlp.fc1.weight f4 [64, 16]
0	0x3d8cecaf	0.06881081
1	0x3e0d308e	0.13788053
2	0xbd8a4c3a	-0.0675282
3	0xbd2b9eed	-0.04189961
4	0x3d8cca07	0.06874471
5	0xbe2fbcdd	-0.1716189
6	0xbcbed093	-0.023292815
7	0xbccc69f6	-0.02495287
8	0xbd86e01d	-0.06585715
9	0xbe0f6fe3	-0.14007525
10	0x3cbedaa1	0.02329761
11	0xbe8a54e1	-0.27017882
12	0x3e7c49ca	0.24637523
13	0xbe61c65d	-0.22048326
14	0xbe40fa44	-0.18845469
15	0xbd802025	-0.06256131
16	0x3d802325	0.06256703
17	0xbe37c526	-0.179463
18	0x3da5674a	0.080763415
19	0x3c9cd7a2	0.01914579
20	0xbdf2d1f3	-0.11856451
21	0xbd2bc4f2	-0.04193587
22	0x3e070f84	0.13189512
23	0xbe226dd0	-0.15862203
24	0xbe713693	-0.23555975
25	0x3c91773e	0.017757054
26	0xbcd26ddf	-0.025687156
27	0x3e076881	0.13223459
28	0x3cf28d3f	0.029608367
29	0x3e3595da	0.17732945
30	0x3e308986	0.17239961
31	0x3e6b4062	0.22973779
32	0xbdcbe9f2	-0.09956731
33	0xbdde1801	-0.10844422
34	0x3d36f29c	0.044664964
35	0xbd0b682e	-0.0340349
36	0x3e85e3c6	0.2615034
37	0xbdaf2ef3	-0.08553877
38	0xbe2e40c8	-0.170169
39	0x3e1a852f	0.15089868
40	0xbb36e3c4	-0.0027906755
41	0x3e0a3a98	0.13498914
42	0xbe93022a	-0.2871259
43	0x3e6c50bf	0.23077677
44	0xbe62ac88	-0.22136128
45	0xbd81ce3f	-0.063381664
46	0xbe0ae1e4	-0.13562733
47	0xbd9a114f	-0.075228326
48	0xbe2c580f	-0.16830467
49	0xbd12780e	-0.035759024
50	0xbd8de119	-0.069276996
51	0xbe1e4886	-0.15457353
52	0xbd4cd6fd	-0.050009716
53	0x3e94ffbf	0.2910137
54	0xbc373537	-0.011182121
55	0xbe715494	-0.2356742
56	0x3cf08e9a	0.029364873
57	0xbe202e34	-0.15642625
58	0x3e4fde43	0.2029963
59	0x3c090d68	0.008365013
60	0x3e89d80a	0.26922637
61	0x3dd2d36e	0.10294233
62	0xbea82220	-0.32838535
63	0x3e31931b	0.17341273
64	0x3e8f206c	0.27954423
65	0x3e5d4804	0.21609503
66	0x3d9e16df	0.07719206
67	0x3e5acdfc	0.2136764
68	0xbea4fc62	-0.32223803
69	0xbdeb19f5	-0.1147956
70	0xbdf22082	-0.118226066
71	0x3c323e44	0.010879103
72	0x3ccf9c5b	0.02534311
73	0xbe673a46	-0.22580823
74	0xbdcb3702	-0.09922601
75	0xbe3f3c88	-0.18675435
76	0xbddc588a	-0.10759075
77	0xbd89d791	-0.06730569
78	0x3d674ee7	0.05647173
79	0x3d8a2133	0.067446135
80	0x3dd6c036	0.1048588
81	0x3e0e1d41	0.13878347
82	0xbea036d8	-0.31291842
83	0xbe041ff4	-0.12902814
84	0xbdff4308	-0.12463957
85	0x3d08d0cc	0.03340225
86	0x3c85d8f0	0.016338795
87	0xbe2a653b	-0.16640179
88	0xbd134416	-0.035953604
89	0x3e8cbef3	0.27489433
90	0x3d9f9150	0.07791388
91	0xbeb81541	-0.35953715
92	0x3afe786b	0.001941455
93	0xbd8e077c	-0.06935021
94	0x3e0aedb7	0.13567244
95	0xbe1801d6	-0.1484445
96	0x3ecea2da	0.4035862
97	0x3e5a502b	0.21319644
98	0xbd5c0710	-0.053717673
99	0x3e8b3dd5	0.27195612
100	0xbe5b10e1	-0.21393158
101	0xbe86b2bb	-0.26308236
102	0x3e73b3ca	0.23799053
103	0xbd847313	-0.06467261
104	0x3dc8983b	0.09794661
105	0x3e432d67	0.19060288
106	0x3e6cd9c7	0.2312995
107	0x3d996ea9	0.0749181
108	0xbcc09be8	-0.023511842
109	0xbe0cbd1e	-0.13744017
110	0x3cff3eac	0.031157814
111	0x3e80e525	0.25174823
112	0x3e94228f	0.28932616
113	0xbc0e99ba	-0.008703643
114	0xbdbdfb81	-0.09276486
115	0x3e8b0b0e	0.27156872
116	0xbe5a9dc2	-0.21349242
117	0x3c54971c	0.01297548
118	0x3e93fa07	0.28901693
119	0x3cefb643	0.029261714
120	0xbe73fb36	-0.23826298
121	0x3e36cefe	0.17852399
122	0x3e4df630	0.20113444
123	0x3df6a6c2	0.12043525
124	0xbca1323b	-0.019677272
125	0xbe39104b	-0.18072622
126	0xbe9e6436	-0.3093583
127	0xbe93a50d	-0.2883686
128	0xbd9aa7ac	-0.07551512
129	0x3df5a128	0.11993629
130	0x3e8bf05b	0.27331814
131	0xbd95a7a4	-0.073073655
132	0x3eb69980	0.35663986
133	0x3e196dae	0.14983246
134	0x3dca4512	0.09876455
135	0x3cdf6196	0.027268212
136	0xbde6ffb7	-0.112792425
137	0x3d9e86a4	0.077405244
138	0xbd151f86	-0.036407016
139	0xbe4e4239	-0.2014245
140	0x3e220bf2	0.1582487
141	0xbeac3fd7	-0.33642456
142	0xbe297a9b	-0.16550677
143	0x3e45fb29	0.19334091
144	0x3e68c221	0.22730304
145	0xbd1c907a	-0.03822372
146	0xbc6f859e	-0.014619259
147	0xbea3863d	-0.31938353
148	0xbe31d18f	-0.17365097
149	0x3df77d15	0.120844044
150	0x3e8e43e5	0.27786174
151	0xbe7b2fb4	-0.24529916
152	0x3ee7c4be	0.4526729
153	0xbdea3795	-0.11436383
154	0xbe94f7d7	-0.29095337
155	0xbd38f1e1	-0.04515255
156	0xbe12fad4	-0.14353496
157	0xbd39411b	-0.045228105
158	0xbe990fc5	-0.29894844
159	0xbed3bf61	-0.41356948
160	0xbe701850	-0.23446774
161	0x3dda81b1	0.10669268
162	0x3e4e1c44	0.2012797
163	0xbe53e931	-0.20694424
164	0x3e1a6da4	0.15080887
165	0x3e9c9c55	0.30588022
166	0x3e5ed519	0.21760978
167	0x3dae0875	0.08497707
168	0x3e2e2bf2	0.17008951
169	0x3ea0af5a	0.31383783
170	0xbe20fed0	-0.15722203
171	0x3cd8060b	0.026370069
172	0x3e919c1b	0.28439412
173	0x3e2d5ee0	0.16930723
174	0xbe2d4b76	-0.16923317
175	0xbe9376a9	-0.28801468
176	0x3da04b8a	0.07826908
177	0x3e89d409	0.26919582
178	0xbc8f50e9	-0.017494636
179	0x3e8946b1	0.26811746
180	0xbdff0325	-0.12451772
181	0xbe8d5450	-0.27603388
182	0x3ca25df6	0.019820195
183	0x3e577b42	0.21043113
184	0x3e0645a5	0.13112505
185	0x3e14ed16	0.14543566
186	0x3e36d46a	0.17854467
187	0xbe83b978	-0.2572744
188	0xbd8f637e	-0.070013985
189	0x3dcd04e5	0.10010699
190	0x3cf70d27	0.030157639
191	0x3db86b8b	0.09004887
192	0x3dd1ee56	0.10250537
193	0x3d9c7730	0.07639921
194	0xbd9671c0	-0.07345915
195	0xbd33c094	-0.04388483
196	0x3e602a31	0.21891095
197	0xbda5b5af	-0.08091294
198	0xbbc01573	-0.005861932
199	0xbc83249b	-0.016008666
200	0xbe1599e9	-0.14609493
201	0x3d607c4f	0.05480605
202	0xbcad7325	-0.02117307
203	0xbe202e72	-0.15642717
204	0xbe198d80	-0.14995384
205	0xbdf60827	-0.12013274
206	0xbd994f2c	-0.07485804
207	0xbe86a832	-0.26300198
208	0xbbf352cf	-0.007425643
209	0xbdeb7dd1	-0.11498607
210	0xbd3d1c10	-0.04616934
211	0x3d02801b	0.031860452
212	0x3ce9178a	0.028453607
213	0x3d7fbf7b	0.06243847
214	0xbe618336	-0.22022709
215	0x3d477699	0.048697088
216	0x3e798368	0.24366534
217	0xbe44a676	-0.19204125
218	0xbe3f851b	-0.1870312
219	0xbe8af804	-0.27142346
220	0xbcd88384	-0.026429899
221	0xbe669dda	-0.22521153
222	0xbd0319ad	-0.03200691
223	0xbe45f796	-0.19332728
224	0x3de0c160	0.10974383
225	0xbe342daa	-0.17595544
226	0xbdaf861a	-0.085705
227	0xbe33d120	-0.17560244
228	0xbe5b1900	-0.21396255
229	0xbd543a3d	-0.051813353
230	0xbc131e11	-0.008979336
231	0xbcc4bae7	-0.024014903
232	0xbde7693f	-0.11299371
233	0x3db4e734	0.08833161
234	0x3e7dea5b	0.24796431
235	0xbdb41064	-0.08792189
236	0x3c316e00	0.010829449
237	0x3e5138c1	0.20431806
238	0xbe94e0ca	-0.2907775
239	0x3c8adb24	0.016950198
240	0x3e38110a	0.1797525
241	0xbdf75999	-0.12077636
242	0xbdf8d6ad	-0.12150321
243	0xbdf0f68b	-0.11765774
244	0x3eacf2a6	0.33778876
245	0xbe6d157b	-0.23152725
246	0xbde24b1c	-0.11049482
247	0xbe19b5ff	-0.15010832
248	0xbe39d329	-0.18146957
249	0xbd70bb99	-0.058772657
250	0xbde24e35	-0.11050073
251	0xbe129305	-0.14313896
252	0x3e780de0	0.24224043
253	0x3e504aac	0.20340985
254	0xbd21fc4a	-0.039547242
255	0xbc8a88da	-0.016910959

encoder.blocks.0.mlp.fc1.bias f4 [64]
0	0xbdde4b06	-0.10854153
1	0xbd0947a0	-0.033515573
2	0xbd334603	-0.04376794
3	0xbd1ea7b6	-0.03873416
4	0x3cc0baa3	0.023526495
5	0xbdbe3810	-0.09288037
6	0xbd7769be	-0.060403578
7	0xbceef570	-0.029169768
8	0xbd3ce989	-0.046121154
9	0x3d04e9f3	0.032449674
10	0xbb8aaa11	-0.0042316993
11	0xbd61e6c5	-0.05515172
12	0xbd349d8b	-0.044095557
13	0xbd01eb87	-0.031718757
14	0x3cd855e7	0.026408149
15	0xbd8732f6	-0.06601517
16	0xbdafb125	-0.085787095
17	0xbc864546	-0.016390454
18	0xbc7f80d3	-0.015594679
19	0xbd2d7aee	-0.042353563
20	0xbaca0af5	-0.0015414642
21	0xbca18bb1	-0.01971993
22	0xbcd9de8a	-0.026595373
23	0xbd6b0292	-0.057375498
24	0xbd1fe9a1	-0.039041165
25	0xba829992	-0.000996398
26	0x3b82e2ff	0.003994345
27	0x3c00efc9	0.007869669
28	0xbd368929	-0.0445644
29	0xbd09b782	-0.033622272
30	0xbd768ec9	-0.060194764
31	0xbe3f01ae	-0.18652984
32	0x3cf2f3ab	0.029657206
33	0xbdc277d4	-0.09495512
34	0xbc04fbe3	-0.008116695
35	0x3d0eca10	0.03486067
36	0x3cfc5995	0.030804435
37	0xbd2a951a	-0.0416461
38	0x3a96b313	0.001149746
39	0x3dc9c9c0	0.09852934
40	0xbc7e3be3	-0.015517208
41	0xbc91257d	-0.017718071
42	0xbe1d1dd3	-0.15343408
43	0xbbd5040e	-0.0065007275
44	0xbdeff07f	-0.11715793
45	0xbca89a3b	-0.020581355
46	0xbd824a3c	-0.06361815
47	0xbcb9580e	-0.022624996
48	0xbd978fe1	-0.074004896
49	0xbd35739c	-0.044299707
50	0xbd95dceb	-0.073175274
51	0xbde18d79	-0.11013312
52	0xbd7a8aed	-0.061167646
53	0xbda2006d	-0.079102375
54	0x3baea984	0.0053302664
55	0xbda2469d	-0.07923625
56	0xbccb1bac	-0.024793468
57	0x3a7df5a3	0.0009687787
58	0xba396122	-0.0007071664
59	0xbdcffd48	-0.101557314
60	0x3b996259	0.0046809134
61	0xbd2961ad	-0.041352917
62	0xbd94a88d	-0.07258711
63	0xbc1ea57a	-0.009683007

encoder.blocks.0.mlp.fc2.weight f4 [16, 64]
0	0xbe8ff5fe	-0.28117365
1	0x3e037fff	0.12841795
2	0xbe71fc33	-0.23631363
3	0xbe4297db	-0.19003241
4	0x3e1b88de	0.1518893
5	0xbe80d7dc	-0.25164688
6	0x3dd103e5	0.10205821
7	0x3d0ea785	0.034827728
8	0xbc20271c	-0.009774949
9	0xbea11920	-0.3146448
10	0x3d47e960	0.048806548
11	0xb9f50ac1	-0.00046738054
12	0x3de7042d	0.11280093
13	0x3dd70955	0.10499827
14	0x3dcd8526	0.10035162
15	0x3defb8ce	0.117051706
16	0xbe5c7126	-0.21527538
17	0xbe398f21	-0.18121006
18	0x3e7650db	0.24054281
19	0x3cac1344	0.02100528
20	0xbe63b89a	-0.22238389
21	0xbe955589	-0.2916682
22	0x3d5f042d	0.05444734
23	0x3e0c1b3e	0.13682267
24	0x3bf06ce6	0.0073372005
25	0x3c8e4780	0.017368078
26	0xbe94ff35	-0.29100958
27	0xbd8bfa3c	-0.06834838
28	0x3d3d8de6	0.046277903
29	0x3d76d11d	0.06025802
30	0xbe74a95f	-0.23892735
31	0x3d982acb	0.07430037
32	0x3e930975	0.28718153
33	0xbe228221	-0.15869953
34	0x3dcae8af	0.09907662
35	0xbd80e111	-0.06292928
36	0xbec90d45	-0.39267936
37	0xbe252a89	-0.16129507
38	0xbdac9dc6	-0.084285304
39	0x3d5dae93	0.054121565
40	0xbd0a87eb	-0.033821028
41	0x3e221fbd	0.1583242
42	0x3dc1099a	0.094256595
43	0xbbf807af	-0.0075692753
44	0x3c01053e	0.007874785
45	0x3e84d1fc	0.25941455
46	0xbe09df10	-0.13463998
47	0x3e531f15	0.20617326
48	0xbdf4143e	-0.119179234
49	0xbd62efe1	-0.055404548
50	0x3e052cf2	0.13005427
51	0xbbc09af3	-0.0058778464
52	0xbd49a764	-0.0492319
53	0x3ca4f34b	0.020135542
54	0x3e3ad106	0.18243799
55	0x3e17ec89	0.14836325
56	0x3e80c3b9	0.25149325
57	0xbe148a30	-0.1450584
58	0x3c991eb5	0.0186914
59	0x3dd4c9ba	0.10390039
60	0x3dc433b7	0.09580176
61	0xbe0355d4	-0.1282571
62	0xbbf3fd66	-0.007445979
63	0xbe677750	-0.22604108
64	0x3e68cde3	0.2273479
65	0x3bd31dd3	0.0064427643
66	0x3e2d7b04	0.16941458
67	0xbbbb7113	-0.0057202666
68	0x3da4de0d	0.08050165
69	0x3d84a03b	0.06475874
70	0x3df19ec2	0.11797859
71	0x3e800664	0.25004876
72	0xbe8ed88d	-0.2789959
73	0xbe9f47ae	-0.31109375
74	0xbea58ba8	-0.32333112
75	0xbd404493	-0.046940397
76	0xbe287c28	-0.16453612
77	0xbc61650a	-0.013757
78	0xbe8a25b2	-0.26981884
79	0x3e0a0872	0.13479784
80	0xbd6e0ee2	-0.058119662
81	0xbe509336	-0.20368657
82	0xbd800bbb	-0.062522374
83	0xbdf29be1	-0.11846138
84	0x3e63c4ef	0.22243093
85	0x3e5d0129	0.21582474
86	0xbeae02dc	-0.33986557
87	0xbe4c077d	-0.19924732
88	0xbde87bdb	-0.113517486
89	0x3d900d4b	0.070337854
90	0x3e226e1f	0.1586232
91	0xbe44c1ea	-0.19214597
92	0x3e2c81dc	0.16846412
93	0xbd22044c	-0.03955488
94	0x3e8a617f	0.2702751
95	0xbdd6a516	-0.104807064
96	0xbdc7e138	-0.09759754
97	0x3e3023d5	0.17201169
98	0xbdd610af	-0.10452401
99	0x3db509b7	0.088397436
100	0x3dfed24b	0.12442454
101	0xbd343bae	-0.044002227
102	0x3c592301	0.0132529745
103	0xbd005dfa	-0.031339623
104	0x3d85d96c	0.065356106
105	0x3ca70c27	0.020391537
106	0x3d940c72	0.07228936
107	0x3e83fe9d	0.25780192
108	0xbcd7ab1b	-0.026326707
109	0xbe0ed69b	-0.13949053
110	0x3e4970ac	0.19671887
111	0xbe5069e9	-0.20352902
112	0x3ce9def1	0.02854869
113	0x3e6958bb	0.22787754
114	0xbe94b4bc	-0.2904414
115	0x3e201f19	0.15636863
116	0x3e404833	0.18777542
117	0x3e5493e9	0.20759548
118	0x3c969abe	0.018384334
119	0x3dcb5012	0.099273816
120	0x3d5fcfce	0.054641537
121	0x3cad7ae7	0.021176768
122	0xbe5a1856	-0.21298346
123	0x3df70323	0.12061145
124	0xbe3bbf0f	-0.18334602
125	0xbcc1b5a8	-0.02364619
126	0xbe6108e8	-0.21976054
127	0xbe2531a8	-0.16132224
128	0xbd3e94df	-0.046528693
129	0x3cebb3d7	0.028772278
130	0x3de8a1f8	0.11359018
131	0x3e12a87e	0.14322087
132	0xbe84e263	-0.2595397
133	0xbea377dc	-0.31927383
134	0x3d5dc002	0.05413819
135	0xbdb5112c	-0.08841166
136	0xbd085cae	-0.03329151
137	0xbdd58995	-0.10426632
138	0x3b83f07d	0.004026471
139	0x3e84af22	0.25914866
140	0x3e4ac9d1	0.1980355
141	0xbe0ec60c	-0.13942736
142	0x3e4fa124	0.20276314
143	0xbe0a64d2	-0.13515022
144	0xbe86b8db	-0.2631291
145	0x3d427bb9	0.047481272
146	0x3dec73a3	0.115454935
147	0xbdc37231	-0.09543265
148	0x3c5d99a9	0.013525405
149	0xbe04cb57	-0.12968193
150	0xbce073c4	-0.027398951
151	0xbe3e3d6b	-0.18578117
152	0xbd1b9198	-0.037980646
153	0x3e660c40	0.2246561
154	0x3c57093e	0.013124762
155	0x3d6bbd65	0.057553668
156	0x3e79350a	0.24336639
157	0x3d8d3e97	0.06896704
158	0xbda6617e	-0.08124064
159	0xbd63af6c	-0.055587217
160	0xbe6450df	-0.22296475
161	0xbcba812a	-0.022766668
162	0xbd0cc38e	-0.034366183
163	0x3e384b4f	0.17997478
164	0x3cecd466	0.028909873
165	0x3e193422	0.14961293
166	0xbdce8d53	-0.10085549
167	0x3e45028e	0.19239256
168	0x38ec75de	0.000112753114
169	0x3e940960	0.28913403
170	0x3ccc1419	0.024911927
171	0x3e8412b2	0.25795513
172	0xbe0fa6f1	-0.14028527
173	0xbd884ff5	-0.066558756
174	0xbde84357	-0.11340969
175	0x3dcdb2e6	0.10043888
176	0x3e04d1ef	0.12970708
177	0x3e156b2a	0.14591661
178	0x3d2b25ef	0.041784223
179	0xbe34c2ef	-0.17652486
180	0x3e428931	0.18997647
181	0xbddade0f	-0.106868856
182	0x3db09792	0.0862266
183	0x3e495542	0.1966143
184	0xbd937dda	-0.07201739
185	0x3e8c7ee5	0.27440563
186	0xbe7746f1	-0.24148156
187	0xbe913b44	-0.2836553
188	0xbd0ff0ba	-0.035141684
189	0xbd9765a3	-0.073924325
190	0x3b5f8952	0.003410895
191	0xbe0fb11b	-0.14032404
192	0x3e97b36b	0.29629073
193	0x3e0f55e7	0.13997613
194	0xbb113ece	-0.0022162679
195	0x3de25470	0.110512614
196	0xbe25ba84	-0.16184431
197	0x3e83f534	0.25773013
198	0x3e6671fc	0.22504419
199	0x3e007123	0.12543158
200	0x3e568110	0.20947671
201	0xbe1affe0	-0.15136671
202	0xbe849488	-0.2589457
203	0x3c742ebb	0.01490372
204	0x3dc3dc6e	0.09563528
205	0xbdbe9c9b	-0.09307214
206	0xbeaa532b	-0.33266577
207	0x3e0c9bf6	0.1373137
208	0x3df5a281	0.11993886
209	0x3d383efc	0.04498194
210	0x3d94e7f8	0.07270807
211	0xbe52fef1	-0.20605065
212	0xbe7f34fc	-0.24922556
213	0xbe2c5296	-0.16828379
214	0x3dbd9a1f	0.09257912
215	0xbdd78cec	-0.105249256
216	0x3e6ca778	0.2311076
217	0xbd2e6463	-0.042576205
218	0xbb1c463c	-0.0023845574
219	0x3e84a9ee	0.25910896
220	0xbd0707e8	-0.032966524
221	0xbe11e961	-0.14249183
222	0xbd116458	-0.035496086
223	0xbe10fd8f	-0.14159225
224	0xbe788564	-0.24269634
225	0xbe11e628	-0.14247954
226	0xbe7a3333	-0.24433593
227	0xbe89cecd	-0.2691559
228	0xbe61cfb6	-0.22051892
229	0xbe43048e	-0.19044706
230	0xbd25acea	-0.040448107
231	0xbe4aa7b2	-0.19790533
232	0xbe25128b	-0.16120355
233	0x3e53d5ea	0.2068707
234	0x3e370a53	0.17875032
235	0x3e68b95a	0.22726956
236	0xbcfaa352	-0.030595455
237	0xbd910090	-0.070801854
238	0x3d750327	0.05981746
239	0x3e42a328	0.19007552
240	0x3d868bde	0.06569646
241	0xba99cd1f	-0.0011734104
242	0xbb9653d0	-0.004587628
243	0x3e1232f8	0.14277256
244	0x3de7cc13	0.11318221
245	0x3d3d69b9	0.046243403
246	0xbd80920f	-0.062778585
247	0x3e53b2a1	0.2067361
248	0xbe698d6e	-0.22807857
249	0xbe0d8705	-0.13821037
250	0xbea3f6a4	-0.3202411
251	0x3d67201f	0.056427117
252	0xbe6acd54	-0.22929889
253	0x3dac7269	0.084202595
254	0x3e66b32f	0.2252929
255	0x3e6490d5	0.22320874

encoder.blocks.0.mlp.fc2.bias f4 [16]
0	0x3db50395	0.08838574
1	0xbe0fe569	-0.14052357
2	0x3d8fd943	0.07023861
3	0xbdd5d498	-0.1044094
4	0xbda0925d	-0.078404166
5	0x3cc080f0	0.023498982
6	0xbd87b278	-0.06625837
7	0x3bd4e3c5	0.006496879
8	0xbd5ae5b6	-0.053441726
9	0x3d963cde	0.07335828
10	0x3da24307	0.07922941
11	0xbce93e3e	-0.028472062
12	0x3ba735a4	0.00510283
13	0x3daa9649	0.08329446
14	0xbc8d0496	-0.0172141
15	0xbcf60ed0	-0.03003636

encoder.blocks.1.norm1.weight f4 [16]
0	0x3f8826a7	1.0636796
1	0x3f84ffe7	1.0390595
2	0x3f8752fb	1.0572199
3	0x3f7042d5	0.9385198
4	0x3f7eab44	0.9948008
5	0x3f7e34ba	0.99299204
6	0x3f776230	0.966342
7	0x3f814397	1.0098752
8	0x3f7b75d2	0.98226655
9	0x3f8a2733	1.0793213
10	0x3f804a6e	1.0022714
11	0x3f7dc509	0.99128777
12	0x3f7c56cb	0.98569936
13	0x3f8351be	1.0259321
14	0x3f7a7621	0.978365
15	0x3f84c9bd	1.0374066

encoder.blocks.1.norm1.bias f4 [16]
0	0xbc27b04d	-0.0102349045
1	0xbe071b8d	-0.13194104
2	0x3dd488c1	0.10377646
3	0xbd080396	-0.033206545
4	0xbd133ade	-0.035944812
5	0xbcdafb50	-0.026731163
6	0xbd8d5a15	-0.069019474
7	0x3dcd3a59	0.100208946
8	0xbd8481a2	-0.06470038
9	0xbd27f09e	-0.041000955
10	0xbc0fdb01	-0.008780242
11	0x3c8793a5	0.016549895
12	0x3c157e07	0.009124286
13	0x3d6b7314	0.057482794
14	0x3d471a66	0.04860916
15	0xbc940c6f	-0.018072335

encoder.blocks.1.attn.qkv.weight f4 [48, 16]
0	0x3ec0767a	0.3759039
1	0x3d93f083	0.07223608
2	0xbe0f0954	-0.13968402
3	0x3e95bf3f	0.29247472
4	0x3ee2bf4c	0.44286573
5	0xbdb492b0	-0.08817041
6	0x3e21017b	0.15723221
7	0xbd572e0c	-0.052534148
8	0xbce4c752	-0.027927075
9	0x3d906d19	0.07052059
10	0x3e71c69b	0.23610918
11	0x3de301ef	0.11084353
12	0x3c9c68cc	0.01909294
13	0xbda24334	-0.07922974
14	0x3ea48863	0.32135305
15	0x3e1d7c9b	0.15379564
16	0xbd02df59	-0.031951282
17	0x3dad137a	0.084509805
18	0xbd957cc2	-0.07299186
19	0xbdf4923a	-0.11941953
20	0x3e8ca6d4	0.2747103
21	0x3e43c16a	0.1911675
22	0x3da2a56a	0.079417065
23	0xbe6dfbb3	-0.23240547
24	0xbdb2a691	-0.08723176
25	0x3e505c83	0.2034779
26	0xbd6bb0fb	-0.05754183
27	0x3e8ae8fa	0.27130872
28	0x3d21a9ea	0.039468683
29	0xbe2857ca	-0.16439739
30	0x3dce09ea	0.10060485
31	0xbe4990e6	-0.1968418
32	0x3e3990fa	0.1812171
33	0x3e71778c	0.2358076
34	0xbcf8edc0	-0.030386806
35	0x3e146c56	0.14494452
36	0x3da07bda	0.07836123
37	0x3cae5d52	0.021284733
38	0xbe9538ca	-0.2914489
39	0xbe29a89a	-0.16568223
40	0xbe83d779	-0.2575033
41	0xbe4d7ffd	-0.20068355
42	0x3e81ded6	0.25365323
43	0xbc5de52c	-0.013543408
44	0xbe5e640e	-0.21717855
45	0xbdb8dd6f	-0.0902661
46	0xbde01c46	-0.10942893
47	0x3deb0c2a	0.114769295
48	0x3e927dc9	0.2861159
49	0x3e56a479	0.20961179
50	0x3df00a77	0.11720746
51	0xbdecc42f	-0.115608566
52	0xbdf433e2	-0.11923958
53	0xbd616415	-0.055027086
54	0xbd2f096c	-0.042733595
55	0x3d85722f	0.065159194
56	0xbeb0f20c	-0.34559667
57	0xbe9fee79	-0.31236628
58	0x3e6a72dd	0.2289538
59	0xbeb366cf	-0.35039374
60	0x3dfbbfda	0.12292452
61	0xbe9dfcd1	-0.30856946
62	0xbe37e721	-0.17959262
63	0xbe55e1d1	-0.20886923
64	0xbd43174b	-0.047629636
65	0x3d558b8b	0.05213503
66	0xbea1a19a	-0.31568605
67	0x3d479135	0.048722465
68	0x3e094c7b	0.13408081
69	0x3eac3b47	0.33638975
70	0x3e5d9c62	0.21641687
71	0x3dce849f	0.10083889
72	0xbd5a3028	-0.05326858
73	0x3d15db22	0.036585934
74	0xbde9dfae	-0.11419617
75	0xbdbb7ad4	-0.09154287
76	0x3ed31f8c	0.41235006
77	0xbe5c549e	-0.21516654
78	0x3e42e156	0.19031271
79	0xbd97b886	-0.07408242
80	0xbcbb9a5c	-0.022900753
81	0x3e0379f7	0.12839495
82	0x3b6f63a5	0.0036527899
83	0x3e949ee8	0.29027486
84	0x3e96d8ac	0.29462183
85	0xbe4e2acf	-0.20133518
86	0x3e95dbd9	0.29269293
87	0x3e10e504	0.14149863
88	0x3d9cedad	0.076625206
89	0xbe804f59	-0.25060537
90	0x3e745d5b	0.23863737
91	0x3d6167bd	0.055030573
92	0x3e8646ab	0.2622579
93	0xbc69d4a4	-0.014271889
94	0xbe239b0f	-0.15977119
95	0xbe107eed	-0.14110918
96	0x3e814437	0.25247356
97	0x3dcd7c53	0.100334786
98	0x3e710d7c	0.235403
99	0x3e3dee3d	0.18547912
100	0x3c379e9b	0.011207248
101	0x3e2ed6d4	0.17074138
102	0x3e3252f6	0.1741446
103	0xbd7991e5	-0.06093015
104	0x3d9afe2d	0.075680114
105	0x3e45b5cc	0.19307631
106	0x3ea3c335	0.3198487
107	0x3e5e6a06	0.21720132
108	0x3e718f96	0.2358993
109	0x3e096f71	0.13421418
110	0x3e38eba1	0.18058635
111	0x3e152b45	0.14567287
112	0x3ec36eed	0.38170567
113	0xbd415a2e	-0.047205143
114	0xbd1002ec	-0.035159037
115	0xbe425957	-0.18979393
116	0xbe30741a	-0.17231789
117	0xbe872cc4	-0.2640134
118	0x3e9dc0a1	0.30811027
119	0xbeb30dae	-0.34971374
120	0xbec8adb3	-0.39195022
121	0xbdb3567b	-0.08756729
122	0x3eadccb7	0.33945248
123	0xbcc7e721	-0.024402203
124	0xbc444597	-0.011979482
125	0xbe95d76b	-0.29265913
126	0xbe134b44	-0.1438418
127	0x3e34048e	0.17579862
128	0xbe701e8c	-0.23449153
129	0xbd16d522	-0.036824353
130	0x3e6dac4b	0.23210256
131	0xbe089f5a	-0.13342038
132	0xbe7e69d6	-0.2484506
133	0x3dea88fe	0.114519104
134	0xbe1243d9	-0.14283694
135	0x3e9962e7	0.2995827
136	0x3d87f4e6	0.066385075
137	0xbdf26b2c	-0.11836848
138	0x3e90bb40	0.2826786
139	0x3dce86d0	0.10084307
140	0x3d50613a	0.050873972
141	0xbe1c641e	-0.15272567
142	0xbccd454a	-0.025057454
143	0x3d955a2a	0.07292588
144	0xbcd22be8	-0.025655702
145	0x3d88fc37	0.06688731
146	0xbe62a9e1	-0.22135116
147	0xbdfe38b1	-0.12413157
148	0x3d96fc3a	0.07372327
149	0x3eb883eb	0.36038145
150	0x3e36f062	0.17865136
151	0xbc574c27	-0.013140715
152	0xbe84b8ca	-0.25922233
153	0xbddc10ec	-0.10745415
154	0xbe9d6108	-0.3073809
155	0x3e134656	0.143823
156	0xbe5d9489	-0.21638693
157	0x3e06bcf3	0.13158016
158	0xbe970100	-0.2949295
159	0x3e8a3fea	0.27001888
160	0x3e904eea	0.28185207
161	0x3ddcffc5	0.10790972
162	0xbe650b3d	-0.22367568
163	0x3c53f8bd	0.012937722
164	0x3d66fa29	0.056390915
165	0x3dd1c7f5	0.10243217
166	0x3d7be1d1	0.061494652
167	0x3e83ef3b	0.25768456
168	0x3e94cd45	0.29062858
169	0xbe416ffc	-0.18890375
170	0x3e8195c7	0.25309584
171	0x3e4cb5c8	0.19991219
172	0xbe725061	-0.23663475
173	0x3e84ad10	0.25913286
174	0x3e094fb3	0.13409309
175	0xbdb89c7c	-0.09014222
176	0x3e295873	0.16537647
177	0xbd871006	-0.06594853
178	0x3e59d757	0.21273552
179	0x3e60632f	0.21912836
180	0xbd7e1a52	-0.06203682
181	0x3d7c6367	0.061618235
182	0xbe1e6d7b	-0.15471451
183	0x3afe9477	0.0019422908
184	0x3c22c8a3	0.009935531
185	0xbdc3b9bc	-0.095569104
186	0xbbdf7019	-0.006818783
187	0x3e77b514	0.2419017
188	0xbe47812d	-0.1948287
189	0xbe204f6a	-0.15655294
190	0xbec9814e	-0.39356464
191	0x3dabfd05	0.08397869
192	0xbdbaaad9	-0.09114618
193	0x3eb943dc	0.36184585
194	0xbeb01988	-0.3439448
195	0x3e8624f1	0.2620006
196	0x3dc069bb	0.093951665
197	0xbe642d5e	-0.22282931
198	0x3cfe27bd	0.031024808
199	0x3e5b3724	0.21407753
200	0x3e75db65	0.24009474
201	0x3e2c6758	0.16836298
202	0x3deed609	0.11661918
203	0xbe7bfa1a	-0.24607125
204	0x3e478761	0.19485237
205	0x3d4d8596	0.050176226
206	0xbe1138fe	-0.14181897
207	0xbe9deac7	-0.30843183
208	0x3e536ece	0.20647737
209	0x3a1f0e3e	0.0006067491
210	0xbe2843de	-0.1643214
211	0x3d9b04c1	0.07569266
212	0xbdddf16f	-0.108370654
213	0xbe9934c4	-0.2992307
214	0xbba8f443	-0.0051560714
215	0xbe94e032	-0.29077297
216	0xbe6a8cce	-0.22905275
217	0xbd98d456	-0.07462375
218	0x3edfc5af	0.43705508
219	0xbabd7e22	-0.0014457146
220	0xbdb30eb5	-0.087430395
221	0xbe60f4d6	-0.21968397
222	0xbde32ab1	-0.11092127
223	0x3c87cbf3	0.016576743
224	0x3e8d83e7	0.27639696
225	0xbde068b1	-0.10957468
226	0x3e843716	0.25823277
227	0x3d269633	0.040670585
228	0x3e038af6	0.12845978
229	0x3e1125c1	0.14174558
230	0xbe218c14	-0.15776092
231	0x3e282902	0.16421893
232	0x3ed1e8f0	0.4099803
233	0x3eb4f3e3	0.3534232
234	0x3cac8cb5	0.021063188
235	0xbe81c03a	-0.2534197
236	0xbe5c09dc	-0.21488136
237	0xbd8f2a2f	-0.06990468
238	0x3e163e20	0.14672136
239	0x3d9bc411	0.07605756
240	0xbe8c4394	-0.27395308
241	0xbcda5796	-0.026653092
242	0x3e754cc0	0.23955059
243	0x3d9fb403	0.077980064
244	0xbbe810c9	-0.007082079
245	0xbe93380c	-0.28753698
246	0x3dcbc9aa	0.09950574
247	0x3e095233	0.13410263
248	0xbdf651b8	-0.12027305
249	0xbe898c06	-0.26864642
250	0xbdcfd3cb	-0.10147818
251	0xbe04aa45	-0.12955578
252	0x3deb237a	0.11481376
253	0xbdf4eae2	-0.11958863
254	0x3e655d12	0.22398785
255	0xbdf573e1	-0.11984993

encoder.blocks.1.attn.proj.weight f4 [16, 16]
0	0xbe621a5d	-0.2208037
1	0xbd988cd4	-0.07448736
2	0x3ea9e41a	0.3318184
3	0x3e14c0ba	0.14526644
4	0xbe0fed9a	-0.14055482
5	0xbd886b19	-0.06661052
6	0x3e4e29bf	0.20133112
7	0x3ede4cb8	0.43417907
8	0xbea59c91	-0.32346013
9	0xbcec3080	-0.02883172
10	0xbd26e217	-0.04074296
11	0x3e3691d4	0.17829067
12	0x3c90a5ef	0.017657248
13	0x3e253f3e	0.16137406
14	0xbe401ddd	-0.18761392
15	0xbe56ebba	-0.2098836
16	0x3e9564b5	0.29178396
17	0xbed70b29	-0.42000702
18	0xbd95dc4d	-0.0731741
19	0xbe5b2635	-0.21401294
20	0xbe7a11b0	-0.2442081
21	0x3ca6a63a	0.020342935
22	0x3eb26eef	0.3485026
23	0xbeb75ce5	-0.3581306
24	0xbe19d331	-0.1502197
25	0x3d802621	0.062572725
26	0xbbc51801	-0.0060148244
27	0xbd250330	-0.040286243
28	0xbea3bcf6	-0.31980103
29	0xbe24e677	-0.1610354
30	0xbea8544e	-0.3287682
31	0xbeb18aec	-0.346763
32	0x3d874a3b	0.06605955
33	0x3ed6fe9f	0.41991135
34	0xbd513859	-0.051079128
35	0x3d8d848c	0.06910047
36	0xbe10d015	-0.14141877
37	0x3ecbfd90	0.3984189
38	0x3e88e4e0	0.26737118
39	0x3e3ab4af	0.18232988
40	0x3d8a02f2	0.06738843
41	0xbef01ffc	-0.46899402
42	0xbed110db	-0.40833172
43	0xbe9b9016	-0.30383366
44	0x3c401296	0.011723181
45	0xbdb71385	-0.0893927
46	0xbec80741	-0.39068034
47	0x3ecc9f18	0.3996513
48	0xbe7a0979	-0.24417676
49	0xbe291805	-0.16513069
50	0x3ddc2096	0.10748403
51	0xbef7e5c7	-0.48417494
52	0x3ea46438	0.3210771
53	0xbc3de107	-0.011589295
54	0x3eb13833	0.3461319
55	0x3e086470	0.13319564
56	0x3dbe577e	0.092940316
57	0xbee8c983	-0.4546624
58	0xbd9a4b4b	-0.07533892
59	0x3edc9bd6	0.43087643
60	0xbf074bc3	-0.5284998
61	0x3da45722	0.08024432
62	0xbe8161bd	-0.2526988
63	0xbed31449	-0.41226414
64	0x3ddce849	0.107864924
65	0x3e5221e3	0.2052074
66	0xbe2da838	-0.16958702
67	0xbd675400	-0.056476593
68	0x3e07f83d	0.13278289
69	0xbeb0d317	-0.3453605
70	0xbebcee53	-0.36900577
71	0xba3feecb	-0.00073216547
72	0xbd04f70a	-0.032462157
73	0xbec8f69b	-0.39250645
74	0xbec1bbb4	-0.3783852
75	0xbe32515d	-0.1741385
76	0x3cc6fd9a	0.024290849
77	0xbeb52970	-0.35383177
78	0x3e874c8b	0.26425585
79	0x3d2ab381	0.041675095
80	0x3e60f98f	0.21970199
81	0xbe9b71f0	-0.30360365
82	0x3e732668	0.2374512
83	0xbe607cc8	-0.219226
84	0x3e83f7f7	0.2577512
85	0x3e5e5b4c	0.21714514
86	0x3de68a8a	0.11256893
87	0x3e80df41	0.2517033
88	0x3e7fdd95	0.2498687
89	0xbd94e1f4	-0.0726966
90	0x3e564236	0.20923695
91	0xbe297372	-0.16547945
92	0xbe95e539	-0.29276446
93	0xbe7ab6e0	-0.24483824
94	0xbebb19a3	-0.36542997
95	0xbecfcbde	-0.40585226
96	0xbea2f026	-0.31823844
97	0xbec92697	-0.39287254
98	0x3ee4c76c	0.44683397
99	0x3ed1a217	0.40943977
100	0xbed90080	-0.42383194
101	0xbe4bb6a4	-0.1989389
102	0xbe6a619d	-0.22888799
103	0x3d56aaff	0.05240917
104	0x3ead5c63	0.33859548
105	0xbeb95b2c	-0.3620237
106	0x3eba085e	0.3633451
107	0xbd8d290c	-0.06892595
108	0xbe75d260	-0.24006033
109	0x3d8003a4	0.062506944
110	0x3ed66cd3	0.418799
111	0xbebf6b64	-0.3738662
112	0x3e627b49	0.22117342
113	0x3dbcdd5e	0.0922191
114	0xbd70037e	-0.05859708
115	0xbd0ce8e5	-0.034401793
116	0x3e7ac569	0.24489368
117	0x3cb88567	0.022524549
118	0xbe53d6b6	-0.20687374
119	0xbeb1dcc6	-0.3473875
120	0xbe8c4fc3	-0.27404603
121	0x3e87d337	0.26528332
122	0xbf1d73a6	-0.6150459
123	0x3e0d40f1	0.13794304
124	0xbd56b9f4	-0.052423432
125	0xbd2cf325	-0.04222407
126	0xbed5b270	-0.417377
127	0xbeb708d6	-0.3574893
128	0x3e87cfde	0.26525778
129	0xbe74173f	-0.23836993
130	0xbe2a1e5a	-0.1661314
131	0x3dc85daf	0.09783494
132	0x3e1c5751	0.15267684
133	0x3ebaf091	0.36511663
134	0xbec61e20	-0.3869486
135	0xbca39771	-0.019969674
136	0xbe948d25	-0.29013935
137	0xbeb15153	-0.34632358
138	0xbe7b485e	-0.24539325
139	0xbe4bf8e5	-0.19919164
140	0x3e85690b	0.26056704
141	0xbed5bd01	-0.4174576
142	0xbec96d81	-0.39341357
143	0xbd370f68	-0.044692427
144	0x3e9a2b20	0.30111027
145	0x3d9e61ec	0.07733521
146	0x3e99bae6	0.30025405
147	0x3e9be7f2	0.30450398
148	0xbe24946e	-0.16072246
149	0xbec0497f	-0.37556073
150	0xbe9c73bf	-0.30557057
151	0x3ea6154c	0.32438123
152	0xbe5b326c	-0.21405953
153	0xbde63c96	-0.112420246
154	0x3ec57b49	0.38570622
155	0xbbf819f0	-0.0075714514
156	0xbdbcd34c	-0.09219989
157	0x3e39acb8	0.18132293
158	0x3eb91639	0.36149767
159	0xbe9c0cca	-0.30478507
160	0x3dff87f2	0.124771014
161	0x3e4e7427	0.20161496
162	0xbe670b11	-0.22562815
163	0x3e3391da	0.17536107
164	0xbe82db99	-0.25558165
165	0x3efc882f	0.4932265
166	0x3dd8cc08	0.10585791
167	0xbe2c8a5f	-0.1684966
168	0x3eaf9445	0.34292808
169	0x3ea50333	0.32229003
170	0xbdde2100	-0.10846138
171	0x3e2fff09	0.17187132
172	0xbee3ce84	-0.44493496
173	0x3efee0b1	0.497808
174	0x3eadcb9d	0.33944407
175	0x3ed8340c	0.4222721
176	0x3e7de992	0.24796131
177	0x3ed13a17	0.40864632
178	0xbea66669	-0.32500008
179	0xbea03b06	-0.3129503
180	0xbea1bd99	-0.31589964
181	0xbd8097be	-0.062789425
182	0xbe7e5684	-0.2483769
183	0x3dae5a00	0.0851326
184	0xbe068411	-0.13136317
185	0x3ea74390	0.32668734
186	0xbed1a2e8	-0.409446
187	0x3eccb457	0.39981338
188	0x3d2bca29	0.04194084
189	0xbd9afaab	-0.07567342
190	0x3ea37f1e	0.3193292
191	0xbdd1b826	-0.10240202
192	0x3e80add3	0.25132617
193	0xbe37e234	-0.17957383
194	0xbaa6ee11	-0.0012735744
195	0xbddcad8b	-0.10775288
196	0x3e615ff0	0.22009254
197	0xbe61a6d2	-0.22036293
198	0xbdd2f2cd	-0.10300217
199	0xbec52441	-0.38504222
200	0xbe8a719e	-0.27039808
201	0x3e87bd42	0.2651158
202	0x3e0450c0	0.12921429
203	0x3e623b6a	0.22092977
204	0x3e208611	0.15676142
205	0xbdac8d3c	-0.08425376
206	0x3e0f9056	0.14019904
207	0x3e777808	0.24166882
208	0x3e2a6a39	0.16642083
209	0xbe9d835d	-0.30764285
210	0xbe920eda	-0.28526956
211	0x3da2a2a6	0.07941179
212	0x3ecd135a	0.40053827
213	0xbe0b1e12	-0.1358569
214	0x3dd40dcc	0.10354194
215	0xbebd4c3e	-0.3697223
216	0xbe621650	-0.22078824
217	0x3da1c111	0.078981526
218	0xbea53ded	-0.32273808
219	0xbe201e53	-0.15636568
220	0xbea392d1	-0.3194795
221	0xbe59e041	-0.21276952
222	0x3e92366c	0.28557146
223	0x3dcf7c21	0.101310976
224	0x3e6e97e9	0.23300137
225	0xbde4655b	-0.111521445
226	0x3e6e76a1	0.23287441
227	0xbee1b078	-0.44079947
228	0x3dc195b8	0.09452385
229	0x3e7d3fb5	0.24731334
230	0x3d7dada3	0.06193317
231	0xbe6214ca	-0.22078243
232	0x3eda4a21	0.4263468
233	0x3ed3a12f	0.4133391
234	0x3ea528bc	0.3225764
235	0xbeca8774	-0.39556468
236	0xbe4abb64	-0.19798046
237	0xbd5f2e9a	-0.054487802
238	0xbe15eda7	-0.14641438
239	0x3e74485f	0.23855732
240	0xbe96b331	-0.29433587
241	0x3cfe8531	0.03106937
242	0x3e10aed3	0.1412919
243	0x3ee9b00d	0.4564213
244	0xbe1db14d	-0.15399666
245	0xbe34789f	-0.17624138
246	0xbeb9bd54	-0.36277258
247	0x3ea006de	0.3125524
248	0x3eaae59f	0.33378312
249	0x3e4c332f	0.199414
250	0xbee05b8b	-0.43819842
251	0xbe583d09	-0.21117033
252	0x3e63e237	0.22254263
253	0x3e066c30	0.13127208
254	0xbe72ad48	-0.23698914
255	0xbe9de166	-0.30836028

encoder.blocks.1.attn.proj.bias f4 [16]
0	0x3d02bc07	0.031917598
1	0xbd9b694a	-0.07588442
2	0x3dcc50f1	0.09976376
3	0xbd851c12	-0.064994946
4	0xbd0ac051	-0.033874813
5	0xbc8b4fd6	-0.017005842
6	0xbe0e9a6c	-0.13926095
7	0x3e174dfa	0.1477584
8	0x3d8642b4	0.06555691
9	0xbdc4da9f	-0.09612011
10	0xbcdee734	-0.027209856
11	0x3d5e6f86	0.054305576
12	0xbbf8ed1a	-0.007596624
13	0x3d3e544a	0.046467103
14	0x3b4bb968	0.0031085853
15	0x3d23a707	0.03995421

encoder.blocks.1.norm2.weight f4 [16]
0	0x3f66b321	0.9011708
1	0x3f7321bb	0.94973344
2	0x3f72ec52	0.94891846
3	0x3f61dae6	0.8822464
4	0x3f62bb66	0.885672
5	0x3f58506c	0.84497714
6	0x3f73432f	0.9502439
7	0x3f595c25	0.84906226
8	0x3f58b0ab	0.84644574
9	0x3f5e7b53	0.8690693
10	0x3f7314f0	0.94953823
11	0x3f6b615f	0.9194545
12	0x3f5e50db	0.86842126
13	0x3f597fdc	0.8496072
14	0x3f6a3159	0.9148155
15	0x3f6c2bb8	0.9225421

encoder.blocks.1.norm2.bias f4 [16]
0	0x3d303857	0.04302248
1	0xbad32695	-0.0016109521
2	0xbd475ec2	-0.048674352
3	0x3bad8615	0.005295525
4	0x3d8a7ae5	0.067617215
5	0x3ccb8fd1	0.02484885
6	0x3d2ed542	0.042683847
7	0xbdc248b3	-0.094865225
8	0xbd8df35b	-0.06931182
9	0xbcd5a4f9	-0.026079642
10	0xbe20950c	-0.15681857
11	0xbcca2570	-0.024676055
12	0xbd08693b	-0.03330348
13	0xbce34db6	-0.027747016
14	0x3d303e2c	0.04302804
15	0x3d238c00	0.039928436
