Checkpoint/dict_16.pth (torch, 108787 bytes, 64 tensors)

encoder.cls_token f4 [1, 1, 16]
1.454345 0.07440483 0.39167818 -0.54094154 -0.86450404 -0.66136587 -1.5098039 -0.23050778
1.0627484 -0.8840492 -0.47180912 -0.07488209 -0.7186029 0.40487516 1.1971337 0.051204834
00000000: fa27 ba3f 8f61 983d 0b8a c83e 257b 0abf
00000010: 2350 5dbf 464f 29bf 4141 c1bf 3b0a 6cbe
00000020: 2408 883f 0c51 62bf f790 f1be c85b 99bd
00000030: 5cf6 37bf cc4b cf3e ad3b 993f 29bc 513d

encoder.patch_embed.weight f4 [16, 5]
-0.15478157 -0.2417179 -0.085233085 -0.22741088 0.4297131 -0.20181389 0.42206624 0.0037435181
0.007560827 0.28150254 -0.32444406 -0.1618446 0.010650636 0.65158373 0.14248805 0.06435826
-0.43387014 0.034361094 -0.05002017 0.12551808 -0.50007325 -0.42519152 -0.5804629 0.466302
-0.46573603 -0.32415333 0.43333867 -0.17695355 -0.2983725 0.10865895 0.48358604 -0.17635149
-0.08306907 0.6000856 0.33831915 -0.097964175 0.1612407 -0.33652487 -0.24166282 -0.30912137
0.41675675 -0.012926286 0.5444907 -0.09098198 0.49082568 -0.047595993 0.52403617 -0.21811752
0.21110706 0.49082285 -0.26204824 0.18404649 -0.1528925 0.52585894 -0.3405853 0.3093947
0.43762273 -0.19532973 -0.1462611 -0.34798634 0.5593169 -0.0049727834 -0.13973345 0.09316367
-0.31470358 0.023456644 -0.39246395 0.21472183 -0.031791 0.016206225 -0.25199163 0.52605784
-0.17774087 0.64779407 -0.13186382 -0.43645725 0.42896807 -0.44059327 -0.38123378 0.11835524
00000000: 0f7f 1ebe e684 77be af8e aebd 66de 68be
00000010: 5b03 dc3e 4da8 4ebe 1119 d83e d055 753b
00000020: d0c0 f73b 1a21 903e 881d a6be 97ba 25be
00000030: 0180 2e3c 31ce 263f 63e8 113e 43ce 833d
00000040: 3a24 debe 38be 0c3d f3e1 4cbd d087 003e
00000050: cd04 00bf b4b2 d9be 3799 14bf 23bf ee3e
00000060: f474 eebe 6df7 a5be 91de dd3e 5033 35be
00000070: 48c4 98be 9588 de3d 9798 f73e 7c95 34be
00000080: 1e20 aabd 369f 193f 2b38 ad3e 71a1 c8bd
00000090: 481c 253e fd4c acbe 7576 77be 2845 9ebe
000000a0: 2461 d53e c6c8 53bc be63 0b3f c354 babd
000000b0: 814d fb3e 04f4 42bd 3c27 063f 335a 5fbe
000000c0: 732c 583e 224d fb3e 302b 86be af76 3c3e
000000d0: da8f 1cbe b19e 063f 3261 aebe fb68 9e3e
000000e0: 1610 e03e 8404 48be 78c5 15be 442b b2be
000000f0: 642f 0f3f bbf2 a2bb 4916 0fbe 98cc be3d
00000100: d420 a1be 2628 c03c 09f1 c8be 0ae0 5b3e
00000110: 4837 02bd ebc2 843c 0c05 81be baab 063f
00000120: b401 36be d5d5 253f 4f07 07be 5377 dfbe
00000130: b4a1 db3e 7195 e1be 1331 c3be 3b64 f23d

encoder.patch_embed.bias f4 [16]
0.0903257 -0.010085097 0.07759618 -0.024990631 0.03370343 -0.051332183 0.029378619 0.018415235
-0.020576019 0.061306726 0.046549514 -0.08459753 -0.007996479 -0.09834595 -0.0025851834 -0.073278226
00000000: aefc b83d f63b 25bc bfea 9e3d 27b9 ccbc
00000010: 9c0c 0a3d b241 52bd 6eab f03c 8cdb 963c
00000020: 0a8f a8bc c31c 7b3d b4aa 3e3d 7841 adbd
00000030: aa03 03bc 9a69 c9bd 2e6c 29bb e512 96bd

encoder.blocks.0.norm1.weight f4 [16]
1.1094514 1.237298 1.1481997 1.0245622 1.0917435 1.144144 0.97848254 0.9597567
1.0413921 0.9795451 1.2514526 1.010841 0.9958895 0.9192232 1.0702858 1.0090427
00000000: 8102 8e3f c85f 9e3f 35f8 923f db24 833f
00000010: 40be 8b3f 5073 923f d57d 7a3f 9db2 753f
00000020: 564c 853f 78c3 7a3f 992f a03f 3d63 813f
00000030: 9df2 7e3f 3652 6b3f 20ff 883f 5028 813f

encoder.blocks.0.norm1.bias f4 [16]
-0.03764513 -0.013124906 -0.0063036727 0.0032954235 -0.07041108 0.087006874 0.020752953 0.049246952
-0.038008682 0.021241434 0.021157475 0.03704378 -0.059110384 -0.045241743 -0.17949298 0.0073425714
00000000: c831 1abd d909 57bc 0a8f cebb 08f8 573b
00000010: af33 90bd a930 b23d 1902 aa3c 2cb7 493d
00000020: feae 1bbd 8402 ae3c 7152 ad3c 38bb 173d
00000030: bb1d 72bd 684f 39bd 02cd 37be f499 f03b

encoder.blocks.0.attn.qkv.weight f4 [48, 16]
-0.15885384 -0.07535646 -0.008597116 -0.18080465 0.16744743 -0.15101558 0.050038308 0.054954447
-0.1394847 0.4055685 0.00030344754 0.16897595 -0.029289441 -0.19016823 -0.029746326 0.08759243
0.16534716 -0.23800813 0.10670534 0.22160906 0.25753608 -0.22843954 0.009400355 -0.3077653
0.17081407 0.11208031 0.034743242 -0.31453526 0.34449744 -0.20143472 -0.006483636 -0.29125005
0.40852073 0.26094872 -0.06798471 -0.120054096 -0.016076373 -0.038568057 0.52350974 -0.46365938
0.008613668 0.31559896 -0.16387896 -0.39682147 0.14150064 -0.03463048 0.3175726 -0.028125856
0.015580515 0.25401837 0.040289637 0.2172366 0.34598982 -0.09441306 0.22660752 -0.12079468
0.27225435 0.108125806 -0.18672916 0.045157403 0.32058752 -0.36666307 0.20929284 -0.28494382
-0.17078975 0.402697 -0.42794353 -0.16375537 0.06100366 -0.0757505 -0.009433451 -0.23741743
0.5292186 -0.22804128 0.12654412 0.13761556 -0.026408738 -0.020521834 0.12023593 0.09189332
-0.16499652 -0.14642146 0.13936602 0.21271609 0.487183 -0.29826972 -0.13328722 0.014158816
-0.10883084 -0.32584748 -0.1445458 -0.32323703 0.16061181 -0.34510323 0.0008674771 -0.15394288
-0.078037694 0.34998736 -0.06771526 0.010611326 -0.1123157 -0.2112045 -0.17669652 -0.05155207
-0.1043677 0.38266125 0.013969579 0.04909308 -0.20021212 -0.07812667 -0.0018622557 -0.056932125
0.098381095 0.11701819 -0.05751841 0.101468295 0.053328656 0.023136303 0.15638366 -0.119555116
-0.24247473 -0.12794143 0.32011184 0.17386262 0.08250397 0.1282741 -0.031749807 0.30862218
-0.19375566 -0.23297812 0.06824165 -0.27779573 0.08666385 0.08929527 0.31058034 -0.052159056
0.19518828 0.21453407 0.03190977 -0.10894133 0.120809294 0.27214232 -0.27583483 0.09342472
0.015988301 -0.21574417 0.4061317 0.36774352 0.19535966 0.15490362 -0.33578047 0.26644084
-0.01516531 -0.35430393 0.09736132 -0.06211739 -0.073499314 0.21696429 0.01338621 -0.14102264
0.19561714 -0.16798581 -0.09904695 -0.053215683 0.25221628 0.07869525 -0.11522845 0.16507952
0.062604465 -0.27345783 0.07074812 0.09469424 -0.06969591 -0.02342318 0.3062305 -0.15664406
-0.24498616 -0.23273262 -0.057488818 0.04090454 0.41675764 -0.34453326 -0.25848112 0.25714993
0.106148176 -0.171829 -0.08514352 -0.31711683 0.41467786 0.11214158 0.1301406 0.12117991
-0.11630466 0.17334598 -0.17556453 0.15079665 0.03292145 -0.06583595 -0.16026324 -0.11577978
-0.21947439 0.1488726 0.12435114 -0.19974118 0.36991203 0.1468863 -0.08060345 -0.024009252
0.37079683 -0.118763626 -0.20604825 -0.5831767 0.31297836 -0.0445124 0.06846295 -0.360176
-0.27436233 0.47771683 0.11518149 -0.3056348 0.53874564 -0.051840145 0.29024664 -0.09252302
-0.099263616 0.4147491 -0.22912952 0.28756464 -0.60609126 0.29513994 0.29128927 0.08195168
-0.21282326 0.4752377 0.3135953 0.1040039 -0.59038514 0.028172236 -0.36623698 0.11261855
0.08237735 0.0012342596 -0.17684188 0.40961292 -0.3898884 0.26636356 -0.076051064 0.39412865
-0.18441708 -0.2137666 -0.369307 0.09758094 -0.1112806 0.065033816 -0.30178657 0.3525631
00000000: 95aa 22be 7d54 9abd ebda 0cbc db24 39be
00000010: 5777 2b3e d4a3 1abe f8f4 4c3d ea17 613d
00000020: 14d5 0ebe ada6 cf3e 0a18 9f39 0808 2d3e
00000030: 69f0 efbc 76bb 42be 91ae f3bc a963 b33d
00000040: c450 293e 67b8 73be 5488 da3d 7ced 623e
00000050: c5db 833e 0eec 69be f203 1a3c 6a93 9dbe
00000060: e2e9 2e3e 5d8a e53d ee4e 0e3d c40a a1be
00000070: f861 b03e e744 4ebe ae74 d4bb ba1e 95be
00000080: a129 d13e 129b 853e 913b 8bbd ecde f5bd
00000090: 99b2 83bc 8af9 1dbd bc04 063f c364 edbe
000000a0: 5820 0d3c 3096 a13e e3cf 27be 2f2c cbbe
000000b0: 8be5 103e b1d8 0dbd e098 a23e 3268 e6bc
000000c0: 6b45 7f3c b20e 823e bf06 253d 4573 5e3e
000000d0: 9425 b13e a25b c1bd cd0b 683e 3463 f7bd
000000e0: ec64 8b3e 1071 dd3d ee35 3fbe f8f6 383d
000000f0: 0c24 a43e 43bb bbbe dd50 563e 28e4 91be
00000100: 82e3 2ebe 4d2e ce3e 6a1b dbbe 7daf 27be
00000110: f9de 793d 1423 9bbd c38e 1abc 8e1d 73be
00000120: df7a 073f a783 69be c894 013e 18eb 0c3e
00000130: 2357 d8bc 681d a8bc 413e f63d 9132 bc3d
00000140: d9f4 28be 82ef 15be f7b5 0e3e 3fd2 593e
00000150: 0d70 f93e cfb6 98be 727c 08be 61fa 673c
00000160: b4e2 debd 7bd5 a6be d003 14be 537f a5be
00000170: 6c77 243e 5fb1 b0be 6767 633a 34a3 1dbe
00000180: 3ad2 9fbd 8b31 b33e 4cae 8abd 21db 2d3c
00000190: c605 e6bd fe45 58be efef 34be 4328 53bd
000001a0: bcbe d5bd 2dec c33e a9e0 643c d315 493d
000001b0: 6804 4dbe e000 a0bd ef16 f4ba a931 69bd
000001c0: 077c c93d 3ca7 ef3d 6d98 6bbd 9cce cf3d
000001d0: 266f 5a3d 5888 bd3c 0a23 203e 50d9 f4bd
000001e0: 4c4b 78be 1403 03be b3e5 a33e 0b09 323e
000001f0: d7f7 a83d 495a 033e 160c 02bd ba03 9e3e
00000200: e267 46be d191 6ebe 47c2 8b3d 3e3b 8ebe
00000210: d17c b13d 70e0 b63d 6304 9f3e bca4 55bd
00000220: 70df 473e d2ae 5b3e d2b3 023d a21c dfbd
00000230: dd6a f73d 3d56 8b3e 393a 8dbe 7655 bf3d
00000240: e6f9 823c 0aec 5cbe 7ff0 cf3e e148 bc3e
00000250: 5d0c 483e 0e9f 1e3e 6beb abbe ef6a 883e
00000260: ec77 78bc 5367 b5be 5f65 c73d ce6e 7ebd
00000270: cf86 96bd e32b 5e3e d651 5b3c 3d68 10be
00000280: dc4f 483e 7904 2cbe 21d9 cabd b0f8 59bd
00000290: 7e22 813e fa2a a13d e5fc ebbd 9b0a 293e
000002a0: c536 803d aa02 8cbe 64e4 903d 0eef c13d
000002b0: bbbc 8ebd f8e1 bfbc 3eca 9c3e 4d67 20be
000002c0: a7dd 7abe 7651 6ebe 6579 6bbd 858b 273d
000002d0: 4261 d53e aa66 b0be a357 84be 28a9 833e
000002e0: 3764 d93d f1f3 2fbe ba5f aebd 235d a2be
000002f0: a850 d43e 7caa e53d 9443 053e 2c2d f83d
00000300: 2331 eebd 9c81 313e 30c7 33be 706a 1a3e
00000310: a4d8 063d 00d5 86bd 0c1c 24be f31d edbd
00000320: e5bd 60be 0f72 183e cfab fe3d f488 4cbe
00000330: 1c65 bd3e 5d69 163e 6c13 a5bd 0daf c4bc
00000340: 15d9 bd3e 583a f3bd 50fe 52be 114b 15bf
00000350: b33e a03e a252 36bd 4e36 8c3d fd68 b8be
00000360: 3879 8cbe 4d97 f43e 46e4 eb3d 2a7c 9cbe
00000370: 3ceb 093f 5556 54bd 359b 943e b67c bdbd
00000380: b94a cbbd fe59 d43e eea0 6abe ac3b 933e
00000390: cc28 1bbf 951c 973e de23 953e 48d6 a73d
000003a0: 57ee 59be 5b52 f33e 908f a03e ffff d43d
000003b0: 7b23 17bf 76c9 e63c 6a83 bbbe 8ea4 e63d
000003c0: 75b5 a83d e1c6 a13a 0a16 35be c9b8 d13e
000003d0: 749f c7be ce60 883e a9c0 9bbd 3bcb c93e
000003e0: d5d7 3cbe a2e5 5abe cf15 bdbe 84d8 c73d
000003f0: 15e7 e3bd 7330 853d c583 9abe 2783 b43e

encoder.blocks.0.attn.proj.weight f4 [16, 16]
0.17282186 0.08039169 0.12559418 -0.036933366 0.13410403 0.1516048 -0.4065156 0.44164035
0.07940128 -0.23172456 -0.27545917 0.3144685 0.15214284 -0.39153758 -0.0010843957 -0.3516901
0.17623968 0.16705872 0.34656897 0.0029992117 -0.43670216 0.19073826 -0.2368009 0.02147851
-0.024311213 -0.3762162 -0.304252 0.36935085 0.09976628 -0.021997534 0.074782364 -0.19905747
0.10514028 -0.13056405 -0.33481708 -0.12958631 -0.2402312 -0.018402051 -0.38314834 0.17253533
0.47074035 -0.35904694 0.27524653 0.2750541 -0.38778344 0.34745735 0.19583727 -0.4305972
0.47573504 0.09169948 -0.31333104 0.08093391 0.06642524 0.49080262 -0.10450683 -0.15755035
0.25430158 -0.15700701 0.3136587 0.48882148 -0.41957703 -0.1439455 0.13523318 -0.1614846
-0.0989618 0.017763007 0.08892989 -0.14380024 0.39962894 -0.34302717 0.14396383 0.22135712
-0.3917201 0.15819882 -0.15156187 -0.25432 0.3199489 -0.117220916 -0.014361386 0.31917053
-0.20230487 -0.4018796 0.21503948 -0.016085919 0.34628594 -0.12411577 -0.17406201 -0.13350005
-0.16559958 -0.21575631 -0.034658745 0.33423388 -0.09128836 0.29530114 -0.4605389 0.5088873
0.1867734 0.09486317 -0.024143009 -0.1953807 -0.004164788 -0.19516231 -0.3542048 -0.041621882
-0.0013830985 -0.3570421 0.27900088 0.092842124 -0.164072 0.19795182 0.20324785 -0.44714478
-0.27225465 0.17216858 0.16564296 0.061915755 0.16851753 0.021115737 -0.12543406 -0.118246056
0.17009145 -0.32675803 0.42249677 -0.2652167 -0.13897805 -0.22367595 0.07049503 0.23089828
-0.18738362 0.34395206 -0.1552019 0.032792386 -0.1615175 -0.34639078 0.029191248 -0.14186975
0.3479839 -0.095029555 -0.24889457 0.3815307 0.28382313 0.4323476 -0.16189365 -0.06252589
-0.2752709 -0.43807516 0.524512 0.061299883 0.25429142 -0.27413014 -0.39217713 -0.27078795
0.18577284 0.2997257 0.066176675 -0.012522528 -0.07823891 0.29796234 0.28777915 -0.273552
-0.004993051 0.2166352 -0.37607998 -0.25918767 -0.20493594 0.3871313 0.049192596 -0.34638026
-0.3286041 -0.40390807 0.41889116 -0.16689311 0.046013307 -0.3732169 0.17121544 -0.14215323
-0.31835657 -0.2954979 0.22334372 -0.16051483 -0.119535506 0.14967147 0.00061855954 -0.2220592
0.4129612 0.3374856 0.015299146 0.34778386 0.42192307 -0.35122156 -0.2061503 0.06704042
-0.19937338 0.14124097 0.04480901 0.29637945 0.41712695 -0.3304428 0.23635426 -0.34304833
-0.3459396 0.30830324 -0.35538846 0.2650097 -0.24094124 0.2680937 0.32303402 -0.08334399
-0.06135934 -0.4085707 0.25909042 -0.13963574 0.24481015 -0.055762015 0.2403019 -0.27886665
-0.29197428 -0.2619382 0.04891413 -0.028543083 -0.24934389 0.00015354327 0.49026224 -0.3098207
-0.17655596 -0.40976363 0.009454737 0.28948408 0.25186127 0.28160053 -0.46402255 0.38999203
0.19125602 0.17242552 -0.06748744 0.29638043 -0.111989774 -0.045561686 -0.35657635 -0.32868585
0.42102283 -0.22680566 -0.0409889 -0.44856 -0.23126832 -0.43050992 0.014423618 0.24119025
-0.043810017 -0.27774355 -0.4715352 -0.43336982 -0.38289374 -0.24464236 -0.12914939 -0.3354003
00000000: 37f8 303e 66a4 a43d c39b 003e 7147 17bd
00000010: 9152 093e 4a3e 1b3e d022 d0be af1e e23e
00000020: 239d a23d 3449 6dbe fc08 8dbe 0402 a13e
00000030: 55cb 1b3e 9d77 c8be 4822 8eba ba10 b4be
00000040: 2d78 343e 7111 2b3e 7d71 b13e 6c8e 443b
00000050: 6d97 dfbe e450 433e ef7b 72be b3f3 af3c
00000060: 4f28 c7bc 699f c0be ebc6 9bbe 8e1b bd3e
00000070: 4352 cc3d 2c34 b4bc 7f27 993d b9d5 4bbe
00000080: ca53 d73d 95b2 05be 256d abbe 46b2 04be
00000090: 2bff 75be e6bf 96bc 052c c4be 1aad 303e
000000a0: e104 f13e 00d5 b7be 1ded 8c3e e4d3 8c3e
000000b0: 8d8b c6be eee5 b13e 9189 483e 3c77 dcbe
000000c0: 8b93 f33e f0cc bb3d ed6c a0be aec0 a53d
000000d0: f509 883d 7b4a fb3e ad07 d6bd e154 21be
000000e0: d133 823e 72c6 20be e097 a03e cf46 fa3e
000000f0: cdd2 d6be 7366 13be 917a 0a3e 385c 25be
00000100: 7cac cabd ba83 913c e020 b63d 5f40 13be
00000110: 2a9c cc3e 42a1 afbe 416b 133e 71ab 623e
00000120: 898f c8be dffe 213e 0933 1bbe 3b36 82be
00000130: 58d0 a33e 8511 f0bd 054c 6bbc 526a a33e
00000140: 0229 4fbe 2ac3 cdbe 4f33 5c3e 9ec6 83bc
00000150: 644c b13e 6930 febd 503d 32be 3db4 08be
00000160: f092 29be 39ef 5cbe 54f6 0dbd b420 ab3e
00000170: 64f5 babd b631 973e c1cb ebbe 7046 023f
00000180: 8741 3f3e 9f47 c23d 8fc7 c5bc e111 48be
00000190: c678 88bb a1d8 47be 555a b5be b57b 2abd
000001a0: 1649 b5ba 39ce b6be 34d9 8e3e 0324 be3d
000001b0: 7e02 28be e2b3 4a3e 3420 503e 29f0 e4be
000001c0: f664 8bbe f64c 303e 4f9e 293e 609b 7d3d
000001d0: dc8f 2c3e e9fa ac3c c971 00be fd2a f2bd
000001e0: 742c 2e3e d44c a7be 7f51 d83e 7cca 87be
000001f0: 4350 0ebe 4f0b 65be b35f 903d 9970 6c3e
00000200: 7ee1 3fbe 7c1a b03e 3fed 1ebe 4f51 063d
00000210: d864 25be 225a b1be 7c22 ef3c 4e46 11be
00000220: f22a b23e db9e c2bd 38de 7ebe fe57 c33e
00000230: 4451 913e aa5c dd3e 73c7 25be 930d 80bd
00000240: 4ff0 8cbe 634b e0be 6b46 063f 9615 7b3d
00000250: 7c32 823e c95a 8cbe 71cb c8be b8a4 8abe
00000260: 3c3b 3e3e a675 993e a387 873d 4a2b 4dbc
00000270: b93b a0bd 858e 983e ca57 933e 020f 8cbe
00000280: bf9c a3bb 9ed5 5d3e 8e8d c0be 3fb4 84be
00000290: bada 51be 1336 c63e 2d7e 493d c158 b1be
000002a0: cc3e a8be 0acd cebe e778 d63e 07e6 2abe
000002b0: 7378 3c3d 4916 bfbe 1a53 2f3e 9e90 11be
000002c0: a2ff a2be 804b 97be 37b4 643e 005e 24be
000002d0: 08cf f4bd 7a43 193e d426 223a 7d63 63be
000002e0: a76f d33e eaca ac3e 45a9 7a3c ba10 b23e
000002f0: 4d06 d83e 50d3 b3be 1019 53be 7d4c 893d
00000300: 8928 4cbe 79a1 103e a789 373d 0cbf 973e
00000310: aa91 d53e cc2f a9be da06 723e 08a4 afbe
00000320: ff1e b1be ecd9 9d3e 7af5 b5be 5aaf 873e
00000330: 4db9 76be 9443 893e b764 a53e 41b0 aabd
00000340: ee53 7bbd 2e30 d1be 80a7 843e acfc 0ebe
00000350: 83af 7a3e b666 64bd b411 763e 9cc7 8ebe
00000360: a77d 95be c41c 86be 2f5a 483d 2fd3 e9bc
00000370: 0154 7fbe 7500 2139 a703 fb3e d2a0 9ebe
00000380: 16cb 34be 8acc d1be 0be8 1a3c 4237 943e
00000390: f6f3 803e f22d 903e 5d94 edbe 09ad c73e
000003a0: 9ed8 433e 5190 303e db36 8abd 2dbf 973e
000003b0: e55a e5bd e49e 3abd 2d91 b6be 8349 a8be
000003c0: 4e90 d73e be3f 68be fae3 27bd a8a9 e5be
000003d0: 9ad1 6cbe cc6b dcbe 0a51 6c3c 94fa 763e
000003e0: 2272 33bd 6734 8ebe 106d f1be a6e2 ddbe
000003f0: a60a c4be 8783 7abe bd3f 04be 97b9 abbe

encoder.blocks.0.attn.proj.bias f4 [16]
-0.042298265 0.027507508 0.0273799 -0.023395311 -0.015563076 0.03829688 0.0140349185 0.025702393
-0.021236014 0.037707068 -0.060269907 0.02547082 0.0005085563 -0.042910714 -0.02607054 0.001758676
00000000: f240 2dbd 6d57 e13c d04b e03c 86a7 bfbc
00000010: 46fc 7ebc 30dd 1c3d b7f2 653c d38d d23c
00000020: 26f7 adbc ba72 1a3d 94dd 76bd 2ea8 d03c
00000030: a350 053a 25c3 2fbd e391 d5bc 6083 e63a

encoder.blocks.0.norm2.weight f4 [16]
0.9443024 1.0095551 1.0445004 0.96267277 0.90882736 1.0328122 0.9822301 0.9923591
1.0121266 0.921276 0.9206301 0.9498863 0.85454065 0.9599399 0.9005049 1.0032977
00000000: cdbd 713f 1a39 813f 30b2 853f b971 763f
00000010: e9a8 683f 3133 843f 6f73 7b3f 3f0b 7e3f
00000020: 5d8d 813f bed8 6b3f 6aae 6b3f c02b 733f
00000030: 2dc3 5a3f 9fbe 753f 7d87 663f 0f6c 803f

encoder.blocks.0.norm2.bias f4 [16]
-0.014631529 -0.006177141 0.025507696 0.10200954 0.007002387 -0.022133805 0.015178603 0.023215555
0.00045175297 -0.030328875 0.036305685 -0.07392616 0.07355464 -0.03658224 -0.010064561 -0.0008224883
00000000: 15b9 6fbc 9d69 cabb 84f5 d03c 61ea d03d
00000010: 4874 e53b f451 b5bc adaf 783c 8c2e be3c
00000020: 42d9 ec39 4374 f8bc 45b5 143d 9966 97bd
00000030: d1a3 963d 42d7 15bd d4e5 24bc 419c 57ba

encoder.blocks.0.mlp.fc1.weight f4 [64, 16]
0.24474671 -0.116069384 -0.07900962 0.14479497 0.21824661 0.123806834 0.19709496 0.16875775
-0.06729098 0.14427799 -0.13824254 -0.011912366 0.098146036 -0.08895507 0.21096846 -0.014830341
-0.16582005 0.19437587 -0.18785492 0.058212895 0.10386827 -0.129097 0.18886405 -0.15767081
-0.2317889 -0.012070072 0.24960814 -0.2576704 0.26164386 -0.14724565 -0.020208582 0.23597717
0.21173939 -0.18473546 -0.26241606 -0.21351765 0.27941734 -0.045345087 0.23350772 0.009870686
0.26773524 -0.12432104 -0.08274855 0.17591044 -0.09916217 0.17105336 0.12628265 0.16071612
0.22522295 0.08075692 -0.107881606 0.039041538 -0.09988784 -0.1650598 -0.16576205 -0.036040794
-0.1217973 -0.30286413 0.19397251 -0.29891384 -0.19805576 -0.3009278 0.22264269 0.14933161
0.1496391 -0.18476242 -0.073835544 -0.09423966 0.003950651 -0.16083784 0.12124884 -0.15458529
0.29897806 0.093161345 -0.086355865 0.09006547 -0.2074457 -0.11583884 -0.11892166 0.2596758
0.023843478 0.3648124 0.19487579 -0.35999092 -0.14525099 -0.087063245 -0.18791118 0.002138924
-0.067370325 -0.07060349 0.04501944 -0.1010648 -0.20361571 0.055908073 0.1414917 0.012934728
0.13193104 -0.23887773 -0.2728943 -0.054929215 0.00830427 0.20368437 0.17068866 0.04629422
0.1930568 -0.07092575 0.11767616 0.27352363 -0.037285153 0.20203966 0.23366828 -0.14288236
-0.07325887 -0.06658084 0.044468842 0.04380424 -0.07095899 -0.45174202 0.43579492 -0.28321826
-0.14932351 0.22928225 0.26080918 -0.17930365 -0.053433128 0.1418911 -0.0440862 -0.4053799
0.06852157 0.090566464 0.04076545 0.10609987 0.23404844 -0.1665835 0.059342396 0.12551127
0.21820468 -0.13937396 0.2111529 0.21140844 -0.19014052 -0.15259448 0.054153036 -0.17937411
0.19327222 -0.08083919 0.11168265 0.04765117 -0.2185133 -0.049517184 -0.14306016 -0.025325282
0.1393631 0.1493695 -0.1623502 -0.023756677 0.15326816 0.035347357 -0.31466737 -0.006267205
0.19903031 -0.061475787 -0.017748613 -0.08349172 -0.08409533 -0.2735158 0.23061275 -0.23822121
-0.20501874 -0.12322722 0.2394318 0.20961675 0.1508565 -0.2851035 -0.017560521 -0.016512953
0.02011806 0.30721775 0.21138467 -0.123343505 -0.17927635 0.22933003 0.063676424 -0.3506704
0.09083803 0.09892667 -0.10314871 -0.2939189 -0.1754634 -0.19195113 -0.21903908 -0.004955093
-0.22510837 0.11792292 -0.18747127 0.04904354 0.19011611 -0.22485341 -0.19671768 0.123544626
0.10961422 0.009443714 -0.20471299 0.21910118 0.036827073 0.05217264 0.31810355 -0.19922808
0.022452181 -0.26109338 -0.09736592 -0.1828947 -0.06569437 0.119549125 -0.20108224 -0.16690812
0.029549 -0.21538883 0.069184765 -0.040915534 -0.20168114 0.01811279 -0.256336 0.08401957
-0.10645158 0.23712027 -0.14453037 -0.16867879 -0.13742512 -0.14082997 0.19323938 -0.19856942
-0.05232023 -0.31893975 0.09986899 0.16361642 -0.18261936 -0.18943922 -0.15333608 0.20218444
0.12791227 0.13529356 0.05624625 -0.17346695 -0.083727255 -0.15561228 -0.17659535 -0.25041652
-0.29915705 -0.20692095 -0.09313099 0.13662083 0.0055698645 0.0066915345 0.09378736 0.14309628
00000000: e29e 7a3e c9b5 edbd cccf a1bd 2245 143e
00000010: 0a7c 5f3e 708e fd3d 43d3 493e d5ce 2c3e
00000020: dacf 89bd 9cbd 133e 748f 0dbe 162c 43bc
00000030: ca00 c93d 132e b6bd 1e08 583e f5fa 72bc
00000040: bbcc 29be 780a 473e 0a5d 40be a570 6e3d
00000050: e3b8 d43d 0132 04be 9465 413e 7574 21be
00000060: 125a 6dbe 8dc1 45bc 4799 7f3e 60ed 83be
00000070: 2ff6 853e 90c7 16be 788c a5bc 00a4 713e
00000080: 36d2 583e 4b2b 3dbe 665b 86be 5fa4 5abe
00000090: ca0f 8f3e c5bb 39bd a61c 6f3e a8b8 213c
000000a0: 9814 893e 089c febd 1278 a9bd de21 343e
000000b0: 8915 cbbd 9d28 2f3e 3d50 013e c492 243e
000000c0: d8a0 663e e263 a53d 08f1 dcbd 05ea 1f3d
000000d0: ff91 ccbd 7005 29be 87bd 29be 839f 13bd
000000e0: dd70 f9bd 0211 9bbe bba0 463e 3c0b 99be
000000f0: 21cf 4abe 3513 9abe 72fc 633e 63ea 183e
00000100: fe3a 193e 5c32 3dbe 1737 97bd b900 c1bd
00000110: 7674 813b adb2 24be 5051 f83d 9b4b 1ebe
00000120: a713 993e 60cb be3d 58db b0bd 3f74 b83d
00000130: a56c 54be ea3c edbd 338d f3bd 3af4 843e
00000140: 6653 c33c b1c8 ba3e 858d 473e bb50 b8be
00000150: adbc 14be 374e b2bd ca6b 40be 312d 0c3b
00000160: 74f9 89bd 9098 90bd 4e66 383d 10fb cebd
00000170: a380 50be ddff 643d 33e3 103e 2eec 533c
00000180: ee18 073e 5d9c 74be cdb8 8bbe 75fd 60bd
00000190: a20e 083c a392 503e 02c9 2e3e 029f 3d3d
000001a0: afb0 453e 8541 91bd 3300 f13d 4a0b 8c3e
000001b0: 51b8 18bd 7ce3 4e3e bd46 6f3e c14f 12be
000001c0: bf08 96bd 895b 88bd f624 363d 136c 333d
000001d0: f252 91bd bb4a e7be 8320 df3e fc01 91be
000001e0: 43e8 18be f7c8 6a3e c888 853e 609b 37be
000001f0: b2dc 5abd e74b 113e bb93 34bd f48d cfbe
00000200: 0955 8c3d e97a b93d acf9 263d e34a d93d
00000210: 65aa 6f3e dd94 2abe 0311 733d 0786 003e
00000220: 0c71 5f3e 0cb8 0ebe 7738 583e 747b 583e
00000230: 32b4 42be ba41 1cbe 93cf 5d3d d9ad 37be
00000240: 27e9 453e 048f a5bd e0b9 e43d e02d 433d
00000250: f3c1 5fbe 88d2 4abd 5d7e 12be f776 cfbc
00000260: 33b5 0e3e 51f4 183e 213f 26be 5d9d c2bc
00000270: 54f2 1c3e 64c8 103d 151c a1be 205d cdbb
00000280: 9ace 4b3e 09ce 7bbd 8a65 91bc b5fd aabd
00000290: 2c3a acbd 430a 8cbe c025 6c3e 43f0 73be
000002a0: 6ff0 51be 8d5e fcbd 9c2d 753e c6a5 563e
000002b0: 207a 1a3e 16f9 91be 15db 8fbc 2c46 87bc
000002c0: a1ce a43c a54b 9d3e 3975 583e 859b fcbd
000002d0: 3894 37be 7ed5 6a3e c968 823d 128b b3be
000002e0: 4a09 ba3d 119a ca3d a23f d3bd 8a7c 96be
000002f0: adac 33be d68e 44be c84b 60be 555e a2bb
00000300: cf82 66be 9281 f13d 78f8 3fbe e1e1 483d
00000310: ccad 423e f93f 66be 5c70 49be f704 fd3d
00000320: 6c7d e03d cfb9 1a3c 48a0 51be 0f5c 603e
00000330: fcd7 163d fab2 553d 78de a23e 7202 4cbe
00000340: a3ed b73c 08ae 85be c967 c7bd c048 3bbe
00000350: c58a 86bd 2cd6 f43d 81e8 4dbe f6e9 2abe
00000360: bf10 f23c e48e 5cbe beb0 8d3d 0c97 27bd
00000370: 8085 4ebe 4661 943c 793e 83be 7412 ac3d
00000380: 4903 dabd a8cf 723e c5ff 13be 22ba 2cbe
00000390: 2cb9 0cbe bb35 10be 8be0 453e c855 4bbe
000003a0: bd4d 56bd 124c a3be 1d88 cc3d 108b 273e
000003b0: 9200 3bbe 5bfc 41be 2204 1dbe 7009 4f3e
000003c0: 6ffb 023e 658a 0a3e 7862 663d 52a1 31be
000003d0: 3279 abbd d358 1fbe 69d5 34be 9836 80be
000003e0: 1d2b 99be 16e3 53be 76bb bebd 55e6 0b3e
000003f0: 6983 b63b a944 db3b 9613 c03d d587 123e

encoder.blocks.0.mlp.fc1.bias f4 [64]
-0.06140966 -0.019860419 -0.022747423 -0.041678786 0.0011393297 -0.03559809 0.030486507 -0.017775293
-0.013140678 -0.045703556 -0.015069878 -0.043916605 -0.029091291 -0.021740653 -0.042875763 0.015276115
-0.03651112 0.018582901 0.031274367 0.022060832 -0.032377694 -0.037107013 -0.04354968 -0.09092201
-0.05045783 -0.08165219 -0.023049138 0.0056356513 -0.14083393 -0.03555107 0.020508504 -0.02529704
-0.056205004 -0.010934549 -0.04107425 0.0132875815 0.051038098 -0.03839524 -0.014249245 -0.032223113
-0.016275944 -0.024756024 -0.020444045 0.009773199 0.021290982 0.0051434664 -0.013113476 -0.054743335
-0.042347122 -0.023921886 -0.10998192 0.075149395 -0.029165171 -0.025956199 -0.052139662 0.03483082
0.02684418 -0.021328088 0.010196513 0.008403477 -0.018131174 -0.0018867501 -0.001859949 0.04374739
00000000: b288 7bbd 51b2 a2bc ce58 babc 60b7 2abd
00000010: 9055 953a 4ecf 11bd d7be f93c 7e9d 91bc
00000020: 004c 57bc a733 3bbd a6e7 76bc e6e1 33bd
00000030: dc50 eebc 7419 b2bc 7f9e 2fbd ac48 7a3c
00000040: af8c 15bd 2b3b 983c 8d19 003d ebb8 b43c
00000050: 799e 04bd 86fd 17bd 2661 32bd 5235 babd
00000060: dfac 4ebd 4339 a7bd 8cd1 bcbc 45ab b83b
00000070: c536 10be 009e 11bd 7301 a83c bd3b cfbc
00000080: 3837 66bd d326 33bc 793d 28bd 28b4 593c
00000090: 530d 513d 5444 1dbd aa75 69bc 62fc 03bd
000000a0: 2155 85bc 25cd cabc 457a a7bc c51f 203c
000000b0: 6d6a ae3c 868a a83b e8d9 56bc 8c3a 60bd
000000c0: 2d74 2dbd d5f7 c3bc 333e e1bd ede7 993d
000000d0: cceb eebc 18a2 d4bc 6690 55bd c3aa 0e3d
000000e0: 53e8 db3c 3eb8 aebc 460f 273c bdae 093c
000000f0: d487 94bc d44c f7ba 88c9 f3ba 7730 333d

encoder.blocks.0.mlp.fc2.weight f4 [16, 64]
-0.018812567 0.16408569 0.032729384 0.030156532 0.23057634 0.18331607 0.011189862 -0.19378664
-0.023654588 0.098965034 0.1606538 0.03078679 -0.20177977 -0.040638786 -0.0016573885 0.006772903
0.24287601 0.23206691 0.3314021 -0.25624195 0.080546215 -0.22616681 0.2370209 -0.003624054
0.17154072 -0.0811609 0.17100222 0.14179757 0.27712005 -0.10415732 -0.124907516 0.24004158
0.27575427 0.08345576 0.17013302 -0.10614713 0.17659532 -0.21081808 0.1261644 0.15323871
-0.14529176 -0.12534827 -0.046242855 -0.0069598528 -0.32890207 0.025577355 0.17184763 0.016277991
-0.2078848 -0.06325096 -0.07618961 0.06093277 0.21908052 0.032964855 -0.13588645 0.018392943
0.20140965 0.050808 0.075936146 -0.10208783 0.107555725 0.18239892 0.049862977 0.1896806
0.20083919 0.082234904 0.045930635 -0.1834383 0.20608547 0.11337957 0.22678185 -0.28010407
0.154309 0.020709343 -0.2141837 0.06320639 -0.17423788 -0.017798932 -0.030540911 -0.265406
-0.15161917 0.098410994 0.06964691 0.25213844 -0.20011279 0.12459609 -0.20789512 0.17047727
0.17807442 -0.2141666 0.12659144 0.06083631 -0.22650363 -0.14616843 0.1899533 0.2293834
0.19239053 0.23506096 0.06526052 -0.017221577 -0.0967571 -0.00582325 0.00484391 -0.16674432
0.17528614 0.062236052 -0.106972806 0.25653705 -0.18525647 0.16661659 0.18807416 -0.27662435
-0.2317743 0.18145809 -0.020306583 0.06004853 -0.15431003 -0.038425446 0.25194013 0.05036777
0.07385859 -0.13875577 0.01962434 0.018219296 -0.2293259 -0.037419666 -0.11691028 -0.21907611
0.25602263 -0.22574607 -0.15939982 -0.29389554 -0.07110624 -0.19476339 -0.26118013 0.23055814
0.15444927 -0.06000495 -0.22583081 0.10109661 -0.047475588 0.018823532 -0.09129892 -0.11360146
-0.027616464 0.2143253 -0.03835379 0.10531594 0.23639137 0.2387484 0.086351134 -0.04119139
-0.10477427 0.041240744 0.20942622 0.1748033 0.2273488 0.18929459 -0.21722747 -0.0046180575
0.089853235 -0.031809736 0.14038084 0.18840468 0.071899086 -0.11366023 -0.20179778 -0.047986377
0.07235769 0.14048941 0.1445296 0.16645995 0.12216049 -0.21349564 0.17596714 -0.3453902
-0.22606142 -0.09804582 -0.045954727 -0.025069559 0.056362793 -0.2484944 0.25983208 -0.072891794
0.23881769 -0.0648762 0.13335437 0.23423 0.22401029 -0.088117786 0.14917845 0.06388873
-0.09249961 -0.09747726 -0.26522434 -0.15113364 0.24913014 -0.10124121 -0.15843545 0.14430456
0.15890022 0.12488468 -0.1018081 0.021752069 -0.14774102 -0.26060072 0.124150574 -0.12403211
0.0076738973 0.2995377 0.018920342 -0.037208516 -0.0036107216 0.09046109 -0.1569341 -0.15342836
0.0223939 -0.008578554 -0.09958387 -0.14552101 -0.019157635 -0.049041167 0.039858148 0.18043466
-0.14194672 -0.2559211 0.21831648 0.0691497 0.4150327 -0.15690121 0.13068593 -0.055569895
0.09795393 -0.046919152 0.11516174 -0.21910731 -0.0006328386 0.34525973 0.33192933 0.15123832
0.099127166 0.35012466 -0.12328149 -0.1411438 -0.26383013 0.14755957 -0.16005482 -0.32667902
-0.22880422 -0.14899766 -0.10968826 -0.0844407 -0.14912859 -0.14014716 -0.22451687 -0.002566845
00000000: d01c 9abc 1406 283e 3f0f 063d d50a f73c
00000010: 341c 6c3e 35b7 3b3e af55 373c 0170 46be
00000020: 44c7 c1bc 2eae ca3d 6e82 243e 9434 fc3c
00000030: 5b9f 4ebe db74 26bd bb3c d9ba 3aef dd3b
00000040: 7db4 783e f3a2 6d3e 89ad a93e 2532 83be
00000050: 6af5 a43d 4698 67be 9bb5 723e 8981 6dbb
00000060: 5fa8 2f3e b037 a6bd 351b 2f3e 6233 113e
00000070: aee2 8d3e 6f50 d5bd 83cf ffbd 76cd 753e
00000080: aa2f 8d3e daea aa3d 5a37 2e3e ab63 d9bd
00000090: 67d5 343e b2e0 57be 3e31 013e 9cea 1c3e
000000a0: 5dc7 14be 4c5b 00be 2669 3dbd 7a0f e4bb
000000b0: da65 a8be 9a87 d13c d3f8 2f3e 6c59 853c
000000c0: c1df 54be b889 81bd 4c09 9cbd a494 793d
000000d0: a556 603e 2806 073d d125 0bbe ccac 963c
000000e0: 553e 4e3e 0d1c 503d 6984 9b3d 6d13 d1bd
000000f0: 2d46 dc3d c8c6 3a3e 1f3d 4c3d a23b 423e
00000100: caa8 4d3e c66a a83d c321 3c3d 40d7 3bbe
00000110: 1208 533e 8c33 e83d 8039 683e cd69 8fbe
00000120: 2e03 1e3e a4a6 a93c f952 5bbe 5a72 813d
00000130: 6a6b 32be 11cf 91bc ef30 fabc 4ce3 87be
00000140: 0e42 1bbe b48b c93d 0aa3 8e3d 4a18 813e
00000150: 5eea 4cbe 3c2c ff3d 75e2 54be 9891 2e3e
00000160: 2459 363e 7d4e 5bbe 30a1 013e 7f2f 793d
00000170: 91f0 67be 2dad 15be 1e83 423e 7be3 6a3e
00000180: 0602 453e d2b3 703e 4fa7 853d 4414 8dbc
00000190: 9628 c6bd f6d0 bebb aab9 9e3b 06bf 2abe
000001a0: 367e 333e 3beb 7e3d 8f14 dbbd d358 833e
000001b0: dfb3 3dbe 8a9d 2a3e 8396 403e b5a1 8dbe
000001c0: 3e56 6dbe 26d0 393e fe59 a6bc 73f5 753d
000001d0: 7303 1ebe 0064 1dbd 4cfe 803e 6f4e 4e3d
000001e0: 2c43 973d fe15 0ebe 39c3 a03c a240 953c
000001f0: 69d4 6abe 5d45 19bd a86e efbd 7d55 60be
00000200: 6615 833e fa29 67be b539 23be 7a79 96be
00000210: 26a0 91bd 0e70 47be 67b9 85be 6f17 6c3e
00000220: f327 1e3e c0c7 75bd 3140 67be bd0b cf3d
00000230: c375 42bd cf33 9a3c eefa babd e2a7 e8bd
00000240: ec3b e2bc 1778 5b3e dd18 1dbd e2af d73d
00000250: 9410 723e 767a 743e ddd8 b03d 4eb8 28bd
00000260: e493 d6bd 0eec 283d d473 563e a3ff 323e
00000270: 20ce 683e 71d6 413e e170 5ebe 1353 97bb
00000280: f904 b83d ed4a 02bd ffbf 0f3e 28ed 403e
00000290: d43f 933d b2c6 e8bd 14a4 4ebe 5d8d 44bd
000002a0: 4530 943d 75dc 0f3e 91ff 133e 7a74 2a3e
000002b0: 472f fa3d 9a9e 5abe bb30 343e fcd6 b0be
000002c0: a57c 67be 3fcc c8bd 063b 3cbd ad5e cdbc
000002d0: acdc 663d 5175 7ebe b608 853e 4b48 95bd
000002e0: a08c 743e d0dd 84bd 0c8e 083e fdd9 6f3e
000002f0: f462 653e 1977 b4bd 3cc2 183e 18d8 823d
00000300: 6f70 bdbd 28a2 c7bd 7ccb 87be c7c2 1abe
00000310: f91b 7f3e 8d57 cfbd e73c 22be 93c4 133e
00000320: bdb6 223e 8ac3 ff3d c480 d0bd 6531 b23c
00000330: 6c49 17be 756d 85be a842 fe3d 8c04 febd
00000340: 5175 fb3b 015d 993e d5fe 9a3c f567 18bd
00000350: dba1 6cbb aa43 b93d 55b3 20be 531c 1dbe
00000360: 6a73 b73c 108d 0cbc a1f2 cbbd 7603 15be
00000370: 79f0 9cbc 64df 48bd 4c42 233d ddc3 383e
00000380: 7b5a 11be 1708 83be 5b8e 5f3e 5c9e 8d3d
00000390: 2b7f d43e b6aa 20be 88d2 053e 429d 63bd
000003a0: 129c c83d 4c2e 40bd ebd9 eb3d ab5d 60be
000003b0: 14e5 25ba e2c5 b03e a4f2 a93e 38de 1a3e
000003c0: 2f03 cb3d 8a43 b33e 017b fcbd 0088 10be
000003d0: be14 87be db19 173e 69e5 23be 7942 a7be
000003e0: a74b 6abe d892 18be 3da4 e0bd 3fef acbd
000003f0: 2ab5 18be bd82 0fbe c0e7 65be 8338 28bb

encoder.blocks.0.mlp.fc2.bias f4 [16]
-0.027458161 0.029157383 0.023771312 -0.034347426 -0.0062539643 0.048135098 0.020259421 0.02231535
-0.023117248 0.033441927 -0.032807548 0.017796773 -0.024111291 -0.047095224 -0.042894382 0.004102222
00000000: f0ef e0bc 77db ee3c 0ebc c23c e3af 0cbd
00000010: 0eee ccbb 4f29 453d 16f7 a53c aece b63c
00000020: 6260 bdbc 67fa 083d 3561 06bd 8aca 913c
00000030: 0b85 c5bc ece6 40bd 05b2 2fbd ef6b 863b

encoder.blocks.1.norm1.weight f4 [16]
1.0516744 1.0016832 1.0477772 1.1786411 1.0235136 1.0638919 0.99969494 0.9860211
0.9994284 1.0696068 1.0171586 1.041489 0.8953882 0.9808209 0.9727217 0.9966779
00000000: 449d 863f 2837 803f 901d 863f b6dd 963f
00000010: 7e02 833f 9c2d 883f 02ec 7f3f e16b 7c3f
00000020: 8ada 7f3f e0e8 883f 4132 823f 834f 853f
00000030: 2938 653f 1417 7b3f 4a04 793f 4826 7f3f

encoder.blocks.1.norm1.bias f4 [16]
-0.04643002 0.020732798 0.05094008 -0.033615075 -0.028225826 0.07409145 0.040599916 0.03303613
-0.03032958 0.040362388 -0.048953444 0.055096388 -0.034409232 -0.039516043 -0.056250066 0.012865594
00000000: 682d 3ebd d4d7 a93c 8ca6 503d f6af 09bd
00000010: d939 e7bc 42bd 973d 194c 263d e550 073d
00000020: bd75 f8bc 0853 253d 6883 48bd c0ac 613d
00000030: b2f0 0cbd 93db 21bd 7866 66bd 36ca 523c

encoder.blocks.1.attn.qkv.weight f4 [48, 16]
0.3494371 0.23182243 -0.0137909595 -0.0066836807 0.055612367 0.223657 -0.13476884 -0.17851137
0.21836664 0.26425242 -0.15373866 0.221089 0.1703108 -0.06982875 0.0019658597 0.042322077
0.47076765 0.04251927 -0.35872805 0.06708997 -0.14425121 -0.41931784 -0.054765314 0.07983463
0.24671793 -0.07566704 0.42812067 -0.40269557 -0.0021523563 -0.06579784 0.2923713 -0.08207421
-0.25755528 0.041418158 0.33122984 -0.073142454 0.20598277 0.29064488 -0.23172997 -0.09753714
0.20988336 0.15853542 0.10712248 0.11007454 -0.096826695 -0.15715042 -0.102990836 -0.05212285
-0.07817902 0.13006637 0.19941813 0.15183142 0.3207546 0.05941935 -0.08698461 0.3273541
-0.025126196 -0.12340966 -0.20088065 0.057685126 -0.22765644 -0.45315278 0.11355724 0.07108787
-0.31888333 0.016459428 0.23482518 0.061767172 0.28482735 0.15576492 0.24858055 0.0058694454
-0.26498613 -0.16993457 -0.28920242 0.1722743 0.115014605 -0.10118267 0.23301665 -0.2344091
-0.046782568 -0.17005335 0.06701673 0.20173165 0.2982704 -0.23619503 -0.09116282 -0.25887737
-0.19832732 -0.23387349 -0.1360249 0.14269692 -0.30245432 0.057954982 0.08242159 0.29499733
0.36031926 0.09649244 0.27852052 0.025493318 0.14671491 -0.089137465 -0.019788893 -0.14237747
-0.23391604 -0.20297661 0.37679026 -0.2965501 0.066874966 -0.28913668 0.23522225 -0.1354147
0.24784553 0.1307265 -0.13906047 0.09811184 0.0047389283 0.1358742 0.2609586 0.19818889
-0.09827634 -0.18568851 -0.027235467 -0.26953843 -0.32517007 0.19288383 -0.15341409 0.23373449
-0.05888642 -0.035743326 0.2245381 -0.1889839 0.30595878 -0.27459735 0.285604 0.0072185397
-0.18818755 -0.24314965 0.11708061 -0.13929632 -0.15076932 -0.07383616 0.03420153 -0.19560671
0.07018307 0.18506852 0.28132722 -0.059017483 -0.14901547 0.39017767 -0.029972414 0.3243518
0.2136726 0.31756184 -0.4548495 0.086823076 -0.22953382 0.028122503 -0.1530747 0.2326282
-0.06556708 -0.13768858 0.06493802 -0.36304557 0.35587877 0.31071773 0.084219605 -0.255756
0.08221747 -0.20702976 0.028544515 0.0439487 0.019302724 0.17396909 0.31724235 -0.041771196
-0.38350537 -0.29279232 0.14216246 -0.31327853 -0.07126289 0.024897499 -0.31575915 0.026152259
-0.3422775 0.30588743 0.0021191402 -0.044534095 -0.21789862 -0.0013204972 -0.17660736 0.27613837
-0.23711316 0.14131682 -0.066819355 0.006383318 0.36492136 0.094085544 0.2999176 -0.05794061
-0.0061164694 0.13547917 -0.21471879 0.14380038 0.35994282 0.19785123 0.077646434 0.098004386
0.13340089 -0.17849644 -0.076619655 0.19150485 0.16781208 0.23559546 -0.16170193 -0.048870265
0.34411928 -0.23515256 -0.20128478 -0.036916237 -0.007278191 -0.23116346 -0.264634 -0.21352455
-0.2854858 0.18720631 -0.42356688 0.13923137 0.46991012 0.013918339 -0.24270798 -0.13730747
0.12878436 -0.030381372 -0.26492673 -0.30381647 0.21772312 -0.32421464 0.106353536 0.10125721
-0.19465129 -0.1475922 -0.1176059 -0.20585409 -0.25920737 0.16535723 0.17748377 0.2215288
-0.361372 0.124418795 -0.117906585 -0.21047552 -0.0699867 -0.0780863 -0.022565389 0.11888946
00000000: 6be9 b23e dc62 6d3e 7af3 61bc c702 dbbb
00000010: cbc9 633d 5706 653e d800 0abe afcb 36be
00000020: 819b 5f3e 184c 873e ab6d 1dbe 2865 623e
00000030: f465 2e3e 6002 8fbd a7d5 003b ea59 2d3d
00000040: 7508 f13e b028 2e3d 34ab b7be 7766 893d
00000050: 97b6 13be d4b0 d6be 9851 60bd 5780 a33d
00000060: a0a3 7c3e 52f7 9abd a232 db3e 1d2e cebe
00000070: 8c0e 0dbb 05c1 86bd b1b1 953e 8616 a8bd
00000080: 49de 83be 16a6 293d f596 a93e b6cb 95bd
00000090: 26ed 523e 68cf 943e 9f4a 6dbe 8dc1 c7bd
000000a0: aaeb 563e 1c57 223e 0863 db3d c36e e13d
000000b0: 134d c6bd 0aec 20be dcec d2bd c57e 55bd
000000c0: 521c a0bd 1e30 053e 4434 4c3e b279 1b3e
000000d0: f239 a43e b461 733d fd24 b2bd f59a a73e
000000e0: 74d5 cdbc 34be fcbd a8b3 4dbe 3d47 6c3d
000000f0: c51e 69be a403 e8be b390 e83d 8496 913d
00000100: ad44 a3be ecd5 863c 0376 703e 93ff 7c3d
00000110: e4d4 913e d780 1f3e e68b 7e3e 7a54 c03b
00000120: 43ac 87be 5403 2ebe 5712 94be ad68 303e
00000130: c78c eb3d dc38 cfbd eb9b 6e3e f008 70be
00000140: 149f 3fbd 7722 2ebe 1140 893d be92 4e3e
00000150: e6b6 983e 1cdd 71be 93b3 babd 938b 84be
00000160: 5116 4bbe 887c 6fbe 1d4a 0bbe 241f 123e
00000170: 4bdb 9abe 3462 6d3d a7cc a83d e409 973e
00000180: c47b b83e d49d c53d 3e9a 8e3e 5dd7 d03c
00000190: 6f3c 163e b48d b6bd 511c a2bc 66cb 11be
000001a0: b087 6fbe 1ad9 4fbe a7ea c03e 6ad5 97be
000001b0: bef5 883d b909 94be 1ade 703e 27aa 0abe
000001c0: 38cb 7d3e 2bdd 053e de65 0ebe dcee c83d
000001d0: 0349 9b3b 9b22 0b3e 5e9c 853e 07f2 4a3e
000001e0: 1b45 c9bd 2125 3ebe ea1c dfbc f100 8abe
000001f0: b17c a6be 5783 453e 9518 1dbe 1858 6f3e
00000200: e332 71bd 9867 12bd 51ed 653e ff84 41be
00000210: a1a6 9c3e 0698 8cbe b03a 923e 8089 ec3b
00000220: 3db4 40be 39fc 78be f5c7 ef3d b2a3 0ebe
00000230: 4663 1abe 6a37 97bd e716 0c3d 204d 48be
00000240: 24bc 8f3d 9a82 3d3e 1f0a 903e 51bc 71bd
00000250: 8397 18be 5ec5 c73e b588 f5bc 7011 a63e
00000260: fdcc 5a3e 7797 a23e 09e2 e8be 4cd0 b13d
00000270: ea0a 6bbe 2a61 e63c 9dbf 1cbe 1636 6e3e
00000280: 0948 86bd 3cfe 0cbe 3afe 843d 1ce1 b9be
00000290: be35 b63e 6516 9f3e 547b ac3d 73f2 82be
000002a0: a261 a83d 9cff 53be 30d6 e93c 8d03 343d
000002b0: bf20 9e3c f424 323e 976d a23e 4618 2bbd
000002c0: d15a c4be e0e8 95be 0993 113e 0b66 a0be
000002d0: 47f2 91bd d7f5 cb3c 2fab a1be 433d d63c
000002e0: ff3e afbe 479d 9c3e 46e1 0a3b 6269 36bd
000002f0: d120 5fbe 8914 adba 8fd8 34be 0262 8d3e
00000300: cbcd 72be 5bb5 103e 96d8 88bd 272b d13b
00000310: f9d6 ba3e ecaf c03d cd8e 993e 2253 6dbd
00000320: aa6c c8bb 0dbb 0a3e 3edf 5bbe 6840 133e
00000330: 6d4a b83e 8399 4a3e 1805 9f3d 86b6 c83d
00000340: 3e9a 083e c5c7 36be c4ea 9cbd d919 443e
00000350: eed6 2b3e f03f 713e 3195 25be 302c 48bd
00000360: 6730 b03e d5cb 70be 991d 4ebe 7b35 17bd
00000370: e47d eebb 1db6 6cbe 1c7e 87be 2ea6 5abe
00000380: 322b 92be 03b3 3f3e c2dd d8be ab92 0e3e
00000390: 0f98 f03e bf09 643c 7188 78be 549a 0cbe
000003a0: 0ce0 033e 5be2 f8bc 7aa4 87be d58d 9bbe
000003b0: cff2 5e3e 76ff a5be e2cf d93d f15f cf3d
000003c0: ab52 47be 6922 17be 5ddb f0bd 6acb 52be
000003d0: d4b6 84be 6853 293e 4ebe 353e 72d8 623e
000003e0: c005 b9be 48cf fe3d 0279 f1bd e586 57be
000003f0: 3055 8fbd b6eb 9fbd 0ddb b8bc 517c f33d

encoder.blocks.1.attn.proj.weight f4 [16, 16]
-0.42190123 -0.0907706 0.2196969 -0.10432865 -0.1732181 0.40881842 0.27259234 0.40927854
-0.37296742 0.24622752 -0.14027128 -0.03263823 -0.33672053 0.41228884 0.09835627 -0.11073502
0.27587482 -0.4070686 -0.16250587 0.036422934 -0.14120123 0.24608761 0.1005397 0.27050018
0.010848751 0.014042294 0.43308774 0.15525897 0.405948 0.3638527 -0.09050391 -0.064027995
0.36774248 0.35497627 0.33060566 -0.47458243 -0.06979407 0.048444953 -0.195115 -0.35485825
0.16159719 0.26908717 -0.28201637 -0.3249157 0.43095446 -0.24618243 0.17323664 0.013840536
-0.44564798 -0.23846371 0.45908138 -0.010613481 -0.014525427 -0.14264597 0.083593726 0.15109259
0.40623862 -0.09142682 -0.050095256 0.326988 0.30310124 -0.31518266 -0.029462691 0.4026369
0.10473729 0.27090293 0.35193917 -0.37558228 -0.2653614 0.3223899 -0.36360875 0.12161428
0.33608916 -0.18470228 0.3823709 -0.0752387 0.16060556 0.24434218 0.31369042 -0.101711676
0.13578717 0.3181375 -0.31923383 -0.016277803 -0.44383246 0.250946 0.043511316 0.3801859
0.07585978 0.3407591 -0.0864883 -0.15977906 0.1629364 0.1449339 -0.17676091 -0.10629687
-0.18237598 -0.33343896 0.17002639 -0.19737059 0.30788797 -0.017467415 -0.030056538 -0.033013765
0.24023189 -0.17174211 -0.4389099 0.2717216 0.34525564 -0.01103515 -0.32328147 0.41929466
-0.10960142 -0.33472553 0.022485735 0.2990477 0.33110106 0.31544027 0.26518536 -0.30471447
-0.20689975 -0.19970773 -0.2518916 0.32452554 0.18480879 -0.28063098 -0.19463085 0.19144025
0.37269858 -0.40395552 0.274859 0.30900872 0.39729968 -0.3619191 0.18922539 0.035078943
-0.2414758 -0.07977583 0.32498533 0.31912532 0.31686842 -0.1891157 0.38163507 -0.10956117
-0.18753144 0.4317957 0.3329128 0.035824146 0.40665394 -0.25101393 0.27584955 0.29873955
0.22998434 0.27525207 -0.06029807 -0.22814451 0.105144314 -0.001186754 -0.30087543 -0.020997185
-0.10103988 -0.17310053 0.29609537 -0.41979116 -0.026689803 -0.29260728 -0.22114536 0.059774972
0.1733976 -0.012174002 0.2724282 0.11585168 -0.25078452 -0.2611172 0.061542206 0.10234442
-0.35860038 0.07094732 -0.27190453 0.39386612 0.33536118 0.38756126 0.047966775 0.05925483
0.20211753 0.027587894 -0.26422885 -0.22681704 -0.36993918 -0.043763146 -0.0038684362 -0.38623297
-0.26447955 -0.069240816 0.3875827 -0.052040663 -0.33964944 0.01153486 -0.11231646 -0.22079168
-0.021219028 -0.31759492 -0.43874383 -0.2799854 0.2465997 -0.31249002 -0.053445082 0.4972443
-0.42703035 0.2542644 0.25034392 0.13136218 -0.24594033 0.037152816 0.20350826 -0.2677394
-0.09681283 -0.33267102 0.312865 -0.08653433 0.3506438 0.2751466 -0.15297845 0.2403542
0.25753444 0.47737846 -0.37645435 0.513249 0.11747829 0.03750959 0.055269096 -0.15386677
-0.3524435 0.06939811 -0.3516904 -0.2919038 -0.2924187 -0.47260773 -0.2359958 0.15119429
0.39246976 0.17808364 -0.29003677 0.2806586 -0.10144082 -0.18090744 0.16706581 -0.002090916
-0.000478865 0.15369709 -0.19060847 -0.010254532 0.20528471 0.1346608 -0.08377864 0.1336124
00000000: 7003 d8be f0e5 b9bd 39f8 603e 42aa d5bd
00000010: 1660 31be a650 d13e 3991 8b3e f58c d13e
00000020: 96f5 bebe 1123 7c3e 46a3 0fbe aaaf 05bd
00000030: a266 acbe 8617 d33e 036f c93d 0bc9 e2bd
00000040: 773f 8d3e 4c6b d0be f067 26be 3730 153d
00000050: 0e97 10be 64fe 7b3e c2e7 cd3d 007f 8a3e
00000060: f6be 313c a611 663c adbd dd3e 35fc 1e3e
00000070: 6bd8 cf3e e74a ba3e 1d5a b9bd 1c21 83bd
00000080: be48 bc3e 73bf b53e 2545 a93e 78fc f2be
00000090: 32f0 8ebd 376e 463d 3acc 47be fbaf b5be
000000a0: bc79 253e cbc5 893e 7364 90be 5a5b a6be
000000b0: 10a6 dc3e 3f17 7cbe f264 313e 6ac3 623c
000000c0: f92b e4be d52f 74be b70c eb3e 2ae4 2dbc
000000d0: 0efc 6dbc c911 12be 3033 ab3d 04b8 1a3e
000000e0: 82fe cf3e fc3d bbbd af30 4dbd f96a a73e
000000f0: 1630 9b3e 9f5f a1be be5b f1bc 6c26 ce3e
00000100: 8180 d63d cab3 8a3e 5f31 b43e 524c c0be
00000110: 73dd 87be 4a10 a53e ed2a babe e810 f93d
00000120: e113 ac3e 9822 3dbe 1ec6 c33e bf16 9abd
00000130: c975 243e d634 7a3e 089c a03e 364e d0bd
00000140: cb0b 0b3e ebe2 a23e 9e72 a3be 0759 85bc
00000150: 023e e3be fe7b 803e ec38 323d baa7 c23e
00000160: 5f5c 9b3d fa77 ae3e c720 b1bd 1f9d 23be
00000170: cdd8 263e 8d69 143e d000 35be 2cb2 d9bd
00000180: c5c0 3abe 83b8 aabe 661b 2e3e 841b 4abe
00000190: 7ea3 9d3e d317 8fbc 2139 f6bc 7139 07bd
000001a0: 59ff 753e 2add 2fbe ccb8 e0be 181f 8b3e
000001b0: 59c5 b03e c6cc 34bc 2685 a5be caad d63e
000001c0: b676 e0bd 2561 abbe 0134 b83c c81c 993e
000001d0: 1486 a93e 6381 a13e 60c6 873e 8903 9cbe
000001e0: 87dd 53be 2f80 4cbe f0f7 80be 3628 a63e
000001f0: 843e 3d3e ddae 8fbe 4f4d 47be ea08 443e
00000200: 59d2 be3e 42d3 cebe 52ba 8c3e 6436 9e3e
00000210: dd6a cb3e 764d b9be 4dc4 413e f0ae 0f3d
00000220: 6f45 77be 8361 a3bd 7a64 a63e 6564 a33e
00000230: 943c a23e 8ca7 41be ac65 c33e 9b61 e0bd
00000240: 3e08 40be 5314 dd3e 8c73 aa3e 57bc 123d
00000250: f234 d03e e684 80be 273c 8d3e 64f4 983e
00000260: 0481 6b3e d7ed 8c3e 1cfb 76bd b79e 69be
00000270: e755 d73d db8c 9bba 580c 9abe 4a02 acbc
00000280: ffed cebd 4441 31be d099 973e deee d6be
00000290: 93a4 dabc 9fd0 95be ee73 62be 9ad6 743d
000002a0: 248f 313e 7775 47bc b67b 8b3e a543 ed3d
000002b0: d466 80be 27b1 85be ae13 7c3d f499 d13d
000002c0: 789a b7be d44c 913d 1237 8bbe d2a8 c93e
000002d0: 76b4 ab3e 6e6e c63e cf78 443d 31b5 723d
000002e0: e6f7 4e3e 0200 e23c 0149 87be ba42 68be
000002f0: ab68 bdbe fc40 33bd 9785 7dbb 54c0 c5be
00000300: dd69 87be 21ce 8dbd 3d71 c63e 9728 55bd
00000310: 88e6 adbe b6fc 3c3c 2c06 e6bd 3717 62be
00000320: 87d3 adbc cd9b a2be 08a3 e0be 3f5a 8fbe
00000330: a284 7c3e b1fe 9fbe 3be9 5abd ce96 fe3e
00000340: b9a3 dabe f22e 823e 142d 803e cf83 063e
00000350: c8d7 7bbe 8d2d 183d 7864 503e 2315 89be
00000360: ce45 c6bd db53 aabe d72f a03e e938 b1bd
00000370: 9687 b33e 04e0 8c3e 62a6 1cbe 691f 763e
00000380: 8edb 833e f36a f43e a0be c0be 4964 033f
00000390: 7598 f03d a8a3 193d d961 623d 408f 1dbe
000003a0: 7973 b4be 9920 8e3d c410 b4be 6a74 95be
000003b0: e7b7 95be a4f9 f1be e2a8 71be add2 1a3e
000003c0: ccf1 c83e 8f5b 363e b37f 94be 7cb2 8f3e
000003d0: 34c0 cfbd cd3f 39be 4d13 2b3e c007 09bb
000003e0: 2c10 fbb9 c562 1d3e de2e 43be a002 28bc
000003f0: 2836 523e 85e4 093e 2394 abbd b0d1 083e

encoder.blocks.1.attn.proj.bias f4 [16]
-0.047999453 0.011474359 -0.00818585 -0.031242017 -0.027001174 0.04354637 0.031967144 0.032445375
-0.031107012 0.037540697 -0.033013087 0.0529693 0.05869541 -0.04384324 0.036033038 -0.03252061
00000000: 139b 44bd f3fe 3b3c f21d 06bc 42ef ffbc
00000010: 9131 ddbc ae5d 323d fbef 023d 71e5 043d
00000020: 22d4 febc 46c4 193d bb38 07bd 56f6 583d
00000030: 996a 703d f894 33bd 6197 133d 5534 05bd

encoder.blocks.1.norm2.weight f4 [16]
0.979465 0.9279786 0.99768895 1.082816 0.95308137 0.9659373 0.9560893 0.8495918
0.9697819 0.92402655 1.0090765 0.9498766 0.9081558 0.9563191 0.9032025 0.85183674
00000000: 38be 7a3f 0190 6d3f 8b68 7f3f b799 8a3f
00000010: 24fd 733f ab47 773f 45c2 743f d97e 593f
00000020: a043 783f 018d 6c3f 6b29 813f 1d2b 733f
00000030: e67c 683f 54d1 743f 4738 673f f911 5a3f

encoder.blocks.1.norm2.bias f4 [16]
-0.027799156 0.023811236 -0.02379336 -0.03608232 -0.015435508 -0.0047969613 0.01623556 -0.008252884
-0.017799754 -0.044344917 0.00398859 -0.039087363 -0.029624496 -0.033116642 -0.035711963 -0.060033742
00000000: 0ebb e3bc c80f c33c 4bea c2bc 0ecb 13bd
00000010: 37e5 7cbc d42f 9dbb 7000 853c 1b37 07bc
00000020: cad0 91bc 04a3 35bd b8b2 823b 121a 20bd
00000030: 12af f2bc 51a5 07bd b546 12bd f1e5 75bd
