Checkpoint/dict_5.pth (torch, 108719 bytes, 64 tensors)

encoder.cls_token f4 [1, 1, 16]
00000000: 3555 67bf 9c69 8d3f 9701 3d3e 34ee 2cbf
00000010: 03bb 0f3f ec79 733f 87a7 7bbf a9dd 4d3e
00000020: 589e b5bf a1da 7cbf 686f 3b3f 918d a93f
00000030: 5b2c c73e 7188 dbbe acc3 a4bf 9268 bfbd
-0.9036439 1.1047854 0.18457638 -0.6755097 0.5614473 0.95107913 -0.983025 0.20104088
-1.4188948 -0.987711 0.7321687 1.3246328 0.38901028 -0.42877534 -1.2872214 -0.09346117

encoder.patch_embed.weight f4 [16, 5]
00000000: 25c3 8bbe 5bc2 9dbe 3391 eabd 576c 183f
00000010: be87 f43d 2b38 14be e9cd 493e 3ef1 03bf
00000020: d402 60be 9378 103f 34b2 8a3c 73eb 4bbe
00000030: e2a5 5d3e 44fc ecbe 99f4 8d3e d024 25be
00000040: 8e1f 163c b952 fdbe a0e0 c2be 1944 e33d
00000050: d2cf 533c dc34 e5be b998 9dbc b6cc b93e
00000060: 2280 0fbf 3eab 91bd 02ab 5a3e 21cc d93e
00000070: a80e 1cbf 2b8e c93e 834d 16be c5ff 06bf
00000080: 93c9 0b3e e1ff 913e 1d67 4d3e f4d8 b7be
00000090: 67f1 9abe 3a95 c73d fae0 a4be a21f f63d
000000a0: 16e8 463d bd73 e5be 6406 8dbe c281 18bd
000000b0: 674a 353e 9ca4 3abd 1c51 d5be beae 983e
000000c0: a4b8 6f3e c283 263e 529a f8be 7614 953e
000000d0: 2372 ec3e 6f1d f2be 23e5 ad3e 6b68 39bd
000000e0: 9556 83be cfd8 0dbe 9396 97be a7bd a83e
000000f0: 7861 21be 380b 32be dfa7 023f 01db fabe
00000100: a282 cf3e b08c 0c3f 7f89 12bf 6c7b 82be
00000110: 127e ea3c fa56 50be 6482 b33e 9291 29be
00000120: 6b3d c73e 303e 8abe 8ed3 0cbe d549 f03d
00000130: eeb8 0c3f 701a d5be 869e 273d 899c e9be
-0.2729732 -0.30812344 -0.11453476 0.59540313 0.11939953 -0.14474551 0.19707455 -0.5153998
-0.21876079 0.5643398 0.016930677 -0.19914035 0.2164531 -0.46286213 0.27725676 -0.16127324
0.009162797 -0.49477175 -0.38062 0.11096973 0.012927966 -0.4476689 -0.019237863 0.36288995
-0.5605489 -0.0711274 0.21354297 0.4253855 -0.60959864 0.39366278 -0.14678006 -0.52734023
0.13651113 0.28515533 0.20058866 -0.3590771 -0.302623 0.097452596 -0.32202893 0.12017752
0.04856118 -0.44814864 -0.27543938 -0.03723312 0.17704163 -0.04556714 -0.41663444 0.29820818
0.23410279 0.16261199 -0.48555237 0.29117173 0.4618083 -0.4728808 0.3396388 -0.045265596
-0.25651994 -0.13852237 -0.29607067 0.32957193 -0.15759838 -0.17387092 0.510374 -0.48995212
0.40529352 0.5490217 -0.5724105 -0.25484788 0.028624568 -0.20345679 0.35060418 -0.16559437
0.38914046 -0.2700057 -0.13752577 0.11732832 0.5496968 -0.41621733 0.040922664 -0.4562724

encoder.patch_embed.bias f4 [16]
00000000: b8a7 093e ec02 a93c 88a2 b9bd 7b95 09be
00000010: d87d db3b 6b08 d7bd cc68 bc3a d69d 55bd
00000020: 65e3 b2bc a081 953d ef75 6cbd 4b2f 9dbd
00000030: cac2 5e3d 9d15 af3d f6ce 14bc e272 3fbd
0.13442886 0.020631276 -0.090642035 -0.13435929 0.0066983514 -0.104996525 0.0014374494 -0.052152477
-0.021836946 0.07300115 -0.057729658 -0.07675036 0.054384984 0.08549044 -0.009082546 -0.04674042

encoder.blocks.0.norm1.weight f4 [16]
00000000: e876 7b3f 7fdb 873f 2b85 873f a2b4 923f
00000010: 0f77 8b3f d05f 7c3f 02f6 843f 0def 6c3f
00000020: 280a 793f 06ea 833f 0bbc 943f a64b 773f
00000030: 5905 823f 6c71 8d3f 80e1 853f e4b2 863f
0.9822831 1.061386 1.0587515 1.1461375 1.0895709 0.985837 1.0387576 0.9255226
0.9728112 1.0305793 1.1619886 0.96599805 1.0157882 1.1050239 1.0459442 1.0523343

encoder.blocks.0.norm1.bias f4 [16]
00000000: d0b5 243d 2bcd 30bd 3dd5 71bd d844 8d3d
00000010: 5f0f 5cbd 54f0 b43b 1b58 6abd 9bdc d23c
00000020: f4f5 be3c 247b 113d 793d 8e3b 0496 9f3c
00000030: ebac f83c 3cbf 5c3d a7a8 10bd 2290 353d
0.040212452 -0.043164413 -0.05904125 0.068978965 -0.053725597 0.0055218134 -0.05721293 0.025739959
0.023310639 0.035517827 0.004340824 0.019480713 0.030355891 0.053893313 -0.03531709 0.04432691

encoder.blocks.0.attn.qkv.weight f4 [48, 16]
00000000: 0183 973e 349a 8abd b6a3 81be 6db7 60bd
00000010: 7edb 50be 8212 9bbd 691d 323c f994 dfbc
00000020: 7f1d 8a3e 3dcb bcbe 1f45 b4bd 80e1 66be
00000030: 5eb1 26be d8e6 99bc c633 f33c f155 913c
00000040: 3199 a4bd fc13 f73d a55c 693e 3412 d8be
00000050: f7a9 ee3e 431a 85be 4363 a83e 3e16 52be
00000060: 6daf edbc 76aa f7bd ff12 f53d 53cb 63be
00000070: 1aaf b93e 1778 94be d86c cbbc ad68 78be
00000080: 088f 9ebb c098 233e 49f6 0ebd 8ade 0e3e
00000090: 7214 d93b 0578 8c3e 4e58 883e 62aa 6e3e
000000a0: 831c a0bd 6d9e c7bd 6409 d0bb 6f75 2ebe
000000b0: 3906 2e3e 9e56 7d3d 345e 8ebe 15de 4bbd
000000c0: a37d 163d 13e1 8d3c 8dce 8bbd 057a 333e
000000d0: f621 753e 230b 85be 5caa a43d e1d7 32bd
000000e0: b0d4 b63e ebed 1dbd 1ce1 353b 9439 043e
000000f0: b923 c6bd 098a 3abe f822 253e a9bd ccbe
00000100: 67b6 31be 9708 96be 41bf 863e 430b 3b3d
00000110: 3004 d93c c0c6 9a3e 2ec6 34be 6478 443e
00000120: 98b2 80be 4801 1fbe 0cea 8ebd 680d 3b3e
00000130: 29dc 7cbe e41e 34be ab0f fd3d 059d de3d
00000140: 0e2f a0be 4056 193e 7720 00be abef 99be
00000150: 6c10 5abd 1af0 44be 0f4d 9a3e 675c 533e
00000160: 8c8e 3a3e 9be6 35be 139c f3bd b150 66be
00000170: 26ea 0fbd 0bcf 4c3c 47a7 933e f1b9 d6bd
00000180: 5c35 dcbc 86b0 eabd e776 673e 06b7 d7bd
00000190: 9d0d 36be 21c2 a93d 33e9 11be 3535 763e
000001a0: 88c5 c33d c899 c83e ab63 a5bd 56ca f2bd
000001b0: 2b20 c6be 86f7 663e 004f 25be 28be 803e
000001c0: c973 afbd c262 e1bd c3b8 9ebe 935c b03d
000001d0: ed16 a9bd 10b6 cdbd 6f44 ac3e be1f ac3d
000001e0: 1874 9dbc f286 9b3c a383 893d 8765 80be
000001f0: 07c7 a33c 5850 823c e383 56be f687 553d
00000200: eef3 35be c302 9f3e 5410 42be 6b72 72be
00000210: 662b c63e fde3 f0bb f0b8 803e 4ccd efbe
00000220: 3d81 303e 8f31 cd3c 2bbf eb3d c7d4 58bd
00000230: 5fb1 023d d38c dbbe 7216 183d 6e0c 02be
00000240: 6d66 db3d 8b61 883e c520 1bbe 0b16 23be
00000250: 27de da3c 0e01 e7bd d108 f0bd c56f ea3d
00000260: d6f5 1d3e 567d 933e 1e32 403d b1fe 07be
00000270: 385e 83be bb4e 3fbe 7e5f e33c 96d6 a93d
00000280: 1579 8cbe 1055 e13d 1c69 4e3d dbe1 de3e
00000290: 0b96 1bbf 6fc2 b53e b20a 7cbe 2189 013f
000002a0: 3b81 6b3d 435c 8abe e38b 1abf 0faa f93e
000002b0: 0d30 7dbd e153 083f b5d8 9bbe 0811 493e
000002c0: ec7e 0f3d 9185 a5be 68bc 33be 0839 a2be
000002d0: d055 a63e f338 9cbe 81ef a5bd da17 38be
000002e0: e0e0 1e3e 4ff6 7a3e 1116 723d a0a5 21be
000002f0: 1721 7cbe 55fb 5abe d7d3 593e e859 223e
00000300: 8efc fcbd 25a2 4fbe c5b6 57be bc20 bd3d
00000310: d7ae 17bc e5bb 4e3e bebf b8bd fcd6 693e
00000320: a92c 203e 8017 a0bc b2cd 33be 8bda e6bd
00000330: c6cc 0e3c 14e8 d73b a6be 78be 9bcc 4cbe
00000340: 2279 08be 9cf8 a83d b32a 9a3e 4f0e 5e3e
00000350: 1c2a 94bc d6ef 7fbe 30ac 0b3e c6c6 bc3d
00000360: 24d2 5fbe acf8 87be 7b06 78be 21b9 aebd
00000370: 80c7 8bbe 8ffe 14be e2b2 403e 4f4a 803e
00000380: fb90 2cbe c46a 3dbe f8f5 633d 097a 84be
00000390: 02eb 83be 2d23 ea3c 73b2 7b3e de7f 82bd
000003a0: 5220 1d3e 516a 9cbe fd22 afbd 7bff 02be
000003b0: 18a6 21be f221 723e e49d 683e 55dc 893e
000003c0: 48ff 933d 567d 98be 9382 a43e 85f0 f43d
000003d0: 0ce5 283e 83a3 323d 956a 8e3e 1447 f83c
000003e0: fcd9 8bbe 7485 88be cfc8 4bbd a671 5c3e
000003f0: ef76 da3d 2cd5 5dbe 3d30 183e 4cd2 0b3e
0.29592136 -0.06767693 -0.25320214 -0.05486243 -0.2039623 -0.075718895 0.01087127 -0.027292715
0.2697563 -0.36873809 -0.08802246 -0.22546959 -0.16278598 -0.018786833 0.029687773 0.017741175
-0.080370314 0.120643586 0.22789247 -0.42201388 0.46614048 -0.259966 0.3288823 -0.20516297
-0.029014314 -0.1209306 0.11966514 -0.22245531 0.36266404 -0.2899787 -0.024832174 -0.2425868
-0.004838828 0.15976238 -0.034902845 0.1395208 0.0066247517 0.27435318 0.2662987 0.23307183
-0.07817938 -0.09747014 -0.0063487757 -0.17036985 0.16994561 0.061850183 -0.27806246 -0.04977234
0.03674091 0.017319238 -0.06826506 0.17527016 0.23938736 -0.2598506 0.08040306 -0.04366291
0.35709143 -0.038556974 0.0027752584 0.1291259 -0.09674782 -0.18216719 0.16126621 -0.3998845
-0.17354737 -0.2930343 0.2631779 0.045665037 0.026491255 0.3022976 -0.17653725 0.1918655
-0.25136256 -0.15527833 -0.06978235 0.18266833 -0.2469336 -0.17589909 0.12356504 0.10869793
-0.312859 0.14974308 -0.12512384 -0.30065665 -0.053238317 -0.19232216 0.30136916 0.20640717
0.1821844 -0.1776375 -0.11895003 -0.22491719 -0.03513541 0.012500535 0.2883856 -0.10484684
-0.026880912 -0.114594504 0.22603951 -0.10532956 -0.1777863 0.0828898 -0.14249115 0.24043734
0.095591605 0.39179826 -0.08075651 -0.11854999 -0.38696417 0.2255536 -0.16143417 0.25145078
-0.08567006 -0.11005165 -0.31000337 0.08611407 -0.08256326 -0.10044491 0.3364596 0.08404492
-0.019220397 0.018985245 0.06714561 -0.2507746 0.019992365 0.015907452 -0.20948748 0.052131616
-0.17768833 0.31056795 -0.18951541 -0.2367646 0.38704985 -0.007351397 0.25141096 -0.46836317
0.172368 0.025048045 0.11511072 -0.052937295 0.031907436 -0.42880878 0.03713078 -0.12700054
0.107128955 0.2663692 -0.1514922 -0.15926377 0.026717259 -0.11279498 -0.117204316 0.114470996
0.1542581 0.2880656 0.046922795 -0.13280751 -0.2565782 -0.18682377 0.027755495 0.08292882
-0.27436128 0.110025525 0.05039321 0.4353169 -0.6077582 0.35499904 -0.24613455 0.5059987
0.05749629 -0.27023515 -0.603697 0.48762557 -0.061813403 0.5325299 -0.30438772 0.19635403
0.03503315 -0.32328466 -0.1755234 -0.31684136 0.32487345 -0.305122 -0.08102322 -0.17977849
0.1551547 0.24508022 0.059103075 -0.15785837 -0.24621998 -0.21384938 0.21272217 0.15854609
-0.123528585 -0.20276697 -0.21065815 0.09234759 -0.009257994 0.20188864 -0.09020947 0.22835916
0.15642036 -0.019542456 -0.17558935 -0.112721525 0.008715814 0.006588945 -0.24291477 -0.19999926
-0.13327459 0.082505435 0.30110702 0.21685146 -0.018086486 -0.24993834 0.13639903 0.092176005
-0.21857506 -0.2655691 -0.24221222 -0.08531404 -0.27300644 -0.14550231 0.18818238 0.25056693
-0.1685218 -0.18497759 0.055654496 -0.25874355 -0.25765234 0.028581226 0.24579792 -0.06372045
0.1534436 -0.30549863 -0.08551595 -0.1279277 -0.15786016 0.23645762 0.2271648 0.26925912
0.072264254 -0.29783124 0.3213087 0.11959938 0.16493624 0.04361297 0.2781569 0.03030733
-0.27314746 -0.26664317 -0.049752053 0.21527728 0.10667216 -0.2166335 0.14862151 0.1365444

encoder.blocks.0.attn.proj.weight f4 [16, 16]
00000000: 16af c8be 9dbf 1d3e f61d cbbe c9ed 1e3e
00000010: f34e 79be 530c d5bd a089 5f3d 2bcc 9bbb
00000020: f586 b23e 3c38 483d 2b77 7f3e 9d2b 8dbe
00000030: 4c4e 8abe 26ab 71be 7958 35bd ef9a b3be
00000040: 56fc 36be 5189 1a3d e099 4c3d b335 0dbe
00000050: 0f96 0bbe 2ae5 3b3e 7439 943e 31a7 483e
00000060: 1e79 79bd 4c35 983e 2bba 05bf 7114 dabe
00000070: dfa9 96be 398a 663d 3c5b 2e3c 5851 30be
00000080: 34b2 20be ac52 6b3e ddc7 593e 40e5 cc3d
00000090: e4ee a3be b2a6 04be 5e52 ac3e 13ad a53e
000000a0: 396d 8c3e 30a4 31be 8b63 f1be 55fc 12bd
000000b0: d630 ccbe 5ae6 7bbe 377d acbe 9711 173d
000000c0: c8c3 f2be 4b83 88bd aae4 a9bd ac6f 67be
000000d0: 60d1 96be 7622 ac3e 806c 2bbe e774 f9bd
000000e0: d809 9c3c 3b04 6fbe fa97 853e 419e 12be
000000f0: 50e6 ba3d 469a 74be 2d35 413c ba0d 05bc
00000100: 717c 8ebe 5a05 fdbd 1a46 a6bd 300a debe
00000110: c4f7 a9be 76a6 8dbe 1403 e73e 0b39 c8be
00000120: 191d 853e 2499 fbbd d8e2 52be 4f58 4abe
00000130: 237a 39be 0889 1dbe cb74 ba3e 9963 b6bd
00000140: cb1b c0be 16af 933e 2ccc 3d3e 3657 c93e
00000150: 4c8e fabd f3f6 1ebe bad5 993e 8e60 babe
00000160: 2496 70be 1502 70be 6e99 3dbe f69f 56be
00000170: cb99 bdbd be23 bc3e 1fcf cc3e 652d bebe
00000180: fc08 e4be de66 95be e59d ccbd 51e7 9abe
00000190: 117e c83e a739 433d df56 8ebe 5660 5b3e
000001a0: e949 d2be fa36 1ebd cb49 ebbe 125d b7be
000001b0: 2ab4 9e3e 04cc ca3e 4470 1b3e 24e4 d1be
000001c0: dd0e a7bd 63fd ed3e e34b 0dbe a2ae 633e
000001d0: e152 88bc 04fe 6a3e bdc7 a93e c722 c9be
000001e0: 758d 9cbe a9eb 9c3e 03a3 d6be 8322 eb3e
000001f0: b635 9d3e 4a42 a3be d526 5fbe ebda a83c
00000200: 5778 87bd 1fb2 00bf 81cb 813e 96dd 22be
00000210: 1056 a83e 0f2a 593e bde1 003e fe0b bdbe
00000220: 2cd4 12be 179c f6bc b663 c33e 7667 9a3e
00000230: b81a f13e 3c6d 893e e796 de3d 383b f3be
00000240: bf6e e23d fcf6 be3e d1a9 b2be 5dbf 9abe
00000250: 6b30 413e c726 843e ebe7 07be 212d dcbd
00000260: e369 853e 7932 16be 893d 503d 5bc1 f2be
00000270: 4de6 ffbd f875 9e3e 5f3b 883e 189e 46be
00000280: bfad cc3e 6fe5 ebbe 8754 75be 6903 a3be
00000290: 0f0f d43e e31f b8be 8fe9 9d3e 5d2b d2be
000002a0: 49ed ad3e 02b3 2abe 7af9 2c3e 77d3 c6be
000002b0: 7f4f d7be 97c3 11be 9d42 b23b c5a4 c0be
000002c0: 8acd 963e b4e5 b53e 9681 a03e 23e9 5ebe
000002d0: 11fb 233c dfef 0b3e 09cf b4be b060 ea3c
000002e0: 60a5 afbd bfc5 d13e 67dc 84be 8996 debd
000002f0: b8f2 503e b691 6d3e c0c3 75bd 95ce 31be
00000300: 9a3c cd3c b2ea 5fbe cee3 a4be 8e3b 423e
00000310: 30f8 4d3d f7c2 d53e 0891 b63d ea6d cfbd
00000320: 52c4 f33e 8738 4cbc 68a2 ed3e 4b5e d0be
00000330: 135b 2fbe a7b9 2c3d 8191 89bb bf9e ce3e
00000340: 925a 8e3d 0963 063e e785 8e3e e4b2 9b3e
00000350: a9c1 c43e 2680 303e 63de a1be fb8b 9cbe
00000360: 8d0f d9bc 7bcc 07bf 0ae6 0fbd e3dc 1bbe
00000370: 4fae 1a3e 7bea 993e e3c9 92be 90fd 56bd
00000380: 283d 4bbe c783 afbd 0678 d03e cc30 e8bd
00000390: b6e0 5b3b f50e 5b3e 1021 07bd 8649 ae3d
000003a0: 73b2 81be 25b5 ccbd 72b9 3f3e 0e85 d13c
000003b0: a5ca adbe 0254 913e 8465 e93d d53f b83e
000003c0: 011c 643d 80b3 ff3e a6d3 023e 35a4 e03e
000003d0: a8ef aabe 812f 133e 0910 a9be 06c5 e53e
000003e0: 9342 cc3e f3bd 063e 7a24 4f3e cf97 89be
000003f0: dee5 f4bd 5caa e73e a53f 013e a798 7b3e
-0.3919608 0.15405126 -0.39671296 0.15520395 -0.24346523 -0.10402741 0.05457461 -0.0047545633
0.3486859 0.048881754 0.24947803 -0.27572337 -0.2701286 -0.23600444 -0.044273827 -0.35079142
-0.17869696 0.03772861 0.049951434 -0.13790016 -0.13631462 0.18349138 0.28950083 0.19595028
-0.060906522 0.29728162 -0.52237195 -0.4259372 -0.29426476 0.056284163 0.010641869 -0.1721853
-0.15692979 0.22980756 0.21267648 0.100046635 -0.32018197 -0.12954214 0.3365659 0.32358608
0.2742708 -0.17347789 -0.47146258 -0.035885174 -0.3988101 -0.24599591 -0.3368928 0.03688201
-0.47414994 -0.06665667 -0.08295567 -0.22601193 -0.29456615 0.33620042 -0.16740608 -0.121805005
0.019047663 -0.23341458 0.2609251 -0.14318182 0.0912596 -0.23886976 0.011792463 -0.008120948
-0.27829316 -0.12354536 -0.081188396 -0.43367147 -0.33196843 -0.27666062 0.45119536 -0.3910602
0.25998762 -0.12285069 -0.20594347 -0.1976025 -0.18112998 -0.15384305 0.3641723 -0.089057155
-0.37521204 0.28844517 0.18534917 0.3932435 -0.12234172 -0.15523891 0.30045873 -0.3640179
-0.23494774 -0.23438294 -0.1851556 -0.20959458 -0.09257849 0.3674602 0.4000177 -0.37144008
-0.44538105 -0.29180044 -0.099910535 -0.30254605 0.3915868 0.047662403 -0.27800652 0.21423468
-0.41072014 -0.03862665 -0.45954737 -0.35813195 0.3099683 0.39608777 0.15179545 -0.4099437
-0.08157132 0.4648238 -0.1379848 0.22234586 -0.016641082 0.22948462 0.331602 -0.39284346
-0.30576673 0.30648544 -0.41921243 0.45924768 0.3070504 -0.31886512 -0.21792157 0.0206122
-0.0661475 -0.5027179 0.25350574 -0.15904841 0.3287816 0.2120745 0.12586112 -0.36923212
-0.1433875 -0.030103726 0.3816201 0.3015706 0.47090697 0.26841152 0.10868626 -0.47506118
0.110562794 0.3729781 -0.34895185 -0.30224124 0.18866126 0.25810835 -0.13272063 -0.10750795
0.26057348 -0.14667691 0.050839934 -0.47413144 -0.12495098 0.30949378 0.26607797 -0.19396245
0.39976308 -0.4607348 -0.23958026 -0.3183854 0.4141774 -0.35961828 0.30842254 -0.4104871
0.33970097 -0.16669849 0.16892043 -0.3883321 -0.42052838 -0.14234768 0.00544007 -0.3762571
0.2945369 0.35526812 0.31348866 -0.21768622 0.010008589 0.13665722 -0.35314205 0.028610557
-0.08576465 0.4097118 -0.25949404 -0.10868556 0.2040509 0.23200116 -0.060001135 -0.17363961
0.025053311 -0.21866873 -0.3220505 0.18968031 0.05028552 0.4175031 0.08914381 -0.10128386
0.47610718 -0.012464649 0.4641297 -0.4069694 -0.17124586 0.04216924 -0.0041982536 0.4035549
0.06950869 0.13123716 0.27836534 0.3040992 0.38429 0.17236385 -0.3161498 -0.30575547
-0.026496673 -0.5304639 -0.03513149 -0.1522098 0.15105556 0.30061707 -0.28669652 -0.05248791
-0.19847548 -0.085700564 0.4071657 -0.11337432 0.0033550686 0.21392424 -0.032990515 0.08510117
-0.25331458 -0.09995488 0.18723086 0.02557614 -0.33943668 0.28384405 0.11396316 0.359862
0.05569077 0.49941635 0.1277605 0.4387528 -0.33385968 0.1437359 -0.33020046 0.4487688
0.39894542 0.13158397 0.20228758 -0.26873633 -0.11957906 0.4524716 0.12621935 0.24569951

encoder.blocks.0.attn.proj.bias f4 [16]
00000000: 52da 5f3d 3993 aebc fb56 f13c 993b 3fbc
00000010: 5c13 2ebc 272e 8dbb 6013 38bd 29b8 33bd
00000020: f52f 55bd 2aab fc3c 7718 f63c 6e33 8fbc
00000030: 1f95 e83c 9065 1e3d 38dc 36bd a951 55bc
0.054651566 -0.021310436 0.02946042 -0.011671924 -0.010624733 -0.0043084803 -0.044940352 -0.0438768
-0.05204769 0.030843336 0.030040963 -0.017480578 0.028391419 0.038671076 -0.04464361 -0.013019958

encoder.blocks.0.norm2.weight f4 [16]
00000000: 3293 5c3f 0ec8 7e3f c74c 5c3f ca03 713f
00000010: 5154 663f e39c 593f df7a 563f 27e7 623f
00000020: ab40 763f e203 523f 79e3 7b3f a140 613f
00000030: fd92 873f b7fa 5a3f 2202 813f a50f 6c3f
0.861621 0.9952401 0.8605465 0.94146407 0.89972407 0.85005015 0.83781236 0.8863396
0.96192425 0.82037175 0.9839397 0.8798924 1.0591732 0.8553881 1.0078776 0.9221137

encoder.blocks.0.norm2.bias f4 [16]
00000000: a64c 9cbc 2e71 8c3c b105 c8bd 3d7a ffbc
00000010: a06f 573d d9c8 a4bc f4c9 ba3d 085d 91bb
00000020: a8bd 573d 914e 0f3d 0b3b 6cbd 2c63 603d
00000030: f6d5 7f3c da2d a8bd 9353 f63c 5282 b5bd
-0.019079518 0.017143812 -0.097667105 -0.031186217 0.05259669 -0.020115303 0.09120551 -0.004436139
0.052671105 0.034987036 -0.057673495 0.054782078 0.015614977 -0.082118705 0.030069148 -0.08862747

encoder.blocks.0.mlp.fc1.weight f4 [64, 16]
00000000: cb0f 033e 6279 6a3e d52a 893d 179d 023e
00000010: 075c 6cbd a9dd 83be 10f9 4bbe a783 adbd
00000020: 7c1a 193e 1a6f acbe ebe2 93be b628 a5bd
00000030: 88c9 413d 82ff 16be 6733 493e 00ea 40be
00000040: 1674 63be a213 d93d 5d74 0b3e 2bc2 433e
00000050: 4b77 32be d8a6 a43d 6cf7 643e 657c cd3a
00000060: b8e5 14be f9f0 2ebe a6d0 003d e7e6 103e
00000070: 4c8d 073e ccc8 4d3e 1acc 8d3e ac1a 2a3e
00000080: 5c4e 903e 9151 85be 002b c63d 4180 26be
00000090: d6ba 293c 7f15 82bd 6abc 50bd 769b 3a3e
000000a0: 9827 18be b113 3cbe 64de 3b3e dd80 a6be
000000b0: 094f 3fbe 8c59 383d 3b15 463d 4f33 203e
000000c0: d77e 433e d777 7fbc d06b ea3d 97d6 873c
000000d0: b4fb a8bd 5bf6 b5bd 66b9 2cbe 38b3 633e
000000e0: 80b1 883d b2f6 c5bd a02e 503d ff27 5bbe
000000f0: d931 063e 0069 9bbd 270e c93d db3e fdbd
00000100: 2db0 f53d 9204 9e3e 2ff5 aebd e351 853c
00000110: 96ad 45be 5194 52bc 6311 edbd f36d 6c3d
00000120: f79b 6dbe 550e cc3d 0c32 a4be 6a0c 17be
00000130: a02d 10be eef1 0bbe caf5 a63c ff20 263e
00000140: f587 0fbe ca6b 013e fd7c 663e 6f74 be3d
00000150: fe54 45bc 3cb9 ae3d 8a1d 8dbe 2a1f 983e
00000160: 4439 22be 5015 243e 7e45 6a3e 7b35 8c3e
00000170: 8571 8bbe acf9 3d3e 1875 b7be 65de 443e
00000180: d4e9 c2bc 95fc c7bd 745d 3bbe 7467 413d
00000190: b5cb 3dbe ef9c 943e 583c c23d bbfd 13be
000001a0: 4db7 6ebd 2e9a e5bc 3d1f 123e e846 f93d
000001b0: 6eeb 0bbd 7166 41be 5aeb 7ebe 2e9d eebd
000001c0: 702f b7bd 006e 5bbe 4ad5 06be 1c83 793e
000001d0: fa70 853e fbeb 27be d18c 213e 98a5 5b3e
000001e0: af7f 2c3e c707 39bd aae6 0bbe e486 22be
000001f0: f65f 10be 4182 f03d 9687 1bbe baaa bf3c
00000200: 9274 b83d 3a99 453e cc78 313e 075d de3d
00000210: d57b 983d cbb1 d83d d6a8 473e a111 8f3e
00000220: dd8f 8abe d698 08bd 1924 babd 5a78 32be
00000230: ddeb 02bd b180 743e 6615 aabe 9913 33bd
00000240: a059 01be 6ea1 7a3e b468 f6bd 2f86 283d
00000250: 8529 57bd dbe0 e0bd 366a 3cbe 88b0 a13d
00000260: cb61 953e 2130 413c f076 0b3c 1d37 523e
00000270: f2b0 a0bd ef85 463d 0840 b9bd 72b3 bcbd
00000280: 68ae 1e3e ad39 6bbd f365 163e 2b6b c5bc
00000290: f479 313c fa45 0f3e 996e 0f3d 1e18 eb3d
000002a0: 32d8 20be 6f24 8bbc 5935 263d 1d5f 1b3e
000002b0: 812d d5be e025 943d 674a 12be e303 313e
000002c0: b001 0b3e cd59 a2bd d740 36be 97e9 e03d
000002d0: b63e 893e f179 30be 640d 233d 5cb1 de3b
000002e0: a75a 03be 81c8 973b f1ce 1a39 4a89 0f3e
000002f0: 650d e9be 8995 61bd d53b 793e 13ee e53c
00000300: 1515 20be 506b 753e 4b2d 4cbe ee31 3d3e
00000310: 0771 133e ddfe 89bd 30aa 7abe 010f 6e3e
00000320: 3098 283e de63 02bd 2e53 d5be ec84 7a3d
00000330: 6e22 853d 5e78 08be 8816 95be 91e6 8e3d
00000340: 5ef6 053d 76f2 0b3e 41f9 aabd e979 e23d
00000350: ba96 553e de6b 18be 645b 953d 1995 873e
00000360: b058 553e 796d 5d3e ac79 94be 8ee3 a2bd
00000370: f704 7dbe 299d 60be a05c 26bd 9acc 133e
00000380: ff42 e6bd d750 83bc 5bbe 95be 7687 8239
00000390: 2d4e 8d3d 3926 093e f8ce 963c b917 f83d
000003a0: a3fa 813e 328c 523e c9ba f3ba 81af 953c
000003b0: 2397 9ebe db80 193d ba1f ae3d 4f84 fdbd
000003c0: c633 963d dd9d ff3d 3c75 bd3d ed66 b9bd
000003d0: 2516 52be c38d 6f3e bdb9 20be 78c1 873d
000003e0: 09aa 703e 48be 8abd 9bb0 493e acfd 5ebd
000003f0: 8ec5 aa3e 9d72 a9bc 2ad7 8a3e 4a85 b2bc
0.12798993 0.22897866 0.06697623 0.12755238 -0.05770495 -0.2575505 -0.19919229 -0.08472376
0.14951509 -0.33678514 -0.28884062 -0.080644056 0.047311336 -0.14745906 0.19648515 -0.18839264
-0.22212252 0.10599448 0.13618608 0.19117038 -0.17428319 0.080396354 0.22360009 0.0015677331
-0.14540756 -0.17084111 0.031448983 0.14150582 0.13237494 0.20096129 0.2769478 0.16611737
0.28184783 -0.26038793 0.0967617 -0.16259862 0.010359487 -0.06351756 -0.050960936 0.18223366
-0.14858854 -0.18366887 0.18346554 -0.3252019 -0.18682493 0.045007274 0.04836009 0.15644573
0.19091354 -0.015592537 0.11446345 0.016581817 -0.082511336 -0.08884879 -0.16867599 0.22236335
0.066744804 -0.09666194 0.050825715 -0.21401976 0.13104953 -0.075883865 0.098171525 -0.12365504
0.119964935 0.30862862 -0.08542859 0.016274398 -0.19304499 -0.012852744 -0.11575582 0.057722043
-0.23204027 0.09963671 -0.32069433 -0.1475083 -0.14079905 -0.13666508 0.020380873 0.16223525
-0.14016707 0.12638775 0.22508617 0.09299552 -0.0120441895 0.085314244 -0.275616 0.29711276
-0.15842158 0.16023755 0.22878072 0.27384552 -0.27235046 0.18552274 -0.35831523 0.19225462
-0.023793139 -0.09764973 -0.18297368 0.0472178 -0.1853474 0.2902598 0.09484166 -0.14452259
-0.058280278 -0.02802762 0.14269729 0.121717274 -0.03416007 -0.18886735 -0.24894467 -0.116510734
-0.08944595 -0.2142868 -0.13167301 0.2436642 0.26062757 -0.16398613 0.15776373 0.21449888
0.16845582 -0.045173433 -0.1366221 -0.15871769 -0.14099106 0.11743594 -0.1518844 0.023396838
0.09006609 0.19296733 0.17331237 0.10857587 0.07445494 0.10580786 0.19498 0.27943137
-0.27062884 -0.03334888 -0.09088916 -0.17428723 -0.031963218 0.23877217 -0.3321945 -0.04371986
-0.12631845 0.24475643 -0.12031689 0.041143592 -0.05252983 -0.10980388 -0.18399891 0.07894999
0.29176173 0.01179126 0.008512244 0.20528837 -0.0784625 0.048467573 -0.09045416 -0.09213914
0.15496218 -0.05742805 0.14687328 -0.024098953 0.010832299 0.13991538 0.035017584 0.11479209
-0.15707472 -0.016985146 0.04057822 0.15173002 -0.4163628 0.072337866 -0.14286195 0.17286639
0.13574862 -0.079272844 -0.17798172 0.10982054 0.26805657 -0.17234017 0.039807692 0.006796045
-0.1282755 0.004632056 0.00014763676 0.14017215 -0.45518032 -0.05507425 0.2433923 0.028067624
-0.15633042 0.23966718 -0.19939153 0.18476078 0.14398585 -0.067380644 -0.24478984 0.23247911
0.16464305 -0.031833522 -0.41665024 0.06116192 0.065007076 -0.13327166 -0.29118752 0.06977571
0.032705657 0.1366671 -0.08348323 0.11058409 0.20858279 -0.14884898 0.07292822 0.2648094
0.20834613 0.21623792 -0.28999078 -0.07953559 -0.24708925 -0.21934952 -0.040615678 0.14433518
-0.11243247 -0.016029758 -0.29246792 0.00024896458 0.068996765 0.13393487 0.018409237 0.121139
0.25386533 0.20561293 -0.0018595095 0.018272163 -0.30974683 0.0374764 0.08502145 -0.123787515
0.07334094 0.12481282 0.09250876 -0.09052835 -0.2051626 0.23393922 -0.15695854 0.06628698
0.23502363 -0.067745745 0.19696276 -0.05444114 0.33353847 -0.020684535 0.27117282 -0.021792073

encoder.blocks.0.mlp.fc1.bias f4 [64]
00000000: dbf0 29bd 2b65 2abd 9b47 4bbd 3a84 7dbd
00000010: 7674 94bd 34bf 043d 3395 2d3d b2da d33c
00000020: ed5c c53c 09c7 ccbd 1500 00be 51ba 72bd
00000030: 9eff 4ebd 6c70 a8bc 8c4c 88bd df8e 253c
00000040: bed1 333d ccfe 3abd 271c 393d dace 39bc
00000050: 2450 17bd 8a8c cebc f7c4 cabd 7364 67bd
00000060: 2cd6 bdbc 057f 99bd 6181 053d 70d8 29bd
00000070: f7f2 113d d905 61bd 6a0b 7dbd 9733 18bd
00000080: 2e31 1bbd a95c 0dbd a877 f8bc f886 22bd
00000090: a8ff 0fbd 60a9 a73c 81ff 1abd adba 9cbd
000000a0: 1c2b 84bd 1b56 f13c 214d a0ba 6448 403d
000000b0: e605 4abb 575a 8fbd 83e1 cdbd 7d83 43bd
000000c0: 7464 18bc 9070 8cba f86e 77bd 2b09 983c
000000d0: 3042 0cbb 5af6 10bd ed05 54bd 8c84 20bd
000000e0: e6dd 25bd ea59 0d3c 6a9b f6bc 05a1 35bd
000000f0: 57fc 57bd dacf 8dbc e046 17bd 8f9e 0a3d
-0.041489463 -0.041600388 -0.049628835 -0.06189368 -0.07248776 0.032408908 0.042378616 0.025861118
0.024092162 -0.099989004 -0.12500031 -0.059259716 -0.050536744 -0.02056142 -0.06655225 0.010104864
0.043901198 -0.04565315 0.045192864 -0.011340821 -0.036941662 -0.025213499 -0.09900849 -0.05649228
-0.023173414 -0.0749493 0.03259409 -0.041466177 0.0356321 -0.054937217 -0.061778463 -0.037158575
-0.0378887 -0.034512196 -0.030330494 -0.039679497 -0.035155922 0.020466506 -0.037841324 -0.07652793
-0.06453535 0.029460004 -0.0012230017 0.046944037 -0.003082627 -0.06999653 -0.100527786 -0.04773282
-0.009301294 -0.0010714699 -0.060408562 0.01855906 -0.0021401756 -0.03539119 -0.051763464 -0.039188907
-0.040494822 0.008627394 -0.030103404 -0.044343013 -0.052730884 -0.017311025 -0.036932826 0.03384262

encoder.blocks.0.mlp.fc2.weight f4 [16, 64]
00000000: 6bc3 ff3d 75a3 b7bd 34d2 ae3d 7460 52be
00000010: 84b4 15be 9991 b6bd 6a94 8a3d 51b9 4e3e
00000020: e55f c2bd 75d6 7e3e 142b e73d fa42 413b
00000030: 05d4 1e3e 56e4 babd 784a 3f3e d1fa 53be
00000040: bc58 4bbe 1ca5 3e3e 77f6 f03c 000d 03bd
00000050: fc08 523e 2951 223d a3c0 693e a85d 64be
00000060: 6d3d b7bd 8c17 76be ad99 6bbe c080 19bd
00000070: 3a6e 07bd fe2f af3d 3cf8 95be a999 f6bd
00000080: d3dc 4e3e 4a5a a93c d44f b2bd 1ea9 883e
00000090: c677 40be d279 713e 0961 54bd fcfb f2bc
000000a0: 6a8e 533e 69b7 b2bd e05b 82be 1ad4 bd3c
000000b0: b364 0b3e bc8e 80bd 3abe 353e 4451 6bbe
000000c0: 9491 333e 870d 5cbe c813 d3bc 4066 8e3e
000000d0: c4ee 3a3c b289 823d 4eb4 ff3d 2fb0 7d3e
000000e0: 7360 67be c065 4ebe 9fb2 863e 9f23 1d3e
000000f0: 817d 5bbe c97d 98bd 2bee a0bd 6ba5 bdbd
00000100: 731c 943c c5a5 1f3e 551f 2a3e b908 8e3e
00000110: 1ad1 523e e487 c83d 0b68 593e dab8 4ebe
00000120: 5335 9fbd c499 82be 689e 4dbe 49c8 2c3d
00000130: 87f3 02be d5e7 abbc bd3a 2fbe d887 b83e
00000140: d9e6 b4bc 3636 4e3d b96a a83e 1013 693e
00000150: 1a6a a2be c199 07be 3b96 27be 6170 473c
00000160: fad9 323e 88d7 873c 13a8 e8bd 0f73 1bbe
00000170: 2156 3abe aab5 8bbe 52ce 473d 61b4 fbbd
00000180: e03a 4e3e 0168 46be 787a 983d 79fe 813d
00000190: dfd2 5a3d 0b2d 29bc 4041 2a3e 81e0 31be
000001a0: 3da9 273c 00c8 16bd 4804 90bd 7b88 c33b
000001b0: dc99 8abe c0ea 29bd 4f12 d1bd f347 433d
000001c0: 8ab8 7d3e a02b 60be edac 953c f31e 98be
000001d0: 5da3 26be e271 75bc bce2 593e bff4 0bbc
000001e0: 9a93 653c c768 6bbe a904 5cbd 1223 46be
000001f0: 09bb 20be a10f bbbd 859c 5f3e f5d7 0cbe
00000200: dc57 2d3e a039 a1bd 1b7f 47be 5b83 69be
00000210: 793d 273e d6c1 16bd 45b3 493d 7d8b b33d
00000220: 1731 06be c316 273e b296 4ebe bb18 1bbd
00000230: a523 7cbd 9b14 6abd 96d5 8f3e e67d 35be
00000240: a59a 223e 4a83 44be 4053 e23c 2d6f 783e
00000250: 2d0a 973e dbc4 da3c 674d cebd 8128 e8bd
00000260: 6e49 4bbe e547 15be b8d0 603e 3425 b53d
00000270: 1b13 9abe 71ec d6bc f352 d9bc 4a8a 463e
00000280: ae4e 37bd afd9 19be 0a36 873e 4323 893e
00000290: 62f4 68be baaf 0a3d e464 213e 2ee0 19bd
000002a0: 7201 1abe 8218 2f3e 1a0a 783d 0520 7e3e
000002b0: c2c0 663e 85ab 0abc 8c59 233e 1ed7 9a3d
000002c0: a018 303d 4061 503c 47ab c4bc 55c0 b2bd
000002d0: 7f0f a93d 4b7b 75be b20a c3bd f02e 41be
000002e0: f5d9 84be db3f 90bc cc06 4bbe 9adc febd
000002f0: b138 be3c 9820 253c 8f02 ca3c 4541 8b3e
00000300: 24b9 213e 00f3 613e 2865 0d3e 70d9 69bd
00000310: ee60 aabc 61bd 86be bd97 89bd c98d 5f3d
00000320: a247 3a3e 2447 81be 8dfe 67be acca 8c3d
00000330: e7df a2be 3bc5 66be a38a 18be c4ab 223e
00000340: f847 37be a11d 0dbe a5f0 603d ae6e 823d
00000350: b070 99be b4bc 1d3e 53a8 c2bd c78a 913e
00000360: fe53 6ebe 8143 0cbe e8e2 95bd 5ed7 233e
00000370: d643 6fbe 85c1 81be 1969 283e 2388 ec3d
00000380: c2b3 cfbd 1d23 193e 10d8 72be e084 363d
00000390: 5f92 803d 3c47 ad3d 6df8 353e a0af 2a3e
000003a0: 161b 3f3d 3001 153e 4e2d 86be 33f3 eabd
000003b0: bf6e 40be 50d5 1a3e 2f21 473e 3c3a 23be
000003c0: 5360 7bbc fc33 55bd f4bf 4bbe 6c67 babd
000003d0: ac3a 633e dfe7 4cbe 268e 683c 5fad 773d
000003e0: 8c58 8c3c 7283 173d 4fc0 8ebe e5c0 fcbb
000003f0: 7dd2 a53c 482f 6bbe 41e1 043d bc98 6e3e
0.12488445 -0.08966724 0.08536187 -0.20544606 -0.14619642 -0.08914489 0.06766589 0.2018788
-0.09490947 0.24886496 0.112875134 0.0029489384 0.15510567 -0.09125583 0.18680751 -0.20701148
-0.19858068 0.18617672 0.029414399 -0.03199482 0.2051124 0.03962818 0.22827391 -0.22301352
-0.08947263 -0.2403242 -0.23007841 -0.0374763 -0.033064105 0.08554076 -0.2929095 -0.12041027
0.20201425 0.020672936 -0.08706632 0.26691526 -0.1879569 0.23581627 -0.051850352 -0.029661171
0.20659795 -0.08726389 -0.2546072 0.023172427 0.13612632 -0.062772244 0.17748347 -0.22980219
0.17536002 -0.21489535 -0.025766268 0.27812386 0.011409465 0.063739195 0.12485562 0.2477424
-0.22595386 -0.20156002 0.26308152 0.1534562 -0.21434595 -0.074458666 -0.07857927 -0.092600666
0.018079972 0.1559058 0.16613515 0.2774103 0.20587578 0.09791544 0.21231095 -0.20187703
-0.07773843 -0.2550794 -0.20079958 0.042183194 -0.12788211 -0.02098457 -0.1711225 0.3604114
-0.022082733 0.05034467 0.32893923 0.22761178 -0.31721574 -0.13242246 -0.16365902 0.012172789
0.17465964 0.016582265 -0.113601826 -0.1518061 -0.18196918 -0.27287036 0.048780747 -0.12290264
0.20139647 -0.19375612 0.07445234 0.06347365 0.05342376 -0.0103256805 0.16626453 -0.17370798
0.010233221 -0.03681183 -0.070320666 0.0059671975 -0.2707051 -0.04148364 -0.1020857 0.047676038
0.24777427 -0.21891642 0.018270934 -0.29711112 -0.16273256 -0.014980765 0.21277899 -0.008542239
0.014012242 -0.22989188 -0.05371538 -0.19349316 -0.15696348 -0.0913384 0.21837051 -0.13754256
0.16928047 -0.07872319 -0.1948208 -0.22804014 0.16332044 -0.03680595 0.04924323 0.0876684
-0.13104664 0.16317277 -0.20174673 -0.03786538 -0.06155743 -0.057148557 0.2809264 -0.17723808
0.15879305 -0.19190708 0.027627587 0.2426116 0.2949995 0.026705196 -0.10073357 -0.113358505
-0.1985223 -0.14578207 0.2195462 0.088449866 -0.300927 -0.02623579 -0.026528811 0.1938869
-0.04475277 -0.15024446 0.26408416 0.26784715 -0.22749475 0.033858992 0.15761143 -0.03756731
-0.15039614 0.17099193 0.06055651 0.24816902 0.22534469 -0.008463745 0.15952128 0.075605616
0.042992234 0.012718499 -0.024007453 -0.08728091 0.08254909 -0.23972814 -0.09523524 -0.18865561
-0.25947538 -0.017608574 -0.19826812 -0.1244442 0.023220392 0.010078572 0.024659423 0.27198234
0.15793282 0.22065353 0.1380812 -0.05709213 -0.020798173 -0.2631636 -0.06718395 0.054578576
0.18191388 -0.25249588 -0.22655697 0.06874594 -0.3181145 -0.22536175 -0.14896636 0.15885836
-0.17898548 -0.13780834 0.054916997 0.06368767 -0.29968786 0.15404016 -0.095047615 0.2842619
-0.23274228 -0.13697626 -0.073186696 0.16000125 -0.23365721 -0.25342956 0.16446342 0.115494035
-0.10141708 0.14954801 -0.23715234 0.044560313 0.06277918 0.084608525 0.17770548 0.16668558
0.04665669 0.14551234 -0.2620644 -0.11472168 -0.18792246 0.15120435 0.19446252 -0.15940183
-0.01534279 -0.05205153 -0.19897443 -0.091017574 0.2219035 -0.20010327 0.014194047 0.060468074
0.017132066 0.03699059 -0.27881095 -0.0077134245 0.02024197 -0.22967255 0.03244138 0.23300451

encoder.blocks.0.mlp.fc2.bias f4 [16]
00000000: 00f6 5c3c ebec 973c fd08 1a3d 166d a8bc
00000010: 12b1 b1bc 27ab 69bd 456f 1dbd 945a 37bc
00000020: 8395 1e3a c7a2 e83c e1af 933c d626 b3bc
00000030: 40af 353c b2e9 0e3d b034 26bd e409 61ba
0.013486385 0.018545588 0.03760623 -0.020559829 -0.021690879 -0.05704799 -0.038436193 -0.011191029
0.00060495007 0.02839793 0.018028202 -0.021869104 0.011089146 0.034890838 -0.04057759 -0.00085845427

encoder.blocks.1.norm1.weight f4 [16]
00000000: 2a58 7f3f a2ae 7c3f c15c 7b3f 36dc 793f
00000010: 6f2f 703f ac79 813f 2efe 873f e544 773f
00000020: ba2b 8e3f a94f 8f3f c007 883f f069 793f
00000030: 5d58 873f 9949 953f 91b7 863f 7e52 7d3f
0.997439 0.9870397 0.98188406 0.9760164 0.9382238 1.0115256 1.0624444 0.965895
1.1107094 1.1196185 1.0627365 0.9742727 1.0573841 1.1663085 1.052477 0.98954

encoder.blocks.1.norm1.bias f4 [16]
00000000: 3b3a 4c3d 2b4f 37bd 8240 313d ee62 14bd
00000010: b0b1 95bc b208 25bc 5d2f 2bbd d87a 1cbd
00000020: d6cd a3bd f35d 283d ad8a 273d 58a4 35bd
00000030: e353 653d 2e0c 0d3d 8a19 fabc 2261 ba3c
0.04986022 -0.044753235 0.04327441 -0.03622716 -0.018273205 -0.010072874 -0.041793216 -0.03820309
-0.079982445 0.041105222 0.040903736 -0.044346184 0.055988204 0.034435444 -0.030529756 0.022751395

encoder.blocks.1.attn.qkv.weight f4 [48, 16]
00000000: 56e8 733e 0a92 4abd dc50 653e 55de 39be
00000010: f139 53be 61ae 87be 8c9e 16be b726 98bd
00000020: 4c32 fcbd 33a9 39be fbe4 35be 3f9c fdbd
00000030: 9023 dbbd a19a 45be 3478 70be 94b8 313d
00000040: 6167 8abe f572 debe 694c b53d 91eb 0c3e
00000050: c763 8abc ec65 dc3d 1894 46be fa97 a0bd
00000060: 1ae3 84be 783a cf3e b5e5 3a3e 074f e1be
00000070: fb7e 13be 7b78 c7bd 928c 6e3d 8bed c63e
00000080: edc8 3cbd f60b e93d 7885 2fbd 8afb 7e3e
00000090: 7b7e 2ebe 4426 393c 39f2 fe3d 8310 20be
000000a0: f895 db3d 58a9 c03c 3b53 b039 eda7 633d
000000b0: 65cc ec3d 1b3c 4ebe 2d3c 0bbe 6daf 98be
000000c0: 5257 0b3d db80 24be ef9c 473e 0d67 403e
000000d0: 4087 7e3e 7fd0 303d f6b5 8a3d 160d b23e
000000e0: 3b99 4b3d 6d34 203e 433f 9c3d 4374 4b3e
000000f0: 666d c6bd 0ab0 1cbe 5568 15be 9b2c b13d
00000100: 2a26 80bd 80ba ea3d 2a43 a0be dd85 61be
00000110: 53f3 7cbe 7e13 d4be a166 e93e bc86 253e
00000120: 053f 3d3e 9dd2 fcbd 2b0c e4be 75d8 a83e
00000130: 658d bcbe 550f 0bbe f4e6 853e e655 dcbe
00000140: f857 17be 82d3 9f3e c479 4e3e 9aa8 9cbb
00000150: c91b 10bd dcf2 a03e a752 53be 63de 4c3e
00000160: 1bfb 1dbe 4fcb 72be 4deb 293e 1af5 8dbe
00000170: ca93 4dbc c1ca 4cbe b167 5e3e 13d2 dd3d
00000180: 2576 dbbd 27b2 38bc a3be 04bd 26c4 62be
00000190: e930 91bd 03c4 8f3e 3605 ba3d 0476 02be
000001a0: 23c8 f4bd b0dd c23e f9dc 793e b42a 393e
000001b0: 7024 7a3e 5a5d ab3e ebbb b1bd e09b 5b3d
000001c0: 498b 4dbe 46f8 463e 63aa a03c 3371 83be
000001d0: 8165 c43d 3935 223d bf01 b43d 75de cf3d
000001e0: 3737 c63d dc12 17be 6b8b 3d3e 46b3 813e
000001f0: af10 ed3d 8601 a1be c055 8fbe c65c 793e
00000200: 08ea db3d d4c0 3ebe 575a 9ebe 841e fc3d
00000210: c4fa 6b3e 6302 c03e ffb3 dcbd ae15 bcbd
00000220: bc06 8a3e 8c89 693e 56f5 563e a689 83be
00000230: 5e52 88be a905 3d3e 4d27 7c3e 39dd 22be
00000240: b181 b33d 76b0 05be 212f 4dbc 1417 7d3e
00000250: 551e 263e 012e 79be d29f 673c 8f97 043e
00000260: f734 1b3d 8967 423e fa73 a0bc fe1e b23d
00000270: b7e3 87bd c21a ac3e bf3f 573e 33e4 6abe
00000280: 5fe0 4f3d aeae cf3d adb5 eb3d c68e 8bbe
00000290: 89f6 693e 51f6 1d3e 6fee 243e 35fe f23d
000002a0: edee 22be 31c4 873e 4993 dabe f630 933e
000002b0: 64a9 93bd 37f5 bbbe 723e 3e3e 533b 503e
000002c0: c383 38be 861a 34be bb41 ad3d 516c c8bd
000002d0: e33b 0ebe 3f8c 5abe d534 c4bd 2b1c 173d
000002e0: ed4e 82bc cd1b 63be 2f9b 0b3e b7e4 49be
000002f0: 0aca 56be 5a5b 1dbc f064 b6be 0354 58be
00000300: a3c5 233e 5551 8cbe 52ba 95bd 9cf2 393e
00000310: a2ce 973e e307 0e3d bff2 a0be 5432 fd3d
00000320: bcac e5be 2752 113e 54a8 99bd 7510 d0be
00000330: 24a7 8fbd d603 953e 8430 cdbe ab61 dc3e
00000340: f9c4 80bd 4f3b d1bd bf08 57be c0ec 363d
00000350: aa98 193e c156 333e 37d3 77be 23bc 72be
00000360: 457f 10be 17ed 343e 19b9 5dbe 5740 9c3d
00000370: aaa6 4dbe 5d06 163e 0d2d 773e f498 babd
00000380: 61c8 01bf 1899 d53c 0e67 cebe 1be5 733e
00000390: 6878 893d c6ad 503e fccd 803e bf30 8bbe
000003a0: 79fb 3e3e 7d02 17be 6270 afbe 9993 553e
000003b0: c59d 07be 65a5 4ebe 88dd f03d eddf 4bbe
000003c0: eeb9 45bf e76e 9d3e 1a01 a2be 8d35 45be
000003d0: 8785 29bd 3ac3 93be f757 78bd f540 a1be
000003e0: ad65 f13e ba96 d9bc c908 e3bd 294d f93e
000003f0: 8942 c13c 8c56 ffbd 5028 483e 6397 fabd
0.23819098 -0.04945568 0.22394127 -0.18151219 -0.20627572 -0.26500228 -0.14708918 -0.07429259
-0.12314281 -0.1813095 -0.1776313 -0.12383317 -0.107001424 -0.19297267 -0.23483354 0.043388918
-0.27031997 -0.4344708 0.08852465 0.13761736 -0.01689328 0.107616276 -0.19392431 -0.07841487
-0.25954515 0.40474296 0.18251689 -0.44005606 -0.14403908 -0.09739777 0.058239527 0.38853106
-0.046090055 0.113792345 -0.042851895 0.24900642 -0.17040436 0.011300627 0.12448544 -0.15631299
0.10721964 0.02351825 0.00033631347 0.05558007 0.11562423 -0.20140116 -0.13597174 -0.2982134
0.034018822 -0.1606478 0.19493459 0.18789311 0.24856281 0.043167587 0.067729875 0.3477561
0.04970668 0.15644999 0.07629254 0.19868569 -0.09688835 -0.15301529 -0.14590581 0.08651086
-0.06257279 0.11461353 -0.31301242 -0.22023721 -0.24702196 -0.4142112 0.45586112 0.16164678
0.18481071 -0.12344859 -0.44540533 0.32977644 -0.36826625 -0.13580067 0.26152766 -0.43034285
-0.14779651 0.31216055 0.20163637 -0.004780841 -0.035182748 0.31435287 -0.20636998 0.20006709
-0.1542782 -0.23710369 0.16593666 -0.2772606 -0.012547443 -0.1999922 0.21719243 0.10831084
-0.10715894 -0.011272944 -0.032408368 -0.22145137 -0.07089407 0.28079233 0.09083025 -0.12740332
-0.119522355 0.3805976 0.244007 0.18082696 0.24427962 0.3346966 -0.08678421 0.05361545
-0.20072664 0.19430646 0.019612497 -0.25672302 0.09589673 0.03960154 0.087893955 0.10149852
0.096785 -0.14753288 0.18510215 0.25332087 0.11575448 -0.31446475 -0.2799511 0.24351797
0.10737997 -0.18628246 -0.309283 0.12310508 0.23044878 0.3750182 -0.10776519 -0.091838226
0.26958263 0.22806376 0.20992026 -0.25690955 -0.2662534 0.1845919 0.24624367 -0.15904702
0.08764971 -0.13055596 -0.012523443 0.24715835 0.16222508 -0.24333955 0.014137225 0.1294844
0.037892308 0.18984808 -0.019586552 0.086973175 -0.0663523 0.33614165 0.21020411 -0.22938614
0.050751086 0.101407394 0.11509261 -0.27257365 0.22847952 0.15425994 0.1610658 0.118648924
-0.15911455 0.2651687 -0.42690495 0.28748292 -0.07210043 -0.36710522 0.18578508 0.2033513
-0.18019013 -0.17588243 0.08459803 -0.09786285 -0.13890032 -0.21342562 -0.095803894 0.036892097
-0.015906775 -0.22178574 0.13633417 -0.19716154 -0.2097551 -0.009604299 -0.35623884 -0.21125798
0.15993361 -0.274058 -0.073109284 0.18158954 0.29649836 0.03467549 -0.314352 0.12363115
-0.44858348 0.14191495 -0.07502809 -0.40637556 -0.070143014 0.2910449 -0.40076077 0.43043265
-0.062875696 -0.1021639 -0.2099943 0.044659376 0.14999643 0.17513563 -0.24201666 -0.23704581
-0.1411105 0.17668568 -0.2165264 0.07629459 -0.20083109 0.14650865 0.2413828 -0.09111205
-0.5069638 0.026073977 -0.40313 0.23817866 0.06712419 0.2037879 0.25157154 -0.27185628
0.18650617 -0.14747043 -0.3426543 0.20857085 -0.13243778 -0.2018028 0.11761004 -0.1990964
-0.7723683 0.30748674 -0.31641465 -0.19258709 -0.041387107 -0.28859884 -0.060630765 -0.3149487
0.47147885 -0.02656113 -0.1108566 0.4869168 0.023591297 -0.124676794 0.19546628 -0.12235906

encoder.blocks.1.attn.proj.weight f4 [16, 16]
00000000: 4fd2 563d a0f5 69be 384a 093e c9f5 8bbe
00000010: dbc7 d5be 3dc1 5e3d 1117 21bd 0000 d93c
00000020: 3f72 55bd d180 0a3e b386 bfbd 2858 1abe
00000030: 1050 953e 6cb0 b1be a77b dbbe 1932 56be
00000040: 66f7 a03e a6e4 003e 4b6d 9e3e 65b0 c1be
00000050: b3f5 ed3c 89e0 c03d 7959 c9bd 31cf d8be
00000060: 3a5a 593e 8a6d e1be e5af 643e 7ab0 ef3d
00000070: 0031 bfbd 6fec a93e ace5 09be 95f3 9fbe
00000080: 3d33 9fbe b266 503d b52c b53e 90a2 b6be
00000090: f527 953e ddeb 0cbe b7e8 863e b7a3 f4be
000000a0: 0ee9 9b3e abd8 2ebd b905 703e f5c7 b53d
000000b0: ef52 7e3e ef2e 98bd 2b91 85be 129c 45be
000000c0: 78ed 6ebe 90ee 603e 15aa bfbd 4998 893e
000000d0: 051b a83d a620 93be 365c 45be dc97 aebe
000000e0: 7e61 fabd 327b a03e 5269 673e d3c5 c0bd
000000f0: a670 29be 6179 0abe 428b c0bd 0776 ad3e
00000100: 7a32 003e 5e61 013f fdde bcbe 9f64 a4be
00000110: 1228 b8be 2521 1bbd 8de0 5fbe 955f 18be
00000120: 46c9 a8be ef3e a23e 9f8e 623c bdc3 823c
00000130: 64bf 44be 9e4e 6c3d 585d 8abe cf72 a9be
00000140: 9220 0fbe a08d 04bc 22a2 8e3e f803 d03e
00000150: ce69 a0be 1041 cebe 37ab b43e d7b8 5ebe
00000160: 7fb1 a83d 97de b73e 8773 8b3d 0491 95be
00000170: be4f 17bd d1cc cebe 414a 52be 3658 b4bc
00000180: 119c 283e e178 e3be 81ae bf3e 249e c83e
00000190: d2e2 9fbe 8372 82be 29fc 773e 3df1 1b3d
000001a0: 6514 2bbe 3a43 8cbe 480a dbbe c15e 2cbd
000001b0: 13bb a6be 6e9f 4fbe 58f8 943e 5f0c 1c3e
000001c0: 4aa2 643d 4f00 cf3e f14c 603e 1eba 16be
000001d0: d886 82be 2019 b73e 86d7 a53e 5ac9 dabe
000001e0: f969 14be dc84 9bbd 406c 83be f5bd c2bd
000001f0: 3ad6 983e 1e5f 86bc b862 22be d6b2 8c3e
00000200: da81 3c3e 2c01 3bbe 2937 bebe 43f3 883e
00000210: 0d45 ba3e 8272 09be b758 86bd 355a 733e
00000220: affc 623e 336e b03e adca 10be c2c7 523e
00000230: 14e5 a3be d981 553b db39 f6bc 44b1 b2be
00000240: fb24 abbe 5eb2 05be 3723 18be c35f 27bd
00000250: 3e14 ae3e 7fc7 82bc 3c8b ce3c 44c0 bcbe
00000260: 2bfe 3c3e d5d7 68be 167c a13e 65de 84be
00000270: 52c7 e43e a442 8ebe 2392 863e 4963 a8bd
00000280: d38b 91be 5812 643d b082 e9bd 5259 99be
00000290: 25c1 49be eaa4 9d3e 0e4c d23e fd0f e93b
000002a0: d013 a93e 4333 43bc 7494 8dbe e106 8bbe
000002b0: 5930 db3e e564 abbc eb7e a73d 4bec dc3e
000002c0: c474 a33e 5ce1 d73d d01d 8bbd 7fd6 06be
000002d0: 0c87 5cbe 9249 d3be 97e8 713e d80f e63d
000002e0: 1743 883e 4874 5bbe 8f05 9a3e e8b3 68bd
000002f0: 0a3d 883e 1712 e33e 5498 b33b 721f 043e
00000300: a40e 5f3e 482a fabd 3558 b03e 5f12 78be
00000310: 5c16 44be fde8 013e 7b99 5b3d ed89 8cbe
00000320: e77d 37bd 8f64 c93e dac4 373c a618 66be
00000330: 1ae0 7fbd 8b00 8cbe ff13 ddbd 1bcd 8cbe
00000340: 5c68 a43c 321a a63e 6df7 44be 9cc1 a83e
00000350: 5b15 eabe c71f da3e 169e afbe 75c9 7e3d
00000360: 719b bc3e e417 73be 1dce aa3e 46bd afbe
00000370: 38a8 a13e b163 ac3d ef16 fd3e d618 363d
00000380: 0f34 773e 218b 24be e7c2 1ebe 1941 8a3e
00000390: 6e12 bfbe 1cb8 873e 7e63 8f3e be38 33be
000003a0: 0cef 603e 7cb8 b6be 583d 8abe 8bdd babd
000003b0: e766 80be b256 bcbe 413f b83e 1ee8 393e
000003c0: ae1f 53be 2713 7cbd d7f9 8d3d 85a4 b63d
000003d0: 250a f03e b040 b43e 8e95 8c3e e163 e23d
000003e0: bef8 87bc fca9 71ba 0ae6 f4bd 0e35 9b3e
000003f0: 8538 ab3e bb25 7a3e 1393 613d 6110 193e
0.05244666 -0.22847605 0.13407218 -0.27335957 -0.4175404 0.054383505 -0.03932864 0.026489258
-0.052110907 0.13525702 -0.09351864 -0.15072691 0.29162645 -0.34704912 -0.42867777 -0.20917548
0.3143875 0.12587222 0.3094276 -0.3782989 0.029047823 0.09417827 -0.09831519 -0.42345574
0.21225825 -0.44028884 0.22332723 0.11703582 -0.09335518 0.33188197 -0.13466519 -0.31240526
-0.3109378 0.050879188 0.3538567 -0.356709 0.29132047 -0.1376185 0.26349422 -0.47781155
0.30451244 -0.0426871 0.23439683 0.088760294 0.24836324 -0.07430827 -0.26087317 -0.19297817
-0.23332775 0.21966004 -0.093586124 0.26873997 0.082082786 -0.28735846 -0.19273457 -0.34100235
-0.122256264 0.3134399 0.2259877 -0.09412732 -0.16546878 -0.13522865 -0.09401561 0.3387911
0.12519255 0.50539196 -0.36888877 -0.32108018 -0.3596807 -0.037873406 -0.21863003 -0.14880212
-0.3296606 0.3168864 0.013827949 0.015962476 -0.19213635 0.057692163 -0.2702434 -0.33095405
-0.13977268 -0.008090407 0.27858073 0.40628028 -0.31330723 -0.40284014 0.35286877 -0.21750198
0.0823698 0.3591201 0.068091445 -0.292122 -0.036941282 -0.40390638 -0.20536138 -0.022014719
0.16465785 -0.4442816 0.37437823 0.39183152 -0.31227738 -0.2547799 0.24217285 0.03807186
-0.16706999 -0.2739504 -0.4278128 -0.042082552 -0.325646 -0.20275661 0.2909572 0.15239094
0.055818833 0.40429923 0.21904351 -0.14719436 -0.25493503 0.35761356 0.32390994 -0.42731744
-0.1449355 -0.075937 -0.25668526 -0.09508888 0.29850942 -0.016402777 -0.1585797 0.2748019
0.1840891 -0.18262166 -0.3715146 0.26748094 0.36380807 -0.13422588 -0.0655989 0.2376488
0.22166704 0.34459075 -0.14139815 0.20584014 -0.3201071 0.0032578616 -0.030056885 -0.34900868
-0.3342665 -0.13056323 -0.14857183 -0.04086281 0.3399982 -0.015964268 0.025212876 -0.36865437
0.18456332 -0.22738583 0.31539983 -0.25950924 0.4468332 -0.27785218 0.26283368 -0.08222062
-0.2842699 0.055681556 -0.1140188 -0.29950958 -0.19702585 0.30789882 0.4107365 0.0071125017
0.33022928 -0.011914077 -0.27652323 -0.27153686 0.42810324 -0.020922134 0.081785046 0.43149027
0.31925023 0.10541031 -0.06792796 -0.13167761 -0.21535891 -0.41267067 0.23623882 0.11233491
0.26613685 -0.21431077 0.30082366 -0.056812197 0.2660907 0.4434974 0.0054808054 0.1290262
0.21782929 -0.12215096 0.34442297 -0.24225758 -0.19149154 0.12686534 0.053613167 -0.2744898
-0.044797804 0.39334533 0.011216367 -0.2247034 -0.06246958 -0.27344164 -0.107948296 -0.27500233
0.020069294 0.3244186 -0.1923501 0.32960212 -0.45719418 0.4260237 -0.34300297 0.062203843
0.36837342 -0.23739582 0.33360377 -0.34324092 0.31573653 0.08417452 0.4943156 0.04445728
0.24140953 -0.16068698 -0.15504037 0.2700279 -0.37318748 0.26507652 0.28005594 -0.17502114
0.21966189 -0.35687625 -0.26999927 -0.09124287 -0.25078508 -0.36784893 0.3598576 0.18154952
-0.20617554 -0.061541703 0.06932419 0.08918098 0.4688274 0.35205603 0.2745785 0.11054207
-0.016598102 -0.000921875 -0.11957939 0.30313915 0.33441558 0.24428456 0.0550719 0.14947654

encoder.blocks.1.attn.proj.bias f4 [16]
00000000: fe97 f43c 5c35 c2bc 49c5 2d3d 53e9 6c3c
00000010: bae6 99bc 6299 19bd 225a 1bbd 47d4 c53c
00000020: a1f1 6cbd 4040 233d 0e08 cd3c f9c7 85bc
00000030: cabe 843d d840 2c3d 662d 20bd 890d 8ebc
0.029857632 -0.023707084 0.042424474 0.014459926 -0.018786777 -0.037499793 -0.037927754 0.024149073
-0.057847623 0.039856195 0.025028255 -0.016330706 0.064817026 0.042054027 -0.039105795 -0.017340438

encoder.blocks.1.norm2.weight f4 [16]
00000000: 8f6f 603f a93c 723f 6c9c 743f c56a 813f
00000010: 4d1c 663f 2f78 733f ee37 793f d592 673f
00000020: 0d3b 723f 5aab 903f 562d 803f d1fc 733f
00000030: 52af 733f 63f0 663f addd 783f 3f49 803f
0.87670225 0.9462381 0.9555118 1.0110708 0.89886934 0.9510526 0.97350967 0.9045842
0.94621354 1.1302292 1.0013835 0.9530764 0.9518939 0.9021055 0.9721325 1.0022353

encoder.blocks.1.norm2.bias f4 [16]
00000000: daa8 71bd bd7f 903c 6d80 e73c 71b7 043d
00000010: a858 823c 8861 333d 457b 0a3b 380c 033d
00000020: 11ca 343d 3b85 15bc f194 f43b f8e2 4cbc
00000030: eff4 fd3b cc1f e93c cdff ecbc 106d 2d3d
-0.05899892 0.017639035 0.02825948 0.032401506 0.015911415 0.043794185 0.0021130603 0.031994075
0.044138018 -0.009126003 0.0074640443 -0.012505285 0.0077501456 0.028457545 -0.028930569 0.04234034
