Checkpoint/dict_2.pth (torch, 108719 bytes, 64 tensors)

encoder.cls_token f4 [1, 1, 16]
0	0xbe11fc4f	-0.14256404
1	0x3f7c881a	0.98645175
2	0xbf1820a1	-0.5942479
3	0xbe5c96e5	-0.21541937
4	0x3fd99f41	1.7001725
5	0x3f8b398a	1.0876935
6	0x3fa531d6	1.2905834
7	0xbf3e7398	-0.7439513
8	0xbf7e98ce	-0.9945191
9	0xbfb5bc7c	-1.4198146
10	0x3ff8ec92	1.9447196
11	0x3e379cd0	0.17930913
12	0x3ebf4831	0.37359765
13	0x3f1c6798	0.6109557
14	0x3d2a8184	0.041627422
15	0x3f811795	1.0085322

encoder.patch_embed.weight f4 [16, 5]
0	0x3e89399a	0.2680176
1	0x3ed6482c	0.41851938
2	0xbdc5e545	-0.0966287
3	0xbec2e452	-0.3806482
4	0xbb26dbc8	-0.002546059
5	0xbeed3cb0	-0.46335363
6	0x3d67fe99	0.056639288
7	0x3ef0364f	0.46916434
8	0xbeb75c76	-0.3581273
9	0x3e9852bb	0.29750618
10	0xbea230d1	-0.3167787
11	0x3ea93b80	0.33053207
12	0xbe58dbef	-0.21177648
13	0x3f21ac62	0.6315366
14	0x3e8b16fe	0.2716598
15	0x3e559b28	0.20859969
16	0xbee9ae01	-0.45640567
17	0xbe6dff41	-0.23241903
18	0xbeb97f98	-0.3623016
19	0x3f09084d	0.5352829
20	0x3f03c5e6	0.51473844
21	0x3da4c886	0.08046059
22	0x3eb8d0c1	0.36096767
23	0xbddddbc2	-0.10832931
24	0x3ebfc3ec	0.37454164
25	0x3e8b53cd	0.27212372
26	0xbeaa0ae0	-0.33211422
27	0xbe8360cf	-0.25659797
28	0xbf119189	-0.56862694
29	0x3f02e431	0.5112944
30	0xbe5e825f	-0.2172942
31	0x3e9f9575	0.31168714
32	0x3daaf3d2	0.08347286
33	0xbef496e1	-0.4777136
34	0xbf0fb95b	-0.56142205
35	0xbf05b9d6	-0.5223669
36	0x3ee62a21	0.44954017
37	0x3edfc13e	0.4370212
38	0xbc7d7ecf	-0.015472128
39	0xbea9385a	-0.33050805
40	0x3ebefc94	0.37302077
41	0xbef8de5c	-0.48607147
42	0xbec47278	-0.38368583
43	0x3f26fd2e	0.6523007
44	0xbe177f68	-0.14794695
45	0xbe38b1ca	-0.18036571
46	0x3eb6fd4a	0.3574012
47	0x3ef4fe7b	0.47850403
48	0xbf148af6	-0.5802454
49	0x3dd25a95	0.102711834
50	0xbeac40ec	-0.3364328
51	0x3ec76465	0.38943782
52	0xbe972319	-0.29518965
53	0x3ea1a436	0.31570596
54	0x3f0d5217	0.55203384
55	0xbed28d27	-0.41123316
56	0xbdb709b9	-0.08937401
57	0xbee8e3a3	-0.45486173
58	0xbdd15688	-0.10221583
59	0x3efa6cc8	0.48911119
60	0x3ebd72e5	0.3700172
61	0xbe0b502f	-0.13604806
62	0xbe7b18d8	-0.24521196
63	0xbcd0f7f5	-0.02550886
64	0xbe9dd899	-0.30829313
65	0x3eee3612	0.46525627
66	0x3e1be04a	0.15222278
67	0x3de48c7c	0.11159608
68	0xbe713ee4	-0.23559147
69	0xbf1d2665	-0.6138671
70	0xbe6a8c7e	-0.22905156
71	0x3c810673	0.015750146
72	0xbe8cf2e0	-0.2752905
73	0xbe5bdae7	-0.21470223
74	0x3e828e5b	0.25499234
75	0xbe30091d	-0.17190976
76	0x3ee5d4c4	0.4488889
77	0xbc2dc7cf	-0.01060672
78	0xbe8eeaf2	-0.27913624
79	0xbe730393	-0.23731832

encoder.patch_embed.bias f4 [16]
0	0xbe012df9	-0.12615193
1	0x3dd6e22d	0.10492358
2	0xbcb9415a	-0.02261417
3	0x3d129762	0.0357889
4	0xbce27255	-0.027642408
5	0x3d00820b	0.03137402
6	0xbbe5cd7e	-0.007013022
7	0xbda163ec	-0.07880387
8	0xbcf8583f	-0.030315517
9	0x3d9815f2	0.07426061
10	0x3e00ccb7	0.12578093
11	0xbb8357dc	-0.0040082764
12	0x3d3fd05a	0.04682956
13	0xbe1ad4c6	-0.15120229
14	0x3d2fe3a1	0.042941693
15	0xbda51f20	-0.08062577

encoder.blocks.0.norm1.weight f4 [16]
0	0x3f7ca4f8	0.9868922
1	0x3f70a2e2	0.9399854
2	0x3f87d6b4	1.0612397
3	0x3f8d5858	1.1042585
4	0x3f87f140	1.0620499
5	0x3f8ffafb	1.1248468
6	0x3f8d9c82	1.1063387
7	0x3f7c5724	0.98570466
8	0x3f9bbc8d	1.2166916
9	0x3f918218	1.1367826
10	0x3f7f125d	0.99637395
11	0x3f82d1fc	1.0220332
12	0x3f79b22a	0.9753748
13	0x3f8342e3	1.0254787
14	0x3f88c0bf	1.0683821
15	0x3f7cda55	0.9877065

encoder.blocks.0.norm1.bias f4 [16]
0	0xbe11b77a	-0.14230147
1	0x3d033bb5	0.032039363
2	0xbc54a258	-0.012978159
3	0x3d08607a	0.033295132
4	0xbcce7dcb	-0.025206467
5	0x3d96dd6c	0.073664516
6	0xbc8a8e59	-0.01691358
7	0x3cf40390	0.029786855
8	0xbdbd2be9	-0.09236891
9	0x3dd960f3	0.10614195
10	0x3dd20b18	0.10256022
11	0xbdd8a37d	-0.10578058
12	0xbd05b31d	-0.03264152
13	0x3d4b2455	0.049595196
14	0xbd486b4f	-0.048930462
15	0x3d868aaa	0.06569417

encoder.blocks.0.attn.qkv.weight f4 [48, 16]
0	0xbe87be7c	-0.26512516
1	0xbe1ef28e	-0.15522215
2	0xbe97907a	-0.29602414
3	0x3eaacc42	0.3335896
4	0xbed99c0d	-0.4250187
5	0xbbc4bc87	-0.0060039195
6	0xbe7a6f90	-0.2445662
7	0xbe8524e7	-0.26004717
8	0xbe057aab	-0.13035075
9	0x3c23117b	0.009952898
10	0xbe346662	-0.17617181
11	0x3e9e84b8	0.3096063
12	0x3e20c5e0	0.15700483
13	0xbe94d492	-0.29068428
14	0x3c7ceea1	0.015437753
15	0x3df80f25	0.121122636
16	0xbacc292f	-0.0015576239
17	0xbe1f7d0a	-0.15575042
18	0x3dee9125	0.11648778
19	0xbe6871c9	-0.22699656
20	0x3e92c1f9	0.28663614
21	0xbe88e008	-0.26733422
22	0x3e63a48b	0.22230737
23	0xbd9986ea	-0.07496436
24	0x3db4c617	0.08826845
25	0x3d7386f2	0.059454866
26	0x3e2fb65f	0.17159413
27	0xbe39f42c	-0.1815955
28	0xbdb20f24	-0.08694294
29	0x3e3d3726	0.18478069
30	0xbe697f4f	-0.2280247
31	0xbeaa6696	-0.33281392
32	0x3e9ec0f0	0.31006575
33	0xbe8f8d49	-0.2803748
34	0xbe247f4e	-0.16064188
35	0xbd5ca564	-0.053868666
36	0x3e6f95b5	0.23396952
37	0x3e22c4bd	0.15895362
38	0xbdf31894	-0.11869922
39	0x3c1908c4	0.009340469
40	0x3dc3d7b2	0.09562625
41	0x3d0f6573	0.03500886
42	0x3e8cdb8c	0.2751125
43	0xbd27162f	-0.04079264
44	0xbe864e0e	-0.26231426
45	0xbc89707d	-0.016777271
46	0x3ca0ff9b	0.019653132
47	0xbd74e824	-0.0597917
48	0xbe939166	-0.28821868
49	0x3e2cad01	0.16862871
50	0xbe61670a	-0.22011963
51	0x3e0b8794	0.13625938
52	0x3ddbb8dd	0.10728619
53	0xbeb4b07b	-0.35290894
54	0xbd9bd6f7	-0.07609361
55	0xbecfc73b	-0.40581688
56	0x3ef214d8	0.47281528
57	0xbe4a0cc5	-0.19731434
58	0xbec9027b	-0.39259705
59	0x3d861bc7	0.06548267
60	0x3efb98b9	0.49139956
61	0x3d22113c	0.039567217
62	0x3e250f2f	0.16119073
63	0xbf091cb0	-0.535594
64	0xbd6a8f7a	-0.057265736
65	0xbdc6489e	-0.096818194
66	0x3e87c6f3	0.26518974
67	0xbdf87fef	-0.121337764
68	0x3e8f1a83	0.27949914
69	0x3dba36e5	0.090925016
70	0xbe92abf6	-0.2864682
71	0xbde47fe6	-0.11157207
72	0x3e16867c	0.14699739
73	0xbe4c5f27	-0.19958173
74	0xbd258afd	-0.040415753
75	0xbe926b33	-0.28597412
76	0x3e1a14f7	0.1504706
77	0x3c9b9c1d	0.018995339
78	0x3e63b671	0.22237565
79	0xbe36b696	-0.17843089
80	0xbcd65d88	-0.026167646
81	0xbb9273ae	-0.0044693565
82	0x3ddbf393	0.107398175
83	0x3d6d90f6	0.057999574
84	0x3c9d1818	0.019176528
85	0x3d705c4c	0.05868177
86	0x3e30b696	0.17257151
87	0x3cdc5cd6	0.026899736
88	0xbd5a6f27	-0.05332866
89	0x3ecca7fb	0.3997191
90	0xbeaa9093	-0.33313426
91	0xbea3bb28	-0.31978726
92	0xbdc83527	-0.09775763
93	0x3e86ecda	0.26352578
94	0xbe8348fa	-0.25641614
95	0xbe75cb6e	-0.24003384
96	0xbe6b1a69	-0.22959293
97	0xbe03f39e	-0.12885901
98	0xbd838a6d	-0.06422887
99	0xbd2eddfd	-0.042692173
100	0x3e0991a7	0.13434468
101	0x3e664824	0.22488457
102	0xbc19918b	-0.009373079
103	0xbe643f42	-0.22289756
104	0x3ec6078a	0.38677627
105	0x3e98ce12	0.2984472
106	0xbeda7f97	-0.42675468
107	0xbe280477	-0.16407953
108	0x3d8f811e	0.07007049
109	0xbe86749d	-0.26260844
110	0x3d160109	0.03662208
111	0x3e9023f8	0.28152442
112	0xbe8d51a8	-0.2760136
113	0x3d873145	0.06601194
114	0xbe8a3977	-0.26996967
115	0x3e97764c	0.2958244
116	0xbe305f60	-0.17223883
117	0xbdc5dfa5	-0.096617974
118	0x3d8bb304	0.06821254
119	0xbe509bc4	-0.2037192
120	0xbe8f1273	-0.27943763
121	0x3db3dc93	0.087823056
122	0xbdf587df	-0.11988806
123	0x3e4274fe	0.18989941
124	0x3c103f19	0.008804106
125	0xbdc1922d	-0.09451709
126	0x3d001eb0	0.031279266
127	0x3e634b3a	0.22196665
128	0x3e57a6a6	0.21059665
129	0xbd7016cf	-0.058615502
130	0xbe5c3c61	-0.21507408
131	0xbe5f2b77	-0.21793924
132	0x3d0d9112	0.034562178
133	0x3e55aa51	0.20865752
134	0xbe445437	-0.1917275
135	0x3e0a2c79	0.13493527
136	0x3f03c1f2	0.5146781
137	0xbdc4a930	-0.096025825
138	0x3db0940d	0.086219884
139	0x3da4e58f	0.08051597
140	0x3e21e874	0.1581133
141	0x3e928844	0.28619587
142	0xbe839bd0	-0.25704813
143	0x3e82a5ea	0.25517207
144	0x3cf45faf	0.029830782
145	0x3e5e8aa1	0.2173257
146	0x3e05cedb	0.1306719
147	0x3cfc618b	0.03080823
148	0x3eaa558f	0.332684
149	0xbe3923dd	-0.18080087
150	0x3d787a75	0.06066366
151	0x3d845a7e	0.064625725
152	0xbe01207f	-0.12610053
153	0xbd05910d	-0.032609034
154	0xbdee37be	-0.11631726
155	0xbae283ca	-0.0017281708
156	0xbd5eac53	-0.05436356
157	0x3dbcd7f6	0.09220879
158	0x3eb5ef13	0.35533962
159	0xbebb2c8d	-0.36557427
160	0xbe829fd7	-0.25512573
161	0xbd7bd40f	-0.06148153
162	0x3e617db9	0.22020616
163	0x3e3ed3b8	0.18635452
164	0x3dda9f0c	0.10674867
165	0xbd638160	-0.055543303
166	0x3e3831b8	0.17987716
167	0x3eec6d40	0.461771
168	0xbeb476aa	-0.35246783
169	0xbc2d3ee4	-0.010574076
170	0x3e6cbc11	0.23118617
171	0x3e7eed3a	0.24895182
172	0xbd45d4d8	-0.048298687
173	0xbe2dc386	-0.16969118
174	0xbe8a1067	-0.2696564
175	0x3e7948d2	0.24344185
176	0x3e78a021	0.24279834
177	0x3e63df02	0.2225304
178	0xbe5f9185	-0.21832855
179	0xbe691c06	-0.22764596
180	0x3e3fe5d8	0.18740022
181	0x3daf7107	0.0856648
182	0x3e283df7	0.16429888
183	0x3d040cbe	0.032238714
184	0x3e55ddf8	0.20885456
185	0x3de17fa1	0.110106714
186	0xbc0b3e0b	-0.008498679
187	0xbd43d4a4	-0.04781021
188	0x3e250210	0.16114068
189	0x3e103d97	0.14085995
190	0x3de6b5a2	0.112651125
191	0x3e0550d8	0.1301912
192	0xbcbe457d	-0.023226494
193	0x3e03bd7a	0.12865248
194	0x3e02a7da	0.12759343
195	0x3ea103f5	0.3144833
196	0xbdd4b71e	-0.10386489
197	0x3ee99b2d	0.45626202
198	0x3dd3918d	0.10330496
199	0x3efb6200	0.49098206
200	0x3cb82470	0.022478312
201	0x3e635849	0.22201647
202	0x3eb0a0d2	0.34497696
203	0x3dac1653	0.084026955
204	0xbe804d69	-0.2505906
205	0x3edc3865	0.43011776
206	0xbdc4dd70	-0.09612548
207	0x3ea61119	0.3243492
208	0xbe66ef93	-0.22552328
209	0xbdf6446c	-0.12024769
210	0x3e85c13b	0.26123986
211	0x3d556440	0.05209756
212	0xbe6deeb5	-0.23235591
213	0x3ebddc49	0.37082127
214	0x3ebab5df	0.36466882
215	0xbe9b369f	-0.3031511
216	0x3e3584d8	0.17726457
217	0xbd63975d	-0.055564273
218	0xbb927527	-0.004469532
219	0x3e82ffa5	0.25585666
220	0x3e021cef	0.1270635
221	0xbd34abc6	-0.04410913
222	0x3e887afe	0.26656336
223	0xbdc3a738	-0.09553379
224	0xbec08201	-0.37599185
225	0xbe4dfea7	-0.20116673
226	0xbe06c36f	-0.1316049
227	0xbe8beea4	-0.27330506
228	0xbf0050da	-0.5012337
229	0x3df20805	0.11817936
230	0x3dd64cf5	0.10463897
231	0x3dc28c34	0.09499398
232	0xbe9164a2	-0.2839709
233	0xbea1d1ef	-0.3160548
234	0xbd1fe951	-0.039040867
235	0xbd9c4dc5	-0.07632021
236	0x3e357892	0.17721775
237	0xbd3e4289	-0.04645017
238	0xbe6ead2f	-0.23308252
239	0x3ec83189	0.39100292
240	0x3d6835b9	0.05669186
241	0xbe08ca73	-0.13358478
242	0xbe612df4	-0.21990186
243	0xbe6f2c09	-0.23356642
244	0xbe480843	-0.19534402
245	0x3eb33640	0.35002327
246	0xbdb7e8d9	-0.08979959
247	0x3e7de413	0.24794035
248	0xbd4d7f29	-0.050170098
249	0x3e483a86	0.19553575
250	0x3e47df5c	0.19518799
251	0x3e7e1dce	0.24816057
252	0xbeaf4a4b	-0.3423637
253	0x3eb820fd	0.35962668
254	0x3e17d4ad	0.14827223
255	0x3ef4e987	0.47834417

encoder.blocks.0.attn.proj.weight f4 [16, 16]
0	0xbdd517f6	-0.10404961
1	0x3e8babfd	0.27279654
2	0xbecc0da0	-0.39854145
3	0x3e4a74b4	0.19771081
4	0x3e1d0068	0.15332186
5	0xbef590c6	-0.47962016
6	0x3e0f6ee2	0.14007142
7	0xbe307b11	-0.17234446
8	0x3ea51558	0.32242846
9	0xbdb2e490	-0.08735001
10	0xbeaa638e	-0.3327908
11	0xbe915cf6	-0.28391236
12	0x3e37f380	0.17963982
13	0xbef918d8	-0.48651767
14	0xbe4650e7	-0.193668
15	0x3ef3b31f	0.47597596
16	0xbee907f5	-0.45513883
17	0xbdd776ea	-0.10520728
18	0x3df23813	0.118271016
19	0xbe1fa532	-0.15590361
20	0x3ebf0e4f	0.37315604
21	0xbdf549e9	-0.11976988
22	0x3dd52707	0.104078345
23	0xbd2a41f9	-0.041566823
24	0x3eb589ba	0.3545664
25	0x3e5e3f16	0.21703753
26	0xbe83b07d	-0.25720587
27	0xbec1cc80	-0.37851334
28	0x3dc93e46	0.09826331
29	0xbe43845a	-0.19093457
30	0xbe62a53b	-0.22133343
31	0x3e2e0e8a	0.16997734
32	0x3d49758a	0.04918436
33	0x3ee8b79b	0.4545258
34	0x3ed1cf43	0.4097844
35	0xbe892193	-0.26783428
36	0xbe57d67f	-0.21077918
37	0x3e5befc6	0.21478185
38	0x3ee1d121	0.44104865
39	0x3e0f6b27	0.14005719
40	0xbe49ece6	-0.19719276
41	0x3bf6e112	0.0075341547
42	0x3ee9551c	0.45572746
43	0x3e0182cb	0.1264755
44	0xbe45912f	-0.19293664
45	0xbe945877	-0.28973743
46	0x3ed0aff3	0.4075924
47	0xbd34d46b	-0.04414789
48	0xbd6e9fc1	-0.058257822
49	0xbebe7e7e	-0.3720588
50	0x3eb84c68	0.35995793
51	0x3df279fb	0.11839672
52	0xbea76a29	-0.3269818
53	0xbea4444a	-0.3208335
54	0xbe8d4dbd	-0.27598372
55	0x3dcbd4f4	0.09952727
56	0xbdd15b10	-0.10222447
57	0x3e883f3d	0.26610747
58	0x3d1689da	0.03675256
59	0xbe842d8d	-0.25816002
60	0xbe6936b5	-0.22774775
61	0xbf101bcf	-0.5629243
62	0xbef69846	-0.4816305
63	0xbe79fed0	-0.2441361
64	0x3e7619f6	0.24033341
65	0x3ea4d6b7	0.32195064
66	0x3d0bc848	0.03412655
67	0x3e5c98f6	0.21542725
68	0x3ec98dac	0.393659
69	0xbeb2df65	-0.34936062
70	0xbdbf439b	-0.093390666
71	0xbe9ef973	-0.3104969
72	0xbebe5e0d	-0.3718113
73	0x3ec3ac0d	0.38217202
74	0xbec33820	-0.38128757
75	0xbd9ef70f	-0.077619664
76	0x3ef76ac6	0.4832365
77	0xbea4433a	-0.3208254
78	0x3e8319e9	0.25605705
79	0x3d2a4414	0.04156883
80	0xbdceca4d	-0.100971796
81	0x3eb13924	0.34613907
82	0xbe1c22b9	-0.1524762
83	0xbeba85ff	-0.36430356
84	0xbd9772d3	-0.07394948
85	0xbec2e3f6	-0.38064545
86	0x3dd61437	0.104530744
87	0x3dbd70ed	0.092500545
88	0x3e7b93f9	0.24568166
89	0x3e190ba5	0.14945848
90	0xbebec9df	-0.3726339
91	0x3ebc2ebf	0.36754414
92	0x3d512786	0.051063083
93	0xbd9068e9	-0.0705126
94	0xbe15aa3f	-0.14615725
95	0xbe221691	-0.15828921
96	0xbe651bb8	-0.22373855
97	0x3ea93fe2	0.3305655
98	0xbec730b1	-0.38904336
99	0x3e4cbe3f	0.19994448
100	0x3daeedd2	0.085414544
101	0xbe5b5aaa	-0.21421304
102	0xbcac0bb3	-0.021001672
103	0xbe31dce9	-0.17369427
104	0xbe14346b	-0.14473121
105	0x3eb0e0f7	0.34546635
106	0xbdc92111	-0.0982076
107	0x3caf4e3f	0.021399615
108	0x3e9f56a3	0.31120786
109	0xbe3b8463	-0.1831222
110	0xbd1703d3	-0.03686888
111	0xbe0b4f00	-0.13604355
112	0x3ec775ea	0.3895715
113	0xbe702a00	-0.23453522
114	0x3e7594c6	0.23982534
115	0xbeea0c88	-0.45712686
116	0x3e1bd0ac	0.15216321
117	0x3e866461	0.26248458
118	0xbed86588	-0.42264962
119	0x3d973814	0.07383743
120	0x3eb36719	0.35039595
121	0xbc8bfbf1	-0.017087908
122	0xbe7ebc0e	-0.24876425
123	0x3d7aed78	0.061261624
124	0x3ef9000c	0.48632848
125	0x3e3a20c2	0.18176559
126	0x3ec52949	0.3850806
127	0x3e90c801	0.2827759
128	0xbe54030e	-0.2070429
129	0x3d5da577	0.054112878
130	0x3cfd10d4	0.030891813
131	0x3e6d818b	0.23193948
132	0x3e83c580	0.25736618
133	0xbebb39a3	-0.3656741
134	0xbef16ecd	-0.47154847
135	0x3e453cdd	0.19261499
136	0x3c85bb74	0.016324736
137	0xbe8fc32e	-0.28078598
138	0xbd74dab2	-0.059778877
139	0xbea7576c	-0.32683885
140	0xbdebe496	-0.11518209
141	0x3e42d463	0.19026332
142	0x3ec4783f	0.3837299
143	0x3d1ec2d7	0.038760033
144	0x3da15d16	0.07879083
145	0x3e638f28	0.22222579
146	0xbe02d9c1	-0.12778379
147	0x3ea1d98f	0.31611297
148	0xbe1a6191	-0.15076281
149	0xbeac31f7	-0.3363187
150	0x3ddc1824	0.10746792
151	0xbddb91c4	-0.10721162
152	0xbe47fdee	-0.1953046
153	0x3db3af96	0.08773725
154	0xbe21dcb6	-0.15806851
155	0x3dc620c2	0.09674217
156	0x3ea4e4db	0.32205853
157	0xbe93afd6	-0.2884509
158	0x3bd851ed	0.006601563
159	0x3edabfee	0.42724556
160	0x3eccb002	0.39978033
161	0xbd1c5039	-0.038162444
162	0xbe15c0b9	-0.14624299
163	0x3eafacfc	0.34311664
164	0xbd2a322a	-0.041551746
165	0xbe077c06	-0.13230905
166	0xbdd7ede6	-0.105434224
167	0xbdc9f5a6	-0.09861307
168	0x3da850ce	0.08218537
169	0x3e8ab474	0.270908
170	0x3eb546fe	0.35405725
171	0x3d1506f6	0.03638359
172	0x3ed6412a	0.4184659
173	0x3dacbd4b	0.08434542
174	0xbe8a6eb7	-0.27037594
175	0xbeab0223	-0.33400068
176	0x3dd6284f	0.10456907
177	0x3dc1718c	0.094454855
178	0x3e2dd9d2	0.16977623
179	0xbe5a8850	-0.21341062
180	0x3ce4f8bf	0.027950643
181	0x3e7d112d	0.24713583
182	0xbe4ddf99	-0.20104827
183	0x3e462b3d	0.19352432
184	0x3e3b1948	0.18271363
185	0x3e063434	0.13105851
186	0x3eb77791	0.3583341
187	0xbee64aac	-0.44978845
188	0x3ee76591	0.45194677
189	0x3e9f72d4	0.31142294
190	0xbe995789	-0.29949597
191	0x3d1da5c6	0.038488172
192	0x3ea1491e	0.31501096
193	0x3ec85f11	0.3913503
194	0xbe0ea86d	-0.13931437
195	0x3e28764d	0.16451378
196	0x3ef2ce5d	0.47423068
197	0xbd954a64	-0.072895795
198	0x3e6d0fcd	0.23150559
199	0xbe3f4b26	-0.1868101
200	0x3e1a4850	0.15066648
201	0xbe64952e	-0.22322533
202	0x3eb0a5ac	0.34501398
203	0x3e6a8557	0.22902428
204	0xbbc82152	-0.0061074877
205	0x3e83b67c	0.25725162
206	0x3efb1eac	0.49046838
207	0x3e2f29c3	0.17105775
208	0xbe818c66	-0.25302428
209	0xbe9bec5c	-0.30453765
210	0x3eebb735	0.46038213
211	0x3ec3977f	0.3820152
212	0xbe82a86a	-0.25519115
213	0x3c7cfd55	0.015441258
214	0x3cf3ca39	0.029759513
215	0x3e71139b	0.23542635
216	0x3c874120	0.016510546
217	0x3de6b6b7	0.11265319
218	0x3e30dea8	0.17272437
219	0xbdaa004e	-0.08300839
220	0xbe828468	-0.25491643
221	0xbea1466a	-0.31499034
222	0x3d641565	0.055684466
223	0xbe5787f3	-0.21047954
224	0xbcb402d8	-0.021974012
225	0xbe7691ba	-0.24079028
226	0xbd1a635a	-0.037692405
227	0x3e42db75	0.19029029
228	0x3ebbc764	0.3667556
229	0xbe9ae71a	-0.30254441
230	0x3e8b5126	0.2721035
231	0xbea774ed	-0.32706395
232	0x3dbf0f57	0.09329098
233	0xbe845699	-0.2584732
234	0x3ef4319b	0.47694096
235	0x3d3377ea	0.04381553
236	0xbd917305	-0.07102016
237	0x3e465716	0.19369158
238	0x3dd328e8	0.103105366
239	0xbd98885c	-0.074478835
240	0x3e530225	0.20606287
241	0xbe4c7043	-0.199647
242	0x3eaad01b	0.33361897
243	0x3e5d3901	0.21603777
244	0x3daccb4a	0.08437212
245	0xbe3e6c5c	-0.18596023
246	0x3ebb6527	0.3660061
247	0x3ce123d4	0.027482904
248	0x3db8efbe	0.09030102
249	0x3ed3b021	0.41345313
250	0xbcdb9f0d	-0.02680924
251	0x3e843d1d	0.25827876
252	0xbe911ed6	-0.28343838
253	0xbe2c763b	-0.16841976
254	0x3e6702e7	0.22559701
255	0x3dbedac7	0.09319072

encoder.blocks.0.attn.proj.bias f4 [16]
0	0xbe367ce7	-0.17821084
1	0x3cc1faab	0.023679098
2	0xbc1b1671	-0.0094658
3	0x3db6a135	0.089174666
4	0x3bc5ccd8	0.006036382
5	0x3d63a150	0.05557376
6	0xbd22528e	-0.03962951
7	0x3d494fb8	0.04914829
8	0xbd8b4e84	-0.06802085
9	0x3dc9f421	0.09861017
10	0x3d231a9f	0.03982031
11	0xbdd07e4e	-0.10180341
12	0xbd811d1c	-0.0630438
13	0x3dffc52d	0.1248878
14	0xbd2fefbc	-0.042953238
15	0x3d490899	0.049080465

encoder.blocks.0.norm2.weight f4 [16]
0	0x3f6cefa0	0.9255314
1	0x3f673b6e	0.9032506
2	0x3f7a2ab3	0.97721404
3	0x3f73411b	0.9502122
4	0x3f6d29de	0.9264201
5	0x3f6966b3	0.9117233
6	0x3f847ab6	1.0349948
7	0x3f77a053	0.9672901
8	0x3f6d5ba0	0.92717934
9	0x3f710748	0.94151735
10	0x3f7d37eb	0.9891345
11	0x3f695824	0.91150117
12	0x3f5aacc2	0.8541986
13	0x3f7c90f4	0.9865868
14	0x3f702249	0.93802315
15	0x3f68ce69	0.90939957

encoder.blocks.0.norm2.bias f4 [16]
0	0xbd388298	-0.04504642
1	0x3ca9c174	0.020722128
2	0x3d12d626	0.03584876
3	0x3dfc3ac3	0.123158954
4	0xbd2c6379	-0.042087052
5	0xbd55de9f	-0.05221426
6	0xbd5eebe8	-0.054424196
7	0x3d9a282c	0.075271934
8	0x3d5e0dd9	0.054212425
9	0x3c82c391	0.015962394
10	0xbdd136c1	-0.102155216
11	0xbdc29655	-0.0950133
12	0x3d973d13	0.07384696
13	0xbc34e07a	-0.0110398475
14	0xbc51dd16	-0.012809059
15	0xbd38a09f	-0.045075055

encoder.blocks.0.mlp.fc1.weight f4 [64, 16]
0	0xbd4882e0	-0.048952937
1	0xbe69268b	-0.22768609
2	0xbcea9751	-0.028636606
3	0x3e632fa9	0.2218615
4	0xbe5402d6	-0.20704207
5	0x3e32967e	0.1744022
6	0x3e377521	0.17915775
7	0x3e2af87f	0.16696356
8	0x3e2ecf0d	0.17071171
9	0xbe5feb06	-0.21866998
10	0x3ddd05b7	0.10792106
11	0x3d6d44d9	0.057926986
12	0x3e43490e	0.19070837
13	0xbe4219e5	-0.1895519
14	0xbe35216e	-0.17688534
15	0x3e8e3235	0.2777268
16	0xbe09f2c0	-0.13471508
17	0xbdee6288	-0.11639887
18	0x3dfeb2df	0.12436461
19	0x3ccc263e	0.024920579
20	0xbdfc62fa	-0.12323566
21	0x3e871827	0.26385614
22	0xbea0bb81	-0.31393054
23	0x3de63d7f	0.11242198
24	0xbe1b1dc5	-0.15148075
25	0x3e0d5b47	0.13804351
26	0xbd4a79cd	-0.049432565
27	0xbe3aba5e	-0.18235156
28	0xbdd0a845	-0.10188345
29	0xbd853fa1	-0.06506277
30	0xbd2af817	-0.041740503
31	0x3e3d30a4	0.18475586
32	0xbe7e87a8	-0.24856436
33	0x3c9d9799	0.019237326
34	0xbe409b53	-0.18809251
35	0x3cc08569	0.023501115
36	0x3e295208	0.16535199
37	0xbe5eae8f	-0.21746276
38	0xbe5fd9a6	-0.2186037
39	0xbe12ece8	-0.14348185
40	0xbe735d20	-0.23765993
41	0xbd469c32	-0.048488803
42	0xbe6deace	-0.23234102
43	0xbc636422	-0.013878854
44	0x3e2f6878	0.17129695
45	0x3df4ca92	0.119527
46	0x3e399f99	0.18127288
47	0xbe199c06	-0.15000924
48	0x3e237fb3	0.15966682
49	0xbe7ad4b4	-0.24495202
50	0xbdbca178	-0.09210485
51	0x3e21e9c9	0.15811838
52	0x3d646e3a	0.055769183
53	0xbe508750	-0.20364118
54	0xbccb8bb4	-0.02484689
55	0x3e510485	0.2041188
56	0x3bbe3a78	0.00580531
57	0x3e5224d9	0.20521869
58	0xbe9699a4	-0.29414093
59	0xbdae0a9a	-0.08498116
60	0xbe4b6676	-0.19863304
61	0xbc4bb40c	-0.012433063
62	0x3d9a776b	0.075423084
63	0xbe2bf45b	-0.16792433
64	0xbdd1335a	-0.10214873
65	0xbd9abc8d	-0.075554945
66	0xbe4127be	-0.18862817
67	0xbe934aeb	-0.28768095
68	0xbda7087f	-0.081559174
69	0x3e07e9b3	0.13272743
70	0x3e1e165d	0.15438218
71	0x3dca3770	0.09873855
72	0xbdadf20c	-0.084934324
73	0xbe350b36	-0.17680058
74	0x3e9b1370	0.30288267
75	0x3dcfb276	0.101414606
76	0x3e33620d	0.17517872
77	0x3d24e3c7	0.040256288
78	0x3d99660b	0.07490166
79	0x3e180162	0.14844278
80	0x3e293085	0.16522415
81	0x3e6a9860	0.22909689
82	0xbe0bf678	-0.13668239
83	0xbde1da7c	-0.11028001
84	0x3cfae438	0.030626401
85	0x3c0a3d18	0.008437417
86	0x3cd21c57	0.02564828
87	0xbd96bacd	-0.07359848
88	0xbd742419	-0.059604738
89	0x3cb0ea92	0.021596227
90	0x3e381ad2	0.17978981
91	0xbdea15b1	-0.114299186
92	0x3c9ac150	0.018891007
93	0x3e062c3f	0.13102816
94	0xbe173614	-0.14766723
95	0xbe88f52b	-0.26749548
96	0x3e3be22e	0.18348
97	0xbe5acc4f	-0.21367
98	0x3e514f0b	0.20440309
99	0x3d6f3cbc	0.05840753
100	0x3d79fc05	0.06103136
101	0xbe048af3	-0.1294363
102	0xbd313037	-0.043258872
103	0x3e880b12	0.26570946
104	0x3e11f821	0.1425481
105	0xbb9473fd	-0.0045304284
106	0xbbab338e	-0.0052246517
107	0x3d254f8e	0.040359072
108	0x3e3731d3	0.178901
109	0x3e033523	0.12813239
110	0x3e1982c9	0.14991297
111	0x3d7991ca	0.06093005
112	0x3e2515a0	0.1612153
113	0x3d953da7	0.0728715
114	0x3e2368df	0.15957974
115	0x3db15e35	0.08660547
116	0xbd4cd146	-0.050004266
117	0x3cecd6d6	0.028911036
118	0x3d8aa962	0.067705885
119	0x3e6fe490	0.23427033
120	0x3e0d43a0	0.13795328
121	0xbe1a6cbd	-0.15080543
122	0x3d0454a0	0.032307267
123	0x3d1bd2c6	0.038042806
124	0x3ea454be	0.32095903
125	0xbe82a042	-0.25512892
126	0x3dabcf45	0.08389143
127	0x3e4afc0a	0.19822708
128	0x3e108c4d	0.1411602
129	0xbe815502	-0.25260168
130	0xbd8211e2	-0.06351067
131	0xbc46c528	-0.012131967
132	0x3e98b1c8	0.29823136
133	0x3d9f732a	0.07785638
134	0xbe824f59	-0.25451162
135	0x3e371e71	0.17882706
136	0xbe359665	-0.17733152
137	0xbdc31113	-0.09524741
138	0x3eaba064	0.33520806
139	0x3e08fb62	0.13377145
140	0xbe6ad1be	-0.22931573
141	0xbe6c107a	-0.2305316
142	0xbb6c8479	-0.0036089702
143	0xbddb6d99	-0.107142635
144	0x3e4a5767	0.19759904
145	0x3c9bbc2e	0.01901063
146	0xbda113e6	-0.078651235
147	0xbe8cc3ee	-0.27493232
148	0x3e4631fa	0.19355002
149	0x3cf645cd	0.03006258
150	0xbdd02ecc	-0.10165176
151	0xbe24f914	-0.16110641
152	0x3e502bc0	0.2032919
153	0xbe7e6156	-0.24841818
154	0xbe96d3bc	-0.29458416
155	0xbe69bcbc	-0.22825903
156	0x3ea04898	0.31305385
157	0x3e99147c	0.2989844
158	0xbe2cc7a9	-0.1687304
159	0x3dae8ecf	0.08523332
160	0xbe8f21a4	-0.27955353
161	0x3e66980f	0.22518943
162	0xbda90e2b	-0.082546555
163	0xbe4e8d97	-0.201712
164	0xbe177219	-0.14789619
165	0x3e4c50f0	0.1995275
166	0x3ea5f8c3	0.32416353
167	0x3c9bdfff	0.019027708
168	0x3da7501c	0.081695765
169	0x3d872da6	0.066005036
170	0xbe3ac7fb	-0.18240349
171	0x3e293138	0.16522682
172	0x3e12766f	0.14302991
173	0x3e595f16	0.21227679
174	0x3c089f9f	0.008338838
175	0x3e6d6e09	0.23186506
176	0x3bbba034	0.005725885
177	0xbe8d7a63	-0.27632436
178	0x3e90f226	0.28309745
179	0xbe3414db	-0.1758608
180	0xbe3b5597	-0.18294369
181	0x3e1e708c	0.1547262
182	0xbde60357	-0.11231106
183	0x3d66e9a2	0.056375153
184	0x3e6918f0	0.22763419
185	0xbe97cdd6	-0.29649228
186	0x3d9a3242	0.07529117
187	0x3d00f633	0.031484794
188	0xbe0c56f6	-0.13705048
189	0x3e0a9c6f	0.13536237
190	0xbe53d76e	-0.20687649
191	0x3e072812	0.1319888
192	0x3e85f09b	0.2616013
193	0xbd6ddb7f	-0.058070656
194	0x3d4ddea8	0.05026117
195	0xbdf43193	-0.11923518
196	0xbd020591	-0.03174359
197	0xbe1f9506	-0.15584192
198	0x3e133a95	0.14377816
199	0xbd5e5aea	-0.05428592
200	0x3d657860	0.056023
201	0x3e47d059	0.19513072
202	0x3dd048c3	0.10170128
203	0x3e4b3e2e	0.19847938
204	0xbd7b4285	-0.061342735
205	0xbe91006d	-0.28320637
206	0xbda21981	-0.07915021
207	0x3e532211	0.20618464
208	0x3db36b0f	0.08760654
209	0xbe493d99	-0.19652404
210	0x3e227d13	0.15868025
211	0xbcb7402d	-0.022369469
212	0x3e1bc323	0.15211158
213	0x3e38858f	0.18019699
214	0x3e7eb27e	0.24872777
215	0x3e38fe0e	0.18065664
216	0x3e2cfcd5	0.16893323
217	0xbe849611	-0.25895742
218	0xbdc19200	-0.094516754
219	0xbe989b52	-0.29806
220	0x3e68b2a5	0.22724397
221	0x3e703973	0.23459415
222	0x3e3c552f	0.1839187
223	0xbe3d0a9b	-0.18461077
224	0xbe35aafe	-0.1774101
225	0x3e0f2381	0.13978387
226	0xbe7f74cd	-0.249469
227	0xbe81d94e	-0.25361103
228	0xbdc6673d	-0.0968766
229	0xbe5bb9c6	-0.21457586
230	0x3e34cb31	0.17655636
231	0xbd1f366f	-0.03887027
232	0x3e5cb3cd	0.21552964
233	0xbe2ef3b0	-0.17085147
234	0xbd9e768b	-0.07737454
235	0xbc979f1b	-0.018508485
236	0xbe735abe	-0.23765084
237	0xbe0c745b	-0.13716261
238	0x3d9f25c9	0.07770879
239	0x3d51cc2e	0.05122011
240	0x3e80ba8b	0.2514232
241	0x3e1e13f7	0.15437303
242	0xbd8b2005	-0.067932166
243	0xbca3d0ad	-0.019996965
244	0x3e0f239a	0.13978425
245	0xbd9b5c61	-0.07585979
246	0xbe37c5a9	-0.17946495
247	0xbe3a2ef6	-0.18181977
248	0x3d04ad32	0.032391734
249	0xbda8b796	-0.08238141
250	0xbdcc01bb	-0.099612676
251	0x3df5a61f	0.11994576
252	0x3e0552da	0.13019887
253	0xbea6756f	-0.3251147
254	0xbe50c627	-0.20388089
255	0x3e584773	0.21121006

encoder.blocks.0.mlp.fc1.bias f4 [64]
0	0x3cb379e6	0.021908712
1	0x3d2ee5e7	0.04269972
2	0xbca68a44	-0.020329602
3	0x3c915a4a	0.017743248
4	0xbd427bcb	-0.04748134
5	0xbc826acd	-0.015920067
6	0x3b98d70c	0.0046643075
7	0xbde0048d	-0.10938368
8	0xbc8a33dd	-0.016870433
9	0xbc9af7d4	-0.018917002
10	0xbcd474a4	-0.025934525
11	0x3d926781	0.07148648
12	0xbd9982a5	-0.074956216
13	0xbd46f898	-0.04857692
14	0x3d4820ef	0.048859533
15	0xbd8394e3	-0.06424882
16	0xbd03d153	-0.03218205
17	0xbd98c42f	-0.07459294
18	0xbd336a46	-0.043802522
19	0x3c41097e	0.011782048
20	0xbc4b6078	-0.012413137
21	0xbd5c3f37	-0.053771224
22	0x3d86a518	0.06574458
23	0xbdc7c5a8	-0.09754497
24	0xbc7f3f13	-0.015579003
25	0x3dec7853	0.115463875
26	0xbd4b6909	-0.049660716
27	0xbcd7e516	-0.026354354
28	0xbd8567bb	-0.06513926
29	0xbe3c29dd	-0.18375345
30	0xbcabc9fd	-0.020970339
31	0xbd80e582	-0.06293775
32	0xbd6e3f7c	-0.058166012
33	0xbcc78a9b	-0.024358084
34	0x3d13ba4a	0.03606633
35	0xbcf2e707	-0.029651178
36	0xbd0c8a79	-0.034311745
37	0xbd945c42	-0.07244159
38	0xbcf79960	-0.030224502
39	0xbd04b437	-0.03239843
40	0xbd8348a0	-0.064103365
41	0xbd8a651b	-0.067575656
42	0x3d9c8446	0.07642417
43	0x3ac84a2d	0.0015280895
44	0xbca47827	-0.020076824
45	0x3c521e4d	0.012824607
46	0x3bca2071	0.006168418
47	0xbd7397db	-0.059470993
48	0x3d01c549	0.031682286
49	0xbde4794c	-0.11155948
50	0xbd45ba56	-0.048273407
51	0xbc9a66e1	-0.018847885
52	0xbd827e19	-0.063717075
53	0xbb82920f	-0.0039846967
54	0xbd5a0327	-0.053225663
55	0xbd0bddb0	-0.034146965
56	0xbda4ad5b	-0.080408774
57	0xbd2fbda2	-0.042905457
58	0xbd78dcd4	-0.060757473
59	0xbdcfc741	-0.101454265
60	0x3d33fdec	0.04394333
61	0x3c965144	0.018349297
62	0xbce90874	-0.028446414
63	0xbd892a8d	-0.06697569

encoder.blocks.0.mlp.fc2.weight f4 [16, 64]
0	0xbe253e54	-0.16137058
1	0x3d424791	0.047431532
2	0xbd45e584	-0.048314586
3	0x3cf166e0	0.029468
4	0xbdde8de6	-0.10866909
5	0xbde6959c	-0.112590045
6	0xbe83204c	-0.25610578
7	0xbb0d27ea	-0.0021538683
8	0xbda2cd95	-0.07949368
9	0xbd1ae3d4	-0.03781493
10	0xbd2ac040	-0.04168725
11	0xbe94ea99	-0.29085234
12	0xbe67404a	-0.22583118
13	0xbd07dc23	-0.033168923
14	0xbe192cd2	-0.14958504
15	0xbb1a7a3d	-0.0023571395
16	0x3e2eb6a6	0.17061862
17	0x3e3064f3	0.17226009
18	0x3dc8ae7d	0.09798906
19	0xbe889069	-0.26672676
20	0xbe5781e5	-0.21045645
21	0x3f040f96	0.5158628
22	0xbe901ffc	-0.28149402
23	0x3e3d2bb3	0.18473701
24	0xbe48823d	-0.19580932
25	0xbe9401e9	-0.28907707
26	0xbcf4451f	-0.029818116
27	0xbeaab147	-0.33338377
28	0xbe0ffd45	-0.14061458
29	0x3c8f113f	0.017464278
30	0xbdfc45a1	-0.12317968
31	0xbe018db8	-0.12651718
32	0xbe7dc15a	-0.24780789
33	0x3e5b870e	0.21438238
34	0xbe6c8ca0	-0.23100519
35	0x3d999972	0.074999705
36	0xbdd8f9b4	-0.10594502
37	0xbe7e5783	-0.2483807
38	0xbe26d9d5	-0.16294034
39	0x3ceb1732	0.028697584
40	0xbd87532e	-0.06607662
41	0x3e2f6b9b	0.17130892
42	0xbea011fb	-0.31263718
43	0xbecade65	-0.396228
44	0x3e8cb9f2	0.27485615
45	0xbdd23f1d	-0.10265944
46	0x3d935333	0.07193603
47	0xbe482c71	-0.19548203
48	0x3eb3bb55	0.3510386
49	0xbe194300	-0.14966965
50	0x3d68903d	0.05677818
51	0xbd1f355a	-0.03886924
52	0xbd4446df	-0.04791915
53	0xbea5c784	-0.3237878
54	0x3e01cc24	0.1267553
55	0x3e19d9f6	0.15024552
56	0x3d40cb48	0.047068864
57	0x3e437830	0.19088817
58	0xbe0830d2	-0.13299873
59	0xbd761b9d	-0.060084928
60	0xbe309f6c	-0.17248315
61	0xbe393aa8	-0.18088782
62	0x3dfa7c07	0.122306876
63	0x3c810336	0.015748601
64	0x3e29dcee	0.16588184
65	0x3e5e35da	0.2170023
66	0xbe5cd92a	-0.21567217
67	0xbe19058b	-0.1494352
68	0x3da44190	0.080203176
69	0x3e2770ed	0.16351672
70	0x3e9cba99	0.30611113
71	0xbc3f52b5	-0.011677434
72	0xbe08b175	-0.13348944
73	0x3e6fb59e	0.23409125
74	0x3e95fa00	0.29292297
75	0x3e9e9d2b	0.30979285
76	0xbe38e884	-0.18057448
77	0xbd407717	-0.046988573
78	0x3e3cff06	0.18456659
79	0x3e85c83d	0.26129332
80	0x3d4606ff	0.048346516
81	0x3d65d9b3	0.056115817
82	0xbe03caaa	-0.12870279
83	0xbe28718a	-0.16449562
84	0xbe3f9b80	-0.18711662
85	0x3e206d8d	0.1566679
86	0xbdea7911	-0.11448873
87	0x3dfb0e85	0.12258629
88	0x3e8d0233	0.2754074
89	0xbe34a23d	-0.17640014
90	0x3e87f0a5	0.26550785
91	0xbb762966	-0.0037561296
92	0x3d2730f0	0.040818155
93	0x3e3c2192	0.18372181
94	0xbcdc6181	-0.026901962
95	0x3cbedbbb	0.023298135
96	0x3e943bbc	0.28951824
97	0xbe146372	-0.1449106
98	0x3e3bdc31	0.18345715
99	0xbe214329	-0.15748276
100	0xbe4bd959	-0.1990713
101	0xbe83ec52	-0.25766236
102	0x3cf46171	0.02983162
103	0xbe4724d2	-0.1944764
104	0xbe1fda32	-0.15610579
105	0xbe279c7d	-0.1636829
106	0xbe1186b5	-0.14211543
107	0x3dadc634	0.0848507
108	0x3d4870f6	0.048935853
109	0x3e2a98a0	0.16659784
110	0xbe145225	-0.1448446
111	0x3d62365a	0.055227615
112	0x3e69edbb	0.22844593
113	0xbc56f036	-0.013118794
114	0xbb80178a	-0.003909056
115	0xbe829cb8	-0.25510192
116	0xbe3c1da6	-0.18370685
117	0x3e64dc0d	0.22349568
118	0xbe0f971f	-0.14022492
119	0x3e018cb1	0.12651326
120	0x3c90de19	0.01768403
121	0xbe5650c9	-0.20929255
122	0x3e249488	0.16072285
123	0xbe531df1	-0.2061689
124	0x3e0e1da0	0.13878489
125	0xbc229dd8	-0.009925328
126	0x3e44ff77	0.19238077
127	0xbdf0350d	-0.11728869
128	0xbd033a77	-0.03203818
129	0x3e4ea788	0.20181096
130	0xbc79054a	-0.015199015
131	0x3b880a47	0.004151616
132	0xbe1addb3	-0.15123634
133	0xbe55f4b6	-0.20894131
134	0xbe941ab5	-0.28926626
135	0xbe85c78c	-0.26128805
136	0x3e4fd610	0.20296502
137	0xbdbc0cf1	-0.09182156
138	0x3e470e02	0.19438937
139	0x3cf07d58	0.029356644
140	0xbd73192b	-0.059350174
141	0x3e2a5f61	0.16637947
142	0x3d4d1a9e	0.050074212
143	0x3cab6f9e	0.020927247
144	0x3d9ce2be	0.07660435
145	0xbd189f95	-0.037261564
146	0x3d866662	0.06562497
147	0x3c996cb2	0.018728588
148	0xbd3c008f	-0.04589897
149	0x3dff7c5a	0.1247489
150	0x3dc02b7a	0.093832925
151	0x3ddf6cc2	0.10909416
152	0xbe4ffe33	-0.20311813
153	0xbe39decc	-0.18151397
154	0x3c6249ad	0.013811511
155	0x3e1191b9	0.14215745
156	0x3e07557d	0.13216205
157	0x3d011c17	0.03152093
158	0x3db2a3f2	0.08722676
159	0xbb03ef0f	-0.0020131504
160	0x3e6d5c1a	0.23179665
161	0xbd500781	-0.050788406
162	0xbe1539bd	-0.14572807
163	0x3e45b874	0.19308645
164	0x3e3032a7	0.17206822
165	0xbdd0b0c4	-0.10189965
166	0x3e0d21aa	0.13782373
167	0x3da794be	0.08182667
168	0x3e497773	0.19674473
169	0x3d99791a	0.074938014
170	0x3e2a9c5a	0.16661206
171	0xbe0da3b7	-0.13831984
172	0x3cf5e987	0.030018581
173	0xbe12fa85	-0.14353378
174	0xbdcebb66	-0.10094337
175	0xbe651b83	-0.22373776
176	0x3db2571d	0.08708022
177	0x3d825121	0.0636313
178	0xbdacd7cd	-0.08439598
179	0xbe2fdd16	-0.17174181
180	0xbbab1aaa	-0.0052216845
181	0x3e933336	0.28750008
182	0xbdcf67f2	-0.10127248
183	0xbde5ab2f	-0.11214291
184	0xbe0ceea9	-0.13762917
185	0x3d901dd5	0.0703694
186	0xbdf2ff2c	-0.118650764
187	0xbe60cfe4	-0.21954304
188	0xbe220080	-0.15820503
189	0x3e53bc16	0.20677218
190	0xbe527953	-0.20554094
191	0x3e564f4b	0.20928685
192	0xbd2d959a	-0.042379
193	0x3d9715c4	0.07377198
194	0x3d2f185b	0.042747837
195	0xb93dd092	-0.00018102143
196	0x3dd5f49c	0.10447046
197	0xbe23b71b	-0.15987818
198	0xbe0654e1	-0.13118316
199	0x3e917982	0.28413016
200	0xbd999320	-0.07498765
201	0xbe32fc67	-0.17479096
202	0x3ca373c1	0.019952657
203	0x3da7ad51	0.08187354
204	0xbd373a08	-0.044733077
205	0x3d2b5b4d	0.041835118
206	0xbdbeacfc	-0.09310338
207	0x3e1ea2b8	0.1549176
208	0xbddd556a	-0.10807307
209	0xbe87cf49	-0.26525334
210	0xbe5182f3	-0.2046011
211	0xbc0dc186	-0.008652097
212	0xbe4cf530	-0.20015407
213	0x3ec9b217	0.39393684
214	0x3d285c97	0.041103926
215	0x3e82ce52	0.25548035
216	0x3e6e2312	0.23255566
217	0x3dce6232	0.10077323
218	0x3e053b66	0.1301094
219	0xbe610a4e	-0.21976587
220	0xbc78de78	-0.015189759
221	0xbe102fbc	-0.14080709
222	0xbd02a548	-0.031895906
223	0xbdf2a8a4	-0.11848572
224	0xbe18688d	-0.14883633
225	0xbd25bcc3	-0.04046322
226	0xbe9c700f	-0.30554244
227	0x3cfd8d36	0.030951124
228	0xbd6b7fe9	-0.05749503
229	0x3e60b633	0.21944503
230	0x3ddfce66	0.10928039
231	0x3e0bfaa4	0.1366983
232	0x3e38a28e	0.1803076
233	0xbb29af66	-0.00258919
234	0xbbcdef2b	-0.0062846146
235	0x3e851212	0.2599035
236	0xbe1104c5	-0.14161976
237	0x3e68e290	0.22742677
238	0x3e430607	0.19045268
239	0x3d7e9bde	0.062160365
240	0xbe2f0928	-0.17093337
241	0x3c74e78d	0.014947784
242	0x3df16811	0.11787427
243	0x3e260015	0.16210969
244	0xbe43b808	-0.19113171
245	0x3e76c243	0.24097542
246	0xbe388d78	-0.18022716
247	0xbd904b33	-0.07045593
248	0x3e5f3e44	0.21801096
249	0x3e331dfb	0.17491905
250	0xbe33f727	-0.1757475
251	0xbdf25b11	-0.11833776
252	0xbeb15c64	-0.346408
253	0xbce5aca3	-0.028036421
254	0xbd9a6627	-0.07539015
255	0x3e279cf5	0.16368468

encoder.blocks.0.mlp.fc2.bias f4 [16]
0	0xbe104594	-0.14089042
1	0x3c4f7f58	0.012664638
2	0xbcda3702	-0.026637558
3	0xbd7a5b15	-0.06112202
4	0x3c3f21e3	0.011665794
5	0x3d38ebda	0.0451468
6	0x3c86724d	0.016411925
7	0xbc878eb6	-0.016547542
8	0xbd70256a	-0.05862943
9	0x3d83bcd1	0.06432498
10	0x3d21e3b7	0.039523806
11	0xbdc00ce1	-0.093774565
12	0xbcd33be4	-0.025785394
13	0x3db8ebdf	0.09029364
14	0xbc949554	-0.018137611
15	0x3da6364b	0.08115824

encoder.blocks.1.norm1.weight f4 [16]
0	0x3f854859	1.0412704
1	0x3f7a979e	0.978876
2	0x3f7f31e9	0.9968553
3	0x3f82bd07	1.0213937
4	0x3f8750a7	1.0571488
5	0x3f82e009	1.022462
6	0x3f885a9f	1.0652655
7	0x3f77e2e5	0.9683059
8	0x3f8a7b55	1.0818888
9	0x3f8b6f45	1.0893332
10	0x3f813b9f	1.009632
11	0x3f80e7e6	1.007077
12	0x3f8823ac	1.0635886
13	0x3f85644f	1.0421237
14	0x3f846399	1.0342895
15	0x3f76e9c0	0.96450424

encoder.blocks.1.norm1.bias f4 [16]
0	0xbe1bf0d5	-0.15228589
1	0x3bbfb581	0.0058504944
2	0xbc625088	-0.013813145
3	0x3ce4046e	0.027834143
4	0x3c986d1e	0.018606719
5	0x3df51633	0.11967125
6	0xbd3fd0fe	-0.04683017
7	0xbd84dc5b	-0.06487342
8	0xbda1096a	-0.07863124
9	0xbca148a6	-0.019687962
10	0x3d837439	0.06418652
11	0xbcb03142	-0.021507863
12	0xbdae9755	-0.08524958
13	0x3e074176	0.13208565
14	0xbd33c75c	-0.043891296
15	0x3bb67d9a	0.005569172

encoder.blocks.1.attn.qkv.weight f4 [48, 16]
0	0x3e8b7a72	0.27241856
1	0xbd620a30	-0.055185497
2	0xbe88658f	-0.26639983
3	0xbe87a557	-0.26493332
4	0xbeaea405	-0.34109512
5	0xbd08472b	-0.033270996
6	0xbdbe763e	-0.09299897
7	0xbeaab6ed	-0.33342686
8	0x3ec00397	0.3750274
9	0x3dca04be	0.09864186
10	0xbdabcf55	-0.08389155
11	0xbe4dbd1f	-0.20091675
12	0x3e18538c	0.1487562
13	0xbec78e0c	-0.3897556
14	0xbe0ff7a1	-0.14059307
15	0x3d4623bc	0.048373923
16	0xbdf0397f	-0.117297165
17	0xbe58d58e	-0.21175215
18	0xbc0ffaf5	-0.00878786
19	0xbe9c77f4	-0.30560267
20	0xbe1cbca1	-0.15306331
21	0x3da3d52a	0.07999642
22	0x3de92a31	0.113850005
23	0xbe2b5857	-0.16732918
24	0xbd242aa7	-0.04007974
25	0x3e15a6b1	0.14614369
26	0xbe9d9c70	-0.30783415
27	0xbe4586ba	-0.19289675
28	0x3e6ce3b9	0.23133744
29	0x3e2055d7	0.15657745
30	0x3e11cdb4	0.14238626
31	0xbe9c5e2d	-0.305406
32	0xbe5d2178	-0.21594799
33	0x3e16cc1a	0.14726296
34	0xbe86f1ad	-0.2635626
35	0xbe28b3ab	-0.16474788
36	0xbe49c1b9	-0.19702806
37	0x3e947dad	0.29002133
38	0xbe1071e4	-0.14105946
39	0xbe55c696	-0.20876536
40	0xbea23c8f	-0.31686828
41	0xbe25b671	-0.16182877
42	0x3e8ec8df	0.27887627
43	0xbe21385e	-0.15744159
44	0xbe8100cc	-0.2519592
45	0x3e214c41	0.15751745
46	0x3c84dc7b	0.016218415
47	0xbd268bd5	-0.040660698
48	0x3eaf9058	0.34289813
49	0xbda4b2a0	-0.080418825
50	0xbe9b83d1	-0.30374005
51	0xbebb4022	-0.36572367
52	0x3cb57d30	0.02215442
53	0xbe6ffafc	-0.23435587
54	0xbe0a3270	-0.13495803
55	0xbe92d485	-0.28677765
56	0x3eb322b7	0.34987423
57	0x3e9f4272	0.3110538
58	0xbdf5e7fc	-0.12007138
59	0x3d824234	0.063602835
60	0x3e810126	0.2519619
61	0xbee47923	-0.4462367
62	0xbdb34b88	-0.08754641
63	0xbea95227	-0.3307049
64	0x3dfc40ee	0.12317072
65	0x3e03f86f	0.12887739
66	0x3d59e486	0.053196453
67	0xbd8119b5	-0.06303731
68	0xbd2b1d21	-0.041775826
69	0xbda5c746	-0.08094649
70	0xbd9cc51a	-0.07654782
71	0xbe932abb	-0.28743538
72	0x3e9839c4	0.29731572
73	0xbdf0b678	-0.11753553
74	0xbc45039d	-0.012024787
75	0x3e8265d7	0.25468323
76	0x3dba8a5e	0.09108423
77	0xbe460547	-0.1933795
78	0xbdaafd55	-0.083491005
79	0x3e30a12b	0.1724898
80	0xbe0b163a	-0.13582698
81	0xbdf4e0b7	-0.119569235
82	0xbe53c09a	-0.2067894
83	0x3e567c43	0.2094584
84	0xbe96bdd0	-0.2944169
85	0xbdd44b94	-0.10365978
86	0x3e9bdcd7	0.30441925
87	0xbd52c29e	-0.051455133
88	0x3dea1731	0.11430205
89	0xbeb3980c	-0.3507694
90	0xbe4cc09c	-0.1999535
91	0x3e87cc3e	0.26523012
92	0x3de255fb	0.11051556
93	0x3d238d82	0.039929874
94	0x3e9ed195	0.31019273
95	0xbe3923b6	-0.18080029
96	0xbe6aa219	-0.22913398
97	0xbe22616c	-0.15857476
98	0xbc1aa2be	-0.009438215
99	0x3e0f1701	0.13973619
100	0xbeb4ecec	-0.35337007
101	0x3eeb2110	0.45923662
102	0x3e1b2b50	0.15153241
103	0x3e4a2c1f	0.19743393
104	0x3e175d88	0.14781773
105	0xbeb6e763	-0.3572341
106	0x3ef0981c	0.4699105
107	0xbddf14d7	-0.10892647
108	0xbe6d5031	-0.23175122
109	0x3e49c2f0	0.19703269
110	0xbec57af5	-0.3857037
111	0x3e3bb4f6	0.1833075
112	0x3ea001f4	0.3125149
113	0x3dabfd63	0.08397939
114	0xbdfb3170	-0.12265289
115	0xbe079596	-0.13240656
116	0x3dd10570	0.10206115
117	0x3e46ae9c	0.19402546
118	0xbda31a3b	-0.079639874
119	0xbe3c6994	-0.1839965
120	0x3e31d9a6	0.17368183
121	0x3e2a7b2e	0.16648552
122	0xbd39e49f	-0.045384046
123	0x3dfdb328	0.12387687
124	0x3d12d889	0.035851035
125	0x3e7b0b59	0.24516048
126	0x3ce9d204	0.028542526
127	0x3e1dc993	0.15408926
128	0xbdd4d085	-0.103913344
129	0x3ecea76a	0.40362102
130	0x3d6d58da	0.057946064
131	0xbe3363ca	-0.17518535
132	0x3dc8b3cc	0.097999185
133	0xbe5b4871	-0.21414353
134	0xbe47c9e0	-0.19510603
135	0x3e274c0f	0.16337608
136	0x3d22fb3d	0.03979038
137	0xbea0c848	-0.31402802
138	0x3eb1b12d	0.34705487
139	0xbe5abdfa	-0.21361533
140	0xbd8a6e26	-0.067592904
141	0xbdfdcc76	-0.123925135
142	0xbe51d3ce	-0.20490953
143	0xbd64ce58	-0.055860847
144	0xbd11d56e	-0.035603933
145	0x3e3be3ed	0.18348666
146	0x3e778102	0.24170306
147	0x3e1d7390	0.15376115
148	0x3e3b5c57	0.18296944
149	0x3d72cf46	0.059279703
150	0xbe43a194	-0.19104606
151	0x3e165757	0.14681755
152	0xbe20d4e9	-0.15706219
153	0xbe43f07c	-0.19134706
154	0x3d7e197e	0.06203603
155	0xbdfe26ef	-0.1240977
156	0x3e8759ef	0.264358
157	0xbc6d4741	-0.01448232
158	0x3e9476df	0.2899694
159	0x3d3148fb	0.04328249
160	0x3e939492	0.28824288
161	0xbe72ec47	-0.23722945
162	0xbbb32339	-0.0054668454
163	0x3e1e06b8	0.1543225
164	0xbe4b3650	-0.19844937
165	0xbe8d2f7e	-0.27575296
166	0x3de8f131	0.113741286
167	0xbdff7f7d	-0.12475488
168	0xbe673364	-0.22578198
169	0xbe7b5b3d	-0.24546523
170	0xbd89af56	-0.06722896
171	0xbe2bf8b0	-0.16794086
172	0x3d23d624	0.039999142
173	0x3e82d165	0.2555038
174	0x3d10027b	0.035158616
175	0xbd3ae24b	-0.045625966
176	0xbe2a9d5b	-0.16661589
177	0xbae968a3	-0.0017807673
178	0x3e15ecbc	0.14641088
179	0xbe3e83ff	-0.1860504
180	0x3e1ba684	0.1520024
181	0xbdee171d	-0.11625502
182	0xbde65815	-0.11247269
183	0xbe8043d9	-0.25051764
184	0xbe6073f4	-0.21919233
185	0xbd22f7aa	-0.039786972
186	0xbc478b39	-0.012179189
187	0xbb8c9868	-0.004290629
188	0xbe14b186	-0.14520845
189	0x3d54643d	0.051853407
190	0x3dff600f	0.124694936
191	0x3ece7b2c	0.40328348
192	0x3e7222b7	0.23646055
193	0x3e4265e2	0.18984178
194	0x3e606e27	0.2191702
195	0x3e0bb452	0.13643005
196	0xbd29b3d7	-0.041431274
197	0x3e633da8	0.22191489
198	0x3e92e56b	0.28690657
199	0xbebd53cb	-0.3697799
200	0x3db5c70e	0.08875857
201	0xbe6b8fc3	-0.2300406
202	0x3e0bbdaf	0.13646577
203	0xbe1aa8ef	-0.15103506
204	0x3ec1a30b	0.37819704
205	0x3da18bdc	0.07888004
206	0x3eb3bf87	0.3510706
207	0xbe02e751	-0.12783553
208	0xb9484641	-0.00019099658
209	0xbe963907	-0.29340383
210	0x3d912c8c	0.07088575
211	0x3ea00e14	0.3126074
212	0x3e0c3b60	0.13694525
213	0x3e769649	0.24080767
214	0x3daf388a	0.08555706
215	0xbe665621	-0.22493793
216	0x3da7e653	0.08198228
217	0xbd11e7b9	-0.03562138
218	0x3e1c89b4	0.15286905
219	0x3db8b9d8	0.09019822
220	0xbd364b9c	-0.0445057
221	0xbe00be23	-0.12572531
222	0xbe15e801	-0.14639284
223	0xbe46b573	-0.19405155
224	0x3e80e1ec	0.25172365
225	0x3c92af77	0.017905934
226	0xbe52c35e	-0.20582339
227	0xbe9a457e	-0.30131143
228	0xbe80da61	-0.2516661
229	0xbef18ffa	-0.47180158
230	0x3e1a7d8e	0.15086958
231	0x3e5c1ffd	0.21496578
232	0xbdae04c0	-0.08497
233	0xbbea24fd	-0.0071455226
234	0xbdbca0ec	-0.09210381
235	0x3e0d15e3	0.1377788
236	0x3e9930ea	0.2992013
237	0xbecdfc37	-0.40231487
238	0x3ed31bde	0.41232198
239	0x3e4c4c56	0.19950995
240	0xbb545024	-0.00323964
241	0x3e8b9b71	0.2726703
242	0x3dde8e95	0.10867039
243	0x3e6463a0	0.22303629
244	0x3da7e0cf	0.08197176
245	0xbe8584d8	-0.26077914
246	0x3df019b5	0.11723653
247	0xbc1334ce	-0.008984758
248	0xbcd65dea	-0.026167829
249	0x3e262235	0.16223986
250	0x3b84ee9c	0.0040567648
251	0xbeb6ab12	-0.3567739
252	0x3e8d7b16	0.2763297
253	0xbe04acb5	-0.12956508
254	0x3e103491	0.14082552
255	0x3e3e4a9c	0.18583149

encoder.blocks.1.attn.proj.weight f4 [16, 16]
0	0xbdc95666	-0.09830932
1	0xbeb0e6e3	-0.34551153
2	0xbe5a0895	-0.21292336
3	0xbecdf729	-0.4022763
4	0x3e914d01	0.28379062
5	0x3ef0cbc8	0.47030473
6	0xbe6e56da	-0.23275319
7	0xbed857e9	-0.4225457
8	0x3e954937	0.2915742
9	0x3e33004c	0.17480582
10	0x3e8ca9fc	0.27473438
11	0xbdf044f8	-0.11731905
12	0x3ebb4496	0.36575764
13	0xba07e94c	-0.0005184605
14	0xbd8f72fc	-0.070043534
15	0xbecc6231	-0.39918664
16	0xbe89b9fa	-0.268997
17	0xbe55f747	-0.2089511
18	0x3ed9dd0d	0.4255146
19	0x3da7832e	0.081793174
20	0xbdef869d	-0.11695597
21	0x3e471b28	0.19443953
22	0x3e96b55c	0.2943524
23	0x3ef6b61d	0.48185816
24	0xbe0e8ca8	-0.13920844
25	0xbefa742d	-0.4891676
26	0x3e3c7399	0.18403472
27	0x3e8a81c5	0.2705213
28	0xbe40f9a8	-0.18845236
29	0xbe88da69	-0.26729134
30	0xbe4ece03	-0.20195775
31	0xbe9cc9d5	-0.30622736
32	0xbe468ad2	-0.19388893
33	0xbdce8ea5	-0.10085801
34	0xbdd8fdb3	-0.10595264
35	0xbe974afe	-0.29549402
36	0x3c4f2567	0.012643195
37	0x3e7d2254	0.24720126
38	0xbd529b36	-0.051417552
39	0xbe34fc9f	-0.17674492
40	0x3eb70749	0.35747746
41	0x3e365121	0.17804386
42	0xbe225e7c	-0.15856355
43	0x3e89b22c	0.26893747
44	0x3e884351	0.26613858
45	0xbd711dda	-0.05886636
46	0x3ef05958	0.46943164
47	0x3d0f1dd2	0.03494055
48	0xbdf75ef7	-0.1207866
49	0xbe552250	-0.2081387
50	0x3e22da9d	0.15903707
51	0x3dced51a	0.1009924
52	0x3e513267	0.20429383
53	0xbe6ae92b	-0.22940509
54	0xbdcf3c01	-0.10118867
55	0x3cc52f81	0.024070503
56	0x3ed49ccb	0.41525874
57	0xbe6d4c17	-0.23173557
58	0xbe7356c6	-0.2376357
59	0x3dc34021	0.09533716
60	0xbcaeb08f	-0.021324424
61	0x3e483dbe	0.19554803
62	0x3d202bca	0.03910426
63	0xbe86952c	-0.26285684
64	0x3df03c39	0.117302366
65	0x3d8753af	0.06607758
66	0xbd946cf3	-0.07247343
67	0xbbe2ac15	-0.0069174864
68	0x3dd41feb	0.1035765
69	0xbe508d38	-0.2036637
70	0xbe82a9a0	-0.2552004
71	0xbe2bb4e3	-0.16768222
72	0xbd6d0805	-0.057868976
73	0x3eb8d57d	0.3610038
74	0xbeddc43c	-0.43313777
75	0xbc8b999e	-0.017041024
76	0x3e7555b2	0.23958471
77	0xbf04a085	-0.51807433
78	0x3ea1d4d9	0.31607702
79	0x3e3efd6b	0.18651359
80	0x3d892bb9	0.066977926
81	0xbebeaa20	-0.3723917
82	0x3dfb0538	0.12256855
83	0xbe3695c5	-0.1783057
84	0x3e06b230	0.1315391
85	0x3e25ccac	0.16191357
86	0x3e5090e5	0.20367773
87	0x3e11b3af	0.142287
88	0x3ece2b3d	0.40267363
89	0x3ed83421	0.4222727
90	0xbec693c8	-0.38784623
91	0xbedc7ea1	-0.4306536
92	0xbe83a663	-0.2571288
93	0x3e8b3004	0.2718507
94	0x3e3554b0	0.17708087
95	0x3e445537	0.19173132
96	0x3e8f296f	0.279613
97	0xbe94b068	-0.29040837
98	0x3eb0d61d	0.34538355
99	0xbe95530b	-0.2916492
100	0x3c35fd9e	0.01110783
101	0x3e5f50b5	0.21808131
102	0x3e754051	0.23950316
103	0xbe3ef19a	-0.18646851
104	0xbe8e5ae9	-0.27803734
105	0xbe08ed20	-0.13371706
106	0xbe526fec	-0.20550507
107	0xbea5ee50	-0.3240838
108	0x3eb460b1	0.3523002
109	0x3eaa256d	0.3323168
110	0x3ed34dcf	0.412703
111	0x3da5c0b0	0.08093393
112	0xbeafb4c1	-0.34317592
113	0xbe3f2c75	-0.18669303
114	0x3ecb284c	0.39679182
115	0x3e257b5e	0.16160342
116	0xbaa56f86	-0.0012621738
117	0xbe9db885	-0.3080484
118	0xbec96523	-0.39334974
119	0x3e8c3f76	0.27392167
120	0x3ecf60f1	0.40503648
121	0xbd6592b8	-0.056048125
122	0x3ed55031	0.41662744
123	0xbea4b134	-0.32166445
124	0xbe119e01	-0.1422043
125	0x3dc027e9	0.09382612
126	0xbe8d2c0a	-0.27572662
127	0x3e07b2b4	0.13251764
128	0x3ea42f96	0.32067555
129	0xbd97b70a	-0.07407959
130	0xbe87695f	-0.2644758
131	0x3e2ec6bb	0.17067997
132	0x3e89216e	0.26783317
133	0xbe42ac0d	-0.19010945
134	0x3ea7cc71	0.32773164
135	0xbeb30afa	-0.34969312
136	0x3ef0914d	0.46985856
137	0x3e57ca73	0.21073322
138	0x3e8c252b	0.27372107
139	0xbe4784d3	-0.19484262
140	0xbe0502e7	-0.12989388
141	0x3ee5cc20	0.44882298
142	0x3e9e2df3	0.3089443
143	0xbe498b74	-0.19682103
144	0x3e9cc351	0.30617765
145	0xbdbf60e9	-0.09344656
146	0xbdae56b0	-0.08512628
147	0xbe19ea32	-0.15030745
148	0xbe27657f	-0.16347311
149	0xbdf37d3f	-0.11889123
150	0xbd940ae2	-0.07228638
151	0x3e3d77c3	0.18502717
152	0xbdb4bcfe	-0.0882511
153	0x3e7d80d9	0.24756183
154	0xbe8991d0	-0.2686906
155	0x3eaea5bc	0.3411082
156	0xbe0b5c05	-0.13609321
157	0xbef395f8	-0.47575355
158	0x3e82eb69	0.2557023
159	0x3e46e779	0.19424237
160	0x3ecd2e98	0.4007461
161	0x3e6674b4	0.22505456
162	0xbd4464ab	-0.047947567
163	0xbe7ea94b	-0.24869268
164	0x3e06d994	0.13168937
165	0x3de9dbeb	0.11418899
166	0x3e469892	0.19394138
167	0xbe9c802f	-0.30566546
168	0xbe32641a	-0.17420998
169	0x3d70c7f8	0.058784455
170	0x3e22bf2a	0.15893236
171	0xbeaa7ba4	-0.33297455
172	0xbe91c576	-0.28470963
173	0x3e8a19b0	0.26972723
174	0x3e898723	0.26860914
175	0xbdcb286c	-0.09919819
176	0x3ec16f7f	0.37780377
177	0xbe0e54e8	-0.13899577
178	0xbe5a3409	-0.21308912
179	0x3ea8bb85	0.32955566
180	0x3e5a1e1c	0.21300548
181	0xbde2aa57	-0.11067646
182	0x3eaa769c	0.33293617
183	0x3e08fd90	0.13377976
184	0xbee2e4db	-0.44315228
185	0xbe2be890	-0.16787934
186	0xbcb99a4e	-0.022656586
187	0x3a5b9dfd	0.0008377729
188	0xbe83d192	-0.25745827
189	0x3e94d760	0.29070568
190	0xbeb07df8	-0.34471107
191	0x3e8bfae2	0.27339846
192	0x3e8d62de	0.27614492
193	0xbe95005f	-0.29101846
194	0xbed92c02	-0.42416388
195	0x3e5aff07	0.21386348
196	0xbede643b	-0.43435845
197	0x3e42c098	0.19018781
198	0xbd9180e3	-0.07104661
199	0x3e587b78	0.2114085
200	0xbefee018	-0.49780345
201	0xbe9755ed	-0.29557744
202	0x3e57c687	0.21071826
203	0xbe432a55	-0.19059117
204	0x3e6601f2	0.2246168
205	0xbe1f6a9f	-0.15568016
206	0x3e078634	0.13234788
207	0xbd9d3db0	-0.076777816
208	0xbedcc1dc	-0.43116653
209	0x3e4e5852	0.20150879
210	0xbedc99d9	-0.43086126
211	0x3e9a509e	0.3013963
212	0xbea641d8	-0.3247211
213	0xbe2e2af4	-0.17008573
214	0xbd565a03	-0.052331936
215	0x3e27b744	0.16378504
216	0x3d9954fc	0.074869126
217	0x3e36aace	0.17838594
218	0xbc547a8e	-0.012968672
219	0xbd915a8c	-0.070973486
220	0xbe0e045f	-0.13868855
221	0x3eb2621e	0.34840482
222	0xbe3ec9c4	-0.18631655
223	0xbe338fba	-0.17535296
224	0xbed37f23	-0.41307935
225	0xbd71924d	-0.058977414
226	0xbe440d20	-0.19145632
227	0x3eecc776	0.46245927
228	0x3d58bdcd	0.052915383
229	0x3eea182b	0.45721564
230	0x3ca8e494	0.020616807
231	0x3e509e66	0.20372924
232	0x3d1a4026	0.037658833
233	0xbd62a5e8	-0.055334
234	0xbe575c31	-0.21031262
235	0xbe95c3f0	-0.2925105
236	0x3e62994c	0.2212879
237	0xbec2a681	-0.38017657
238	0x3e3aeb50	0.18253827
239	0xbe506c80	-0.2035389
240	0xbe8e977a	-0.27849942
241	0x3e840e24	0.25792038
242	0xbea3b0f0	-0.3197093
243	0xbe980ac6	-0.2969572
244	0x3ed19c97	0.4093978
245	0xbea8eab6	-0.3299157
246	0x3e0701f1	0.13184334
247	0x3e2e6f64	0.1703468
248	0xbeab62be	-0.33473772
249	0xbed1496c	-0.4087633
250	0x3ea5e552	0.3240152
251	0x3e359318	0.17731893
252	0x3e42bef9	0.19018163
253	0xbd9ccfce	-0.07656823
254	0xbf161444	-0.5862467
255	0x3e7a5439	0.24446191

encoder.blocks.1.attn.proj.bias f4 [16]
0	0xbdfe6f51	-0.12423576
1	0x3d32f16c	0.04368727
2	0xbc785fae	-0.015159531
3	0xb9960e09	-0.00028620686
4	0x3cf3c514	0.02975706
5	0xbc8200f4	-0.015869595
6	0xbd178a18	-0.03699693
7	0xbcecbd53	-0.02889887
8	0xbd7d96ef	-0.06191152
9	0x3c9d6d19	0.01921706
10	0x3cb815c7	0.022471322
11	0x3de62fd9	0.11239595
12	0x3d0a8fed	0.033828665
13	0x3d8bf6b4	0.06834164
14	0xbba3a47c	-0.0049939733
15	0x3d58e2de	0.052950732

encoder.blocks.1.norm2.weight f4 [16]
0	0x3f79104f	0.9729051
1	0x3f4fc88d	0.8116539
2	0x3f63354f	0.8875322
3	0x3f6f0f8a	0.93383086
4	0x3f749c77	0.95551246
5	0x3f71182f	0.94177526
6	0x3f6cc3f3	0.92486495
7	0x3f8197c7	1.0124444
8	0x3f685370	0.90752316
9	0x3f750d04	0.95722985
10	0x3f809f2b	1.0048574
11	0x3f554952	0.83315
12	0x3f75c75b	0.9600732
13	0x3f708e8d	0.93967515
14	0x3f797916	0.9745039
15	0x3f637760	0.88854027

encoder.blocks.1.norm2.bias f4 [16]
0	0xbcb4eb9f	-0.02208501
1	0x3bc6bf81	0.0060653095
2	0x3d712c7b	0.05888031
3	0xbd1bf089	-0.03807119
4	0x3bad37e7	0.005286205
5	0x3c13b856	0.009016117
6	0xbbc7c0f8	-0.0060960017
7	0xbc094a58	-0.008379541
8	0x3d912273	0.07086649
9	0xbcfb4a66	-0.030675124
10	0xbcfa2ce1	-0.030538978
11	0xbd45ddf1	-0.048307363
12	0xbd52eef8	-0.05149743
13	0x3d03cf00	0.032179832
14	0x3d33d0ac	0.043900177
15	0x3bb9a030	0.005664848
