Checkpoint/dict_19.pth (torch, 108787 bytes, 64 tensors)

encoder.cls_token f4 [1, 1, 16]
00000000: 8d41 21c0 969c 9b3f d065 5fbf 39d5 703d
00000010: 1efa ccbe 5b4a 8e3c 470c 193e 8dd1 933d
00000020: ed00 d43c a2a9 a43f 29a7 84be dee0 743f
00000030: d990 eb3e 900c 813f 4283 c7bf 3be2 013e
-2.519626 1.2157161 -0.8726473 0.058797095 -0.40034574 0.01736944 0.1494609 0.07217703
0.025879348 1.2864268 -0.25908783 0.9565562 0.46008947 1.0081959 -1.5586932 0.12683956

encoder.patch_embed.weight f4 [16, 5]
00000000: ed18 98bd 11d4 373e e3e1 04bf ae59 7bbe
00000010: 29c3 0bbe a0b2 5dbe 07cd cdbd 6653 833d
00000020: 1d70 853e a577 0bbe e8a6 48be 60ff fe3e
00000030: 923c 083e 67f7 90be b128 a73e 757f 23be
00000040: cce1 2abf f6b9 c03e 4878 1ebe bfc8 583e
00000050: 24c9 79bd df94 92bd a85d 07bf 3878 cf3e
00000060: 1442 d33e ccbd 04be 5585 c23e 44e7 3b3e
00000070: e09a e3bd 27ae 9dbe 169e f1be cd74 113f
00000080: ea20 583e 64bd b33e ac95 73be 1fc4 85be
00000090: 2b2c adbd 7fef c0bc fcf9 8d3e 0a12 8abe
000000a0: 0f24 d93d 5080 0ebf 381b e8bc c4f3 213d
000000b0: ecac bbbd 4e73 fcbe d1ae d8bd 05e0 13be
000000c0: 10bb 243b 1a86 4fbe 605a ce3c 2116 003f
000000d0: 5ec5 dbbe 2199 903e 7939 77bd 0c06 17bf
000000e0: 4732 913d c459 5a3e 52a2 5f3e b511 df3e
000000f0: 265f 4b3e 5d24 32bf 39f3 033f 04e0 d73e
00000100: ae48 453f ca42 033d c110 6abe 96fc 90be
00000110: 1171 6dbe 60e7 10bf 018f 97be 44ca a33e
00000120: 5156 efbe ff4d a4be febb 03bf 9021 8d3e
00000130: be72 8c3e a7ab 5f3e a49b a63d a9d3 c83d
-0.07426629 0.1795199 -0.51907176 -0.24545929 -0.13648666 -0.21650171 -0.100488715 0.06412391
0.26062098 -0.1361986 -0.1959492 0.4980421 0.13304356 -0.28313753 0.32648233 -0.1596659
-0.6675079 0.37641877 -0.15475571 0.21170329 -0.06098284 -0.07157301 -0.52877283 0.40521407
0.4126135 -0.12963027 0.3799235 0.1834994 -0.111135244 -0.3079693 -0.47190922 0.5681885
0.21106306 0.3510543 -0.23787564 -0.2612619 -0.0845569 -0.0235517 0.27729785 -0.26966888
0.10602581 -0.5566454 -0.028333291 0.039539114 -0.091638416 -0.4930672 -0.105802186 -0.14440925
0.0025135912 -0.20266 0.025189579 0.50033766 -0.42924017 0.28241828 -0.060357545 -0.589936
0.07089668 0.21323305 0.21839264 0.43568197 0.19860515 -0.69586736 0.51543003 0.42163098
0.77064025 0.032046117 -0.22857954 -0.28317708 -0.23187663 -0.5660305 -0.2960129 0.31990254
-0.46745542 -0.32090756 -0.5145873 0.2756467 0.2743129 0.21842824 0.08135155 0.09805996

encoder.patch_embed.bias f4 [16]
00000000: abb1 053e 03ca 033e ec39 a8bd a522 28bd
00000010: bb12 adbd 0b67 80bd 8839 283d 69f7 8abd
00000020: 236e 91bd 5f37 523e acd7 ad3c cf10 b7bd
00000030: bb3f e4bd fbdd a13d 0f7f 9c3d d624 c4bd
0.13056056 0.1287003 -0.08214173 -0.041048665 -0.08450838 -0.06269654 0.04107049 -0.06785471
-0.07101085 0.20528935 0.021221004 -0.08938753 -0.11144968 0.079036675 0.07641422 -0.095773384

encoder.blocks.0.norm1.weight f4 [16]
00000000: 3014 7f3f bb96 923f be94 893f 7a59 983f
00000010: a031 7b3f f6eb 733f 420c 813f ecbc 823f
00000020: c9bc 8d3f 31f6 8d3f 3c9f 6c3f 7a4e 893f
00000030: f6f6 713f 03f3 773f 3fa8 8d3f dd1a 8b3f
0.9964018 1.1452249 1.0748518 1.1902306 0.98122597 0.9528192 1.0081866 1.0213904
1.1073238 1.1090757 0.9243047 1.0727074 0.9451746 0.9685518 1.106697 1.0867573

encoder.blocks.0.norm1.bias f4 [16]
00000000: 9231 973c cdff b53d ecfc 2ebc f08f 843d
00000010: 031b 0bbd 150f c7bb 9a36 2ebd 4db4 173c
00000020: 1244 1e3b 03b2 a6bb b899 1ebd 9562 63bc
00000030: d8f3 b93b 186d 673c e4f2 4d3c b2e6 183d
0.018456254 0.08886681 -0.010680418 0.064727664 -0.033961307 -0.006074796 -0.04253254 0.009259296
0.002414946 -0.0050871386 -0.038720816 -0.013878484 0.0056748204 0.014125131 0.012570117 0.037329383

encoder.blocks.0.attn.qkv.weight f4 [48, 16]
00000000: 407e aa3d 9bb1 193e 578a bc3d 3a60 c9bc
00000010: e865 8abe 88d9 57be 0221 0dbe dde3 1a3e
00000020: d365 6abe 9966 49be 56a6 6fbe 228b 8cbe
00000030: 4505 1fbc 8d8e 5d3e 0611 9fbd a5fb 2e3e
00000040: a1c6 9f3c dedc 16be 136b c7bd 8490 eb3d
00000050: 971e b13d 2bd3 8abe 9441 b1bc 0aed 3e3c
00000060: df0a e3bc 555c 803c e796 85bd 56f5 333e
00000070: 42a6 3e3e 7ba5 93bd 65f5 a7be 4a67 9b3d
00000080: 3252 bc3e 9465 c83e defa aabd ed91 89be
00000090: 7d68 4c3d 59d6 d1be d3d8 5d3e f5ef bcbe
000000a0: 8b56 c1bb 23c5 e63e 086f c93d bdf4 25be
000000b0: ea0a 833e 7d54 ccbc 1839 073e c7cd b6be
000000c0: 9567 0ebd 2876 bbbe 24c9 d23e 9975 fbbd
000000d0: 26dc 5fbd a481 423e cc11 8dbe c7a3 ae3e
000000e0: ba30 983e b772 853e a930 073e 939e b9bd
000000f0: 2268 233e 61d4 833e 7a28 3b3e 4566 33bd
00000100: 173d 33be 3458 a93c 6592 4d3e 9088 d9bd
00000110: 3b22 043e c1f6 10be 009c a8be fe01 d9bd
00000120: 8d07 2bbe d7b2 4cbe fef1 3abe 8a9e 88bd
00000130: 8daa d7bb 55f8 e63d a0d6 413e c3d9 12be
00000140: 031b 863e 3589 893d 275c debd 10d3 2d3e
00000150: a914 45be 4e80 99be 571e eb3d 601d 7c3e
00000160: 6254 123e 1040 1f3e 7807 39be 255c 1f3e
00000170: 963c 783e c20c 823e 832f 92be 2763 103c
00000180: e36c c2bc 9a22 c93d d6f8 043e fde4 99be
00000190: 360b aebd 16b1 4cbe 6184 13be 2c1f 90bd
000001a0: 5a9d a1bd 5852 7f3d 3159 903e 5564 ce3d
000001b0: 46ca eebd 2802 18bd ab19 1c3e d632 91be
000001c0: df84 bcbe 0969 40bc b407 01be 159a 50bd
000001d0: 6870 60bd ceff dbbd 2c7e 29be acd1 c73e
000001e0: 6181 523e 5b6c 62be 61bd 18be 5b13 bf3e
000001f0: 0bcd aebe d9c5 dc3e 09e0 893d 6724 b93e
00000200: c468 2cbf 95b1 953e 71ac 8cbd 2f5b 2f3f
00000210: bf2b 2abf a97c 123f 7160 30bf 6e09 093f
00000220: 5302 77bb 5bc7 06bf d6a0 81be 9720 3d3f
00000230: f079 a0be bd42 823e 5345 5cbe b14a 2b3f
00000240: 2ed9 ca3d fed8 94be c352 873d 27ab 4a3e
00000250: 439c 383e c8f4 0dbe 731a d2be f3c5 5c3e
00000260: 1d8f 6ebd ad45 613e d768 11be 1c0d 70be
00000270: dd39 45be 1837 04be c24d 91be 29b4 4d3d
00000280: 7146 c7bd 2a6c eebe 63a7 8e3d 40bb ce3e
00000290: c8b0 013d c8cc da3d 72eb d23d 617e 733e
000002a0: 2a40 08bf 5007 973e 1849 a53c f5ac eb3e
000002b0: 14e1 293d 0368 cb3e 4742 d7bd a95b 1a3e
000002c0: 0316 03bf 9010 14bd 5922 0dbe c919 3e3e
000002d0: 3a2c 8e3e 3583 933b 133c 0dbe 593d 2f3d
000002e0: 6eaf 943e 06e7 febe dbc6 62be 05ed 963e
000002f0: 17ef 47be f28b e63d 5677 3fbe 8b82 64bb
00000300: 5763 993d 695a c5bd c5b7 053e 68c5 a73e
00000310: ed75 523e 312f 5c3d 2d7f b9be 4a3e 533d
00000320: feca 82be 96fc ddbd 8639 a0be 82d6 a43e
00000330: b24a 6e3d bb88 6b3e 8870 2c3e fcbb 3fbd
00000340: 4832 703e cce5 94be b23f fa3c 1eee debc
00000350: 7606 83bd abff 7dbe 7bf6 243e a95e 6f3e
00000360: 7a76 98bd 6f69 04be d7fa 55be b994 09be
00000370: 4a47 963e 1b2c 91be b73d 233c 9d7b dd3d
00000380: 8bde 0cbe 4021 8f3e 1502 a7bc 955c 22be
00000390: 45ee 4b3e a46c 143e 12c2 95bd 4fd1 293e
000003a0: 3fcb 2a3e fccb bdbc 521d 9e3e 0ea5 99be
000003b0: 8dbb 01be 831a 9dbe 9c04 42bd 148e 69bd
000003c0: bbe8 4b3e 104c 5dbe 3c76 dbbd ecb4 663e
000003d0: 8ef3 bc3d 968c 62be d02a 973d 4ccf 723e
000003e0: 142b bd3c 1ffb 383e b5ee 4e3e dc69 863e
000003f0: 330d 023e 2482 9e3d cb3a 533d a0f6 cb3d
0.083248615 0.15009157 0.09206074 -0.024582017 -0.27030873 -0.21079075 -0.13782123 0.15125985
-0.22890405 -0.19668044 -0.23403296 -0.274499 -0.009705846 0.2163641 -0.07766919 0.17088182
0.019503893 -0.14732692 -0.0973722 0.115021735 0.08648413 -0.27114233 -0.021637715 0.011653194
-0.027715145 0.015669027 -0.06522923 0.17574057 0.1861811 -0.07209297 -0.3280441 0.0758806
0.3678146 0.39139998 -0.0834863 -0.26869145 0.049904335 -0.40983847 0.21664743 -0.36901823
-0.0059002093 0.45072278 0.09835631 -0.16206641 0.25594264 -0.02494263 0.13205373 -0.3570387
-0.034766752 -0.36613584 0.41169083 -0.12278289 -0.05465331 0.18994766 -0.2755264 0.34109327
0.29724675 0.26064083 0.13202156 -0.09063449 0.15957692 0.2574797 0.1827716 -0.043798704
-0.17503773 0.020671941 0.20075376 -0.1062175 0.12903683 -0.14156629 -0.3293152 -0.10596083
-0.16702099 -0.19990097 -0.18256375 -0.06670864 -0.0065816105 0.11277834 0.18929529 -0.14340882
0.26192483 0.06715623 -0.108574204 0.16975045 -0.19246162 -0.299807 0.11480396 0.2462058
0.14290002 0.15551782 -0.18069255 0.15562494 0.24241862 0.25400358 -0.28551874 0.008812702
-0.023733562 0.09821053 0.12985548 -0.30057517 -0.08498232 -0.19989428 -0.14405967 -0.070371956
-0.078913406 0.06233439 0.28193048 0.100777306 -0.11659674 -0.03711143 0.15244167 -0.28359097
-0.36820123 -0.011743792 -0.12600595 -0.050928194 -0.0547947 -0.1074215 -0.16552037 0.39027154
0.20557167 -0.22111647 -0.14915992 0.37319455 -0.3414081 0.43119696 0.067321844 0.36160585
-0.6734736 0.29237047 -0.06868828 0.6849851 -0.66473 0.57221466 -0.6889716 0.53530014
-0.0037690594 -0.5264794 -0.2531802 0.73877853 -0.3134303 0.25441542 -0.2151082 0.66910845
0.09904705 -0.29071802 0.066075824 0.19791852 0.18028359 -0.13862908 -0.41035804 0.21559887
-0.058241952 0.21999235 -0.1420015 -0.23442501 -0.19260354 -0.12911642 -0.28379637 0.050220642
-0.097302325 -0.46566898 0.0696552 0.40377235 0.031662732 0.1068359 0.10298814 0.23778678
-0.53222907 0.29497766 0.020176455 0.46030393 0.041474417 0.39727792 -0.10510688 0.15074028
-0.5120546 -0.036148608 -0.13782634 0.18564524 0.27768117 0.004501725 -0.13792448 0.042783115
0.29040092 -0.49785632 -0.2214617 0.29477707 -0.195248 0.11257161 -0.18697867 -0.0034867849
0.07489651 -0.09636385 0.13058384 0.32767797 0.20552798 0.053755943 -0.3622984 0.051573075
-0.25545496 -0.108391926 -0.31293887 0.32194906 0.058176704 0.23001377 0.16839802 -0.046810135
0.23456681 -0.2908157 0.03054795 -0.027213152 -0.06397717 -0.24804561 0.1610965 0.23375954
-0.074444726 -0.12930845 -0.20896469 -0.1343564 0.29351264 -0.28353962 0.009963444 0.10814593
-0.13756768 0.27955055 -0.020386735 -0.1585563 0.19915111 0.14494568 -0.073124066 0.16583751
0.16679095 -0.023168556 0.30881745 -0.3000874 -0.12669201 -0.3068429 -0.047367677 -0.057020262
0.19912998 -0.21611047 -0.10715911 0.22529954 0.09226142 -0.22123942 0.07381213 0.2371189
0.02309183 0.18064545 0.20208247 0.2625264 0.12700348 0.07739666 0.05156974 0.09959149

encoder.blocks.0.attn.proj.weight f4 [16, 16]
00000000: ffd8 ab3d 8d49 26be 6af0 b7be f82c 99be
00000010: 0796 b8bd 680f b2be 39ea 163d 9ca2 863e
00000020: fd54 553c 245e 303e c533 a3bc a686 6e3e
00000030: 87c1 6e3e 5807 4bbe 60a4 8e3e 3862 703e
00000040: fde0 1fbe 1637 c73e 2c3d b23e 7db8 c03d
00000050: e57e 9cbe 297a 30be a910 e3be 9b90 723e
00000060: a164 62be 3942 ea3d d135 93bd d248 92bd
00000070: 989e f9bd 6a2c 6b3e 3d6c 94be a0c5 14be
00000080: 085a 76be d47e 93be dcca d33e 919b cc3e
00000090: 996c e93d 581d 383e 868d bf3e 2b93 4fbe
000000a0: dadd a4be 0400 a23e 029f 9a3d e6fa 113f
000000b0: 3643 17be 40d5 f33c c9fb d1bd cd76 2e3d
000000c0: 94f4 95be 3a28 ba3e cc01 583d c1e3 7abe
000000d0: 2304 e13d 51ee c23e 6260 863e 93eb 013e
000000e0: 69bc a83e 10b0 e43e 39b4 a5be 716d b3be
000000f0: fbd0 8abc 53b2 74bd 580c a3bd fab1 9ebe
00000100: baff 82bd 8ae1 3d3e 76d2 813d 68f6 853e
00000110: 11fa 463e bc5e 1dbe 69d6 75be d183 98be
00000120: df80 893e 8771 d73d 8a12 813e d9a0 223e
00000130: 5f93 b33e e156 cfbe b2d2 37be d61a bebe
00000140: 0f80 023e d7e3 2e3e 8982 97be 9c92 66be
00000150: b01f c43d 451d 2abe 078d dbbd c4f6 2cbe
00000160: 9e20 e23c af14 febe 7a67 bb3e 1e72 dc3d
00000170: b36e 773e 06ed 1fbe 5f55 92be bc97 6abe
00000180: 3db0 26bc 0479 7dbe 2ce6 b9be 22f1 a13e
00000190: 7864 eabe e6e7 0a3e 3775 283d 412d 593e
000001a0: c3ce e7be 115b 393d 3939 86be 7898 b1be
000001b0: b18e 1ebe e832 5ebb b225 f63d 35f2 a4be
000001c0: 48ad ed3d 975d e53e 6a77 cabe a0d2 b1be
000001d0: dacc 033e a7f2 213e ed15 543e 2f22 d93e
000001e0: 3ae1 b4be 2397 1abe aa92 b73e 5c65 f43d
000001f0: 34e2 88be 55d5 c53e 23a3 5a3e 3794 643d
00000200: 285f 08bd 02c3 b6be bfcf bfbe 156b 763e
00000210: a147 c03d ecd4 5ebe f953 e83d 46c4 a4bc
00000220: 797c b1be d7c9 9ebd 2989 c8bd 559c 5ebd
00000230: 2766 32bb 93a0 c4be eabb 423e 5845 b5be
00000240: 9f2c 92be 9115 f2bd 4c76 9f3e 4ecc 733b
00000250: 60d1 28bc 5416 bfbe e5f3 bb3d f654 1e3c
00000260: 9570 e13e 299b e73d 7013 8ebe 2e6d f8be
00000270: 4fcd a1bc a797 acbe 82a3 343e 699e cebd
00000280: f71d 55bd 3374 623e a088 b7be b034 71be
00000290: 31d8 ba3d 477b 123e ccd1 19be 144f 963e
000002a0: 9267 e13e 0623 723e ebe7 6abe 961f 99bd
000002b0: 4499 9cbe bb87 b0be 1010 3a3d 2683 9b3e
000002c0: 9495 df3e 9bfb 99be 2c6d ca3e c30a b53a
000002d0: d247 cfbe b849 ae3e 27f9 653c 6ae4 09bd
000002e0: 2e28 023e 8ea0 943d a670 74be 21ac 05bf
000002f0: 061c 433e 7af5 063d 7da9 e4bd b837 6bbe
00000300: 69c5 053e 4442 87be 1e46 a4bd ad98 7c3c
00000310: b096 debc 4e48 0abe c36d c03d 77e3 c2be
00000320: 7d5b 583e 3815 113f 472e 37be c4dc 8e3e
00000330: e9cb a2be 4f6f 10be d1a7 dcbd 164e 813e
00000340: 5741 933e c17d 083e d149 6cbd 80c3 c63e
00000350: 69a7 9dbe d9b6 44be 8bec 02bf 5496 a23e
00000360: eaa9 993d b9a5 a3be 8c87 8bbe a8a9 98be
00000370: fe41 c6be caf4 8abe 808f eebe 7597 4a3e
00000380: 56e2 173d f40c 36be 1761 e5bd 5458 8cbd
00000390: eed4 d8be b468 2dbe 9006 3bbe dd02 973e
000003a0: bfdb 9fbe e54a 6a3e 17ff 8b3d 80f5 cc3e
000003b0: 40fa 8a3e 6ee8 83be 3334 773e d12d 26be
000003c0: 25c3 293e bca4 f3bd a3be 8fbe da82 eabe
000003d0: 2d66 29be 2006 b63e 53c6 923d 2354 fdbd
000003e0: 2dc0 36be 57b8 f93d ae7e 94be d762 80be
000003f0: 435b 8c3e 2449 103c a13e dcbd f479 fabe
0.08390998 -0.16238995 -0.3592561 -0.2991712 -0.090129904 -0.3477738 0.036844466 0.26295936
0.013020751 0.17223412 -0.019922147 0.23293552 0.23316012 -0.1982702 0.27859783 0.23474967
-0.1561317 0.38909215 0.34812295 0.09410188 -0.30565563 -0.172341 -0.44348648 0.23687975
-0.221087 0.11438412 -0.07187999 -0.071427956 -0.121884525 0.22966161 -0.2898883 -0.14528513
-0.24057782 -0.288077 0.41365707 0.39962438 0.113976665 0.17979944 0.3741266 -0.20270984
-0.3220051 0.31640637 0.075498596 0.57023466 -0.14771733 0.029764771 -0.10253102 0.042593766
-0.2928816 0.36358815 0.05273609 -0.24500944 0.10987117 0.38072446 0.2624541 0.1268752
0.32956246 0.44665575 -0.3236406 -0.35044435 -0.016945353 -0.059740376 -0.07961339 -0.3099516
-0.06396432 0.18543068 0.0633897 0.26164556 0.1943133 -0.1536817 -0.24007572 -0.29788068
0.26856133 0.105197005 0.25209457 0.15881671 0.35073373 -0.4049597 -0.17951468 -0.3712985
0.12744163 0.17079102 -0.29591778 -0.22516865 0.095763564 -0.16612728 -0.10720258 -0.16891009
0.027603444 -0.49625155 0.36602384 0.107639536 0.24163322 -0.15617761 -0.28580758 -0.22909445
-0.010173854 -0.24753195 -0.3630842 0.31629282 -0.45779777 0.13565025 0.04112741 0.21208669
-0.45274934 0.045252863 -0.26215532 -0.34686637 -0.1548412 -0.0033904854 0.120189086 -0.3221604
0.116053164 0.44797966 -0.3954423 -0.34731007 0.12871113 0.15815221 0.20711489 0.42408893
-0.35328084 -0.15096717 0.35854083 0.11933395 -0.2673508 0.38639322 0.21351294 0.05580541
-0.033293873 -0.35695654 -0.37463185 0.24064286 0.09388662 -0.21760911 0.113441415 -0.020113122
-0.34665278 -0.07753342 -0.09791786 -0.05434831 -0.0027221532 -0.38403758 0.19016996 -0.35404468
-0.28549668 -0.1182052 0.3114494 0.0037200633 -0.010303825 -0.37321723 0.091773786 0.009663811
0.44031206 0.11308891 -0.27749205 -0.48520797 -0.01975122 -0.33709452 0.17640498 -0.10088808
-0.05203053 0.22114639 -0.35846424 -0.23555255 0.091232665 0.14304839 -0.15021437 0.29357207
0.4402433 0.23646173 -0.22940032 -0.07476728 -0.30585682 -0.34478554 0.045425475 0.30373496
0.43668807 -0.30074772 0.39536417 0.0013812411 -0.40484482 0.34040618 0.014036453 -0.0336651
0.1271064 0.07257186 -0.23871097 -0.5221577 0.19053659 0.03294895 -0.1116514 -0.22970474
0.13063587 -0.26417744 -0.08021186 0.01541726 -0.027171463 -0.13504145 0.093959354 -0.38064167
0.2112865 0.56673 -0.17888747 0.27902806 -0.31796196 -0.14104961 -0.10774196 0.25254887
0.28760788 0.13329221 -0.057687584 0.3882103 -0.30791786 -0.19210376 -0.51142186 0.31755316
0.07503112 -0.31962374 -0.27251852 -0.29816937 -0.38722223 -0.27139884 -0.46593857 0.19784339
0.037081085 -0.17778379 -0.11200159 -0.06852785 -0.42349952 -0.16934472 -0.18264222 0.29494372
-0.3122234 0.22880132 0.06835764 0.40031052 0.2714405 -0.25763267 0.24141006 -0.16228415
0.16578348 -0.11896655 -0.28075132 -0.45802957 -0.16542883 0.35551548 0.071667336 -0.123695634
-0.17846747 0.12193363 -0.290029 -0.2507541 0.27413377 0.008806501 -0.10754133 -0.48921168

encoder.blocks.0.attn.proj.bias f4 [16]
00000000: e6e1 df3b befc 103d 9b92 053d 3a36 883d
00000010: 7687 bf38 baef c4bc 97c7 16bd fe2d dc3c
00000020: b7bf 97bb 118c 5a3c a878 17bd 70d3 e0bb
00000030: d230 12bc 608c 8c3d fe99 f4bc 799a 6c3d
0.006832349 0.035397284 0.032610517 0.06650968 9.132821e-05 -0.024040092 -0.036811437 0.0268774
-0.0046310085 0.0133390585 -0.0369803 -0.006861143 -0.0089227725 0.06862712 -0.029858585 0.057764504

encoder.blocks.0.norm2.weight f4 [16]
00000000: 5cea 7b3f b237 723f ba08 863f 0019 7b3f
00000010: a5ed 723f 669b 7a3f 4b0f 6e3f 2cad 833f
00000020: 3917 613f e2d2 513f 1b50 733f 7631 893f
00000030: a031 873f d020 7d3f 0988 7f3f 731a 653f
0.9840448 0.94616234 1.0471413 0.9808502 0.94893867 0.9789337 0.92992085 1.0287223
0.8792606 0.81962407 0.95044106 1.0718219 1.0562019 0.9887819 0.9981695 0.89493483

encoder.blocks.0.norm2.bias f4 [16]
00000000: 63f5 783b 916b 95bc bbf9 983b 0c25 68bd
00000010: edb8 6dbd e1ae ac3c c4a1 0d3d 867c 4b3c
00000020: 9afc 803d 758e 333d 3885 82bc 7635 13b9
00000030: 2a4b 0abd 5c83 59bc 571e 35bc 70f6 98bc
0.0037988059 -0.018239768 0.004668442 -0.056675956 -0.058037687 0.021079483 0.0345781 0.012419825
0.0629818 0.04383703 -0.015932664 -0.00014038928 -0.03376309 -0.013275947 -0.011054597 -0.018672198

encoder.blocks.0.mlp.fc1.weight f4 [64, 16]
00000000: 9fe3 1e3e 95e8 293d a352 273e 1bca 213e
00000010: 3532 5f3e 5e24 9abe 18d3 23be 0a83 513d
00000020: 4f27 a93d 62ba 373d e68a a8be 05bd d53d
00000030: 8bec 363e 2c74 4ebe d38c 7f3e 6abd 3dbe
00000040: 1588 29be 4342 c13c 66a0 c5bd e47b 4d3e
00000050: 9a4b 1d3e 93b9 95be 7b76 f33d 070f 823d
00000060: 6662 0fbe 76b9 fdbd be3e 39bc 9085 82be
00000070: 1e66 2c3e 4bd5 e43d da23 6bbe f69e c6bd
00000080: 1eea 493e a3b3 adbc 7a06 3abe 1615 a4bd
00000090: 6217 31be 5cb2 2dbd 2ce1 1cbe fc8d ebbc
000000a0: 35c7 94bd 78b3 09be ed6d 33be c584 1fbd
000000b0: aaf5 25be b9ff 303e 75b7 4fba 3b72 2abe
000000c0: cb97 0abe bc28 68be 3b3d 25be dd6f 90bd
000000d0: 95aa 6ebe 41c3 58be e9a8 063e 01bc b3bd
000000e0: 4491 84bd 9374 193e 647d 44be c125 12bd
000000f0: 0a85 353e 2d68 963d 34a1 f3bd 3d9c 6abe
00000100: a836 67be bcd3 333e 33b1 333d b52f 56bc
00000110: 87fe aabc 8972 493e 2a7d c7bc dc41 c63d
00000120: 89d2 3eba ba49 20bc d1fe d63d 37b8 38be
00000130: 5ae6 363e dc5f 333e bcba 563d 9958 003e
00000140: 817b 4f3e 874d e83e 7d87 a0bd 9504 90be
00000150: 99fe d5bd 3910 793a 5bb1 063e 3e36 fe3b
00000160: e836 143e d5bb 463e fc80 5f3e 9005 88be
00000170: f720 f1bd 6578 2f3e 6b9b a3bd 6de3 bb3c
00000180: e882 883e 0303 9a3e 8a90 9dbe 1fac d93c
00000190: c469 0a3e 21d4 8dbe df1d 3e3e 7773 3a3e
000001a0: 873e 483e 4b34 473e 0e39 0cbe afac 043d
000001b0: 996b d73d e443 27be c261 233d 1d6a 49be
000001c0: 7ed5 8ebe 1dd1 2abe b6d7 b8bd 90b0 55bd
000001d0: 1d8a 44be 8a76 8fbe b294 83bc 3856 15be
000001e0: 5ab8 783e 7c85 b03d 1cac 28be 3e44 583d
000001f0: 6395 1a3c 69af 373d 2916 6fbe 98bf 0dbe
00000200: 16ba a13d f02f 853e 3d31 debd 99c7 8fbe
00000210: 3eb0 8ebe 3c4d 38be 39d7 dcbd 7f6d 4cbe
00000220: 6972 f03e 38b4 00be b146 e63d 6e33 2ebe
00000230: 450f 1ebe 1d91 47be 1197 27be 85ee 823d
00000240: 342a 72be 4fbf 813e 6b08 83be 1ad9 8fbc
00000250: 6629 1a3e 432c eebb 351c 103e 4dc3 103e
00000260: 335d 7bbd dbd9 c73c e196 55be 2667 c83d
00000270: 6808 6ebe 4077 0c3e 701a 453d e7e0 7bbc
00000280: 9f2d 2b3e 3ac9 f53d f688 c03e 39f8 bebe
00000290: dc74 58be 9714 813e b5d4 bb3e 01cc bbbd
000002a0: f41b 403e 97e0 7fbd ac14 1ebe 075f 7f3e
000002b0: ef76 0fbe cda2 59be 028c 2abe f3e6 ccbd
000002c0: 6dae 893e 02dd afbd 7462 2f3d 01b7 26be
000002d0: 2c0e d3bd fc88 64be 8147 65be 2e9d f63d
000002e0: c3e1 453d 4ed5 d0bc 4218 ff3d cd1f abbe
000002f0: c458 62be 2af4 0bbe 9784 25ba 6fd1 6abe
00000300: d26b a43d d3e4 953d 6071 c93d e7f9 75be
00000310: 8a3d 483e c4c6 15be c1d3 a43d 9d15 98b9
00000320: d8dd adbd 415e 1b3d 9e1f c9bd af30 e43d
00000330: a812 38be 6d81 edbd 8e20 7ebb a6a1 3cbe
00000340: 270f 4c3b 78c0 76be d006 4fbe 8eae 03bd
00000350: 2969 99bd 29a7 4b3e 0b4e 153e be29 253d
00000360: c9f1 febb cbfb 053e f6cb 013d 58c3 b43d
00000370: 38fe 97ba bb2a 69be 8991 27be e21c 7f3d
00000380: d1f3 213e f139 9a3e eec0 80be c894 f63d
00000390: b16e 403e 454f 173e 2551 b23b d02d 3cbe
000003a0: 9cdd 37be cc57 79be a22b 413e e79b e73d
000003b0: 9bca 2c3d 6d51 df3d 6905 813e a5da d3bd
000003c0: 4915 7c3e 2fc0 933e 438a 80be dacf 92be
000003d0: b65b 843e b7ea 853e 2696 bc3d 69e7 a23d
000003e0: 0daf 363d 7875 3fbe f494 a13e dd2d 81be
000003f0: 37f2 51bd a97a bf3d 0370 1cbd 7f20 cfb7
0.15516518 0.041481573 0.16340117 0.15799753 0.21796496 -0.3010587 -0.15998495 0.05115036
0.08259451 0.044855483 -0.3291847 0.10436443 0.17863671 -0.20161504 0.24956064 -0.18529287
-0.16555817 0.023591166 -0.09649734 0.20066792 0.15360871 -0.29243144 0.11887833 0.063505225
-0.1400238 -0.123888895 -0.011306463 -0.25492525 0.1683583 0.11173495 -0.22962895 -0.09698288
0.19718215 -0.021203822 -0.18166533 -0.08011834 -0.17294076 -0.042406425 -0.15320271 -0.028754227
-0.07264558 -0.13447368 -0.17522402 -0.03894498 -0.16206995 0.1728505 -0.00079237606 -0.16645138
-0.13534467 -0.22671789 -0.16136639 -0.07052586 -0.2330726 -0.21168233 0.13150372 -0.08776093
-0.0647302 0.14985876 -0.19188458 -0.035680536 0.17726532 0.07344089 -0.118959814 -0.22911163
-0.22579443 0.17561239 0.043870162 -0.013072898 -0.020873321 0.19672598 -0.024351675 0.096805304
-0.0007279297 -0.009783203 0.10497821 -0.18039022 0.1786131 0.17517036 0.052424178 0.12533797
0.20261957 0.4537165 -0.07838342 -0.28128496 -0.10448951 0.00095010136 0.13153593 0.007757931
0.1447407 0.1940759 0.21826547 -0.26566744 -0.11773866 0.1713577 -0.07988628 0.022935594
0.26662374 0.30080423 -0.30774337 0.026571332 0.13516909 -0.27700904 0.18566082 0.18208109
0.19555102 0.19453542 -0.1369364 0.032391246 0.105185695 -0.16334492 0.03988815 -0.19669385
-0.27897257 -0.16681333 -0.090255186 -0.052170336 -0.19193311 -0.28020126 -0.016062114 -0.14583671
0.24289075 0.0861921 -0.16471905 0.052799456 0.009435031 0.04484502 -0.23348297 -0.13842618
0.07896821 0.26013136 -0.10849235 -0.28081968 -0.27868837 -0.17998213 -0.10783238 -0.19963644
0.46962288 -0.12568748 0.11243952 -0.17011806 -0.15435512 -0.1948895 -0.16366221 0.0639315
-0.23648912 0.2534127 -0.2559236 -0.017559577 0.15054855 -0.00726846 0.1407326 0.14137001
-0.06136818 0.024395874 -0.20858337 0.09785299 -0.23245394 0.13717365 0.048120916 -0.015373445
0.16716622 0.120012715 0.37604493 -0.37298754 -0.21138328 0.2521102 0.3668572 -0.0916977
0.18760663 -0.062470045 -0.15437573 0.24938594 -0.14010213 -0.2125351 -0.16654971 -0.100049876
0.2689089 -0.08587076 0.0428185 -0.16280748 -0.103054374 -0.2231788 -0.22390558 0.120416984
0.048311006 -0.025492337 0.12455799 -0.334227 -0.22104174 -0.1366736 -0.0006314008 -0.22931455
0.080283776 0.073190354 0.09836078 -0.24021111 0.19554725 -0.14626604 0.08048201 -0.00029007802
-0.08489579 0.037931684 -0.098204836 0.11142098 -0.17975867 -0.11596952 -0.0038776728 -0.18421039
0.0031136961 -0.24096859 -0.20217443 -0.03214889 -0.07490761 0.19887985 0.14580552 0.04032301
-0.007780288 0.13084333 0.031688653 0.08826321 -0.0011596149 -0.22770207 -0.16364111 0.062283404
0.15815665 0.3012233 -0.25147194 0.120400965 0.18792225 0.14776333 0.005441802 -0.18376851
-0.17955631 -0.24349898 0.18864301 0.11309033 0.042185407 0.109042026 0.2519944 -0.103444375
0.24617495 0.28857562 -0.25105485 -0.28674203 0.2585122 0.26155636 0.09208326 0.07954294
0.044600535 -0.18697155 0.31558955 -0.25230303 -0.051256385 0.093495674 -0.03819276 -2.4691455e-05

encoder.blocks.0.mlp.fc1.bias f4 [64]
00000000: 89bb 24bd c920 42bd ac39 dabc a678 efb6
00000010: cd0d 20bc 3950 a3bd be9b a5bd 38cf 693b
00000020: aa04 a6bd dde9 20bb a007 743c e918 31bd
00000030: 9389 8cbd 260f 6eba c841 3bbd 154f 05bd
00000040: c654 21bd e5de 9ebc ef95 78bd 66e7 78bc
00000050: 8545 26bd 5311 0dbd 1a7f 00bd 2d83 0abc
00000060: d675 06bd eb6e 04bd 47ae ffbc d28c 223c
00000070: 1b46 0ebd e3ad 2abc f60b f4bc 7e30 ee3b
00000080: 5e09 18bd 94ec 9bbd 5e5a 0fbd 0ebc 8bbd
00000090: 3701 99bc 5277 143d dbc1 33bd e630 1bbb
000000a0: fe8b 443d 7d79 993b 2104 c9bb bbc3 0ebd
000000b0: f214 ee39 f3ec d73c c484 713d 6371 b4bd
000000c0: 686b b7bc a7aa 81bd 38f5 493d e0e4 02bd
000000d0: 9dcb cbbb 3eb4 053d d45f 42bd ebd3 a03c
000000e0: 0219 46bd 5124 24bc 8c63 a13c 2473 f63b
000000f0: 2de6 94bd 004e 88bd 34d7 26bd 83ec bfbd
-0.04021791 -0.047394548 -0.026638828 -7.1368004e-06 -0.009768915 -0.07974286 -0.08086346 0.003567649
-0.08106358 -0.0024553456 0.014894396 -0.043236647 -0.06862178 -0.0009081237 -0.04571703 -0.03254612
-0.039387487 -0.019393394 -0.060689863 -0.015191888 -0.040593643 -0.03444035 -0.031371213 -0.008454126
-0.03282722 -0.032332342 -0.031211032 0.0099212695 -0.034734827 -0.010417434 -0.02979086 0.0072689643
-0.03711831 -0.07613483 -0.03499829 -0.06822978 -0.018677337 0.036246605 -0.043886047 -0.0023680269
0.04798507 0.004683672 -0.0061345254 -0.034854632 0.00045410503 0.026358103 0.058964506 -0.08810689
-0.022390082 -0.063313775 0.049306124 -0.031956553 -0.006219341 0.032642595 -0.04745467 0.0196323
-0.048363693 -0.010018424 0.019700788 0.00752105 -0.07270465 -0.06655502 -0.040732577 -0.09371283

encoder.blocks.0.mlp.fc2.weight f4 [16, 64]
00000000: e56a c7bd 928c 823e 4a87 edbd 8ddc 783d
00000010: c221 04bd a322 60be 722e 263e fa7e 493e
00000020: d1d5 863d db5f 963c 2874 1cbc 75b7 b6bc
00000030: a888 c4bd 55fd d73d 3b43 633e abbb 6b3e
00000040: 03f3 ad3d 1104 523b 30a5 13be c741 aebc
00000050: d05d 80be f015 2cbe a860 12be 8d4c 6cbe
00000060: b865 5b3e 0869 78be e740 5f3d 6938 6cbe
00000070: d154 363e c170 32be 370b 5c3e 803a 8e3e
00000080: 373d e93d 6e4d 10bd 0724 8dbe c033 31be
00000090: 0214 dc3d fc9e 053d abff 87be 9e73 83be
000000a0: 70e2 973e 15d1 15bc 24db 533e 79f0 703c
000000b0: 460b 2a3e 9f07 213e 26a9 a13d 35a6 a3be
000000c0: c197 d5bd a4c0 4bbe bc24 213e f589 31be
000000d0: 6c21 443c 1c90 9b3d 3785 2fbe 0223 793e
000000e0: ab0d e33d 36e9 883d ca93 673e b545 843e
000000f0: b4fe 473d b377 22be b396 603e 54f3 b83c
00000100: 3881 653e 5cfc 3bbe 2d45 1bbd 72a9 8dbe
00000110: f571 463d 6d07 8cbe ad3a adbe a607 783e
00000120: a7d3 ea3d 093b 90ba 35a8 503e fc85 843c
00000130: fa7c b33d dbdc 18bd 8734 8abe 43df dbbe
00000140: 37e0 ebbd 31ef 80be 3544 21be 8aaa 0fbe
00000150: 94cf 9cbd 0347 553e 3d68 8c3d 35db a7be
00000160: 6851 263e 33de 233e 21ca 21be cc40 7abd
00000170: bf76 d9bc a96a 64be e524 b7bd 1789 203e
00000180: 3ca3 da3b dff0 70bd 46b1 3a3d b353 a3bd
00000190: 2b04 d73d 13fa fb3c 0e3b 98be 9b34 90be
000001a0: 2600 c3bd f01c 5a3e 1bdd c53d dc2b 893e
000001b0: d77c 143e f36b 3c3e 0052 903e ce6b 273e
000001c0: dbdc 3cbe 8cbe 02be 77fe cd3b 8405 19be
000001d0: d2ed d0bc 82ed 363d a754 b53d 0ef3 f9bd
000001e0: 3e47 9fbd c13d 0a3e c5e3 84bc cf91 58be
000001f0: 8216 20be c396 a83d 6cf9 19be a5b7 9bbe
00000200: 5ed9 f1bd 15f1 ff3d 7d70 203e 59d1 683d
00000210: bd5c 6bbe a92f 913d aeff a7bd cad4 c73d
00000220: 8fb3 aabe 591b d53d d55e 273e f0f7 9a3d
00000230: 2399 603e fdbd e2bd fed3 653d ad57 c53e
00000240: 1c0e 5c3e c98d 9f3d ab67 8abd 0542 703e
00000250: e644 62be 3056 b3bd 55b2 693e 8ef4 08be
00000260: 7d82 8c3d ac2f 193e 98ee e53d c1aa 9bbd
00000270: c001 c1be db40 873c 479a 75ba aa06 b93d
00000280: 5e87 0e3e 79de 27bd 0167 c4bd ba6c 41be
00000290: 81c5 003e f08d 8abd 304e a63e bcb2 343e
000002a0: f7c1 aabd 1171 9a3c 4bc7 03bd 71ae 00be
000002b0: 9e32 c0bd 6821 ce3e db2e 723e 0afa 95bd
000002c0: fe74 1d3e 93de 673e 0bee 10be dc18 23be
000002d0: b50b 833e 54de 473e 7146 2d3d 3954 523e
000002e0: 9334 e2bd 9f1c eebd 71e9 76be d7b4 b3be
000002f0: 048b 803e 26a4 7e3e bf90 b33c df02 71bd
00000300: 9b48 ffbc 58fe c53d 11f4 553c 57ca 623d
00000310: 282a 293d 3466 9d3d f9ea 05be 32b6 5cbe
00000320: 07dd 903e f040 d63d b45d 09be 0b91 09bd
00000330: b3f3 f8bd 55e7 343e 512c 2a3e b1de acbe
00000340: c6d5 ddbd 191a a6be 8121 b6bd b135 023e
00000350: 66c7 85be cd33 043e 46cd a03c c0e9 ee3d
00000360: 25f6 493e defc 8dbc 2245 12bd 05c6 90be
00000370: 36d7 a6be ffd5 b5bd f72d 823d 6ed4 c9bd
00000380: 7e9e 9dbe c68b afbd 412c 50be 0fdf b7ba
00000390: 9656 e3bd f19f 993d 72ed 6abc dd4d d03d
000003a0: 4a5d b73e a1ba 99bd eede 7c3e 684d 683d
000003b0: e084 763d bec9 ae3e 4669 9abc 8e12 22be
000003c0: 7f00 d53d 0aac 65be 5807 ac3d ccb6 7b3d
000003d0: 81f3 f1bd 0cd8 82be 2bac f6bd b1ea 993e
000003e0: 1f43 683e d104 99be 98f7 9a3e 6d54 6b3e
000003f0: 15ab 963c 221f 4cbe 3753 6dbd 08f1 1abe
-0.097371854 0.25497872 -0.1159807 0.06075721 -0.032258756 -0.21888213 0.16228655 0.19677344
0.06583751 0.018356254 -0.009549178 -0.022304276 -0.095963776 0.10546366 0.22193615 0.23020808
0.084936164 0.003204588 -0.14418483 -0.0212716 -0.25071573 -0.16805243 -0.14294684 -0.23076077
0.21425521 -0.24258816 0.054505255 -0.23068394 0.17805792 -0.17425825 0.21488653 0.27779007
0.11388629 -0.035230093 -0.2756655 -0.17304897 0.10746004 0.032622322 -0.26562247 -0.25674146
0.29664946 -0.009144087 0.20689064 0.014705771 0.16605863 0.15725563 0.07893591 -0.31962743
-0.104293354 -0.19897705 0.1573667 -0.17337783 0.011970859 0.07595846 -0.17140661 0.2432976
0.11086591 0.066851065 0.22614971 0.25834432 0.04882689 -0.15865974 0.21932487 0.022576965
0.22412574 -0.18357986 -0.037907768 -0.2766834 0.04844852 -0.27349415 -0.3383383 0.24221668
0.11466151 -0.0011003922 0.20376666 0.01617717 0.08764072 -0.03732 -0.269932 -0.42943773
-0.11517375 -0.2518249 -0.15748675 -0.14029899 -0.0765678 0.2082787 0.068558194 -0.3278443
0.16241992 0.16002731 -0.15799762 -0.06109695 -0.02654588 -0.22306313 -0.08942584 0.15677296
0.006672291 -0.058823463 0.045579217 -0.07974949 0.10498842 0.030758893 -0.29732555 -0.28165135
-0.09521513 0.21300101 0.09661313 0.26791275 0.14500748 0.18400554 0.2818756 0.16349718
-0.18443625 -0.12768 0.006286438 -0.1494351 -0.025504027 0.0446601 0.08854037 -0.12204562
-0.0777726 0.1350012 -0.01622189 -0.21149372 -0.15633586 0.082318805 -0.15036553 -0.30413547
-0.118090376 0.124971546 0.15667911 0.056840274 -0.22984596 0.070891686 -0.08203064 0.09757383
-0.33340117 0.10405607 0.1634477 0.075668216 0.21933417 -0.11071394 0.056110375 0.38543454
0.21489757 0.07790715 -0.06758054 0.23462684 -0.22096595 -0.08756673 0.22821935 -0.1337454
0.06860826 0.14959592 0.11227149 -0.07600928 -0.37696648 0.016510418 -0.00093689974 0.09034474
0.13918826 -0.04098365 -0.09589959 -0.18889132 0.12575342 -0.06765354 0.32481527 0.17646307
-0.08337777 0.018852742 -0.032172482 -0.12566544 -0.093846545 0.40259862 0.23650686 -0.07323082
0.1537666 0.22643499 -0.14153306 -0.15927452 0.2559487 0.19518405 0.042303506 0.20539941
-0.11045184 -0.11626553 -0.24112488 -0.35098907 0.2510606 0.24867305 0.021919606 -0.05884063
-0.03116255 0.09667653 0.013058678 0.055368748 0.04129997 0.07685509 -0.13077916 -0.21553877
0.2829363 0.104616046 -0.13414651 -0.03358559 -0.12155857 0.17666371 0.16618468 -0.3376365
-0.1083179 -0.32441786 -0.08893109 0.12715794 -0.2612869 0.12910385 0.019629132 0.11665678
0.19722803 -0.01733249 -0.03571046 -0.28276077 -0.32586068 -0.08878707 0.06356423 -0.09854971
-0.30784982 -0.085715815 -0.20329382 -0.0014028269 -0.11100499 0.075012095 -0.014338838 0.10171101
0.3581336 -0.075063 0.24694416 0.056714445 0.060185313 0.34138292 -0.018849026 -0.1582739
0.10400485 -0.22428909 0.08399838 0.061453626 -0.11814023 -0.25555456 -0.12044557 0.30061868
0.22681855 -0.29886487 0.30267024 0.22981425 0.018392125 -0.19933751 -0.057940688 -0.15131009

encoder.blocks.0.mlp.fc2.bias f4 [16]
00000000: 453b a23c 63eb 393d 797e 21bc 6303 603d
00000010: 6bcd b63c 84c9 01bd 40f2 00bd 6f14 103c
00000020: 0717 9dbb df85 bc3c 76cb e3bc c172 94bc
00000030: cbcc 17bc d372 883d 1bd2 0cbd 5077 123d
0.019803653 0.045390498 -0.009856814 0.05469073 0.022314748 -0.03168632 -0.031481028 0.008793934
-0.004794005 0.023013053 -0.027806979 -0.018121125 -0.009265135 0.06662526 -0.03438006 0.035758317

encoder.blocks.1.norm1.weight f4 [16]
00000000: 1339 613f f034 803f 52e1 753f d22b 933f
00000010: 702a 513f a3d5 783f 929b 863f e914 873f
00000020: 1bc4 853f 9720 7f3f 7661 813f eeef 813f
00000030: dae9 803f 6973 7c3f bd87 823f 6b24 843f
0.87977713 1.0016155 0.96046937 1.1497748 0.8170538 0.97200984 1.0516226 1.0553256
1.0450472 0.99659103 1.0107868 1.0151346 1.0071366 0.986136 1.0197674 1.0323614

encoder.blocks.1.norm1.bias f4 [16]
00000000: 70d4 1a3c 1d81 bc3b 65a0 0cbc ec1c 8b3d
00000010: 5ae1 1d3d 6b94 93bc e685 4bbd 8925 373d
00000020: e951 64bc a0a0 363c 8a47 10bd 6547 d2bc
00000030: 433a 83bc 1110 cc3d ceea 1abd 6f76 373d
0.009450063 0.005752696 -0.008583163 0.06792626 0.03854499 -0.018015107 -0.049688242 0.04471353
-0.0139355445 0.011146694 -0.035224475 -0.02566881 -0.016018992 0.09964002 -0.037821583 0.04479068

encoder.blocks.1.attn.qkv.weight f4 [48, 16]
00000000: aa51 1fbe 630b dc3d a7e0 48be 362f 473d
00000010: 77db b2be baf1 6b3e 3b93 903e 7f90 81bd
00000020: 9038 54bd c9de 223e 9a46 9ebb e7d6 413e
00000030: e814 d33d 53d8 8dbe 841a 963e e912 833e
00000040: 222a 45bd 06d7 603e 585f bebd f08a 6b3e
00000050: 1ff1 ab3e d331 c93e c685 b93d d923 2fbe
00000060: 1dcc 4ebc 99ff 54be f66c 09be 6fed b0be
00000070: f406 233e 6583 96bd c694 bebe e04e e43e
00000080: 77fe cc3d 212f ef3d c201 9dbd 1304 95be
00000090: 1ae8 2bbe 6c68 dcbc e011 17be 26b8 153e
000000a0: 4a87 0f3e 9125 a5bd 77f6 f13d 8233 9c3d
000000b0: d93a 063d e983 713e 7a60 25bd 5fd4 89be
000000c0: 334a c2bd 331d 91be 85d5 99bd e871 30be
000000d0: 168e 53bd 4e95 c53d 90a0 55be 9972 96bd
000000e0: 6fbb bfbc 3c2c 2a3e a1ff 95bc 610a 1dbe
000000f0: e9df 56bd 4cda 043d d814 223e 053b 29be
00000100: 699f 133e 47c8 0bbe d565 7f3e 793d b9bd
00000110: 7acf 5b3e 1d8c 30be 60bc 8fbe 83d7 24be
00000120: 2a97 d43b f598 2fbe c24f 9fbe b1a3 1bbc
00000130: 81d9 1d3d 42ad 323d eb4c e6bc bed8 dd3d
00000140: e475 0fbe 2ba8 f03d 5b1f a5be ac32 a3be
00000150: 1d66 2c3e 6d89 f6bb 08bd cc3c 13ac d0bd
00000160: 0c7e c43b 0f0f b63e 23db 093d 212b cebd
00000170: 8d6f b9bc fe51 6abd 45b3 9b3e 85a1 e03b
00000180: 4fe9 51bd f3e0 3bbe f940 4fbe 1cce 8e3e
00000190: b855 a63e 8016 f33d 82bd 1b3e fab7 32be
000001a0: f50a 1ebc 68a9 2fbe 0f7f 59be e179 5fbe
000001b0: feab 303e ac97 b03d e302 a5be 9bdd df3d
000001c0: d6cc 73be 2e19 a23e a71b 933e c19c c23d
000001d0: 2b52 163e 95fe e5bd 59bc 98be c075 b03d
000001e0: acb4 2a3e 8b9c 1f3e 234b 373d f0bc f83d
000001f0: 0c80 bbbd 193e 0ebe a4b8 533e 3979 a83e
00000200: 6ed6 4b3e b4f6 32bc 8348 563e ef3f abbe
00000210: 7357 61be 62f4 3abb 3d42 ecbd 9929 bcbd
00000220: ee0f 98bb 4b09 12bd 8a81 33be 981c dc3d
00000230: 5f3e 1cb9 dff8 88be 12e7 503e 197a 85be
00000240: 05a7 b13e f3a2 323e 2566 1abe 045d 2dbe
00000250: 64f0 b6bd c911 5dbe 110d 3f3d 9fd1 0e3e
00000260: b00b 953d 1782 e0bd f059 df3e c646 8b3d
00000270: e7fd 7b3e 0388 12be f8c8 133e c621 97bd
00000280: 956a 99bd e7e8 2dbd 9fc0 093e 2bb0 c5bd
00000290: 9fca 3f3e 516b e6bd 897e 153e 0df5 5e3d
000002a0: 3200 633c dd66 423e 3ae3 983d aa70 533e
000002b0: b4e1 7d3d 5cbe 57be c82c dabd 1a47 353e
000002c0: e569 7dbd 31ed 913e bc3c 923d b6b6 95be
000002d0: 6bfa a4bd d81f 8e3e 9b9c 323c c8c7 5d3e
000002e0: 388c 053e 4a1f b53c 40ca f8bd 0377 d2be
000002f0: 8956 7dbe 2540 79be ab50 2b3d 28dd 85be
00000300: 68fb bf3d 458d 933e e982 a23d f131 a7be
00000310: dbbd 95be 3be8 ccbe 4671 bb3e db19 a5be
00000320: 708f 95bd 5df6 e3bd 0c24 0cbe bc23 6abe
00000330: 9c68 aabd 5eac 703e aba6 ca3b 99f4 03be
00000340: 7e5c bb3e a34e 08bf a3bc dc3d d79f b63d
00000350: e75b f93e f4da 803e 362a 1a3d e935 c63e
00000360: d64c 1fbe 8816 ac3a 1196 cabd 586c d13d
00000370: 4b07 a83b bb8f a83e 415a a2be c60e c83e
00000380: aa90 903d 9394 78bd e1e9 dd3d b091 4e3d
00000390: a7cd b9bd 8324 66bd 0f48 1fbe 4e4c 813e
000003a0: 539c c8be f3b6 1a3d 7df2 d4be 7f85 e0bd
000003b0: 6331 ea3d 2b9a c33c 8bc9 d1be 959d 56bb
000003c0: 2292 04bd 1add 13bd 220a ad3e 23b6 a73e
000003d0: 0e4d 19bd 5c84 dd3e b51b aabe 9677 d63e
000003e0: 29f4 c6bd c850 4f3e 659f 00bf 9200 0fbe
000003f0: ff28 72be 1a5d dc3e e447 1e3d 3b93 bd3d
-0.15558496 0.10744359 -0.19616948 0.04862901 -0.34933063 0.2304143 0.28237328 -0.063263886
-0.051811755 0.15905298 -0.0048301937 0.18929635 0.10306722 -0.27704105 0.29317105 0.25600365
-0.048135884 0.21957025 -0.09295529 0.23002219 0.33582398 0.39295825 0.090587184 -0.17103519
-0.012621907 -0.20800628 -0.13420472 -0.34556147 0.15920621 -0.0734928 -0.3722288 0.44591427
0.10009473 0.11678911 -0.07666351 -0.2910467 -0.16787758 -0.026905261 -0.14752913 0.14621028
0.14016452 -0.08063806 0.118145876 0.07627012 0.032770965 0.23585476 -0.04037521 -0.2691984
-0.09486809 -0.2834259 -0.07511429 -0.17230952 -0.051649176 0.09647618 -0.20862031 -0.073460765
-0.023404805 0.16618437 -0.01831037 -0.1533599 -0.05245963 0.032434747 0.15828264 -0.1652642
0.14416279 -0.13650618 0.2494119 -0.09044928 0.21465865 -0.17240949 -0.28073406 -0.16097836
0.0064877467 -0.17148192 -0.31115538 -0.009499476 0.038537506 0.043622263 -0.02811285 0.10832356
-0.14009815 0.117508255 -0.32250485 -0.31874597 0.16835828 -0.0075237066 0.02499248 -0.101890706
0.0059964713 0.35558364 0.03365625 -0.1006682 -0.0226362 -0.0572071 0.3041021 0.006855192
-0.05124789 -0.1834753 -0.20239629 0.27891624 0.32487273 0.11869526 0.1520901 -0.17452994
-0.009646167 -0.17154467 -0.21239875 -0.21823837 0.1725311 0.08622679 -0.32228765 0.1093094
-0.23808607 0.31659836 0.28732035 0.09502555 0.14679782 -0.11230198 -0.29831198 0.08616209
0.16670483 0.1558706 0.04474939 0.12145412 -0.091552824 -0.13890876 0.20675904 0.32904986
0.19906017 -0.010923076 0.20926099 -0.33447215 -0.22006015 -0.002852701 -0.115360714 -0.091876216
-0.004640571 -0.035653394 -0.17529884 0.10747641 -0.00014900554 -0.26752374 0.20400646 -0.26069716
0.34697738 0.17444973 -0.15078028 -0.16930014 -0.089325696 -0.21588816 0.04664332 0.13947152
0.0727762 -0.10962313 0.43623304 0.06800608 0.24608575 -0.14309697 0.14432132 -0.07379489
-0.07491032 -0.04245844 0.13452385 -0.09652742 0.18729638 -0.11250938 0.1459905 0.054432917
0.013855027 0.18984552 0.07465215 0.20648447 0.061982825 -0.2106871 -0.106530726 0.17702904
-0.061868567 0.28501275 0.071404904 -0.2924096 -0.08055576 0.2775867 0.0109015955 0.21658242
0.1304177 0.022109646 -0.12147951 -0.41106424 -0.24740042 -0.24340875 0.041824978 -0.2614529
0.09374124 0.28818718 0.079351254 -0.3265529 -0.2924641 -0.40020928 0.36609858 -0.3224629
-0.07302749 -0.111309744 -0.13685626 -0.22865194 -0.08320734 0.23503253 0.006184419 -0.12886275
0.36594003 -0.5324499 0.10778167 0.08917206 0.48702928 0.25167048 0.03763791 0.38713005
-0.15556654 0.0013129273 -0.09891904 0.10225743 0.0051278225 0.32922158 -0.31709483 0.3907377
0.070588425 -0.060688566 0.108356245 0.050431907 -0.09072428 -0.056187164 -0.15554832 0.25253528
-0.39181766 0.03777213 -0.41591254 -0.10962962 0.11435201 0.023877224 -0.40974078 -0.0032747735
-0.032365926 -0.03609953 0.33796793 0.32756147 -0.037427 0.43265045 -0.33224264 0.41888112
-0.097145386 0.2024566 -0.50243217 -0.13965061 -0.23648451 0.4303978 0.03864278 0.092565976

encoder.blocks.1.attn.proj.weight f4 [16, 16]
00000000: 5e7f efbe ac78 06be 244a 933e 5854 d2bd
00000010: 4f52 113d 755a c03e 6213 c2be 7591 c23e
00000020: e0f3 973e bff4 713e cf14 9fbe fb85 d7bd
00000030: bdb3 c0bc 0ca1 8bbe db62 64bd 711f b03e
00000040: b409 933c 3290 ec39 7775 c03d 67f7 09be
00000050: f4b7 553c 9f08 913e 6733 c53e 9041 413e
00000060: bdab b23e c512 2ebd de67 043e bc0c 87be
00000070: 74d8 70be b616 d73d c124 a93e a17d c7be
00000080: 889e 64be e642 ccbd 4291 c63d d45b a3bd
00000090: 8b03 adbe 90f7 363e e3e6 b63e d78d a0be
000000a0: 9296 73be 9878 623e 7c1f 95be 3823 693e
000000b0: 4894 7bbd 20ca 8ebe c70b a83e dd3e 42be
000000c0: 4149 66be 0888 6abe 6354 393b 35ac 3d3d
000000d0: 36f1 90be 3ef0 bdbe 2154 43be 628e d43d
000000e0: 5935 773d 7716 10be c1ab 8dbd bb00 9dbe
000000f0: bb76 7bbd 1c6d c03d 052d bf3d 8e1d bbbe
00000100: cc82 05be b7b5 873e a10b 56be dd29 a63e
00000110: 1ab4 d0bd 417d 21be 7451 f5bd 2c84 dabd
00000120: 5bab 0dbf 4a17 a7be 025f 0f3d 7730 4cbe
00000130: d29c 533e 9ef5 80be 6f9d 9f3e ef62 853e
00000140: 3e98 793e badd babd 103e 543e afc3 a0be
00000150: 7971 e23e ba90 763e 70c0 1bbd f998 3fbd
00000160: 6531 b8be ade6 083d 7f34 4bbe 39af ffbc
00000170: 3448 793e dac0 bdbe 0015 a7be 0e58 80be
00000180: ed0f 6a3d ee11 b33e 2daa d8bd acfd 60be
00000190: ddbc 11be 8f35 dc3e 3034 7e3e 414a 713e
000001a0: 45a1 b53e 5440 b13d c70f 3fbe bea0 253d
000001b0: 4435 2a3e 68f2 9e3d 80ce 5dbe 6cf1 adbe
000001c0: 4323 bbbe d5d7 c1be fa23 b43e 2360 cdbd
000001d0: e75a 85be 5748 58be ddcb 223d 3f0e 07bd
000001e0: ffe3 c2bc 5fe4 ebbe bafb c4be 386b d73e
000001f0: f769 a5be ac60 31be 2052 a5be 6125 33be
00000200: 61ff ac3e c62a 49be 1d04 713d d573 84be
00000210: f68b c0bd 439a d13e 4875 9f3e bb55 213e
00000220: 5269 973e 6936 9fbe fa83 a93e c73d 8a3e
00000230: ece5 e0be 15a4 d33e 11b3 9ebe 7a4a cebd
00000240: 0344 95be 7ac9 433d 8d42 f2bc b49e 1c3e
00000250: 6062 b23e b7b3 e2bd f1b2 d33e edcc 7d3d
00000260: 99fb 6b3e 6641 19be 1aba 473d 0bf4 f03d
00000270: 7fe7 533e c5f9 d0be 54fb 713e e4e5 0dbe
00000280: 4248 bdbe 7674 4ebe c013 bf3e 493d 98bd
00000290: ac02 e9be 60e2 a4be dac5 56bd 7b55 9e3d
000002a0: ebd1 5c3e 6ae1 c2bd 2317 98bd cd50 ca3d
000002b0: 4368 d3bd 47ff 58be 29fa 893e 777b b63e
000002c0: 4931 ecbd ada3 afbe 6922 7ebe f5b5 92be
000002d0: 9d4c bf3e 6300 6b3e 9893 41be 945d 9dbd
000002e0: 362e 9e3e fc18 a83d 50d3 d23e 9640 d33e
000002f0: 7021 c03e c763 aebe a7be 2abd b921 92be
00000300: 85fe 60bd ee55 a83e cac6 3fbe 3b63 883e
00000310: 4ed3 bb3e 94a6 ae3e b5c5 af3d 35d6 a8be
00000320: 73d5 aa3e def6 05be 10a2 4c3e caff a6bd
00000330: b9a9 08be 66c2 e53e 1cf7 c7bd a396 44bd
00000340: 8cc6 cf3d 9498 aa3c 1434 ef3e 6a12 903c
00000350: c5d9 a8bd 41fa 02bf e1ee adbe fe14 e13e
00000360: 7172 3abc 09ee 90be b7d6 7fbe 6ace acbe
00000370: 8e51 42bd 492d 81be 5a88 c7bd 21fb 093e
00000380: 8756 4b3e cfc8 c4be 93c2 c4be 2467 6b3e
00000390: 9155 663e 748b 57bd ea8e 283e fd3d a23e
000003a0: 6da8 033e 3cc0 fabd 1238 be3e ac17 133e
000003b0: 7092 00bf 7115 a93e be30 ba3e e1a9 90be
000003c0: 70d9 a53e 7c0e 033f 9f7c 743e 2a29 eb3d
000003d0: 3970 a7be a9f8 a4be b16e cf3d 9cd2 a73e
000003e0: 0154 053e e437 3e3a e5ee 3f3e a292 5abe
000003f0: 118c 4d3e ea85 ecbd b391 cd3d 557a d83d
-0.4677686 -0.1313197 0.28767502 -0.102699935 0.035478886 0.37569013 -0.37905413 0.380016
0.2967825 0.2362852 -0.31070563 -0.105236016 -0.023523206 -0.27271307 -0.05575834 0.34398988
0.017948963 0.00045120862 0.09397405 -0.13473283 0.013044346 0.2832689 0.3851578 0.18872666
0.3489665 -0.04249837 0.12930247 -0.26376903 -0.2352007 0.10502379 0.33035854 -0.38963035
-0.223261 -0.09973697 0.096956745 -0.07976499 -0.33791766 0.17867875 0.35723028 -0.31358215
-0.23787907 0.22116315 -0.29125583 0.22767341 -0.06142071 -0.27888584 0.32821485 -0.18969293
-0.22488882 -0.22903454 0.0028279058 0.046306808 -0.2830903 -0.37097353 -0.19075061 0.1037872
0.06035361 -0.1407107 -0.06917525 -0.3066462 -0.061392527 0.09395811 0.09334759 -0.36545986
-0.13038176 0.26505825 -0.20902874 0.32453814 -0.10190602 -0.15770437 -0.119784266 -0.10669741
-0.5533959 -0.32634956 0.035002716 -0.19940363 0.20665291 -0.2518739 0.311748 0.26052043
0.24374482 -0.09124322 0.207268 -0.31399295 0.44227198 0.24078646 -0.03802532 -0.046776745
-0.35975185 0.033423115 -0.19844244 -0.031211482 0.2434395 -0.37061197 -0.3263321 -0.2506718
0.057144094 0.34974617 -0.105793335 -0.21971768 -0.14232202 0.43009612 0.24824595 0.23563482
0.354746 0.08654848 -0.18658362 0.0404365 0.16621882 0.07761079 -0.21660805 -0.33973253
-0.3655034 -0.3785998 0.35183698 -0.10028102 -0.26045915 -0.21121345 0.0397452 -0.03297257
-0.023790358 -0.4607267 -0.38473302 0.4207399 -0.32307407 -0.17322034 -0.3228922 -0.17494728
0.3378859 -0.19645223 0.058841813 -0.25869623 -0.094016954 0.40938005 0.31144166 0.1575536
0.2957254 -0.310962 0.33108503 0.27000257 -0.43925416 0.41336122 -0.30995992 -0.10072799
-0.2915345 0.047799565 -0.02957275 0.15294915 0.3484068 -0.11069434 0.4134746 0.06196301
0.23045196 -0.14966354 0.048761465 0.117652975 0.20693778 -0.4081556 0.2363103 -0.13857228
-0.3696919 -0.20161614 0.37319756 -0.07433564 -0.4550985 -0.3220396 -0.05243478 0.07731148
0.21564452 -0.095156506 -0.07426288 0.09878693 -0.10322621 -0.2119113 0.2694867 0.3564107
-0.11532838 -0.34304562 -0.24817814 -0.28654447 0.3736314 0.22949366 -0.18903959 -0.07683864
0.3089463 0.082078904 0.41176844 0.41260213 0.3752551 -0.340605 -0.041685726 -0.28541353
-0.05493023 0.3287806 -0.18728176 0.26638207 0.3668465 0.34111464 0.085826315 -0.32975927
0.33365974 -0.13082454 0.19983697 -0.08154257 -0.13345994 0.44874877 -0.09763929 -0.04799522
0.10145292 0.020824708 0.4671942 0.017586906 -0.08244661 -0.5116311 -0.33971313 0.43961328
-0.011379824 -0.28306606 -0.24984251 -0.3375123 -0.047441058 -0.25229862 -0.09742804 0.13474704
0.19857226 -0.38434455 -0.38429698 0.22988564 0.22493578 -0.052623227 0.16460767 0.31687918
0.12857218 -0.12243697 0.37152153 0.14364499 -0.50223446 0.3302417 0.36365312 -0.28254607
0.32392454 0.51193976 0.23875664 0.11482461 -0.32702807 -0.32220963 0.101285346 0.3277787
0.13020326 0.0007256253 0.18743475 -0.21344998 0.20072962 -0.115489796 0.100375555 0.10570208

encoder.blocks.1.attn.proj.bias f4 [16]
00000000: 0591 8a3c 0a73 f23c 59b1 a2bb 83e3 7c3d
00000010: c38d 8f3b 6c2a 91bc 8841 35bd 661c f83c
00000020: 189f 2fbc 3617 3ebd afbf 723c 6fa3 7abc
00000030: 99f4 98bc 56c6 a83d 4aab 51bc 56f9 233d
0.016914854 0.02959587 -0.004964989 0.06174041 0.004380913 -0.017720424 -0.04425195 0.030286979
-0.010719083 -0.046408854 0.014816209 -0.015297755 -0.01867132 0.082409546 -0.012797186 0.040032707

encoder.blocks.1.norm2.weight f4 [16]
00000000: 3fcb 753f e32b 813f 7352 863f d59d 743f
00000010: 2f09 7f3f 6fff 5c3f 0853 753f d5a2 733f
00000020: 6a2c 813f d935 683f 898f 733f 5e45 753f
00000030: 3177 6a3f 2920 753f 64dc 7c3f e07f 693f
0.96013254 1.0091518 1.0493912 0.9555333 0.9962339 0.8632726 0.9582982 0.95170337
1.0091679 0.90707165 0.9514089 0.9580897 0.9158812 0.957522 0.9877379 0.91210747

encoder.blocks.1.norm2.bias f4 [16]
00000000: d4a4 afbc 61ce 87bc 07bf 213d b95d 31bc
00000010: 7bc2 283c 3d4f e4bc 84e0 553a 06f6 4ebc
00000020: 146b ecbc 6a87 343d 619e bd3b 25e0 703c
00000030: 83e6 0a3d 6e6a e2bc fe4d 7fbd 415a d8bc
-0.0214409 -0.016577901 0.03948882 -0.010825568 0.010300274 -0.027869815 0.00081587606 -0.012631899
-0.028859653 0.044074453 0.0057867025 0.014701878 0.03391124 -0.02763864 -0.06233024 -0.026410224
