Checkpoint/dict_20.pth (torch, 108787 bytes, 64 tensors)

encoder.cls_token f4 [1, 1, 16]
0	0x3ea651d7	0.32484314
1	0xbd7cef85	-0.06175186
2	0x3da21097	0.079133205
3	0x3fbcc245	1.4746786
4	0x3eb1a353	0.3469492
5	0xbfb61376	-1.4224689
6	0xbfd944e8	-1.6974154
7	0x3f0e1ff4	0.55517507
8	0xbf93c433	-1.154425
9	0xbc141df6	-0.009040346
10	0xbebe59fc	-0.37178028
11	0xbf880518	-1.0626554
12	0x3f081ea2	0.5317174
13	0x3f059d39	0.5219303
14	0x3dba1ea0	0.090878725
15	0x3fd0e8f7	1.6321095

encoder.patch_embed.weight f4 [16, 5]
0	0xbe6c6fe5	-0.2308956
1	0xbf1addfd	-0.6049498
2	0x3ebe3e46	0.37156886
3	0xbefff72e	-0.4999327
4	0xbeeebb76	-0.46627396
5	0xbf11e224	-0.5698569
6	0x3e02793f	0.12741564
7	0xbed96bb9	-0.42464998
8	0xbe439c88	-0.1910268
9	0xbe2d01ec	-0.16895264
10	0xbec2cbae	-0.3804602
11	0x3e412e53	0.18865328
12	0x3ef10a3c	0.4707812
13	0x3f06289a	0.52405703
14	0xbe303de2	-0.17211106
15	0xbd718915	-0.058968622
16	0x3e6d4669	0.2317139
17	0x3d9b8f53	0.07595696
18	0xbee6bd49	-0.45066288
19	0x3ec6086a	0.38678294
20	0xbdf86d6f	-0.12130248
21	0xbda159dd	-0.07878468
22	0x3ea4ab8a	0.32162124
23	0x3dabb359	0.08383817
24	0xbf0de061	-0.554205
25	0xbea68f5a	-0.32531244
26	0x3eac7c9f	0.33688828
27	0xbd607db2	-0.054807372
28	0x3e80aabd	0.25130263
29	0xbcddc22c	-0.027070127
30	0x3e9dbc5e	0.30807775
31	0x3ee35b2c	0.44405496
32	0x3ef2498b	0.47321734
33	0x3dcaa0d3	0.09893956
34	0xbebd0a8a	-0.36922103
35	0xbe47d118	-0.19513357
36	0xbeeacab3	-0.45857772
37	0xbcfbde24	-0.030745573
38	0x3e69cc04	0.22831732
39	0x3ef9fc5f	0.48825356
40	0x3e53a664	0.20668942
41	0xbdf5f0bd	-0.12008808
42	0xbf045e2b	-0.5170619
43	0xbe532246	-0.20618543
44	0xbe3fb6ac	-0.18722028
45	0xbeca689f	-0.39532945
46	0x3d09cabc	0.03364061
47	0xbea7fdac	-0.32810724
48	0x3e47fbac	0.19529599
49	0xbee78cdc	-0.45224655
50	0xbec5ffa1	-0.38671592
51	0xbdb3cbe0	-0.087791204
52	0x3dc21c24	0.09478024
53	0xbef770b2	-0.48328167
54	0xbedece98	-0.43516994
55	0xbdc40700	-0.09571648
56	0xbeb63789	-0.35589245
57	0xbe41538f	-0.18879531
58	0x3f165a6c	0.5873172
59	0xbf023d42	-0.5087472
60	0xbe91d4f4	-0.28482783
61	0xbebec467	-0.37259218
62	0x3ea1936a	0.3155778
63	0xbdde0856	-0.10841434
64	0xbe92272d	-0.28545514
65	0x3e173fd2	0.1477044
66	0xbe69abdc	-0.22819465
67	0x3dbaefb5	0.09127752
68	0xbe1f9de0	-0.15587568
69	0x3eaace6b	0.3336061
70	0x3e566087	0.2093526
71	0xbdf7a2d7	-0.12091606
72	0xbe483791	-0.19552447
73	0x3d83015e	0.06396745
74	0xbefeb805	-0.4974977
75	0xbebb8d40	-0.36631203
76	0xbee472c4	-0.4461881
77	0x3e9c9212	0.30580193
78	0x3effb37f	0.49941632
79	0xbe987692	-0.29777962

encoder.patch_embed.bias f4 [16]
0	0xbbedf086	-0.0072613386
1	0xbd82d618	-0.063884914
2	0x3bedbdac	0.0072552767
3	0xbccddc9d	-0.02512961
4	0xbd02cd15	-0.031933863
5	0xbd9907aa	-0.07472165
6	0x3c956cea	0.01824041
7	0x3d64dfac	0.055877373
8	0x3d24c102	0.04022313
9	0xbd2009b4	-0.039071754
10	0x3d040de1	0.0322398
11	0xbccea556	-0.025225323
12	0xbc39da0c	-0.01134349
13	0x3c3ff0c7	0.011715121
14	0x3d9989a8	0.07496959
15	0x3c1fbf03	0.009750131

encoder.blocks.0.norm1.weight f4 [16]
0	0x3f83ce72	1.0297377
1	0x3f8c76cf	1.0973758
2	0x3f8a2627	1.0792893
3	0x3f8391b4	1.027884
4	0x3f7b3d52	0.9814044
5	0x3f6cc3a3	0.9248602
6	0x3f7c93f0	0.98663235
7	0x3f806ce5	1.0033232
8	0x3f860be6	1.0472381
9	0x3f88a5ec	1.0675635
10	0x3f87cccf	1.0609378
11	0x3f951e38	1.1649847
12	0x3f85a6e3	1.0441555
13	0x3f91c412	1.1387961
14	0x3f76b62a	0.9637171
15	0x3f6cff68	0.9257722

encoder.blocks.0.norm1.bias f4 [16]
0	0xbd479f96	-0.048736177
1	0xbd2ba8a0	-0.04190886
2	0x3d7f3a20	0.06231129
3	0xbd2433ff	-0.04008865
4	0xbdbfb749	-0.09361131
5	0xbd16f7b3	-0.036857318
6	0x3bac9a13	0.0052673905
7	0x3d15855a	0.036504127
8	0xbd2144f5	-0.039372403
9	0xbd3ebf36	-0.04656907
10	0xbbd3ee4a	-0.0064676153
11	0xbc76403f	-0.015029966
12	0xbdadf7ef	-0.08494555
13	0x3cf98cec	0.030462705
14	0x3d149749	0.03627709
15	0x3d51ba36	0.051202975

encoder.blocks.0.attn.qkv.weight f4 [48, 16]
0	0xba8e0385	-0.0010834789
1	0x3e0b2b7f	0.13590811
2	0xbd5ad709	-0.05342773
3	0xbe25569a	-0.16146317
4	0x3d8871e3	0.06662347
5	0x3e338fb7	0.17535292
6	0x3e8251e1	0.25453094
7	0x3e6e5f9b	0.23278658
8	0xbee4d474	-0.4469334
9	0x3e49f0f2	0.1972082
10	0xbe9799c9	-0.29609516
11	0x3e3518f9	0.17685308
12	0xbea5488b	-0.32281908
13	0xbc54eb6d	-0.012995583
14	0x3e438c87	0.19096576
15	0xbd97ede7	-0.07418423
16	0x3cf7f481	0.030267956
17	0x3dadb796	0.08482282
18	0xbe512eb2	-0.20427969
19	0x3e0e345d	0.13887163
20	0xbe9ae415	-0.30252138
21	0x3ebb67dc	0.36602676
22	0xbe32ec86	-0.17473039
23	0x3dfffc3a	0.1249928
24	0xbe9ef625	-0.31047168
25	0xbea7c070	-0.32764006
26	0x3e1e5e26	0.15465602
27	0xbe576e43	-0.21038155
28	0xbe172a4a	-0.14762226
29	0x3b6fa60b	0.0036567475
30	0xbe89d30d	-0.2691883
31	0xbdd0030b	-0.101568304
32	0x3d1cebb3	0.038310718
33	0xbe1de53e	-0.1541948
34	0x3e6ebefa	0.2331504
35	0x3e20e923	0.15713935
36	0xbe4f47bf	-0.20242213
37	0x3e9f0981	0.31061938
38	0xbe93098d	-0.28718224
39	0x3eabbc3b	0.33542046
40	0xbe9b4cc8	-0.30332017
41	0x3e836659	0.25664023
42	0xbe116433	-0.14198379
43	0x3e8c7ac1	0.27437404
44	0xbea44178	-0.320812
45	0x3e8e8566	0.2783615
46	0xbdda2b0c	-0.10652742
47	0xbe111b3c	-0.14170545
48	0x3b58c9a7	0.0033079179
49	0x3de62f8a	0.11239536
50	0x3de8f0c3	0.11374047
51	0x3df9a458	0.12189549
52	0x3e51f342	0.20502952
53	0xbe348bbd	-0.17631431
54	0x3e3e1645	0.18563183
55	0x3c76c791	0.015062229
56	0xbd9eae18	-0.077480495
57	0xbc356241	-0.011070789
58	0x3d05934b	0.032611173
59	0x3cd8febc	0.026488654
60	0x3de256d7	0.1105172
61	0xbe8b4e7f	-0.27208325
62	0x3dc81e4d	0.097714044
63	0x3e370ecb	0.17876737
64	0x3d85dbc7	0.0653606
65	0x3da69516	0.08133905
66	0xbda9d29b	-0.08292123
67	0x3e547bce	0.20750353
68	0x3e24b53c	0.1608476
69	0x3cd23afd	0.025662893
70	0xbcf2439c	-0.029573254
71	0x3e4a0366	0.19727859
72	0xbd69b3df	-0.057056304
73	0xbc3370b8	-0.010952167
74	0xbe1ecf3b	-0.1550874
75	0xbe9dfd37	-0.3085725
76	0xbe4d1637	-0.20028006
77	0xbe3b98a7	-0.18319951
78	0x3e4678c9	0.19382013
79	0x3dbb4488	0.09143931
80	0xbdef39f2	-0.11680974
81	0xbe4f269d	-0.20229574
82	0xbe3252a2	-0.17414334
83	0x3dffd76b	0.124922596
84	0x3ea8cd43	0.32969102
85	0xbd56dcb0	-0.052456558
86	0xbe0fb526	-0.14033946
87	0xbd341fb3	-0.043975543
88	0x3eb2c366	0.34914702
89	0xbe2f16ad	-0.17098494
90	0x3ea51454	0.32242072
91	0xbe072346	-0.1319705
92	0x3ec5c361	0.38625625
93	0xbec00fb3	-0.37511978
94	0x3e5a5e93	0.2132514
95	0xbe12d0d6	-0.14337477
96	0xbd054c18	-0.03254327
97	0xbe2d6f87	-0.16937076
98	0xbd5b357a	-0.053517796
99	0x3e3365a5	0.17519243
100	0xbd6b31c1	-0.057420496
101	0xbe16079b	-0.14651339
102	0xbe3f638b	-0.18690316
103	0x3db0fc33	0.08641853
104	0xbdebb280	-0.115086555
105	0xbde46c54	-0.111534745
106	0xbc34f398	-0.011044405
107	0x3e81b712	0.25334984
108	0xbd944cef	-0.072412364
109	0x3dae0ee3	0.08498933
110	0xbe7d8c46	-0.24760541
111	0xbe8d4e15	-0.27598634
112	0x3d3b18b3	0.045677852
113	0xbe4729e7	-0.19449578
114	0x3e3570ec	0.17718858
115	0xbce11ba5	-0.027479002
116	0x3deeef12	0.11666693
117	0x3e8b82d1	0.27248242
118	0x3c9cbac3	0.019132024
119	0x3e24f834	0.16110307
120	0xbdc356dc	-0.095380515
121	0x3e835c3d	0.2565631
122	0xbe36711f	-0.1781659
123	0x3dd59140	0.10428095
124	0x3e48fd8b	0.19627969
125	0xbe23a688	-0.15981495
126	0x3d79d98e	0.060998492
127	0xbe5eef83	-0.21771054
128	0xbe91e04c	-0.28491437
129	0x3ea1fd15	0.316384
130	0xbe82fc8b	-0.255833
131	0xbdb84d0f	-0.08999073
132	0x3eb4f082	0.35339743
133	0x3e89e430	0.26931906
134	0xbe501a5b	-0.20322554
135	0x3e219627	0.15779935
136	0x3e066ee7	0.13128243
137	0x3e3351cd	0.17511673
138	0x3ec72206	0.38893145
139	0xbeaabd2f	-0.3334746
140	0xbe12a1ff	-0.14319609
141	0x3dc058f4	0.093919665
142	0xbe7fc1b6	-0.24976239
143	0x3b276468	0.0025542025
144	0xbea799d3	-0.32734546
145	0x3caada40	0.020856023
146	0xbc9e51df	-0.019326149
147	0xbd289412	-0.041156836
148	0x3e5456d0	0.20736241
149	0x3e8f6020	0.28003025
150	0xbe364cf5	-0.17802794
151	0x3e41a25b	0.1890959
152	0xbe094721	-0.1340604
153	0xbf07fede	-0.5312327
154	0xbe915753	-0.28386936
155	0x3e0be97f	0.1366329
156	0xbd931c18	-0.07183093
157	0x3e128b51	0.14310957
158	0xbdd836fe	-0.10557364
159	0xbd285a3b	-0.041101675
160	0x3dd5ee97	0.10445898
161	0x3e820999	0.25397947
162	0x3dfb6d65	0.12276725
163	0xbe0bacf2	-0.13640192
164	0x3ecac5a0	0.396039
165	0xbe2d4445	-0.16920574
166	0xbe5d8d1c	-0.2163586
167	0xbe560e9a	-0.20904008
168	0x3ea47a43	0.32124528
169	0x3e2f7d9b	0.17137758
170	0x3d3b6449	0.045749936
171	0x3e310aa1	0.17289211
172	0x3d28d702	0.041220672
173	0xbdc716f7	-0.09721177
174	0x3e3190ee	0.17340443
175	0xbe3c3df6	-0.18383011
176	0xbd30f150	-0.043198884
177	0xbe40da9a	-0.1883339
178	0x3b818fad	0.003953895
179	0xbdcddc17	-0.100517444
180	0xb9b84cf8	-0.0003515256
181	0x3e537867	0.20651399
182	0xbe866590	-0.2624936
183	0x3eb3784c	0.35052717
184	0x3c0110cd	0.007877541
185	0xbb931eba	-0.004489747
186	0xbd5ef34e	-0.054431252
187	0x3e40436d	0.18775721
188	0xbca89878	-0.020580515
189	0x3eb54f47	0.35412046
190	0xbb610264	-0.00343337
191	0x3e7427a3	0.23843245
192	0x3e2aa669	0.16665043
193	0x3e82f352	0.25576264
194	0xbe1db565	-0.15401228
195	0xbddff425	-0.10935239
196	0x3eacbca0	0.3373766
197	0x3c529434	0.012852717
198	0xbe92d36e	-0.28676933
199	0xbdc73f61	-0.097288854
200	0xbe1d62d5	-0.15369733
201	0x3e47639c	0.19471592
202	0xbe5472b9	-0.20746888
203	0xbe291de1	-0.16515304
204	0x3e69cde9	0.22832455
205	0xbe6b40ab	-0.22973888
206	0x3e0e82be	0.13917062
207	0xbe8fad22	-0.28061777
208	0xbe1bd875	-0.1521929
209	0xbe47b652	-0.19503143
210	0xbd2ba53c	-0.041905627
211	0xbe9ef4ad	-0.31046048
212	0x3dd314dc	0.10306713
213	0xbe455791	-0.19271685
214	0x3e0f8a6e	0.1401765
215	0xbe94fdbc	-0.29099834
216	0xbe63f97e	-0.22263142
217	0x3e73b76b	0.23800437
218	0xbdc0e532	-0.094187155
219	0xbe787b42	-0.24265769
220	0xbe503a84	-0.20334822
221	0xbd971a3f	-0.07378053
222	0xbe114723	-0.14187293
223	0x3e83efd8	0.25768924
224	0x3d3c4e14	0.0459729
225	0xbd2376c2	-0.03990818
226	0x3eae3bd8	0.34030032
227	0xbe1f6690	-0.15566468
228	0x3ecb1eac	0.39671838
229	0x3e22bea5	0.15893038
230	0xbe3a32cf	-0.18183444
231	0xbd6dafa1	-0.05802882
232	0x3e0eee22	0.13958028
233	0x3e97d4e7	0.2965462
234	0x3ea75982	0.32685477
235	0x3d0df0bb	0.034653407
236	0xbdce34ac	-0.1006864
237	0xbd9cc938	-0.07655567
238	0xbddc213c	-0.107485265
239	0x3e276b95	0.16349633
240	0x3ea818b5	0.3283135
241	0x3e162fd3	0.14666681
242	0xbe980d12	-0.29697472
243	0x3dfdb2e9	0.1238764
244	0x3c706141	0.014671625
245	0x3cf5140d	0.029916788
246	0xba17f153	-0.0005796153
247	0x3d9b5121	0.075838335
248	0xbe4e3c46	-0.2014018
249	0x3e53f316	0.20698199
250	0x3d2cea96	0.042215906
251	0x3c654927	0.013994492
252	0x3cd8b46e	0.026453223
253	0x3d7ec01d	0.062194932
254	0x3e5967d8	0.2123102
255	0x3d889767	0.06669503

encoder.blocks.0.attn.proj.weight f4 [16, 16]
0	0xbef6a2e0	-0.4817114
1	0xbe13dc0f	-0.14439414
2	0x3e4b181a	0.19833413
3	0x3e817213	0.25282344
4	0x3e8f6db4	0.28013384
5	0x3ae81f6b	0.0017709559
6	0xbe5f5414	-0.21809417
7	0xbe83efa3	-0.25768766
8	0xbdcf1a88	-0.10112482
9	0x3e02c4b9	0.12770356
10	0x3e1c790a	0.15280548
11	0xbe7ebcfc	-0.2487678
12	0xbeca03bb	-0.3945597
13	0x3c6c8f36	0.014438441
14	0xbd1e3aff	-0.03863048
15	0x3dc885fe	0.09791182
16	0x3e9fdaef	0.3122172
17	0x3ea90d75	0.3301808
18	0xbe397345	-0.18110378
19	0x3e9ee23b	0.31031975
20	0x3decccb2	0.1156248
21	0xbe5968c0	-0.21231365
22	0x3ddc8530	0.10767591
23	0xbe949039	-0.29016283
24	0x3e293693	0.16524725
25	0x3eaf6e45	0.34263816
26	0x3e50d22b	0.20392673
27	0x3ec2a9ec	0.38020265
28	0xbd627e7c	-0.055296406
29	0x3eb1a8b9	0.34699038
30	0xbe00590b	-0.12533967
31	0x3e0a11e1	0.13483383
32	0xbd0519b3	-0.03249521
33	0x3ead56dd	0.33855334
34	0xbe86eb2b	-0.26351294
35	0xbe8ac11d	-0.2710046
36	0x3ebaeb31	0.36507562
37	0xbe40bf18	-0.18822896
38	0x3e868d64	0.26279747
39	0xbe1a5b8c	-0.15073985
40	0x3e7dac68	0.24772799
41	0x3e1fec3b	0.15617459
42	0x3e53cbed	0.2068326
43	0x3ec20a7a	0.37898618
44	0x3ed23fba	0.41064245
45	0x3e9e344d	0.30899277
46	0x3e1ef9cf	0.15524982
47	0xbe60006d	-0.21875162
48	0xbd21826b	-0.039431017
49	0x3eca8606	0.39555377
50	0xbec6134d	-0.386866
51	0x3d9b3f69	0.07580454
52	0x3ef313e1	0.47476104
53	0xbe41f4a7	-0.18940984
54	0xbe46b4bf	-0.19404887
55	0x3e199b4f	0.15000652
56	0xbc658e71	-0.014011011
57	0xbde861e2	-0.11346795
58	0x3ee48cb0	0.44638586
59	0xbeec2471	-0.46121553
60	0xbda9d567	-0.082926564
61	0x3ea52802	0.32257086
62	0x3dec7eed	0.11547647
63	0x3ca31fd6	0.019912641
64	0x3efadd2a	0.4899686
65	0x3d6d49aa	0.05793158
66	0xbe1f79d5	-0.15573819
67	0x3e65d21f	0.22443436
68	0xbd167ddd	-0.036741126
69	0xbdf6da18	-0.12053317
70	0x3dfd8202	0.12378313
71	0x3ea7e8d9	0.32794836
72	0x3aca65cd	0.0015441716
73	0xbed62c1f	-0.41830537
74	0x3ec606e1	0.38677123
75	0x3ea2feb9	0.31834963
76	0x3eb87d06	0.36032885
77	0xbd83397d	-0.064074494
78	0xbe3c7cf5	-0.18407042
79	0x3ea97de1	0.3310385
80	0xbdac6bc7	-0.084189944
81	0xbd9a8757	-0.07545345
82	0xbe4f936b	-0.20271079
83	0x3ded9694	0.11600986
84	0xbe8543c7	-0.26028273
85	0x3e0f2bdc	0.13981575
86	0x3d025b68	0.031825453
87	0x3e8461a0	0.25855732
88	0xbec54df8	-0.38536048
89	0x3d105748	0.035239488
90	0xbde28059	-0.110596366
91	0x3d93a611	0.07209409
92	0x3ebee3f8	0.372833
93	0xbe65ece2	-0.22453645
94	0x3e9ab49d	0.30215922
95	0xbe21c11d	-0.15796323
96	0x3ea600ec	0.32422578
97	0xbe4de6b4	-0.20107538
98	0xbe86cac7	-0.26326582
99	0xbe734bb8	-0.23759353
100	0xbe31e2ce	-0.17371675
101	0x3db25d7d	0.08709238
102	0xbeb269f3	-0.34846458
103	0xbd91899f	-0.07106327
104	0x3eaa3f07	0.3325121
105	0xbe7059b7	-0.23471723
106	0xbe46c196	-0.19409785
107	0xbe80f69f	-0.25188157
108	0xbd30ba85	-0.04314663
109	0xbedff218	-0.4373939
110	0xbe12dc9c	-0.14341968
111	0xbdee6162	-0.11639668
112	0xbe5694d5	-0.20955212
113	0x3dc3eabd	0.09566257
114	0x3e78a617	0.24282108
115	0xbe012fb5	-0.12615855
116	0x3df1acc2	0.11800529
117	0xbeaae2bd	-0.33376113
118	0xbe371384	-0.17878538
119	0x3e4831a2	0.19550183
120	0x3d8e7db0	0.06957567
121	0x3eb2c604	0.349167
122	0x3b291856	0.002580186
123	0xbeafbde7	-0.34324571
124	0x3e32396d	0.17404719
125	0xbea2a75d	-0.31768313
126	0xbe87dbfe	-0.26535028
127	0x3d8d9e4e	0.0691496
128	0xbebc2676	-0.36748093
129	0xbe5072c1	-0.20356275
130	0x3e88d69e	0.2672624
131	0x3e856265	0.26051632
132	0x3e4f1988	0.20224583
133	0x3e4065b6	0.187888
134	0x3def362e	0.11680256
135	0x3ed79305	0.42104355
136	0xbe3315e7	-0.17488824
137	0xbe78cef0	-0.2429769
138	0x3eaff1e8	0.34364247
139	0xbea01881	-0.31268695
140	0xbdee676f	-0.11640822
141	0x3ed3017c	0.4121207
142	0x3ea28bc6	0.31747264
143	0xbe20dce5	-0.15709265
144	0x3e1e0e41	0.15435125
145	0x3e82f352	0.25576264
146	0x3db9c468	0.09070665
147	0x3e89473c	0.2681216
148	0x3e97a212	0.29615837
149	0x3ec4ca96	0.3843581
150	0xbe5f7147	-0.21820556
151	0x3edfbc78	0.43698478
152	0x3ecc61f1	0.39918473
153	0x3ecb6708	0.39727044
154	0x3c6420e8	0.013923861
155	0x3eb64cd1	0.3560548
156	0xbc35101b	-0.011051203
157	0x3ea8f6bd	0.33000746
158	0x3bb7c2cd	0.005607939
159	0x3ed6a429	0.4192212
160	0xbe0ea421	-0.13929798
161	0xbcba3776	-0.022731524
162	0xbed33460	-0.41250896
163	0x3cb8c05f	0.022552667
164	0x3dbffad0	0.093740106
165	0xbea6a9e6	-0.32551497
166	0xbe7342fc	-0.23756021
167	0xbe616f47	-0.22015105
168	0x3eaba79c	0.33526313
169	0xbe2a2d4d	-0.16618843
170	0x3e7de420	0.24794054
171	0x3de7cd46	0.1131845
172	0x3eeddd7b	0.4645804
173	0x3d9e488a	0.077286795
174	0xbe7c0c17	-0.24613987
175	0xbec594bf	-0.38590047
176	0x3efeefdc	0.49792373
177	0xbed43488	-0.41446328
178	0xbea5cd03	-0.32382974
179	0x3d6d7c5d	0.05797993
180	0x3e8d062e	0.27543777
181	0xbe28ba62	-0.1647735
182	0xbdec1329	-0.11527092
183	0xbed4f504	-0.41593182
184	0x3e6c6e82	0.2308903
185	0x3ecdaabd	0.40169325
186	0x3d9bf6f3	0.07615461
187	0xbe76f645	-0.24117382
188	0xbd92c1a5	-0.07165841
189	0x3e8e4d13	0.27793178
190	0x3e9b3745	0.30315605
191	0x3d9887ae	0.07447754
192	0xbee8b1d7	-0.4544818
193	0xbeecf9db	-0.46284375
194	0xbed7f89c	-0.4218186
195	0xbd989ac7	-0.074513964
196	0xbecb66fd	-0.3972701
197	0x3ed2dad5	0.4118258
198	0xbdb8dc1b	-0.09026357
199	0x3e5708b6	0.20999417
200	0xbebe0f6b	-0.37121138
201	0x3edd4191	0.43214086
202	0xbd52ad9a	-0.05143509
203	0xbc752447	-0.0149622625
204	0x3e69dce9	0.22838177
205	0xbe2ff64b	-0.17183797
206	0xbcc41599	-0.02393608
207	0xbe2c2dca	-0.16814342
208	0x3e12dfc2	0.1434317
209	0xbecdca6b	-0.40193495
210	0x3e677467	0.22602998
211	0x3db1a133	0.086733244
212	0xbe6c7a80	-0.23093605
213	0x3e2eb736	0.17062077
214	0x3e123a7a	0.1428012
215	0xbe78977d	-0.24276538
216	0x3e9c9999	0.30585936
217	0xbed92330	-0.42409658
218	0xbed8a61f	-0.4231424
219	0xbec100d7	-0.37695953
220	0xbe7df13c	-0.24799055
221	0xbe4dd701	-0.20101549
222	0xbea74912	-0.32672936
223	0xbcea200d	-0.028579736
224	0x3e83a50b	0.25711855
225	0x3eac43d2	0.33645493
226	0xbedea7d6	-0.43487424
227	0xbe9232cc	-0.2855438
228	0x3dd621e7	0.10455685
229	0xbe95bbb5	-0.29244772
230	0x3e94e657	0.29081985
231	0x3d912501	0.07087136
232	0x3e7eb455	0.24873479
233	0xbd81d9a2	-0.06340338
234	0xbe357cf4	-0.17723447
235	0xbe6df82c	-0.23239201
236	0xbd5e7c29	-0.054317627
237	0x3e95e701	0.29277804
238	0x3e062927	0.13101636
239	0xbe192d27	-0.1495863
240	0x3ec55bb9	0.3854654
241	0xbed0889b	-0.40729222
242	0x3e9c9118	0.30579448
243	0x3ec1f50d	0.3788227
244	0x3e872381	0.26394275
245	0xbddb6a95	-0.10713688
246	0x3e1f8402	0.155777
247	0xbece9a5e	-0.40352148
248	0xbe73b523	-0.23799567
249	0x3e1a4882	0.15066722
250	0x3d6b0563	0.057378184
251	0x3e88ab89	0.2669337
252	0x3ee12964	0.4397689
253	0x3eb54699	0.35405424
254	0x3e772f40	0.24139118
255	0xbbdbeeb0	-0.0067118034

encoder.blocks.0.attn.proj.bias f4 [16]
0	0xbd72a3f2	-0.05923838
1	0xbd2b75e4	-0.041860476
2	0x3d0a7ae3	0.0338086
3	0xbd2a2fae	-0.041549377
4	0xbd5c86da	-0.053839542
5	0x3c79fe59	0.015258395
6	0x3c055fe7	0.008140541
7	0x3d405370	0.046954572
8	0x3b39f69b	0.0028375748
9	0xbd7f46e7	-0.062323477
10	0x3ccc0296	0.024903577
11	0x3c1d768f	0.009610786
12	0xbd26946a	-0.040668882
13	0x3c31351a	0.010815883
14	0x3d38f92b	0.0451595
15	0x3cd8fd2e	0.026487913

encoder.blocks.0.norm2.weight f4 [16]
0	0x3f6a2a9c	0.91471267
1	0x3f6fecde	0.93720806
2	0x3f695ad0	0.91154194
3	0x3f80f84f	1.0075778
4	0x3f5dc50f	0.8662881
5	0x3f72d762	0.948599
6	0x3f7604e4	0.9610121
7	0x3f617d49	0.88081795
8	0x3f76d465	0.9641784
9	0x3f6e38f6	0.93055665
10	0x3f824a6c	1.0178962
11	0x3f8d5878	1.1042624
12	0x3f718800	0.94348145
13	0x3f77d2d4	0.96806073
14	0x3f5c028b	0.8594138
15	0x3f6d3e7d	0.92673475

encoder.blocks.0.norm2.bias f4 [16]
0	0x3c97a483	0.018511062
1	0x3ca6a24f	0.020341067
2	0xbd7996f0	-0.06093496
3	0xbdc87bc0	-0.097892284
4	0x3d89d06d	0.06729207
5	0x3addb6e9	0.0016915473
6	0xbbfbecaf	-0.007688127
7	0xbd346c84	-0.0440488
8	0x3d21412a	0.039368786
9	0x3ce407c8	0.027835742
10	0xba3fc586	-0.0007315505
11	0x3cb5bac8	0.02218379
12	0x3d1f0252	0.038820572
13	0xbbc1881e	-0.005906119
14	0x3d2adc8d	0.04171424
15	0xbca03b71	-0.019559594

encoder.blocks.0.mlp.fc1.weight f4 [64, 16]
0	0xbcd0ecc7	-0.02550353
1	0xbe39369d	-0.1808724
2	0xbd805df0	-0.06267917
3	0x3e1f8959	0.15579738
4	0x3d7a9405	0.06117632
5	0xbe91be13	-0.28465328
6	0xbd67f218	-0.056627363
7	0xbc70066d	-0.0146499695
8	0xbbb99c25	-0.005664366
9	0xbdcb7c76	-0.099358484
10	0xbe0ca534	-0.13734895
11	0x3cd9fc2e	0.026609506
12	0x3e481730	0.19540095
13	0xbea9b58d	-0.33146325
14	0xbe1b7fdf	-0.15185498
15	0x3d0d2af0	0.034464777
16	0x3e0ab5c8	0.13545907
17	0x3d892deb	0.06698211
18	0x3ead670b	0.33867678
19	0xbdb94429	-0.09046204
20	0x3e1ae768	0.15127337
21	0x3d84eb3d	0.06490181
22	0x3e50017c	0.20313066
23	0x3cbe0ea2	0.023200337
24	0xbe61e35c	-0.22059387
25	0xbe42f5bb	-0.19039051
26	0x3dd3f50c	0.10349473
27	0x3e6e9f29	0.23302902
28	0xbe1f22a1	-0.15540554
29	0x3d463931	0.048394386
30	0x3dad2a73	0.08455362
31	0xbdb09f48	-0.086241305
32	0xbe6a6eb5	-0.22893794
33	0xbe472b68	-0.19450152
34	0xbbfd7edb	-0.0077360696
35	0xbd8e0042	-0.06933643
36	0x3d83f645	0.064434566
37	0xbd0f3370	-0.034961164
38	0x39f4a214	0.00046660064
39	0x3e415921	0.18881656
40	0xbe6dfdb2	-0.23241308
41	0xbd2f97fc	-0.042869553
42	0x3e8a4ed1	0.27013257
43	0x3dbdfb32	0.09276427
44	0xbd7fd951	-0.06246311
45	0x3d6f49da	0.05842004
46	0x3dc76392	0.097357884
47	0x3db903e7	0.090339474
48	0x3e7e6a7a	0.24845305
49	0x3cb0a1fb	0.021561613
50	0xbd96f4c6	-0.073709056
51	0xbe466946	-0.19376096
52	0x3cda777d	0.026668305
53	0xbcab2577	-0.020891888
54	0x3e4cc053	0.19995241
55	0x3d2ad112	0.04170329
56	0x3dd17a0a	0.10228355
57	0x3e3738fa	0.17892829
58	0xbee5fe35	-0.44920507
59	0xbe824e66	-0.25450438
60	0x3c8f6d8a	0.017508287
61	0x3e883730	0.26604605
62	0xbe034179	-0.12817945
63	0x3cc8c78a	0.02450921
64	0x3cc217bd	0.02369296
65	0x3df13f20	0.11779618
66	0x3ddd2d3c	0.107996434
67	0x3d0b57b3	0.034019183
68	0xbe2493b5	-0.16071971
69	0x3d1e8086	0.03869679
70	0x3e706a45	0.23478039
71	0xbccaede5	-0.02477164
72	0x3e11f629	0.14254059
73	0x3e00512e	0.12530968
74	0xbe7eb637	-0.24874197
75	0xbdd146a1	-0.102185495
76	0xbd97a236	-0.07403986
77	0xbe5c13e1	-0.21491958
78	0x3b8a4d5d	0.004220648
79	0x3e58cae8	0.21171153
80	0x3e252f68	0.16131365
81	0x3e6b95ea	0.23006406
82	0x3e58b6ab	0.21163432
83	0x3b56e619	0.0032790957
84	0xbd175b51	-0.03695232
85	0xbda72434	-0.08161202
86	0x3e72eb16	0.2372249
87	0x3ba8b2dd	0.0051482753
88	0x3e2917d6	0.16512999
89	0x3cb6377d	0.022243256
90	0xbe8be889	-0.27325848
91	0x3e8573d0	0.2606492
92	0xbe1a365f	-0.15059803
93	0x3e430983	0.19046597
94	0x3c91b59d	0.017786795
95	0xbe25d6f9	-0.16195287
96	0x3c86d587	0.01645924
97	0xbdce0a36	-0.10060541
98	0x3e51abde	0.20475718
99	0x3e8e16b5	0.277517
100	0xbd6b0050	-0.057373345
101	0x3e8ba879	0.27276972
102	0xbe0c7493	-0.13716345
103	0xbdff54ef	-0.12467372
104	0xbdba1976	-0.090868875
105	0xbe7c76e9	-0.24654736
106	0x3e0b122b	0.1358115
107	0xbe55f95d	-0.20895906
108	0x3e10d87d	0.14145084
109	0x3e7d432d	0.24732657
110	0x3d2f8b14	0.042857245
111	0xbe5b5a9c	-0.21421283
112	0xbe1d31e9	-0.1535107
113	0x3e5007e7	0.20315515
114	0x3da3df35	0.08001558
115	0xbe0aaf49	-0.13543428
116	0x3e83c80f	0.2573857
117	0x3bb3a730	0.005482577
118	0xbd34b50a	-0.044117965
119	0x3e2b09cf	0.1670296
120	0xbe78c6b9	-0.24294557
121	0x3e8044e4	0.2505256
122	0xbd07a29a	-0.033114053
123	0xbe136f91	-0.14398028
124	0xbd5d8979	-0.054086182
125	0x3dadcddc	0.0848653
126	0xbc625818	-0.0138149485
127	0x3e5f8390	0.21827531
128	0x3e29ed6e	0.16594478
129	0x3e5a1bb4	0.2129963
130	0xbc640ef9	-0.013919585
131	0xbe4db9bb	-0.20090382
132	0xbdd879b3	-0.10570087
133	0xbe4b0181	-0.19824792
134	0xbd732e7c	-0.059370503
135	0x3d3c1525	0.045918602
136	0xbe8db6bc	-0.27678478
137	0x3d974fe2	0.07388283
138	0x3e30287c	0.17202944
139	0x3e2c3dc0	0.16820431
140	0xbd865020	-0.065582514
141	0xbdf2ad0f	-0.118494146
142	0x3da8b842	0.082382694
143	0x3e08e700	0.1336937
144	0xbb82f942	-0.003996999
145	0xbd51dcf5	-0.05123611
146	0xbe5cdb69	-0.21568073
147	0x3d3443c1	0.044009928
148	0x3e5ecd12	0.21757916
149	0xbc173654	-0.009229261
150	0x3e0a5133	0.13507538
151	0x3e366ef5	0.17815764
152	0x3eaf993b	0.34296593
153	0xbe75b61c	-0.2399525
154	0xbe6d3bf0	-0.23167396
155	0x3e32851f	0.17433594
156	0x3d9e104c	0.07717952
157	0xbe878f1e	-0.26476377
158	0x3c87a95c	0.016560249
159	0x3cf21db2	0.029555175
160	0x3e5aeb85	0.21378906
161	0xbe2bf74b	-0.16793554
162	0x3d52aebc	0.05143617
163	0xbe3f6f46	-0.18694791
164	0x3d587948	0.052850038
165	0x3e2c352f	0.16817163
166	0x3e8229e5	0.25422588
167	0xbdbeec72	-0.09322442
168	0x3ca80221	0.020508828
169	0x3deed89c	0.11662409
170	0x3e9089e8	0.28230214
171	0xbe106259	-0.14100017
172	0xbe18d95a	-0.14926663
173	0x3e60d54c	0.21956366
174	0xbe0a7bae	-0.13523743
175	0x3de32d8b	0.11092671
176	0xbde67efb	-0.11254688
177	0xbbbbcf81	-0.0057315235
178	0xbda2d9eb	-0.07951721
179	0x3d1f2ee0	0.038863063
180	0x3e892968	0.26789403
181	0xbcc1a058	-0.023636028
182	0xbd1aed21	-0.0378238
183	0x3d07ef61	0.033187274
184	0xbe2426ce	-0.16030428
185	0xbe75bb4f	-0.23997234
186	0x3e53accf	0.2067139
187	0x3e9f2948	0.31086183
188	0xbdd9fbe3	-0.10643747
189	0xbe5878fe	-0.21139905
190	0x3dea06ab	0.11427053
191	0x3d62532b	0.055255096
192	0xbe58c980	-0.21170616
193	0x3dc6007b	0.096680604
194	0x3e2ce28e	0.16883299
195	0x3deb7084	0.1149607
196	0xbbdf3ecb	-0.0068129054
197	0xbd44b221	-0.04802144
198	0xbe61c321	-0.22047092
199	0x3c966d99	0.018362807
200	0x3e092602	0.13393405
201	0x3e5c11a0	0.21491098
202	0xbd629c71	-0.055324975
203	0x3e478889	0.19485678
204	0xbdf070ec	-0.11740288
205	0xbe278f88	-0.16363347
206	0x3d60d20b	0.054887813
207	0x3e432a90	0.19059205
208	0xbcc84f74	-0.024451949
209	0x3de899ec	0.11357483
210	0xba303c78	-0.0006722878
211	0x3e267bbd	0.1625814
212	0xbe84faf2	-0.25972706
213	0x3caf5217	0.021401448
214	0x3e14da03	0.1453629
215	0x3d7df969	0.062005434
216	0xbe1095db	-0.14119665
217	0xbd910038	-0.0708012
218	0x3e26db70	0.16294646
219	0xbe89ebfc	-0.26937854
220	0xbdec6fbb	-0.115447484
221	0x3dc37400	0.095436096
222	0x3e861eef	0.26195475
223	0x3e6e0b1c	0.23246425
224	0x3e8799fb	0.26484665
225	0xbe5cc9de	-0.21561381
226	0x3e113f50	0.14184308
227	0x3e4d3525	0.20039804
228	0x3dfb0a9b	0.12257882
229	0xbe922590	-0.28544283
230	0xbb87c1c3	-0.0041429712
231	0x3e56beb0	0.20971179
232	0x3d1b350d	0.03789239
233	0x3dcc4c74	0.0997552
234	0xbe571c6c	-0.21006936
235	0xbe44c08a	-0.19214073
236	0xbcfc7def	-0.030821769
237	0xbe5b3263	-0.2140594
238	0xbc7c4913	-0.015398282
239	0xbe3bb3dd	-0.18330331
240	0x3c388e29	0.011264362
241	0xbe116379	-0.14198102
242	0xbe04896f	-0.12943052
243	0x3d35c2dc	0.044375286
244	0x3e477960	0.19479895
245	0xbe162181	-0.14661218
246	0x3e08108f	0.13287567
247	0x3d4fcf5f	0.050734874
248	0x3d92f06c	0.07174763
249	0x3db4949f	0.0881741
250	0x3dc00a10	0.09376919
251	0x3c72e639	0.014825397
252	0x3e57d1e0	0.21076155
253	0xbddabe02	-0.10680772
254	0xbd1bd603	-0.038045894
255	0xbdf861a1	-0.12127996

encoder.blocks.0.mlp.fc1.bias f4 [64]
0	0xbd8607e1	-0.065444715
1	0x3d6511be	0.055925123
2	0x3cdc94ab	0.02692636
3	0xbd3e15ce	-0.046407513
4	0xbcb148db	-0.021641186
5	0x3ced191f	0.028942643
6	0x3d27c4bd	0.04095911
7	0xbc82a6d2	-0.015948687
8	0xbb0000f6	-0.0019531823
9	0xbd4dae96	-0.050215326
10	0xbc353967	-0.011061049
11	0x3d217a5b	0.039423328
12	0x3bcd91ec	0.0062734988
13	0xbbd647c8	-0.0065393187
14	0xbd350238	-0.04419157
15	0xbc7cb8bf	-0.015424906
16	0xbd2a8c82	-0.041637905
17	0x3d1fdd45	0.03902938
18	0xbd35b83b	-0.04436515
19	0x392cc51f	0.00016476632
20	0xbd12839c	-0.035770044
21	0xbd06176f	-0.03273719
22	0x3bad4f0e	0.005288965
23	0xbccc5177	-0.02494119
24	0xbcfe0c93	-0.031011855
25	0xbbc7dee7	-0.00609957
26	0xbca1c195	-0.019745627
27	0xbca0a121	-0.019608082
28	0xbda17e95	-0.07885472
29	0xbc897ddd	-0.01678365
30	0x3b54d5ba	0.0032476024
31	0xbd0df582	-0.034657963
32	0xbccea9a6	-0.025227379
33	0x3d9ec671	0.077526934
34	0x3d14a336	0.036288463
35	0xbbbb25c8	-0.005711291
36	0xbd3c1e1d	-0.045927156
37	0xbd538d03	-0.05164815
38	0xbd5a802e	-0.053344898
39	0xbde4a605	-0.11164478
40	0xbd4e1cf4	-0.05032058
41	0xbbaba067	-0.0052376273
42	0xbd5ad850	-0.053428948
43	0xbc01c05f	-0.0079194
44	0x3b9a4510	0.00470794
45	0xbd902e91	-0.07040132
46	0xbc9c6b4b	-0.01909413
47	0x3d38b58c	0.04509501
48	0xbcc3f60e	-0.023921039
49	0xbc99d356	-0.01877753
50	0xbd88b0b5	-0.06674329
51	0x3cab4ed8	0.020911619
52	0xbc8048b3	-0.015659666
53	0xbd1359ed	-0.03597443
54	0xbd1d9776	-0.038474523
55	0x3cf636bf	0.030055402
56	0xbda022bf	-0.07819127
57	0xbc697fb3	-0.014251637
58	0xbd1fb89e	-0.038994424
59	0xbcbf6f2a	-0.023368437
60	0x3bf563ac	0.0074886885
61	0x3cd222c1	0.025651338
62	0xbc7ebee7	-0.015548444
63	0xbcad2271	-0.021134587

encoder.blocks.0.mlp.fc2.weight f4 [16, 64]
0	0x3d678d6c	0.056531355
1	0x3b07fa9b	0.0020748738
2	0xbd2e0ba5	-0.042491574
3	0x3bf06a4e	0.0073368913
4	0xbe30c07c	-0.17260927
5	0xbe4b9408	-0.19880688
6	0xbd9d1fb9	-0.07672066
7	0x3e68e28f	0.22742675
8	0xbe7677c8	-0.2406913
9	0x3e4748e0	0.19461393
10	0x3e822cf4	0.25424922
11	0xbc255722	-0.010091575
12	0xbcd73d29	-0.02627428
13	0xbe25f959	-0.162084
14	0x3ac799aa	0.001522829
15	0x3e6cffda	0.23144475
16	0x3e4f0988	0.2021848
17	0xbe7dfeab	-0.2480418
18	0x3d8ea249	0.06964547
19	0x3d43165e	0.047628753
20	0x3d9bc9a0	0.07606816
21	0xbe6eecb2	-0.2333248
22	0x3c36014e	0.0111087095
23	0x3e53c202	0.20679477
24	0xbebb4e12	-0.36583
25	0xbe6b40a7	-0.22973882
26	0xbe6fff11	-0.23437144
27	0xbe00f28c	-0.12592524
28	0xbe8a45c8	-0.27006364
29	0x3e4403a0	0.19142008
30	0x3df23324	0.118261606
31	0x3d455ceb	0.048184317
32	0xbe084c34	-0.13310319
33	0x3e4a486c	0.19754189
34	0xbda63937	-0.081163816
35	0x3e28159c	0.16414493
36	0xbe2b2f25	-0.16717203
37	0x3cded5ab	0.027201494
38	0x3dacb83b	0.08433577
39	0xbe5fa58c	-0.21840495
40	0x3dfbdef2	0.12298383
41	0xbccad2f1	-0.024758788
42	0x3e48f552	0.19624832
43	0x3c4cd094	0.012500901
44	0xbe2fef8b	-0.17181222
45	0x3e3ff5b1	0.18746068
46	0x3dba925c	0.09109947
47	0x3dc5edc6	0.09664492
48	0x3e57b3de	0.21064708
49	0x3e3f3771	0.18673493
50	0x3e3239a0	0.17404795
51	0xbe936d15	-0.2879416
52	0x3e91a829	0.2844861
53	0xbdec6758	-0.11543149
54	0x3d4d41ce	0.050111584
55	0xbe5aa8d2	-0.21353462
56	0x3e22c9db	0.15897314
57	0xbe7cccd7	-0.24687515
58	0xbdb11cc0	-0.08648062
59	0x3d9f61a7	0.077822976
60	0x3e7fa932	0.24966887
61	0xbca96903	-0.020679956
62	0x3d518752	0.051154442
63	0x3e2a0f07	0.16607295
64	0xbe23a414	-0.1598056
65	0x3e2611c2	0.16217712
66	0x3d95cb03	0.07314112
67	0xbe0ee6df	-0.13955258
68	0x3ddf1c04	0.108940154
69	0x3e788168	0.24268115
70	0xbd1e0811	-0.03858191
71	0x3d3f3f49	0.046691213
72	0xbeaf6c1c	-0.34262168
73	0xbd3a4cf1	-0.045483533
74	0xbe24baf6	-0.16086945
75	0x3d605709	0.054770503
76	0xbe4c9368	-0.19978106
77	0x3e4013dc	0.18757576
78	0x3e4b7783	0.19869809
79	0xbd845a4f	-0.064625375
80	0x3e6ca7c9	0.2311088
81	0xbd9e62e2	-0.07733704
82	0x3e7972ab	0.24360149
83	0xbd6483c1	-0.055789713
84	0x3e30510d	0.17218418
85	0xbd34a147	-0.04409912
86	0xbe8396f5	-0.2570111
87	0xbe831a08	-0.25605798
88	0xbd4e31bd	-0.050340403
89	0xbe1b9aaf	-0.15195726
90	0xbd168e22	-0.036756642
91	0x3e16790d	0.14694615
92	0x3e92af04	0.2864915
93	0xbe46a6b4	-0.1939953
94	0xbe79c68b	-0.24392144
95	0xbd708023	-0.05871595
96	0x3d33efdf	0.04392993
97	0xbe3bc40c	-0.18336505
98	0x3c2efd46	0.010680502
99	0x3e1601db	0.14649145
100	0x3d1acb15	0.03779133
101	0x3db14a6f	0.08656775
102	0x3dabb14d	0.08383427
103	0x3d40a1b7	0.047029223
104	0xbd7262d7	-0.059176292
105	0xbd54e4e8	-0.051976115
106	0x3e33f446	0.17573652
107	0xbd804d25	-0.06264714
108	0xbdd2adc6	-0.10287051
109	0x3d971148	0.07376343
110	0xbe7d6635	-0.2474602
111	0xbeaee74a	-0.34160835
112	0xbe61134d	-0.21980019
113	0xbe81d2c2	-0.25356108
114	0xbe195c47	-0.14976607
115	0x3e4aa7f6	0.19790635
116	0x3bc06262	0.005871103
117	0xbe7a65b3	-0.24452858
118	0xbe64c2f8	-0.2234
119	0xbe63dd8c	-0.22252482
120	0x3c48ac75	0.012248148
121	0x3e35c94d	0.17752571
122	0xbd8fce03	-0.070217155
123	0xbe88c416	-0.26712102
124	0xbde8c23b	-0.113651715
125	0xbb53a4c1	-0.0032294246
126	0x3d5fd831	0.054649536
127	0x3c91fdac	0.017821155
128	0x3e80f084	0.251835
129	0x3d6e217d	0.058137406
130	0xbe29b349	-0.16572298
131	0xbe26f577	-0.16304575
132	0x3d5a4d92	0.053296633
133	0xbe577a4a	-0.21042743
134	0x3d554a5b	0.052072864
135	0x3e1570c0	0.14593792
136	0xbe464cf9	-0.193653
137	0x3d9098aa	0.07060368
138	0xbe382e98	-0.17986524
139	0x3e2791fa	0.1636428
140	0x3e9b0352	0.3027597
141	0xbe22d60c	-0.15901965
142	0x3d852d87	0.06502824
143	0xbd546596	-0.051854692
144	0xbd30ef74	-0.04319711
145	0x3d8d8c4b	0.069115244
146	0xbe7a68d5	-0.24454053
147	0x3e3c048f	0.18361114
148	0xbde96a8d	-0.11397276
149	0xbe48d169	-0.19611134
150	0x3e491c44	0.19639689
151	0x3e08be09	0.13353743
152	0xbe4d6a47	-0.20060073
153	0x3e499a07	0.19687663
154	0xbe2a4e09	-0.1663133
155	0xbe87305f	-0.26404092
156	0x3ce5b9df	0.028042732
157	0x3bf5ef96	0.0075053675
158	0x3c98dde9	0.018660503
159	0x3d9a7024	0.075409204
160	0x3de17c1b	0.11009999
161	0x3e46cfb3	0.19415168
162	0x3dcf368e	0.10117827
163	0xbe0ef72e	-0.13961479
164	0xbdaf190c	-0.08549699
165	0x3e0dda28	0.13852751
166	0x3d560805	0.05225374
167	0x3e1b9635	0.15194018
168	0x3d92c5e1	0.07166649
169	0x3e44b3f7	0.19209276
170	0x3e2d51aa	0.16925684
171	0x3d350d85	0.044202346
172	0xbe644d29	-0.2229506
173	0xbe7c34b9	-0.24629487
174	0xbdb4ae65	-0.088223256
175	0xbde2bd98	-0.110713184
176	0x3e6c5d5b	0.23082487
177	0xbd811a14	-0.06303802
178	0xbe045ea7	-0.12926732
179	0xbe875045	-0.26428428
180	0xbe39c1ef	-0.18140386
181	0x3c2e3277	0.010632149
182	0x3dc4783b	0.09593245
183	0x3dae5f65	0.08514289
184	0xbde1636e	-0.11005293
185	0x3d854f91	0.06509317
186	0xbe36aacb	-0.1783859
187	0x3e7bdf94	0.24597007
188	0xbe57e38e	-0.21082899
189	0xbd98ee86	-0.0746737
190	0x3d4f01b0	0.05053872
191	0x3dfc9a9f	0.12334179
192	0x3d8677d6	0.06565826
193	0x3d5a6f26	0.053328656
194	0x3d2b91bf	0.04188704
195	0x3dc30d97	0.095240764
196	0xbd1c6add	-0.03818785
197	0xbdc676eb	-0.096906506
198	0xbdd2d779	-0.102950044
199	0xbe18fed7	-0.14940964
200	0xbdae85a5	-0.085215844
201	0x3e0c756b	0.13716666
202	0x3e1d73b3	0.15376167
203	0x3e79de54	0.24401218
204	0xbe287822	-0.16452077
205	0xbe67688c	-0.22598475
206	0x3dabe17f	0.08392619
207	0xbe34a96a	-0.17642751
208	0x3d9fc310	0.07800877
209	0x3e645f97	0.2230209
210	0x3e0e98b5	0.1392544
211	0x3e248edf	0.16070126
212	0x3e72b1ba	0.2370061
213	0xbc1e0b4f	-0.009646251
214	0x3d8b3f59	0.06799192
215	0xbe1b79df	-0.15183209
216	0xbd8f0678	-0.06983656
217	0xbe186424	-0.1488195
218	0xbe25d15f	-0.1619315
219	0x3e163a22	0.14670613
220	0x3e2280bb	0.1586942
221	0xbbca1507	-0.0061670574
222	0x3db83dac	0.08996138
223	0xbe3b748b	-0.18306176
224	0x3e0e5157	0.13898216
225	0x3e7171f3	0.23578624
226	0xbe84830f	-0.2588124
227	0x3cbfefc5	0.02342976
228	0xbe2a4cec	-0.16630906
229	0xbd9a2451	-0.07526458
230	0xbd8c0e52	-0.06838669
231	0xbd1372dd	-0.035998214
232	0xbe367583	-0.17818265
233	0x3e6f9216	0.23395571
234	0xbe8af2d0	-0.27138376
235	0xbe58549f	-0.2112603
236	0x3e62d0f4	0.22150022
237	0xbe2d3391	-0.16914202
238	0xbe3287ef	-0.17434667
239	0xbe820a18	-0.25398326
240	0xbe29512a	-0.16534868
241	0x3e3a07b9	0.18167008
242	0x3e798433	0.24366836
243	0xbded098c	-0.115740865
244	0x3c8cb4bf	0.01717603
245	0x3eb93326	0.36171836
246	0x3e4f7d88	0.2026273
247	0x3dd76e57	0.105190925
248	0xbe6a8aeb	-0.22904555
249	0xbdf404c8	-0.119149745
250	0x3e7466e4	0.23867375
251	0x3e16cef7	0.14727388
252	0x3e2f7403	0.17134099
253	0x3e4f3d85	0.20238312
254	0xbe0d8dfe	-0.13823697
255	0x3d5b50ba	0.053543784

encoder.blocks.0.mlp.fc2.bias f4 [16]
0	0xbd170447	-0.036869314
1	0xbd0dd3fb	-0.03462599
2	0x3cda091f	0.026615677
3	0xbcd0a6a6	-0.02547009
4	0xbd285861	-0.04109991
5	0x3c10289c	0.0087987445
6	0x3bd525fc	0.006504772
7	0x3d0cbe47	0.03436115
8	0x3c731598	0.014836691
9	0xbd355c3f	-0.044277426
10	0x3cd5c5fc	0.026095383
11	0xbcd65161	-0.026161851
12	0xbd0011e7	-0.031267073
13	0x3bb16267	0.005413342
14	0x3d20fe64	0.039305106
15	0x3cceb85f	0.0252344

encoder.blocks.1.norm1.weight f4 [16]
0	0x3f84cf5f	1.0375785
1	0x3f7b5d70	0.9818945
2	0x3f836b37	1.0267094
3	0x3f819f97	1.0126828
4	0x3f6f2146	0.93410146
5	0x3f6f1d45	0.93404037
6	0x3f803edd	1.0019184
7	0x3f848f70	1.0356274
8	0x3f80c786	1.006089
9	0x3f8742cb	1.0567259
10	0x3f8a0fc2	1.0786059
11	0x3f68fbda	0.91009295
12	0x3f89d3a3	1.0767711
13	0x3f799fa0	0.97509193
14	0x3f5d73e2	0.8650495
15	0x3f814ef5	1.0102221

encoder.blocks.1.norm1.bias f4 [16]
0	0xbd47508f	-0.04866081
1	0xbce73e70	-0.028228015
2	0x3ce5c402	0.028047565
3	0x3cfd332f	0.030908195
4	0xbd381c41	-0.04494882
5	0xbc54e94f	-0.012995078
6	0x3b0c0c36	0.0021369583
7	0x3d260ae8	0.040537745
8	0xbbac8a71	-0.005265527
9	0xbd657af5	-0.056025464
10	0x3cd06119	0.025436925
11	0xbd1d8f18	-0.038466543
12	0xbd3d5290	-0.046221316
13	0x3c1b24c4	0.009469215
14	0x3d0d829b	0.034548383
15	0x3d1f4437	0.038883414

encoder.blocks.1.attn.qkv.weight f4 [48, 16]
0	0x3dbca623	0.092113756
1	0xbd841bbb	-0.06450602
2	0x3d0d03ea	0.03442756
3	0x3c3938ef	0.011305078
4	0xbe0423d7	-0.12904297
5	0xbdb0f6dc	-0.08640835
6	0x3e2688f4	0.16263181
7	0x3ea0870a	0.31353027
8	0x3d890266	0.066899106
9	0xbe96908b	-0.29407153
10	0x3e359654	0.17733127
11	0xbd850521	-0.06495119
12	0xbe260744	-0.16213709
13	0x3e4098c3	0.18808274
14	0x3beef66f	0.007292561
15	0xbdf88582	-0.121348396
16	0x3b166a71	0.0022951628
17	0xbd408fc3	-0.0470121
18	0xbe872365	-0.2639419
19	0xbe7bcf46	-0.24590787
20	0x3e624577	0.22096811
21	0x3e284729	0.16433395
22	0x3e41a7a3	0.18911605
23	0x3e2e7ea1	0.17040493
24	0xbe099996	-0.13437495
25	0xbe67bfbc	-0.22631735
26	0x3e869bcb	0.26290736
27	0xbc0c82da	-0.008576119
28	0xbe2c3160	-0.1681571
29	0xbe00d101	-0.12579729
30	0x3ce224fa	0.027605522
31	0xbea961c7	-0.3308241
32	0x3ebf8e05	0.3741304
33	0xbcf17197	-0.02947311
34	0xbe9931f3	-0.2992092
35	0xbe7917c1	-0.24325468
36	0x3e5bc879	0.21463193
37	0x3cac5808	0.02103807
38	0x3cc3c80d	0.023899103
39	0x3c2edd87	0.010672933
40	0xbe32697d	-0.17423053
41	0x3e9ac9a2	0.3023196
42	0xbe1af85c	-0.15133804
43	0xbe9217f9	-0.28533915
44	0x3eb1d709	0.3473437
45	0xbdb919f8	-0.09038156
46	0xbe89edb2	-0.2693916
47	0xbe9ece73	-0.31016883
48	0xbe027bee	-0.12742588
49	0x3dcaaf9b	0.09896775
50	0xbde98446	-0.11402182
51	0xbe8ff523	-0.28116712
52	0x3e6a02c6	0.2285262
53	0x3cd2ddbd	0.025740499
54	0xbe09a6be	-0.13442513
55	0xbe386554	-0.18007404
56	0x3e83e732	0.25762326
57	0xbe38effc	-0.18060297
58	0xbe06671b	-0.13125269
59	0xbe77dcaa	-0.2420527
60	0xbe285130	-0.1643722
61	0xbe636caa	-0.22209421
62	0x3d666818	0.056251615
63	0xbe5fa27d	-0.21839328
64	0x3cf81b64	0.030286498
65	0xbe992eae	-0.29918426
66	0xbdb1a4d1	-0.08674014
67	0x3e0b4d37	0.13603674
68	0x3d9d8c76	0.076928064
69	0x3dca3589	0.09873492
70	0x3e0d11de	0.13776347
71	0xbd12c881	-0.035835747
72	0x3e9fb27e	0.31190866
73	0x3e63ad66	0.22234115
74	0xbdb7f1ae	-0.089816436
75	0x3e384b9d	0.17997594
76	0x3e1f5772	0.15560701
77	0xbe2751c2	-0.16339782
78	0x3db1afa3	0.08676078
79	0x3e154572	0.14577273
80	0x3de16462	0.110054746
81	0xbe99f641	-0.3007069
82	0x3c1e63cd	0.009667349
83	0x3e84105b	0.25793728
84	0x3e017c27	0.12645017
85	0x3ce228d6	0.027607363
86	0xbd48dd13	-0.049038958
87	0xbdae7822	-0.08519007
88	0xbe24db7d	-0.16099353
89	0x3d9d1d8b	0.076716505
90	0x3e508003	0.20361333
91	0xbe4baa9c	-0.19889301
92	0x3e5cf0b4	0.21576196
93	0x3e0ba45d	0.13636918
94	0x3eb6e5ca	0.3572219
95	0x3e619d78	0.22032726
96	0xbe9c71a3	-0.30555448
97	0x3bacc9ff	0.0052731032
98	0x3d078bd2	0.033092327
99	0x3d83363a	0.06406827
100	0xbe64100f	-0.22271751
101	0xbe6a11fa	-0.2285842
102	0xbe84c702	-0.2593308
103	0x3df3b910	0.11900532
104	0xbe41e20f	-0.18933891
105	0xbe6ba566	-0.23012313
106	0x3e96eb37	0.2947633
107	0x3e80eb3e	0.25179476
108	0x3cc65d86	0.024214517
109	0xbe828593	-0.25492534
110	0xbe3ff4a1	-0.18745662
111	0x3e498ab7	0.19681822
112	0xbe545cda	-0.20738545
113	0x3c705b76	0.0146702435
114	0xbde41001	-0.11135865
115	0x3e21b34c	0.15791053
116	0xbdf49a59	-0.11943502
117	0x3e791198	0.24323118
118	0xbe0e706d	-0.13910075
119	0x3daa4027	0.08313017
120	0xbe4bf3dd	-0.19917245
121	0x3b881cb4	0.0041538123
122	0x3e29815d	0.16553254
123	0x3e6dbff2	0.23217753
124	0xbdf38764	-0.11891058
125	0x3d8a64ff	0.06757545
126	0xbdae570d	-0.08512697
127	0x3ed0ff83	0.4081994
128	0xbe1aa5f3	-0.15102367
129	0xbe5479cd	-0.20749588
130	0x3e29643d	0.16542144
131	0xbe7aadf0	-0.24480414
132	0xbde7fd30	-0.113275886
133	0x3e6ee09a	0.23327866
134	0xbe2dfafc	-0.16990274
135	0xbd9dc395	-0.0770332
136	0xbe6f7cfe	-0.23387524
137	0x3dd09c38	0.10186046
138	0x3da09120	0.078401804
139	0x3d08d3f1	0.033405248
140	0x3d2aee81	0.04173136
141	0xbe91770a	-0.28411132
142	0xbb9ac797	-0.0047235
143	0x3e0f77c0	0.14010525
144	0xbc2d1298	-0.010563515
145	0xbd27b452	-0.04094345
146	0xbdbf4a6d	-0.093403675
147	0xbe6f46ca	-0.23366848
148	0x3e23fbc1	0.16014005
149	0x3e93db4b	0.28878245
150	0x3e2bbf02	0.16772082
151	0x3d77c666	0.060491942
152	0x3eb07f26	0.34472007
153	0x3e30d04e	0.17266962
154	0xbde35405	-0.1110001
155	0x3e21675b	0.15762083
156	0x3edb7d5a	0.42869073
157	0xbe0647ad	-0.1311328
158	0xbddd35c5	-0.10801271
159	0xbd869771	-0.06571854
160	0xbe77fbe1	-0.24217178
161	0x3e54ef49	0.20794405
162	0xbdd305c3	-0.10303833
163	0xbdaf0fe5	-0.085479535
164	0x3e8bb4f3	0.2728649
165	0x397160bf	0.00023019592
166	0x3c8c2ba5	0.017110655
167	0xbc46884e	-0.0121174585
168	0x3da71432	0.08158149
169	0x3daae88f	0.08345138
170	0xbe0f20e4	-0.1397739
171	0xbe0143a9	-0.12623467
172	0x3cc1a6f1	0.023639174
173	0xbe236bff	-0.15959166
174	0xbd92959f	-0.07157444
175	0xbdafd277	-0.08585065
176	0x3e29659a	0.16542664
177	0x3d4d13ac	0.05006759
178	0xbe7db256	-0.24775061
179	0xbdcefeff	-0.101072304
180	0x3e81d787	0.25359747
181	0xbe879cf1	-0.26486924
182	0x3e849e18	0.25901866
183	0x3d434795	0.047675688
184	0x3d111317	0.035418596
185	0xbe14f591	-0.14546801
186	0xbe844695	-0.258351
187	0x3e147c72	0.14500597
188	0xbdced44e	-0.10099088
189	0x3e585476	0.2112597
190	0xbcedaf7b	-0.02901434
191	0x3e0d41f3	0.13794689
192	0xbcfd7f1d	-0.030944401
193	0xbd94a979	-0.07258887
194	0xbec222b6	-0.37917107
195	0x3e9d6112	0.3073812
196	0xbe1d0cd4	-0.15336925
197	0x3de3fd10	0.11132252
198	0x3e3ccfce	0.18438646
199	0x3da7b709	0.08189208
200	0x3eaacad9	0.33357885
201	0x3e988f8a	0.29797012
202	0x3dc00dcd	0.09377632
203	0xbd2d23f7	-0.042270627
204	0x3e3c07b7	0.18362318
205	0x3e6ea856	0.23306403
206	0xbeda9563	-0.42692098
207	0xbdb842fe	-0.08997153
208	0xbeb5c2f8	-0.35500312
209	0xbe965ac2	-0.29366118
210	0x3e8260ab	0.25464377
211	0x3e19af92	0.15008381
212	0xbe9fe399	-0.3122833
213	0xbe3beb67	-0.18351518
214	0xbd2649ed	-0.040597845
215	0x3c363509	0.011121043
216	0xbed55956	-0.4166972
217	0xbde15e89	-0.11004359
218	0x3e99fc0c	0.3007511
219	0xbdfda6de	-0.12385343
220	0x3e760b5b	0.2402777
221	0x3e006008	0.12536633
222	0x3e48a141	0.19592763
223	0x3e6503fa	0.22364798
224	0x3caa1d8e	0.020766046
225	0x3d136b26	0.035990857
226	0xbd36941d	-0.044574846
227	0xbee4c10a	-0.44678527
228	0x3ee1d39f	0.44106767
229	0xbd9d5473	-0.07682123
230	0xbebbb329	-0.36660126
231	0xbed5d886	-0.41766757
232	0x3ef274df	0.4735479
233	0xbba28522	-0.0049597183
234	0xbe3c2117	-0.18371998
235	0xbd460020	-0.048339963
236	0x3e7d0187	0.24707614
237	0xbe81c72c	-0.2534727
238	0x3dd62af2	0.1045741
239	0xbe0f144d	-0.13972588
240	0xbe926320	-0.2859125
241	0xbe45987d	-0.19296451
242	0x3dda2a58	0.10652608
243	0x3e96097e	0.29304117
244	0xbe5c8290	-0.2153418
245	0xbccd2ad3	-0.025044834
246	0x3ebbd512	0.36685997
247	0xbe38d0ff	-0.18048476
248	0xbddb57e9	-0.10710127
249	0xbe6ee5d8	-0.23329866
250	0x3e96683c	0.293764
251	0x3e7dd143	0.24786858
252	0xbd94f588	-0.07273394
253	0x3d9dc718	0.0770399
254	0x3e86482f	0.26226947
255	0x3dde186b	0.10844501

encoder.blocks.1.attn.proj.weight f4 [16, 16]
0	0x3e1eeb1d	0.15519376
1	0xbd64b6c8	-0.055838376
2	0xbe3703ef	-0.17872594
3	0xbd97f137	-0.07419055
4	0x3e97474d	0.29546586
5	0x3db30b41	0.08742381
6	0xbec967fb	-0.39337143
7	0xbe8972c8	-0.26845384
8	0xbeb62a39	-0.35579088
9	0x3ed5ef0a	0.41783935
10	0xbe2f42dd	-0.1711535
11	0x3ec02caf	0.3753409
12	0x3d11bd7a	0.03558109
13	0xbc1785c8	-0.0092482045
14	0xbdd20d2b	-0.10256418
15	0xbd6b3440	-0.057422876
16	0xbec96f17	-0.39342567
17	0xbe95b6b6	-0.2924096
18	0xbe04dd33	-0.12975006
19	0x3e8a1746	0.2697088
20	0xbe184334	-0.14869386
21	0x3c9c2448	0.019060269
22	0xbe658f06	-0.2241784
23	0xbe967ef1	-0.29393724
24	0x3e3f7e0d	0.18700428
25	0x3e1a7c8e	0.15086576
26	0x3eb963d6	0.3620898
27	0x3e38e011	0.18054225
28	0x3e204a90	0.15653443
29	0xbe2a87e4	-0.166534
30	0x3e81ec3b	0.25375542
31	0x3dfff964	0.12498739
32	0x3e02dede	0.1278033
33	0xbe8f9a96	-0.28047627
34	0x3e71e056	0.23620734
35	0xbd6f75e7	-0.05846205
36	0x3e2953d1	0.1653588
37	0x3e606580	0.21913719
38	0x3e3c47d8	0.18386781
39	0xbe6ef566	-0.233358
40	0xbe8bef6e	-0.27331108
41	0xbeb8c5dc	-0.36088455
42	0x3e132e2b	0.1437308
43	0xbeadbec0	-0.33934593
44	0x3e29fdc0	0.16600704
45	0x3dfde823	0.12397792
46	0x3ebf953a	0.37418538
47	0x3e965e70	0.29368925
48	0xbd437938	-0.047723025
49	0x3eda53e5	0.4264213
50	0xbe88c58b	-0.26713213
51	0x3e7fb7f2	0.24972513
52	0xbdf171f4	-0.11789313
53	0xbe0f6592	-0.1400359
54	0xbd0c8e63	-0.034315478
55	0x3e8f5239	0.27992418
56	0xbc871ba3	-0.01649267
57	0xbe8e6bc5	-0.27816597
58	0x3ea05f3e	0.31322664
59	0xbe608774	-0.21926671
60	0x3e3e2b14	0.1857112
61	0xbdc6b7cb	-0.097030245
62	0x3d6520ce	0.055939488
63	0xbede24cf	-0.43387458
64	0xbea2b197	-0.31776115
65	0x3e99f937	0.30072948
66	0x3e18a460	0.14906454
67	0xbe758c37	-0.23979269
68	0x3e290d7d	0.16509052
69	0x3e8a9c25	0.27072254
70	0xbeca869a	-0.39555818
71	0xbeb5516a	-0.35413677
72	0xbdb2fcd3	-0.08739629
73	0xbe87d425	-0.2652904
74	0xbeb49853	-0.35272464
75	0x3e0ecdf3	0.13945751
76	0x3ef5f0dc	0.48035324
77	0xbd26b2b3	-0.040697765
78	0xbedad387	-0.42739508
79	0xbcaa9502	-0.020823006
80	0xbe4de474	-0.20106679
81	0xbc87f5dd	-0.016596729
82	0xbe59cde7	-0.21269952
83	0xbd9dce55	-0.0770537
84	0x3eb1a2bc	0.3469447
85	0xbeb566d1	-0.35430005
86	0x3e995eb4	0.29955065
87	0x3eb7bb98	0.3588531
88	0x3bb33105	0.00546849
89	0xbdd9358f	-0.106059186
90	0x3c9d73ed	0.019220317
91	0x3ec31e32	0.38108975
92	0x3ea0462e	0.31303543
93	0x3eae3a3d	0.34028807
94	0xbb54ec4f	-0.0032489484
95	0x3e09300f	0.13397239
96	0xbe13889f	-0.14407586
97	0x3d2e670e	0.04257875
98	0xbee6d6e2	-0.45085818
99	0xbd58184f	-0.052757557
100	0xbde657e8	-0.112472355
101	0x3e4b3d3d	0.1984758
102	0xbe3a3db0	-0.18187594
103	0xbe50527a	-0.20343962
104	0xbeac2a16	-0.3362586
105	0xbe9f1c53	-0.31076297
106	0xbebae883	-0.36505517
107	0xbe8da6f6	-0.27666444
108	0x3d852a2a	0.06502183
109	0xbe22d7b1	-0.15902592
110	0xbe8c33ca	-0.27383262
111	0xbd00ff34	-0.03149338
112	0xbe44a706	-0.1920434
113	0x3eb4c850	0.35309076
114	0xbe700c30	-0.23442149
115	0xbe635535	-0.22200473
116	0x3e5137da	0.20431462
117	0xbd910c00	-0.07082367
118	0x3e9b8d9a	0.3038147
119	0xbecb9e32	-0.3976913
120	0xbd3e5730	-0.046469867
121	0x3d538685	0.05164196
122	0x3eb3887f	0.35065076
123	0x3ecd7bb4	0.4013344
124	0x3e0d3c55	0.13792546
125	0xbd429c29	-0.047512207
126	0x3e9daba4	0.30795014
127	0xbe1fae67	-0.15593873
128	0xbe7a2123	-0.24426703
129	0x3deaf940	0.11473322
130	0xbe38929a	-0.18024674
131	0xbe66fded	-0.22557802
132	0xbcf20799	-0.029544638
133	0xbe7ea1d2	-0.24866417
134	0x3ea74f84	0.32677853
135	0x3d9d85ac	0.076915115
136	0xbe36042a	-0.17775026
137	0x3ddbc4f5	0.10730926
138	0x3e59a488	0.2125417
139	0xbe6efa76	-0.23337731
140	0x3ed28694	0.411183
141	0xbe9c55ef	-0.30534312
142	0x3ebaa62c	0.36454904
143	0x3edc4007	0.430176
144	0xbc930e89	-0.017951267
145	0xbe5a4ac8	-0.2131759
146	0xbeae4f08	-0.3404467
147	0xbe9bea98	-0.30452418
148	0xbe262b65	-0.16227491
149	0x3e122962	0.14273599
150	0xbe85d78b	-0.2614101
151	0x3e7a760d	0.24459095
152	0xbe96fc7c	-0.29489505
153	0xbedbbd9a	-0.42918092
154	0x3e90b95a	0.28266412
155	0x3ecc3e7b	0.3989142
156	0xbc78cc56	-0.015185436
157	0x3e0f3d9f	0.1398835
158	0xbd81553b	-0.063150845
159	0xbed7e2de	-0.42165273
160	0xbe0247fb	-0.12722771
161	0x3e95dd96	0.2927062
162	0x3ecadf2c	0.39623392
163	0x3d23389b	0.039848905
164	0xbe9c65eb	-0.30546507
165	0xbe8e6d7c	-0.27817905
166	0xbe7ff6b6	-0.24996457
167	0x3ea0961b	0.3136452
168	0x3e2d1df2	0.16905954
169	0xbd9e5579	-0.07731146
170	0xbe0a956d	-0.13533564
171	0x3ed552bf	0.41664693
172	0x3e044faa	0.12921014
173	0x3e2fd471	0.17170884
174	0x3e872ee4	0.26402962
175	0x3e840def	0.2579188
176	0x3dea7b9c	0.11449358
177	0x3e86933c	0.26284206
178	0x3ecb2fad	0.3968481
179	0x3bbfd4fa	0.005854246
180	0xbec4ee92	-0.38463265
181	0xbe39ccea	-0.18144575
182	0xbee0b117	-0.4388511
183	0x3e6efa61	0.233377
184	0xbe7ed102	-0.24884418
185	0x3bb27874	0.005446488
186	0xbdcf211b	-0.10113736
187	0x3eaa3b5e	0.3324842
188	0x3ec83f8f	0.3911099
189	0x3c2ea371	0.010659085
190	0x3e898e4c	0.26866376
191	0xbe120cac	-0.14262646
192	0xbeb52e7e	-0.35387033
193	0x3e90480a	0.2817996
194	0x3b422e23	0.002962955
195	0x3d8856bc	0.06657168
196	0xbe316860	-0.17324972
197	0x3e494648	0.19655716
198	0x3e9c7212	0.3055578
199	0xbeba0543	-0.3633214
200	0x3df2ac25	0.1184924
201	0xbe8e6322	-0.27810007
202	0xbea4a209	-0.32154873
203	0xbe574182	-0.21021083
204	0xbeacbf28	-0.3373959
205	0x3d5830c4	0.05278088
206	0x3d2f6539	0.042821143
207	0x3e905041	0.2818623
208	0x3e9ac008	0.30224633
209	0x3e9849b4	0.2974373
210	0x3e9da369	0.30788735
211	0xbeb15bb0	-0.34640265
212	0xbe8c4700	-0.2739792
213	0xbea2ad5c	-0.31772888
214	0xbe037b48	-0.12839997
215	0x3ec2f080	0.38074112
216	0x3ec04c23	0.37558088
217	0xbe120ba0	-0.14262247
218	0x3e88d6d4	0.267264
219	0x3ed005bc	0.40629375
220	0x3ea8fcb1	0.33005288
221	0xbddad191	-0.10684503
222	0xbd8f0124	-0.069826394
223	0x3ea4af25	0.32164875
224	0x3dab4fdd	0.08364842
225	0x3e879682	0.26482016
226	0x3d9adbd9	0.07561464
227	0x3ef54880	0.47906876
228	0x3d0f26fd	0.03494929
229	0xbda145d4	-0.07874647
230	0xbe6b63e9	-0.22987331
231	0xbe31ea54	-0.17374545
232	0xbea59f58	-0.32348132
233	0x3ea4234c	0.3205818
234	0x3e6cfd4c	0.231435
235	0x3e626fff	0.22113036
236	0xbe78459a	-0.24245301
237	0x3e6e9a4e	0.2330105
238	0x3eae48ff	0.34040067
239	0xbcabfc59	-0.020994352
240	0x3e3e0e90	0.18560243
241	0x3e5d0fdd	0.21588083
242	0xbeaac533	-0.33353576
243	0xbe5765ba	-0.210349
244	0x3de1f2fc	0.11032674
245	0xbe7132ab	-0.23554485
246	0x3c657aac	0.014006298
247	0xbc825f81	-0.01591468
248	0xbe9a9e18	-0.3019874
249	0x3dbacbd5	0.09120909
250	0xbc0b9111	-0.008518473
251	0x3ec38b1a	0.38192064
252	0x3e37f108	0.1796304
253	0x3d9e77b3	0.077376746
254	0xbe546c4b	-0.20744435
255	0x3ebf8b58	0.37410998

encoder.blocks.1.attn.proj.bias f4 [16]
0	0xbcb3f4c8	-0.021967307
1	0xbd0414de	-0.032246463
2	0x3d3d0c02	0.04615403
3	0xbc8bf2d3	-0.017083561
4	0xbd6adec4	-0.057341352
5	0xbce59fdd	-0.02803033
6	0x3c53c5f9	0.012925618
7	0x3d09b3d2	0.033618756
8	0x3aacb53d	0.0013176572
9	0xbcb66a9b	-0.02226763
10	0x3c634243	0.0138707785
11	0xbc94d791	-0.018169196
12	0xbd88ff97	-0.06689375
13	0x3d0eb457	0.034839954
14	0x3d7f5d4a	0.062344827
15	0x3d3e0422	0.04639066

encoder.blocks.1.norm2.weight f4 [16]
0	0x3f827a5b	1.019359
1	0x3f74c3ae	0.95611084
2	0x3f75fc35	0.9608796
3	0x3f892002	1.0712893
4	0x3f842ea1	1.032673
5	0x3f7da911	0.990861
6	0x3f794c32	0.9738189
7	0x3f7bcffc	0.98364234
8	0x3f69b276	0.91287935
9	0x3f6e51bf	0.93093485
10	0x3f770881	0.9649735
11	0x3f8bd32f	1.0923823
12	0x3f87d31d	1.0611302
13	0x3f7707db	0.9649636
14	0x3f72762d	0.9471157
15	0x3f7a9462	0.97882664

encoder.blocks.1.norm2.bias f4 [16]
0	0x3c3ed0eb	0.01164649
1	0xbcbfaa3b	-0.023396602
2	0x3dc6f074	0.097138315
3	0x3c8037f3	0.015651679
4	0xbd567a41	-0.052362684
5	0x3c7afa58	0.015318476
6	0x3c93b7d1	0.018031986
7	0xbc0f357a	-0.008740777
8	0xbc526dcc	-0.01284356
9	0x3d77def3	0.060515355
10	0xbd8a1f8e	-0.067443
11	0x3bbd97b4	0.0057859067
12	0xbd4d827c	-0.050173268
13	0xbcca5650	-0.02469936
14	0x3c08f836	0.008359959
15	0xbc138bbf	-0.009005486
