Checkpoint/dict_0.pth (torch, 108719 bytes, 64 tensors)

encoder.cls_token f4 [1, 1, 16]
-0.39953372 1.090952 -3.1204836 0.7207898 -0.33085182 -0.5923683 -2.4328873 1.70148
-0.6340753 0.1503521 -1.3789645 1.4753691 -0.07458764 -0.51005834 -0.843681 -1.557527
00000000: af8f ccbe 51a4 8b3f 01b6 47c0 ae85 383f
00000010: 6965 a9be 73a5 17bf 6db4 1bc0 19ca d93f
00000020: c252 22bf e7f5 193e e981 b0bf e5d8 bc3f
00000030: 68c1 98bd 2f93 02bf 7afb 57bf 0b5d c7bf

encoder.patch_embed.weight f4 [16, 5]
0.12295027 -0.18720762 -0.13333216 -0.077320054 -0.18908724 -0.15309438 0.42938673 -0.4181836
-0.5334435 0.45592666 0.14597936 0.20385158 0.27622947 -0.5196928 0.07034876 -0.3228596
-0.6801616 -0.32663473 -0.47105953 0.6838606 -0.19076264 0.5711401 -0.3160615 0.10448444
-0.40156725 0.10200152 0.333021 -0.43604994 0.23586366 0.4107857 0.38508317 -0.14535747
0.41525465 0.08703209 -0.4674712 -0.61697775 -0.17834064 -0.0842591 0.5567225 -0.28548464
-0.6024148 -0.18992446 -0.3090479 0.3827518 0.014196682 -0.4407251 -0.21180457 -0.5010015
-0.3224146 0.3468659 0.57874846 -0.31500903 -0.53413844 0.37115595 -0.39049342 -0.24478163
-0.011639647 -0.24315815 -0.29734355 -0.3605332 -0.035636835 -0.41509902 0.4393227 0.55812955
-0.29153198 -0.26140916 -0.22797763 -0.26234537 0.15485804 -0.5825634 -0.1782859 0.54199296
0.12188411 0.18321688 0.0496126 -0.1002057 -0.5676269 0.4025712 0.2726924 0.088786624
00000000: 5acd fb3d 5bb3 3fbe 3a88 08be fa59 9ebd
00000010: 16a0 41be c6c4 1cbe 94d8 db3e 291c d6be
00000020: c18f 08bf 386f e93e 9d7b 153e 78be 503e
00000030: f36d 8d3e 960a 05bf 0313 903d da4d a5be
00000040: 121f 2ebf ab3c a7be b72e f1be 7d11 2f3f
00000050: 4857 43be 3d36 123f d0d2 a1be f0fb d53d
00000060: 399a cdbe 2ce6 d03d ba81 aa3e f041 dfbe
00000070: 3e86 713e 8152 d23e 9f29 c53e 97d8 14be
00000080: 429c d43e e13d b23d 6358 efbe 41f2 1dbf
00000090: ee9e 36be 0990 acbd 5e85 0e3f 0b2b 92be
000000a0: db37 1abf 8f7b 42be 873b 9ebe 0bf8 c33e
000000b0: 3399 683c b8a6 e1be 4ce3 58be a241 00bf
000000c0: 8713 a5be 6898 b13e dc28 143f dd48 a1be
000000d0: 4cbd 08bf 2708 be3e c1ee c7be 09a8 7abe
000000e0: 38b4 3ebc 73fe 78be 6a3d 98be cf97 b8be
000000f0: eef7 11bd dc87 d4be e8ee e03e 94e1 0e3f
00000100: ae43 95be 6cd7 85be f872 69be 2252 86be
00000110: 1b93 1e3e e022 15bf 9490 36be 0dc0 0a3f
00000120: 609e f93d 359d 3b3e 9536 4b3d a538 cdbd
00000130: ff4f 11bf d01d ce3e 579e 8b3e c3d5 b53d

encoder.patch_embed.bias f4 [16]
0.18494819 -0.017847119 -0.053665332 -0.05087831 0.16151501 -0.3688186 -0.023600604 -0.07285022
-0.0004813402 0.2844568 0.033571962 -0.047372777 0.13815388 -0.019848261 0.010628542 -0.228613
00000000: 0f63 3d3e 1f34 92bc 2ed0 5bbd c665 50bd
00000010: 3164 253e cbd5 bcbe 0e56 c1bc 7f32 95bd
00000020: 635c fcb9 52a4 913e c182 093d f509 42bd
00000030: 3678 0d3e d298 a2bc 5623 2e3c 8719 6abe

encoder.blocks.0.norm1.weight f4 [16]
0.92827916 1.1102579 1.045073 1.1534461 1.1648661 0.9918412 1.1498573 1.0395244
1.1063273 0.98812866 1.2261646 0.9232006 0.9670253 0.97413445 1.0886161 1.0481199
00000000: b4a3 6d3f ee1c 8e3f f4c4 853f 1fa4 933f
00000010: 551a 953f 4ee9 7d3f 862e 933f 230f 853f
00000020: 229c 8d3f 00f6 7c3f f6f2 9c3f e056 6c3f
00000030: f88e 773f e060 793f c657 8b3f cb28 863f

encoder.blocks.0.norm1.bias f4 [16]
0.13283017 -0.006301339 0.0010694067 -0.030487811 0.047909997 -0.07172031 -0.024541669 -0.019130433
-0.09766021 -0.014951818 0.07486012 -0.06449171 0.108159654 -0.029128874 0.051372923 -0.006386736
00000000: a204 083e 767b cebb 562b 8c3a 93c1 f9bc
00000010: 463d 443d 19e2 92bd 9c0b c9bc 6db7 9cbc
00000020: 1402 c8bd 78f8 74bc 4350 993d 3b14 84bd
00000030: cf82 dd3d ad9f eebc 6a6c 523d d347 d1bb

encoder.blocks.0.attn.qkv.weight f4 [48, 16]
0.0435929 -0.09916603 -0.633517 -0.1291357 -0.19648908 -0.223987 0.07979003 -0.29512483
0.48734897 0.38098857 -0.70551646 -0.025769342 0.13820136 -0.1417799 -0.07630123 -0.24687491
0.03426089 0.0059628896 -0.011051509 0.07317908 -0.16426171 0.34395224 -0.007007865 0.17581852
-0.22465315 0.07208476 -0.37319192 -0.018609641 -0.18091072 -0.25668934 0.15611681 0.2593727
-0.0902194 -0.06237497 0.060028594 0.45088294 -0.30414444 -0.042019952 -0.42649895 0.37998313
0.46113724 -0.30127478 -0.11989025 0.0813765 -0.059866745 0.3710459 -0.5601373 0.28549045
-0.20576158 -0.23908758 0.19063672 0.3247962 -0.5285784 0.38607112 -0.045535356 0.3586536
-0.18412356 -0.23983407 0.14437252 0.3482126 -0.2558146 0.06253655 -0.2075419 0.052127812
-0.106870264 0.3581463 -0.2504857 -0.2330387 0.12105702 0.052138615 -0.16648145 -0.28645238
-0.09402638 -0.2368424 -0.19982363 -0.17578183 -0.0059795496 0.086577624 -0.11681424 0.031725388
0.123778105 0.092163175 -0.14273243 0.0892231 -0.062089883 0.0073763398 0.23559143 -0.2602133
0.010050371 -0.28897545 0.20590705 -0.053893995 -0.048197165 -0.17327528 0.18272622 0.18725298
-0.448915 -0.53131664 0.6138116 0.397608 -0.039659016 0.23961739 0.04948622 0.14241196
-0.022289444 -0.20727205 -0.013658849 0.043049913 -0.16985437 -0.08870021 -0.2620357 -0.10511899
-0.096281365 -0.1562208 -0.019030463 -0.042226437 0.29287404 -0.13869098 0.14707653 -0.20283942
0.48895934 0.0034750502 0.40042946 -0.22506586 -0.36395016 -0.11837952 0.11776041 -0.23404412
-0.15585455 -0.16211824 -0.03576726 0.42995685 0.07092553 -0.12800838 -0.2113256 0.258564
0.34352636 -0.08291662 0.30299824 0.37584916 -0.19212563 0.28465217 -0.34223324 -0.24781492
0.01967288 0.03691182 -0.23592936 -0.16009699 0.52450335 -0.2423492 0.007856734 -0.09844221
0.3438132 0.2024628 -0.027221823 -0.06677815 -0.3144826 0.09369143 -0.0820163 -0.4030793
0.25005534 0.09119929 -0.22952959 0.016850056 0.22542599 -0.4971672 0.08452759 0.08471796
0.5799557 0.3237523 -0.24860995 -0.12908678 0.0094092805 0.14124453 0.04378063 -0.24625379
0.25322804 -0.5474065 0.30955306 -0.39688772 0.3140213 0.05290545 0.2821616 -0.0632861
-0.091897465 -0.054650642 0.52752274 0.03586131 -0.08325386 0.19932605 -0.2763465 0.23237872
-0.37360212 0.2329798 0.040758945 0.29680553 -0.011656754 0.00010275584 0.26668438 0.021770854
0.25312147 -0.12044811 -0.03676757 0.13095783 0.06591562 -0.3229661 -0.2885126 -0.08142918
-0.19642122 -0.025143279 -0.05841225 0.27419385 -0.2028232 0.20714758 -0.1116249 -0.0984942
-0.122996755 -0.1624745 -0.33232003 0.3364746 0.1518315 -0.061767235 -0.12190813 -0.253908
0.22179106 0.057918806 0.13446558 -0.31291324 0.16045286 0.085944384 0.119807966 -0.2342595
-0.02670652 -0.04316337 -0.203661 0.21202713 0.042874996 -0.21618961 -0.008401556 -0.17754118
-0.3337208 0.08987538 -0.363157 -0.058276072 0.17611246 0.042785645 -0.037019044 0.34698042
-0.04999809 -0.03176769 0.21347296 0.16142194 -0.24038152 0.15681355 -0.3050482 0.010120896
00000000: 788e 323d 8f17 cbbd 2c2e 22bf 263c 04be
00000010: 6f34 49be d95c 65be f568 a33d 9a1a 97be
00000020: ce85 f93e ef10 c33e ba9c 34bf 3a1a d3bc
00000030: a884 0d3e c02e 11be d243 9cbd c7cc 7cbe
00000040: 2655 0c3d 5864 c33b 6311 35bc eade 953d
00000050: 3934 28be 821a b03e 3ba2 e5bb c509 343e
00000060: 7a0b 66be 2da1 933d 0313 bfbe 3f73 98bc
00000070: a940 39be c96c 83be 16dd 1f3e 80cc 843e
00000080: f3c4 b8bd e67c 7fbd 8be0 753d 21da e63e
00000090: d2b8 9bbe 1d1d 2cbd 125e dabe 268d c23e
000000a0: 2e1a ec3e b040 9abe 0589 f5bd b9a8 a63d
000000b0: d536 75bd baf9 bd3e 2865 0fbf ce2b 923e
000000c0: 2ab3 52be 60d3 74be 4636 433e b04b a63e
000000d0: ea50 07bf 1dab c53e 4883 3abd 72a1 b73e
000000e0: e38a 3cbe 1097 75be 64d6 133e ec48 b23e
000000f0: 22fa 82be 2a13 803d dd85 54be f983 553d
00000100: ccde dabd f45e b73e a93f 80be b2a1 6ebe
00000110: beec f73d 4d8f 553d 1d7a 2abe e3a9 92be
00000120: e790 c0bd d086 72be 919e 4cbe 2700 34be
00000130: 19f0 c3bb 9c4f b13d 4e3c efbd 7bf2 013d
00000140: 607f fd3d 0cc0 bc3d 7328 12be 9aba b63d
00000150: f651 7ebd 39b5 f13b e13e 713e ad3a 85be
00000160: 50aa 243c 97f4 93be 4cd9 523e f3bf 5cbd
00000170: 646a 45bd 136f 31be 951c 3b3e 3fbf 3f3e
00000180: 30d8 e5be 5e04 08bf c222 1d3f 4793 cb3e
00000190: 7e71 22bd 435e 753e 10b2 4a3d 71d4 113e
000001a0: 5a98 b6bc 203f 54be 5dc9 5fbc 1b55 303d
000001b0: 4eee 2dbe 75a8 b5bd 8b29 86be a048 d7bd
000001c0: 2a2f c5bd 58f8 1fbe c6e5 9bbc a1f5 2cbd
000001d0: 96f3 953e 0205 0ebe 3b9b 163e 23b5 4fbe
000001e0: e158 fa3e abbd 633b 1705 cd3e aa77 66be
000001f0: ad57 babe f670 f2bd 5f2c f13d 43a9 6fbe
00000200: 5698 1fbe 5302 26be b180 12bd 4e23 dc3e
00000210: 6741 913d a114 03be bd65 58be 8062 843e
00000220: b0e2 af3e 30d0 a9bd 9622 9b3e 4d6f c03e
00000230: 95bc 44be eebd 913e 3239 afbe 32c3 7dbe
00000240: 0529 a13c d930 173d 7797 71be 77f0 23be
00000250: da45 063f 642a 78be 88b9 003c 129c c9bd
00000260: 4908 b03e 6952 4f3e 4d00 dfbc fcc2 88bd
00000270: dd03 a1be 4be1 bf3d 29f8 a7bd 6960 cebe
00000280: 4107 803e b1c6 ba3d ce09 6bbe 2109 8a3c
00000290: 12d6 663e b38c febe cd1c ad3d 9c80 ad3d
000002a0: fa77 143f ddc2 a53e 9b93 7ebe 532f 04be
000002b0: 6229 1a3c 68a2 103e 5153 333d f429 7cbe
000002c0: 1ba7 813e d522 0cbf bd7d 9e3e de34 cbbe
000002d0: 66c7 a03e 63b3 583d 7c77 903e 259c 81bd
000002e0: bd34 bcbd 5ad9 5fbd bb0b 073f 4fe3 123d
000002f0: 0081 aabd 211c 4c3e 4a7d 8dbe b0f4 6d3e
00000300: c748 bfbe 4292 6e3e daf2 263d e5f6 973e
00000310: f8fb 3ebc 9f7e d738 db8a 883e ca58 b23c
00000320: 2399 813e 80ad f6bd 9799 16bd cf19 063e
00000330: c5fe 863d d05b a5be ecb7 93be 58c4 a6bd
00000340: a522 49be 47f9 cdbc af41 6fbd 2363 8c3e
00000350: e3b0 4fbe 7f1e 543e 989b e4bd 54b7 c9bd
00000360: b9e5 fbbd b75f 26be da25 aabe 6646 ac3e
00000370: b779 1b3e a4ff 7cbd f8aa f9bd 3b00 82be
00000380: 321d 633e 453c 6d3d 58b1 093e 2a36 a0be
00000390: c14d 243e 9c03 b03d e15d f53d b9e1 6fbe
000003a0: a2c7 dabc 13cc 30bd 828c 50be a41d 593e
000003b0: b19d 2f3d cf60 5dbe aea6 09bc 5bcd 35be
000003c0: 74dd aabe 9510 b83d b7ef b9be e4b2 6ebd
000003d0: d356 343e 0040 2f3d 48a1 17bd 6ba7 b13e
000003e0: ccca 4cbd d61e 02bd a898 5a3e cb4b 253e
000003f0: 9326 76be bb93 203e 472f 9cbe 1dd2 253c

encoder.blocks.0.attn.proj.weight f4 [16, 16]
0.19635303 -0.003540178 0.050126072 -0.30262443 0.1694433 -0.21613742 -0.18088818 0.10520725
0.31823424 0.3217071 0.03501477 0.26297453 0.026440509 0.2898776 0.19302747 0.09094727
-0.42033333 0.37493765 -0.3632498 -0.056783166 -0.13580996 0.19690289 0.12527786 -0.07554593
-0.34253013 -0.35307655 0.42605096 -0.20520893 0.18988217 -0.012412836 -0.25033417 -0.41487616
0.47168717 0.07555076 0.002237031 -0.38911062 -0.091851495 -0.07248278 -0.3474347 0.12457659
0.2107463 -0.16549961 -0.35107392 -0.19443975 -0.2755506 -0.077683926 0.29663894 0.34220904
-0.10051291 -0.17155531 -0.15247934 -0.19814499 0.22528164 0.25722805 0.21407646 0.09406901
-0.33707365 0.2633868 0.07868203 -0.36180726 -0.24280633 0.32051268 -0.3295737 0.37019974
-0.06743228 0.12434977 0.332911 -0.2407746 -0.12063136 0.13670146 0.14089492 -0.22543481
-0.2748403 -0.36124405 0.16723196 -0.030522363 0.34512314 0.38844988 -0.4082985 -0.030649312
0.16683824 0.5693455 -0.11144461 -0.34520754 -0.3507828 0.15769912 -0.30867022 -0.39744124
0.44748634 -0.25552067 0.18646428 -0.113049746 0.32405058 0.17154738 -0.11551527 0.17725937
0.17286466 -0.3256074 -0.019514536 0.21485046 0.144354 -0.022625405 -0.30526865 -0.18257472
-0.07552964 0.27148604 -0.13872093 -0.04460294 0.39769742 0.2360712 -0.36475146 0.41374934
-0.01329948 -0.3175242 -0.42279088 0.2625815 -0.40761226 0.23065305 -0.08718687 -0.06822679
0.23323852 -0.2993619 -0.37233624 -0.18202107 0.025680438 0.24353708 -0.34405786 0.01758317
0.24979718 0.27857134 0.09872208 0.27921554 0.3868875 0.10336319 0.32451013 0.42792174
-0.2778249 0.34168133 0.37703305 -0.14180419 -0.11345182 0.07871532 0.26227552 -0.19317096
0.39088148 0.39109892 0.1532818 0.02102089 0.26786312 -0.07944164 0.11296792 0.23263948
-0.06032964 0.3133523 -0.29904687 -0.05952332 -0.36505616 0.014761343 -0.0017672897 0.010982662
0.30117807 0.22074933 -0.24915926 0.21954383 0.22592945 0.35693288 -0.36526036 -0.30246964
-0.2547341 -0.40089464 0.15606861 -0.35963923 0.3864913 0.18454932 0.120014906 -0.09146337
0.34467825 0.12935036 0.11162007 -0.4719326 0.22163591 0.12508675 -0.07701308 -0.09981565
-0.3904117 0.35386345 -0.29619026 -0.05266059 -0.4057171 0.010288047 -0.13605256 -0.07018402
0.00993259 -0.5107696 -0.16246806 0.07249702 -0.113812104 0.013553407 -0.063292645 0.0048839347
-0.29079077 0.09772973 0.3808967 -0.46541795 0.18045194 0.30422586 -0.26126426 0.16694716
-0.31442794 -0.059796315 -0.102996536 -0.069027096 -0.3530415 0.04327787 0.21611984 0.19753689
0.27503005 0.35126892 -0.17820749 -0.10612334 0.21570894 -0.09035592 -0.26248062 0.18778393
-0.22620708 -0.18620214 -0.24430847 0.14245717 0.3919407 -0.113241166 0.052316077 -0.31203863
0.2038887 -0.2001427 0.26279923 -0.34484974 -0.35552585 0.2619902 0.40819317 -0.42251796
-0.2134372 0.26792762 0.20467278 0.31043935 0.067660734 -0.25795984 -0.15210053 -0.2666033
0.27880517 -0.033055246 0.14397354 0.1694223 -0.21293059 0.14722873 0.28738967 0.033162978
00000000: c510 493e 5502 68bb ff50 4d3d 97f1 9abe
00000010: 8b82 2d3e 2153 5dbe c03a 39be e676 d73d
00000020: 99ef a23e cbb6 a43e a66b 0f3d 99a4 863e
00000030: c499 d83c d66a 943e fea8 453e 9042 ba3d
00000040: ee35 d7be d4f7 bf3e e1fb b9be 7795 68bd
00000050: c411 0bbe e9a0 493e d748 003e d3b7 9abd
00000060: 1c60 afbe 73c6 b4be 5a23 da3e 4a22 52be
00000070: 7970 423e 355f 4bbc cd2b 80be a66a d4be
00000080: fb80 f13e 5bba 9a3d 279b 123b 8239 c7be
00000090: a31c bcbd da71 94bd f6e2 b1be 0322 ff3d
000000a0: e1cd 573e bb78 29be f6bf b3be 371b 47be
000000b0: f814 8dbe c018 9fbd 0fe1 973e 0636 af3e
000000c0: b6d9 cdbd 32ac 2fbe 8b23 1cbe 85e6 4abe
000000d0: 3bb0 663e 65b3 833e dc36 5b3e 41a7 c03d
000000e0: eb94 acbe a2da 863e 0b24 a13d cd3e b9be
000000f0: 39a2 78be 3d1a a43e e2bd a8be d28a bd3e
00000100: ef19 8abd 18ab fe3d 5073 aa3e 9e8d 76be
00000110: 930d f7bd 78fb 0b3e c246 103e 62d8 66be
00000120: deb7 8cbe fbf4 b8be db3e 2b3e 090a fabc
00000130: fbb3 b03e e7e2 c63e 800c d1be 4414 fbbc
00000140: a5d7 2a3e a0c0 113f 123d e4bd 0bbf b0be
00000150: ce99 b3be e17b 213e 060a 9ebe 6b7d cbbe
00000160: ee1c e53e 9bd3 82be 7ef0 3e3e a086 e7bd
00000170: f5e9 a53e 1eaa 2f3e 4593 ecbd 7b83 353e
00000180: 6f03 313e 03b6 a6be f3dc 9fbc c201 5c3e
00000190: 89d1 133e ea58 b9bc 2c4c 9cbe def4 3abe
000001a0: 49af 9abd 3800 8b3e dc0c 0ebe 93b1 36bd
000001b0: ff9e cb3e a6bc 713e b4c0 babe f4d6 d33e
000001c0: 10e6 59bc 8892 a2be 0c78 d8be 1571 863e
000001d0: 8eb2 d0be 5030 6c3e 088f b2bd 7dba 8bbd
000001e0: 14d6 6e3e f745 99be dba2 bebe bb63 3abe
000001f0: c85f d23c c961 793e 5a28 b0be 950a 903c
00000200: d5ca 7f3e e7a0 8e3e cd2e ca3d 57f5 8e3e
00000210: 1e16 c63e 15b0 d33d 3126 a63e 8f18 db3e
00000220: 113f 8ebe dbf0 ae3e 7a0a c13e 1e35 11be
00000230: 6e59 e8bd 7f35 a13d fa48 863e 9cce 45be
00000240: 9e21 c83e 1e3e c83e e7f5 1c3e 0034 ac3c
00000250: 5b25 893e 4cb2 a2bd ba5b e73d 0b39 6e3e
00000260: 361c 77bd b66f a03e ac1c 99be bace 73bd
00000270: a4e8 babe 8fd9 713c 67a4 e7ba a0f0 333c
00000280: 0334 9a3e 1d0c 623e 9b23 7fbe 19d0 603e
00000290: 0d5a 673e e8bf b63e 6803 bbbe 4ddd 9abe
000002a0: 826c 82be 1042 cdbe 73d0 1f3e a222 b8be
000002b0: 30e2 c53e 7ffa 3c3e 60ca f53d 2651 bbbd
000002c0: ab79 b03e 6c74 043e 1099 e43d 26a1 f1be
000002d0: 86f4 623e be16 003e 09b9 9dbd 266c ccbd
000002e0: 0be4 c7be 972d b53e 40a6 97be a1b2 57bd
000002f0: 27ba cfbe 328f 283c 5d51 0bbe a4bc 8fbd
00000300: 4dbc 223c ccc1 02bf 075e 26be 5179 943d
00000310: 5216 e9bd 1c0f 5e3c 939f 81bd 6a09 a03b
00000320: 87e2 94be 8626 c83d e404 c33e 434b eebe
00000330: 65c8 383e 7ec3 9b3e 6ec4 85be 32f4 2a3e
00000340: b3fc a0be fbec 74bd d9ef d2bd 145e 8dbd
00000350: dbc1 b4be 2344 313d 854e 5d3e 1c47 4a3e
00000360: bdd0 8c3e 85d9 b33e 067c 36be 3257 d9bd
00000370: cee2 5c3e 860c b9bd dc63 86be 6e4a 403e
00000380: d4a2 67be c6ab 3ebe 002c 7abe 4be0 113e
00000390: 74ac c83e fcea e7bd 6249 563d 87c3 9fbe
000003a0: 33c8 503e 35f2 4cbe 9f8d 863e 2590 b0be
000003b0: 7c07 b6be 9423 863e b2fe d03e 4654 d8be
000003c0: 488f 5abe cf2d 893e be95 513e e8f1 9e3e
000003d0: b691 8a3d 5013 84be 3ec0 1bbe 3a80 88be
000003e0: 8dbf 8e3e f064 07bd cd6d 133e 0a7d 2d3e
000003f0: 7a0a 5abe 21c3 163e bd24 933e e7d5 073d

encoder.blocks.0.attn.proj.bias f4 [16]
0.02560145 0.01391155 -0.03214491 0.014264491 0.019657157 -0.049444057 -0.06399569 -0.0019691652
-0.04514116 0.042635266 0.041333523 -0.0064213825 0.05549492 0.07796668 0.018736184 0.004239795
00000000: 22ba d13c 45ed 633c 62aa 03bd 9db5 693c
00000010: 0c08 a13c da85 4abd 2c10 83bd 1c0d 01bb
00000020: f0e5 38bd 51a2 2e3d 574d 293d 766a d2bb
00000030: a44e 633d ffac 9f3d a07c 993c faed 8a3b

encoder.blocks.0.norm2.weight f4 [16]
1.0128235 0.925417 1.0113872 1.1004753 1.0047878 0.8092495 1.022301 0.8677051
0.83557165 1.0452542 0.98386186 0.94599295 0.84546274 0.9197394 0.90973735 0.85565823
00000000: 33a4 813f 21e8 6c3f 2375 813f 60dc 8c3f
00000010: e39c 803f fa2a 4f3f c2da 823f ec21 5e3f
00000020: 06e8 553f e4ca 853f 5fde 7b3f 982c 723f
00000030: 3f70 583f 0b74 6b3f 8ce4 683f 6b0c 5b3f

encoder.blocks.0.norm2.bias f4 [16]
0.019636348 -0.034633063 -0.038373068 -0.06472845 0.0057592033 -0.09683556 -0.0037086352 -0.14233604
-0.047117744 0.040936816 0.0687204 -0.03274712 0.09138425 -0.11025097 0.0065859444 -0.054790974
00000000: 68dc a03c 66db 0dbd 142d 1dbd 5990 84bd
00000010: b3b7 bc3b b951 c6bd 930c 73bb 8ac0 11be
00000020: 89fe 40bd 5dad 273d 48bd 8c3d d821 06bd
00000030: aa27 bb3d 43cb e1bd e8ce d73b 806c 60bd

encoder.blocks.0.mlp.fc1.weight f4 [64, 16]
0.21764836 -0.14689213 0.02503736 -0.18971941 -0.17146298 -0.35281616 0.08803534 -0.12573993
0.13153534 -0.12199853 0.15522963 0.051062427 -0.08371753 0.05323336 -0.22352377 0.042678528
0.1259038 0.27233312 0.072295815 0.064089775 0.22978973 0.039403748 0.1161779 0.018078862
0.26043105 0.1333904 0.12699434 0.07253506 -0.18515523 -0.27532563 -0.09150695 -0.15490253
-0.040648043 0.06343963 0.090275645 -0.020158986 0.06481397 0.06440783 -0.0034161916 0.11345376
0.27479383 -0.18242644 -0.16726103 0.24506962 0.10279251 -0.12779489 -0.19407395 0.24445564
-0.18687885 -0.30236706 -0.034377433 0.037817713 0.08544386 -0.09288641 -0.025412597 0.22690478
0.33034965 -0.06523156 0.28594154 0.034204986 0.096254274 0.2059661 0.25386542 0.034138087
-0.15570141 0.13031952 -0.006903545 0.18656099 -0.103910156 -0.176895 -0.068601586 0.11249689
0.16306104 -0.10929539 -0.0330739 0.06634367 -0.25038072 -0.2726215 -0.11338867 0.12829663
-0.23034702 0.19405055 0.4211492 0.20515539 0.19087806 0.20460169 0.14072385 -0.009816898
0.04082473 0.25281617 -0.06769426 0.11260878 0.024148602 -0.33674303 -0.03279198 -0.10180048
0.062494583 0.1882875 0.025529295 -0.19317396 -0.16861095 0.11974569 -0.14223099 -0.001830758
-0.17067473 0.25053388 -0.21720038 0.18078423 -0.3126242 0.12841807 0.15341796 -0.08534103
0.13215826 -0.16770194 -0.004340417 0.2875497 0.062088262 0.11210423 0.061840907 -0.12901308
0.3368886 0.13763526 -0.08878248 0.033728424 -0.14144479 -0.06285745 0.20109202 0.14399385
0.10329819 0.23683545 0.09220249 -0.15317151 -0.3745666 -0.013001472 -0.21585073 0.03335362
0.043288033 -0.2694029 -0.2574812 0.13603811 -0.14253345 -0.13172756 -0.1411319 -0.09570832
0.097287245 -0.0030506847 0.06300631 -0.34617412 0.32828885 -0.12970752 0.36885235 -0.23467883
0.25794044 0.020479657 0.08173796 0.14258373 0.20183104 0.31831518 0.09536667 0.14866672
-0.21947758 -0.14432757 0.06080965 0.28415805 -0.015482951 0.2797533 0.14833027 -0.13675906
0.015451213 -0.2722759 0.22249715 -0.056006577 -0.19989276 -0.19365923 0.053519852 -0.20363186
0.2761799 -0.06673449 0.1841692 -0.11889631 0.234607 0.009187339 -0.021894932 0.039065775
0.27136558 0.1339956 0.047504134 -0.30134222 -0.17717507 -0.15907077 0.032516576 0.079475544
-0.22139892 -0.16205168 -0.24973379 -0.25518864 0.16776286 0.14609616 -0.26048622 0.08204707
-0.17739402 -0.2723431 -0.010677341 -0.18529278 0.06323751 -0.0619812 -0.0076915463 -0.09247449
-0.0045873453 0.032834597 -0.2860393 0.011897875 0.004225798 0.18364494 0.2867044 0.13353579
0.05937269 -0.0044846903 -0.01194533 -0.068601005 -0.08250831 0.026525656 0.12470939 0.021670643
-0.03434934 0.08644109 0.1948863 -0.17609365 0.20176591 -0.10725303 0.18160169 -0.11120795
0.3186926 -0.07104007 -0.1036546 0.0020460326 0.036601927 0.120730475 -0.1670567 -0.15003851
0.13128594 -0.2294045 0.2259116 0.3424749 -0.025825407 -0.11649837 0.23952822 0.12740877
-0.23391995 0.14559391 0.11216302 -0.23116522 -0.19050355 -0.23138654 -0.16267492 -0.15749823
00000000: 36df 5e3e e46a 16be 261b cd3c ce45 42be
00000010: fe93 2fbe 52a4 b4be df4b b43d f8c1 00be
00000020: 33b1 063e 5eda f9bd 84f4 1e3e d626 513d
00000030: 1974 abbd 390b 5a3d 6ae3 64be aecf 2e3d
00000040: edec 003e 3f6f 8b3e d40f 943d 8041 833d
00000050: 004e 6b3e d365 213d aeee ed3d 1f1a 943c
00000060: 3857 853e 7e97 083e ce0a 023e 438d 943d
00000070: 5599 3dbe 7bf7 8cbe ff67 bbbd c59e 1ebe
00000080: 907e 26bd a3ec 813d 70e2 b83d 7524 a5bc
00000090: 30bd 843d 41e8 833d 2fe2 5fbb 725a e83d
000000a0: c7b1 8c3e ffcd 3abe 7a46 2bbe 88f3 7a3e
000000b0: e184 d23d aadc 02be 52bb 46be 9452 7a3e
000000c0: 2b5d 3fbe dbcf 9abe 5acf 0cbd bfe6 1a3d
000000d0: 31fd ae3d 3b3b bebd 142e d0bc ba59 683e
000000e0: 9723 a93e 2098 85bd ee66 923e 871a 0c3d
000000f0: f620 c53d c7e8 523e a6fa 813e 61d4 0b3d
00000100: 3170 1fbe 7b72 053e 2237 e2bb d809 3f3e
00000110: d9ce d4bd f623 35be fd7e 8cbd c564 e63d
00000120: 79f9 263e 43d6 dfbd 7f78 07bd 31df 873d
00000130: e731 80be 0c95 8bbe 5238 e8bd 3160 033e
00000140: 17e0 6bbe 30b5 463e dea0 d73e 4114 523e
00000150: 8a75 433e 1b83 513e ea19 103e 0ed7 20bc
00000160: d537 273d 1f71 813e 4aa3 8abd 6f9f e63d
00000170: 4ad3 c53c 9569 acbe e250 06bd c57c d0bd
00000180: 52fa 7f3d 70ce 403e d022 d13c 65cf 45be
00000190: 59a8 2cbe 3a3d f53d 00a5 11be 0bf6 efba
000001a0: 5bc5 2ebe fa45 803e c769 5ebe 801f 393e
000001b0: 4710 a0be 0780 033e 9919 1d3e 47c7 aebd
000001c0: 7f54 073e 0fba 2bbe 0f3a 8ebb b739 933e
000001d0: 4350 7e3d e796 e53d e44c 7d3d 011c 04be
000001e0: aa7c ac3e 42f0 0c3e 97d3 b5bd d126 0a3d
000001f0: e7d6 10be 68bb 80bd 11eb 4d3e 2073 133e
00000200: 008e d33d fe84 723e a9d4 bc3d fed8 1cbe
00000210: 32c7 bfbe 2004 55bc f907 5dbe ce9d 083d
00000220: cb4e 313d 2def 89be 93d4 83be 934d 0b3e
00000230: 4af4 11be 97e3 06be e184 10be b902 c4bd
00000240: 893e c73d ffed 47bb 7409 813d bc3d b1be
00000250: 7a15 a83e 0cd2 04be 37da bc3e a64f 70be
00000260: c510 843e f4c4 a73c 3b66 a73d 7801 123e
00000270: ccac 4e3e 35fa a23e 9a4f c33d 173c 183e
00000280: bbbe 60be 9bca 13be 8a13 793d 2a7d 913e
00000290: 34ac 7dbc d33b 8f3e e4e3 173e 910a 0cbe
000002a0: 1627 7d3c bf67 8bbe 4bd6 633e 2767 65bd
000002b0: b0b0 4cbe 9b4e 46be a237 5b3d df84 50be
000002c0: 7467 8d3e 18ac 88bd da96 3c3e e97f f3bd
000002d0: d13c 703e 7e86 163c 005d b3bc 6f03 203d
000002e0: 6ef0 8a3e 2436 093e b293 423d 8749 9abe
000002f0: 626d 35be 73e3 22be 1a30 053d 13c4 a23d
00000300: 66b6 62be e0f0 25be 37ba 7fbe 16a8 82be
00000310: 07ca 2b3e 3b9a 153e 735e 85be 4b08 a83d
00000320: c7a6 35be 8e70 8bbe 04f0 2ebc 64bd 3dbe
00000330: ab82 813d 00e0 7dbd 5e09 fcbb 4463 bdbd
00000340: 7151 96bb 927d 063d be73 92be 4eef 423c
00000350: 9078 8a3b 6b0d 3c3e ebca 923e 9bbd 083e
00000360: c730 733d 4ff4 92bb 58b6 43bc af7e 8cbd
00000370: 1efa a8bd 554c d93c a367 ff3d a286 b13c
00000380: e5b1 0cbd 0708 b13d 4690 473e e551 34be
00000390: b99b 4e3e 7aa7 dbbd cbf5 393e fec0 e3bd
000003a0: ad2b a33e 757d 91bd dd48 d4bd bb16 063b
000003b0: e7eb 153d 8a41 f73d e910 2bbe b2a3 19be
000003c0: d26f 063e 03e9 6abe 5f55 673e df58 af3e
000003d0: ce8f d3bc b396 eebd e346 753e 7277 023e
000003e0: b688 6fbe 9216 153e bab5 e53d 93b6 6cbe
000003f0: 5d13 43be 98f0 6cbe 4194 26be 3747 21be

encoder.blocks.0.mlp.fc1.bias f4 [64]
-0.0017722556 -0.046008054 0.04569109 -0.0018930342 0.002173786 -0.053107828 0.019538378 -0.008454751
0.040746585 -0.044154137 -0.053345814 -0.05642951 0.007280587 -0.05443638 -0.017437877 -0.052685753
-0.0023044574 -0.033462428 -0.062752455 -0.035005458 0.006828154 -0.11791495 -0.062295184 -0.04509887
-0.07578028 -0.009002122 -0.040343855 0.0060200966 0.03353762 0.109728016 0.011133839 -0.11752448
0.035062034 -0.04618629 0.004245661 0.03332094 -0.045451026 -0.019882761 -0.0578672 -0.057813924
0.013432689 -0.06412838 -0.037910823 -0.015692996 -0.13115002 -0.03394221 -0.019042624 -0.064190604
-0.06831169 -0.07017996 -0.02096409 -0.034148403 0.039998535 -0.04498534 0.010176897 -0.100487396
0.00047830114 0.0129039325 -0.062454753 -0.06851569 -0.08732106 -0.069147736 0.04201063 -0.02017079
00000000: 084b e8ba f172 3cbd 9526 3b3d b01f f8ba
00000010: 1476 0e3b 9887 59bd f30e a03c cc85 0abc
00000020: e4e5 263d f8da 34bd 2481 5abd a122 67bd
00000030: fe91 ee3b aef8 5ebd e1d9 8ebc 04cd 57bd
00000040: 6106 17bb e60f 09bd 5c84 80bd e261 0fbd
00000050: b5be df3b 657d f1bd 3c29 7fbd 98b9 38bd
00000060: b132 9bbd a37d 13bc 993f 25bd 3b44 c53b
00000070: be5e 093d 15b9 e03d b56a 363c adb0 f0bd
00000080: 359d 0f3d d62d 3dbd 301f 8b3b 8a7b 083d
00000090: db2a 3abd 2ce1 a2bc 2806 6dbd 4bce 6cbd
000000a0: c814 5c3c bd55 83bd 6148 1bbd 998e 80bc
000000b0: 314c 06be fd06 0bbd 47ff 9bbc 5d76 83bd
000000c0: 00e7 8bbd 83ba 8fbd e2bc abbc 32df 0bbd
000000d0: 81d5 233d 8c42 38bd 00bd 263c 56cc cdbd
000000e0: 7ec4 fa39 046b 533c 8ed0 7fbd f451 8cbd
000000f0: 62d5 b2bd 549d 8dbd 5713 2c3d 363d a5bc

encoder.blocks.0.mlp.fc2.weight f4 [16, 64]
-0.0858559 0.030198116 0.108057655 -0.0613403 -0.11453603 0.1275587 -0.025784021 0.1424103
0.26475474 0.04079189 -0.22340661 0.029978419 -0.21963158 -0.015041371 0.13820377 0.14647068
-0.04530318 -0.2119055 -0.1851481 0.03540974 -0.07024049 0.19519094 -0.08411046 0.22136329
-0.13035585 -0.08067283 -0.1367455 0.18537262 0.045874305 -0.082760155 0.0046309205 0.1560037
0.16739428 0.102238834 -0.14894187 -0.05028273 0.1441359 -0.21808468 0.030196013 -0.20319284
0.09266627 0.04288117 -0.19782773 -0.03933969 0.056629796 0.13609807 -0.024936244 -0.001376756
-0.12212033 -0.019284116 0.24862252 0.033339337 0.18753123 0.029154466 0.10918108 -0.05886209
-0.09964885 -0.11968757 0.039802767 0.20108353 0.014870339 -0.14748357 0.26349396 -0.07494944
-0.008213964 -0.115042344 0.16216679 -0.1489581 -0.23925655 0.1946668 -0.0054471586 0.08958685
0.19909047 -0.1644711 0.0537536 0.11914396 0.20620438 0.039781258 -0.2664117 -0.19278409
-0.21479492 0.012950971 -0.061620373 -0.013033775 0.1996283 0.14702754 -0.012586355 -0.014177912
-0.095224075 -0.20263496 -0.009038082 -0.09141533 -0.15004742 -0.31783253 -0.102571875 -0.15575626
-0.1453563 -0.28310055 0.23346768 0.21546324 -0.34367365 -0.1776979 0.07827772 -0.15183625
0.09308404 0.033961017 0.008397379 0.07011931 0.1840769 0.17447515 0.049156744 0.119049534
-0.02146711 0.19814126 0.124493204 0.036732946 -0.17775236 0.19848064 0.23582555 0.19775292
-0.101828285 -0.10462068 -0.32878146 -0.03556234 -0.18743376 0.118354306 -0.4396719 0.02768512
-0.0014178549 -0.0059240693 0.12510791 0.091021985 0.14015542 -0.11538559 0.22369954 0.080028825
-0.23297876 0.001981602 -0.009774044 -0.016225757 0.075953 0.22693945 0.19818178 0.070225336
-0.098172896 -0.31397477 -0.1751601 -0.24608791 0.04955645 -0.14675392 -0.21904217 0.052964013
0.050403237 -0.27444386 0.1668825 0.0034427315 -0.020641556 -0.23135848 -0.038430125 0.16100706
-0.23907861 -0.055282306 -0.0849672 0.27715078 -0.01904271 0.17665526 0.21201117 -0.060920447
-0.025814453 -0.1999159 0.14200331 -0.40356746 -0.17977743 -0.22793674 0.15113181 0.18406942
0.1030847 0.20675875 -0.19226243 0.23200157 0.04198936 0.051329177 -0.21553361 0.10900755
0.3690317 -0.011042549 -0.2276266 -0.2197201 -0.15505815 0.14615063 -0.014677321 -0.0542986
0.23610131 0.17815645 0.24563617 -0.010288297 0.19516496 0.10271732 -0.35016266 -0.0912073
0.31778035 -0.073904924 -0.2094678 0.20785463 -0.015341048 -0.1913866 0.10401691 0.1348873
0.08397555 0.3398222 0.19664674 0.09262351 0.09427788 -0.06390866 -0.03471382 -0.17058598
0.15564987 0.21301176 0.21625814 -0.22823042 -0.1521028 -0.027139168 0.03388659 -0.16424896
0.23157804 -0.17489602 0.13330309 -0.1885337 -0.20083667 -0.09034762 0.17176765 -0.035698924
0.13254546 0.10752774 0.08487836 0.19701879 0.01655705 0.18934442 -0.121253505 -0.05129728
0.02601017 -0.196612 -0.0611283 -0.21237703 -0.34305236 0.20302813 0.2490714 -0.16697526
-0.13723479 0.20055936 0.2814427 -0.3020133 0.19863628 0.2542454 -0.16136943 0.23624095
00000000: 38d5 afbd 0a62 f73c 554d dd3d f73f 7bbd
00000010: de91 eabd bf9e 023e 0339 d3bc 01d4 113e
00000020: ef8d 873e 6615 273d b4c4 64be 4d95 f53c
00000030: 1ae7 60be 1570 76bc 4a85 0d3e 69fc 153e
00000040: d48f 39bd c1fd 58be 7797 3dbe ce09 113d
00000050: 3fda 8fbd 22e0 473e 1b42 acbd 0fad 623e
00000060: 017c 05be cc37 a5bd 0307 0cbe 52d2 3d3e
00000070: b2e6 3b3d 287e a9bd fabe 973b 6fbf 1f3e
00000080: 6869 2b3e 9862 d13d 3884 18be 44f5 4dbd
00000090: 5d98 133e 9751 5fbe a15d f73c c911 50be
000000a0: d0c7 bd3d 2aa4 2f3d 5a93 4abe a822 21bd
000000b0: a5f4 673d 4b5d 0b3e 1847 ccbc 4474 b4ba
000000c0: 391a fabd b9f9 9dbc e796 7e3e d48e 083d
000000d0: 3008 403e 59d5 ee3c 549a df3d 6019 71bd
000000e0: b214 ccbd c21e f5bd 3a08 233d d7e8 4d3e
000000f0: b9a2 733c ef05 17be aee8 863e 187f 99bd
00000100: dd93 06bc 529b ebbd 0d0f 263e 7988 18be
00000110: abff 74be bc56 473e 147e b2bb 4f79 b73d
00000120: 5fde 4b3e 1d6b 28be bc2c 5c3d c001 f43d
00000130: 3e27 533e acf1 223d 1d67 88be 3169 45be
00000140: 33f3 5bbe 4f30 543c a565 7cbd 9d8b 55bc
00000150: 5c6b 4c3e 638e 163e 0037 4ebc 794a 68bc
00000160: d704 c3bd 8a7f 4fbe 7714 14bc f637 bbbd
00000170: 08a6 19be f2ba a2be 3411 d2bd 927e 1fbe
00000180: 48d8 14be 8ef2 90be 2712 6f3e 65a2 5c3e
00000190: fef5 afbe 70f6 35be 1250 a03d f67a 1bbe
000001a0: d8a2 be3d b51a 0b3d 2995 093c b69a 8f3d
000001b0: a87e 3c3e 9da9 323e 9558 493d 3ed0 f33d
000001c0: cbdb afbc 8be5 4a3e 4bf6 fe3d 4975 163d
000001d0: b704 36be 823e 4b3e 417c 713e be7f 4a3e
000001e0: 598b d0bd 5e43 d6bd 0b56 a8be d1a9 11bd
000001f0: a3ee 3fbe be63 f23d ad1c e1be e8cb e23c
00000200: 51d7 b9ba b21e c2bb 4a1c 003e bc69 ba3d
00000210: e784 0f3e 484f ecbd 7e11 653e 27e6 a33d
00000220: fc91 6ebe c4dd 013b 5023 20bc e1eb 84bc
00000230: 3f8d 9b3d d162 683e 2af0 4a3e 4dd2 8f3d
00000240: df0e c9bd 4dc1 a0be 2b5d 33be 78fe 7bbe
00000250: b4fb 4a3d a946 16be 974c 60be cbf0 583d
00000260: a073 4e3d e883 8cbe 3fe3 2a3e 739f 613b
00000270: 7b18 a9bc 3de9 6cbe e868 1dbd 09df 243e
00000280: 06d1 74be b36f 62bd 4903 aebd b5e6 8d3e
00000290: 75ff 9bbc 1ee5 343e 7519 593e b887 79bd
000002a0: d578 d3bc c1b6 4cbe 5169 113e 65a0 cebe
000002b0: 9317 38be 4068 69be 4cc2 1a3e b27c 3c3e
000002c0: 121e d33d 91b8 533e 71e0 44be d291 6d3e
000002d0: 09fd 2b3d 8b3e 523d d8b4 5cbe 5a3f df3d
000002e0: b9f1 bc3e cfeb 34bc f316 69be 4efe 60be
000002f0: 90c7 1ebe 83a8 153e 2579 70bc 3568 5ebd
00000300: 8bc4 713e a56e 363e 0c88 7b3e 3f90 28bc
00000310: 53d9 473e 755d d23d 8548 b3be e5ca babd
00000320: 1bb4 a23e 775b 97bd ba7e 56be d8d7 543e
00000330: 0559 7bbc d9fa 43be d106 d53d e51f 0a3e
00000340: 60fb ab3d 2dfd ad3e c35d 493e 65b1 bd3d
00000350: c314 c13d 8be2 82bd 1430 0ebd 17ae 2ebe
00000360: ae62 1f3e c11f 5a3e c672 5d3e 3cb5 69be
00000370: d6c0 1bbe f652 debc aacc 0a3d e130 28be
00000380: cb22 6d3e f117 33be 9b80 083e fa0e 41be
00000390: 21a8 4dbe 2c08 b9bd dce3 2f3e 0939 12bd
000003a0: ffb9 073e 8137 dc3d b5d4 ad3d 4bbf 493e
000003b0: a7a2 873c 81e3 413e c253 f8bd 191d 52bd
000003c0: 4813 d53c a854 49be ab61 7abd 5d79 59be
000003d0: 8fa4 afbe 9be6 4f3e 930c 7f3e 90fb 2abe
000003e0: 4787 0cbe 6f5f 4d3e 4219 903e 7da1 9abe
000003f0: 4f67 4b3e 742c 823e 073e 25be 26e9 713e

encoder.blocks.0.mlp.fc2.bias f4 [16]
-0.01831391 -0.0085782455 0.02267006 0.019823719 0.03914811 -0.037346866 -0.07019611 0.015628751
-0.017177602 0.02786947 0.0032441684 -0.028311662 -0.024364904 0.10666908 0.021764804 -0.018663866
00000000: 0e07 96bc c58b 0cbc 90b6 b93c 5a65 a23c
00000010: c559 203d 07f9 18bd fac2 8fbd de07 803c
00000020: 0bb8 8cbc 844e e43c 1d9c 543b dced e7bc
00000030: e898 c7bc 5275 da3d 1a4c b23c f7e4 98bc

encoder.blocks.1.norm1.weight f4 [16]
1.06847 1.0426626 0.9612715 1.1204758 1.0026643 1.0561788 1.002646 1.1056577
1.0686173 0.981562 1.1682423 0.942738 0.87567335 1.0495853 0.95995563 0.97874147
00000000: a0c3 883f f875 853f e415 763f c06b 8f3f
00000010: 4e57 803f de30 873f b456 803f 3186 8d3f
00000020: 74c8 883f a647 7b3f f788 953f 4757 713f
00000030: 212c 603f d058 863f a7bf 753f cd8e 7a3f

encoder.blocks.1.norm1.bias f4 [16]
-0.10563289 -0.03748643 0.07152349 -0.010047969 0.035165906 -0.08824135 -0.033849712 0.06247089
-0.06865998 0.005428689 -0.0058356673 -0.060423095 0.029994631 0.09964337 0.068731435 0.028967764
00000000: 0e56 d8bd 5f8b 19bd e87a 923d 3da0 24bc
00000010: 200a 103d e2b7 b4bd ffa5 0abd 7ae1 7f3d
00000020: 9b9d 8cbd 25e3 b13b 2039 bfbb 357e 77bd
00000030: 4db7 f53c d311 cc3d 11c3 8c3d ce4d ed3c

encoder.blocks.1.attn.qkv.weight f4 [48, 16]
0.04955773 0.03565078 -0.35542598 -0.32788152 -0.3779852 0.12829085 0.10034929 -0.2418138
-0.15045805 0.02757517 -0.13005038 -0.09259841 -0.015484019 -0.40087336 -0.26441997 0.08291216
-0.15000893 -0.019316437 -0.045611564 -0.1313883 -0.049281515 -0.29848364 -0.05611973 0.20472331
-0.27479723 0.22360714 0.04745403 0.017725836 0.012282181 0.27144656 0.11491236 0.21592309
-0.17557736 -0.16934273 0.24017243 -0.072151616 -0.1653625 -0.18200888 -0.026504934 0.3043462
0.13672693 0.16708796 0.21956751 0.27478015 0.06778646 -0.103179984 -0.09891667 -0.2750066
0.29679123 -0.19891039 -0.15518905 0.20232779 -0.1326108 -0.2206653 -0.16614641 0.10806587
0.10816326 -0.3140091 0.19342293 -0.23388991 0.04286119 -0.29618683 0.05975842 0.047040954
-0.108679704 0.09110174 0.103430994 0.08831374 -0.25087383 -0.33672398 -0.22861975 0.18987387
-0.305156 0.07856206 -0.21778867 0.23542184 0.13478832 0.050148144 0.18989363 0.05944665
-0.057163533 -0.015200155 0.18150099 0.29059875 0.20785806 -0.0056632003 0.060960393 0.23134696
0.25700969 -0.34397247 0.26105708 -0.14549634 0.36002064 -0.05532864 -0.17658317 0.09406652
-0.168127 -0.06483119 0.18670556 -0.08386424 -0.08000989 0.033166975 0.11937522 -0.113213755
0.08911911 0.057188503 0.27695787 0.005604889 0.020512544 0.05853765 -0.34722266 0.33813483
0.31169257 -0.025677677 -0.37984654 -0.40380552 -0.37050223 0.07948156 -0.10283063 -0.26008558
0.09833733 0.35926995 -0.15707895 0.12355282 0.065096885 -0.20235181 -0.09953636 -0.2756304
-0.35439402 0.10694551 -0.27485713 0.22069158 0.06585693 0.037612855 0.09070906 -0.2168036
-0.24464633 -0.305621 -0.11030878 -0.1078344 0.06276313 0.2719341 -0.01689223 0.29237887
-0.0828984 0.26693192 0.41106611 -0.1540009 0.004244105 -0.009225731 -0.18610433 0.3555967
-0.33755153 0.17709802 0.065297894 0.00023078153 0.18364157 0.45316693 -0.018591471 -0.1024635
-0.009985625 -0.12936185 0.054623567 -0.14587826 0.062175274 -0.2239498 0.2267194 0.17196539
0.23941107 -0.14969161 -0.12038771 -0.18469287 0.23265667 -0.106816605 -0.24645786 -0.18641362
-0.1149559 0.26585278 0.02876419 -0.12602116 -0.03316836 -0.22015889 -0.2934642 -0.032080524
-0.10776833 0.20135206 0.11586838 -0.19597627 -0.076163985 -0.2169914 0.290674 -0.2289529
-0.3743745 -0.36645657 -0.19723172 -0.1365809 -0.11358686 -0.06820076 0.099918365 0.03399058
0.30657133 0.36968982 -0.38475412 0.2163067 0.012971979 0.29633677 -0.23773855 -0.16920309
0.04113595 0.21739736 -0.13397175 -0.27291235 -0.07082354 -0.13352914 -0.07271934 0.07728444
-0.22812954 -0.0639432 0.039962634 -0.0861768 0.06340099 0.05870777 0.20751338 0.13213685
0.29139215 -0.10078941 0.22392994 -0.04275854 -0.2578664 -0.11442392 0.0019576657 -0.009882984
-0.2125596 -0.02612248 -0.32879484 0.26326 -0.4514247 -0.124465935 0.005256626 0.08567689
-0.057612892 -0.2066934 -0.11199881 -0.16845942 0.01480472 0.06991166 -0.091582395 -0.14686498
-0.20320307 -0.21881923 0.09638893 0.12175121 0.15200089 0.06355113 0.13472144 0.3091885
00000000: 0cfd 4a3d 8d06 123d 65fa b5be 16e0 a7be
00000010: 4787 c1be ad5e 033e ee83 cd3d 099e 77be
00000020: ad11 1abe 53e5 e13c ed2b 05be 3ca4 bdbd
00000030: afb0 7dbc 463f cdbe 0e62 87be dacd a93d
00000040: f19b 19be 813d 9ebc 31d3 3abd a88a 06be
00000050: 6adb 49bd d9d2 98be cddd 65bd fda2 513e
00000060: 39b2 8cbe 45f9 643e 285f 423d c635 913c
00000070: 333b 493c 0bfb 8a3e 2c57 eb3d f11a 5d3e
00000080: 8dca 33be 2e68 2dbe c3ef 753e 3ac4 93bd
00000090: ca54 29be 8960 3abe e020 d9bc 44d3 9b3e
000000a0: 2502 0c3e 1b19 2b3e 4ed6 603e fcaf 8c3e
000000b0: a1d3 8a3d 0750 d3bd d394 cabd aacd 8cbe
000000c0: 05f5 973e 2aaf 4bbe e1e9 1ebe 042f 4f3e
000000d0: 20cb 07be 16f6 61be 4922 2abe a451 dd3d
000000e0: b384 dd3d cdc5 a0be a910 463e d680 6fbe
000000f0: 378f 2f3d cda5 97be 3fc5 743d 04ae 403d
00000100: 7793 debd 8d93 ba3d a1d3 d33d d6dd b43d
00000110: 8972 80be 1667 acbe 4c1b 6abe 4c6e 423e
00000120: 683d 9cbe 25e5 a03d fe03 5fbe 6c12 713e
00000130: f305 0a3e 2468 4d3d 7a73 423e 557e 733d
00000140: 4f24 6abd 120a 79bc 65db 393e 5cc9 943e
00000150: bed8 543e 5e92 b9bb 9bb1 793d 38e6 6c3e
00000160: c696 833e 291d b0be 46a9 853e fefc 14be
00000170: a054 b83e 49a0 62bd 38d2 34be f3a5 c03d
00000180: 7c29 2cbe 37c6 84bd be2f 3f3e 04c1 abbd
00000190: 3adc a3bd 18da 073d ff7a f43d 9ddc e7bd
000001a0: 1484 b63d 7e3e 6a3d 6ccd 8d3e 37a9 b73b
000001b0: ec09 a83c 2dc5 6f3d 2bc7 b1be 0220 ad3e
000001c0: 2b96 9f3e fe59 d2bc 3f7b c2be 99bf cebe
000001d0: 78b2 bdbe 3ac7 a23d de98 d2bd f029 85be
000001e0: 1565 c93d 3bf2 b73e 4ed9 20be 4309 fd3d
000001f0: 8451 853d 5035 4fbe b8d9 cbbd 6e1f 8dbe
00000200: 2273 b5be 3f06 db3d 13ba 8cbe f9fc 613e
00000210: 00e0 863d f00f 1a3d acc5 b93d c301 5ebe
00000220: 9184 7abe 5b7a 9cbe 92e9 e1bd 48d8 dcbd
00000230: f589 803d f23a 8b3e 9361 8abc afb2 953e
00000240: a3c6 a9bd 4dab 883e 4277 d23e 69b2 1dbe
00000250: 2212 8b3b 8527 17bc 2292 3ebe c510 b63e
00000260: 8ed3 acbe 2f59 353e e7ba 853d f2fd 7139
00000270: 890c 3c3e 7f05 e83e 244d 98bc 62d8 d1bd
00000280: bf9a 23bc 6f77 04be f6bc 5f3d 1c61 15be
00000290: 80ab 7e3d 1953 65be 2129 683e b217 303e
000002a0: 2d28 753e c248 19be d58d f6bd 2120 3dbe
000002b0: 8d3d 6e3e aac2 dabd 735f 7cbe 36e3 3ebe
000002c0: 006e ebbd db1d 883e e1a2 eb3c b10b 01be
000002d0: 8cdb 07bd 5571 61be f140 96be de66 03bd
000002e0: a4b5 dcbd 3c2f 4e3e 674c ed3d 01ae 48be
000002f0: ddfb 9bbd fe32 5ebe 39d3 943e a172 6abe
00000300: 04ae bfbe 32a0 bbbe 1df7 49be dddb 0bbe
00000310: 3aa0 e8bd d7ac 8bbd 00a2 cc3d b539 0b3d
00000320: ebf6 9c3e fc47 bd3e 7efe c4be 817f 5d3e
00000330: 6c88 543c 74b9 973e bc71 73be 9343 2dbe
00000340: 2b7e 283d 6a9d 5e3e e42f 09be 2bbb 8bbe
00000350: ef0b 91bd ddbb 08be e1ed 94bd 4e47 9e3d
00000360: ca9a 69be a7f4 82bd dcaf 233d 767d b0bd
00000370: 61d8 813d 8f77 703d 637e 543e e24e 073e
00000380: 5a31 953e ae6a cebd e44d 653e 9423 2fbd
00000390: 1107 84be 1757 eabd 2e4c 003b 3dec 21bc
000003a0: 39a9 59be d0fe d5bc cc57 a8be 04ca 863e
000003b0: 2321 e7be ffe7 febd c63f ac3b 5e77 af3d
000003c0: 7ffb 6bbd 6fa7 53be a25f e5bd a080 2cbe
000003d0: 7f8f 723c d82d 8f3d 8d8f bbbd c663 16be
000003e0: 7714 50be 2612 60be 8f67 c53d b358 f93d
000003f0: 1fa6 1b3e 1827 823d 6bf4 093e f44d 9e3e

encoder.blocks.1.attn.proj.weight f4 [16, 16]
-0.24171181 0.23100452 -0.4151811 0.20823964 0.08583989 0.13944037 -0.38641497 0.2724532
0.40456417 0.2939665 -0.25157315 -0.29889905 -0.1571851 0.47849753 -0.054081757 -0.2289114
-0.06638927 0.124348685 -0.20325466 0.2837899 -0.24497603 -0.12708773 0.08951141 -0.11942898
-0.11574948 0.02035529 0.22757168 -0.16868775 -0.007239509 0.16877855 0.14137691 0.28366002
0.14994024 0.3969949 0.31377923 -0.22693244 0.37965497 0.030631563 0.30326697 -0.29473373
-0.22626962 -0.044358358 0.09582545 -0.1698033 0.21465203 0.011658318 -0.10580807 -0.025008062
0.14095254 -0.41054848 0.07573572 -0.15706006 -0.4213473 0.39282322 0.036539003 -0.21905318
0.23289536 0.36854854 -0.069198206 0.09004399 0.3709962 -0.38686022 -0.41733313 -0.03132391
-0.11075995 -0.34622812 0.27715185 -0.23222351 -0.06034187 -0.4441158 0.23156391 0.19529071
0.30501518 -0.19919622 -0.21146517 0.17601635 0.37990087 -0.18108475 0.4377754 -0.039062012
-0.19520769 0.082272336 -0.103809424 -0.289446 0.2166953 -0.16644974 -0.32920387 -0.14509371
0.24845123 0.012654402 0.042226326 -0.16571917 -0.07278697 0.221095 0.084538125 0.029880239
-0.3563939 -0.1250711 -0.16988099 -0.24603146 -0.11885603 -0.095135145 0.26790774 -0.35977948
-0.38691306 -0.29066193 0.34284613 0.36324906 0.44899532 -0.17201117 -0.00017715218 -0.5143155
0.34395337 0.3147248 0.113938116 0.070116214 0.28817847 -0.5151758 -0.14979428 -0.48286963
0.078221776 -0.273454 0.20366852 -0.45707464 0.12363416 -0.31236696 -0.16516523 0.16502818
0.06332289 -0.21782917 -0.07323778 0.2736811 -0.3267562 -0.009991216 -0.34336236 0.045930825
0.28080508 -0.24401522 0.1588809 0.3088644 -0.13202752 -0.25087017 -0.23553888 -0.00800368
0.09766435 0.07683138 -0.12675211 -0.39299163 -0.18840393 -0.091607325 -0.060597688 0.08748158
0.28086558 0.026392715 -0.2501151 -0.14818761 0.10585675 -0.4027171 0.025172666 0.09304978
0.20483506 -0.24220282 -0.20442232 -0.21634848 -0.25310662 0.102403946 0.34465075 0.103516355
0.19688971 0.29097918 -0.2941556 0.3053744 0.06913104 0.27178317 0.20684358 0.3936458
0.0066863443 -0.25623208 -0.01534571 0.4403524 -0.10551203 -0.3148651 -0.2818579 0.32346326
-0.35298106 0.34310192 0.037257172 -0.32927802 -0.18371014 -0.112170905 -0.19124444 -0.3068456
0.46149668 0.20845115 0.11537858 -0.002544315 -0.13990209 0.36822522 0.30811706 0.04053754
0.004477385 -0.0892814 -0.38071457 0.019098427 0.017281584 -0.3562181 -0.18075788 0.28137085
-0.34669265 0.27070925 0.30231473 -0.096549064 0.13141051 0.11886623 -0.30157024 0.058306552
0.29581544 -0.27738884 -0.47723138 0.2684471 -0.43639845 -0.31187603 0.0054012956 -0.09438905
0.3882378 0.39045927 -0.21114346 0.029483678 0.15623416 -0.04526695 0.04983005 0.27754524
-0.3410424 0.2171513 0.03777873 0.20001164 -0.49331725 0.32004043 -0.4030923 0.0139285745
0.06242414 -0.1369151 0.012147882 -0.16171679 -0.25232437 -0.06340675 -0.09499736 -0.34926224
0.22915345 -0.31895125 -0.32437202 0.028648114 -0.023160255 0.47215036 -0.33670202 0.1633036
00000000: 4d83 77be 738c 6c3e 9e92 d4be c63c 553e
00000010: d3cc af3d 75c9 0e3e 2fd8 c5be fc7e 8b3e
00000020: 0923 cf3e c782 963e 32ce 80be 4c09 99be
00000030: 21f5 20be a1fd f43e d584 5dbd c067 6abe
00000040: 19f7 87bd 86aa fe3d fd21 50be e94c 913e
00000050: ffda 7abe 4923 02be c251 b73d 2e97 f4bd
00000060: 100e edbd 23c0 a63c 8d08 693e 7bbc 2cbe
00000070: 6739 edbb 49d4 2c3e 1cc5 103e e33b 913e
00000080: ef89 193e ea42 cb3e aca7 a03e fa60 68be
00000090: 2362 c23e 0bef fa3c cf45 9b3e 57e7 96be
000000a0: 39b3 67be 1cb1 35bd 2240 c43d ebe0 2dbe
000000b0: becd 5b3e 8802 3f3c e7b1 d8bd b5dd ccbc
000000c0: dd55 103e 6933 d2be 541b 9b3d 5ad4 20be
000000d0: d5ba d7be 2020 c93e eca9 153d 7a4f 60be
000000e0: 1f7c 6e3e 65b2 bc3e cab7 8dbd fc68 b83d
000000f0: 37f3 bd3e 8b12 c6be b0ac d5be 804d 00bd
00000100: 1dd6 e2bd d044 b1be d9e6 8d3e 00cc 6dbe
00000110: 0929 77bd 2563 e3be 171f 6d3e 4afa 473e
00000120: f32a 9c3e 18fa 4bbe 538a 58be a13d 343e
00000130: 5e82 c23e 486e 39be 1924 e03e 7dff 1fbd
00000140: 86e4 47be 667e a83d 099a d4bd 4432 94be
00000150: 5fe5 5d3e cd71 2abe 698d a8be 7293 14be
00000160: 006a 7e3e 6954 4f3c 83f5 2c3d 49b2 29be
00000170: 5611 95bd ba66 623e 5322 ad3d 67c7 f43c
00000180: 4379 b6be a312 00be 48f5 2dbe acef 7bbe
00000190: ca6a f3bd 37d6 c2bd 342b 893e 0435 b8be
000001a0: 7819 c6be a4d1 94be 8789 af3e c8fb b93e
000001b0: b7e2 e53e b223 30be edc1 39b9 2eaa 03bf
000001c0: a81a b03e 9c23 a13e 6358 e93d 1799 8f3d
000001d0: 218c 933e 90e2 03bf ac63 19be b03a f7be
000001e0: bd32 a03d 2a02 8cbe 7b8e 503e b005 eabe
000001f0: e833 fd3d 90ee 9fbe 1321 29be 26fd 283e
00000200: 6eaf 813d 9c0e 5fbe b0fd 95bd ee1f 8c3e
00000210: 974c a7be 32b2 23bc 31cd afbe f621 3c3d
00000220: afc5 8f3e 20df 79be adb1 223e 7a23 9e3e
00000230: 3932 07be 0e72 80be 1b31 71be de21 03bc
00000240: 3f04 c83d c559 9d3d 4ecb 01be 3336 c9be
00000250: f6ec 40be 9f9c bbbd 4835 78bd 8b29 b33d
00000260: 9dcd 8f3e 8935 d83c 160f 80be 7ebe 17be
00000270: 6ccb d83d f030 cebe e836 ce3c e290 be3d
00000280: 48c0 513e 0404 78be 1654 51be 758a 5dbe
00000290: 3197 81be 29b9 d13d 1076 b03e 6200 d43d
000002a0: 759d 493e 39fb 943e 909b 96be 095a 9c3e
000002b0: 9394 8d3d 2a27 8b3e cece 533e f18b c93e
000002c0: 1f19 db3b da30 83be 936c 7bbc df75 e13e
000002d0: b116 d8bd 0036 a1be ae4f 90be fa9c a53e
000002e0: efb9 b4be 0eab af3e fa9a 183d 2197 a8be
000002f0: 831e 3cbe dcb9 e5bd 95d5 43be de1a 9dbe
00000300: 4b49 ec3e 3874 553e 9b4b ec3d 86be 26bb
00000310: 7e42 0fbe 0488 bc3e 85c1 9d3e b10a 263d
00000320: 07b7 923b 2bd9 b6bd 05ed c2be 4e74 9c3c
00000330: 1c92 8d3c 3862 b6be 9818 39be d70f 903e
00000340: b381 b1be 679a 8a3e ffc8 9a3e 84bb c5bd
00000350: 7a90 063e 2370 f33d 6a67 9abe dad2 6e3d
00000360: 1f75 973e e905 8ebe ac57 f4be e671 893e
00000370: 9e6f dfbe 37ae 9fbe 5afd b03b 0c4f c1bd
00000380: 1bc7 c63e 47ea c73e fe35 58be c187 f13c
00000390: d9fb 1f3e d669 39bd 981a 4c3d 691a 8e3e
000003a0: 1c9d aebe e95c 5e3e dfbd 1a3d dacf 4c3e
000003b0: 1494 fcbe 57dc a33e 1d62 cebe ad34 643c
000003c0: 74b0 7f3d 7933 0cbe e907 473c 1699 25be
000003d0: a930 81be 66db 81bd fa8d c2bd 80d2 b2be
000003e0: 34a7 6a3e 944d a3be 1714 a6be 73af ea3c
000003f0: 93ba bdbc b1bd f13e 3564 acbe 0f39 273e

encoder.blocks.1.attn.proj.bias f4 [16]
-0.12351988 -0.10885283 0.038444743 -0.008209196 0.03136734 -0.04257655 -0.0767429 -0.009428107
-0.022629118 0.017084854 -0.058365796 0.034621496 0.020651855 0.10049596 0.106099516 0.031503372
00000000: fef7 fcbd 3cee debd 3c78 1d3d dd7f 06bc
00000010: 0a7b 003d c064 2ebd 622b 9dbd 5978 1abc
00000020: b360 b9bc 89f5 8b3c f910 6fbd 45cf 0d3d
00000030: 142e a93c d3d0 cd3d b44a d93d ae09 013d

encoder.blocks.1.norm2.weight f4 [16]
0.84466755 0.93488663 0.86505646 0.94568866 0.86940646 0.9400903 1.0085618 0.9751754
0.996048 0.96548736 0.969637 0.9479625 0.9544738 0.9259441 0.9725722 1.0249668
00000000: 223c 583f bb54 6f3f 5774 5d3f a718 723f
00000010: 6c91 5e3f c2a9 703f 8e18 813f 18a5 793f
00000020: 00fd 7e3f 2e2a 773f 213a 783f acad 723f
00000030: 6558 743f ac0a 6d3f 7efa 783f 1d32 833f

encoder.blocks.1.norm2.bias f4 [16]
0.02750625 0.017251395 0.024452584 0.00339372 -0.02154166 0.07286466 -0.055979367 -0.006535191
-0.006514005 0.003170953 -0.0216299 0.00045457584 -0.012494903 -0.021150526 -0.081119925 0.027824031
00000000: ca54 e13c cc52 8d3c c950 c83c 2c69 5e3b
00000010: 2378 b0bc 113a 953d 9f4a 65bd 2825 d6bb
00000020: 6f73 d5bb c3cf 4f3b 3031 b1bc 2354 ee39
00000030: 6cb7 4cbc de43 adbc 3422 a6bd 39ef e33c
