Checkpoint/dict_21.pth (torch, 108787 bytes, 64 tensors)

encoder.cls_token f4 [1, 1, 16]
-0.5224997 -0.7420085 -0.07554661 0.9258361 -0.35109678 -0.23402539 1.0640327 1.6096079
0.33544612 -0.12438487 0.6873298 -0.5809018 1.3385493 -1.8572017 1.2908698 -0.49864268
00000000: 8ac2 05bf 45f4 3dbf 2eb8 9abd 9803 6d3f
00000010: f5c2 b3be 5aa4 6fbe 3932 883f a207 ce3f
00000020: 98bf ab3e 7fbd febd d9f4 2f3f fbb5 14bf
00000030: 9555 ab3f c9b8 edbf 393b a53f 184e ffbe

encoder.patch_embed.weight f4 [16, 5]
0.20107451 0.14622197 -0.31665716 0.42496693 0.09326151 -0.2906264 0.15514311 -0.38551304
0.49229133 -0.3675787 -0.13972329 0.62271315 0.32129496 -0.17778932 -0.22118282 0.14567918
-0.181355 -0.1383231 -0.117988765 0.1023733 0.10523937 -0.1977278 0.2689887 -0.66399914
0.29095462 0.10374362 -0.064249456 0.06799663 0.5514381 -0.5469373 0.35322946 -0.1788904
0.5425487 0.07744623 0.41524664 -0.4938118 0.5631041 -0.31296894 -0.5560363 0.3863061
0.13132621 -0.092165895 -0.44084337 -0.33171877 -0.36923656 0.4386807 0.45596644 0.07073784
-0.21563913 -0.32872152 0.114666715 0.5100954 -0.13328001 -0.02698326 0.07927162 0.01666572
-0.3002302 -0.5701695 0.19395325 0.4636058 0.0052842186 -0.17379196 0.30976725 -0.15741073
0.014002636 0.020373719 -0.6058005 -0.49570403 0.62643886 0.25722906 0.41071624 0.012561426
-0.114358075 0.29519802 -0.11982062 -0.05442308 0.31005022 0.050849024 -0.13333456 0.35830906
00000000: 7ae6 4d3e 36bb 153e e320 a2be 4495 d93e
00000010: e4ff be3d fccc 94be d6dd 1e3e f761 c5be
00000020: 9c0d fc3e 4633 bcbe 9f13 0fbe 216a 1f3f
00000030: c680 a43e 670e 36be c07d 62be ec2c 153e
00000040: 20b5 39be 92a4 0dbe 18a4 f1bd 18a9 d13d
00000050: bd87 d73d 2879 4abe e3b8 893e d9fb 29bf
00000060: 01f8 943e 8977 d43d 3895 83bd d141 8b3d
00000070: 0c2b 0d3f 1504 0cbf 7eda b43e 0c2f 37be
00000080: 79e4 0a3f 219c 9e3d 359b d43e e6d4 fcbe
00000090: 9727 103f 773d a0be 6558 0ebf eac9 c53e
000000a0: 617a 063e 79c1 bcbd 39b6 e1be 0bd7 a9be
000000b0: 930c bdbe c29a e03e 6f74 e93e 00df 903d
000000c0: 81d0 5cbe 304e a8be 62d6 ea3d 9d95 023f
000000d0: 8e7a 08be ff0b ddbc 2959 a23d 8c86 883c
000000e0: c6b7 99be a1f6 11bf ae9b 463e bd5d ed3e
000000f0: 3d27 ad3b 85f6 31be d099 9e3e 4730 21be
00000100: 506b 653c c9e6 a63c be15 1bbf ebcc fdbe
00000110: 4c5e 203f 87b3 833e 6649 d23e 70ce 4d3c
00000120: 9134 eabd 3224 973e 8364 f5bd bcea 5ebd
00000130: e7be 9e3e 1147 503d db88 08be 4974 b73e

encoder.patch_embed.bias f4 [16]
0.046191897 -0.04493642 -0.03275657 -0.057052724 0.12585889 -0.055666186 0.03125826 -0.041457113
-0.12245963 0.06049561 -0.010981622 -0.009709956 0.041309863 -0.050497003 0.047554143 -0.035711303
00000000: b733 3d3d 400f 38bd c12b 06bd 1eb0 69bd
00000010: 27e1 003e 3a02 64bd a908 003d efce 29bd
00000020: 1dcc fabd 3fca 773d 43ec 33bc 8216 1fbc
00000030: 8834 293d f2d5 4ebd 22c8 423d 0446 12bd

encoder.blocks.0.norm1.weight f4 [16]
1.0313659 1.1292194 1.1245872 0.92234534 1.0596262 0.9463826 0.983301 0.9807957
0.96448374 1.0615519 0.9417955 1.0467602 0.89185244 1.1955495 1.0071449 1.0639997
00000000: cc03 843f 438a 903f 79f2 8f3f d31e 6c3f
00000010: d5a1 873f 2146 723f 9db9 7b3f 6d15 7b3f
00000020: 68e8 763f efe0 873f 8319 713f 3dfc 853f
00000030: 7150 643f c407 993f 20ea 803f 2431 883f

encoder.blocks.0.norm1.bias f4 [16]
-0.10405294 -0.06766577 -0.080611914 -0.015145829 0.029923385 0.041541733 -0.04297451 -0.045689043
-0.06286652 -0.05954181 -0.106832944 0.02623449 0.021157408 -0.02632122 0.035688657 0.014241113
00000000: b519 d5bd 5a94 8abd dc17 a5bd 3626 78bc
00000010: e321 f53c aa27 2a3d 0a06 30bd 6f24 3bbd
00000020: 29c0 80bd 1de2 73bd 3bcb dabd b7e9 d63c
00000030: 4d52 ad3c 999f d7bc 452e 123d 8f53 693c

encoder.blocks.0.attn.qkv.weight f4 [48, 16]
-0.4240891 0.25935504 -0.18443972 0.32661632 -0.07040131 0.42611948 -0.34598058 -0.18011193
-0.25544485 -0.09379208 -0.19850452 -0.10182631 -0.27036726 0.15822124 -0.33253908 0.10372948
-0.14666322 -0.106020235 -0.23436934 -0.4094686 0.100831516 -0.0907574 0.1903199 0.09405416
0.08646288 0.30693218 0.05238296 -0.010476877 -0.08792112 -0.119808644 -0.062421884 -0.06958005
-0.15294497 -0.11735966 -0.25981385 -0.18717295 -0.020369451 0.09620984 -0.19550733 0.079506375
-0.08863217 0.37267452 0.06960465 -0.12130924 -0.00086067675 -0.3433314 -0.18387614 0.0070328163
-0.25587672 -0.15718564 -0.37513474 0.20161904 -0.078378476 0.017092496 -0.014730606 0.17065848
-0.10757112 -0.23640336 -0.2584956 0.19151969 0.17643444 -0.060192518 -0.09937796 -0.23880696
0.02827352 -0.37186974 0.35241312 -0.07905494 0.28409755 0.18798687 -0.027885936 0.20051673
-0.24485959 -0.14247261 0.37146053 -0.047169548 -0.092935815 -0.18605748 0.2643032 0.0654689
0.14170136 0.12685388 -0.15880556 -0.04864343 -0.053390455 -0.077764116 -0.33660707 0.36569917
-0.30109605 -0.34002352 -0.27467543 0.027166417 -0.033808924 0.4063091 0.099145606 0.40113112
0.040565945 0.007874499 -0.39143395 0.25912452 0.030809116 0.16765365 -0.03452748 0.052007455
-0.22307739 -0.20988902 -0.38848737 -0.045998935 -0.030392379 -0.16620973 0.008569574 -0.005274231
0.021994593 0.15156811 -0.17557324 0.3742948 0.0116217695 0.016677277 -0.39172503 0.02107658
0.118238285 -0.31070498 -0.32148755 0.059379432 -0.15523235 -0.17321841 0.12805553 0.24101222
-0.17652832 -0.20792915 0.26534706 0.16728468 -0.18300885 0.21366926 0.11455284 0.02003893
0.010771639 0.008733846 -0.12815423 -0.011563508 0.0675646 -0.05986029 -0.016739015 0.022458056
-0.040982313 -0.16227569 0.021633662 0.20459056 -0.05803042 -0.012071802 -0.5295539 0.40026185
0.36567023 -0.38855284 -0.4904945 0.4837369 -0.10322679 -0.04484284 -0.2907503 -0.06532797
-0.20133002 0.15437838 -0.6316617 0.20474727 -0.17348097 -0.10454135 -0.18954186 0.0074925777
-0.10282826 -0.35890126 -0.056767177 0.10944664 0.15817408 -0.17648943 -0.21850374 0.34770167
0.21908721 0.18278514 0.43646455 0.034048293 0.05905767 -0.32892224 0.13239148 -0.14835581
-0.052490566 0.3354339 0.16244613 -0.114557385 0.22097336 -0.3211771 0.08157759 -0.21797492
-0.2487435 -0.15747982 0.14447394 0.14676717 0.19465092 0.2865775 0.077605024 -0.1595094
-0.07026686 -0.26997238 0.30871278 -0.11907775 -0.123612426 -0.14343499 -0.22723043 0.124851316
-0.39481226 0.01030572 -0.038990986 0.16941462 -0.060920477 -0.014477232 -0.23043154 0.2772571
0.2874397 -0.3350014 -0.11702917 0.008841251 0.069524944 0.053936608 -0.30512488 0.41811222
-0.15213485 -0.04133682 0.03626768 -0.41424957 -0.04565451 -0.13926992 -0.03353072 0.10587131
-0.023057094 0.20961058 0.22206403 -0.026127692 0.053623233 -0.21662949 0.068117484 -0.28019634
0.11034434 -0.20477264 -0.079560824 -0.4062129 0.0046626786 -0.15234375 0.11279616 0.13332506
-0.036931626 0.33243567 0.17086914 -0.32610098 0.030073648 -0.1539312 0.11666496 0.26557043
00000000: 3522 d9be 2fca 843e c4dd 3cbe 413a a73e
00000010: 902e 90bd 552c da3e 5e24 b1be 436f 38be
00000020: abc9 82be 1016 c0bd c544 4bbe 508a d0bd
00000030: 946d 8abe c004 223e 9042 aabe 1f70 d43d
00000040: e22e 16be 2321 d9bd 84fe 6fbe dea5 d1be
00000050: c180 ce3d 04df b9bd 38e3 423e 789f c03d
00000060: 7313 b13d 3726 9d3e 848f 563d 35a7 2bbc
00000070: fd0f b4bd 3c5e f5bd 17ae 7fbd fc7f 8ebd
00000080: 9b9d 1cbe 435a f0bd 5206 85be 44aa 3fbe
00000090: d6dd a6bc aa09 c53d 1333 48be 3dd4 a23d
000000a0: c884 b5bd 32cf be3e e28c 8e3d fb70 f8bd
000000b0: 0a9f 61ba 22c9 afbe 074a 3cbe 8a73 e63b
000000c0: 4602 83be 46f5 20be a911 c0be 3975 4e3e
000000d0: e584 a0bd 9005 8c3c a458 71bc 19c1 2e3e
000000e0: 3f4e dcbd b913 72be 8959 84be bd1d 443e
000000f0: 3bab 343e 6e8c 76bd ac86 cbbd d089 74be
00000100: de9d e73c b665 bebe 7e6f b43e 8ee7 a1bd
00000110: 3c75 913e a17f 403e 0c71 e4bc 4254 4d3e
00000120: 79bc 7abe 57e4 11be 1330 be3e db34 41bd
00000130: 2255 bebd da85 3ebe c052 873e 8f14 863d
00000140: 291a 113e fce5 013e ed9d 22be 553e 47bd
00000150: f3af 5abd cb42 9fbd c357 acbe ec3c bb3e
00000160: 4329 9abe 9017 aebe 42a2 8cbe 1b8c de3c
00000170: 3a7b 0abd bf07 d03e da0c cb3d 0f61 cd3e
00000180: 7a28 263d 0b04 013c 086a c8be f8ab 843e
00000190: 6663 fc3c 66ad 2b3e b06c 0dbd c505 553d
000001a0: 666e 64be 26ed 56be d1e7 c6be 6169 3cbd
000001b0: 70f9 f8bc e232 2abe 6667 0c3c 75d3 acbb
000001c0: 012e b43c ac34 1b3e 79c9 33be 91a3 bf3e
000001d0: 3c69 3e3c c99e 883c 2f90 c8be cba8 ac3c
000001e0: ea26 f23d b914 9fbe 049a a4be d937 733d
000001f0: 3bf5 1ebe 2b60 31be fd20 033e e8cb 763e
00000200: d7c3 34be 61eb 54be 92db 873e ad4c 2b3e
00000210: ac66 3bbe 1dcc 5a3e ae9a ea3d af28 a43c
00000220: 877b 303c 6818 0f3c dd3a 03be de74 3dbc
00000230: 4f5f 8a3d 1030 75bd 4220 89bc f5f9 b73c
00000240: 12dd 27bd 992b 26be 1439 b13c 3080 513e
00000250: 4eb1 6dbd cfc8 45bc d890 07bf 1fef cc3e
00000260: 2139 bb3e 66f0 c6be 1822 fbbe 5dac f73e
00000270: 9168 d3bd 20ad 37bd 39dd 94be acca 85bd
00000280: 7529 4ebe 5e15 1e3e 95b4 21bf 45a9 513e
00000290: ffa4 31be c619 d6bd 4317 42be 4c84 f53b
000002a0: 9f97 d2bd e8c1 b7be b384 68bd 8f25 e03d
000002b0: 63f8 213e a5b9 34be 72bf 5fbe f405 b23e
000002c0: 6658 603e 072c 3b3e 4878 df3e 3976 0b3d
000002d0: 75e6 713d 7f68 a8be a291 073e 96ea 17be
000002e0: 5900 57bd febd ab3e 4758 263e 109d eabd
000002f0: d746 623e 5371 a4be 2712 a73d d134 5fbe
00000300: 9eb6 7ebe 6442 21be faf0 133e 224a 163e
00000310: 9252 473e 49ba 923e 62ef 9e3d 6f56 23be
00000320: 12e8 8fbd d239 8abe 9a0f 9e3e 09df f3bd
00000330: 8328 fdbd 9fe0 12be 18af 68be 0cb2 ff3d
00000340: d524 cabe 53d9 283c 03b5 1fbd 077b 2d3e
00000350: c087 79bd e931 6dbc 3ff6 6bbe a5f4 8d3e
00000360: 4c2b 933e 4e85 abbe fdac efbd e5da 103c
00000370: 1863 8e3d a2ec 5c3d 5439 9cbe ce12 d63e
00000380: 3dc9 1bbe cc50 29bd 6b8d 143d 8518 d4be
00000390: 3900 3bbd c69c 0ebe 8257 09bd 0fd3 d83d
000003a0: 3be2 bcbc 28a4 563e c164 633e be09 d6bc
000003b0: 09a4 5b3d 1fd4 5dbe 2e81 8b3d e575 8fbe
000003c0: 37fc e13d ebaf 51be c9f0 a2bd 23fb cfbe
000003d0: 62c9 983b 0000 1cbe ac01 e73d 5d86 083e
000003e0: 9e45 17bd 0235 aa3e 52f8 2e3e b5f6 a6be
000003f0: 035d f63c 24a0 1dbe 0aee ee3d d9f8 873e

encoder.blocks.0.attn.proj.weight f4 [16, 16]
0.24808083 -0.09056183 -0.30142543 -0.03570744 0.17554273 0.21365006 -0.2835973 0.1465161
0.3785474 -0.24092795 -0.15463692 0.19116679 -0.1756413 -0.3858605 0.097235784 -0.26981252
-0.34363118 -0.32997242 -0.30500615 0.027100684 -0.1257931 0.17884782 -0.37161982 -0.20286633
-0.3739898 0.35981596 0.25729242 -0.115803696 0.22947468 0.33588347 -0.22435337 0.3384414
0.49868906 -0.095724955 -0.020844059 0.33960578 -0.066856675 -0.5049277 0.046146795 -0.056240823
-0.08861105 -0.2836796 0.19491379 -0.20012836 0.061352685 -0.22744703 -0.31848004 -0.15228727
-0.19020869 -0.17727248 -0.09793833 0.007866427 -0.15840064 -0.36843356 0.006918449 0.22970232
0.47699887 0.40754837 -0.4806349 -0.47032675 0.15476851 -0.16789383 0.1660682 0.12314759
0.38164288 0.25829527 -0.06377003 -0.34874478 -0.2181658 -0.039246682 0.34426692 0.15425308
0.47483474 -0.30288318 0.40698218 0.22886856 -0.27224523 -0.33215475 -0.1089432 0.24411641
0.22803368 0.30292413 -0.12681276 0.039935764 0.10734298 0.1632523 0.19528344 -0.40224233
-0.021624394 0.08661074 0.26260212 0.26213786 0.48807204 0.391684 0.3379172 -0.17036848
0.19808164 0.3701229 0.3492868 -0.2719821 0.22411627 -0.16971737 -0.30413944 0.35039663
0.48679203 -0.24349086 -0.012102163 -0.30498335 -0.1750716 0.40348184 -0.3589107 -0.34348828
0.1287097 -0.26405436 -0.36013377 -0.27821416 0.13749696 -0.04801257 -0.3021298 0.07849234
0.16748564 -0.13239646 0.33126193 0.4141248 -0.0347959 -0.28274742 0.115810074 0.3241629
0.01641018 0.12168397 -0.29975012 0.11791324 -0.44195172 -0.46350563 -0.16905902 -0.34748518
-0.0641879 0.34107834 -0.48070088 0.4409508 -0.26478726 -0.038952325 0.07441989 0.16487168
0.46654084 0.2984838 -0.18713367 0.37257594 -0.22290733 0.05714887 0.13555552 0.046593226
-0.021592 -0.22473979 -0.20524156 0.18649074 0.24731518 -0.100094326 -0.25008845 -0.18413757
0.30136633 0.118933454 -0.0151482 0.30171496 0.26307502 0.036970958 0.049904265 0.29049367
0.06890377 0.0015139328 0.33819252 -0.04435186 0.0031155217 0.036607224 0.22978047 0.13198741
-0.18662134 -0.052393306 -0.36723134 -0.2814768 -0.008669268 -0.3632795 0.32237586 0.43693614
-0.29302275 0.28197894 0.22149903 -0.013130643 0.23877405 -0.18402699 -0.13487688 0.010452057
-0.32359463 -0.3016546 0.33032057 0.12970248 0.35676265 0.37119544 0.31963682 0.3052432
0.1221996 0.104422376 -0.06788686 0.32868835 -0.35917532 0.31488392 0.057043225 0.12977889
-0.4547126 -0.17277484 0.019388285 -0.36600882 0.07592296 0.13779418 0.1320228 0.36178055
-0.27190593 0.41535687 0.11141478 0.122787885 0.2566312 -0.060348902 -0.22790763 -0.18571854
-0.48319048 0.40534183 0.3942873 -0.09518749 0.3373258 0.18795218 0.1719956 0.44097456
0.38697964 -0.21767408 -0.2972754 -0.06452678 -0.33969265 -0.1553022 -0.31740007 -0.30491707
0.2947997 -0.270896 0.23403677 0.29282618 0.096711725 0.36526766 0.20292202 -0.07719395
0.016705887 0.32673284 0.3376123 0.056550603 0.08275433 -0.31552643 -0.2768395 -0.24037838
00000000: e708 7e3e 7b78 b9bd 6f54 9abe f741 12bd
00000010: 79c1 333e 15c7 5a3e aa33 91be 5108 163e
00000020: f7d0 c13e d1b5 76be 2459 1ebe 3ac1 433e
00000030: 50db 33be 828f c5be 8e23 c73d de24 8abe
00000040: 6df0 afbe 25f2 a8be c429 9cbe 4102 de3c
00000050: e8cf 00be e223 373e f444 bebe 31bc 4fbe
00000060: 977b bfbe cc39 b83e d5bb 833e 7d2a edbd
00000070: 69fb 6a3e ebf8 ab3e e4bc 65be 3148 ad3e
00000080: 2c54 ff3e 720b c4bd 29c1 aabc cfe0 ad3e
00000090: 27ec 88bd f142 01bf 6c04 3d3d c75c 66bd
000000a0: b679 b5bd 743e 91be 7b97 473e 73ee 4cbe
000000b0: f44c 7b3d e0e7 68be d10f a3be 32f1 1bbe
000000c0: 11c6 42be eb86 35be e493 c8bd 30e2 003c
000000d0: c733 22be 53a3 bcbe 28b4 e23b 1637 6b3e
000000e0: 3239 f43e 2eaa d03e c715 f6be abce f0be
000000f0: a37b 1e3e 5cec 2bbe c80d 2a3e ce34 fc3d
00000100: b266 c33e 473f 843e dd99 82bd ad8e b2be
00000110: db66 5fbe 21c1 20bd c143 b03e 85f4 1d3e
00000120: 8a1d f33e 8113 9bbe f85f d03e 855c 6a3e
00000130: ba63 8bbe 3010 aabe 9d1d dfbd a7f9 793e
00000140: a981 693e df18 9b3e 34db 01be af93 233d
00000150: a3d6 db3d 9c2b 273e 62f8 473e b5f2 cdbe
00000160: a425 b1bc f960 b13d c973 863e ef36 863e
00000170: 94e4 f93e ce8a c83e 7c03 ad3e 1375 2ebe
00000180: ead5 4a3e c080 bd3e b8d5 b23e 3d41 8bbe
00000190: bc7e 653e 64ca 2dbe 2ab8 9bbe 3067 b33e
000001a0: ce3c f93e ab55 79be 2748 46bc c726 9cbe
000001b0: f845 33be 2c95 ce3e 25c3 b7be b2dd afbe
000001c0: 7acc 033e 2232 87be 7463 b8be 1672 8ebe
000001d0: 01cc 0c3e d4a8 44bd c2b0 9abe 98c0 a03d
000001e0: 5b81 2b3e f092 07be 2a9b a93e 2a08 d43e
000001f0: 2586 0ebd 45c4 90be d52d ed3d aef8 a53e
00000200: a46e 863c 7235 f93d d978 99be 7f7c f13d
00000210: 7f47 e2be 9c50 edbe cf1d 2dbe 94e9 b1be
00000220: f274 83bd d2a1 ae3e 6d1e f6be 4ec4 e13e
00000230: 3292 87be 798c 1fbd 7569 983d 1fd4 283e
00000240: 71de ee3e ded2 983e f89f 3fbe 46c2 be3e
00000250: d241 64be ef14 6a3d 11cf 0a3e 8ad8 3e3d
00000260: b5e1 b0bc 3022 66be d82a 52be 6ef7 3e3e
00000270: 3140 7d3e 41fe ccbd 980b 80be 8f8e 3cbe
00000280: b04c 9a3e 6293 f33d 2830 78bc 627a 9a3e
00000290: c5b1 863e dc6e 173d 6a68 4c3d 96bb 943e
000002a0: 6b1d 8d3d 286f c63a 9227 ad3e 4caa 35bd
000002b0: c82d 4c3b 75f1 153d 924b 6b3e b527 073e
000002c0: aa19 3fbe 5d9a 56bd bf05 bcbe ba1d 90be
000002d0: 8c09 0ebc c5ff b9be 730e a53e 18b6 df3e
000002e0: 1407 96be 8b5f 903e a4d0 623e e921 57bc
000002f0: 2f81 743e 9271 3cbe 2a1d 0abe 1b3f 2b3c
00000300: 32ae a5be 7972 9abe c71f a93e bad0 043e
00000310: 98a9 b63e 540d be3e 70a7 a33e d648 9c3e
00000320: c943 fa3d 66db d53d 4408 8bbd d749 a83e
00000330: d4e5 b7be 7738 a13e 28a6 693d c2e4 043e
00000340: 17d0 e8be e3eb 30be 2ed4 9e3c 8265 bbbe
00000350: 7f7d 9b3d eb19 0d3e fc30 073e 4d3b b93e
00000360: 4137 8bbe a8a9 d43e 6f2d e43d 3778 fb3d
00000370: 2a65 833e 6930 77bd 9e60 69be 002d 3ebe
00000380: be64 f7be f788 cf3e 06e0 c93e a9f1 c2bd
00000390: f8b5 ac3e 8976 403e 9d1f 303e 6bc7 e13e
000003a0: 3222 c63e f4e5 5ebe 7b34 98be 9e26 84bd
000003b0: 32ec adbe 8a07 1fbe 4382 a2be 171e 9cbe
000003c0: fcef 963e e1b2 8abe 56a7 6f3e 50ed 953e
000003d0: cc10 c63d 5d04 bb3e caca 4f3e dd17 9ebd
000003e0: c9da 883c 8749 a73e 85db ac3e 9ba1 673d
000003f0: 1a7b a93d ae8c a1be e8bd 8dbe c025 76be

encoder.blocks.0.attn.proj.bias f4 [16]
-0.020855159 -0.04746224 -0.05290407 -0.0030745652 0.041141495 0.00806315 0.0714978 -0.03145311
-0.07815483 -0.027630277 -0.031353123 0.018914988 0.02281814 -0.007334625 0.051491402 0.028932488
00000000: 70d8 aabc c467 42bd f0b1 58bd a57e 49bb
00000010: fc83 283d 4d1b 043c 706d 923d fad4 00bd
00000020: a40f a0bd e458 e2bc 226c 00bd 9bf3 9a3c
00000030: 1ced ba3c 4b57 f0bb a6e8 523d d303 ed3c

encoder.blocks.0.norm2.weight f4 [16]
1.0042357 0.91511667 1.2031753 0.96415794 0.9393864 0.84793776 0.8399017 0.96032214
0.9860349 0.97005093 0.7999236 0.9165486 0.90458083 1.0340819 0.94619894 1.025376
00000000: cc8a 803f 1645 6a3f a601 9a3f 0ed3 763f
00000010: a17b 703f 7312 593f cc03 573f acd7 753f
00000020: c96c 7c3f 4255 783f cbc7 4c3f eea2 6a3f
00000030: 9c92 673f cc5c 843f 183a 723f 853f 833f

encoder.blocks.0.norm2.bias f4 [16]
-0.055754747 -0.00054655573 0.027001454 0.00540756 -0.038698193 -0.043830905 -0.00431602 -0.018244889
0.019828055 -0.024772784 -0.0367267 0.01905206 0.025331816 -0.030196456 -0.004179047 -0.07066054
00000000: 175f 64bd bc46 0fba 2732 dd3c e731 b13b
00000010: ff81 1ebd 0988 33bd 666d 8dbb 4e76 95bc
00000020: 726e a23c 4bf0 cabc bc6e 16bd 1113 9c3c
00000030: ab84 cf3c 8f5e f7bc 63f0 88bb 79b6 90bd

encoder.blocks.0.mlp.fc1.weight f4 [64, 16]
0.17158796 0.09782216 -0.11802524 0.35614684 0.14634849 0.13729548 0.06697093 0.17459723
-0.15256083 0.06695357 0.018420525 -0.19828694 -0.060520433 0.07771519 -0.218558 0.11480079
0.085093245 0.30462006 -0.039469484 -0.14833672 0.2889596 0.056076024 -0.11013423 -0.18800093
0.34315762 0.03852076 -0.19530423 -0.15563384 -0.067638315 -0.20856145 -0.17767565 -0.059678394
-0.05931518 0.12222085 0.28965628 -0.20548116 0.21406965 -0.08348461 0.1893033 -0.014814572
0.10328728 -0.0150703555 0.18770915 -0.14832106 -0.17880778 0.18507499 0.13088785 -0.18004712
0.00058426027 -0.066430114 0.31785288 0.09830289 0.49178657 0.17134441 0.2152944 -0.112818845
0.20496829 0.09914585 0.07923387 -0.060550354 0.17091551 0.04577022 -0.08490478 0.028612157
0.16598925 -0.14593807 0.039158404 -0.1740109 0.024336755 0.009961891 -0.087723054 0.18051155
0.03971234 -0.06244725 -0.09839302 0.17676198 0.1548039 -0.31390527 -0.24175999 0.08705891
-0.07557468 0.014249138 -0.15101159 0.024604384 -0.24884926 0.1133401 -0.25267187 0.24163786
0.1374603 0.19243123 -0.19041139 -0.09484283 -0.07119146 -0.25779176 -0.078024946 0.114239216
0.06295943 0.12710547 -0.018147869 -0.1218347 0.15250808 -0.18257 0.072660044 -0.21391153
0.035292234 -0.08956688 0.090457425 -0.05031016 0.03362607 -0.2787964 -0.048144177 -0.10165735
-0.022158582 -0.22078171 -0.0057270546 -0.28658113 0.2385477 -0.2180803 -0.12903884 0.10499122
-0.17114742 0.0911013 0.04565707 0.035718586 0.011276207 0.18073384 -0.1686588 0.1391181
0.06901676 -0.26784462 -0.38774562 0.17272511 0.13894208 0.07909946 -0.083167806 -0.10720914
0.103355646 -0.12658454 0.2864285 0.07806447 0.16714507 -0.19448526 0.15093777 -0.10754479
0.058045167 -0.3091556 -0.37260252 0.13901994 0.21891512 -0.04800022 -0.09623463 0.09033875
0.13622303 0.14532049 -0.209544 0.29200637 -0.1823385 0.014421225 0.20807473 -0.1377608
-0.054309107 0.016598914 -0.13836007 -0.030440304 0.1729354 -0.22346763 -0.15513837 -0.21159303
-0.28630358 -0.13684069 0.015827859 -0.21170138 0.21875975 0.1004407 0.09105854 0.123878784
0.21485683 -0.3179159 -0.14016731 0.18915577 -0.09283989 0.010948211 0.14325726 0.15529828
-0.11351469 0.25350124 0.16564812 -0.12885049 -0.1126083 0.019883813 -0.060475014 -0.30210772
0.15881401 0.027291587 0.13329187 -0.13200885 0.20231752 -0.09048956 0.11422342 -0.24876142
-0.14102335 0.05728745 -0.013000449 0.23388632 -0.005565496 0.14124648 0.031808477 -0.22258075
-0.05302437 0.07644603 -0.04658576 0.08032804 -0.11645239 -0.22263911 0.07048738 -0.15418364
0.1843474 -0.125145 0.10565431 -0.021380892 -0.18367706 -0.027647093 0.11559732 -0.36251673
0.053169377 -0.26733845 -0.26885852 0.20697396 -0.2244438 -0.2587345 -0.196278 0.09983229
-0.030943487 -0.30885318 0.12819608 0.06437325 -0.1801767 0.14685081 0.063124724 0.017481968
0.07651711 -0.088949285 -0.11764774 -0.053946823 0.090690546 -0.13866593 -0.2524828 -0.100202136
-0.023382258 0.00776119 0.00027985394 -0.24391139 0.184354 -0.13647173 0.26481754 -0.17548424
00000000: c1b4 2f3e fc56 c83d 38b7 f1bd e158 b63e
00000010: 61dc 153e 3097 0c3e 0e28 893d 9ec9 323e
00000020: e838 1cbe f41e 893d a4e6 963c bb0b 4bbe
00000030: 46e4 77bd 2429 9f3d abcd 5fbe ad1c eb3d
00000040: 5e45 ae3d 29f7 9b3e c1aa 21bd 95e5 17be
00000050: 83f2 933e f9af 653d 0e8e e1bd 5183 40be
00000060: 5bb2 af3e f2c7 1d3d d5fd 47be 7a5e 1fbe
00000070: f585 8abd 2291 55be 9bf0 35be 5571 74bd
00000080: 79f4 72bd ed4e fa3d d44d 943e a769 52be
00000090: 1335 5b3e fbf9 aabd b9d8 413e d2b8 72bc
000000a0: 4888 d33d a7e9 76bc d436 403e 7ae1 17be
000000b0: 6319 37be 4c84 3d3e 7707 063e 465e 38be
000000c0: 0b29 193a 830c 88bd 9dbd a23e 0753 c93d
000000d0: 73cb fb3e e974 2f3e 2376 5c3e 910d e7bd
000000e0: 35e3 513e fb0c cb3d 5e45 a23d a603 78bd
000000f0: 7a04 2f3e 8e79 3b3d 8fe2 adbd 0b64 ea3c
00000100: 16f9 293e ca70 15be 9064 203d ea2f 32be
00000110: e05d c73c 3337 233c 25a8 b3bd 05d8 383e
00000120: 68a9 223d b0c8 7fbd 4882 c9bd 1801 353e
00000130: ea84 1e3e 31b8 a0be ee8f 77be f14b b23d
00000140: e6c6 9abd 3775 693c c8a2 1abe 228f c93c
00000150: 57d2 7ebe db1e e83d 355e 81be ea6f 773e
00000160: 65c2 0c3e b10c 453e 34fb 42be f53c c2bd
00000170: d4cc 91bd 48fd 83be 8bcb 9fbd 40f6 e93d
00000180: e0f0 803d f027 023e d7aa 94bc 7984 f9bd
00000190: 142b 1c3e a1f3 3abe cace 943d a00b 5bbe
000001a0: 978e 103d d76e b7bd be41 b93d 0712 4ebd
000001b0: 7dbb 093d 67be 8ebe d432 45bd bb31 d0bd
000001c0: ea85 b5bc 9a14 62be 04aa bbbb c3ba 92be
000001d0: d945 743e 7150 5fbe c222 04be a305 d73d
000001e0: 4541 2fbe 5293 ba3d e802 3b3d a74d 123d
000001f0: d7bf 383c 4b12 393e e4b4 2cbe fa74 0e3e
00000200: a958 8d3d ee22 89be 9886 c6be dade 303e
00000210: d546 0e3e e6fe a13d e253 aabd 7790 dbbd
00000220: 20ac d33d 619f 01be c2a6 923e 44e0 9f3d
00000230: 1428 2b3e 2527 47be 6e8f 1a3e 7140 dcbd
00000240: c5c0 6d3d a549 9ebe c2c5 bebe 3e5b 0e3e
00000250: 492b 603e e19b 44bd a916 c5bd 8603 b93d
00000260: 0d7e 0b3e e5ce 143e b492 56be dc81 953e
00000270: f2b6 3abe 0047 6c3c 8b11 553e 2b11 0dbe
00000280: 3a73 5ebd 72fa 873c 43ae 0dbe f25d f9bc
00000290: fa15 313e b3d4 64be 98dc 1ebe d8ab 58be
000002a0: 6296 92be f71f 0cbe 6da9 813c 3fc8 58be
000002b0: 8e02 603e dbb3 cd3d e67c ba3d 29b4 fd3d
000002c0: 6e03 5c3e dfc5 a2be 0588 0fbe 0db2 413e
000002d0: d722 bebd 2060 333c 08b2 123e 8306 1f3e
000002e0: 647a e8bd eaca 813e a99f 293e 62f1 03be
000002f0: 2e9f e6bd 61e3 a23c a6b4 77bd ddad 9abe
00000300: 24a0 223e 9b92 df3c aa7d 083e 542d 07be
00000310: 532c 4f3e 9752 b9bd f8ed e93d 50bb 7ebe
00000320: 6d68 10be 3fa6 6a3d d6ff 54bc e57f 6f3e
00000330: c45e b6bb eba2 103e 9b49 023d 35ec 63be
00000340: 1530 59bd bc8f 9c3d b6d0 3ebd 0783 a43d
00000350: 977e eebd 82fb 63be b05b 903d 51e2 1dbe
00000360: 91c5 3c3e 0326 00be 4961 d83d fb26 afbc
00000370: d715 3cbe 287c e2bc 4abe ec3d cb9b b9be
00000380: 22c8 593d 96e0 88be d3a7 89be fbf0 533e
00000390: 98d4 65be d978 84be 1afd 48be df74 cc3d
000003a0: 327d fdbc 0122 9ebe d545 033e 1fd6 833d
000003b0: 3e80 38be 0f60 163e 8947 813d 5836 8f3c
000003c0: 01b5 9c3d 0b2b b6bd 4cf1 f0bd 58f7 5cbd
000003d0: f7bb b93d 71fe 0dbe 6d45 81be c736 cdbd
000003e0: 268c bfbc 9551 fe3b 5cb9 9239 e8c3 79be
000003f0: 4cc7 3c3e 3fbf 0bbe 2a96 873e 24b2 33be

encoder.blocks.0.mlp.fc1.bias f4 [64]
-0.07123685 -0.08473058 -0.053277038 -0.0061891293 -0.058934014 -0.024269454 0.01884205 -0.0029994152
0.052647524 0.025175689 0.047623463 -0.044397756 -0.00983845 -0.106912404 0.0026662298 -0.044825494
0.01784666 0.0007233046 0.041765526 0.00434264 -0.041349735 -0.008656692 0.004727146 -0.10096141
-0.021338286 -0.036637433 0.028974265 -0.030101553 -0.03091951 0.006534529 0.003543713 -0.007027828
0.009104864 0.0925298 -0.023277309 -0.11942835 -0.047601495 0.002651782 -0.03916259 0.029697994
-0.061306745 0.03739156 -0.075533256 -0.02377908 -0.02917892 -0.034396324 0.03727285 -0.019977413
-0.0468423 -0.09907015 -0.0068670474 -0.081903204 -0.03146398 -0.0054773223 0.0008690524 0.036642138
-0.022423299 -0.050149985 -0.0614434 0.004864394 -0.011919521 0.0099692615 -0.04715523 0.008829444
00000000: a0e4 91bd 3a87 adbd 0639 5abd 2ece cabb
00000010: cb64 71bd bcd0 c6bc a55a 9a3c d691 44bb
00000020: eea4 573d 3f3d ce3c d210 433d 6cda 35bd
00000030: 7331 21bc e4f4 dabd eabb 2e3b f09a 37bd
00000040: 2933 923c 269c 3d3a 5412 2b3d b44c 8e3b
00000050: 575e 29bd ccd4 0dbc 2de6 9a3b dbc4 cebd
00000060: a1cd aebc 2211 16bd 705b ed3c 8897 f6bc
00000070: ea4a fdbc 9a1f d63b a33d 683b b249 e6bb
00000080: 912c 153c 4480 bd3d 0eb0 bebc da96 f4bd
00000090: c9f9 42bd 85c9 2d3b f468 20bd 3549 f33c
000000a0: c81c 7bbd e427 193d 2eb1 9abd 58cc c2bc
000000b0: a108 efbc 29e3 0cbd 6aab 183d aca7 a3bc
000000c0: b6dd 3fbd 4ae5 cabd f804 e1bb debc a7bd
000000d0: 60e0 00bd 1c7b b3bb 1fd1 633a 1116 163d
000000e0: 11b1 b7bc 126a 4dbd 13ac 7bbd 7f65 9f3b
000000f0: 184a 43bc 1d56 233c d825 41bd 5fa9 103c

encoder.blocks.0.mlp.fc2.weight f4 [16, 64]
-0.04656496 -0.28686738 -0.05969115 0.269639 -0.2221417 -0.14939575 0.061107308 -0.10608015
-0.14452955 0.115087345 0.22964658 -0.02000414 0.12081165 -0.0869969 0.2680811 0.070957735
0.13934349 0.008122688 0.10112235 -0.14869022 -0.13032942 0.09784378 0.20643869 -0.21782634
-0.0188152 0.2623761 0.09433491 -0.18158081 0.14819215 -0.0008751274 -0.2401795 -0.04174655
0.3067087 -0.023432994 0.2631685 0.2778361 0.01586548 -0.004381624 -0.16525762 -0.024678
0.15055832 -0.04164402 0.12144026 -0.27509108 0.07309189 -0.123672076 -0.26141354 -0.12910983
-0.085353345 -0.13838358 -0.091409095 0.2171585 0.1693784 -0.025265545 0.21443051 0.19098847
-0.031078646 -0.25180107 0.03018687 0.32580993 0.025819207 -0.14542988 -0.22495532 0.17960703
-0.22203201 0.15927076 -0.13475701 0.18801859 0.10631473 -0.24445465 0.026450764 0.114781916
-0.13175564 0.2222224 0.11215531 -0.15137768 -0.14186306 0.022854894 -0.083285 0.03609839
-0.058496818 -0.19649494 0.13582546 -0.039986696 -0.1438367 0.14458284 -0.14049397 0.18580766
0.1812039 0.042126317 -0.17559043 -0.029582543 0.23254873 -0.2526844 -0.17674392 0.15908311
0.07015453 -0.28078228 -0.09248429 -0.17733394 0.13388987 0.17069562 0.07954263 -0.12385336
0.07760308 0.13884903 -0.10545276 -0.1796935 0.037234176 0.009049652 -0.05222945 -0.19743899
0.15579036 -0.20231174 -0.006859107 -0.103988595 0.19205621 -0.087779924 0.100003295 -0.08051107
-0.22670826 0.019329673 0.12993616 0.06263434 -0.11010615 -0.26461393 0.12356962 -0.19810039
0.17920099 0.17070596 0.18197301 0.26488596 0.24045114 0.20211531 0.00753872 -0.088185385
0.18701929 -0.050695352 -0.27739987 0.16131374 -0.095734544 -0.04068999 -0.06787359 0.2080284
-0.0024760785 -0.056682657 0.27197057 -0.09283535 0.2331257 -0.19090311 0.03559072 0.19112958
-0.1704642 -0.15307647 -0.18694365 -0.09797283 -0.027722495 -0.25146145 0.1450719 -0.028163899
-0.015767809 0.095911555 0.20927787 -0.10786879 -0.19887911 0.2559845 -0.17105027 -0.20464021
-0.28947657 -0.17239311 0.25609067 0.25747693 -0.015838688 0.1448659 -0.06863977 -0.06729079
-0.20004274 0.0022887106 -0.11494796 -0.12403919 0.09357324 -0.062428426 0.030535834 -0.19548717
0.18560094 -0.06781852 0.06794923 -0.15741286 0.18110597 -0.24923363 -0.06660172 -0.10965148
0.096136525 0.19010967 -0.1838526 -0.0132452 0.044218544 -0.1674357 -0.035006724 -0.14075421
0.17563117 0.05265406 -0.17983909 0.2508987 -0.03158401 -0.14628714 0.17899854 -0.08695361
-0.10902794 -0.012970799 0.18762726 0.03951198 -0.11896755 -0.092114404 -0.13028808 -0.25500366
0.2725964 -0.10181027 0.1489003 0.16702557 0.13430631 -0.19169205 0.08917014 -0.08965823
0.15711105 -0.25859284 0.22724561 -0.09528314 -0.17000346 -0.105678275 0.18883471 -0.19168934
0.2081909 0.027708104 -0.07220036 -0.223162 -0.2506753 -0.062179644 0.05312763 -0.101602934
-0.08788892 0.022010148 0.068374716 -0.06865509 -0.038744044 -0.1362355 -0.11170805 -0.25911254
-0.0843022 -0.029884972 0.003924443 0.044554435 -0.16311726 -0.027280372 0.11043213 0.14312366
00000000: e6ba 3ebd 48e0 92be b57e 74bd 1f0e 8a3e
00000010: 1d79 63be 33fb 18be a84b 7a3d 8d40 d9bd
00000020: 8eff 13be eab2 eb3d 7928 6b3e b9df a3bc
00000030: 196c f73d 6e2b b2bd ed41 893e 4a52 913d
00000040: 0fb0 0e3e 0615 053c 3c19 cf3d 4042 18be
00000050: 1375 05be 5262 c83d aa64 533e de0d 5fbe
00000060: 5622 9abc 2956 863e a932 c13d 52f0 39be
00000070: afbf 173e ce68 65ba 9df1 75be 6efe 2abd
00000080: ec08 9d3e 8df6 bfbc 06be 863e 8940 8e3e
00000090: 53f8 813c ba93 8fbb 4b39 29be 8429 cabc
000000a0: f62b 1a3e eb92 2abd acb5 f83d bdd8 8cbe
000000b0: 33b1 953d c947 fdbd ffd7 85be 5e35 04be
000000c0: bccd aebd 6db4 0dbe b134 bbbd cc5e 5e3e
000000d0: 8871 2d3e b0f9 cebc ac93 5b3e 7b92 433e
000000e0: a598 febc 12ec 80be 744a f73c 8fd0 a63e
000000f0: cd82 d33c 92eb 14be b05a 66be e8ea 373e
00000100: 5c5c 63be e017 233e befd 09be f287 403e
00000110: 8abb d93d 5252 7abe 46af d83c c812 eb3d
00000120: f3ea 06be 458e 633e afb1 e53d c002 1bbe
00000130: 8d44 11be 303a bb3c 5391 aabd e8db 133d
00000140: 5c9a 6fbd f835 49be d415 0b3e 17c9 23bd
00000150: ee49 13be 860d 143e a7dd 0fbe 5d44 3e3e
00000160: 848d 393e a58c 2c3d facd 33be 1757 f2bc
00000170: 4121 6e3e da5f 81be 5cfc 34be afe6 223e
00000180: 2ead 8f3d b2c2 8fbe 6768 bdbd 0797 35be
00000190: 6d1a 093e d5ca 2e3e 3fe7 a23d d5a6 fdbd
000001a0: 5dee 9e3d 712e 0e3e 9ef7 d7bd 9301 38be
000001b0: dd82 183d fe44 143c 8cee 55bd 722d 4abe
000001c0: 8287 1f3e cf2a 4fbe 5cc2 e0bb f9f7 d4bd
000001d0: 62aa 443e f6c5 b3bd 87ce cc3d fde2 a4bd
000001e0: 3626 68be 4359 9e3c fc0d 053e 6f46 803d
000001f0: 557f e1bd 7a7b 87be 1212 fd3d d4da 4abe
00000200: 7780 373e 8bcd 2e3e 2257 3a3e 229f 873e
00000210: d338 763e 51f7 4e3e 5e07 f73b 8a9a b4bd
00000220: fc81 3f3e eea5 4fbd 5b07 8ebe 6e2f 253e
00000230: 7910 c4bd 8caa 26bd 4f01 8bbd 6605 553e
00000240: b445 22bb 132c 68bd ba3f 8b3e 7620 bebd
00000250: 81b8 6e3e 1b7c 43be 93c7 113d 79b7 433e
00000260: 2b8e 2ebe 14c0 1cbe 286e 3fbe fba5 c8bd
00000270: 491a e3bc 8ebf 80be ba8d 143e fab7 e6bc
00000280: 7e2b 81bc 476d c43d f04c 563e 50ea dcbd
00000290: f7a6 4bbe 6610 833e cd27 2fbe 348d 51be
000002a0: 4636 94be d287 30be 511e 833e 04d4 833e
000002b0: 23c0 81bc ba57 143e 0293 8cbd c1cf 89bd
000002c0: 01d8 4cbe 31fe 153b d669 ebbd 4208 febd
000002d0: 54a3 bf3d f3b4 7fbd 4926 fa3c ca2d 48be
000002e0: 2c0e 3e3e 70e4 8abd f728 8b3d d630 21be
000002f0: d873 393e 1a37 7fbe 7c66 88bd f590 e0bd
00000300: 3ae3 c43d 1cac 423e db43 3cbe 6502 59bc
00000310: 811e 353d 4474 2bbe 3663 0fbd df21 10be
00000320: a8d8 333e c9ab 573d bd27 38be cb75 803e
00000330: 3c5e 01bd 4ccc 15be 654b 373e bc14 b2bd
00000340: 0a4a dfbd 7983 54bc 5c21 403e 50d7 213d
00000350: 42a5 f3bd 7aa6 bcbd 3d6a 05be d78f 82be
00000360: c191 8b3e e781 d0bd 5279 183e c008 2b3e
00000370: 9887 093e ec4a 44be d69e b63d bc9e b7bd
00000380: b8e1 203e 4866 84be 13b3 683e cf23 c3bd
00000390: 6315 2ebe da6d d8bd e35d 413e 364a 44be
000003a0: ff2f 553e 1bfc e23c c8dd 93bd 9484 64be
000003b0: 8358 80be 15b0 7ebd 5c9c 593d 3315 d0bd
000003c0: 1bff b3bd a04e b43c 0b08 8c3d 0a9b 8cbd
000003d0: 13b2 1ebd 5281 0bbe 31c7 e4bd 66aa 84be
000003e0: a2a6 acbd 54d1 f4bc 9d98 803b b67e 363d
000003f0: 3608 27be 167b dfbc 3e2a e23d 028f 123e

encoder.blocks.0.mlp.fc2.bias f4 [16]
0.028208688 -0.032504026 -0.04884775 -0.0018193988 0.085238606 -0.01461028 0.024656717 -0.011222663
-0.06942987 -0.036218587 -0.011728558 -0.0012868433 0.013486809 -0.015394545 0.038842466 0.024366373
00000000: e815 e73c f122 05bd 9414 48bd e578 eeba
00000010: 9491 ae3d f55f 6fbc e2fc c93c 43df 37bc
00000020: 3f31 8ebd f159 14bd 2329 40bc 4cab a8ba
00000030: c7f7 5c3c 6739 7cbc 4719 1f3d fd9b c73c

encoder.blocks.1.norm1.weight f4 [16]
1.0552956 0.9661673 1.0394007 1.0046315 1.0181984 1.0094703 0.95390886 1.0772743
1.0580134 1.0378761 0.940068 0.95085925 0.9555832 1.0768548 1.030618 1.01589
00000000: ed13 873f bd56 773f 150b 853f c497 803f
00000010: 5354 823f 5336 813f 5f33 743f 20e4 893f
00000020: fc6c 873f 20d9 843f 4ca8 703f 836b 733f
00000030: 1aa1 743f 61d6 893f 4aeb 833f af08 823f

encoder.blocks.1.norm1.bias f4 [16]
0.07895771 -0.019758588 -0.050690047 0.0100992145 0.053239837 -0.020660482 0.015457955 0.0794188
-0.07653581 -0.10599405 -0.025095604 0.0068505458 0.01771553 0.033546332 0.0535043 0.039510757
00000000: 94b4 a13d c3dc a1bc 5ea0 4fbd 2d77 253c
00000010: 0412 5a3d 2c40 a9bc 5d43 7d3c 53a6 a23d
00000020: cfbe 9cbd 6913 d9bd 4c95 cdbc 8b7a e03b
00000030: 2920 913c e167 093d 5327 5b3d 08d6 213d

encoder.blocks.1.attn.qkv.weight f4 [48, 16]
-0.035818055 -0.25531736 0.14862484 0.023025945 -0.09590705 0.25948384 -0.081101455 0.24246041
0.1310903 -0.21357107 -0.2868098 0.162244 0.10410724 0.057919696 0.011956666 0.3812336
-0.25579092 -0.14597403 0.09796087 0.13456367 0.02634045 0.04503171 -0.11793376 0.03884346
-0.09587979 -0.23050594 0.006388884 0.11541587 0.30504245 -0.16522197 0.016862229 0.01625009
-0.16554359 0.16692548 0.18730022 -0.12882566 0.27829394 -0.027685747 -0.10531482 -0.3257058
0.13410427 0.03857595 0.16202304 0.1851507 0.04031066 -0.29112262 -0.21337606 -0.24002492
0.18342745 0.2663044 -0.36567447 0.099712454 0.22660337 0.049102575 0.21561363 0.23804672
-0.06778767 0.072374396 0.021186566 -0.26561624 0.28890926 0.14411528 0.01104938 0.030127821
-0.3589632 0.057518933 0.30325827 -0.23085174 0.0976511 0.14025952 0.33115208 -0.13882655
-0.37516513 -0.111982636 0.026005397 -0.22937772 0.06314165 0.039152186 0.13256577 -0.22140421
-0.32126793 0.31923053 -0.13067648 -0.17553253 -0.05094518 -0.095134564 -0.053146765 0.03329993
0.09736208 0.05010861 -0.018745378 0.32053334 0.27764216 -0.086312585 0.030736715 -0.025604913
-0.023409398 0.10607626 -0.040484685 -0.01163987 0.06451201 0.10696484 -0.13954854 -0.22677335
-0.05045582 -0.005438817 0.08197476 -0.22551484 0.15124156 -0.12406816 -0.07809689 0.30684575
0.19464582 -0.2545771 -0.016899068 0.007321378 -0.29842243 -0.106809266 0.035780795 0.093582615
0.118068516 0.16810854 -0.09258085 -0.1327939 0.018718028 -0.2959174 0.037996043 0.13355252
-0.068431556 -0.1546944 -0.00047391307 0.01799775 -0.13482763 0.09534237 -0.023246944 -0.01285691
-0.180922 -0.22675388 0.11962974 -0.08520781 -0.18591955 -0.22946864 0.17868271 0.22708382
-0.1537749 -0.18919645 -0.1809203 -0.029756267 0.13362701 0.0017300437 -0.09701048 0.03518609
-0.2921586 -0.010832284 -0.05328465 0.11864557 -0.0748269 0.10257843 0.045106363 -0.000294166
0.15189601 0.049143538 -0.06931893 0.3529506 -0.17522097 0.27125612 0.15411222 -0.36820275
0.06666133 0.4305136 0.2720785 0.12309694 -0.39780438 -0.20557937 -0.27660882 -0.42898762
-0.3227332 -0.011730592 0.012149207 0.22708401 0.30796352 0.17114611 -0.0072628735 0.31135735
0.105827115 -0.019303078 0.2562002 -0.12265372 -0.019795422 0.13520034 -0.19713813 -0.20851524
0.05167656 0.14863414 -0.19169281 0.04513449 0.020203609 0.26875773 0.1594114 -0.0070720823
-0.07196569 -0.31423393 0.12523364 -0.1511783 -0.010159489 0.13329226 0.20960008 0.14714356
-0.09948269 -0.15155685 0.15891662 0.12385745 0.054067742 0.26191032 0.10040414 0.12628226
-0.26451448 -0.20280787 -0.24587968 -0.15057147 0.22628568 -0.13123079 0.19276084 0.3436816
-0.14834045 -0.08609075 -0.09538737 -0.20938237 0.12733392 0.11840977 -0.1885135 -0.038635068
0.16710266 0.026024157 -0.113073505 0.09068114 -0.27249062 -0.14450875 -0.06317274 0.23764199
-0.09490482 -0.39212254 0.009244792 -0.18185255 0.10326106 -0.09545009 0.27339014 0.21456002
-0.28259197 -0.42155796 -0.2558935 0.028693128 0.23514391 0.31290674 0.35078222 0.41875777
00000000: f4b5 12bd f5b8 82be 1c31 183e e8a0 bc3c
00000010: ea6a c4bd 11db 843e 8518 a6bd 8b47 783e
00000020: 893c 063e 60b2 5abe bcd8 92be 4b23 263e
00000030: 2d36 d53d 343d 6d3d e4e5 433c 0d31 c33e
00000040: 07f7 82be 377a 15be b59f c83d 0fcb 093e
00000050: edc7 d73c 2c73 383d 4187 f1bd 521a 1f3d
00000060: a05c c4bd c009 6cbe d859 d13b 285f ec3d
00000070: 862e 9c3e f32f 29be a822 8a3c e91e 853c
00000080: 4284 29be 83ee 2a3e a1cb 3f3e e0ea 03be
00000090: 8b7c 8e3e 38cd e2bc 4caf d7bd e9c2 a6be
000000a0: a152 093e d101 1e3d 5ee9 253e 2598 3d3e
000000b0: ca1c 253d 060e 95be 417f 5abe 18c9 75be
000000c0: 68d4 3b3e 0d59 883e af39 bbbe 0b36 cc3d
000000d0: b70a 683e c81f 493d d2c9 5c3e 85c2 733e
000000e0: 43d4 8abd 0739 943d 738f ad3c dafe 87be
000000f0: eaeb 933e f592 133e 7508 353c 9fce f63c
00000100: 06ca b7be f998 6b3d ab44 9b3e 6664 6cbe
00000110: 4dfd c73d 31a0 0f3e c48c a93e 8c28 0ebe
00000120: a515 c0be 2757 e5bd 4509 d53c fee1 6abe
00000130: 6950 813d 0b5e 203d 52bf 073e c9b7 62be
00000140: 3b7d a4be 2f72 a33e 0ed0 05be cdbe 33be
00000150: e5ab 50bd e9d5 c2bd 6cb0 59bd 8265 083d
00000160: c565 c73d b03e 4d3d e88f 99bc f21c a43e
00000170: 1d27 8e3e a7c4 b0bd 90cb fb3c 65c1 d1bc
00000180: 11c5 bfbc 833e d93d 45d3 25bd 27b5 3ebc
00000190: df1e 843d 6210 db3d d0e5 0ebe 4637 68be
000001a0: c3aa 4ebd 1b38 b2bb 62e2 a73d 5ded 66be
000001b0: 11df 1a3e 7317 febd 43f1 9fbd e31a 9d3e
000001c0: 3c51 473e ee57 82be ea6f 8abc 2ce8 ef3b
000001d0: d3ca 98be d1be dabd e28e 123d 3ea8 bf3d
000001e0: e8cd f13d a524 2c3e 079b bdbd 20fb 07be
000001f0: 8d56 993c 7c82 97be bda1 1b3d fec1 083e
00000200: d825 8cbd 3568 1ebe 8977 f8b9 0470 933c
00000210: 4110 0abe dc42 c33d 6070 bebc caa5 52bc
00000220: 9e43 39be 2b32 68be 7000 f53d 6f81 aebd
00000230: b261 3ebe d4f9 6abe 9af8 363e a988 683e
00000240: 2b77 1dbe b7bc 41be 2c43 39be 6ac3 f3bc
00000250: 85d5 083e a2c2 e23a 6ead c6bd 4a1f 103d
00000260: d095 95be e479 31bc 0141 5abd 73fc f23d
00000270: d93e 99bd a414 d23d 73c1 383d 4b3a 9ab9
00000280: a18a 1b3e bc4a 493d 15f7 8dbd f1b5 b43e
00000290: 206d 33be 15e2 8a3e 98cf 1d3e 1285 bcbe
000002a0: bc85 883d 476c dc3e e04d 8b3e 401a fc3d
000002b0: 04ad cbbe 6683 52be ac9f 8dbe 44a4 dbbe
000002c0: 493d a5be ab31 40bc 780d 473c b688 683e
000002d0: 65ad 9d3e ed40 2f3e 66fd edbb 3b6a 9f3e
000002e0: e3bb d83d 7d21 9ebc ac2c 833e e031 fbbd
000002f0: 022a a2bc f571 0a3e 94de 49be 0585 55be
00000300: cdaa 533d 8c33 183e 1f4b 44be f1de 383d
00000310: 0a82 a53c 9d9a 893e be3c 233e edbc e7bb
00000320: bf62 93bd 45e3 a0be 3f3d 003e 7cce 1abe
00000330: fc73 26bc c47d 083e 67a1 563e cdac 163e
00000340: 95bd cbbd b831 1bbe 0abb 223e faa8 fd3d
00000350: 2376 5d3d 1c19 863e b0a0 cd3d 2350 013e
00000360: 716e 87be deac 4fbe e2c7 7bbe 682f 1abe
00000370: 6fb7 673e 5d61 06be 1963 453e 09f7 af3e
00000380: 8fe6 17be 5950 b0bd 745a c3bd 5568 56be
00000390: d363 023e d280 f23d af09 41be ce3f 1ebd
000003a0: f61c 2b3e 9d30 d53c 1593 e7bd 09b7 b93d
000003b0: e483 8bbe 1afa 13be b660 81bd 6c58 733e
000003c0: 755d c2bd 49c4 c8be 7877 173c 8e37 3abe
000003d0: 897a d33d 567b c3bd cbf9 8b3e 9fb5 5b3e
000003e0: e5af 90be 72d6 d7be 7904 83be da0d eb3c
000003f0: 91c9 703e 5035 a03e ba99 b33e 6b67 d63e

encoder.blocks.1.attn.proj.weight f4 [16, 16]
-0.27407807 0.1741723 -0.021569982 -0.24049294 -0.25385013 0.3565576 -0.27496463 -0.33718577
-0.26840633 -0.49846134 -0.11404156 0.21142578 0.4498462 -0.46138453 0.07608528 0.37799624
-0.100842826 0.11456618 0.44321182 0.3382185 0.1418863 -0.19480452 -0.4086109 0.15742315
-0.26597378 0.12520456 -0.07036779 -0.22842914 0.06325831 -0.40889707 -0.4217158 -0.3336434
0.41939557 0.16116966 0.41647345 -0.2902443 0.4618214 0.42172003 0.27542043 -0.018725527
0.3292482 0.37221503 -0.36548042 0.365141 0.07557042 0.078352764 0.1834688 -0.47392178
-0.34590057 -0.4019126 -0.29830408 0.24773061 0.14913295 -0.36658424 0.0809007 -0.122979306
0.04863107 -0.10843611 0.123074904 -0.03662924 0.15336227 -0.32527915 -0.32618183 -0.4008987
-0.20460165 0.15803541 0.006667363 -0.17690568 -0.52607185 -0.2925114 -0.42965716 -0.14711286
-0.045691624 0.18055734 -0.013496727 -0.3285201 -0.067443974 -0.0035695287 -0.23292759 0.0026621628
-0.09172551 -0.14774923 0.21474953 -0.39293686 0.14719264 0.20300065 -0.30849913 -0.09375079
0.41489485 -0.41856307 -0.4790753 0.22454467 0.24958451 0.17935047 -0.086226925 0.21774146
0.10290055 0.30185288 0.42059097 -0.08797452 -0.47728282 -0.2868199 -0.12697105 -0.33457637
-0.401014 -0.25114936 -0.10722387 -0.004714437 0.22005986 -0.18319815 0.070194654 -0.07274516
-0.1538171 0.0034361596 -0.03806217 0.32551655 -0.12574592 0.040565893 0.317648 0.33521488
-0.06316297 -0.36465362 -0.3808918 -0.30645752 0.23979509 0.07206948 0.115164004 -0.120821394
0.12856808 0.05874046 0.3789074 -0.064707495 -0.027491666 0.41921717 -0.12867747 0.24723245
0.12063719 0.034125768 -0.29328495 0.11606705 -0.19871102 0.19984104 0.40638492 -0.07311979
-0.14155494 0.23448114 0.16848949 -0.01723423 0.10966871 0.22187318 0.28610405 -0.031936377
-0.09832267 0.49647087 -0.41569552 0.18057284 -0.41736776 -0.3590718 -0.23596558 0.15104952
-0.40604115 -0.32485822 -0.34760395 -0.2527255 0.026412347 0.29379585 0.09358383 -0.3267999
-0.33445153 0.38888392 -0.36528784 -0.01840452 0.34436148 0.25556803 0.4079349 -0.09404308
0.21740425 0.33915836 0.08443395 -0.017656399 0.1548784 0.25043306 -0.30051997 0.122246064
0.4149449 0.28605095 0.023998022 -0.3017592 0.097259775 -0.06367468 0.43340144 -0.2805253
-0.065296456 0.112587035 0.36315775 -0.07143414 0.2808289 -0.058309935 0.27378398 -0.06751434
-0.30499148 0.1752544 0.42175648 0.10689868 -0.031257126 -0.114446595 -0.017216114 -0.23794734
0.42199272 0.15708789 -0.3761852 -0.39400515 0.14198998 -0.017035417 0.21362072 -0.5247719
0.2142983 0.019268092 0.026587132 -0.27223304 -0.07814354 0.38469192 0.3075079 0.25565794
-0.40324834 -0.12713772 0.20854414 -0.1242084 0.19378193 0.08070532 0.2412388 -0.4109486
0.027334914 0.30270916 -0.3613592 0.02599061 -0.0847863 -0.36540988 -0.016138922 0.2897428
0.08636622 0.3306158 0.354977 -0.4912088 -0.10345094 -0.086137794 -0.058794636 -0.3300267
-0.052660137 -0.43596348 -0.17787895 -0.3197571 0.2848843 0.08280888 -0.35094512 0.49269873
00000000: f653 8cbe 395a 323e 88b3 b0bc c843 76be
00000010: a5f8 81be b88e b63e 2ac8 8cbe 9da3 acbe
00000020: 8e6c 89be 5336 ffbe 9f8e e9bd 0080 583e
00000030: 3e52 e63e 983a ecbe 99d2 9b3d b988 c13e
00000040: af86 cebd aca1 ea3d a9ec e23e fa2a ad3e
00000050: a44a 113e d67a 47be 7335 d1be 8933 213e
00000060: b72d 88be a035 003e fd1c 90bd 54e9 69be
00000070: 938d 813d f55a d1be 22eb d7be 4fd3 aabe
00000080: 04bb d63e a909 253e 023c d53e e79a 94be
00000090: db73 ec3e b0eb d73e e803 8d3e 4766 99bc
000000a0: 3893 a83e f892 be3e 4020 bbbe c3f3 ba3e
000000b0: aac4 9a3d 6a77 a03d 3fdf 3b3e e0a5 f2be
000000c0: e119 b1be 7dc7 cdbe 50bb 98be 18ad 7d3e
000000d0: 4fb6 183e eeb0 bbbe 44af a53d 93dc fbbd
000000e0: 5f31 473d c013 debd b20e fc3d 8b08 16bd
000000f0: 000b 1d3e fd8a a6be 4e01 a7be 9842 cdbe
00000100: 1883 51be 09d4 213e e579 da3b c326 35be
00000110: a5ac 06bf 0ec4 95be 06fc dbbe c1a4 16be
00000120: 2427 3bbd 06e4 383e 6021 5dbc c933 a8be
00000130: 1120 8abd c1ee 69bb 9284 6ebe ae77 2e3b
00000140: 96da bbbd 934b 17be 4de7 5b3e 052f c9be
00000150: abb9 163e 67df 4f3e 99f3 9dbe 6a00 c0bd
00000160: 196d d43e e64d d6be 5c49 f5be 0aef 653e
00000170: 1593 7f3e a6a7 373e be97 b0bd 9ef7 5e3e
00000180: 86bd d23d 768c 9a3e b357 d73e fc2b b4bd
00000190: 6a5e f4be 0fda 92be b304 02be 984d abbe
000001a0: b551 cdbe a696 80be 3098 dbbd 907b 9abb
000001b0: 5f57 613e 4c98 3bbe 37c2 8f3d 6afb 94bd
000001c0: 3b82 1dbe 3131 613b 14e7 1bbd 1baa a63e
000001d0: 8ac3 00be 6c28 263d c2a2 a23e 49a1 ab3e
000001e0: 965b 81bd e1b3 babe 4004 c3be 00e8 9cbe
000001f0: d88c 753e 2a99 933d 1bdb eb3d 3571 f7bd
00000200: 5aa7 033e d699 703d 2700 c23e 5d85 84bd
00000210: 3436 e1bc a2a3 d63e 07c4 03be 812a 7d3e
00000220: a210 f73d 76c7 0b3d 7229 96be 90b4 ed3d
00000230: e77a 4bbe 21a3 4c3e af11 d03e d4bf 95bd
00000240: c7f3 10be d31b 703e 8288 2c3e cd2e 8dbc
00000250: fd99 e03d b932 633e 3b7c 923e b8cf 02bd
00000260: 655d c9bd 6e31 fe3e 0bd6 d4be 16e8 383e
00000270: 3ab1 d5be 42d8 b7be f6a0 71be baac 1a3e
00000280: a0e4 cfbe d153 a6be 25f9 b1be 3d65 81be
00000290: b55e d83c 696c 963e e1a8 bf3d 5152 a7be
000002a0: 3b3d abbe cb1b c73e 0207 bbbe 13c5 96bc
000002b0: 2650 b03e d0d9 823e d8dc d03e a999 c0bd
000002c0: 389f 5e3e 2aa6 ad3e b5eb ac3d 27a4 90bc
000002d0: 7198 1e3e c338 803e c1dd 99be 255c fa3d
000002e0: a873 d43e 4575 923e 8097 c43c 2f80 9abe
000002f0: 2230 c73d df67 82bd cbe6 dd3e 03a1 8fbe
00000300: 26ba 85bd 0894 e63d d0ef b93e 104c 92bd
00000310: cec8 8f3e 66d6 6ebd 6a2d 8c3e f544 8abd
00000320: d827 9cbe e475 333e 77f0 d73e b2ed da3d
00000330: 7907 00bd fa62 eabd cf08 8dbc 78a8 73be
00000340: 6e0f d83e a6db 203e 599b c0be 0bbb c9be
00000350: d265 113e dc8d 8bbc 64bf 5a3e 7457 06bf
00000360: 0371 5b3e 1ed8 9d3c 42cd d93c 2162 8bbe
00000370: b809 a0bd 57f6 c43e ad71 9d3e 99e5 823e
00000380: 9176 cebe 6430 02be 988c 553e f960 febd
00000390: c56e 463e d548 a53d 4e07 773e db67 d2be
000003a0: 78ed df3c b2fc 9a3e 1304 b9be 42ea d43c
000003b0: 71a4 adbd 0117 bbbe c635 84bc 2b59 943e
000003c0: c6e0 b03d 7946 a93e 8cbf b53e b87f fbbe
000003d0: 16de d3bd 0369 b0bd a5d2 70bd 42f9 a8be
000003e0: 28b2 57bd 9b36 dfbe e625 36be 34b7 a3be
000003f0: 5bdc 913e b497 a93d 14af b3be 0243 fc3e

encoder.blocks.1.attn.proj.bias f4 [16]
0.05648108 -0.010467379 -0.030212779 0.0057836086 0.035445917 0.08205309 -0.022346592 -0.0037973267
-0.051750794 -0.0714344 -0.013710938 0.021311946 -0.00094882015 0.012797497 0.033825442 0.046464987
00000000: b458 673d 5f7f 2bbc ca80 f7bc 6d84 bd3b
00000010: bd2f 113d 730b a83d 3310 b7bc 92dc 78bb
00000020: a4f8 53bd 334c 92bd d8a3 60bc 6496 ae3c
00000030: 3eba 78ba 98ac 513c 8c8c 0a3d 1252 3e3d

encoder.blocks.1.norm2.weight f4 [16]
1.0289694 0.90390664 0.97504944 0.9602898 0.9417808 0.97484154 0.86624634 1.0123248
0.9520752 0.9507066 0.9744098 0.9584097 0.9975293 0.9884196 0.87479424 0.94083387
00000000: 45b5 833f 6d66 673f d79c 793f 8dd5 753f
00000010: 8c18 713f 378f 793f 52c2 5d3f dc93 813f
00000020: 33bb 733f 8261 733f ec72 793f 575a 753f
00000030: 155e 7f3f 1109 7d3f 84f2 5f3f 7dda 703f

encoder.blocks.1.norm2.bias f4 [16]
0.00022680975 0.07966635 0.021581138 -0.0019102192 -0.042016555 -0.014090618 0.003266028 0.01707561
-0.04770636 0.013249163 -0.022021867 0.046509847 -0.054059125 0.0028800408 0.01969669 -0.0720656
00000000: c7d3 6d39 1c28 a33d edca b03c 5260 faba
00000010: 8d19 2cbd 56dc 66bc db0a 563b 26e2 8b3c
00000020: bf67 43bd 0413 593c 3467 b4bc 1c81 3e3d
00000030: 1a6d 5dbd 11bf 3c3b f45a a13c 2197 93bd
