Checkpoint/dict_15.pth (torch, 108787 bytes, 64 tensors)

encoder.cls_token f4 [1, 1, 16]
0.7157222 -0.26979622 1.7250156 -0.5382396 0.345715 0.66006154 0.96765906 0.54022276
1.4916357 0.50288564 -1.0672406 0.8956385 0.10349422 0.8703384 1.2477646 -1.9993997
00000000: 9239 373f bb22 8abe 50cd dc3f 12ca 09bf
00000010: 8e01 b13e cbf9 283f 81b8 773f 0a4c 0a3f
00000020: ebed be3f 1dbd 003f 579b 88bf 9148 653f
00000030: c7f4 d33d 7fce 5e3f c0b6 9f3f 54ec ffbf

encoder.patch_embed.weight f4 [16, 5]
-0.39830634 -0.4660321 -0.13384436 0.085217044 -0.23686211 0.017805295 0.5571127 0.60721725
-0.18444017 0.28875634 -0.41784474 0.012853871 0.0739703 0.55049986 -0.22692715 -0.21680155
0.30975252 -0.19109495 0.24004424 0.116231576 -0.18721446 0.10042274 -0.07130867 -0.4075805
0.15487665 -0.36519402 -0.61233526 0.30703178 0.49009976 0.07260492 0.2813509 -0.3555036
0.34614867 -0.308705 -0.11715125 0.14335243 -0.06719539 -0.33058068 -0.61694735 0.045287438
-0.19650188 -0.42351758 0.3702147 -0.0038939891 -0.011299712 -0.10480055 0.140906 0.2393631
0.28900087 0.39153165 0.37868947 -0.24588801 0.19427891 -0.42815283 -0.1026102 -0.30320156
0.42509952 0.46463972 -0.506767 -0.008700453 0.057020254 0.1970277 0.109052554 0.28639406
-0.13536406 -0.08483796 0.102186166 0.23849726 -0.26514924 0.057429813 0.17095985 -0.41400036
0.010558707 0.37200052 -0.5124084 0.13707018 -0.51461494 0.43112847 0.23948638 0.15867415
00000000: cfee cbbe c29b eebe 7f0e 09be 4686 ae3d
00000010: fb8b 72be 69dc 913c f09e 0e3f 9772 1b3f
00000020: e2dd 3cbe dfd7 933e bfef d5be 0b99 523c
00000030: be7d 973d 8fed 0c3f 975f 68be 3a01 5ebe
00000040: e297 9e3e 65ae 43be 28ce 753e d20a ee3d
00000050: 26b5 3fbe 70aa cd3d 480a 92bd 64ae d0be
00000060: fc97 1e3e b6fa babe 01c2 1cbf 4533 9d3e
00000070: 5bee fa3e e3b1 943d 3a0d 903e 9104 b6be
00000080: 663a b13e 950e 9ebe ffec efbd fbca 123e
00000090: bd9d 89bd df41 a9be 43f0 1dbf 527f 393d
000000a0: ca37 49be 4cd7 d8be c88c bd3e 4c32 7fbb
000000b0: 6d22 39bc aca1 d6bd aa49 103e 9a1b 753e
000000c0: ecf7 933e d676 c83e 96e3 c13e 11ca 7bbe
000000d0: 0df1 463e d936 dbbe 4c25 d2bd 3c3d 9bbe
000000e0: a5a6 d93e 42e5 ed3e 7bbb 01bf 588c 0ebc
000000f0: 128e 693d a1c1 493e f256 df3d 3ea2 923e
00000100: e09c 0abe 86bf adbd fb46 d13d a038 743e
00000110: a4c1 87be 863b 6b3d 1910 2f3e dbf7 d3be
00000120: 6dfe 2c3c da76 be3e 322d 03bf 205c 0c3e
00000130: cebd 03bf dfbc dc3e eb3b 753e 7a7b 223e

encoder.patch_embed.bias f4 [16]
0.114599794 0.0023236857 -0.05421884 0.00040075535 0.10984371 0.032545976 0.03987243 0.0023951186
-0.054039504 -0.025784357 -0.012001642 -0.07894827 -0.10648776 -0.051195443 0.06429502 0.07102434
00000000: 4cb3 ea3d fa48 183b 9314 5ebd 791c d239
00000010: bdf5 e03d ee4e 053d 4651 233d 6cf7 1c3b
00000020: 8758 5dbd b739 d3bc 89a2 44bc a1af a1bd
00000030: 4116 dabd 50b2 51bd 1cad 833d 3675 913d

encoder.blocks.0.norm1.weight f4 [16]
1.0900482 1.0931125 1.0022999 1.219641 0.9970205 0.990039 1.0549923 0.94017696
0.9605913 1.0105819 1.1416793 1.1849171 1.0359159 0.99139607 0.96914285 1.0914015
00000000: b386 8b3f 1ceb 8b3f 5d4b 803f 321d 9c3f
00000010: bc3c 7f3f 3273 7d3f fd09 873f 70af 703f
00000020: 50e9 753f bf5a 813f 8c22 923f 5dab 973f
00000030: e498 843f 22cc 7d3f bf19 783f 0bb3 8b3f

encoder.blocks.0.norm1.bias f4 [16]
-0.1788913 0.059267484 -0.032836597 0.027769173 0.033708043 -2.413065e-05 -0.025859607 -0.035495155
-0.02493223 -0.044082474 -0.070880726 0.075260654 -0.017686207 -0.0067627844 0.03828773 0.058978297
00000000: 482f 37be 76c2 723d ab7f 06bd 2d7c e33c
00000010: 7211 0a3d 2d6c cab7 87d7 d3bc 5e63 11bd
00000020: ad3e ccbc d38f 34bd ea29 91bd 4222 9a3d
00000030: aae2 90bc 599a ddbb 98d3 1c3d 3a93 713d

encoder.blocks.0.attn.qkv.weight f4 [48, 16]
-0.21464022 -0.39103955 0.32485843 -0.046107154 0.19196141 0.13220397 0.06762393 -0.046933
0.032731455 -0.19630641 -0.3332421 -0.015603551 0.13384557 -0.24370165 -0.14407174 -0.41755486
0.288216 0.004549257 0.41388783 -0.39663583 -0.0063519785 -0.020470833 0.30711514 -0.19104493
0.32743016 -0.0776652 0.4848147 -0.17076804 -0.0823235 -0.19660471 0.5212488 -0.44623867
0.15230413 -0.18121229 0.35952717 -0.1604417 -0.20244297 -0.089952596 0.26913255 0.19194494
-0.34486148 0.052971702 -0.053413894 0.07909076 0.09307661 0.29173365 -0.13799061 -0.13117221
-0.36363357 -0.26604533 0.014594992 -0.065604575 0.13780566 0.29204503 -0.08665822 -0.06435741
0.31881702 -0.50601596 -0.27012575 0.27090845 -0.07917861 0.025024917 0.07664644 0.08644949
-0.42832983 -0.03423413 0.38005784 0.12618272 0.034348827 0.40604085 0.02423113 0.49697533
0.24003458 -0.052445244 -0.2030158 0.46930537 -0.48486638 0.33580685 -0.3303273 0.4181793
0.1255688 -0.110331275 0.0284872 0.15060559 0.12627979 0.121998996 -0.0042439997 0.03389693
0.29007462 -0.41208005 0.019231824 -0.20697178 -0.24734944 -0.0149224885 0.20852828 -0.20380856
-0.031036647 -0.05491741 -0.26942286 0.13292666 -0.072401926 -0.087119535 0.19362731 0.18980742
-0.03583471 -0.044841297 0.32726204 -0.15387188 -0.004193485 -0.18766719 0.070397206 0.1435881
0.10882888 -0.015083976 -0.19025578 0.24272744 -0.21112971 -0.010422874 0.2334045 0.2837194
0.0011093864 0.12780109 -0.12372696 -0.19152622 0.17708834 -0.109374635 0.2945293 -0.03054033
-0.21862969 -0.19814795 -0.24046297 -0.29672876 -0.11758252 -0.16398564 0.15313104 0.19761263
-0.10851251 0.03709487 -0.2677102 -0.19297235 -0.06403069 0.16021319 0.055257272 -0.29563656
-0.2273814 0.06975188 0.21536471 0.36292958 0.092656516 0.15924759 -0.10351898 0.32583612
-0.02811322 0.072443865 0.023894822 -0.14041598 0.07937741 0.17585804 -0.19861475 -0.107471235
0.049333103 0.20348342 0.09062686 0.03329187 -0.42260113 0.15836377 -0.19753964 -0.28182244
-0.29619494 0.35982448 -0.10422808 -0.20230624 0.36595485 -0.1717129 0.16924104 -0.03261681
0.09087695 -0.11621721 -0.101009004 0.26358253 0.37423226 -0.22994757 -0.16618735 -0.130624
0.010889224 0.0068026003 -0.3127304 -0.009024191 0.24803318 -0.3053393 -0.08677218 0.14822194
-0.09317992 -0.1913019 -0.12322441 0.2780244 -0.037409533 0.5105136 -0.27391294 0.2809321
-0.21289028 0.0079363445 -0.51527447 0.5405914 -0.15814315 0.43285033 -0.18222673 0.42542365
0.13676088 -0.14551647 -0.085109435 -0.1087948 -0.2290392 0.067091875 0.06314839 0.04801961
-0.4033406 0.3193055 -0.1430659 -0.1759486 0.27783453 0.16855112 -0.17187007 -0.22572275
0.047989413 -0.13786134 0.07015642 -0.4027294 0.5160387 -0.4717094 0.52409536 -0.39469546
-0.08144858 0.19043693 -0.06343381 -0.38747403 0.36181104 -0.025867721 -0.043151986 -0.12623625
0.1890331 0.051174928 -0.22861572 -0.061971378 0.049723078 -0.19707505 0.1072032 -0.2714805
-0.22103558 0.1510988 0.0609472 0.122009836 0.16453284 -0.31453115 0.17929743 -0.105171874
00000000: a5ca 5bbe 5636 c8be d853 a63e dbda 3cbd
00000010: 8891 443e 7a60 073e 6a7e 8a3d d13c 40bd
00000020: 6b11 063d 8c04 49be b59e aabe 09a6 7fbc
00000030: d00e 093e ed8c 79be 8b87 13be c0c9 d5be
00000040: 0c91 933e ef11 953b 1be9 d33e da13 cbbe
00000050: 4224 d0bb 73b2 a7bc 323e 9d3e 48a1 43be
00000060: eda4 a73e ef0e 9fbd a239 f83e d1dd 2ebe
00000070: 3999 a8bd bf52 49be 9070 053f 6579 e4be
00000080: 9df5 1b3e b78f 39be f213 b83e d44a 24be
00000090: 364d 4fbe 1139 b8bd becb 893e 378d 443e
000000a0: af91 b0be dbf8 583d 87c8 5abd 56fa a13d
000000b0: f39e be3d 1d5e 953e 694d 0dbe 0252 06be
000000c0: 2e2e babe 1837 88be d51f 6f3c b15b 86bd
000000d0: ed1c 0d3e ed86 953e dd79 b1bd d1cd 83bd
000000e0: fc3b a33e 438a 01bf ec4d 8abe 83b4 8a3e
000000f0: 6528 a2bd 0e01 cd3c cff8 9c3d 6e0c b13d
00000100: 0c4e dbbe 1639 0cbd f196 c23e 0b36 013e
00000110: 5bb1 0c3d 96e4 cf3e 5d80 c63c 8d73 fe3e
00000120: a0cb 753e d3d0 56bd 60e3 4fbe cb48 f03e
00000130: 6840 f8be e0ee ab3e a920 a9be 991b d63e
00000140: 1c95 003e 5df5 e1bd fd5d e93c 5a38 1a3e
00000150: 7d4f 013e 9cda f93d 4011 8bbb 82d7 0a3d
00000160: a984 943e 28fc d2be 0f8c 9d3c 69f0 53be
00000170: 2c49 7dbe 747d 74bc 7088 553e 31b3 50be
00000180: 9140 febc 14f1 60bd cbf1 89be ed1d 083e
00000190: 7647 94bd ba6b b2bd 3d46 463e e05c 423e
000001a0: 6bc7 12bd 82ab 37bd e48e a73e 9790 1dbe
000001b0: 8069 89bb d42b 40be 692c 903d c208 133e
000001c0: ade1 de3d c822 77bc 69d2 42be 8b8d 783e
000001d0: 6332 58be b4c4 2abc 9701 6f3e ab43 913e
000001e0: d568 913a 4ade 023e 8f64 fdbd 731f 44be
000001f0: a556 353e cfff dfbd 8bcc 963e b72f fabc
00000200: 76e0 5fbe 4ce7 4abe ed3b 76be d5ec 97be
00000210: 1bcf f0bd daeb 27be 62ce 1c3e f75a 4a3e
00000220: cf3b debd caf0 173d 5011 89be 8b9a 45be
00000230: 8622 83bd ed0e 243e 7355 623d ad5d 97be
00000240: abd6 68be 13da 8e3d 9188 5c3e e8d1 b93e
00000250: b3c2 bd3d cd11 233e c201 d4bd fed3 a63e
00000260: b24d e6bc 735d 943d 13bf c33c 35c9 0fbe
00000270: a090 a23d 2114 343e aa61 4bbe e119 dcbd
00000280: 8211 4a3d f55d 503e 939a b93d 0e5d 083d
00000290: 2d5f d8be 1d2a 223e d547 4abe 084b 90be
000002a0: dda6 97be ea3a b83e 8875 d5bd 5e29 4fbe
000002b0: 6f5e bb3e 82d5 2fbe 864d 2d3e 3499 05bd
000002c0: b21d ba3d 4a03 eebd cfdd cebd 4af4 863e
000002d0: 5f9b bf3e 6077 6bbe 042d 2abe 4cc2 05be
000002e0: b768 323c 59e8 de3b 331e a0be 33da 13bc
000002f0: 69fc 7d3e 6f55 9cbe 9db5 b1bd 7ec7 173e
00000300: 1dd5 bebd a5e4 43be 145d fcbd 3759 8e3e
00000310: bd3a 19bd 05b1 023f 513e 8cbe 55d6 8f3e
00000320: e9ff 59be 7107 023c 07e9 03bf 3364 0a3f
00000330: 47f0 21be 8f9e dd3e a599 3abe 21d1 d93e
00000340: 0b0b 0c3e 4502 15be db4d aebd cfcf debd
00000350: 4189 6abe 7767 893d f153 813d 36b0 443d
00000360: a982 cebe 037c a33e de7f 12be df2b 34be
00000370: 5440 8e3e aa98 2c3e b5fe 2fbe dd23 67be
00000380: 8c90 443d 862b 0dbe 2bae 8f3d 8c32 cebe
00000390: 1d1b 043f e583 f1be 1d2b 063f 8615 cabe
000003a0: 83ce a6bd e601 433e 96e9 81bd ff62 c6be
000003b0: 4c3f b93e 8be8 d3bc 23c0 30bd 1344 01be
000003c0: e591 413e cd9c 513d 3d1a 6abe b3d5 7dbd
000003d0: 6daa 4b3d 0bce 49be 5a8d db3d 7eff 8abe
000003e0: 2757 62be a5b9 1a3e c5a3 793d 4be0 f93d
000003f0: 4c7b 283e 3a0a a1be bf99 373e 5a64 d7bd

encoder.blocks.0.attn.proj.weight f4 [16, 16]
0.40339032 -0.22802992 -0.21778889 -0.29915208 -0.32517612 0.3793806 -0.34046423 -0.16057022
0.23725872 -0.27060762 -0.07492638 0.046427153 -0.15125568 0.3314957 0.20722958 0.37256536
-0.28695083 0.41617596 0.028521262 -0.22254926 -0.25984222 -0.18478008 -0.31579915 0.13121338
0.21261081 -0.3798894 -0.3852077 -0.03297297 -0.030420296 0.10718971 -0.023027388 -0.27204406
0.38936716 -0.4655646 0.34015507 -0.055941388 -0.2900326 -0.30277428 0.08405577 -0.22655734
-0.19522014 -0.12899357 0.013388935 -0.011693922 0.18468311 0.40441772 0.34764212 0.05139278
0.2905102 -0.204188 0.3054842 -0.05862583 0.32131872 0.15977992 0.16882996 0.120338455
0.41571397 -0.12381992 -0.228457 -0.20003957 0.13883142 0.26677984 -0.45318234 0.4182076
0.35400602 0.29319102 -0.39566502 -0.07960552 -0.06818508 0.1362496 -0.11936951 0.35860607
-0.21110108 -0.03961403 0.116297 0.27551675 -0.100784466 0.15168479 0.29811877 -0.32518312
-0.18151419 -0.1274108 -0.35701078 0.3635353 -0.3190459 0.47947365 0.08061022 -0.039550956
-0.31924307 -0.3341957 -0.44052216 -0.31942207 0.33786574 -0.2217136 -0.6352995 -0.14934288
0.27409998 -0.5011008 0.35718527 -0.036774874 0.29965052 0.24489656 0.43735507 0.19937201
-0.08097944 0.31721196 -0.3803137 -0.16272569 -0.12091967 0.08385616 -0.046434876 0.26950467
0.18833551 0.04808261 0.3391863 -0.17860104 -0.41893113 -0.43951207 0.32573164 -0.23986702
-0.3172852 -0.33492753 -0.19550541 -0.15893087 -0.26861608 0.25682244 0.5127286 -0.35351238
-0.15534256 -0.2579473 -0.1909846 0.017773403 -0.33906916 -0.53287137 -0.32924145 -0.23924996
-0.532889 0.29314965 -0.23504537 0.12092374 -0.07432837 0.49295896 -0.1634409 0.21097039
-0.23001361 0.34943986 -0.31004113 0.41203773 0.3018569 -0.14810738 -0.008301882 0.28918278
0.30116707 0.39356 0.39480564 -0.09764711 0.2213781 0.34141386 -0.28949717 -0.42454323
0.42874566 0.10899095 -0.21873754 0.011633386 -0.19030286 -0.19683944 0.043038778 0.001900272
-0.14616579 -0.27254298 -0.03205319 -0.03494667 -0.40465254 0.109921284 -0.15126422 0.35091347
0.3350865 0.116823904 0.013454841 -0.020451818 -0.44019052 -0.2147865 -0.06565127 0.21725269
0.3194442 0.08112768 -0.37245604 -0.046738997 -0.060104024 -0.2495226 0.47356334 0.2734422
-0.217693 0.28723937 -0.32655182 0.4555623 0.033292703 0.24116106 -0.032909095 0.19182487
0.33889082 -0.23665397 -0.38325816 -0.21125923 0.23451798 0.32387665 -0.24332795 -0.34002912
-0.23787583 -0.09181679 0.36026812 -0.15975451 -0.41269895 0.12283604 -0.009358385 -0.24581778
0.25254548 -0.14077038 -0.25617117 0.01211611 -0.009514408 -0.44331914 -0.25099742 0.22383541
0.32438755 -0.18618229 -0.10357542 -0.118085 -0.32946938 -0.21162882 -0.20069599 0.26955172
0.1661449 -0.44803074 -0.038657885 0.28555077 0.37745646 0.180331 0.024712827 -0.35771748
0.3542811 -0.12095872 -0.23206581 -0.15139507 0.47545785 -0.28111514 -0.0033736199 -0.20901664
0.22462317 -0.27389887 -0.0021629774 -0.2655098 -0.3001665 -0.10357243 -0.22423255 0.031280678
00000000: 2d89 ce3e ad80 69be 0d04 5fbe 762a 99be
00000010: 7c7d a6be 2d3e c23e 5451 aebe 856c 24be
00000020: f3f3 723e 158d 8abe 0073 99bd 662a 3e3d
00000030: c5e2 1abe ceb9 a93e fe33 543e e3c0 be3e
00000040: 38eb 92be 0415 d53e 6ca5 e93c f4e3 63be
00000050: 0a0a 85be fd36 3dbe 6db0 a1be cd5c 063e
00000060: a6b6 593e dd80 c2be f239 c5be aa0e 07bd
00000070: fc33 f9bc 4786 db3d efa3 bcbc 5c49 8bbe
00000080: 225b c73e 7c5e eebe ce28 ae3e cc22 65bd
00000090: 277f 94be 3b05 9bbe 6e25 ac3d a6fe 67be
000000a0: cae7 47be e416 04be 435d 5b3c dd97 3fbc
000000b0: 921d 3d3e d70f cf3e 26fe b13e 3c81 523d
000000c0: c1bd 943e a916 51be 6d68 9c3e a321 70bd
000000d0: e383 a43e 599d 233e c3e1 2c3e 0274 f63d
000000e0: 76d8 d43e 4c95 fdbd a2f0 69be 2cd7 4cbe
000000f0: d329 0e3e 5e97 883e 8407 e8be 4e1f d63e
00000100: 4740 b53e 221d 963e 9b94 cabe 3808 a3bd
00000110: 9fa4 8bbd 0485 0b3e 0078 f4bd 379b b73e
00000120: e22a 58be 5242 22bd 1f2d ee3d 8810 8d3e
00000130: 1668 cebd 4253 1b3e 06a3 983e 677e a6be
00000140: dbde 39be fa77 02be 1eca b6be 4d21 ba3e
00000150: fc59 a3be 927d f53e f916 a53d 2f00 22bd
00000160: d473 a3be b31b abbe 1f8c e1be 4a8b a3be
00000170: bdfc ac3e e408 63be fda2 22bf 57ed 18be
00000180: d556 8c3e 2448 00bf fde0 b63e 40a1 16bd
00000190: cb6b 993e 2ac6 7a3e 01ed df3e 2d28 4c3e
000001a0: 8cd8 a5bd 9b69 a23e 7ab8 c2be 90a1 26be
000001b0: bba4 f7bd c7bc ab3d 7f32 3ebd 84fc 893e
000001c0: 06db 403e 45f2 443d d4a9 ad3e 31e3 36be
000001d0: 247e d6be ba07 e1be 4cc6 a63e b39f 75be
000001e0: 3573 a2be 9f7b abbe 9232 48be c6be 22be
000001f0: 0c88 89be 3b7e 833e 2e42 033f 93ff b4be
00000200: 1f12 1fbe ab11 84be 7891 43be 8799 913c
00000210: 799a adbe 426a 08bf 5692 a8be f1fd 74be
00000220: 6a6b 08bf b617 963e bcaf 70be dea6 f73d
00000230: 7939 98bd 1e65 fc3e 0d5d 27be 9f08 583e
00000240: b088 6bbe c8e9 b23e b6bd 9ebe 9cf6 d23e
00000250: fd8c 9a3e 76a9 17be 9e04 08bc c40f 943e
00000260: 9232 9a3e b280 c93e f723 ca3e 35fb c7bd
00000270: f1b0 623e cccd ae3e f938 94be bb5d d9be
00000280: 8d84 db3e a636 df3d bcfc 5fbe f599 3e3c
00000290: c1de 42be 4790 49be 6e49 303d 8c12 f93a
000002a0: 7cac 15be c18a 8bbe 354a 03bd 3d24 0fbd
000002b0: 9e2e cfbe 691e e13d 02e5 1abe eeaa b33e
000002c0: 7590 ab3e 5f41 ef3d b271 5c3c 928a a7bc
000002d0: a760 e1be fef0 5bbe 2c74 86bd 7d77 5e3e
000002e0: 318e a33e 4526 a63d 8fb2 bebe 6471 3fbd
000002f0: a32f 76bd da82 7fbe e576 f23e 9e00 8c3e
00000300: eaea 5ebe 0a11 933e cd31 a7be 763f e93e
00000310: ee5d 083d edf2 763e b0cb 06bd bd6d 443e
00000320: 1983 ad3e 6b55 72be 6a3a c4be 5754 58be
00000330: 7b25 703e 29d3 a53e f62a 79be 4c18 aebe
00000340: b995 73be 710a bcbd 1075 b83e b096 23be
00000350: 474d d3be 7691 fb3d e953 19bc a8b7 7bbe
00000360: a44d 813e 1c26 10be de28 83be a682 463c
00000370: 52e2 1bbc bafa e2be bc82 80be 1c35 653e
00000380: 2016 a63e 92a6 3ebe 5a1f d4bd 8cd6 f1bd
00000390: 36b0 a8be 3ab5 58be 4083 4dbe af02 8a3e
000003a0: e321 2a3e 4964 e5be bb57 1ebd b633 923e
000003b0: f941 c13e b1a8 383e 8e72 ca3c bf26 b7be
000003c0: 5564 b53e 35b9 f7bd a9a2 6dbe 4f07 1bbe
000003d0: 366f f33e 53ee 8fbe f317 5dbb 7508 56be
000003e0: 9e03 663e 793c 8cbe bdc0 0dbb e7f0 87be
000003f0: 6caf 99be c81d d4bd 389d 65be 2b20 003d

encoder.blocks.0.attn.proj.bias f4 [16]
-0.037899353 -0.036296103 -0.032192055 0.035983596 -0.0064223805 0.04485828 -0.009797263 -0.05571047
-0.054687314 0.029674154 -0.031159587 0.0433086 -0.0056721577 -0.020194817 0.041256085 0.03968119
00000000: 5a3c 1bbd 39ab 14bd d1db 03bd 8963 133d
00000010: d572 d2bb 51bd 373d b384 20bc a930 64bd
00000020: ceff 5fbd 3617 f33c 6442 ffbc 5c64 313d
00000030: 82dd b9bb 9a6f a5bc 24fc 283d be88 223d

encoder.blocks.0.norm2.weight f4 [16]
0.9170874 0.9885263 0.95511395 0.8880722 1.0458062 1.0185148 1.027198 0.94343674
0.9426569 0.90265536 0.85236424 0.97526973 0.8867307 0.9681165 0.9515623 0.96477926
00000000: 3dc6 6a3f 0f10 7d3f 5982 743f b358 633f
00000010: fadc 853f b15e 823f 397b 833f 1285 713f
00000020: f651 713f 6c14 673f 8b34 5a3f 47ab 793f
00000030: c800 633f 7cd6 773f 9699 733f c6fb 763f

encoder.blocks.0.norm2.bias f4 [16]
0.11781267 -0.06286875 0.059196804 0.029192971 -0.0012003023 0.08571071 -0.019360922 -0.041211873
-0.0007466021 -0.016579878 0.017396422 0.010736671 -0.005928434 -0.0442291 0.03896752 0.0033020305
00000000: c547 f13d 55c1 80bd 5978 723d 1926 ef3c
00000010: 7653 9dba 1989 af3d cc9a 9ebc c8cd 28bd
00000020: 9eb7 43ba 86d2 87bc f182 8e3c dde8 2f3c
00000030: 4f43 c2bb 9329 35bd 689c 1f3d e166 583b

encoder.blocks.0.mlp.fc1.weight f4 [64, 16]
0.19235882 -0.18333031 0.17488782 -0.24503492 0.30698636 0.107343175 -0.061864547 -0.20014538
-0.12099709 -0.1583046 -0.208701 0.11499509 -0.20189017 -0.2266049 0.094195224 -0.22566882
0.07273557 0.008129441 -0.14000496 0.28719428 -0.019668862 0.32865685 -0.3156126 -0.053368244
-0.32616284 -0.017832626 -0.34183815 -0.036140047 0.009408801 0.17978697 -0.18703659 -0.18414092
-0.09100109 0.0791402 -0.25328144 -0.016380053 0.28249687 0.12514238 -0.091647066 -0.13377036
-0.21994445 0.14927512 0.13876793 0.13652723 -0.3266811 0.26042825 0.11146725 -0.110295765
0.2809559 0.22021571 -0.046924453 0.14298157 -0.19421032 0.08783089 -0.113074504 -0.017768089
-0.11591198 -0.0189991 -0.11539661 0.2918015 -0.32230666 0.07235419 0.051038057 0.25301635
0.16613197 -0.005269808 0.0071388236 0.09257819 0.004913378 -0.014095998 0.23689973 -0.08675301
-0.0131498305 0.031799328 0.10274991 0.02894051 -0.060418308 0.1633846 -0.18485992 -0.15493622
-0.1376381 0.04331918 0.249454 0.2630167 -0.25819978 0.066654176 -0.037698295 -0.2956485
-0.20697813 -0.14071243 0.03340266 0.045752883 0.12639716 0.19547911 -0.07881872 0.22484949
0.22724655 0.17934126 0.15605085 -0.23176596 0.20723066 -0.01466074 0.015874738 0.17209896
0.061195444 -0.057746883 0.18832682 0.03800106 0.18067618 -0.09791852 0.14911984 -0.27897063
-0.20150536 0.08750415 0.22488768 -0.13787438 -0.01133615 -0.03306292 0.08247115 0.16544811
-0.009808977 0.00924033 -0.10352634 0.09800337 -0.020383835 -0.12810396 0.15566032 -0.23076183
0.13052522 0.1310578 0.23816301 -0.13211101 0.16906174 0.14960957 -0.049288645 0.28485602
-0.08217025 0.1108451 0.018762048 0.23340464 0.0069218343 -0.11845734 -0.26980415 -0.0924646
0.16351612 -0.0840918 0.12888652 0.19876097 -0.15462358 -0.12528433 -0.19362107 -0.088048376
0.1065921 -0.42563707 -0.18424226 0.14486563 0.22670758 0.086808346 0.20355447 -0.29252335
-0.037987683 0.103696525 -0.11598747 -0.07010409 -0.22675548 0.19311024 -0.27578652 0.24968703
0.0355956 -0.28009248 -0.17453238 -0.26108173 0.15067373 -0.19531967 -0.17320667 -0.21060677
0.076303504 0.108923115 0.22243506 -0.055627726 0.08288337 -0.0029637099 0.06607577 0.06287614
-0.05638678 0.122069865 -0.07755328 -0.13074926 0.14815482 0.010566902 0.23921601 0.21717209
0.31240892 -0.07790387 -0.052864533 0.25345534 -0.14453773 -0.28466552 0.20284773 0.1958359
-0.065889806 0.06325686 -0.22731642 0.08905421 0.2076742 0.10522336 0.00924522 0.1559817
0.21776481 0.33477175 -0.26697412 0.015205437 0.19601448 0.032003857 0.1852859 -0.09719042
-0.24197847 -0.06964483 0.032521352 0.24841428 0.18719228 -0.16806844 -0.26099452 0.19927949
0.075072914 0.23260401 0.09733202 -0.044090904 0.095211916 -0.019650705 0.042840347 0.12647235
-0.14818317 -0.23180984 0.08855987 -0.19899756 0.22227404 0.087835245 0.01090511 0.004193
0.057209034 -0.11876143 0.21800306 -0.082589634 0.09691566 -0.015886717 0.16162738 0.19380102
0.22203547 -0.03448619 -0.17420107 -0.115716495 -0.19550622 -0.02438131 -0.02151975 -0.09120308
00000000: b6f9 443e f1ba 3bbe cb15 333e 6fea 7abe
00000010: 512d 9d3e bdd6 db3d ae65 7dbd e9f2 4cbe
00000020: 53cd f7bd 9a1a 22be b7b5 55be 8c82 eb3d
00000030: 4cbc 4ebe 1d0b 68be 6de9 c03d ba15 67be
00000040: 63f6 943d 5931 053c 765d 0fbe 210b 933e
00000050: 9820 a1bc b645 a83e fa97 a1be a998 5abd
00000060: d1fe a6be ba15 92bc 6905 afbe 9607 14bd
00000070: 5f27 1a3c 131a 383e 8586 3fbe 708f 3cbe
00000080: c85e babd 4214 a23d 1bae 81be 762f 86bc
00000090: 6ea3 903e 5325 003e 75b1 bbbd 19fb 08be
000000a0: 1e39 61be 94db 183e 2e19 0e3e cbcd 0b3e
000000b0: bf42 a7be da56 853e f148 e43d bfe2 e1bd
000000c0: 74d9 8f3e 3a80 613e db33 40bd c369 123e
000000d0: 12df 46be afe0 b33d 9b93 e7bd 628e 91bc
000000e0: 4363 edbd 00a4 9bbc 0f55 ecbd 0267 953e
000000f0: 6105 a5be 6f2e 943d 480d 513d 5c8b 813e
00000100: 801e 2a3e 5bae acbb cbec e93b a299 bd3d
00000110: 6700 a13b e7f2 66bc d895 723e 90ab b1bd
00000120: 6372 57bc 0340 023d 8b6e d23d a614 ed3c
00000130: 3079 77bd 4b4e 273e eb4b 3dbe 9aa7 1ebe
00000140: 01f1 0cbe 746f 313d df70 7f3e 20aa 863e
00000150: c332 84be fc81 883d 8769 1abd 3d5f 97be
00000160: 13f2 53be eb16 10be 3ad1 083d 6067 3b3d
00000170: 426e 013e ad2b 483e b66b a1bd f23e 663e
00000180: 52b3 683e 3ca5 373e cbcb 1f3e 0e54 6dbe
00000190: 4634 543e 9a33 70bc bd0b 823c b63a 303e
000001a0: 13a8 7a3d ff87 6cbd bfd8 403e 00a7 1b3d
000001b0: 2d03 393e 8189 c8bd dfb2 183e 3dd5 8ebe
000001c0: 6c57 4ebe 6035 b33d f548 663e f12e 0dbe
000001d0: 42bb 39bc fc6c 07bd a2e6 a83d 3b6b 293e
000001e0: d5b5 20bc c164 173c 9e05 d4bd feb5 c83d
000001f0: 00fc a6bc af2d 03be 6b65 1f3e d44c 6cbe
00000200: 67a8 053e 0434 063e 01e1 733e 1c48 07be
00000210: 851e 2d3e 4033 193e e4e2 49bd a6d8 913e
00000220: e048 a8bd c102 e33d deb2 993c a001 6f3e
00000230: 8ed0 e23b c399 f2bd c523 8abe 155e bdbd
00000240: c570 273e 5238 acbd d4fa 033e ff87 4b3e
00000250: a555 1ebe 894a 00be 9a44 46be b552 b4bd
00000260: f54c da3d 1aed d9be 01aa 3cbe a857 143e
00000270: 0826 683e 93c8 b13d 9570 503e 9fc5 95be
00000280: f998 1bbd d85e d43d d78a edbd bc92 8fbd
00000290: 9732 68be b1be 453e e433 8dbe f5ad 7f3e
000002a0: b1cc 113d 4868 8fbe 9eb8 32be 81ac 85be
000002b0: 374a 1a3e e101 48be 175d 31be 4da9 57be
000002c0: 0345 9c3d 1513 df3d 04c6 633e e6d9 63bd
000002d0: c2be a93d cd3a 42bb bc52 873d 35c5 803d
000002e0: d3f5 66bd c4ff f93d 41d4 9ebd 22e3 05be
000002f0: e6b5 173e cd20 2d3c 0bf5 743e 5c62 5e3e
00000300: 10f4 9f3e 108c 9fbd 7b88 58bd e6c4 813e
00000310: b301 14be aebf 91be 51b7 4f3e 3589 483e
00000320: 3cf1 86bd d08c 813d a3c5 68be 0e62 b63d
00000330: 8ca8 543e 587f d73d 4379 173c abb9 1f3e
00000340: bdfd 5e3e 3467 ab3e d5b0 88be 3a20 793c
00000350: 05b8 483e 7a16 033d 96bb 3d3e c50b c7bd
00000360: 34c9 77be f3a1 8ebd 1c35 053d 5060 7e3e
00000370: 55af 3f3e 221a 2cbe 13a1 85be ec0f 4c3e
00000380: d4bf 993d bf2f 6e3e 0356 c73d aa98 34bd
00000390: 77fe c23d 84fa a0bc 5c79 2f3d f881 013e
000003a0: 54bd 17be 8f5f 6dbe e15e b53d 04c6 4bbe
000003b0: ce9b 633e f7e2 b33d 59ab 323c 6f65 893b
000003c0: 0554 6a3d 3139 f3bd 323c 5f3e c124 a9bd
000003d0: b87b c63d dc24 82bc a681 253e c673 463e
000003e0: 445d 633e 6441 0dbd c461 32be c5fc ecbd
000003f0: c832 48be 50bb c7bc 304a b0bc aec8 babd

encoder.blocks.0.mlp.fc1.bias f4 [64]
-0.06669981 0.056038927 0.028739894 0.017011445 -0.0573008 -0.0064550424 -0.04805749 -0.005614868
0.0045057633 -0.04155056 0.016280748 -0.021979706 -0.0916701 0.053278055 -0.07924199 -0.035317753
-0.027159259 -0.00044688914 -0.056314263 -0.011050496 -0.051949937 -0.027952781 0.0063031088 -0.06544815
-0.013048397 0.056011964 0.02943183 -0.03163949 0.016186692 -0.034962192 0.006179628 -0.0058308514
-0.017410541 -0.017974906 0.010278543 -0.032422528 -0.04365166 0.021220714 -0.002375088 -0.01652695
-0.030099353 -0.0097855665 -0.079877675 0.037997298 0.0050021824 -0.032757603 0.043471407 -0.04657085
0.028126875 -0.054061525 0.11756052 0.015699945 -0.021945262 -0.040448982 -0.044104833 -0.038168266
0.0070671993 -0.029727988 -0.056012873 -0.003894347 0.03052789 -0.033469208 -0.009758558 -0.06487109
00000000: e999 88bd 1389 653d ed6f eb3c 965b 8b3c
00000010: 3eb4 6abd d284 d3bb eed7 44bd edfc b7bb
00000020: 15a5 933b ec30 2abd 345f 853c c90e b4bc
00000030: 89bd bbbd 173a 5a3d a049 a2bd 59a9 10bd
00000040: 187d debc 724c eab9 c9a9 66bd 240d 35bc
00000050: 75c9 54bd 3bfd e4bc 4f8a ce3b ae09 86bd
00000060: f2c8 55bc cd6c 653d 051b f13c 6998 01bd
00000070: f499 843c 8434 0fbd 7a7e ca3b ba10 bfbb
00000080: 8da0 8ebc 1c40 93bc 5667 283c 7ccd 04bd
00000090: 15cc 32bd 10d7 ad3c 5da7 1bbb 8763 87bc
000000a0: eb92 f6bc a453 20bc e896 a3bd 0ea3 1b3d
000000b0: 59e9 a33b d62c 06bd 130f 323d 13c1 3ebd
000000c0: 556a e63c 9e6f 5dbd 92c3 f03d 2c9d 803c
000000d0: 8dc6 b3bc d5ad 25bd 45a7 34bd 5456 1cbd
000000e0: f793 e73b 1c88 f3bc c16d 65bd 4d38 7fbb
000000f0: a015 fa3c 0217 09bd 5ce2 1fbc 22db 84bd

encoder.blocks.0.mlp.fc2.weight f4 [16, 64]
0.09165754 0.2663107 0.25924885 0.11001772 0.077717885 0.13758191 0.21770188 0.10872428
0.119211495 -0.17664833 0.15041901 -0.24720395 -0.06888383 0.23747553 -0.19383118 -0.0839927
-0.090596445 -0.18918785 0.097885594 -0.031225486 -0.22526684 0.15444721 0.20924494 -0.05539427
-0.22676168 -0.10629848 0.028605023 0.16045086 -0.24106634 -0.06558679 -0.20822906 -0.06678166
0.17834046 -0.060796093 0.2122023 -0.2896138 0.00035453308 -0.22236028 0.059667826 0.17579217
0.028690463 0.13289362 0.034229286 0.047437828 0.12236525 -0.23686351 -0.16018029 -0.07840236
-0.20077509 0.14678998 0.061201513 -0.21828899 -0.07678031 0.0426341 0.20219932 0.113377884
-0.23990445 -0.24299282 0.025620185 -0.045425028 -0.15829659 -0.08435938 0.19847526 -0.10356227
-0.067284055 -0.005487884 -0.08002427 -0.24388479 -0.17378452 0.035595343 0.26483455 -0.19054796
-0.1538893 -0.14676118 -0.1773447 -0.20243615 -0.064257786 -0.05983338 0.024368346 0.21873514
-0.097898364 0.20589563 -0.07485928 -0.1684703 0.19082968 -0.08555046 0.0747185 0.07490764
-0.14405183 0.047981013 -0.22320217 0.20519403 0.1582907 -0.041126423 -0.124021985 -0.06866758
-0.10844887 0.19794866 -0.1957615 0.07078417 0.1663476 -0.18759105 0.076729596 0.022736605
0.117654696 -0.0010496938 0.1870435 -0.25378957 -0.23431939 0.19905122 -0.18381985 0.29701084
0.22777112 0.11422391 -0.36541018 -0.011746574 0.14648886 -0.18689209 -0.17823723 -0.22338817
-0.035801563 -0.029310439 0.09343625 0.03190558 -0.107132286 -0.0108642625 0.0990559 -0.09241999
0.30060777 -0.16396962 -0.03552791 -0.31224197 -0.30273324 -0.2090709 0.25303563 -0.22020873
-0.44068405 0.2951468 -0.1509948 0.16387917 0.045081947 -0.032500923 0.19066978 0.16813569
-0.110555634 0.23645157 0.10085952 -0.049232572 -0.014277307 0.021781495 -0.18152268 0.1477654
0.22791953 -0.17953137 -0.22166343 -0.14048286 -0.24576822 -0.19692421 -0.23005618 -0.022775438
-0.08322704 -0.0417614 0.26632777 0.17629872 -0.07501683 -0.23272806 -0.14261584 -0.16707605
-0.07436985 0.16659835 -0.22073281 -0.1029341 -0.06862187 -0.25937593 -0.18010718 0.09441864
0.2463312 0.16951028 -0.11237065 0.0031099522 0.21419774 0.16561776 0.022869293 -0.2614481
-0.10250423 -0.27439904 0.005928918 -0.057309285 -0.08237126 0.13052376 -0.078658804 0.09736259
0.09904288 0.13146058 0.004137617 0.24229465 -0.061338842 -0.060733892 0.12786272 -0.23879293
0.15135764 0.17263828 0.067158595 0.04728022 -0.014430622 -0.14042968 -0.17810358 -0.04275713
-0.05829878 0.04587267 -0.2149716 7.66119e-05 0.09925617 0.26771632 -0.11632392 -0.16967727
-0.11149529 0.04342276 -0.3272496 -0.12616274 0.23295826 0.036083862 -0.21953054 0.21087101
-0.072826326 0.039349336 -0.18089518 0.11731337 0.11937016 0.20252025 0.18556423 0.333695
-0.22828937 -0.29265967 -0.020134633 0.11400898 -0.01182702 -0.07227535 -0.26917854 -0.29786527
0.12667511 0.00803506 0.3061326 0.17823651 0.24233413 0.06747865 -0.12736253 -0.054236934
0.23033406 -0.19339475 -0.14365998 0.15293226 0.19886759 -0.1330612 -0.057228066 -0.11188985
00000000: f3b6 bb3d e059 883e 44bc 843e f850 e13d
00000010: 8e2a 9f3d 46e2 0c3e 3eed 5e3e d6aa de3d
00000020: 2825 f43d 4de3 34be 7107 1a3e 0823 7dbe
00000030: f712 8dbd c92c 733e ae7b 46be 5d04 acbd
00000040: a18a b9bd 76ba 41be 3e78 c83d 97cc ffbc
00000050: 5aac 66be 6927 1e3e 4e44 563e 1ae5 62bd
00000060: 3734 68be 04b3 d9bd 1555 ea3c 3b4d 243e
00000070: 18da 76be 5e52 86bd 003a 55be d3c4 88bd
00000080: e29e 363e 5305 79bd 8f4b 593e 4348 94be
00000090: a0e0 b939 6ab2 63be 4066 743d dd02 343e
000000a0: 4308 eb3c 4415 083e 0234 0c3d 2b4e 423d
000000b0: a29a fa3d 598c 72be 4d06 24be 6b91 a0bd
000000c0: fc97 4dbe 1d50 163e 70ae 7a3d 2687 5fbe
000000d0: ff3e 9dbd 18a1 2e3d 570d 4f3e aa32 e83d
000000e0: 83a9 75be 1cd3 78be 6ce1 d13c 980f 3abd
000000f0: 8018 22be 9cc4 acbd 193d 4b3e 7518 d4bd
00000100: 39cc 89bd b5d3 b3bb c4e3 a3bd efbc 79be
00000110: 92f4 31be 6ccc 113d 6598 873e 011f 43be
00000120: 2895 1dbe 9048 16be d999 35be 6c4b 4fbe
00000130: 9699 83bd d913 75bd 20a0 c73c 1bfc 5f3e
00000140: f07e c8bd 4ed6 523e d24f 99bd 7a83 2cbe
00000150: db68 433e 1435 afbd 0306 993d 2d69 993d
00000160: 5382 13be bd87 443d 1c8f 64be 621e 523e
00000170: f516 223e 2e74 28bd 3dff fdbd 97a1 8cbd
00000180: 711a debd 0eb3 4a3e b475 48be 4af7 903d
00000190: 0657 2a3e de17 40be 6824 9d3d 1e42 ba3c
000001a0: f2f4 f03d e195 89ba 5588 3f3e b5f0 81be
000001b0: 6cf1 6fbe 15d4 4b3e 453b 3cbe ce11 983e
000001c0: d53c 693e 3aee e93d 0b17 bbbe b474 40bc
000001d0: 2d01 163e a460 3fbe d283 36be debf 64be
000001e0: a9a4 12bd 721c f0bc 815b bf3d 6daf 023d
000001f0: 2c68 dbbd 0500 32bc d2dd ca3d b146 bdbd
00000200: 43e9 993e a7e7 27be b785 11bd 2ede 9fbe
00000210: daff 9abe af16 56be e38d 813e 667e 61be
00000220: 57a1 e1be 7b1d 973e 619e 1abe f1cf 273e
00000230: d9a7 383d b01f 05bd f03e 433e c32b 2c3e
00000240: fe6a e2bd 5c20 723e 708f ce3d 18a8 49bd
00000250: 5eeb 69bc 1b6f b23c 15e1 39be d04f 173e
00000260: bd63 693e 12d7 37be bdfb 62be bdda 0fbe
00000270: aaaa 7bbe 80a6 49be d993 6bbe 8e93 babc
00000280: f072 aabd 000e 2bbd 1d5c 883e a787 343e
00000290: 6ca2 99bd 4450 6ebe e309 12be fc15 2bbe
000002a0: 384f 98bd c298 2a3e c807 62be 1dcf d2bd
000002b0: 9f89 8cbd eccc 84be 046e 38be 8f5e c13d
000002c0: 3f3e 7c3e 1a94 2d3e 9522 e6bd 57d0 4b3b
000002d0: a756 5b3e b497 293e 6258 bb3c 86dc 85be
000002e0: bded d1bd 087e 8cbe 5e47 c23b 24bd 6abd
000002f0: 43b2 a8bd 05a8 053e de17 a1bd 0a66 c73d
00000300: fed6 ca3d 9a9d 063e d994 873b 171c 783e
00000310: 703e 7bbd 1ac4 78bd 72ee 023e 2286 74be
00000320: 7ffd 1a3e 17c8 303e 728a 893d e7a8 413d
00000330: 6a6e 6cbc cccc 0fbe c960 36be 1a22 2fbd
00000340: b4ca 6ebd fbe4 3b3d 8421 5cbe b3aa a038
00000350: d246 cb3d 1d12 893e 3c3b eebd e1bf 2dbe
00000360: a557 e4bd 10dc 313d 428d a7be ce30 01be
00000370: 9c8c 6e3e accc 133d 9dcc 60be 92ee 573e
00000380: f825 95bd c52c 213d 963c 39be fe41 f03d
00000390: 5878 f43d 7861 4f3e 8d04 3e3e 12da aa3e
000003a0: b0c4 69be 7dd7 95be 63f1 a4bc 8a7d e93d
000003b0: 1ec6 41bc 1905 94bd c5d1 89be cc81 98be
000003c0: 1fb7 013e 7ca5 033c 6abd 9c3e a283 363e
000003d0: 7026 783e 3f32 8a3d 536b 02be 8c27 5ebd
000003e0: b1dc 6b3e 4609 46be 9a1b 13be 469a 1c3e
000003f0: f2a3 4b3e 3241 08be fa67 6abd 8126 e5bd

encoder.blocks.0.mlp.fc2.bias f4 [16]
-0.018066883 -0.03345807 -0.016182935 0.027621932 0.013854438 0.005602105 0.010247406 -0.024412256
-0.048927996 0.040494055 -0.04275172 0.04216039 -0.002406441 -0.03304878 0.048563194 0.027534423
00000000: 0001 94bc 540b 09bd 1392 84bc 6447 e23c
00000010: bafd 623c dd91 b73b bce4 273c 36fc c7bc
00000020: b968 48bd 18dd 253d 6d1c 2fbd 60b0 2c3d
00000030: 61b5 1dbb 285e 07bd 33ea 463d df8f e13c

encoder.blocks.1.norm1.weight f4 [16]
1.0543845 1.0017431 1.026397 0.98471826 0.9317567 1.040975 0.97552884 0.9269541
1.0498593 1.0675243 1.0106963 1.1379197 0.97661304 1.0042582 1.0014747 1.0428636
00000000: 12f6 863f 1e39 803f fa60 833f 7f16 7c3f
00000010: 9b87 6e3f ab3e 853f 42bc 793f dd4c 6d3f
00000020: ca61 863f a3a4 883f 7f5e 813f 5aa7 913f
00000030: 5003 7a3f 888b 803f 5330 803f 8e7c 853f

encoder.blocks.1.norm1.bias f4 [16]
-0.015124602 -0.044470765 -0.017149393 0.048847042 0.029107476 0.019158423 0.018753907 -0.0037276817
-0.046241872 0.029884556 -0.027180042 0.022935634 -0.00947202 0.009396139 0.03932076 0.040170558
00000000: 2ecd 77bc fa26 36bd e27c 8cbc d613 483d
00000010: cd72 ee3c 20f2 9c3c cba1 993c 1f4c 74bb
00000020: 1e68 3dbd 75d0 f43c aea8 debc 83e3 bb3c
00000030: 8830 1bbc 43f2 193c ce0e 213d e289 243d

encoder.blocks.1.attn.qkv.weight f4 [48, 16]
0.0115289455 -0.01546602 -0.09719514 0.13644534 -0.023140388 0.14181519 -0.26287937 0.19050483
-0.2667644 0.11001612 -0.0027187825 0.37251535 -0.1974376 0.4004275 -0.32686904 0.24274713
0.09856611 -0.26364192 -0.2713548 -0.092431955 -0.032451637 0.3397888 -0.07319046 -0.28856763
-0.29446056 0.21871941 0.06285822 -0.11271741 0.0068189367 0.2464606 0.14409716 -0.224436
-0.2315584 -0.029961271 -0.09577152 0.09545581 -0.2601199 0.30932373 0.025393905 0.06916549
-0.25149095 -0.046624742 0.212716 0.017653737 -0.23741154 -0.25106975 0.07671212 0.3346478
0.12669463 0.11173557 0.20245929 -0.08251899 0.22005236 -0.11572516 0.3530803 -0.0035381487
-0.076560825 0.21559687 0.16375019 -0.08669978 -0.061487645 -0.02281406 0.26078033 0.0016361806
-0.049188294 -0.043170635 -0.3491718 0.16312163 0.110473365 0.3263762 0.010630337 -0.1680567
0.10124237 0.2547143 -0.02947507 0.17244467 -0.20050755 -0.20229377 0.10523129 -0.2591543
-0.31975406 -0.11558828 0.011976174 -0.089967385 -0.051100366 -0.2184039 0.30454823 0.068041645
0.29464814 0.12374461 -0.14530575 0.27100518 0.11145008 -0.1424932 -0.11998951 -0.038162056
-0.2995279 0.20520614 -0.104812026 -0.068391666 -0.06683936 0.0014527556 -0.26596135 0.1784238
-0.27135152 -0.22687586 -0.046751916 0.1995807 -0.050288606 0.056173827 -0.22050574 0.27687523
-0.2970935 -0.100065224 0.026087098 0.28912562 -0.26345584 0.24517283 -0.0977639 0.25517452
-0.12733315 -0.016574554 0.0038077193 0.075752586 0.21993145 -0.12884401 -0.1080832 0.12193272
0.23943196 0.011323301 -0.1893653 -0.100828506 0.08379513 0.24218705 0.066682346 0.2011802
-0.20422216 0.19529809 -0.039294522 -0.293362 0.14407852 0.26855776 -0.21237928 -0.24363595
-0.17106496 -0.20173658 -0.15678522 0.18358639 0.24367812 0.14490418 0.2516828 0.32295024
0.070924185 -0.13479683 -0.008950593 0.23487338 0.039032843 0.054224864 0.016731018 0.24649173
0.066581436 0.11139041 -0.06366773 0.2866932 -0.16545056 -0.22734575 0.12861268 -0.11339809
-0.26452342 0.08151549 -0.28350043 -0.02689137 0.24090803 -0.010991061 0.296807 0.248323
-0.1974684 -0.13608132 0.0013624345 0.37726784 -0.07885212 0.302444 -0.023718772 0.14519587
-0.23045185 -0.13801712 -0.4103154 -0.2500957 -0.15676612 0.18920101 -0.048875634 0.19399527
-0.2453728 0.23970808 0.0071399445 -0.42053553 -0.22047168 0.24589893 0.0061801984 0.1774898
0.12730768 -0.14014818 0.19485457 0.055170644 -0.14110337 -0.0842731 0.09667106 -0.22115448
-0.22176126 0.24495494 0.14151601 -0.016186962 -0.19930445 0.3220455 0.058543563 0.1181594
-0.30841425 -0.10510604 -0.27622616 -0.09306727 -0.16244279 0.1840361 -0.0697278 0.16082947
-0.108253285 0.26366797 0.44142336 -0.37754157 -0.039516874 -0.30677155 0.38880873 0.036839917
0.33305484 -0.31995592 0.45739284 0.07040815 0.04228314 -0.12608162 -0.11143748 -0.2463912
0.305584 -0.31486902 0.09504271 -0.25776327 0.12807111 -0.17874499 -0.014888322 -0.041698694
0.11668379 0.13971318 -0.2577129 -0.060907505 0.18009545 0.31874233 0.14031702 0.29937756
00000000: e7e3 3c3c 3165 7dbc 3f0e c7bd 54b8 0b3e
00000010: e990 bdbc 0038 113e 2098 86be b313 433e
00000020: 5895 88be 2250 e13d 9a2d 32bb 55ba be3e
00000030: 152d 4abe d504 cd3e 615b a7be b492 783e
00000040: 07dd c93d 13fc 86be 04ef 8abe f74c bdbd
00000050: 02ec 04bd ccf8 ad3e e1e4 95bd 23bf 93be
00000060: 89c3 96be fbf7 5f3e cfbb 803d 63d8 e6bd
00000070: 6371 df3b 2b60 7c3e 358e 133e 8dd2 65be
00000080: a51d 6dbe 5771 f5bc dc23 c4bd 567e c33d
00000090: 6f2e 85be ae5f 9e3e e106 d03c a3a6 8d3d
000000a0: 6cc3 80be 96f9 3ebd 39d2 593e 929e 903c
000000b0: 031c 73be 378c 80be 3e1b 9d3d f556 ab3e
000000c0: 3dbc 013e 9ed5 e43d 7d51 4f3e b7ff a8bd
000000d0: 6855 613e 5001 edbd f1c6 b43e 49e0 67bb
000000e0: eccb 9cbd 6dc5 5c3e 21ae 273e a78f b1bd
000000f0: 78da 7bbd 8de4 babc 0085 853e 1c75 d63a
00000100: aa79 49bd b1d3 30bd a5c6 b2be 5b09 273e
00000110: dc3f e23d c81a a73e dd2a 2e3c 0e17 2cbe
00000120: 2958 cf3d ea69 823e b475 f1bc 5695 303e
00000130: da51 4dbe 1926 4fbe 8183 d73d dfaf 84be
00000140: ceb6 a3be 8cb9 ecbd b737 443c d240 b8bd
00000150: 9e4e 51bd 46a5 5fbe bfed 9b3e 6b59 8b3d
00000160: 1fdc 963e d06d fd3d 08cb 14be 31c1 8a3e
00000170: f13f e43d bde9 11be 0fbd f5bd d14f 1cbd
00000180: b95b 99be 8f21 523e b0a7 d6bd ee10 8cbd
00000190: 13e3 88bd 646a be3a 162c 88be bbb4 363e
000001a0: 96ee 8abe 2552 68be f07e 3fbd e25e 4c3e
000001b0: 6dfb 4dbd 8716 663d 42cc 61be 97c2 8d3e
000001c0: a41c 98be ffee ccbd 9cb4 d53c 4608 943e
000001d0: afe3 86be 960e 7b3e 7138 c8bd 3ca6 823e
000001e0: 9f63 02be 5cc7 87bc ee8a 793b 2c24 9b3d
000001f0: b635 613e afef 03be ba5a ddbd ddb7 f93d
00000200: a72d 753e 5e85 393c fae8 41be 2d7f cebd
00000210: c89c ab3d e2ff 773e c190 883d 2f02 4e3e
00000220: 9d1f 51be 39fc 473e 4bf3 20bd 8b33 96be
00000230: 5289 133e 6780 893e f479 59be b47b 79be
00000240: a72b 2fbe 0994 4ebe 4e8c 20be 12fe 3b3e
00000250: c286 793e c361 143e 91dc 803e bc59 a53e
00000260: b340 913d 2e08 0abe 82a5 12bc a682 703e
00000270: e7e0 1f3d e41a 5e3d 7d0f 893c 5468 7c3e
00000280: d95b 883d a820 e43d 3a64 82bd 73c9 923e
00000290: df6b 29be 53cd 68be 0bb3 033e 423d e8bd
000002a0: 9d6f 87be 98f1 a63d f826 91be 4a4b dcbc
000002b0: 98b0 763e da13 34bc 16f7 973e 6248 7e3e
000002c0: 2835 4abe e758 0bbe b793 b23a 4029 c13e
000002d0: 387d a1bd f1d9 9a3e df4d c2bc 3aae 143e
000002e0: 92fb 6bbe 5c54 0dbe dc14 d2be 8b0c 80be
000002f0: 4c87 20be e9bd 413e d131 48bd b2a6 463e
00000300: 0243 7bbe 0976 753e 32f6 e93b 6f50 d7be
00000310: 54c3 61be eecc 7b3e 4383 ca3b e3bf 353e
00000320: f25c 023e 0183 0fbe f587 473e 9dfa 613d
00000330: 677d 10be 6097 acbd 7afb c53d 5276 62be
00000340: 6215 63be 78d5 7a3e 93e9 103e 859a 84bc
00000350: 7716 4cbe 26e3 a43e 60cb 6f3d 8efd f13d
00000360: 79e8 9dbe d641 d7bd 846d 8dbe 0e9a bebd
00000370: 6757 26be f673 3c3e 73cd 8ebd 7bb0 243e
00000380: e6b3 ddbd 7dff 863e 3e02 e23e 214d c1be
00000390: 72dc 21bd 2911 9dbe f011 c73e 74e5 163d
000003a0: 2a86 aa3e 43d1 a3be 652f ea3e 2632 903d
000003b0: 1631 2d3d 8a1b 01be 5539 e4bd fa4d 7cbe
000003c0: 8275 9c3e 8336 a1be c1a5 c23d 8cf9 83be
000003d0: 1325 033e ed08 37be 26ee 73bc 40cc 2abd
000003e0: e9f7 ee3d f910 0f3e f2f2 83be 267a 79bd
000003f0: f16a 383e 3232 a33e 44af 0f3e 0448 993e

encoder.blocks.1.attn.proj.weight f4 [16, 16]
-0.36118513 0.34120113 -0.03255932 -0.16600853 -0.28174642 -0.07215864 0.16832735 -0.26181042
-0.35156202 -0.45753285 -0.29690892 -0.39012748 -0.14900044 0.16956986 0.2256729 -0.30187365
0.17654599 0.3681151 0.07793511 0.29379606 -0.24095348 -0.1297516 -0.21632144 -0.19720155
0.2696676 -0.2994099 -0.2657394 -0.48562646 0.19900118 -0.15231392 0.46715048 -0.046831492
-0.2440184 -0.2619302 -0.42610708 0.13766979 0.1288212 -0.008291892 -0.29496023 0.15700546
0.24016944 0.09768851 0.33153123 -0.4082774 -0.122747816 0.33787185 -0.38649967 -0.043971118
-0.15347373 -0.24414267 0.4096036 -0.14478558 0.3225839 0.14345704 -0.36796474 -0.10522029
0.41357893 -0.25122416 0.16253236 0.31478107 0.30544156 -0.19142333 -0.2916358 0.18951668
0.14827754 -0.20200871 0.025297707 -0.32804537 -0.18354066 -0.36294985 0.033867005 -0.11807887
0.34868425 -0.05665181 0.18190572 0.19421814 0.26926184 0.45550135 -0.13871786 -0.4965176
-0.38288397 0.29419985 0.22911763 0.16189024 -0.3115785 -0.4168447 0.41531873 0.14268032
0.13686092 0.27483898 -0.37425572 -0.122546904 0.44103563 0.3424547 0.3073435 -0.28204173
-0.30316234 -0.37038466 -0.3036738 -0.25452796 -0.30892372 0.37039447 -0.2982326 -0.26670808
0.18788943 -0.17180769 -0.4082789 0.3957943 0.011640179 -0.28289777 -0.008039595 -0.012135013
-0.2005888 0.18405718 0.25873175 0.013241629 -0.25925088 -0.4931289 0.07839961 -0.09787085
0.3587519 0.2240802 -0.06444789 -0.1836947 0.0046093552 -0.27544418 0.08186638 0.2939135
-0.3004425 -0.14113107 0.1539628 -0.28735903 0.14981036 0.11129498 0.47109702 -0.14732264
0.38333732 -0.3521661 0.3057216 0.21696095 0.103629716 0.34837922 -0.029389825 0.2755637
-0.10642979 -0.2425351 0.018552415 0.11044439 -0.32885313 -0.048463635 0.22399232 0.23648283
-0.34165832 0.10435724 0.1695826 0.4234563 0.1859455 0.34035534 -0.29871625 -0.067266434
0.16761136 0.3110323 0.08973619 0.025922071 -0.18530956 0.007793104 -0.43924072 0.09667311
0.22138678 0.026325332 0.36972845 -0.100129105 -0.23677284 0.29911506 0.015767066 0.18286328
-0.1375137 0.028263215 -0.38041124 0.04565569 0.1331799 -0.2613256 -0.12543556 -0.36355004
-0.014209009 0.16380337 -0.26622438 0.455644 0.17275567 -0.30478483 -0.2711303 -0.07926911
-0.09811385 0.38125747 -0.033255007 -0.41429114 -0.011300434 0.40354303 -0.06739612 -0.3033993
0.10098959 0.2169492 -0.06143466 0.25158396 0.21987768 -0.32209474 -0.33707303 0.21288827
0.0708823 -0.0060695633 0.27853745 0.012493941 -0.4025096 -0.20855013 -0.3602756 -0.23730624
-0.1506689 0.089539684 -0.39214915 -0.36316615 -0.12153474 0.35067216 -0.09640778 0.015324258
-0.45746154 -0.4577307 0.010073658 -0.025433464 0.2398153 0.10866634 -0.33196267 -0.32801864
0.31314057 0.17254907 -0.35691527 0.37336782 0.41710898 -0.10697743 -0.29401067 -0.42212388
0.37563828 0.04157905 -0.48329794 -0.29921418 -0.37142694 0.24221455 -0.24934651 -0.10964904
0.17558318 0.4290647 -0.40212822 -0.049529336 0.057585888 0.3931823 0.066669986 0.24279475
00000000: 42ed b8be eab1 ae3e ec5c 05bd 24fe 29be
00000010: 1141 90be e9c7 93bd 015e 2c3e 040c 86be
00000020: f0ff b3be bf41 eabe 7204 98be cabe c7be
00000030: 9293 18be b9a3 2d3e cc16 673e 2f8f 9abe
00000040: 79c8 343e 9579 bc3e 719c 9f3d 706c 963e
00000050: 82bc 76be 9add 04be 5e83 5dbe 34ef 49be
00000060: df11 8a3e 414c 99be ff0e 88be 08a4 f8be
00000070: f7c6 4b3e 2ef8 1bbe 592e ef3e 61d2 3fbd
00000080: f6df 79be b71b 86be b52a dabe 4ff9 0c3e
00000090: b4e9 033e b7da 07bc 0705 97be 0ac6 203e
000000a0: faee 753e ea10 c83d 76be a93e bc09 d1be
000000b0: 3563 fbbd 8afd ac3e 49e3 c5be 0f1b 34bd
000000c0: 3828 1dbe 8900 7abe 90b7 d13e ac42 14be
000000d0: b829 a53e 67e6 123e e065 bcbe bc7d d7bd
000000e0: 9ec0 d33e 74a0 80be e26e 263e fc2a a13e
000000f0: d662 9c3e 7a04 44be 4a51 95be a910 423e
00000100: 11d6 173e 5fdb 4ebe 233d cf3c 90f5 a7be
00000110: 15f2 3bbe 90d4 b9be 21b8 0a3d 56d3 f1bd
00000120: be86 b23e ba0b 68bd 7e45 3a3e 1fe1 463e
00000130: b0dc 893e 7937 e93e 0e0c 0ebe 8e37 febe
00000140: 5e09 c4be 5da1 963e d09d 6a3e 8ec6 253e
00000150: 3887 9fbe ab6c d5be a8a4 d43e ca1a 123e
00000160: 4525 0c3e b2b7 8c3e 729e bfbe dff9 fabd
00000170: 6ccf e13e 3956 af3e 215c 9d3e c667 90be
00000180: 1838 9bbe 0fa3 bdbe 227b 9bbe 7d51 82be
00000190: 402b 9ebe 58a4 bd3e f1b1 98be f68d 88be
000001a0: 1666 403e 5bee 2fbe ef09 d1be 8da5 ca3e
000001b0: 73b6 3e3c fad7 90be 81b8 03bc efd1 46bc
000001c0: 2667 4dbe 7c79 3c3e 7d78 843e 6bf3 583c
000001d0: 88bc 84be 647b fcbe fa8f a03d 8370 c8bd
000001e0: 54ae b73e 4875 653e 41fd 83bd 771a 3cbe
000001f0: 130a 973b 0507 8dbe 90a9 a73d d57b 963e
00000200: 99d3 99be aa84 10be 6da8 1d3e b920 93be
00000210: e367 193e 9fee e33d a133 f13e bfdb 16be
00000220: ca44 c43e 1d4f b4be 8b87 9c3e 032b 5e3e
00000230: d13b d43d c35e b23e eec2 f0bc af16 8d3e
00000240: ddf7 d9bd 1f5b 78be 3cfb 973c ab30 e23d
00000250: 705f a8be ce81 46bd 3e5e 653e 8e28 723e
00000260: d7ed aebe 40b9 d53d 10a7 2d3e 44cf d83e
00000270: 7f68 3e3e 0e43 ae3e 56f1 98be fcc2 89bd
00000280: 50a2 2b3e a03f 9f3e 9cc7 b73d 865a d43c
00000290: cac1 3dbe 4b5d ff3b 29e4 e0be 8dfc c53d
000002a0: 37b3 623e 39a8 d73c 0c4d bd3e 7d10 cdbd
000002b0: 9474 72be 9c25 993e ef29 813c 8340 3b3e
000002c0: 64d0 0cbe 4288 e73c 43c5 c2be 7601 3b3d
000002d0: 5060 083e 78cc 85be 2e72 00be 3b23 babe
000002e0: e7cc 68bc 12bc 273e 904e 88be 2c4a e93e
000002f0: dde6 303e c20c 9cbe 97d1 8abe d857 a2bd
00000300: eaef c8bd 2e34 c33e 6736 08bd f81d d4be
00000310: 7525 39bc 319d ce3e fa06 8abd 2757 9bbe
00000320: a1d3 ce3d ee27 5e3e e9a2 7bbd 9dcf 803e
00000330: 9d27 613e 9ae9 a4be d694 acbe 62ff 593e
00000340: bd2a 913d 30e3 c6bb 769c 8e3e 63b3 4c3c
00000350: bd15 cebe 2a8e 55be 0b76 b8be 6800 73be
00000360: f348 1abe 9560 b73d c6c7 c8be eaf0 b9be
00000370: 35e7 f8bd 4d8b b33e 7171 c5bd 9912 7b3c
00000380: 6638 eabe ae5b eabe fc0b 253c d759 d0bc
00000390: 2492 753e 758c de3d 03f7 a9be 0ff2 a7be
000003a0: f653 a03e b4b0 303e 99bd b6be 112a bf3e
000003b0: 4f8f d53e fc16 dbbd 9188 96be 9f20 d8be
000003c0: a953 c03e cb4e 2a3d d472 f7be 9a32 99be
000003d0: ac2b bebe 1707 783e b154 7fbe ad8f e0bd
000003e0: 14cc 333e 5eae db3e c0e3 cdbe 46df 4abd
000003f0: 2edf 6b3d 314f c93e 468a 883d 309f 783e

encoder.blocks.1.attn.proj.bias f4 [16]
-0.029543601 -0.04552102 -0.012494851 0.0373777 0.026709925 -0.03556396 0.014651566 -0.002530163
-0.047466833 0.019956324 -0.041580327 0.036185604 -0.009784355 -0.02573899 0.057724856 0.040893953
00000000: 6c05 f2bc 4074 3abd 34b7 4cbc 5c19 193d
00000010: c6ce da3c 84ab 11bd 1f0d 703c 17d1 25bb
00000020: 956c 42bd 727b a33c 2250 2abd 5b37 143d
00000030: 8f4e 20bc 93da d2bc e670 6c3d 6b80 273d

encoder.blocks.1.norm2.weight f4 [16]
0.9778079 0.94712687 0.98266035 0.95716745 0.9795465 0.9587444 0.95727223 0.9398558
0.81987256 0.90917784 0.868088 1.0372348 0.83613324 0.93211824 0.783358 1.0284435
00000000: 9e51 7a3f e876 723f a18f 7b3f ed08 753f
00000010: 8fc3 7a3f 4670 753f cb0f 753f 649a 703f
00000020: 2be3 513f e1bf 683f 043b 5e3f 1cc4 843f
00000030: d40c 563f 4d9f 6e3f 268a 483f 09a4 833f

encoder.blocks.1.norm2.bias f4 [16]
0.049522948 0.017930495 0.024017408 0.030118812 0.07825275 -0.039769154 0.014767735 -0.012943221
0.084187284 -0.044131454 0.07335861 0.03773852 -0.10070801 -0.017929517 0.0014006791 0.049251333
00000000: 93d8 4a3d f9e2 923c 28c0 c43c babb f63c
00000010: fa42 a03d fbe4 22bd 5ff4 713c ce0f 54bc
00000020: 626a ac3d 2fc3 34bd 0a3d 963d b593 1a3d
00000030: 0040 cebd ece0 92bc fe96 b73a c4bb 493d
